results/MoveToGoal/MoveToGoal/MoveToGoal-50784.pt (torch, 438431 bytes, 36 tensors)

network_body.linear_encoder.seq_layers.0.weight f4 [128, 6]
0.13169056 -0.2513506 0.025111642 -0.23978731 0.68899816 0.5429327 0.31550306 1.1368504
-0.3717413 0.04547885 0.041765835 0.6067144 0.09040822 -0.06590317 0.7060919 -0.6215498
-0.8640541 -0.6454999 -0.11253418 0.16675654 0.008381348 -0.5560472 -0.2610619 -0.44355136
0.32705486 0.8020916 0.22765301 -0.018181903 -0.6798882 -0.112157084 0.48363367 -0.021369874
0.1783202 0.2506879 -0.6523598 -0.38687783 0.37246746 -0.5324789 -0.24355666 -0.8951039
0.09004661 0.15149646 -0.19641022 -0.15394135 0.0747254 -0.31284532 -0.6833733 0.028810065
-0.19400597 -0.47141927 0.30408186 -0.09021474 0.7738961 0.6872066 0.3362744 0.03936941
0.004751015 -0.61262167 0.14391962 0.14257203 0.18904486 0.7347379 -0.52541876 0.944863
0.8046042 -0.045255154 -0.23699617 0.06660341 0.45299238 0.012552742 -0.73616576 0.19285013
0.40180558 -0.21847469 -0.16289738 -0.32392782 -0.021630323 -0.41289183 0.43194565 0.6528481
0.29782334 0.6059425 -0.40954396 -0.7823906 -0.34430397 0.20335194 -0.63781905 -0.48454174
0.6526361 -0.6076328 0.13970992 -1.0083976 -0.59215707 -0.3483256 -0.15468788 -0.08830632
0.60535145 0.32403064 -0.16574268 -0.4129939 -1.0338147 -0.2838951 -0.2758939 0.5401598
-0.2925607 -0.24334791 0.57518923 -0.49825126 -0.120310485 0.17774132 0.07116109 0.1518065
0.23054335 -0.05818213 -0.49937358 0.21204966 0.42661524 -0.026347747 0.27856475 0.7237105
0.44699302 0.5441179 0.23438773 -0.10324254 0.19553186 -0.68217736 0.32359052 0.46996987
-0.3284332 0.017351756 -0.28929806 0.07370712 0.13537249 0.4423889 0.2416513 -0.4112233
-0.37178972 -0.54103494 -0.32033822 -0.044422664 0.13487855 0.020383758 -0.5347951 -0.41221648
0.10514943 0.4325076 0.28852126 -0.94043213 0.047779735 0.36982873 0.09355888 -0.026835531
-0.24736239 -0.12580965 -0.06466154 0.20027971 -0.5931725 -0.21577814 -0.11961975 -0.38371247
-0.27884933 -0.14701127 0.33242884 0.35614127 -0.12843025 -0.057152696 0.15327616 -0.13436909
0.12844864 -0.40590358 0.3072454 -0.10282896 -0.29935488 -0.4838495 0.0033867822 -0.328431
0.7981994 -0.5782305 0.112342104 -0.39446875 -0.4310384 0.8384768 -0.21073598 0.031213965
-0.22040114 -0.8590787 0.37604487 -0.066769 0.35591576 0.055054568 -0.06751875 0.2449139
0.56565285 0.29779926 -0.18732503 -0.012945949 0.67609 -0.4167334 -0.19911124 0.011765488
-0.25148755 0.0283995 0.0097005125 -0.18119334 0.025256991 0.060461417 -0.12745607 0.16916595
0.103917666 0.280747 -0.03582133 -0.45750296 0.33494565 -0.12805742 0.23740874 -0.19414909
0.27400538 -0.13641784 0.1063187 0.02902259 0.16339219 0.6294102 0.2937535 0.21977751
0.19489175 0.3456173 0.25840506 0.27357924 0.7689724 -0.68655634 -0.21890126 -0.334888
-0.11253654 -0.1593839 0.5720219 0.25273913 0.02627149 -0.22618693 0.67872345 0.06588783
0.20312141 0.25918412 -0.6495037 0.06675751 -0.13992232 -0.15595683 -1.303827 -0.46113557
-0.064526975 0.06324565 0.07025288 -0.6555104 -0.13261123 -0.59402883 -0.043003716 -0.23282638
00000000: e4d9 063e 07b1 80be eeb6 cd3c ce8a 75be
00000010: 2f62 303f a3fd 0a3f 9e89 a13e 5084 913f
00000020: e054 bebe 0848 3a3d a712 2b3d a351 1b3f
00000030: f227 b93d 3ef8 86bd 70c2 343f e31d 1fbf
00000040: a632 5dbf 7b3f 25bf 5278 e6bd 3ac2 2a3e
00000050: ec51 093c 1c59 0ebf e8a9 85be 2a19 e3be
00000060: bc73 a73e e055 4d3f df1d 693e 37f2 94bc
00000070: 270d 2ebf 9db2 e5bd d59e f73e e00f afbc
00000080: 9299 363e 2a5a 803e 0d01 27bf da14 c6be
00000090: 0eb4 be3e 8a50 08bf eb66 79be 8725 65bf
000000a0: 5b6a b83d e321 1b3e c31f 49be cda2 1dbe
000000b0: a109 993d 432d a0be 8df1 2ebf 1603 ec3c
000000c0: 80a9 46be de5d f1be 9eb0 9b3e 81c2 b8bd
000000d0: 0e1e 463f c6ec 2f3f 282c ac3e d241 213d
000000e0: 67ae 9b3b c6d4 1cbf aa5f 133e 67fe 113e
000000f0: fa94 413e c817 3c3f d881 06bf 8be2 713f
00000100: 8afa 4d3f 785d 39bd 20af 72be 5e67 883d
00000110: 9eee e73e 04aa 4d3c 5c75 3cbf 817a 453e
00000120: 76b9 cd3e d4b7 5fbe 92ce 26be ded9 a5be
00000130: 1332 b1bc 8f66 d3be fb27 dd3e 0e21 273f
00000140: 4d7c 983e 0c1f 1b3f bfaf d1be c04a 48bf
00000150: 9c48 b0be 7e3b 503e 1c48 23bf db15 f8be
00000160: 2913 273f d38d 1bbf 1e10 0f3e 2c13 81bf
00000170: 9b97 17bf bc57 b2be 8066 1ebe f2d9 b4bd
00000180: 50f8 1a3f 58e7 a53e 73b8 29be f073 d3be
00000190: 0a54 84bf b35a 91be f741 8dbe ea47 0a3f
000001a0: 84ca 95be 3230 79be 9a3f 133f ca1a ffbe
000001b0: 5865 f6bd d201 363e e8bc 913d 2a73 1b3e
000001c0: 8e13 6c3e 6350 6ebd e5ad ffbe 8c23 593e
000001d0: 506d da3e 3bd7 d7bc 0aa0 8e3e 1745 393f
000001e0: 45dc e43e 504b 0b3f 5603 703e d370 d3bd
000001f0: 8139 483e 2da3 2ebf a8ad a53e e49f f03e
00000200: 6528 a8be 4525 8e3c e01e 94be c2f3 963d
00000210: 169f 0a3e cc80 e23e 7073 773e dc8b d2be
00000220: 395b bebe 4481 0abf 5f03 a4be 8af4 35bd
00000230: 9a1d 0a3e d7fb a63c 55e8 08bf 0a0e d3be
00000240: 9658 d73d a371 dd3e 0fb9 933e 29c0 70bf
00000250: afb4 433d 315a bd3e cc9b bf3d 30d6 dbbc
00000260: 914c 7dbe 3fd4 00be 456d 84bd 2016 4d3e
00000270: 27da 17bf f2f4 5cbe 33fb f4bd f675 c4be
00000280: 57c5 8ebe 1f8a 16be 1d34 aa3e 2658 b63e
00000290: 3883 03be f218 6abd 6df4 1c3e 0d98 09be
000002a0: 0a88 033e 98d2 cfbe 454f 9d3e fd97 d2bd
000002b0: 0b45 99be 1fbb f7be c7f4 5d3b 1c28 a8be
000002c0: cc56 4c3f ea06 14bf 9e13 e63d cff7 c9be
000002d0: 11b1 dcbe 6aa6 563f 2ccb 57be 6eb4 ff3c
000002e0: d6b0 61be 95ec 5bbf f488 c03e 2fbe 88bd
000002f0: 973a b63e e680 613d 4547 8abd b6ca 7a3e
00000300: a0ce 103f 2579 983e 22d2 3fbe 3f1b 54bc
00000310: 3c14 2d3f 155e d5be d1e3 4bbe 09c4 403c
00000320: fac2 80be 11a6 e83c e6ee 1e3c bf8a 39be
00000330: c0e7 ce3c 64a6 773d d883 02be d739 2d3e
00000340: c9d2 d43d 12be 8f3e 63b9 12bd d43d eabe
00000350: ff7d ab3e 7c21 03be 471b 733e 05cf 46be
00000360: 6f4a 8c3e 1eb1 0bbe 9ebd d93d c8c0 ed3c
00000370: 4850 273e 0721 213f dc66 963e 5b0d 613e
00000380: b491 473e c0f4 b03e ab4d 843e 9412 8c3e
00000390: 60db 443f 28c2 2fbf a727 60be 7176 abbe
000003a0: 8f79 e6bd 8835 23be 0770 123f 0667 813e
000003b0: 4f37 d73c 8c9d 67be d2c0 2d3f 33f0 863d
000003c0: 0fff 4f3e c8b3 843e e045 26bf 29b8 883d
000003d0: cc47 0fbe 26b3 1fbe cee3 a6bf f619 ecbe
000003e0: b826 84bd ef86 813d bee0 8f3d 88cf 27bf
000003f0: 3dcb 07be 4612 18bf aa24 30bd 0a6a 6ebe

network_body.linear_encoder.seq_layers.0.bias f4 [128]
0.003150483 -0.09666762 -0.035144374 -0.022444563 -0.06142254 -0.10172712 0.026173888 -0.056569096
0.026000615 0.020767445 -0.07567976 -0.017179234 -0.014758799 -0.056704782 -0.04414619 -0.09525742
0.025537273 -0.069529064 0.00018131996 0.018630926 -0.06997458 -0.016112393 -0.03795409 -0.061621476
-0.048239727 -0.028322442 -0.09734788 -0.06351881 -0.0010852005 -0.02240752 -0.005843366 -0.012178194
-0.07217073 -0.011156871 -0.0254172 -0.06717551 0.006433224 -0.030665604 0.0047144205 -0.023206122
-0.11085673 -0.04988065 0.008490301 -0.0488068 -0.021743627 -0.059663896 -0.009451274 -0.10949474
-0.034659635 -0.029900849 0.036886964 -0.04942375 -0.034901913 -0.034785587 -0.13411638 0.0004062437
-0.043265883 -0.080312714 -0.048883718 -0.03323298 -0.05933437 -0.08771798 -0.049745537 -0.014944129
-0.02358719 -0.018539215 0.027093677 0.0201749 -0.0646606 0.0046279985 -0.08905332 -0.0052370382
-0.09374458 -0.06320845 -0.073114865 0.012707802 -0.051086478 -0.033731688 -0.065840855 -0.02609581
-0.050919663 0.020975297 -0.03453337 0.029943123 -0.055384528 0.022340724 0.027951242 -0.030801209
0.05183294 -0.09297442 -0.057314623 0.008773483 -0.034573425 0.022766156 -0.09355411 -0.023007568
-0.033923447 -0.08758223 -0.045039847 -0.029771235 0.025844052 -0.024796983 -0.031252403 -0.061495993
0.0117683 -0.0402618 -0.088286184 -0.03637736 -0.10471583 -0.048710704 -0.03538483 -0.06461272
-0.052752174 -0.04650907 -0.021733709 -0.031335175 -0.10224652 -0.0020581267 -0.044953294 -0.078378096
0.002753541 -0.05773024 -0.06623347 -0.060256626 0.01684349 -0.06464505 -0.038356926 -0.06246112
00000000: 5578 4e3b acf9 c5bd 8cf3 0fbd a9dd b7bc
00000010: 3496 7bbd 4f56 d0bd 9f6a d63c ffb4 67bd
00000020: 3eff d43c 7d20 aa3c fdfd 9abd 77bb 8cbc
00000030: e4ce 71bc 4643 68bd a3d2 34bd 5216 c3bd
00000040: 8b33 d13c 4165 8ebd b520 3e39 e29f 983c
00000050: d54e 8fbd 23fe 83bc bf75 1bbd cd66 7cbd
00000060: 0597 45bd 7704 e8bc 535e c7bd 2616 82bd
00000070: 493d 8eba fa8f b7bc b579 bfbb 0c87 47bc
00000080: 3fce 93bd 4fcb 36bc bb37 d0bc 5093 89bd
00000090: cbcd d23b 6f36 fbbc 6d7b 9a3b c41a bebc
000000a0: da08 e3bd a74f 4cbd e71a 0b3c a4e9 47bd
000000b0: b11f b2bc 2162 74bd 84d9 1abc c73e e0bd
000000c0: 43f7 0dbd a0f2 f4bc c916 173d 8f70 4abd
000000d0: 4ff5 0ebd 557b 0ebd ce55 09be 1bfd d439
000000e0: 9137 31bd fe7a a4bd 4b3a 48bd 4e1f 08bd
000000f0: 9908 73bd 7ca5 b3bd fac1 4bbd 38d8 74bc
00000100: ec39 c1bc 8ddf 97bc 8ff3 dd3c d545 a53c
00000110: c76c 84bd 77a6 973b 9661 b6bd 769b abbb
00000120: 29fd bfbd 6f73 81bd 3fbd 95bd 6234 503c
00000130: 0e40 51bd 3d2a 0abd 92d7 86bd e1c6 d5bc
00000140: 2391 50bd 63d4 ab3c dd72 0dbd 484b f53c
00000150: e3da 62bd e503 b73c 01fa e43c d152 fcbc
00000160: c74e 543d 5f69 bebd bdc2 6abd a8be 0f3c
00000170: dd9c 0dbd 1780 ba3c 4c99 bfbd 5e7a bcbc
00000180: 50f3 0abd 505e b3bd b47b 38bd cee2 f3bc
00000190: e8b6 d33c 0b23 cbbc 8502 00bd 39e3 7bbd
000001a0: d4cf 403c 8fe9 24bd 63cf b4bd 6d00 15bd
000001b0: 4175 d6bd e084 47bd afef 10bd ac53 84bd
000001c0: aa12 58bd 4b80 3ebd e40a b2bc 5059 00bd
000001d0: a066 d1bd a3e1 06bb f220 38bd b284 a0bd
000001e0: c174 343b 8b76 6cbd 6aa5 87bd a7cf 76bd
000001f0: 5cfb 893c a064 84bd 271c 1dbd 3bd7 7fbd

network_body.linear_encoder.seq_layers.2.weight f4 [128, 128]
0.0017346694 -0.09768735 0.06070939 0.06065211 -0.16896796 -0.07716575 0.063162535 -0.05663704
-0.07451928 0.11881299 -0.03241376 0.1101158 -0.08028484 -0.17008218 0.018134888 0.08701215
-0.08804657 -0.061500184 0.01972338 0.023746409 -0.0045791524 -0.07128159 -0.016308485 0.008049539
0.03266654 0.08963094 -0.07079788 -0.024996575 -0.02565631 0.1533632 0.13301867 0.17742085
-0.08540534 0.11760468 -0.00828446 -0.004590895 0.013899038 -0.085765794 0.023299865 -0.05959645
-0.049074918 -0.09931427 0.0059473813 -0.12950559 0.07720786 -0.088177145 -0.13099077 -0.055755585
0.087006524 -0.16698308 -0.12204951 0.0039862515 -0.11448658 0.016255556 -0.051024687 0.10757737
0.009558564 -0.1763297 -0.14587808 0.10025964 0.13402663 -0.22259973 -0.002620016 -0.16517615
-0.032087866 -0.0096742045 -0.032067113 -0.02133299 -0.23748298 0.114445485 0.027865423 -0.10828076
0.04615879 -0.076083995 0.01915545 0.039149456 -0.087124534 0.031451896 -0.12503944 -0.012741739
0.07621577 0.074593164 0.017350597 -0.21437947 -0.052852307 -0.01984259 -0.050897542 -0.053701475
0.013137772 0.087753594 0.010266934 -0.1502301 -0.046222154 0.034818884 0.05058944 0.061784964
-0.10675765 -0.116148345 -0.0501788 -0.09175595 0.16271648 -0.14331003 0.0015672318 0.07975104
-0.012283814 -0.12409532 -0.06349054 -0.09624914 -0.05417801 0.02818723 -0.11411388 -0.04193769
0.07969949 -0.07429347 -0.034799017 -0.1024707 0.015941035 -0.12355871 0.044257328 -0.13981225
-0.0303836 -0.11319981 0.07680938 -0.082926 -0.04440326 0.05217267 -0.09591672 -0.10673303
-0.21453544 0.029307162 0.023578757 0.10900017 0.036193676 -0.057098232 0.12014048 0.009193861
-0.044254363 -0.037516814 -0.007965003 -0.02998085 -0.10517428 -0.082045294 0.16351345 -0.028101023
-0.12703425 0.03843791 0.042300906 0.00067080837 0.02682886 -0.12498882 -0.03818607 -0.052551538
-0.09986752 0.13154168 0.19470726 -0.10834735 0.1799344 -0.052788705 -0.07984436 0.04296115
-0.078857 0.07721591 0.19413847 -0.059419513 0.0821062 0.1987325 -0.021448685 0.022466183
0.0053144842 -0.10955897 -0.07139556 -0.040985346 0.023123069 0.08633736 -0.17700279 0.059527412
-0.06692092 0.004741582 0.14848402 -0.012662075 0.0080711655 -0.23273437 -0.18751435 -0.1898154
-0.1492073 0.02229275 0.11741675 0.0331532 -0.14533997 -0.00096096663 -0.11790792 -0.00892493
-0.051656786 -0.121466696 -0.11360959 -0.14435482 0.041620456 -0.02276602 -0.16587344 0.08525618
-0.030663887 0.026570277 -0.092161685 0.016714416 0.04867996 -0.0141996695 -0.013951714 0.054929458
0.06887159 -0.06472882 -0.12865001 -0.014326282 -0.097699985 -0.11556209 -0.15959844 -0.042080756
-0.06286708 -0.15100951 -0.14106952 -0.072784975 0.023170995 -0.05600985 0.047053587 0.07317014
0.030352153 -0.10257044 0.020308785 -0.08148119 -0.072251976 -0.01680541 -0.01999348 0.042074677
0.02141159 -0.070133425 -0.13636081 -0.15956847 0.13186666 -0.28141013 -0.07288756 0.008392503
0.017520215 0.0020444598 -0.020402329 -0.13098796 0.029568516 0.052994825 -0.15538459 0.27170762
-0.2527227 -0.13154918 0.09898112 0.010042926 0.061673578 -0.051088054 -0.07822517 0.05515319
00000000: d95d e33a 4e10 c8bd 69aa 783d 596e 783d
00000010: f005 2dbe 1409 9ebd 5c5b 813d 3efc 67bd
00000020: 909d 98bd 3a54 f33d 4ac4 04bd 6484 e13d
00000030: 616c a4bd 062a 2ebe 9e8f 943c 6d33 b23d
00000040: c351 b4bd 9ee7 7bbd ed92 a13c d487 c23c
00000050: b70c 96bb 15fc 91bd 5f99 85bc 37e2 033c
00000060: 5acd 053d 6d90 b73d 7bfe 90bd 9ec5 ccbc
00000070: 2f2d d2bc 3e0b 1d3e 0c36 083e d0ad 353e
00000080: ffe8 aebd b9da f03d 8bbb 07bc 386f 96bb
00000090: cab8 633c faa5 afbd 5cdf be3c 681b 74bd
000000a0: c802 49bd 4865 cbbd 40e2 c23b 1d9d 04be
000000b0: 281f 9e3d 3896 b4bd 7222 06be f85f 64bd
000000c0: 7a30 b23d 9dfd 2abe 18f5 f9bd 1a9f 823b
000000d0: f177 eabd 5f2a 853c 43ff 50bd 8651 dc3d
000000e0: 869b 1c3c c68f 34be 1061 15be ed54 cd3d
000000f0: 473e 093e 2ff1 63be 93b4 2bbb f023 29be
00000100: 916e 03bd 8e80 1ebc ce58 03bd 86c2 aebc
00000110: bd2e 73be 6562 ea3d 0746 e43c 4ec2 ddbd
00000120: 0011 3d3d edd1 9bbd e4eb 9c3c 2e5b 203d
00000130: 596e b2bd b4d3 003d 570a 00be bac2 50bc
00000140: 0317 9c3d 4dc4 983d d722 8e3c 4b86 5bbe
00000150: a97b 58bd ed8c a2bc f179 50bd 14f6 5bbd
00000160: cf3f 573c 28b8 b33d a436 283c ebd5 19be
00000170: 7153 3dbd 3f9e 0e3d df36 4f3d 3b12 7d3d
00000180: c1a3 dabd 2fdf edbd 4988 4dbd 8bea bbbd
00000190: 269f 263e ddbf 12be 936b cd3a 8354 a33d
000001a0: 0d42 49bc b025 febd 5407 82bd 451e c5bd
000001b0: c3e9 5dbd e8e8 e63c 8ab4 e9bd dbc6 2bbd
000001c0: 7c39 a33d 2d27 98bd 6a89 0ebd 29dc d1bd
000001d0: c696 823c 590c fdbd 2c47 353d f12a 0fbe
000001e0: 07e7 f8bc 4dd5 e7bd 3c4e 9d3d 1bd5 a9bd
000001f0: 31e0 35bd 02b3 553d fc6f c4bd d996 dabd
00000200: 2eaf 5bbe 9315 f03c 3d28 c13c 7b3b df3d
00000210: d23f 143d d6df 69bd 360c f63d d9a1 163c
00000220: 1044 35bd 3bab 19bd a57f 02bc 669a f5bc
00000230: 9d65 d7bd 5d07 a8bd 1270 273e 1e34 e6bc
00000240: 4415 02be 1271 1d3d b743 2d3d 30d9 2f3a
00000250: 33c8 db3c 23fa ffbd ff68 1cbd 4840 57bd
00000260: 5887 ccbd ddb2 063e 5761 473e 37e5 ddbd
00000270: b940 383e f838 58bd 7185 a3bd 08f8 2f3d
00000280: c77f a1bd 6023 9e3d 3ccc 463e e061 73bd
00000290: 4c27 a83d 8880 4b3e 27b5 afbc 000b b83c
000002a0: 2025 ae3b 7460 e0bd d637 92bd 40e0 27bd
000002b0: 976c bd3c a4d1 b03d 3840 35be 04d3 733d
000002c0: d60d 89bd 465f 9b3b 320c 183e 9874 4fbc
000002d0: ec3c 043c eb51 6ebe c303 40be f85e 42be
000002e0: ccc9 18be 499f b63c 3178 f03d a6cb 073d
000002f0: 00d4 14be 61e9 7bba b579 f1bd df39 12bc
00000300: 1196 53bd 88c3 f8bd 25ac e8bd c0d1 13be
00000310: 367a 2a3d ce7f babc bada 29be cb9a ae3d
00000320: d532 fbbc e9a9 d93c 44bf bcbd acec 883c
00000330: a364 473d bba5 68bc bb95 64bc b6fd 603d
00000340: 8c0c 8d3d 8b90 84bd d4bc 03be c8b8 6abc
00000350: ee16 c8bd d1ab ecbd c66d 23be df5c 2cbd
00000360: 75c0 80bd 3da2 1abe 8774 10be 4a10 95bd
00000370: 19d1 bd3c 966a 65bd 43bb 403d 3ada 953d
00000380: 14a5 f83c 7310 d2bd 9c5e a63c 9cdf a6bd
00000390: d8f8 93bd 80ab 89bc 5ec9 a3bc 7f56 2c3d
000003a0: 5c67 af3c 1da2 8fbd 2ba2 0bbe eb65 23be
000003b0: 0e08 073e fd14 90be 1346 95bd b580 093c
000003c0: 8e86 8f3c 58fc 053b c922 a7bc b521 06be
000003d0: ac39 f23c 1a11 593d 231d 1fbe 431d 8b3e
000003e0: df64 81be d4b4 06be 9db6 ca3d 168b 243c
000003f0: 6f9d 7c3d b541 51bd 8534 a0bd 50e8 613d

network_body.linear_encoder.seq_layers.2.bias f4 [128]
-0.038571432 -0.049274396 -0.02371972 -0.009239565 0.011084444 -0.026548533 -0.03612007 -0.031916846
-0.0021218618 -0.045947015 -0.010227258 -0.013529529 -0.070040494 0.00014672504 0.018001234 -0.020385846
-0.01767565 0.025261123 0.0710448 -0.0017655179 -0.033072058 0.029526938 -0.007228338 0.018716827
-0.034070525 -0.10725676 -0.09830111 -0.001021996 -0.032386612 -0.005565173 0.02053537 0.003371261
0.016407987 0.08156009 -0.02147091 0.01443867 -0.08206751 -0.0019384733 -0.064075805 0.04290926
0.0050434005 -0.017842758 -0.0432503 0.067068316 -0.00946678 -0.05241818 0.026818823 -0.043285735
0.02426746 -0.057122827 -0.043778807 0.02985325 -0.045634035 0.05252404 -0.030813236 0.0006629659
0.0014430046 0.023138419 0.007952081 0.00067357614 -0.01204058 -0.014792034 -0.023869349 -0.020843446
-0.07516528 -0.024791274 -0.08390274 -0.052374646 -0.015664868 -0.024777472 0.031274494 0.013694646
-0.008744239 0.02788976 -0.0025115288 0.008088205 0.017520966 -0.016955396 0.002525699 0.06264261
0.039796367 0.018123386 -0.016659677 0.029193297 -0.0054143765 -0.025429754 0.00017795913 0.008517611
0.02009403 0.03299764 0.031960547 0.054315016 0.0209218 0.006217473 -0.014609794 0.017091062
-0.008093371 -0.027111635 -0.03467727 -0.011140495 -0.027035264 -0.013424881 -0.0012016558 0.05560552
0.0009197396 -0.014142211 -0.01349884 -0.04862663 0.026763631 0.066928856 0.03913911 -0.0003561039
-0.024312763 -0.025120173 -0.009551163 -0.0042720004 0.026351595 0.033124447 0.037258938 -0.004566501
0.0045518964 -0.01066609 -0.036262978 0.03840072 0.027852194 -0.026249653 -0.004790275 -0.02666592
00000000: 14fd 1dbd f3d3 49bd dc4f c2bc 8b61 17bc
00000010: 879b 353c 4f7c d9bc a3f2 13bd 3dbb 02bd
00000020: ef0e 0bbb f032 3cbd 3b90 27bc f5aa 5dbc
00000030: 6471 8fbd 34da 1939 5377 933c 3800 a7bc
00000040: 86cc 90bc 6af0 ce3c f07f 913d f368 e7ba
00000050: 9176 07bd 7ae2 f13c b2db ecbb 0854 993c
00000060: 898d 0bbd 6fa9 dbbd 1852 c9bd 7ff4 85ba
00000070: d3a7 04bd 0e5c b6bb cb39 a83c 60f0 5c3b
00000080: 0b6a 863c fa08 a73d c3e3 afbc 2c90 6c3c
00000090: 0313 a8bd 5f14 feba 2d3a 83bd 9fc1 2f3d
000000a0: 1c43 a53b fa2a 92bc 3a27 31bd 1d5b 893d
000000b0: 8e1a 1bbc 72b4 56bd 26b3 db3c 624c 31bd
000000c0: 8dcc c63c a0f9 69bd 6851 33bd ce8e f43c
000000d0: c1ea 3abd 7323 573d 0a6c fcbc e3ca 2d3a
000000e0: 3323 bd3a c88c bd3c 7249 023c ee92 303a
000000f0: da45 45bc 4a5a 72bc a789 c3bc e0bf aabc
00000100: 41f0 99bd 1217 cbbc 33d5 abbd cc86 56bd
00000110: 9c53 80bc 20fa cabc af19 003d 825f 603c
00000120: ff43 0fbc 1179 e43c 7698 24bb 6484 043c
00000130: 2188 8f3c 0be6 8abc 3386 253b c54a 803d
00000140: 8401 233d 7f77 943c e079 88bc c826 ef3c
00000150: 156b b1bb 0f52 d0bc 8a9a 3a39 738d 0b3c
00000160: 3c9c a43c 8928 073d 10e9 023d 6c79 5e3d
00000170: 3264 ab3c f2bb cb3b eb5d 6fbc 8e02 8c3c
00000180: 0f9a 04bc 3819 debc c109 0ebd 9f86 36bc
00000190: 0f79 ddbc 08f4 5bbc e180 9dba 9dc2 633d
000001a0: ae1a 713a bbb4 67bc 3d2a 5dbc b82c 47bd
000001b0: 673f db3c ff11 893d 5550 203d 75b3 bab9
000001c0: 8f2b c7bc d2c8 cdbc 7b7c 1cbc 23fc 8bbb
000001d0: 4ddf d73c 80ad 073d d49c 183d 96a2 95bb
000001e0: 1328 953b d3c0 2ebc 7d88 14bd 134a 1d3d
000001f0: 492a e43c 8309 d7bc bdf7 9cbb 7d72 dabc

action_model._continuous_distribution.log_sigma f4 [1, 2]
0.0026137836 0.0063931197
00000000: 034c 2b3b 607d d13b

action_model._continuous_distribution.mu.weight f4 [2, 128]
0.007429922 -0.0003602856 0.009036617 0.0071942527 0.0064647836 0.011871308 -0.019271528 -0.014954637
0.007927634 -0.016780756 -0.004055882 0.010510497 -0.00070973573 0.02682411 0.0325525 -0.02374891
0.03662063 0.032990545 0.035162598 0.0012176207 0.013389037 0.045616683 0.019453913 -0.014665936
-0.0078059584 -0.021293886 -0.011507577 0.0076728137 -0.014871417 -0.012776874 -0.026715063 0.022734543
0.0020662644 0.10170177 -0.015020383 -0.041589342 -0.01880742 0.039657786 -0.010612665 0.059890892
0.025591154 0.014022876 9.504581e-05 -0.038817305 0.0047710966 -0.0066032866 -0.028075468 0.01568944
0.01934309 0.010073634 -0.00790103 -0.035388034 0.0048836158 0.019340176 -0.0051596435 -0.062734865
0.017529128 -0.027345126 0.0025338368 0.020835517 -0.024042131 -0.0018304343 -0.004346062 -0.009111493
-0.0006975283 -0.017260563 -0.006976572 -0.0020456652 0.0033064182 -0.0013010483 0.025873791 0.010402124
0.030953042 0.013590753 0.01117531 5.5049946e-05 0.017162364 -0.004490683 -0.019488316 -0.002696329
0.05670505 -0.02313436 0.005106994 0.03848449 0.0028251258 -0.0035840687 0.01493294 -0.013856405
0.015578439 0.03458127 -0.03006302 0.024921421 0.0042344593 -0.009689152 -0.019378098 0.035156347
-0.011245506 0.008951675 -0.028483113 -0.0048721437 -0.013764749 -0.015858715 -0.031385437 0.055993307
-0.016546382 -0.0033520896 -0.00053413573 0.0024226455 -0.05127222 -0.0030619446 -0.03699809 0.010093059
0.0112232575 -0.011186805 0.010626719 0.03212643 -0.014470329 0.043557912 0.0367811 0.0059599937
0.0007035439 0.01683778 -0.01221946 0.0019963745 -0.0014241943 0.017772615 0.006058741 0.0112964725
0.010601906 0.0032261915 0.0005807316 0.021288445 -0.044094563 -0.004208733 0.006984937 0.021651333
-0.025836593 -0.0054713096 -0.012485654 0.010494758 0.0017090461 0.002910714 -0.0011623015 0.0012747137
-0.017890567 -0.008816057 0.04134264 -0.0366341 0.0015044869 -0.008010781 -0.026933094 0.036446948
-0.0066452674 0.027618345 0.019497817 0.00022189827 -0.0036466615 0.0074388795 0.027969053 0.013238491
0.03937259 -0.023528246 0.0055513326 0.02154376 0.011527174 0.0012334182 -0.009695549 -0.015322459
-0.026027275 0.01315537 -0.00436879 -0.04528881 -0.053284023 0.011401765 -0.038733725 0.016112465
0.013738478 0.024345605 -0.0036317748 0.020110475 0.0031658139 0.033146024 0.020169226 -0.002875465
0.017518705 -0.021929849 -0.007746274 -0.016065784 0.012363975 -0.004876898 -0.01841966 -0.0016875396
0.00012908412 -0.011315344 -0.006961719 0.0038501418 0.03191649 0.0074759754 -0.0049602785 -0.00055579684
-0.003466663 0.0111907385 0.032801922 -0.032600112 -0.03486228 0.014160032 -0.011387027 0.04609261
0.008706076 0.022053197 0.010086676 -0.0056159846 -0.011357484 0.012460408 0.021707049 0.04074442
-0.025896102 0.02287765 -0.04076581 0.027418714 0.0628717 -0.016236141 0.021403564 0.00019889137
0.009224124 -0.0040137903 0.019659366 0.0046276166 -0.011424781 0.011666523 0.010193467 0.01755973
0.02425992 0.0025655332 0.0033486192 0.0025133337 -0.03828062 0.04823857 0.067156255 0.0055261916
0.0072677014 0.0073974077 0.0069004497 0.022060083 -0.026963396 0.018244507 0.027353259 -0.017759776
0.02622701 -0.012828792 0.028194403 -0.023549112 -0.024814682 0.012599875 -0.00012927255 0.000708432
00000000: b476 f33b b7e4 bcb9 520e 143c c4bd eb3b
00000010: 89d6 d33b e07f 423c 53df 9dbc 4b04 75bc
00000020: e8e2 013c cc77 89bc 34e7 84bb 3834 2c3c
00000030: 8f0d 3aba 3cbe db3c c555 053d 138d c2bc
00000040: 84ff 153d 1821 073d a806 103d 9298 9f3a
00000050: b15d 5b3c 8fd8 3a3d d05d 9f3c 6549 70bc
00000060: 20c9 ffbb 8470 aebc 478a 3cbc 3a6c fb3b
00000070: 3ea7 73bc 1856 51bc 8cd9 dabc cb3d ba3c
00000080: 2a6a 073b 0549 d03d 0d18 76bc 9659 2abd
00000090: 0512 9abc 3470 223d bee0 2dbc 2750 753d
000000a0: 8aa4 d13c 34c0 653c 5553 c738 e5fe 1ebd
000000b0: dc56 9c3b 6260 d8bb 86fe e5bc 2487 803c
000000c0: 6675 9e3c e20b 253c 5273 01bc 0bf3 10bd
000000d0: bd06 a03b 4a6f 9e3c 3a12 a9bb 237b 80bd
000000e0: 3f99 8f3c e302 e0bc ba0e 263b 3faf aa3c
000000f0: 01f4 c4bc 2feb efba 6969 8ebb 5f48 15bc
00000100: 55da 36ba 0666 8dbc ba9b e4bb 9110 06bb
00000110: 7eb0 583b f087 aaba 46f5 d33c ac6d 2a3c
00000120: 3c91 fd3c c0ab 5e3c a618 373c 6ee5 6638
00000130: 1698 8c3c 9426 93bb f6a5 9fbc e5b4 30bb
00000140: 8e43 683d 4584 bdbc 9258 a73b eaa1 1d3d
00000150: bf25 393b b2e2 6abb 4aa9 743c fa05 63bc
00000160: b63c 7f3c 17a5 0d3d b946 f6bc 0228 cc3c
00000170: 38c1 8a3b 40bf 1ebc d1be 9ebc 1a00 103d
00000180: 123f 38bc 0caa 123c 6b55 e9bc 81a6 9fbb
00000190: 8b85 61bc 23ea 81bc 048e 00bd 3d59 653d
000001a0: 478c 87bc bbae 5bbb 3e05 0cba 3fc5 1e3b
000001b0: d202 52bd e8aa 48bb 4f8b 17bd 5c5d 253c
000001c0: c1e1 373c dc48 37bc b11b 2e3c 0197 033d
000001d0: f514 6dbc c869 323d c7a7 163d 0d4c c33b
000001e0: 086e 383a 62ef 893c 2134 48bc 9bd5 023b
000001f0: 08ac baba e097 913c 6788 c63b d714 393c
00000200: 9eb3 2d3c 836e 533b 3d3c 183a 1b65 ae3c
00000210: 809c 34bd 69e9 89bb e6e1 e43b 235e b13c
00000220: 43a7 d3bc ac48 b3bb a190 4cbc 35f2 2b3c
00000230: 1202 e03a adc1 3e3b 5e58 98ba 4b14 a73a
00000240: 3d8f 92bc 3971 10bc e656 293d a30d 16bd
00000250: 3432 c53a a73f 03bc cba2 dcbc 6549 153d
00000260: 8bc0 d9bb de3f e23c e3b9 9f3c 5dad 6839
00000270: d4fc 6ebb d8c1 f33b 5b1f e53c 41e6 583c
00000280: 2745 213d 4fbe c0bc f4e7 b53b 8a7c b03c
00000290: 79dc 3c3c a6aa a13a 14da 1ebc 0d0b 7bbc
000002a0: 2737 d5bc 9f89 573c 1128 8fbb c280 39bd
000002b0: 5940 5abd 78ce 3a3c 41a7 1ebd 4afe 833c
000002c0: 5a17 613c 6f70 c73c 1203 6ebb b9be a43c
000002d0: 8b79 4f3b 20c4 073d ef39 a53c 4c72 3cbb
000002e0: 6383 8f3c 3aa6 b3bc 75d4 fdbb 649c 83bc
000002f0: 4592 4a3c 63ce 9fbb d4e4 96bc 6f30 ddba
00000300: c15a 0739 fe63 39bc 221f e4bb a952 7c3b
00000310: deba 023d 07f9 f43b d589 a2bb e5b2 11ba
00000320: f430 63bb 5c59 373c 4f5b 063d b287 05bd
00000330: c0cb 0ebd 7bff 673c a790 3abc 9bcb 3c3d
00000340: eea3 0e3c e8a8 b43c 9642 253c 4b06 b8bb
00000350: be14 3abc bd26 4c3c fbd2 b13c 9fe3 263d
00000360: 1024 d4bc e969 bb3c 0dfa 26bd 369d e03c
00000370: e1c2 803d a801 85bc 8756 af3c 7f8d 5039
00000380: c820 173c 1d86 83bb ae0c a13c 43a3 973b
00000390: 012f 3bbc f224 3f3c 8002 273c 6cd9 8f3c
000003a0: bdbc c63c 8122 283b 8274 5b3b beb6 243b
000003b0: 24cc 1cbd cf95 453d 3889 893d 0e15 b53b
000003c0: e625 ee3b f465 f23b 2b1d e23b 59b7 b43c
000003d0: 57e2 dcbc 8175 953c f113 e03c f37c 91bc
000003e0: 07da d63c db2f 52bc f3f7 e63c 11ea c0bc
000003f0: 2948 cbbc b56f 4e3c 568d 07b9 11b6 393a

action_model._continuous_distribution.mu.bias f4 [2]
0.004556964 0.01011109
00000000: 9652 953b fca8 253c

critic.network_body.linear_encoder.seq_layers.0.weight f4 [128, 6]
0.18878387 -0.40081334 0.16036141 0.71896815 -0.41707626 0.63909495 -0.11912172 0.11195505
-0.74533653 0.14068586 -0.50853395 0.8055182 -0.19118866 0.5978954 -0.16398428 -0.09251292
-0.4568513 -0.32813278 -0.21771112 -0.4487777 0.09822761 -0.9003515 0.17721888 -0.27217153
0.23367743 -0.29106557 0.17874661 0.24092484 -0.07996238 -0.48715228 -0.14652288 0.1426701
-0.42794433 -0.15958752 0.21914485 -0.15059306 0.31213352 0.79934525 -0.48732913 0.22322217
0.5906896 0.11344479 -0.69453 0.43510348 0.4196947 -0.22663812 0.08270489 1.0599878
0.020429866 -0.25899893 -0.33879137 0.17205714 0.468328 -0.2917607 0.27953574 0.35221577
0.13163589 -0.2926578 0.0926229 -0.4176609 -0.23197743 -0.31696063 -0.25030547 0.21818225
0.04504813 -0.3130199 0.21467489 0.18957084 0.43870395 -0.35894725 0.09038572 0.40855858
-0.22771332 0.22289267 -0.47109592 -0.7808949 -0.46891454 -0.28682768 -0.008161759 -0.136587
-0.42684698 -0.15810475 -0.39460424 0.34639564 0.77421474 -0.7678078 0.048055913 -0.21200156
0.019862436 -0.43544364 0.054982405 -0.51932544 -0.057806186 0.5401358 0.39770073 0.035148945
0.15788145 -0.16008838 0.42363375 -0.2493662 0.7280106 -0.0679681 0.21616283 0.02832873
-0.23045348 -0.26080987 0.12706898 0.66067195 0.05816051 0.48495135 0.122372605 0.2789223
0.37258914 0.06717001 -0.2623367 -0.08737808 0.36277947 -0.35394996 -0.87727225 -0.24310897
-0.371794 -0.6527056 0.48996583 -0.09975295 -0.6463049 -0.33039364 -0.6120434 -0.21300699
0.22930388 -0.066842474 0.117866985 -0.71044993 -0.27481788 -0.6321068 -0.090047725 0.5232979
-0.2875407 0.2764838 0.43884927 -0.23669343 -0.07296583 0.24673763 -0.024789404 0.1205711
-0.4736465 0.26738647 0.144563 0.38620245 -0.15481165 -0.4474671 -0.5072723 0.3521728
0.050810378 0.098479174 0.3465152 0.28294632 0.018684072 -0.58250356 -0.16638719 -0.1651918
0.8980617 0.2453162 -0.36924994 0.4769349 -1.0304904 -0.4731973 -0.18592712 -0.5255036
-0.5266103 0.17563027 0.3917353 -0.5067669 -0.4853797 0.12205153 -0.3531465 0.5555743
0.30480057 -0.22581118 0.017210335 -0.62583405 0.56723607 -0.098250024 -0.4352716 0.03260039
-0.37464312 -0.50439405 -0.08431029 0.31493375 0.094310686 -0.3229172 -0.20064557 0.45766312
0.62935185 0.019928457 -0.6331093 -0.009905592 0.099774964 0.31150863 -0.20827715 -0.09938062
-0.6106874 0.4339231 0.56897104 0.814581 0.13779992 -0.17923968 0.004508875 -0.19160856
-0.6629431 0.022100657 -0.042604942 -0.15855008 0.5015241 -0.17059752 -0.35411954 -0.2769092
0.25173232 -0.111390255 0.07834521 -0.20155045 -0.40824467 -0.00404144 -0.40816325 -0.25430146
-0.43368196 -0.45931953 -0.41686714 -0.26878935 0.030138526 0.76362115 0.49139553 -0.8843021
-0.015079803 -0.8245839 -0.2723983 0.74105215 0.4894009 -0.203056 0.20777552 -0.07141874
0.81805843 0.42814475 -0.18126321 0.46712664 0.27188548 -0.4567206 0.21573344 -0.4780281
-0.7781669 0.24195388 -0.3146143 0.4807652 0.12949513 -0.027396286 -0.027369097 0.23550494
00000000: 8f50 413e 6837 cdbe c835 243e 4c0e 383f
00000010: 058b d5be ba9b 233f 17f6 f3bd b048 e53d
00000020: 60ce 3ebf f40f 103e 482f 02bf 7136 4e3f
00000030: f6c6 43be ac0f 193f 7feb 27be 6a77 bdbd
00000040: 6ae8 e9be 0501 a8be aaef 5ebe 31c6 e5be
00000050: 8f2b c93d 707d 66bf de78 353e 115a 8bbe
00000060: 2349 6f3e 8c06 95be 5a09 373e 00b5 763e
00000070: 51c3 a3bd 066c f9be 180a 16be 1c18 123e
00000080: 851b dbbe e96a 23be 8267 603e 1135 1abe
00000090: f7cf 9f3e e4a1 4c3f 3483 f9be 5a94 643e
000000a0: 6f37 173f be55 e83d b8cc 31bf e2c5 de3e
000000b0: 39e2 d63e d313 68be 2e61 a93d aead 873f
000000c0: 895c a73c 829b 84be 1076 adbe bf2f 303e
000000d0: b0c8 ef3e a961 95be 4f1f 8f3e a055 b43e
000000e0: 8fcb 063e 3ed7 95be 13b1 bd3d a6d7 d5be
000000f0: 7e8b 6dbe aa48 a2be 0a28 80be 2b6b 5f3e
00000100: 6384 383d 2544 a0be bcd3 5b3e dc1e 423e
00000110: ce9d e03e efc7 b7be 261c b93d 972e d13e
00000120: ae2d 69be fa3d 643e 7c33 f1be bae8 47bf
00000130: 9115 f0be 14db 92be e6b8 05bc 76dd 0bbe
00000140: b08b dabe 36e6 21be 9109 cabe c55a b13e
00000150: f032 463f 0d8f 44bf 47d6 443d f016 59be
00000160: 8cb6 a23c 78f2 debe 3b35 613d 83f2 04bf
00000170: 2ec6 6cbd 5746 0a3f 6e9f cb3e 57f8 0f3d
00000180: adab 213e 35ee 23be 86e6 d83e da59 7fbe
00000190: e75e 3a3f dc32 8bbd ca59 5d3e a711 e83c
000001a0: fffb 6bbe df88 85be 5f1e 023e cc21 293f
000001b0: b739 6e3d 8b4b f83e 7d9e fa3d e7ce 8e3e
000001c0: 01c4 be3e 6e90 893d ff50 86be 47f3 b2bd
000001d0: 3bbe b93e ee38 b5be ea94 60bf 8ff1 78be
000001e0: c85b bebe b717 27bf cddc fa3e 464b ccbd
000001f0: 3d74 25bf 5b29 a9be e0ae 1cbf 811e 5abe
00000200: a3ce 6a3e b5e4 88bd 3f64 f13d 0ce0 35bf
00000210: eeb4 8cbe c0d1 21bf f16a b8bd daf6 053f
00000220: 8938 93be 498f 8d3e dab0 e03e c35f 72be
00000230: 1c6f 95bd caa8 7c3e 2613 cbbc fbed f63d
00000240: cb81 f2be e1e6 883e 5308 143e 54bc c53e
00000250: f286 1ebe 681a e5be 99dc 01bf fe4f b43e
00000260: 8b1e 503d 73af c93d 716a b13e 57de 903e
00000270: 570f 993c f41e 15bf 6761 2abe 0a28 29be
00000280: 5fe7 653f 2c34 7b3e 540e bdbe d030 f43e
00000290: 1ce7 83bf eb46 f2be ae63 3ebe 6787 06bf
000002a0: efcf 06bf 6cd8 333e 8791 c83e 7abb 01bf
000002b0: b083 f8be 27f6 f93d 9ecf b4be 1e3a 0e3f
000002c0: d20e 9c3e 0c3b 67be b0fc 8c3c a936 20bf
000002d0: 6236 113f 4f37 c9bd ebdb debe fd87 053d
000002e0: 39d1 bfbe f81f 01bf e0aa acbd ff3e a13e
000002f0: f625 c13d 6755 a5be 0876 4dbe d252 ea3e
00000300: 341d 213f 0141 a33c 7313 22bf 104b 22bc
00000310: d156 cc3d 0f7e 9f3e 9b46 55be 1188 cbbd
00000320: 0256 1cbf 2b2b de3e 16a8 113f 6188 503f
00000330: 6c1b 0d3e 9b8a 37be 2fbf 933b 0935 44be
00000340: a4b6 29bf 700c b53c 8582 2ebd f45a 22be
00000350: e263 003f 1eb1 2ebe 284f b5be 0bc7 8dbe
00000360: 0fe3 803e 9320 e4bd 7473 a03d 3e63 4ebe
00000370: 7205 d1be 0e6e 84bb c6fa d0be cd33 82be
00000380: 900b debe ee2b ebbe 9c6f d5be c29e 89be
00000390: 12e5 f63c ad7c 433f 3298 fb3e 9f61 62bf
000003a0: 4711 77bc ee17 53bf ca77 8bbe 98b5 3d3f
000003b0: c192 fa3e e9ed 4fbe 1bc3 543e fd43 92bd
000003c0: 476c 513f ca35 db3e 109d 39be 392b ef3e
000003d0: 9334 8b3e 48d7 e9be 3ae9 5c3e 19c0 f4be
000003e0: f235 47bf c2c2 773e 2015 a1be db26 f63e
000003f0: 5f9a 043e 2d6e e0bc 2835 e0bc 3528 713e

critic.network_body.linear_encoder.seq_layers.0.bias f4 [128]
-0.07256278 -0.05509492 0.019212931 0.05505051 -0.03627453 -0.095099755 -0.09625855 -0.034281265
-0.0043425304 -0.0017272026 -0.021734506 -0.035356168 0.009532091 -0.063759975 0.033275966 -0.078523606
0.021749502 -0.07929149 -0.00803138 -0.09269987 -0.00067214936 -0.071924634 0.07901058 -0.12356017
-0.017173054 0.08111731 0.05517214 -0.056672852 -0.075568885 -0.11162021 0.07825244 -0.053541016
-0.018210704 0.06841338 -0.0817748 -0.00678043 0.032490548 -0.060466632 -0.08635996 -0.03602184
0.029210702 0.03325325 0.025291177 -0.09949771 -0.08992644 -0.03992474 -0.035716712 -0.06333438
-0.06652696 -0.06510301 -0.030050682 0.04800014 -0.13680694 -0.04931116 0.018387206 -0.050487652
-0.12819299 -0.027961696 -0.090998575 -0.07008659 -0.19998689 -0.009564924 -0.07341228 -0.02599657
-0.09601158 0.0011432177 -0.12287086 -0.018944327 0.02593575 0.018504983 0.029073626 -0.022388235
0.043574944 0.020819405 -0.01759084 0.02682735 -0.03910588 0.05704077 0.013102297 -0.031042134
-0.10829435 -0.051890347 0.0589442 0.00945921 0.011410472 -0.06835666 -0.029846372 -0.06693346
-0.10912792 -0.007946572 -0.026048379 -0.089427985 -0.02266697 -0.018129148 0.023124995 0.007488388
-0.11263122 -0.037719663 -0.07617744 -0.077421516 0.11090095 0.045764703 -0.09274584 -0.018953051
0.041422553 -0.016919255 -0.013459727 0.040120643 -0.07961767 0.048869018 -0.05225577 -0.15805887
-0.08029357 -0.04681863 -0.050644495 0.0697348 -0.08473235 0.020206299 0.052972753 -0.0280968
0.103458814 -0.084904574 -0.07208201 -0.017108116 0.0647165 0.043551754 -0.17962089 0.042105492
00000000: cb9b 94bd 36ab 61bd 7064 9d3c a57c 613d
00000010: 9a94 14bd a9c3 c2bd 3423 c5bd 836a 0cbd
00000020: c94b 8ebb 4d63 e2ba 900c b2bc a1d1 10bd
00000030: 7d2c 1c3c 9794 82bd 614c 083d fcd0 a0bd
00000040: 032c b23c 9463 a2bd 0d96 03bc 6ed9 bdbd
00000050: 2e33 30ba 394d 93bd 4dd0 a13d 1d0d fdbd
00000060: 81ae 8cbc d520 a63d 2ffc 613d cb21 68bd
00000070: dcc3 9abd 2399 e4bd d142 a03d d34d 5bbd
00000080: 9d2e 95bc 501c 8c3d 8c79 a7bd 5f2e debb
00000090: cf14 053d dcab 77bd 7edd b0bd a38b 13bd
000000a0: 484b ef3c 8f34 083d 712f cf3c 75c5 cbbd
000000b0: 5a2b b8bd 2088 23bd b04b 12bd 75b5 81bd
000000c0: 493f 88bd ba54 85bd d92c f6bc cb9b 443d
000000d0: 1e17 0cbe 80fa 49bd c4a0 963c 24cc 4ebd
000000e0: 0645 03be ed0f e5bc 765d babd 8f89 8fbd
000000f0: 5dc9 4cbe 33b6 1cbc 2d59 96bd c2f6 d4bc
00000100: b8a1 c4bd 05d8 953a b8a3 fbbd 2231 9bbc
00000110: 3677 d43c c397 973c d02b ee3c 8867 b7bc
00000120: a47b 323d 758d aa3c aa1a 90bc 08c5 db3c
00000130: 7d2d 20bd 95a3 693d 04ab 563c 134c febc
00000140: 6ec9 ddbd f98a 54bd 796f 713d cdfa 1a3c
00000150: fdf2 3a3c 94fe 8bbd 6180 f4bc 6914 89bd
00000160: 757e dfbd 5732 02bc 6963 d5bc 0526 b7bd
00000170: 15b0 b9bc 9483 94bc a170 bd3c 2761 f53b
00000180: 32ab e6bd ef7f 1abd eb02 9cbd 2c8f 9ebd
00000190: 0a20 e33d c573 3b3d 88f1 bdbd 6e43 9bbc
000001a0: b2aa 293d 409a 8abc 3086 5cbc 8b55 243d
000001b0: 970e a3bd e12a 483d 250a 56bd 2fda 21be
000001c0: f570 a4bd e4c4 3fbd 9a70 4fbd 1ed1 8e3d
000001d0: 2888 adbd ae87 a53c f5f9 583d 432b e6bc
000001e0: 37e2 d33d 73e2 adbd bc9f 93bd 5226 8cbc
000001f0: 168a 843d 5363 323d 8aee 37be cf76 2c3d

critic.network_body.linear_encoder.seq_layers.2.weight f4 [128, 128]
-0.057517946 -0.1401763 0.00043139962 -0.09224735 -0.092488214 0.12218062 -0.07139974 -0.00865925
-0.09983972 -0.07035069 -0.17568336 -0.001131058 0.07300944 -0.028224874 0.096373454 -0.11116528
0.0059843725 -0.09254592 0.0014828426 0.21044004 0.024026288 -0.09749738 0.19214737 -0.045358453
-0.09217867 0.037768416 -0.11690533 -0.112845376 0.10191715 0.0525002 -0.17180818 0.077953435
-0.051150955 -0.023088772 -0.0076328223 -0.121182024 0.003422912 0.11968895 -0.0043521966 0.07702589
-0.21094094 -0.15506683 -0.25215018 -0.011093142 0.07147882 0.008301092 0.06572984 -0.13713028
-0.04810979 -0.039719895 0.07313887 -0.037245933 -0.025046205 0.09278436 -0.17980972 0.10877828
0.13493595 -0.026735809 -0.20268781 -0.042931378 -0.11453557 -0.07917797 0.09738032 0.055147275
-0.079347365 -0.043399207 -0.1154417 0.05019189 -0.13949516 0.007139077 0.025420412 0.041386425
0.06538763 -0.13265286 -0.11373894 0.06090321 -0.159788 -0.10887513 0.16619049 0.028070077
0.040833525 -0.035985127 0.14697532 -0.08900956 -0.04781427 -0.1850892 -0.16990231 -0.13326262
0.033891834 -0.022983668 -0.0161182 0.19997086 -0.11630912 -0.03826024 0.07033534 -0.028609013
0.078293264 -0.018980857 0.10995455 0.08452382 0.17949156 -0.027266197 0.15074836 0.046207856
0.104325 0.045094684 -0.001412119 -0.010758311 -0.069584094 -0.014547533 0.026903804 -0.00719763
-0.106498875 -0.058468986 -0.021929115 0.06446956 -0.17224541 0.03247572 0.0796029 0.0055485074
-0.119941846 0.049882814 -0.03147762 -0.101856 0.027229551 -0.096385054 0.044146184 -0.05353284
-0.12220724 -0.015449101 -0.0788074 -0.0020281372 -0.14795302 -0.18203819 -0.015816517 0.016835438
0.023446657 -0.107148 0.12518919 -0.05918211 0.104603164 0.028930457 -0.1809122 -0.07612793
0.056452837 -0.089177616 -0.06226004 -0.02207231 -0.048186358 -0.057483047 -0.18547334 -0.09760939
0.029475866 -0.013690881 -0.18579872 0.11336372 -0.040072914 0.10469758 0.055759158 0.08847469
-0.041375585 0.09164874 0.013808476 -0.21864457 -0.000551928 -0.026017567 0.052856322 0.016333777
-0.089314066 -0.020263508 0.010077589 0.03819125 -0.14204131 -0.055154767 -0.0071454747 -0.0779611
-0.07353894 0.050829723 0.08271768 0.08577318 -0.24045222 0.030525587 0.10719321 0.015026308
0.04984896 0.069038935 0.10253877 -0.05411844 -0.042450182 -0.0584191 -0.14882599 0.11029679
-0.010895845 -0.06295763 -0.009365311 -0.08797912 -0.051420704 0.06486625 -0.1499266 -0.12784275
0.13686109 0.008559247 -0.17988786 -0.17462471 -0.150573 -0.07357556 -0.082574256 -0.090309486
-0.17547609 -0.07768779 -0.13157994 -0.104647405 -0.27848464 0.12969342 -0.17262515 -0.099801116
-0.10499305 0.10002122 -0.13862312 -0.07759088 -0.055996295 0.04526905 -0.060669333 -0.023432892
-0.16452 0.05924386 0.008873933 -0.012209862 -0.10950976 0.023090418 -0.20497666 -0.024760867
-0.09370013 -0.21234953 -0.12704644 0.004478272 -0.0927775 -0.022674788 -0.040125273 0.10124704
-0.08447538 -0.029760191 -0.0756968 0.010830263 -0.14570722 0.07288396 0.045441072 -0.10911355
-0.021327706 -0.005620342 -0.0035363704 -0.09956546 0.041604698 -0.10312676 -0.21660759 -0.12897936
00000000: f097 6bbd 608a 0fbe 7a2d e239 2eec bcbd
00000010: 766a bdbd d539 fa3d 073a 92bd 87df 0dbc
00000020: c478 ccbd 0614 90bd 57e6 33be 0240 94ba
00000030: f985 953d da37 e7bc 725f c53d 9faa e3bd
00000040: 8e18 c43b b788 bdbd f15b c23a 987d 573e
00000050: c7d2 c43c b5ac c7bd 48c2 443e c9c9 39bd
00000060: 2cc8 bcbd 0eb3 1a3d 106c efbd 7a1b e7bd
00000070: f0b9 d03d 730a 573d 7cee 2fbe 0da6 9f3d
00000080: aa83 51bd aa24 bdbc c11c fabb 482e f8bd
00000090: ef52 603b 7b1f f53d df9c 8ebb c0bf 9d3d
000000a0: e700 58be d7c9 1ebe d419 81be 03c0 35bc
000000b0: 7d63 923d 4e01 083c 5e9d 863d e16b 0cbe
000000c0: c50e 45bd 54b1 22bd d5c9 953d 318f 18bd
000000d0: b32d cdbc ba05 be3d 0a20 38be 26c7 de3d
000000e0: a62c 0a3e 0e05 dbbc 658d 4fbe d0d8 2fbd
000000f0: a091 eabd 0f28 a2bd 556f c73d 1ce2 613d
00000100: df80 a2bd 5ec3 31bd b36c ecbd 0396 4d3d
00000110: d2d7 0ebe ebee e93b 783e d03c d084 293d
00000120: f3e9 853d 27d6 07be f6ef e8bd a575 793d
00000130: 779f 23be edf9 debd d72d 2a3e 38f3 e53c
00000140: 0e41 273d 2465 13bd b380 163e a54a b6bd
00000150: e5d8 43bd 0688 3dbe dffa 2dbe ff75 08be
00000160: 2ad2 0a3d 3f48 bcbc 510a 84bc 29c5 4c3e
00000170: 7a33 eebd c5b6 1cbd fa0b 903d 735d eabc
00000180: 3858 a03d be7d 9bbc da2f e13d d31a ad3d
00000190: a3cc 373e 5c5d dfbc c75d 1a3e 7344 3d3d
000001a0: 58a8 d53d 34b5 383d da16 b9ba a043 30bc
000001b0: 1b82 8ebd c758 6ebc 5e65 dc3c 19da ebbb
000001c0: 151c dabd 2d7d 6fbd b0a4 b3bc 9e08 843d
000001d0: 1a61 30be 4305 053d d806 a33d 41d0 b53b
000001e0: 12a4 f5bd ec51 4c3d adee 00bd e199 d0bd
000001f0: 8210 df3c 8765 c5bd a1d2 343d 4045 5bbd
00000200: ca47 fabd 3a1e 7dbc c665 a1bd 7fea 04bb
00000210: ff80 17be 3868 3abe a491 81bc 79ea 893c
00000220: 3413 c03c 6970 dbbd 9831 003e f168 72bd
00000230: 2f3a d63d 91ff ec3c 0c41 39be f6e8 9bbd
00000240: 173b 673d c1a2 b6bd 6204 7fbd fdd0 b4bc
00000250: 0f5f 45bd 5873 6bbd b9ec 3dbe 6fe7 c7bd
00000260: 5f77 f13c b84f 60bc 0542 3ebe 3d2b e83d
00000270: 7f23 24bd af6b d63d b763 643d 3832 b53d
00000280: 7279 29bd 56b2 bb3d f23c 623c 5de4 5fbe
00000290: 43af 10ba cb22 d5bc df7f 583d 6ace 853c
000002a0: 4bea b6bd a8ff a5bc 791c 253c 6e6e 1c3d
000002b0: 4773 11be f7e9 61bd 9624 eabb 12aa 9fbd
000002c0: 959b 96bd d432 503d e367 a93d d9a9 af3d
000002d0: 1b39 76be cc10 fa3c 1d88 db3d e730 763c
000002e0: 6c2e 4c3d 4964 8d3d d9ff d13d 4cab 5dbd
000002f0: 3ee0 2dbd de48 6fbd d765 18be 49e3 e13d
00000300: 7c84 32bc eeef 80bd f670 19bc 662e b4bd
00000310: 849e 52bd 99d8 843d 5c86 19be 36e9 02be
00000320: 5025 0c3e 153c 0c3c 8634 38be d2d0 32be
00000330: cf2f 1abe c8ae 96bd b11c a9bd 2ef4 b8bd
00000340: 01b0 33be c71a 9fbd e4bc 06be 6151 d6bd
00000350: 8a95 8ebe 5ace 043e a6c4 30be 8764 ccbd
00000360: 9906 d7bd edd7 cc3d 38f3 0dbe f8e7 9ebd
00000370: 5f5c 65bd 0a6c 393d 6880 78bd 56f6 bfbc
00000380: ee77 28be b1a9 723d f963 113c df0b 48bc
00000390: a746 e0bd 1e28 bd3c 67e5 51be 4dd7 cabc
000003a0: dbe5 bfbd 2872 59be 7618 02be 78be 923b
000003b0: 2102 bebd 7ac0 b9bc 665a 24bd 9c5a cf3d
000003c0: 6e01 adbd a5cb f3bc ed06 9bbd 6a71 313c
000003d0: 4634 15be 3044 953d 6b20 3a3d ed76 dfbd
000003e0: 71b7 aebc d92a b8bb 73c2 67bb fae8 cbbd
000003f0: b069 2a3d 1f34 d3bd 61ce 5dbe 2a13 04be

critic.network_body.linear_encoder.seq_layers.2.bias f4 [128]
0.016139833 0.1511949 0.053952977 -0.14962938 -0.08212808 0.057866853 -0.09341274 0.04454409
0.10620875 0.038220245 -0.09552918 0.064593226 -0.08740697 -0.072042465 -0.07461465 0.062721245
0.07189381 -0.1374781 0.06996659 -0.13174015 -0.021301199 -0.08329867 -0.06254152 0.059386976
-0.08559817 -0.08399552 -0.07446902 -0.19628695 -0.15629238 -0.19515036 -0.15701152 0.029151447
0.06796291 -0.09710094 -0.063982636 0.052812938 -0.08233677 0.0390756 0.06578787 -0.18297511
-0.10090173 0.035156053 -0.080429 -0.10048731 0.09803145 0.06858396 0.048897747 -0.13723259
-0.15564641 -0.19305924 0.03510076 -0.1439618 0.04694258 0.11750297 -0.09912966 -0.112168595
-0.09249289 -0.12410352 0.020466864 0.0762619 -0.10699814 0.06458174 -0.07767301 -0.055714328
0.03467639 0.07267717 -0.0662679 -0.07704505 0.02910431 0.0164855 -0.075582586 -0.05600782
0.027497321 0.045403007 -0.09788387 -0.060965426 0.13018394 -0.062768936 0.03906296 0.04666642
-0.09572742 0.052959 0.015973663 0.025861522 -0.029718064 -0.13883841 -0.1665675 -0.09232441
-0.07962864 0.022547502 -0.06918595 -0.06710636 0.074663356 0.03962745 -0.07851951 0.061086137
0.012033234 -0.13066447 0.044077974 -0.0060877097 0.005117392 0.054094333 0.034987543 -0.098130465
-0.14814408 0.0417808 -0.15696174 0.047147278 -0.1904079 -0.11228083 -0.17272684 0.0638869
0.02822064 -0.08503967 -0.11822237 0.050739955 -0.07265752 -0.07337275 -0.16482703 -0.124017864
0.22281325 0.01799664 -0.07024273 0.019294275 -0.12476024 0.047623597 -0.1248061 0.049456622
00000000: af37 843c d6d2 1a3e ccfd 5c3d 7238 19be
00000010: c432 a8bd cb05 6d3d 2e4f bfbd dd73 363d
00000020: f983 d93d d58c 1c3d cda4 c3bd 7449 843d
00000030: 6d02 b3bd 008b 93bd 91cf 98bd ff73 803d
00000040: 103d 933d 0fc7 0cbe a54a 8f3d e4e6 06be
00000050: da7f aebc 7e98 aabd c515 80bd c23f 733d
00000060: 184e afbd d805 acbd 3783 98bd 72ff 48be
00000070: 1c0b 20be 7fd5 47be a1c7 20be 04cf ee3c
00000080: 2330 8b3d dcdc c6bd 5409 83bd 6152 583d
00000090: 2ea0 a8bd bd0d 203d cabb 863d d45d 3bbe
000000a0: 91a5 cebd cbff 0f3d f6b7 a4bd 4acc cdbd
000000b0: b6c4 c83d bf75 8c3d 0149 483d b386 0cbe
000000c0: c661 1fbe 52b1 45be d1c5 0f3d b96a 13be
000000d0: dd46 403d 66a5 f03d 7e04 cbbd a6b8 e5bd
000000e0: ea6c bdbd fc29 febd 20aa a73c 332f 9c3d
000000f0: d721 dbbd 6e43 843d 0713 9fbd b534 64bd
00000100: d508 0e3d c5d7 943d 77b7 87bd ccc9 9dbd
00000110: 296c ee3c 990c 873c 0bcb 9abd 7568 65bd
00000120: 1042 e13c 81f8 393d 5777 c8bd e2b6 79bd
00000130: f04e 053e 008d 80bd 7b00 203d 4a25 3f3d
00000140: bd0c c4bd 89eb 583d 33db 823c 8bdb d33c
00000150: 4c73 f3bc a82b 0ebe ac90 2abe 9514 bdbd
00000160: 5714 a3bd 8ab5 b83c 5db1 8dbd 0f6f 89bd
00000170: 1ae9 983d 6550 223d d6ce a0bd 7535 7a3d
00000180: 0b27 453c e8cc 05be 1b8b 343d 697b c7bb
00000190: ccaf a73b 0592 5d3d 194f 0f3d a0f8 c8bd
000001a0: 15b3 17be 5822 2b3d 94ba 20be 811d 413d
000001b0: 4afa 42be 7ef3 e5bd 4edf 30be 23d7 823d
000001c0: f92e e73c 4729 aebd 921e f2bd b3d4 4f3d
000001d0: 77cd 94bd 7444 96bd 6bc8 28be 14fd fdbd
000001e0: 2829 643e b16d 933c 6cdb 8fbd 070f 9e3c
000001f0: 4c82 ffbd f610 433d 579a ffbd 0793 4a3d

critic.value_heads.value_heads.extrinsic.weight f4 [1, 128]
0.0008830822 0.011055104 0.12821198 -0.029351322 0.0026933711 0.04372017 -0.0031382872 0.1074784
0.023812879 0.10011957 -0.007505367 0.06006679 -0.005292486 -0.09403578 -0.12879936 0.12275372
0.08809744 -0.08858655 0.061868656 -0.05970922 -0.013851826 -0.071608365 -0.07214965 0.034429733
-0.020031748 -0.06685743 -0.090520784 -0.18359222 -0.08848206 -0.18823701 -0.21348184 0.0909946
0.041358273 -0.050214577 -0.05167133 0.057327468 -0.048314888 0.145272 0.0022967313 -0.13121095
-0.07281298 0.0059704124 -0.027775768 -0.13266246 0.061011706 0.020981645 0.044704292 -0.020503407
-0.21718206 -0.17433205 -0.0022645278 -0.18476422 0.13632923 0.117421836 -0.15293814 -0.1598876
-0.028694732 -0.04010013 0.0010641661 0.053770263 -0.064633325 0.089209996 -0.12787569 -0.010040305
0.08516437 0.033145815 -0.0078966655 -0.005271738 0.05388967 -0.01950492 -0.11580378 -0.022098515
-0.0035456142 0.114788175 -0.0014655581 -0.01374508 0.09500777 -0.09571458 -0.0017418878 0.082635395
-0.025760103 0.058604803 -0.00033581414 -0.031928644 -0.011023323 -0.10126031 -0.157295 -0.070690535
-0.1423003 -0.006358146 -0.006734814 -0.025200717 0.03705305 0.1113519 -0.16118339 0.014803723
-0.0030182486 -0.14434505 0.14860237 -0.0069070132 -0.0018466412 0.03393875 0.007511295 -0.06852004
-0.051873345 0.0026102455 -0.025385033 0.053919945 -0.1300375 -0.20086797 -0.060512643 0.07567108
0.019763598 -0.04638605 -0.05732892 0.110273026 -0.12218069 -0.06714156 -0.102433674 -0.1141439
0.08765087 -0.025522897 -0.044631004 0.0010155011 -0.04514081 0.03223065 -0.1766822 0.09316579
00000000: a57e 673a 7820 353c 004a 033e 2f72 f0bc
00000010: 4583 303b ec13 333d b9ab 4dbb a31d dc3d
00000020: 3a13 c33c 7d0b cd3d 95ef f5bb 9808 763d
00000030: 976c adbb d595 c0bd fbe3 03be 4d66 fb3d
00000040: 6e6c b43d dd6c b5bd fd69 7d3d a891 74bd
00000050: c5f2 62bc 68a7 92bd 32c3 93bd 3106 0d3d
00000060: 9f19 a4bc 8cec 88bd f662 b9bd 99ff 3bbe
00000070: 1536 b5bd 34c1 40be fc9a 5abe 605b ba3d
00000080: 4b67 293d cdad 4dbd 51a5 53bd 35d0 6a3d
00000090: d5e5 45bd 2fc2 143e c284 163b 2a5c 06be
000000a0: f91e 95bd 73a3 c33b 028a e3bc abd8 07be
000000b0: 69e7 793d b3e1 ab3c d91b 373d c3f6 a7bc
000000c0: f964 5ebe 1a84 32be 7968 14bb d532 3dbe
000000d0: e499 0b3e dc7a f03d d19b 1cbe 93b9 23be
000000e0: 3711 ebbc 0940 24bd 7d7b 8b3a 353e 5c3d
000000f0: 7a5e 84bd bbb3 b63d d8f1 02be 1780 24bc
00000100: a86a ae3d e8c3 073d 0461 01bc 8bbe acbb
00000110: 6abb 5c3d c8c8 9fbc 882a edbd f207 b5bc
00000120: 895d 68bb 1016 eb3d f817 c0ba 0b33 61bc
00000130: 6f93 c23d 0106 c4bd 0e50 e4ba bf3c a93d
00000140: da06 d3bc 970b 703d 3610 b0b9 9cc7 02bd
00000150: 2b9b 34bc 9161 cfbd f111 21be 33c6 90bd
00000160: 2bb7 11be ff57 d0bb b7af dcbb bc71 cebc
00000170: f0c4 173d 770c e43d 420d 25be 518b 723c
00000180: cfcd 45bb 30cf 13be 382b 183e 3a54 e2bb
00000190: ff0a f2ba 5c03 0b3d 4f21 f63b 3c54 8cbd
000001a0: 2579 54bd a710 2b3b 46f4 cfbc 29db 5c3d
000001b0: 8d28 05be 55b0 4dbe 1bdc 77bd 70f9 9a3d
000001c0: 45e7 a13c 4cff 3dbd bbd1 6abd d3d6 e13d
000001d0: df39 fabd 8481 89bd bfc8 d1bd 47c4 e9bd
000001e0: 4d82 b33d 6515 d1bc 00cf 36bd 901a 853a
000001f0: 92e5 38bd 4904 043d 2eec 34be b5cd be3d
