results/ppo/Car Agent.onnx (onnx, 74578 bytes, 9 tensors)

action_model._continuous_distribution.log_sigma f4 [1, 2]
00000000: 486d 2b3d 90fb 5b3d
0.041852266 0.053706706

action_model._continuous_distribution.mu.bias f4 [2]
00000000: 30fc b2bb 8ba7 bf3b
-0.005462192 0.00584883

action_model._continuous_distribution.mu.weight f4 [2, 128]
00000000: 50a0 b3bb f3c2 503c 6d33 e5bb be72 5c3c
00000010: 49b5 dcb9 c112 0ebc ecf0 09bc 7752 283c
00000020: b9f6 b3bc 4c03 9e3c 06af f6bc efa6 2dbc
00000030: de9c d2bb 9f20 f73a 33ff 47ba 94a4 72b8
00000040: b7b1 763b 7533 cd3b cf70 023d 3487 0c3d
00000050: 5ba7 a539 209c ba3b b9cd d0bc 7b19 073c
00000060: ee0b 793c 7e56 373c b0f9 bd3b 6c4a f33b
00000070: 5e41 de3c f3a0 07bc b2ee dc3c 30c7 86bc
00000080: a151 41bc 6261 543b d855 e2bc 6d96 033c
00000090: d488 0ebc a4ef d439 fab8 55ba f858 873c
000000a0: eb0e 323c 937d 3c3c 74a9 dbbb bfee 2a3c
000000b0: 2336 a2bc 9363 d53c 73fb 76bc bce8 96bc
000000c0: de25 903c c3cb d2bc 01e4 b2bc 09eb 913c
000000d0: 14ea b93c 10f8 b73c 0a20 833c 2d1e c33c
000000e0: 1de8 bb3c b344 bdbc 2c54 96bc 4099 cfbc
000000f0: 0cbb fcba ffab 84bd a712 313d 6e8e c33c
00000100: fedb 853b 7c08 2ebc f2c7 bbbc e4e7 8cb7
00000110: 4abd 37bc 0ade 94bc 3ae4 c0bb e8dc 5ebc
00000120: 923f dbba c2ac 283c 8d96 a8ba fac6 613c
00000130: 2d51 b7bc 1b32 953c 3df8 98bb a821 21bc
00000140: 42a8 273d 57d8 94bc c7b9 3bbb 5c44 393c
00000150: 96ba fbbc 9a17 0f3d 3624 bd3c 24d8 973c
00000160: fec2 043c 40df bb3a 7f17 173c 971a d63b
00000170: 8a91 50bc 4a7a 813c 3cab df3c cd57 f2bb
00000180: adda f93c 522d 10bb 9a1f 5f3c b49c 65bb
00000190: 64e9 a9bc 86b3 463c 8b7e 4b3c 1ef1 4a3c
000001a0: e3e3 93bc 938a 5d3c a220 f5bc 0539 b7bc
000001b0: 3e17 7d3b 1895 9d3c 22f8 4c3c 7800 803c
000001c0: 55d9 bc3b ee37 c43a c36e c13c 9a0e 0b3d
000001d0: fea8 e3bb dfea 023c 7291 afbc a3e3 03bc
000001e0: 836c 36bd a826 d6bc 312f a73b e77a d9bb
000001f0: a5c2 02bb a8c4 35bc f33a f53b a225 2abb
00000200: 01d9 613c 89a4 fbbb 224c 33bd 44c7 09bc
00000210: 2be9 9a3c 6398 9ab9 f843 243d 6114 30bc
00000220: 38b5 493b 8762 dbbc e689 79bc 2447 c43a
00000230: 568e a93c e2be 3fbc 5902 e2bb fccf 133b
00000240: 9afb bebc c1ac 283b 27ea 193b 9c00 a1bc
00000250: 5961 b2bc ab72 d93b 3adc 783c 1e54 c0bc
00000260: cfd9 0e3d e445 0abc 2b97 88bc 0a90 0abb
00000270: d38a f03b 9f99 2b3d 939e b73b 64aa 39bc
00000280: a2c7 2dbc 1620 a2bb c570 953c d645 8fba
00000290: ace4 e8bc 6de6 aa3c 590c 4dbc 49d8 b33c
000002a0: f525 c7bb a0dd 7f3c f4e4 223b 85fe ab3b
000002b0: 8c3d 9ebb c75d bcbb 28da cfbc 9216 1a3c
000002c0: 9ff6 e0bc 053e b6bb a542 d53c 4957 60bc
000002d0: 9fb6 913c dbb7 a9bc 0cfc d0bc 6151 2bbc
000002e0: ad84 5cbc 2a46 003b 33d8 32bb 5552 a0bb
000002f0: a3c6 4e38 1882 adba c5f5 7a3b cf03 ad3c
00000300: 6bf8 383b 7923 43bc fc08 003c 7552 64ba
00000310: ca98 f53a 7799 eb3c 1057 903c 3bee 39bc
00000320: c3dc fc3b 8995 09bc 0724 d8bb 4f04 69bb
00000330: f0a0 a53c 13a3 803c 784f 04bc bbce ddbc
00000340: ecf3 a43c f8a5 72bc 34f1 52bc f71f e03b
00000350: 4522 5bbc af9e bd3c 3f8e 3a3d f5e3 08bb
00000360: 3d73 4a3c bece ad3c c1fa df3b 6b30 ddbc
00000370: 2d5f 84bc 67a8 1d3b 2a28 613c c3dc 00bb
00000380: edd4 3c3c 7770 69bc c27c 613b 4b20 343b
00000390: bcba 253c ac57 b4bc ebee aebc b84f c2bc
000003a0: 6751 c83b ad94 033c 54a0 693c d5c6 033c
000003b0: 1553 fcba c493 3d3c 5e78 a63c 7495 80ba
000003c0: 9b49 543c fc49 d83c cabb e23b 3971 a53b
000003d0: b83a a3bc 56f7 463d 2d3e 993c 4dff 6a3c
000003e0: 6cc4 2fbb 5829 26bc de5f 48bb fec0 943c
000003f0: cc9c 0f3c ce22 863c 4f3c 033b 83d1 64bc
-0.005481757 0.012741792 -0.006994656 0.013455091 -0.00042096738 -0.0086714635 -0.008419257 0.010273567
-0.021968232 0.019288681 -0.030112755 -0.010598882 -0.0064273914 0.0018854326 -0.0007629275 -5.785057e-05
0.0037642547 0.0062622377 0.031845864 0.034308627 0.00031595942 0.005694881 -0.025488721 0.008245821
0.015200598 0.011190055 0.0057975873 0.0074246433 0.027130779 -0.008278119 0.026969288 -0.016452402
-0.011799247 0.0032406677 -0.027628824 0.00803147 -0.008699615 0.00040614337 -0.0008152869 0.016521916
0.0108678145 0.011504549 -0.00670355 0.010432898 -0.019801205 0.026048457 -0.015074599 -0.018421523
0.017596181 -0.025731927 -0.021837236 0.017812269 0.022694625 0.022457153 0.016006488 0.0238181
0.022937829 -0.023104047 -0.018350683 -0.02534163 -0.0019281819 -0.06478118 0.04323068 0.023871627
0.004085063 -0.01062214 -0.02292249 -1.6797283e-05 -0.011214564 -0.018172283 -0.0058865817 -0.013602473
-0.001672732 0.010295095 -0.001286225 0.01378035 -0.022377575 0.018212369 -0.004668264 -0.009834684
0.040931948 -0.018169565 -0.0028644667 0.011307802 -0.03072862 0.034934618 0.023088556 0.018535681
0.00810313 0.0014333501 0.0092219105 0.0065339315 -0.012730012 0.015805382 0.02730333 -0.0073957206
0.03049978 -0.002199967 0.013618374 -0.003503603 -0.020741172 0.012127763 0.012420307 0.012386588
-0.018053 0.013521808 -0.029922787 -0.022366056 0.003861859 0.019236133 0.012510331 0.015625224
0.0057632127 0.0014970282 0.023612386 0.033949472 -0.0069476357 0.007990568 -0.021431658 -0.008049878
-0.04453708 -0.02614148 0.005102061 -0.0066369656 -0.0019952443 -0.01109425 0.007483834 -0.0025962372
0.013784648 -0.007679526 -0.043773778 -0.008409325 0.018910011 -0.00029486706 0.040103883 -0.010747046
0.003077818 -0.02678038 -0.015230631 0.0014974815 0.020697754 -0.011703225 -0.0068972525 0.0022554388
-0.023313332 0.0025737735 0.0023485513 -0.01965361 -0.021774935 0.006635984 0.015189225 -0.02347761
0.034875687 -0.008439515 -0.016673645 -0.0021142983 0.007340768 0.04189455 0.0056036203 -0.011332128
-0.010606678 -0.0049476726 0.01824225 -0.0010930847 -0.028429352 0.020861829 -0.012515151 0.021953719
-0.006077523 0.015616804 0.0024855705 0.005248847 -0.0048291143 -0.005748484 -0.02537258 0.009404795
-0.027461348 -0.0055615925 0.026032755 -0.013692685 0.017787276 -0.020717552 -0.02551081 -0.010456414
-0.013459367 0.001957307 -0.002728951 -0.0048926272 4.9299222e-05 -0.0013237623 0.0038293463 0.02111998
0.002822424 -0.011910313 0.007814642 -0.0008709797 0.0018737551 0.028759701 0.01761964 -0.0113483025
0.0077167465 -0.008397468 -0.0065960917 -0.0035555547 0.020218343 0.01570276 -0.008075587 -0.027076116
0.020135842 -0.014810078 -0.01287489 0.006839748 -0.01337487 0.023146955 0.045545813 -0.0020887826
0.0123565765 0.021216746 0.006835312 -0.027000627 -0.016158665 0.0024056674 0.013742486 -0.0019662834
0.011525375 -0.014248005 0.0034406637 0.0027485068 0.010115322 -0.022014461 -0.02135416 -0.023719653
0.0061132195 0.008031053 0.014259417 0.008043011 -0.0019250835 0.011570875 0.020321067 -0.0009810166
0.012957002 0.026402466 0.006919359 0.0050488976 -0.01992546 0.04857572 0.018706406 0.014343095
-0.0026819957 -0.010141693 -0.003057472 0.018158432 0.008765411 0.016374018 0.002002496 -0.013965967

action_model._discrete_distribution.branches.0.bias f4 [2]
00000000: 0fc5 613b 0dc5 61bb
0.0034449731 -0.0034449727

action_model._discrete_distribution.branches.0.weight f4 [2, 128]
00000000: 1685 5abc b5d6 933a 1da8 25bc 8d3f a9bc
00000010: dfc2 5e3c d772 30bb 4b46 183c 6958 66bc
00000020: b0b7 bdbb ac7a 01bc f855 c1bb cb5e 7bbc
00000030: d5f1 14bc 1930 7bba b120 753b f04d bfbb
00000040: 1252 ab38 4a7d 633b 9604 8737 f110 b4bc
00000050: 0762 81bb 5f86 1c3b 18be bbbb ee5c 60bb
00000060: 2e5b 223b 66ea 8bbb 2bf7 813c b1cf f43b
00000070: 6fbc 3d3c cf3d 643b c073 0ebc 0858 24bc
00000080: cb01 193c 608d 0d3c 0d65 873b a20c 5b3c
00000090: baae 9cbb 359d b1bc 8a8b d03b 46b4 e3bb
000000a0: 4615 9cbc aaa7 50bb e532 a53b 5d86 233b
000000b0: 37b4 253c b664 a3bb e58c eabb 3ee2 0e3b
000000c0: 554c 32bc e89d 023a 9c54 2c3b 5ac7 c03b
000000d0: 6133 7e3b 077d 363b 639a dfbb ae17 4b3b
000000e0: f373 633c e7ee ce3a 6297 5bba d5ce bf3b
000000f0: 5f60 3e3c 95e3 823b bcc9 4c3a 6f28 5abc
00000100: f975 13bc 68fc 70bc b127 133c aaf0 853b
00000110: a4d6 5cbc 4d52 a539 a6d1 1f3c a210 063c
00000120: 632a 3d3b db86 b6bb 1c72 92bb e4ef 9bba
00000130: c655 87bc 3a24 153d 3973 7dbb 77c0 53bb
00000140: e72e 05bc 44fd 50bc 7fb0 d6bb ea86 a4bb
00000150: 7ffc 9fbb b9c6 26bc 54e7 ff3b b5b6 6abc
00000160: d075 05bc 9bdc 893b 00e7 68bc 5a88 62bc
00000170: 9e70 3d3c 9619 7bbc 5c3f 953c 8db2 b9bc
00000180: 64e1 e53b 58ea d33b fea8 283c 734d 83bb
00000190: 8c61 46bc cb8d 5539 d4d2 7dba 2014 353c
000001a0: 1563 51bc 9e0f 7c39 7f32 6cbc 643d 83bc
000001b0: ae9e 85bb d338 eb39 e0da 06bc 26c6 c8bb
000001c0: b33f f1ba 0c54 b3bb 10b1 2abb 3575 0b3c
000001d0: 9da4 2a3c 4622 5cbc bd11 3f3b 04eb d13b
000001e0: 57cd 7fbc 157e 94bc f9e5 09bc 6bb7 cebb
000001f0: 8b0b d5bb c2a5 0dbb 5448 86bc fa7f 723b
00000200: ab56 213c ee56 7dbb 695b 213b 319d ef3b
00000210: e407 79bc 4537 b53b aa9c 013c df33 873b
00000220: 5729 74bc f44e 4e3b f7bb 73bc 1eb5 e33b
00000230: 6ab0 4ebb eb66 73bc 5993 463c 0336 a13b
00000240: 6249 a2bb 81fd 12bc b7f8 adbb ff42 ab3b
00000250: 5674 233c a275 a3bb f0fc d53b 972f a2bb
00000260: e1a6 433b 6baa 85bb b1ff dbbb 6ebd 6cbc
00000270: 11c0 743b f3a8 fe3a b885 a2bb cc18 a73c
00000280: a1f6 663b 74f8 e23b 47ec 72bc a1fb 743c
00000290: 4a39 f93b 97d1 c7bb 00ef 11bc a58b 08ba
000002a0: 97aa d5bb f9e0 53ba ad7d 793b fadd 96bc
000002b0: 4f5d e6bb 2972 fa3b e0f7 8eba ec35 90ba
000002c0: a954 193b 4374 923a 5da4 073c 174b 8abb
000002d0: 4a10 debb b183 9ebb d1b9 913c 03d5 afb9
000002e0: 1917 ffbb 31d4 783c cae7 843c 488b 36bb
000002f0: cf32 f93a fe48 babb 5b25 84bb 04b1 9eba
00000300: 90b7 7ebb e60e 393c 10c6 753c 1712 133c
00000310: 7bbe bc3a 196e a43a 6c7c ed3b aeb1 563c
00000320: ec0f 613c a09e 833a 1551 45bc dac2 d1ba
00000330: 369b d73b a0b6 25bc 95de 2a3b f0df 183c
00000340: 18d8 433c 4404 6c3b 6f25 a53c 67d0 c83b
00000350: 03ae 963c a30e d6bb d3e5 cd3c 6f17 a03b
00000360: 040f e6bb 7e86 14bb 37b4 073c 1d5b dd3b
00000370: ffeb c63b 1f2d 5e3c 983b dbbb 76d0 013c
00000380: 4848 3bbb 17da 893c 07df 473b bb92 49bc
00000390: 2db8 18bb 0d24 513a 5ab2 cb3b 88ba 83bc
000003a0: c05a 3e3c 6e14 a03b 931c 893c 079f 26bc
000003b0: 39de 863c ceac 503b 0dfd c9ba 0f97 ea39
000003c0: b01c 9bbc fd3e 83ba 1340 a63b 912b abbc
000003d0: 892d 54bb 5e06 403b 4f6e 383b 81ff 153c
000003e0: cda8 293c 8c0a dabb be03 323c b0a6 18bc
000003f0: af6a 53bc bd01 6bbc 5d5d 1b3c fade 80bc
-0.013337394 0.0011279198 -0.010110882 -0.020660186 0.013596266 -0.0026923919 0.009294103 -0.014059165
-0.0057897195 -0.007902782 -0.005900141 -0.015342425 -0.00909086 -0.0009582057 0.0037403519 -0.0058381483
8.169202e-05 0.003471213 1.609539e-05 -0.021980735 -0.0039484533 0.0023883802 -0.005729448 -0.0034235078
0.0024773586 -0.004269886 0.01586493 0.007471048 0.011580571 0.003482688 -0.008694589 -0.010030754
0.009338806 0.008639663 0.0041319192 0.013369711 -0.004781571 -0.021681407 0.0063642906 -0.0069489805
-0.019053113 -0.0031838217 0.0050414675 0.0024951913 0.010113767 -0.004986371 -0.007157909 0.0021802331
-0.010882457 0.00049826363 0.0026295548 0.0058831396 0.0038787948 0.0027845518 -0.0068238243 0.0030989456
0.013882625 0.0015787751 -0.0008376745 0.0058535137 0.011619656 0.003994415 0.0007812043 -0.013315304
-0.009000295 -0.014708616 0.008981631 0.0040875273 -0.013478909 0.0003153257 0.009754574 0.0081826765
0.0028864376 -0.0055702752 -0.0044691693 -0.0011897055 -0.016520392 0.0364115 -0.0038673414 -0.0032310763
-0.008128858 -0.012755696 -0.0065518017 -0.005020966 -0.004882395 -0.010179215 0.007809559 -0.014325787
-0.0081457645 0.0042072064 -0.014215231 -0.013826454 0.011562495 -0.015325924 0.018218689 -0.022668147
0.007015394 0.006467145 0.010294197 -0.0040070354 -0.012108218 0.00020366085 -0.00096826 0.011052161
-0.012779971 0.0002403841 -0.014416336 -0.016020484 -0.004077754 0.0004486503 -0.008230895 -0.0061271368
-0.0018405825 -0.0054726657 -0.002604548 0.008511831 0.010415223 -0.013435906 0.002915486 0.00640619
-0.015612922 -0.018126527 -0.008416646 -0.006308486 -0.00650162 -0.0021613692 -0.01639191 0.003700255
0.009847323 -0.003865655 0.0024621135 0.00731244 -0.015199635 0.0055302703 0.007910887 0.0041260566
-0.014902434 0.0031480165 -0.014876357 0.006949081 -0.0031538256 -0.0148560805 0.012120091 0.004919769
-0.0049525956 -0.008971573 -0.00530919 0.0052264924 0.009976467 -0.004988388 0.0065303966 -0.004949521
0.0029854106 -0.0040791533 -0.0067138304 -0.01444946 0.0037345926 0.0019429013 -0.004959788 0.020397566
0.0035242217 0.0069265906 -0.014826841 0.014952571 0.0076057063 -0.006097983 -0.00890708 -0.0005208797
-0.00652058 -0.0008082535 0.0038069293 -0.018416394 -0.007030166 0.0076430035 -0.0010907613 -0.0011002398
0.0023396409 0.0011173565 0.008278933 -0.004220377 -0.006776844 -0.004837476 0.0177888 -0.00033537307
-0.007784736 0.015187309 0.016223807 -0.0027854014 0.0019012335 -0.005684971 -0.0040327734 -0.0012107198
-0.0038866736 0.011295056 0.015000835 0.008976481 0.0014400029 0.0012545019 0.0072474983 0.013103886
0.013736706 0.0010041781 -0.012043257 -0.0016003505 0.006579782 -0.010114342 0.002607261 0.009330735
0.011953376 0.0036013285 0.020159451 0.006128359 0.018393522 -0.0065325066 0.025134003 0.004885606
-0.007020833 -0.0022663171 0.008282713 0.0067552463 0.0060706134 0.013560562 -0.0066904537 0.007923236
-0.0028577019 0.016827626 0.0030497925 -0.01230305 -0.0023303137 0.0007978089 0.0062163295 -0.016080156
0.011618316 0.004885248 0.016737258 -0.010169751 0.016463386 0.003184128 -0.0015410498 0.00044744505
-0.018934578 -0.0010013279 0.005073556 -0.020894798 -0.0032375774 0.002930067 0.002814192 0.009155155
0.010355187 -0.0066540893 0.01086515 -0.009317085 -0.012903853 -0.014343676 0.009482709 -0.015731324

network_body.linear_encoder.seq_layers.0.bias f4 [128]
00000000: a013 633b 9166 82b8 c133 32bb 604b 2cbc
00000010: 61f4 39bb b215 573b 5e07 363c b963 e6bb
00000020: 75be 41bc 8b2e 21bc 6357 913b e852 fd39
00000030: c19c 683b 8ae9 ab3b af77 33bc 121e 053c
00000040: 681d ea3b b913 533c 769d 7dba 3801 a83b
00000050: 584e cfba 40a5 3fba 982f 5ebc 6b1d 60bc
00000060: 3065 8ebc f77c 61ba e0a8 fd3b 98a1 083b
00000070: 237a 3cbc f3c5 203c 23b0 aa3b 7286 123b
00000080: 4927 39bc 9ab2 893c 9105 933b b134 353b
00000090: 5034 72bc 3b98 14ba 699a 14bc a1dd 2e3b
000000a0: 443c 1bbc ce60 54bc 977c 0bba 7d9f 8c3a
000000b0: fe5f 3c3c eb8a 15bc 8cdf 53bc df9f 8f38
000000c0: e1a9 6a3b d664 a8bb 3402 7139 7f49 e33b
000000d0: c89a 0dbc ab17 d3bb 2ffa e13b b8f7 93bb
000000e0: 6daf 813a c41d 90ba 3fff 15bc e3c4 d43b
000000f0: 4b55 1b3c f466 373c 4e35 1bbc 22fe b7bb
00000100: 7965 923b 99f8 513b 9a9d f839 7fce b739
00000110: ca81 6d3b 9d00 aebb 56bd 42bc 0590 bdba
00000120: 2317 1e3c a245 33bb a84c c4bb 73a1 403b
00000130: 95a0 22bc a74b 4bbc 1acc 9ebb fb45 1abc
00000140: 2244 15bc 530c 34bc 0f22 48bb c37b de3a
00000150: 639d 223b cb8a 213c ddbf 79ba 2dd8 903a
00000160: 0859 a1ba 5377 f43b bdd1 abbb 432a 1c3c
00000170: 258a febb c291 0d3c 4959 6dba 3293 8bbb
00000180: 3490 473c dae8 acbb 30fd 3bbc 2774 b7bb
00000190: f2ba 23bb e8d4 d1ba 8f5a 723a 0999 1cbc
000001a0: c1b2 083b 5bb8 21bb 9559 78bc 9068 513b
000001b0: 1e33 e63b 43f2 b5ba 3d1b f03b 6197 a0ba
000001c0: 80c4 be3a b35c 05bb 807e 6e3c 6c50 fbbb
000001d0: b1ec 943b bc15 813b 112a d3bb 0f18 82ba
000001e0: b009 04bc 899f faba c9a6 8639 2080 333a
000001f0: 56b7 90bb dbfd 56ba 98a0 e439 af39 05bc
0.0034649149 -6.2179875e-05 -0.0027191492 -0.010516018 -0.002837442 0.0032819328 0.011110155 -0.007030931
-0.011825194 -0.009837757 0.004435466 0.0004831769 0.0035493823 0.005246346 -0.010953828 0.008124845
0.007144619 0.01288312 -0.00096746476 0.0051270984 -0.0015816195 -0.0007310696 -0.013561152 -0.013678889
-0.017382234 -0.000860169 0.0077410787 0.002084827 -0.011503729 0.00981282 0.0052089854 0.0022357968
-0.01130087 0.016808797 0.0044867476 0.0027649815 -0.01478298 -0.0005668436 -0.009070017 0.0026682394
-0.009474818 -0.012962533 -0.00053209945 0.0010728684 0.011497496 -0.009127359 -0.012931716 6.84855e-05
0.0035806822 -0.0051389737 0.00022984372 0.0069362517 -0.00864286 -0.0064420304 0.0068962793 -0.0045156144
0.00098942 -0.0010995199 -0.009155094 0.0064931973 0.009480785 0.0111939795 -0.009473158 -0.005615012
0.004467663 0.0032039045 0.00047419668 0.00035058332 0.003624069 -0.0053101317 -0.0118859615 -0.0014462477
0.009649071 -0.0027354737 -0.0059905834 0.0029393106 -0.009925981 -0.012408174 -0.004846108 -0.009416099
-0.009110482 -0.010989266 -0.0030537879 0.001697414 0.0024813048 0.009859751 -0.0009527186 0.0011050754
-0.0012309859 0.0074605136 -0.0052435086 0.00953156 -0.007767933 0.008640708 -0.0009054137 -0.0042594904
0.012180377 -0.0052767815 -0.011473939 -0.0055985632 -0.0024983254 -0.0016008886 0.00092450617 -0.009557971
0.0020858499 -0.0024676535 -0.015158077 0.0031953193 0.0070251366 -0.0013881404 0.007327466 -0.0012252146
0.0014554411 -0.0020349442 0.014556527 -0.007669499 0.0045448174 0.0039393585 -0.0064442237 -0.0009925383
-0.00805895 -0.0019121032 0.00025682736 0.00068474 -0.0044163866 -0.00082012796 0.000436072 -0.008131429

network_body.linear_encoder.seq_layers.0.weight f4 [128, 6]
00000000: 7b58 093e 6458 513f e8d1 70be 3d4b 33bf
00000010: d19b 6b3e 7b6c 603e 608a 043d d375 f03e
00000020: 5569 d03e 8463 84bf 7d90 783e 3cdd dcbc
00000030: 6f74 1cbd 4cc8 84be ea01 83ba 4579 0e3f
00000040: 5e14 70bf 5d7f 42bf 0f1d 1e3f 4df8 ba3b
00000050: 76e4 85be fb4a e83e a6e0 f6bc 1355 c03e
00000060: db38 073f 9c0f 293e 669b b4bd 7611 ccbe
00000070: 8bc1 2e3e 2e85 2f3f cfcb ffbd febc cdbe
00000080: 04a4 69be 0d66 36bf 6cd1 9abe 508a d03e
00000090: edf6 373f 90ee cebd 7f93 12be 1261 703e
000000a0: 2c35 79bd 9752 e1be 97bd 03bf 0b7b 1fbf
000000b0: 679c 25be fbbe 04be 24ce 18be 177f 11be
000000c0: ae17 7f3e debf d4be 15e9 1dbe 55cd 173e
000000d0: cd98 d2be 4d60 5fbe c14a 643e f629 92be
000000e0: efea b2b9 9b57 e6be 69aa 79be 3f89 0ebe
000000f0: 5791 babe 3ac0 ed3e 361a 823e f5ca 7abe
00000100: 8c4d 64be 5163 efbe 3a74 0b3f edfd 8dbe
00000110: ea75 ebbe 1e1f 0e3f 77e6 1c3f 77aa f63e
00000120: eb24 c5be 40dd 0ebf cb32 bebd 4400 76bd
00000130: ac5b 51bc 7437 a03e 4858 30be 2ba8 423e
00000140: fb73 063f 98b3 1a3d c9a5 aabe 5b73 0d3d
00000150: 2c28 69be b3b8 2dbd a08e 1fbf 5a1b c93e
00000160: a79d 05bf fdd0 563f 4682 6e3c 8e8b a43e
00000170: edec 783e 7876 3c3d ccc9 a8be 2b52 b2be
00000180: e4b5 f9be bd79 b8bd 35e2 e73e d9be c73e
00000190: 435e 1cbe 5523 f63e 1f65 18be a587 afbe
000001a0: c421 46bd 6bc6 693e 0acd 19be 9c3b febe
000001b0: 6ce3 b13c dbf0 773e 7cc1 0b3d 26b5 bb3e
000001c0: 3e2c 78bf e078 163f e8ad 1cbf 65a2 a33e
000001d0: 7d1e fdbd c612 033e 30a5 05bf 60b3 2a3f
000001e0: e623 46be 6e7d 3fbe d00a 5fbe 4c47 833e
000001f0: 4b93 e03d cb68 373f 9073 05bf 29b4 223e
00000200: d5e5 823e 2b0e 22bf 6eff 233f ba7e 1f3e
00000210: 39ce b4be d5d6 9dbc 0296 113e e63a 00bf
00000220: 10fe 1abf a489 eebe 2aff 2abe 5756 d2be
00000230: df0a 763f 4c7a 13bf fcc2 413f 4660 a6be
00000240: 6e20 13be 4d4d 92be 49af 25bf fdd4 8b3d
00000250: 584d 01bf a237 1ebf 7c66 63be 991d f23e
00000260: 5996 7a3e 588b 2c3e d8d6 36be 340c 3a3e
00000270: 995f ccbe 3626 fabe 4e3a 863c ed08 16bc
00000280: a8a5 073f 9e43 293e 2bbb 033f 704c 2f3f
00000290: 9662 163f 3fa6 883f 753d 25be 5b77 33bf
000002a0: d8c1 2dbf 2053 e1be b1fd be3c e3c5 efbe
000002b0: 4d25 e23d 7a62 863e 9a31 303e f204 023e
000002c0: 9c35 3f3e ea31 e6be 5cc5 bd3e 0042 83be
000002d0: 53b7 cfbe acc4 663e dd8a 313f fbc0 103f
000002e0: eaed ab3d 9c79 073e 4e72 cc3e 924a 44be
000002f0: 7158 e0bd afd6 1dbe a656 d0be 7283 c9be
00000300: 7c37 1d3f c59e d8be b995 ccbd 9832 1f3e
00000310: d9b6 d0be 4d99 7fbe 6fc3 f13e 1a5c 22be
00000320: 5dd3 63be 8bfe 963e 5651 ae3e af72 4ebe
00000330: 3592 473e be44 8a3e 1ab1 57bf b557 89bd
00000340: 677a 673c 0737 d9be 8f5a 2abf b97a d63c
00000350: 2339 e2be 3ef1 953e 32be 053f 51fe 8abf
00000360: ce04 453f 2aa3 9dbf 362f b0be cf65 143f
00000370: 57b1 bc3d 02ea 8e3e 0b12 093d 54a2 05be
00000380: 3007 523f 7298 89bf 5a29 e0be 2728 cabe
00000390: 131d fe3e 98de 423f 4410 87be 09d4 43bf
000003a0: 31f7 9bbe fb70 393e 2052 78be b029 41be
000003b0: 0afa fa3e a52c bebe 63f4 53be 396d 8bbe
000003c0: 378b 093f 3084 b53e 4a40 6ebe 05fa 0c3d
000003d0: e3c0 3a3e c469 6cbd e1b8 50be e516 85be
000003e0: 7dff 903e 1610 06bf 564b e8bd 2fc7 f73e
000003f0: a54c 3d3e 41bd 54bc 3e1c 08be f86f aebe
0.13412659 0.817755 -0.23517573 -0.7003668 0.23008658 0.21916382 0.032358527 0.46964893
0.40705362 -1.034287 0.24273868 -0.026960962 -0.038196977 -0.25934064 -0.0009995077 0.5565379
-0.9378108 -0.7597559 0.6176309 0.0057058693 -0.26150864 0.45369706 -0.030136418 0.37564906
0.5282113 0.16509861 -0.088187024 -0.39857072 0.17066018 0.6856259 -0.12490045 -0.40183252
-0.22816473 -0.7124947 -0.302379 0.40730524 0.71861154 -0.10104096 -0.14314078 0.2347453
-0.060841724 -0.44008324 -0.51461166 -0.62297124 -0.16172944 -0.12963478 -0.14922386 -0.14208637
0.24911377 -0.41552633 -0.15420945 0.14824422 -0.41132203 -0.2181408 0.22294141 -0.2854764
-0.00034125845 -0.44988713 -0.24381413 -0.13919543 -0.3643901 0.4643572 0.25410622 -0.24491484
-0.22295207 -0.4675546 0.5447422 -0.27732792 -0.459884 0.5551623 0.6128916 0.4817693
-0.3850473 -0.5580635 -0.09287032 -0.060058847 -0.012778204 0.31292307 -0.17221177 0.19009463
0.5252072 0.03776893 -0.3332961 0.03453384 -0.2276923 -0.04241247 -0.62327003 0.3927868
-0.52193683 0.8391264 0.014557427 0.32137722 0.2430913 0.046011418 -0.3296646 -0.34828314
-0.48771584 -0.09007595 0.4528977 0.39012793 -0.15270333 0.4807383 -0.14882325 -0.34283176
-0.048372045 0.22829597 -0.15019622 -0.49654853 0.021714889 0.24212973 0.034120068 0.36661643
-0.9694251 0.5877819 -0.6120286 0.31959835 -0.12359331 0.1280013 -0.5220518 0.66679955
-0.19349632 -0.18700191 -0.21781468 0.25640333 0.10965594 0.71644276 -0.5212946 0.15889038
0.25565973 -0.6330287 0.6406163 0.15575686 -0.35313585 -0.019267479 0.1421738 -0.5008987
-0.6054392 -0.46589386 -0.166989 -0.41081497 0.9611034 -0.57608485 0.7568815 -0.32495326
-0.1436784 -0.285746 -0.6472059 0.06827734 -0.5050864 -0.6180364 -0.22207063 0.47288206
0.24471416 0.1685003 -0.17855394 0.18168718 -0.39916685 -0.48857278 0.016385224 -0.0091574015
0.52987146 0.165297 0.5145747 0.6847601 0.5874418 1.0675734 -0.16136725 -0.70103997
-0.6787391 -0.44008732 0.023314329 -0.46830663 0.11042271 0.26247007 0.17206421 0.12697199
0.18672794 -0.44959956 0.37064636 -0.25636292 -0.40569553 0.22535962 0.69352514 0.56544465
0.08394988 0.13229984 0.39930958 -0.19169071 -0.10954369 -0.15413927 -0.40691108 -0.39358097
0.6141279 -0.42308632 -0.09989495 0.15546644 -0.40764502 -0.24960823 0.47219416 -0.15855446
-0.22248597 0.29491076 0.3404643 -0.20160936 0.19489367 0.2700557 -0.8425461 -0.06706182
0.014128304 -0.42424795 -0.6654443 0.026181566 -0.44184217 0.29285616 0.5224334 -1.0858861
0.76960456 -1.2315419 -0.3441102 0.5796785 0.092135124 0.2791291 0.033464473 -0.13050205
0.8204222 -1.0749648 -0.4378155 -0.3948376 0.49631557 0.761209 -0.26379597 -0.76495415
-0.3046203 0.18109505 -0.24250078 -0.18863559 0.4901889 -0.37143436 -0.20698695 -0.27231768
0.5372805 0.35452414 -0.23266712 0.034418125 0.18237643 -0.057718053 -0.20383026 -0.2599403
0.28319922 -0.52368295 -0.11342494 0.48394153 0.18486269 -0.012984575 -0.13292024 -0.340698

network_body.linear_encoder.seq_layers.2.bias f4 [128]
00000000: 19fd 903b e34d 25bc c191 09bc 4d1d 26bc
00000010: 93ac 0b3c 6616 b1bb 12b5 b23b 8186 70bc
00000020: d857 a83b 4d0f 25bc fcc8 a23b 244c d63b
00000030: 0b6f e03b 2174 92bb 02be 24bc f872 dbbb
00000040: ff1d 16bc e083 593a fea2 88bb 7dc6 9ebb
00000050: 5d45 e9bb 4d8e 84ba 26a4 00bb 9bc3 c4bb
00000060: c24a 67ba 19d5 2bbc 3b04 aabb 2dd8 24bb
00000070: 9030 95bb 684a 8c3b cd7c 2fbc a22f a4ba
00000080: fd6e 6f3a b142 3fbc 5dee fb3b 5639 bebb
00000090: 24f9 d2bb 3d6e fc3a 97e9 84b9 e6ce 693b
000000a0: 007d eabb d919 1e3c 06c3 37b9 2fe5 523b
000000b0: 4f27 913b 088d 5abc c6e3 0e3b 3ba3 123c
000000c0: e671 a8bb 25f5 823b 21bd 993b cb11 bdbb
000000d0: f0cc 9abb 2b3f 0abb cf73 e4bb e51a 09bb
000000e0: 6dae 893b e92f 0c3c 0e06 143b c6bb a93a
000000f0: 2a24 33bb 8246 ce3b 066e 38bb b39a 3d3c
00000100: 58c0 b2bb b4d9 4bbb 710c 05bb 2af4 42bc
00000110: fc87 22bc 3f91 f03b ce15 e339 cdab d0bb
00000120: d980 b8ba b287 8abb 3481 2abc 547c 2a3c
00000130: 5687 913b d3b6 893c 19db 5abc e425 45bb
00000140: 646f 053c 5cca 423c 08c9 b23a 8b83 ee3a
00000150: da6d 2f3c 4583 123c ae86 8eb8 81bc 13bb
00000160: 52d9 cdbb 1caf 6d3b 9d70 68bc 6318 d5ba
00000170: ea21 89bb 48d4 ddbb bcaf 543c a574 0dbb
00000180: 1423 4c3b ae32 0ebc b3b7 febb 50f8 053b
00000190: 786c 253a da97 2ebc b2cb 4abc 50b9 c3bb
000001a0: e068 2bbb b7bc 48bc 4b74 2d3c cecf bf3b
000001b0: 66be 22bb 0bce 02bc 3b8f abba a310 09bc
000001c0: 51b7 8f3b 2062 1d3a e990 4c3b 13fe c8bb
000001d0: 1f6e f1ba 80a8 d53b 2ee8 cb3b e13e 9c3b
000001e0: 9e66 763a 6000 de3b b0e4 49bc a7e6 30ba
000001f0: 96b4 a63b e46e 1a38 3135 1c3b 5202 aabb
0.004424703 -0.01008937 -0.008396567 -0.010138822 0.008525032 -0.0054042814 0.005453714 -0.014680506
0.005137425 -0.010074449 0.004967807 0.0065398384 0.006849175 -0.00446941 -0.010055067 -0.006697055
-0.009162425 0.0008297544 -0.004169821 -0.004845439 -0.0071188645 -0.001011321 -0.001962909 -0.0060047633
-0.00088230905 -0.010487818 -0.0051884926 -0.0025153265 -0.0045529082 0.004281331 -0.010710907 -0.0012526403
0.0009133665 -0.011673615 0.007688327 -0.005805175 -0.0064383913 0.0019258928 -0.0002535104 0.00356763
-0.0071560144 0.009649717 -0.00017524892 0.003218006 0.004429735 -0.0133392885 0.0021803244 0.00895005
-0.005140531 0.0039965087 0.0046917354 -0.0057699434 -0.0047241375 -0.002109478 -0.0069718133 -0.0020920571
0.0042017014 0.008556345 0.0022586617 0.0012949638 -0.0027334788 0.0062950263 -0.002814175 0.011572528
-0.005455058 -0.0031105103 -0.0020301605 -0.011899034 -0.0099201165 0.0073415334 0.0004331306 -0.0063681365
-0.0014076486 -0.004227602 -0.010406781 0.010405619 0.004441182 0.01681081 -0.013357901 -0.00300824
0.008144233 0.011889067 0.0013640234 0.0018197162 0.010707343 0.00894243 -6.796174e-05 -0.0022542777
-0.00628201 0.0036267703 -0.014187005 -0.0016257878 -0.004184951 -0.0067696907 0.012981351 -0.0021584418
0.0031148838 -0.008679075 -0.0077733635 0.0020442195 0.00063104136 -0.010656321 -0.012377666 -0.0059730187
-0.002615504 -0.012252024 0.010586808 0.0058536297 -0.0024832725 -0.007983695 -0.0013088951 -0.008365783
0.0043858667 0.00060036965 0.0031214303 -0.0061338036 -0.001841966 0.006520331 0.0062227463 0.004768238
0.00093994464 0.006774947 -0.01232259 -0.0006748237 0.0050874455 3.6819736e-05 0.0023835415 -0.005188265

network_body.linear_encoder.seq_layers.2.weight f4 [128, 128]
00000000: 2a9c 32be bdd4 dbbd 6f9f 153e 184d 35be
00000010: c2fe 60bd df33 f93c 5a47 e93d ba03 ae3d
00000020: c1ee 39bc d0b5 0f3e a5a4 bcbd 153d a23d
00000030: b2df fc3b cfc9 633d 0056 1abd 8ef7 31bd
00000040: 9e71 68bd 3813 3abd 43b1 80bd ce09 143c
00000050: 4c37 653d bf40 0fbd cd60 f7bd d76a 45bd
00000060: 2f82 61bd 2c47 d8bd 05a2 13be 6050 16be
00000070: 02a6 113e 9572 b8bb fede e3bd f41d a0bc
00000080: 05c7 f33d fabf 823d 2ac7 01bd e3ab 44ba
00000090: d4e9 a3bd f285 dabd 882a 2dbd d828 bdbd
000000a0: 2183 24be 7d7a 24bd e5f6 593d 0acb 96bd
000000b0: 364a 37bd 4bfe 0bbe 15c6 74bd 6a3e 0f3e
000000c0: 46f4 c83d 183c 423e faa5 c73b 9e4a adbd
000000d0: 3880 cfbc 35da e1bd 2545 e4bd a874 9bbc
000000e0: 5210 89bd 71a3 de3d ffbd 0abd 91a6 c6bd
000000f0: fc01 213c ba56 f1bc 2267 3dbd 0e87 243e
00000100: b697 febd faea 92bc eaf1 9fbc 2ad9 353d
00000110: 5122 873d 3acd 38bd c73d 353d e4e0 793d
00000120: 3e35 293e c1b3 7f3c 7adf 36bd c6f5 2cbd
00000130: 8c5b 983d b86f 02be b171 a5bd 1223 bcbc
00000140: f950 44bd 598b 5b3d aebe afbd 9b99 25bd
00000150: 3cc4 32bd 8535 19bd 670d e0bd 4b3c c6bd
00000160: c15d 82bd 6c10 edbd 4d67 b3bc 6a85 78bd
00000170: fe8b 783c 6fe3 33bc 1a07 bd3d 9c21 22bd
00000180: e3e8 753d 094b 1f3b 7c86 2cbd f96f fabc
00000190: 5f0f e4bc 3f41 0abe 86a3 08be aec3 ab3d
000001a0: 4f69 823d 398c a33d cea6 2ebe f97b 3e3d
000001b0: bcac 993d 50fc 9c3c 3d22 abbd 93d2 d43c
000001c0: abed aa3d 4180 b8bd 2985 083d d671 4e3d
000001d0: 540f 83bd c235 04be 10dd 143d 3e8c 1abe
000001e0: 3f33 1cbd afe4 9abd 3006 2dbc e3a8 a33d
000001f0: 918d b53b 7802 c73d 782c ce3d 09c3 f03d
00000200: 5a17 083d 922a f8bd 093e a7bc f6ee 16bd
00000210: 51b7 22be dc0a 62bd e893 0c3a 3941 28bd
00000220: 8942 743b c26d 0fbe a710 1e3c 8245 27bd
00000230: 8bda fcbc 8955 f2bc 0446 99bd 7474 293d
00000240: 7855 83bd 744e 143e 905e c13c 4bc1 4abd
00000250: 8a6c 753d 819c e23d 1fd7 483d 41a0 35bd
00000260: 4315 79bd fce4 b63d d5e0 b1bd 5273 08be
00000270: e5e3 6b3e 791a debb 6468 6ebd dfba 0b3d
00000280: 59a6 bd3c 8e33 0e3e 6854 1cbe a5bd 06be
00000290: ec15 91bd b135 01be 24e2 72bb 7cdc 9e3c
000002a0: ce2b 06bd 6458 ebbd 8a6e 48bd f970 ac3d
000002b0: 594f 543d 2c95 6e3d b6ba acbc cef6 c0bd
000002c0: c5e4 243e 3f9e aebd 9285 cc3d 2c28 413e
000002d0: 951c 59bd a02d 75bd 689e 3bbd bed0 97bd
000002e0: 01e6 b4bc aeac 09bd 57e8 4ebd 52ca 943d
000002f0: a654 a9bd 534a 17be 0a71 d4bc 7b49 713c
00000300: bdb0 5a3d 5345 433d ecd5 adbd 21fe 0dbe
00000310: 23e6 99bd 4aab fd3d 0a2f c0bc afe2 53bd
00000320: d2e5 cd3d 5ba6 cf3d 8d17 303d e68d a53d
00000330: b8df 523e e5a9 97bd c8f5 3a3d abcc ffbc
00000340: ff54 7dbc 4a74 96bd e9bb 2ebc dee2 36bd
00000350: bbeb c1bd a93b 603c 7b3f ffbc 0f2f 4a3d
00000360: 0e3e 96bd 132f b9bd b0e1 bdbd fb78 573c
00000370: 3877 0bbd ba37 8d3d 7b3b 9ebc 7a4b 9ebd
00000380: 5dca 66bd 1144 05be ad87 073e b2fd 12bd
00000390: 3e97 f8bc 546d 053e be96 143d 8347 a93c
000003a0: 892a 643d f41b 333c 59f1 b03d dbee 3b3e
000003b0: c239 883d 2c30 dcbc 14a9 a53d abbf febd
000003c0: 9313 673d 88bd 40bc 811f d23d cb43 9cbd
000003d0: f9d8 d0bc 7539 fcbb 8335 8bbd 5d4a fabc
000003e0: 95f1 ddbc 99e3 123c 5066 9b3c 14c7 d3bd
000003f0: d062 0bbd 1353 593d 196d 5d3e 32e7 48be
-0.17442384 -0.10733936 0.146116 -0.1770519 -0.054930456 0.030420242 0.11390562 0.084968045
-0.011348427 0.140342 -0.09211091 0.07921807 0.0077170962 0.05561238 -0.037679672 -0.043448977
-0.05674898 -0.045428485 -0.0628381 0.009035541 0.05596094 -0.034973856 -0.1207901 -0.048197594
-0.055055793 -0.1056045 -0.14417274 -0.14679098 0.14223483 -0.0056288936 -0.11126517 -0.019545533
0.11903194 0.06384273 -0.03168408 -0.000750242 -0.080035836 -0.10670079 -0.04227689 -0.09236306
-0.16065647 -0.040155876 0.053213973 -0.073629454 -0.044748507 -0.13671224 -0.05975922 0.13988653
0.098122165 0.18968236 0.006092784 -0.08461498 -0.025329694 -0.11027948 -0.11146001 -0.018976524
-0.06692566 0.10871018 -0.0338726 -0.09699739 0.009827133 -0.0294603 -0.046240933 0.16067144
-0.1243128 -0.017934311 -0.019524533 0.044396557 0.06598342 -0.045117594 0.04424837 0.061005488
0.16524217 0.0156068215 -0.044646718 -0.042226575 0.07439336 -0.1273793 -0.080783255 -0.022965942
-0.047928784 0.05359969 -0.08581291 -0.040429693 -0.043644175 -0.037404556 -0.10940056 -0.09679469
-0.063655384 -0.11575398 -0.021899844 -0.06067411 0.0151700955 -0.010979517 0.0922987 -0.039582834
0.06003655 0.00243062 -0.04212044 -0.03057097 -0.02783936 -0.13501452 -0.13343629 0.08386932
0.06367742 0.0798573 -0.17055818 0.04650495 0.075036496 0.01916328 -0.0835614 0.025979316
0.08346113 -0.090088375 0.033330116 0.05040153 -0.06399408 -0.12911132 0.036343634 -0.1509256
-0.03813481 -0.07563149 -0.010560557 0.07991197 0.0055405577 0.09717268 0.100670755 0.1175595
0.033225395 -0.12117495 -0.020415323 -0.036848985 -0.15890242 -0.055186138 0.0005362616 -0.041077826
0.0037271103 -0.14006713 0.009647525 -0.040837772 -0.030865928 -0.029581802 -0.074840575 0.041370824
-0.06412786 0.14483052 0.023604661 -0.049500745 0.059917964 0.11065007 0.04903328 -0.044342283
-0.060811292 0.08930394 -0.086854614 -0.13325241 0.23036154 -0.006778058 -0.058205023 0.03411376
0.02315061 0.13886854 -0.15266573 -0.13158281 -0.070842594 -0.12618138 -0.003706106 0.019392245
-0.03275662 -0.114914685 -0.048933543 0.08419985 0.051833484 0.05824773 -0.021085124 -0.09422074
0.16102894 -0.08526277 0.09986414 0.1886298 -0.053005774 -0.059857965 -0.045805365 -0.07412861
-0.02208233 -0.033611946 -0.050514545 0.07265152 -0.082680985 -0.14774446 -0.025932807 0.014726992
0.053391207 0.047673535 -0.08488068 -0.13866474 -0.07514598 0.123861864 -0.02345993 -0.051729854
0.100536 0.10139152 0.04299121 0.080837056 0.20593154 -0.07405452 0.04564455 -0.031225523
-0.015462159 -0.07346399 -0.010664918 -0.04464995 -0.0946879 0.013686099 -0.0311582 0.049361285
-0.07336055 -0.09042182 -0.09271562 0.013151403 -0.034049243 0.068953946 -0.019315472 -0.0772924
-0.056345332 -0.13014247 0.1323535 -0.035886474 -0.030345555 0.13029987 0.03627657 0.020663982
0.055704627 0.0109319575 0.086397834 0.18352835 0.066516414 -0.026878439 0.0808889 -0.124389015
0.05641515 -0.011763938 0.10259915 -0.07630118 -0.025494086 -0.007697279 -0.06797316 -0.030553037
-0.027092734 0.008965396 0.018969685 -0.103407055 -0.03402978 0.05305774 0.21623649 -0.19619444
