results/MoveToGoal2/MoveToGoal/MoveToGoal-4971.onnx (onnx, 72892 bytes, 7 tensors)

action_model._continuous_distribution.log_sigma f4 [1, 2]
-0.002294176 0.02408207
00000000: e359 16bb c347 c53c

action_model._continuous_distribution.mu.bias f4 [2]
-0.0011245952 0.015528091
00000000: 2767 93ba 8969 7e3c

action_model._continuous_distribution.mu.weight f4 [2, 128]
0.0027041296 0.014403898 0.013945248 0.025165351 0.02595846 0.011957672 -0.012521182 -0.013077389
0.011981149 -0.010252061 0.014053865 0.0074677058 -0.006082217 0.025300447 0.042419847 -0.019083077
0.04877783 0.03495123 0.032644078 -0.00090485247 0.023582658 0.051608343 0.021237211 -0.011888932
-0.007000741 -0.006934206 0.0054160934 0.0103874365 -0.0111086555 -0.007846416 -0.027154913 0.03003568
-0.007260598 0.113718 -0.013854397 -0.044185583 0.011178895 0.04266704 0.0006040455 0.059177533
0.029644497 0.018601075 0.00082932203 -0.031029116 0.00088500645 -0.006344497 -0.03780562 0.019669542
0.016593562 0.023443349 -0.007245408 -0.03842517 0.009559846 0.017689805 -0.009912088 -0.06424316
0.019605296 -0.029474212 0.016305454 0.02130725 -0.025590137 0.008125722 -0.005142075 0.0010270352
0.010950952 -0.023872683 0.012189402 -0.0013012366 0.0046593533 0.0031332856 0.026997216 0.0049877996
0.03735326 -0.0013912874 0.0073878635 0.004616848 0.02201492 0.004636444 -0.019345867 0.007827709
0.061369795 -0.027171252 -0.008850361 0.036840927 0.0025108529 -0.009197392 0.010446254 -0.016049981
0.021988962 0.042599738 -0.031500116 0.0398893 -0.010197666 -0.003568752 -0.018642163 0.04382809
-0.004740386 0.00710093 -0.021332044 0.006686623 -0.014227803 -0.010631623 -0.03332489 0.058507647
-0.011620377 0.0044291 0.012355038 0.018760435 -0.05404555 -0.0049259914 -0.039374158 0.023794757
0.019444061 0.0014694027 0.021833338 0.034345787 -0.017358663 0.04044786 0.03723545 0.011554089
0.013737219 0.012728916 0.00035333098 0.00339592 -0.008641227 0.00791611 0.012470592 0.012331217
0.0073526725 -0.0024196452 -0.012390188 0.0043015843 -0.047471814 -0.015871068 0.0019593623 0.028308999
-0.021736573 -0.001763107 -0.012416226 0.0008167939 -0.0091267945 0.005832978 -0.0064747133 0.0059902826
-0.032427233 -0.013038015 0.041816972 -0.042486854 -0.00782462 -0.011359031 -0.03862689 0.041664213
0.009219582 0.009019569 0.01993063 0.0015864085 0.010426043 0.014122891 0.03498731 0.0021790164
0.04079941 -0.029570082 0.005332762 0.024888463 0.01779103 -0.0032965513 -0.022476561 -0.018338218
-0.047765475 0.0120431315 -0.005095635 -0.046783835 -0.040009484 0.0064109997 -0.039002527 0.014208858
0.004787197 0.016054166 0.013912275 0.025722684 -0.00257534 0.039104 0.025247289 0.002963828
0.017652562 -0.022233829 -0.022487206 -0.031186383 0.01412673 -0.0208054 -0.021761324 -0.011222441
-0.008605031 -0.016342549 -0.016434323 -0.005668296 0.03448327 0.00016720351 -0.027173862 -0.033327192
-0.020172656 0.012469629 0.03884465 -0.033876043 -0.037763756 0.0023563085 -0.0025200208 0.042455863
0.0064281872 0.022017065 -0.006003763 -0.010875051 -0.028419618 0.008867846 0.031934604 0.046750765
-0.031190397 0.007083535 -0.034989715 0.014009696 0.06849006 -0.014830787 0.017633256 -0.008048219
0.002581564 -0.007136529 0.028850079 -0.0029156087 -0.007168628 0.00030092357 0.011788154 0.017181598
0.028733196 -0.01482245 -0.0071048187 -0.0058598723 -0.029376807 0.055783864 0.07641462 -0.013339201
-0.009550307 0.0058946684 -0.007734039 0.021521525 -0.021561692 0.023801673 0.028044123 -0.020890452
0.023431519 -0.022566717 0.024660531 -0.026240539 -0.03224991 0.01755143 -0.0100943055 -0.00991526
00000000: c437 313b 54fe 6b3c 9c7a 643c 9127 ce3c
00000010: d6a6 d43c 1dea 433c a525 4dbc 8c42 56bc
00000020: 954c 443c 43f8 27bc 2f42 663c a8b3 f43b
00000030: 564d c7bb e242 cf3c 6fc0 2d3d 1d54 9cbc
00000040: 43cb 473d 0529 0f3d ccb5 053d 9f33 6dba
00000050: 6b30 c13c 4563 533d a9f9 ad3c ccc9 42bc
00000060: 7966 e5bb 5638 e3bb 7c79 b13b 1130 2a3c
00000070: 1401 36bc 418e 00bc fb73 debc 630d f63c
00000080: 4fea edbb fce4 e83d 8efd 62bc f1fb 34bd
00000090: af27 373c a2c3 2e3d cf58 1e3a 2464 723d
000000a0: 04d9 f23c 4861 983c dc66 593a c630 febc
000000b0: c7ff 673a 80e5 cfbb 11da 1abd 0522 a13c
000000c0: 39ef 873c 440c c03c e36a edbb b663 1dbd
000000d0: e6a0 1c3c 36ea 903c 4f66 22bc eb91 83bd
000000e0: 499b a03c e773 f1bc 0493 853c 8b8c ae3c
000000f0: 68a2 d1bc c021 053c da7e a8bb 959d 863a
00000100: 9f6b 333c a590 c3bc 0fb6 473c 418e aaba
00000110: 7dad 983b cf57 4d3b 4429 dd3c b270 a33b
00000120: bbff 183d dc5b b6ba e415 f23b ee48 973b
00000130: a258 b43c 50ed 973b 397b 9ebc cb3f 003c
00000140: e55e 7b3d 3f96 debc 1b01 11bc 83e6 163d
00000150: 1f8d 243b a8b0 16bc c426 2b3c 407b 83bc
00000160: 3222 b43c 107d 2e3d 4406 01bd f662 233d
00000170: 1c14 27bc b9e1 69bb 73b7 98bc 1585 333d
00000180: 3d55 9bbb ebae e83b 8ac0 aebc 761b db3b
00000190: bb1b 69bc 4230 2ebc ae7f 08bd b7a5 6f3d
000001a0: 6563 3ebc fc21 913b c96c 4a3c 7caf 993c
000001b0: de5e 5dbd 366a a1bb cc46 21bd 39ed c23c
000001c0: 2749 9f3c f998 c03a d4db b23c 2bae 0c3d
000001d0: c133 8ebc a8ac 253d 3384 183d 5d4d 3d3c
000001e0: 1312 613c f18c 503c 483f b939 158e 5e3b
000001f0: ef93 0dbc 92b2 013c 7451 4c3c df08 4a3c
00000200: b0ee f03b e992 1ebb 3700 4bbc 4ef4 8c3b
00000210: ce71 42bd 0b04 82bc a568 003b 46e8 e73c
00000220: e610 b2bc 0e18 e7ba 6d6d 4bbc 1c1e 563a
00000230: 8d88 15bc 9122 bf3b d529 d4bb 224a c43b
00000240: 6bd2 04bd 669d 55bc 4648 2b3d b206 2ebd
00000250: d632 00bc 3b1b 3abc 3b37 1ebd 18a8 2a3d
00000260: bb0d 173c d0c6 133c 9045 a33c 09ef cf3a
00000270: fed1 2a3c b363 673c db4e 0f3d d4cd 0e3b
00000280: 481d 273d f53c f2bc 73be ae3b e4e2 cb3c
00000290: 7fbe 913c f40a 58bb c420 b8bc 083a 96bc
000002a0: bba5 43bd 8e50 453c 49f9 a6bb 68a0 3fbd
000002b0: fce0 23bd 5d13 d23b 1dc1 1fbd 45cc 683c
000002c0: ebdd 9c3b 0784 833c 50f0 633c 61b8 d23c
000002d0: 09c7 28bb 842b 203d 67d3 ce3c c83c 423b
000002e0: 1b9c 903c b823 b6bc 1737 b8bc 967a ffbc
000002f0: cd73 673c 1670 aabc ce44 b2bc 54de 37bc
00000300: 1efc 0cbc cfe0 85bc 46a1 86bc 1dbd b9bb
00000310: 543e 0d3d 5a53 2f39 b89b debc 1882 08bd
00000320: 2041 a5bc 6a4d 4c3c 911b 1f3d 9bc1 0abd
00000330: 2bae 1abd 4c6c 1a3b ef26 25bb 33e6 2d3d
00000340: 8ba3 d23b 225d b43c 37bb c4bb 452d 32bc
00000350: 42d0 e8bc 714a 113c dccd 023d bb7d 3f3d
00000360: 0183 ffbc 001d e83b 6051 0fbd ed88 653c
00000370: 8444 8c3d d4fc 72bc 9e73 903c addc 03bc
00000380: 752f 293b 8bd9 e9bb 0057 ec3c cc13 3fbb
00000390: cfe6 eabb 47c5 9d39 1a23 413c 6cc0 8c3c
000003a0: e161 eb3c dcd9 72bc 8acf e8bb 2c04 c0bb
000003b0: a1a7 f0bc 9f7d 643d 457f 9c3d aa8c 5abc
000003c0: e478 1cbc 1028 c13b d26d fdbb e94d b03c
000003d0: 25a2 b0bc bafb c23c cabc e53c 7422 abbc
000003e0: 75f3 bf3c d6dd b8bc e204 ca3c 66f6 d6bc
000003f0: 7b18 04bd 04c8 8f3c 9662 25bc 9d73 22bc

network_body.linear_encoder.seq_layers.0.bias f4 [128]
-0.00020609592 -0.085751146 -0.03496916 -0.025644027 -0.06134256 -0.101723015 0.028693711 -0.05520235
0.015485952 0.029602738 -0.07513167 -0.02225122 -0.015044706 -0.06247968 -0.055967312 -0.098310776
0.020174745 -0.08955266 0.00308201 0.01598173 -0.086892985 -0.018697625 -0.05328125 -0.071953304
-0.040721487 -0.019978648 -0.09413402 -0.08133353 -0.010247594 -0.036378372 -0.00954803 -0.002740302
-0.08865233 -0.026140513 -0.028984517 -0.07210908 0.019165613 -0.033592645 -0.0036706794 -0.021502752
-0.13729283 -0.07003445 0.015432052 -0.06137503 -0.021744458 -0.0779803 -0.00460564 -0.122953154
-0.033945687 -0.022575907 0.025969887 -0.07142302 -0.037116393 -0.03227936 -0.1460473 0.010812921
-0.0448608 -0.10198881 -0.047050122 -0.03741449 -0.06068265 -0.09702477 -0.055561468 -0.018507222
-0.010645169 -0.022738049 0.025479678 0.024511423 -0.062860996 0.00031250803 -0.09828212 -0.0012622612
-0.11670542 -0.06019422 -0.06309087 0.023801452 -0.0595002 -0.037289545 -0.06400097 -0.02756546
-0.052897308 0.018467518 -0.028985323 0.033121094 -0.07188819 0.031027423 0.021258982 -0.034433912
0.05410912 -0.083624594 -0.0478766 0.0041478444 -0.03893889 0.016646111 -0.08468371 -0.011450844
-0.031231511 -0.10206211 -0.046638686 -0.03805127 0.025602354 -0.015637768 -0.024340194 -0.06028491
0.011434794 -0.036538716 -0.07886197 -0.051745046 -0.10399948 -0.05585731 -0.054633304 -0.06584757
-0.059226267 -0.071115695 -0.02450352 -0.031515878 -0.10692897 -0.0076432903 -0.042529773 -0.07060653
-0.006189953 -0.060021028 -0.07068168 -0.06906847 0.032396592 -0.08761236 -0.030047394 -0.070860915
00000000: 741b 58b9 4c9e afbd d23b 0fbd 6c13 d2bc
00000010: 5642 7bbd 2854 d0bd 130f eb3c dc1b 62bd
00000020: cab8 7d3c 7181 f23c a2de 99bd 3148 b6bc
00000030: 127e 76bc b1ea 7fbd fb3d 65bd 2957 c9bd
00000040: 8245 a53c 6367 b7bd 8cfb 493b 1eec 823c
00000050: f3f4 b1bd c32b 99bc 713d 5abd 415c 93bd
00000060: 93cb 26bd 43aa a3bc 56c9 c0bd 3292 a6bd
00000070: 86e5 27bc 7d01 15bd 576f 1cbc a396 33bb
00000080: 5a8f b5bd a124 d6bc f070 edbc edad 93bd
00000090: 3401 9d3c 7198 09bd c88f 70bb 8a26 b0bc
000000a0: 7e96 0cbe 396e 8fbd b8d6 7c3c 6264 7bbd
000000b0: 6f21 b2bc 23b4 9fbd e9ea 96bb ddce fbbd
000000c0: a20a 0bbd 1cf1 b8bc cdbe d43c 3b46 92bd
000000d0: 5c07 18bd 5d37 04bd 6c8d 15be ae28 313c
000000e0: f5bf 37bd 82df d0bd a1b7 40bd f03f 19bd
000000f0: 5f8e 78bd ecb4 c6bd 6c94 63bd 759c 97bc
00000100: 1369 2ebc 2545 babc c2ba d03c 2ecc c83c
00000110: 44bd 80bd 1ed8 a339 2348 c9bd 7572 a5ba
00000120: 4003 efbd 378e 76bd c935 81bd 43fb c23c
00000130: 7bb6 73bd ecbc 18bd f112 83bd f6d0 e1bc
00000140: d9aa 58bd 3149 973c a172 edbc fca9 073d
00000150: 1e3a 93bd 392d fe3c 5127 ae3c 930a 0dbd
00000160: 86a1 5d3d 5f43 abbd 411a 44bd a4ea 873b
00000170: 637e 1fbd 6d5d 883c a76e adbd 529c 3bbc
00000180: 3ad9 ffbc f105 d1bd 3508 3fbd a6db 1bbd
00000190: 07bc d13c c71a 80bc 1665 c7bc 4fed 76bd
000001a0: 0159 3b3c 9fa9 15bd 6282 a1bd 9df2 53bd
000001b0: aefd d4bd a2ca 64bd 2cc7 5fbd 17db 86bd
000001c0: 3e97 72bd 1ba5 91bd 9bbb c8bc cb16 01bd
000001d0: 93fd dabd 9174 fabb b333 2ebd 289a 90bd
000001e0: 17d5 cabb 9cd8 75bd 8fc1 90bd c573 8dbd
000001f0: 4ab2 043d 1c6e b3bd f425 f6bc 871f 91bd

network_body.linear_encoder.seq_layers.0.weight f4 [128, 6]
0.1394696 -0.2481028 0.02966644 -0.24128284 0.68899816 0.54113185 0.3224441 1.1235019
-0.37681642 0.045638222 0.041765835 0.60505044 0.09511352 -0.06705093 0.7042388 -0.62268037
-0.8640541 -0.6431057 -0.10283183 0.17119282 0.0017439706 -0.5480863 -0.2610619 -0.449213
0.330299 0.8013572 0.22921394 -0.021104751 -0.6798882 -0.109494105 0.48539773 -0.023336358
0.18072213 0.24653634 -0.6523598 -0.3824841 0.38194716 -0.53539854 -0.24936204 -0.8899741
0.09004661 0.15348248 -0.19759127 -0.15834773 0.07732698 -0.317128 -0.6833733 0.023324013
-0.20013939 -0.46199974 0.29750153 -0.097760245 0.7738961 0.6855292 0.34848896 0.03170528
-0.002666697 -0.605899 0.14391962 0.14877017 0.17893872 0.73127675 -0.5382593 0.93879986
0.8046042 -0.054282933 -0.24191174 0.07008975 0.45330343 0.00797161 -0.73616576 0.18170953
0.4077585 -0.21958174 -0.16565059 -0.32073805 -0.021630323 -0.40294054 0.42459503 0.6579926
0.31339112 0.6027029 -0.40954396 -0.77915204 -0.3508764 0.2145565 -0.6396692 -0.49351603
0.6526361 -0.6135394 0.15065174 -1.0061009 -0.5935797 -0.34587014 -0.15468788 -0.087318145
0.6106018 0.32959327 -0.16006863 -0.4129042 -1.0338147 -0.27370554 -0.26943302 0.5599729
-0.27262452 -0.24242835 0.57518923 -0.48276517 -0.12797916 0.17611171 0.06186807 0.16023001
0.23054335 -0.06634209 -0.501212 0.21368162 0.42160136 -0.03348316 0.27856475 0.7206705
0.44485313 0.56092495 0.24015842 -0.113966055 0.19553186 -0.66931975 0.31153488 0.47532132
-0.3269207 0.0049910634 -0.28929806 0.075893864 0.14298278 0.46135294 0.24456042 -0.41513872
-0.37178972 -0.5447787 -0.3208706 -0.034818005 0.12845735 0.013262121 -0.5347951 -0.42137247
0.10885887 0.4262466 0.2859014 -0.9448085 0.047779735 0.37658006 0.11054034 -0.034820687
-0.25271812 -0.120507054 -0.06466154 0.20546646 -0.5888243 -0.21972081 -0.11384599 -0.38324493
-0.27884933 -0.14659661 0.3241961 0.37784284 -0.11812247 -0.05315531 0.15327616 -0.12332898
0.12567066 -0.39730835 0.31546465 -0.109683454 -0.29935488 -0.48182076 0.008718676 -0.31280667
0.78498864 -0.575945 0.112342104 -0.41417912 -0.43690693 0.8387058 -0.2022444 0.033756353
-0.22040114 -0.86302805 0.38976118 -0.07937975 0.35223773 0.057457406 -0.06751875 0.2487378
0.5636671 0.31380275 -0.17305368 -0.017810676 0.67609 -0.4080243 -0.19676974 0.025472946
-0.23820432 0.032339126 0.0097005125 -0.17600264 0.031413335 0.060039412 -0.12938121 0.1568127
0.103917666 0.27604544 -0.039561797 -0.45273143 0.33416805 -0.11967088 0.23740874 -0.19902213
0.2777308 -0.15047862 0.105932586 0.022850903 0.16339219 0.6387885 0.30260286 0.22362986
0.19007364 0.34695265 0.25840506 0.27228132 0.77028096 -0.67818797 -0.20528847 -0.33925536
-0.11253654 -0.13557264 0.5799786 0.25149378 0.03045087 -0.22629371 0.67872345 0.07606983
0.20050399 0.2871093 -0.6328949 0.052129056 -0.13992232 -0.14246853 -1.3079251 -0.4439468
-0.049073026 0.061477587 0.07025288 -0.64365345 -0.124016 -0.60307276 -0.043262757 -0.2410202
00000000: 1ed1 0e3e a90e 7ebe 0907 f33c d912 77be
00000010: 2f62 303f 9e87 0a3f 6517 a53e e9ce 8f3f
00000020: 15ee c0be 25ef 3a3d a712 2b3d 96e4 1a3f
00000030: e1ca c23d ff51 89bd fe48 343f fb67 1fbf
00000040: a632 5dbf 93a2 24bf 7f99 d2bd 2c4d 2f3e
00000050: f195 e43a 624f 0cbf e8a9 85be 3fff e5be
00000060: f31c a93e bf25 4d3f 0fb7 6a3e dfe3 acbc
00000070: 270d 2ebf 723e e0bd 0d86 f83e e42b bfbc
00000080: 390f 393e 0674 7c3e 0d01 27bf f5d4 c3be
00000090: 948e c33e e10f 09bf c358 7fbe 58d5 63bf
000000a0: 5b6a b83d 832a 1d3e 5e55 4abe e825 22be
000000b0: 9c5d 9e3d 9a5e a2be 8df1 2ebf 0012 bf3c
000000c0: 57f1 4cbe 3b8b ecbe 1f52 983e 8636 c8bd
000000d0: 0e1e 463f d77e 2f3f 256d b23e 65dd 013d
000000e0: c0c3 2ebb 321c 1bbf aa5f 133e 3557 183e
000000f0: b63b 373e f434 3b3f 5dcb 09bf 3055 703f
00000100: 8afa 4d3f c857 5ebd b6b7 77be 378b 8f3d
00000110: 6317 e83e 5b9b 023c 5c75 3cbf 1012 3a3e
00000120: b9c5 d03e 09da 60be 4fa0 29be c737 a4be
00000130: 1332 b1bc 394e cebe 8564 d93e 3472 283f
00000140: cd74 a03e bd4a 1a3f bfaf d1be 8276 47bf
00000150: 12a6 b3be b3b4 5b3e 5cc1 23bf 22ae fcbe
00000160: 2913 273f eb10 1dbf 7344 1a3e eac7 80bf
00000170: d7f4 17bf e415 b1be 8066 1ebe dbd3 b2bd
00000180: 6650 1c3f 73c0 a83e 08e9 23be 2e68 d3be
00000190: 0a54 84bf 2223 8cbe 20f3 89be 625a 0f3f
000001a0: 7195 8bbe 233f 78be 9a3f 133f ff2c f7be
000001b0: f80c 03be a156 343e 6069 7d3d 5613 243e
000001c0: 8e13 6c3e 5dde 87bd 6e4f 00bf 5bcf 5a3e
000001d0: 22dc d73e a325 09bd 0aa0 8e3e dd7d 383f
000001e0: cac3 e33e c798 0f3f 17ec 753e 0967 e9bd
000001f0: 8139 483e 8a58 2bbf 8081 9f3e 515d f33e
00000200: 2662 a7be 138c a33b e01e 94be 3e6e 9b3d
00000210: 146a 123e 7436 ec3e 0c6e 7a3e 108d d4be
00000220: 395b bebe 9e76 0bbf 2749 a4be 539d 0ebd
00000230: 538a 033e 5e49 593c 55e8 08bf 22be d7be
00000240: 66f1 de3d ff3c da3e ab61 923e f8de 71bf
00000250: afb4 433d 1acf c03e f962 e23d 23a0 0ebd
00000260: 4564 81be 67cc f6bd 456d 84bd cd65 523e
00000270: 30bd 16bf 7efe 60be 1628 e9bd ae38 c4be
00000280: 57c5 8ebe 6c1d 16be 08fd a53e 9e74 c13e
00000290: 32ea f1bd 62b9 59bd 6df4 1c3e e793 fcbd
000002a0: cfaf 003e 006c cbbe 9584 a13e b8a1 e0bd
000002b0: 0b45 99be 36b1 f6be c7d8 0e3c 3228 a0be
000002c0: 04f5 483f 2271 13bf 9e13 e63d 490f d4be
000002d0: 44b2 dfbe 6cb5 563f 2819 4fbe 1a44 0a3d
000002e0: d6b0 61be 68ef 5cbf c78e c73e da91 a2bd
000002f0: 8158 b43e 7558 6b3d 4547 8abd 1fb5 7e3e
00000300: 7d4c 103f c1aa a03e fc34 31be b2e7 91bc
00000310: 3c14 2d3f 90e8 d0be 027e 49be a4ac d03c
00000320: d5eb 73be 0876 043d e6ee 1e3c 093a 34be
00000330: 45ab 003d e3eb 753d 827c 04be 8293 203e
00000340: c9d2 d43d d455 8d3e 8d0b 22bd 6acc e7be
00000350: 1318 ab3e 0216 f5bd 471b 733e 75cc 4bbe
00000360: bb32 8e3e 1117 1abe 2ff3 d83d d131 bb3c
00000370: 4850 273e a587 233f c3ee 9a3e 3aff 643e
00000380: aaa2 423e c7a3 b13e ab4d 843e 7568 8b3e
00000390: 2231 453f ba9d 2dbf 2437 52be e1b2 adbe
000003a0: 8f79 e6bd 8ed3 0abe 7a79 143f cbc3 803e
000003b0: 1a74 f93c 8ab9 67be d2c0 2d3f 80ca 9b3d
000003c0: eb50 4d3e fdff 923e 6605 22bf 4785 553d
000003d0: cc47 0fbe 45e3 11be 176a a7bf ff4c e3be
000003e0: cc00 49bd eccf 7b3d bee0 8f3d 79c6 24bf
000003f0: 1afc fdbd fa62 1abf 4a34 31bd 00ce 76be

network_body.linear_encoder.seq_layers.2.bias f4 [128]
-0.045501724 -0.040584054 -0.02568431 -0.013323299 0.018264376 -0.024647586 -0.01864799 -0.03246536
0.0018919741 -0.04292776 -0.014238852 -0.014160389 -0.061869532 -9.056117e-05 0.02701804 -0.0004715532
-0.008319733 0.026444577 0.070229635 0.008502603 -0.026848152 0.03999525 0.0041006203 0.033820406
-0.030827077 -0.12629952 -0.082242325 -0.00285511 -0.029868051 0.010718753 0.048412103 -0.00167816
0.025143836 0.09173838 -0.017504811 0.021752615 -0.0539746 0.007876169 -0.051398456 0.044679224
0.019645635 -0.021912491 -0.044971377 0.06639102 -0.02057452 -0.053950675 0.03650141 -0.046952616
0.025894849 -0.052389327 -0.044775996 0.04500513 -0.04630333 0.056822862 -0.020901022 0.0028539714
0.00947392 0.027446805 0.01848882 0.0078218505 0.006534218 0.00021298662 -0.022757282 -0.019710543
-0.064752996 -0.013360829 -0.06498723 -0.04264482 -0.0050526885 -0.03214393 0.036198612 0.017598879
-0.0049309237 0.020795142 0.0062611173 0.011505251 0.023062166 -0.02675954 0.0035703073 0.06735008
0.048887867 0.036513768 -0.017215306 0.033793125 0.022629334 -0.022010095 0.0054068323 0.019742616
0.033223867 0.034877256 0.027276628 0.058698516 0.035231963 0.00225909 -0.0127221905 0.025935546
-0.0025066524 -0.028766986 -0.022822527 -0.011273084 -0.026883254 -0.006672188 0.01213686 0.05764797
0.020116994 -0.011913709 -0.015242056 -0.024534928 0.0299685 0.0791088 0.047386076 0.020165874
-0.02808984 -0.025053699 -0.010216362 0.004072517 0.02439043 0.03268115 0.035587773 0.005652316
0.007032339 -0.005905366 -0.024254205 0.041103132 0.04695237 -0.02742864 -0.00010484541 -0.024424149
00000000: 0460 3abd 773b 26bd e767 d2bc f749 5abc
00000010: 2c9f 953c bce9 c9bc abc3 98bc 66fa 04bd
00000020: 1efc f73a 05d5 2fbd 134a 69bc fa00 68bc
00000030: e86a 7dbd a8eb bdb8 f054 dd3c cd3a f7b9
00000040: 7d4f 08bc 4ca2 d83c 8ed4 8f3d 804e 0b3c
00000050: a8f0 dbbc 0fd2 233d 7f5e 863b 4487 0a3d
00000060: 1189 fcbc a954 01be aa6e a8bd cc1c 3bbb
00000070: d8ad f4bc b59d 2f3c c54b 463d b5f5 dbba
00000080: 72fa cd3c 55e1 bb3d 4066 8fbc 8a32 b23c
00000090: 7814 5dbd 0c0b 013c 3087 52bd 9001 373d
000000a0: e2ef a03c d381 b3bc e833 38bd 04f8 873d
000000b0: e58b a8bc 62fb 5cbd 8182 153d 6351 40bd
000000c0: 6f21 d43c 3196 56bd 0967 37bd 4d57 383d
000000d0: 90a8 3dbd 17bf 683d 9f38 abbc b209 3b3b
000000e0: 8038 1b3c 1fd8 e03c de75 973c 3827 003c
000000f0: fe1c d63b 2955 5f39 7b6d babc 0178 a1bc
00000100: 389d 84bd 61e7 5abc 0618 85bd 56ac 2ebd
00000110: 0691 a5bb 5ba9 03bd ff44 143d 862b 903c
00000120: 9693 a1bb 935a aa3c 0f2a cd3b 8580 3c3c
00000130: deec bc3c d336 dbbc d1fb 693b d7ee 893d
00000140: a53e 483d 768f 153d 1d07 8dbc a96a 0a3d
00000150: 2761 b93c 844e b4bc cc2b b13b 44bb a13c
00000160: c015 083d 74db 0e3d 3c73 df3c db6d 703d
00000170: 644f 103d 3e0d 143b bc70 50bc c876 d43c
00000180: a646 24bb bea8 ebbc 4ff6 babc beb2 38bc
00000190: 453a dcbc 5fa2 dabb aed9 463c 4720 6c3d
000001a0: 65cc a43c b831 43bc d1b9 79bc 79fd c8bc
000001b0: 8080 f53c cb03 a23d e717 423d e732 a53c
000001c0: aa1c e6bc 6a3d cdbc 8762 27bc c072 853b
000001d0: 70ce c73c abdc 053d 7cc4 113d 1037 b93b
000001e0: 896f e63b cd81 c1bb c1b0 c6bc c25b 283d
000001f0: 2151 403d 07b2 e0bc 73e0 dbb8 2715 c8bc

network_body.linear_encoder.seq_layers.2.weight f4 [128, 128]
0.004563701 -0.08305536 0.056851555 0.048968777 -0.17042142 -0.08284129 0.065513425 -0.062878534
-0.07608341 0.120839186 -0.032810863 0.10630214 -0.08819098 -0.17199975 -0.0021718224 0.08585808
-0.08783032 -0.08256282 0.01296544 0.020048248 -0.009506182 -0.052656732 -0.022572653 -0.0025971052
0.03225491 0.10357212 -0.08715065 -0.020124463 -0.031576436 0.14983232 0.120456584 0.17785022
-0.089714214 0.106921315 -0.0017938203 -0.007828926 0.016904596 -0.08846046 0.027990412 -0.05443361
-0.04287861 -0.11526462 0.00571308 -0.1446884 0.07394587 -0.09217456 -0.12701888 -0.07419619
0.08426689 -0.16042942 -0.12700856 -0.0021655874 -0.10739851 0.01379145 -0.053396057 0.11333104
0.014118138 -0.1724843 -0.145338 0.0967932 0.13409153 -0.2129666 -0.01968326 -0.16715808
-0.03294562 -0.012068114 -0.03351065 -0.029716762 -0.24633798 0.11407942 0.024044005 -0.11025103
0.041617557 -0.094164416 0.001679126 0.04208555 -0.08604573 0.017028302 -0.12477236 -0.019296836
0.07522105 0.063579485 -0.00084808917 -0.21506202 -0.06376643 -0.014440978 -0.058185462 -0.06606718
0.0137817 0.09354463 0.0109681375 -0.15865344 -0.04185543 0.029981967 0.04829184 0.07145164
-0.114749976 -0.12096133 -0.059886117 -0.10464655 0.16073418 -0.1521388 -0.019617734 0.07240193
-0.020853074 -0.12909429 -0.06812522 -0.10216918 -0.06318068 0.042786866 -0.108572975 -0.039040666
0.076203935 -0.07810878 -0.0542789 -0.10244922 0.015561651 -0.12786716 0.047593836 -0.14025462
-0.035779044 -0.11447238 0.08447293 -0.08513877 -0.032620516 0.04743257 -0.09944347 -0.08760042
-0.20571107 0.031360812 0.011887285 0.09433773 0.038871333 -0.055420086 0.11320116 -0.005528229
-0.040021077 -0.040758543 -0.009508987 -0.03469017 -0.11441078 -0.077029034 0.14898105 -0.04097854
-0.13480726 0.023716206 0.038421813 0.0004975292 0.023518492 -0.12713766 -0.048969276 -0.065439254
-0.10553013 0.13332659 0.18013297 -0.11098131 0.17498349 -0.06489691 -0.09313189 0.046124876
-0.082395166 0.062420942 0.19726491 -0.06672615 0.08728 0.2054849 -0.026126148 0.019548072
-0.0055668624 -0.12346638 -0.06849777 -0.055794492 0.020517787 0.090240285 -0.1874587 0.04536903
-0.058561828 -0.00037982993 0.13886729 -0.023297004 -0.0013734443 -0.22766793 -0.19122976 -0.19553359
-0.14118639 0.01276029 0.10971299 0.01784276 -0.15049669 -0.006231391 -0.13269012 -0.0074186376
-0.05846571 -0.12912323 -0.118913405 -0.15323672 0.025923446 -0.029672524 -0.18066658 0.083627455
-0.040607695 0.01222895 -0.106801696 0.011303739 0.043870628 -0.029158631 -0.016458746 0.061518643
0.07664206 -0.06437776 -0.14282967 -0.005883578 -0.10944585 -0.108419634 -0.15439948 -0.05643397
-0.0714022 -0.15317021 -0.13984708 -0.06512865 0.023426468 -0.06679054 0.036158238 0.079451494
0.01573199 -0.11630814 0.009593527 -0.09607738 -0.07108857 -0.034952074 -0.034492217 0.029236205
0.008463554 -0.08545132 -0.13004564 -0.17185193 0.11564815 -0.2805505 -0.07850335 0.0066911993
0.025985274 0.009431825 -0.034870874 -0.12844093 0.024498189 0.038708087 -0.16893563 0.26363268
-0.24688694 -0.12907243 0.08509539 0.014039178 0.06640359 -0.0639886 -0.090815 0.055864513
00000000: 198b 953b ee18 aabd 2ddd 683d 7c93 483d
00000010: f482 2ebe b2a8 a9bd e72b 863d 76c6 80bd
00000020: 9ed1 9bbd 897a f73d af64 06bd f0b4 d93d
00000030: 799d b4bd b420 30be 2255 0ebb 5cd6 af3d
00000040: 62e0 b3bd b216 a9bd ff6c 543c 393c a43c
00000050: d1bf 1bbc 96ae 57bd 49ea b8bc 3234 2abb
00000060: b91d 043d 9f1d d43d 0a7c b2bd 0fdc a4bc
00000070: 4b56 01bd a56d 193e f1b1 f63d 5e1e 363e
00000080: 16bc b7bd 90f9 da3d 9f1e ebba e544 00bc
00000090: 827b 8a3c c22a b5bd 264c e53c c7f5 5ebd
000000a0: 7ba1 2fbd db0f ecbd ca34 bb3b 3229 14be
000000b0: ef70 973d 04c6 bcbd 3d11 02be 2cf4 97bd
000000c0: 1f94 ac3d 9c47 24be 880e 02be 87ec 0dbb
000000d0: c0f3 dbbd 89f5 613c d3b5 5abd 1b1a e83d
000000e0: c34f 673c b99f 30be 7cd3 14be 833b c63d
000000f0: 4a4f 093e eb13 5abe ca3e a1bc 7d2b 2bbe
00000100: fdf1 06bd 57b9 45bc 7742 09bd 9170 f3bc
00000110: 0640 7cbe 79a2 e93d eff7 c43c 4bcb e1bd
00000120: 2c77 2a3d 46d9 c0bd 1f16 dc3a e661 2c3d
00000130: be38 b0bd f07e 8b3c a788 ffbd 6614 9ebc
00000140: 7e0d 9a3d f635 823d 4d52 5eba 3839 5cbe
00000150: f997 82bd da99 6cbc e153 6ebd 3b4e 87bd
00000160: a4cc 613c 5494 bf3d b4b3 333c 0c76 22be
00000170: 9970 2bbd be9c f53c aacd 453d 3d55 923d
00000180: 0902 ebbd 93ba f7bd 254b 75bd ee50 d6bd
00000190: 8097 243e 46ca 1bbe 5fb5 a0bc 7747 943d
000001a0: 11d4 aabc 4b31 04be 3c85 8bbd 133e d1bd
000001b0: df64 81bd 4841 2f3d 825b debd 1be9 1fbd
000001c0: cf10 9c3d 7ff7 9fbd 8d53 5ebd e6d0 d1bd
000001d0: 4cf6 7e3c 9cef 02be c1f1 423d e89e 0fbe
000001e0: 0c8d 12bd 7f70 eabd 2500 ad3d 3c5d aebd
000001f0: 179d 05bd a848 423d 05a9 cbbd d967 b3bd
00000200: eca5 52be 3274 003d e3c2 423c 2434 c13d
00000210: 8c37 1f3d 2c00 63bd 03d6 e73d 2526 b5bb
00000220: 24ed 23bd 6ef2 26bd 95cb 1bbc 4817 0ebd
00000230: 3350 eabd 66c1 9dbd 7d8e 183e 1dd9 27bd
00000240: ea0a 0abe 7d48 c23c 3160 1d3d 9f6c 023a
00000250: daa9 c03c 6030 02be 0294 48bd 0405 86bd
00000260: 2e20 d8bd c486 083e c774 383e 2b4a e3bd
00000270: df2e 333e ace8 84bd efbb bebd 70ed 3c3d
00000280: ccbe a8bd 1aad 7f3d d0ff 493e b8a7 88bd
00000290: dbbf b23d a26a 523e 8106 d6bc 4723 a03c
000002a0: 3a6a b6bb f1db fcbd 8f48 8cbd c488 64bd
000002b0: eb14 a83c e6cf b83d 2cf5 3fbe e0d4 393d
000002c0: 87de 6fbd e923 c7b9 3a33 0e3e 5cd9 bebc
000002d0: 2505 b4ba c821 69be bcd1 43be f539 48be
000002e0: 2a93 10be 8910 513c 34b1 e03d fb2a 923c
000002f0: ce1b 1abe b230 ccbb ebdf 07be 0b18 f3bb
00000300: be79 6fbd e138 04be df88 f3bd 16ea 1cbe
00000310: 685d d43c cb13 f3bc a900 39be df44 ab3d
00000320: 4154 26bd ef5b 483c d9ba dabd 5133 393c
00000330: b0b1 333d 15de eebc 7ed4 86bc f9fa 7b3d
00000340: 83f6 9c3d 7dd8 83bd f141 12be 08cb c0bb
00000350: 2525 e0bd 1d0b debd e61a 1ebe 4e27 67bd
00000360: 513b 92bd a7d8 1cbe 1334 0fbe 2b62 85bd
00000370: dde8 bf3c 7bc9 88bd a91a 143d 77b7 a23d
00000380: 60e0 803c f632 eebd 2b2e 1d3c 38c4 c4bd
00000390: e296 91bd e829 0fbd b647 0dbd c480 ef3c
000003a0: b8aa 0a3c 1a01 afbd af2a 05be f4f9 2fbe
000003b0: f0d8 ec3d 51a4 8fbe 5dc6 a0bd d941 db3b
000003c0: 12df d43c f187 1a3c c3d4 0ebd 0586 03be
000003d0: 6db0 c83c 5f8c 1e3d 76fd 2cbe ddfa 863e
000003e0: eecf 7cbe 902b 04be 7e46 ae3d 9504 663c
000003f0: 9bfe 873d 750c 83bd 37fd b9bd 30d2 643d
