results/MoveToGoal2/MoveToGoal/MoveToGoal-4971.pt (torch, 439199 bytes, 36 tensors)

network_body.linear_encoder.seq_layers.0.weight f4 [128, 6]
0.1394878 -0.24809955 0.02965033 -0.241279 0.68899816 0.54112816 0.32242012 1.1235229
-0.37679258 0.04559544 0.041765835 0.6050898 0.09512424 -0.06704658 0.70420325 -0.6226807
-0.8640541 -0.6431231 -0.10278488 0.17113727 0.0016513369 -0.548069 -0.2610619 -0.44931087
0.33031148 0.8013422 0.22919981 -0.021081956 -0.6798882 -0.10952902 0.48545638 -0.02340776
0.18067002 0.24657783 -0.6523598 -0.38254204 0.38200024 -0.53543407 -0.24945153 -0.8899414
0.09004661 0.1534214 -0.19761191 -0.15838069 0.0773073 -0.31712136 -0.6833733 0.023320299
-0.20015065 -0.4620016 0.29750052 -0.09776929 0.7738961 0.68552333 0.3485138 0.03172238
-0.002690403 -0.60587764 0.14391962 0.14874049 0.17894503 0.73127115 -0.53828496 0.9387919
0.8046042 -0.054292053 -0.2419096 0.070091896 0.4533049 0.007970938 -0.73616576 0.1817113
0.40775064 -0.21958813 -0.16567302 -0.32075444 -0.021630323 -0.40296805 0.42465487 0.6579695
0.31337532 0.6027652 -0.40954396 -0.77919805 -0.35079858 0.21448815 -0.6398018 -0.4934964
0.6526361 -0.61365616 0.15065148 -1.0061554 -0.5936347 -0.34589738 -0.15468788 -0.087397195
0.61058503 0.32959184 -0.16007963 -0.41291788 -1.0338147 -0.27373028 -0.26944274 0.55995524
-0.27260044 -0.24240763 0.57518923 -0.48276412 -0.12793168 0.17612188 0.06190869 0.1602429
0.23054335 -0.066318855 -0.50121397 0.21368086 0.4215914 -0.033485714 0.27856475 0.7206607
0.44485787 0.56092787 0.24012063 -0.11396381 0.19553186 -0.6693569 0.3114999 0.47531566
-0.32694432 0.0049676546 -0.28929806 0.075835824 0.14297567 0.4613868 0.24460162 -0.41513875
-0.37178972 -0.5447293 -0.32087865 -0.034757454 0.12851839 0.013279628 -0.5347951 -0.42129824
0.10886617 0.42625108 0.28588605 -0.9448046 0.047779735 0.3765756 0.11046431 -0.034820046
-0.25273436 -0.1205972 -0.06466154 0.20541719 -0.5888704 -0.21975079 -0.11383155 -0.38324973
-0.27884933 -0.1465791 0.32410216 0.37795785 -0.11804266 -0.053235892 0.15327616 -0.12323553
0.12571831 -0.39732662 0.315463 -0.10961702 -0.29935488 -0.48183605 0.008730907 -0.31279296
0.78498966 -0.5759376 0.112342104 -0.41417807 -0.43685699 0.83873254 -0.20225134 0.033769667
-0.22040114 -0.8630077 0.38974229 -0.079334654 0.352212 0.057424046 -0.06751875 0.24875884
0.5637171 0.31380385 -0.17306489 -0.017752636 0.67609 -0.40802094 -0.19679034 0.02547553
-0.23822969 0.0323496 0.0097005125 -0.17602082 0.03139974 0.060040258 -0.12938903 0.1567953
0.103917666 0.27606252 -0.039567824 -0.4527285 0.3341939 -0.11966959 0.23740874 -0.1989949
0.27770594 -0.15044104 0.10592751 0.022809206 0.16339219 0.63879496 0.30256698 0.22367987
0.19008519 0.34690106 0.25840506 0.27228987 0.77025205 -0.67816377 -0.20532538 -0.33929414
-0.11253654 -0.13560992 0.57994366 0.2515243 0.030447006 -0.22633225 0.67872345 0.07606057
0.20049316 0.28707165 -0.63296586 0.05209961 -0.13992232 -0.14253157 -1.3079439 -0.4439933
-0.049084086 0.061503273 0.07025288 -0.6436632 -0.12400555 -0.60308856 -0.043278635 -0.24100894
00000000: e4d5 0e3e cf0d 7ebe 40e5 f23c d811 77be
00000010: 2f62 303f 6087 0a3f 4014 a53e 99cf 8f3f
00000020: f5ea c0be 49c2 3a3d a712 2b3d 2ae7 1a3f
00000030: 7fd0 c23d b84f 89bd aa46 343f 0168 1fbf
00000040: a632 5dbf b7a3 24bf e180 d2bd 9c3e 2f3e
00000050: ac71 d83a 404e 0cbf e8a9 85be 130c e6be
00000060: 961e a93e c324 4d3f 5bb3 6a3e 11b4 acbc
00000070: 270d 2ebf c050 e0bd bd8d f83e a1c1 bfbc
00000080: 9001 393e e67e 7c3e 0d01 27bf 8ddc c3be
00000090: 8995 c33e 3512 09bf 3970 7fbe 33d3 63bf
000000a0: 5b6a b83d 801a 1d3e c75a 4abe 8c2e 22be
000000b0: 4a53 9e3d bb5d a2be 8df1 2ebf 360a bf3c
000000c0: 4bf4 4cbe 798b ecbe fd51 983e 443b c8bd
000000d0: 0e1e 463f 757e 2f3f 6770 b23e 54ef 013d
000000e0: 7951 30bb cc1a 1bbf aa5f 133e 6d4f 183e
000000f0: 5e3d 373e 9634 3b3f 0bcd 09bf aa54 703f
00000100: 8afa 4d3f 5861 5ebd 26b7 77be 578c 8f3d
00000110: 9417 e83e 8a98 023c 5c75 3cbf 8712 3a3e
00000120: b1c4 d03e b6db 60be 30a6 29be ed39 a4be
00000130: 1332 b1bc d451 cebe 5d6c d93e b070 283f
00000140: bb72 a03e d24e 1a3f bfaf d1be 8679 47bf
00000150: df9b b3be c8a2 5b3e 0dca 23bf 8fab fcbe
00000160: 2913 273f 9218 1dbf 6244 1a3e b3c9 80bf
00000170: 72f8 17bf 7619 b1be 8066 1ebe 4dfd b2bd
00000180: 4d4f 1c3f 43c0 a83e eaeb 23be f969 d3be
00000190: 0a54 84bf 6026 8cbe 66f4 89be 3a59 0f3f
000001a0: 4992 8bbe b539 78be 9a3f 133f dc2c f7be
000001b0: 8600 03be 4b59 343e f793 7d3d b716 243e
000001c0: 8e13 6c3e 2ed2 87bd 8f4f 00bf 28cf 5a3e
000001d0: d4da d73e 5128 09bd 0aa0 8e3e 387d 383f
000001e0: 69c4 e33e f898 0f3f 2fe2 753e dc65 e9bd
000001f0: 8139 483e f95a 2bbf ea7c 9f3e 935c f33e
00000200: 3f65 a7be b5c7 a23b e01e 94be d04f 9b3d
00000210: 3768 123e e43a ec3e d978 7a3e 118d d4be
00000220: 395b bebe 6173 0bbf 354a a4be d55d 0ebd
00000230: 539a 033e cc92 593c 55e8 08bf 67b4 d7be
00000240: 3af5 de3d 953d da3e a85f 923e b7de 71bf
00000250: afb4 433d 84ce c03e 1d3b e23d 779f 0ebd
00000260: 6666 81be aafb f6bd 456d 84bd e258 523e
00000270: 36c0 16bf 5a06 61be 8420 e9bd 4f39 c4be
00000280: 57c5 8ebe d518 16be b8f0 a53e b183 c13e
00000290: 5ac0 f1bd e10d 5abd 6df4 1c3e e962 fcbd
000002a0: 4dbc 003e 656e cbbe 5e84 a13e e37e e0bd
000002b0: 0b45 99be 37b3 f6be 140c 0f3c 6626 a0be
000002c0: 15f5 483f a670 13bf 9e13 e63d 260f d4be
000002d0: b8ab dfbe 2db7 563f fa1a 4fbe 1052 0a3d
000002e0: d6b0 61be 13ee 5cbf 4d8c c73e 357a a2bd
000002f0: 2255 b43e 7a35 6b3d 4547 8abd a3ba 7e3e
00000300: c44f 103f e6aa a03e ec37 31be fa6d 91bc
00000310: 3c14 2d3f 1fe8 d0be 6883 49be 0fb2 d03c
00000320: 7cf2 73be 0481 043d e6ee 1e3c cd3e 34be
00000330: 049d 003d c6ec 753d 8f7e 04be f28e 203e
00000340: c9d2 d43d 1158 8d3e df11 22bd 08cc e7be
00000350: 761b ab3e 5415 f5bd 471b 733e 52c5 4bbe
00000360: 792f 8e3e 370d 1abe 86f0 d83d 5fda ba3c
00000370: 4850 273e 1188 233f 0fea 9a3e 560c 653e
00000380: b1a5 423e 049d b13e ab4d 843e 9469 8b3e
00000390: 3d2f 453f 249c 2dbf d140 52be f6b7 adbe
000003a0: 8f79 e6bd 54dd 0abe 3077 143f cbc7 803e
000003b0: 006c f93c a4c3 67be d2c0 2d3f a5c5 9b3d
000003c0: 144e 4d3e 0efb 923e 0d0a 22bf 6766 553d
000003d0: cc47 0fbe ccf3 11be b56a a7bf 1753 e3be
000003e0: 650c 49bd dbea 7b3d bee0 8f3d 1dc7 24bf
000003f0: 9ff6 fdbd 0364 1abf f044 31bd 0ccb 76be

network_body.linear_encoder.seq_layers.0.bias f4 [128]
-0.00020985494 -0.085772365 -0.034974847 -0.025589934 -0.061328195 -0.101651184 0.028728032 -0.055170994
0.015487985 0.029585375 -0.075127006 -0.022253279 -0.015039284 -0.062455393 -0.055902116 -0.09825775
0.020174963 -0.08953384 0.0030726558 0.015982168 -0.086895876 -0.018693553 -0.05331641 -0.07201476
-0.04072606 -0.019980509 -0.094106145 -0.08144943 -0.010228358 -0.036390655 -0.009573128 -0.002786638
-0.08865155 -0.02614275 -0.028987214 -0.07211176 0.019127002 -0.033642314 -0.0036953727 -0.021533314
-0.13725469 -0.06998692 0.015447145 -0.06138699 -0.021715831 -0.07799323 -0.004602665 -0.12297089
-0.033913802 -0.02255834 0.025977215 -0.071399406 -0.037133083 -0.032189015 -0.1460632 0.010789125
-0.04491357 -0.10200395 -0.047090307 -0.037423875 -0.06068601 -0.09702774 -0.055472046 -0.018508185
-0.010628872 -0.022734074 0.025469579 0.024501493 -0.06285757 0.00030571822 -0.09829581 -0.0012761061
-0.11672251 -0.060225554 -0.06308476 0.023851942 -0.059488587 -0.03719918 -0.06399716 -0.027515622
-0.05290041 0.018495135 -0.02902805 0.033136394 -0.07186604 0.031046398 0.021249518 -0.03443524
0.054108962 -0.08353894 -0.04785333 0.00415177 -0.038914576 0.016637692 -0.08465932 -0.011496475
-0.031229319 -0.102051646 -0.046663407 -0.03807193 0.025645679 -0.015654752 -0.024377396 -0.060252015
0.011418745 -0.036532044 -0.078817055 -0.051774953 -0.104001306 -0.055854995 -0.054676138 -0.065877564
-0.05923297 -0.071120344 -0.024553476 -0.03153064 -0.10696603 -0.0076804836 -0.04245886 -0.07064432
-0.0061918013 -0.060035955 -0.070729434 -0.069075555 0.032389507 -0.087621085 -0.02999589 -0.07087384
00000000: 820c 5cb9 6ca9 afbd c941 0fbd fba1 d1bc
00000010: 4633 7bbd 7f2e d0bd 0d57 eb3c fbfa 61bd
00000020: 51c1 7d3c 075d f23c 30dc 99bd 824c b6bc
00000030: 5467 76bc 3ad1 7fbd 9ef9 64bd 5c3b c9bd
00000040: f745 a53c 855d b7bd 9c5e 493b 09ed 823c
00000050: 77f6 b1bd 3923 99bc 4f62 5abd 797c 93bd
00000060: 5ed0 26bd 2aae a3bc b9ba c0bd f5ce a6bd
00000070: d894 27bc 5e0e 15bd 9cd8 1cbc 07a0 36bb
00000080: f28e b5bd 5229 d6bc 9876 edbc 55af 93bd
00000090: 3bb0 9c3c 86cc 09bd 112e 72bb a266 b0bc
000000a0: 7e8c 0cbe 4d55 8fbd 0616 7d3c ed70 7bbd
000000b0: 66e5 b1bc eaba 9fbd f4d1 96bb 29d8 fbbd
000000c0: 33e9 0abd 45cc b8bc 2bce d43c da39 92bd
000000d0: dc18 18bd a1d8 03bd 9791 15be dfc4 303c
000000e0: 4bf7 37bd 72e7 d0bd c4e1 40bd c749 19bd
000000f0: e591 78bd 7bb6 c6bd a836 63bd 7a9e 97bc
00000100: b824 2ebc cf3c babc 94a5 d03c 5bb7 c83c
00000110: 78bb 80bd ce48 a039 504f c9bd 0443 a7ba
00000120: 360c efbd 12af 76bd 9532 81bd 2665 c33c
00000130: 4eaa 73bd 2b5e 18bd f110 83bd 7168 e1bc
00000140: 1aae 58bd 1c83 973c 3ccc edbc 07ba 073d
00000150: 812e 93bd 0455 fe3c 7813 ae3c f70b 0dbd
00000160: 5ca1 5d3d 7716 abbd da01 44bd 920b 883b
00000170: e464 1fbd c54b 883c de61 adbd b65b 3cbc
00000180: a1d4 ffbc 7400 d1bd 2122 3fbd 50f1 1bbd
00000190: e316 d23c 653e 80bc 1bb3 c7bc d1ca 76bd
000001a0: b015 3b3c a0a2 15bd d66a a1bd f911 54bd
000001b0: a3fe d4bd 35c8 64bd 16f4 5fbd d1ea 86bd
000001c0: 459e 72bd 8ba7 91bd 5f24 c9bc 4626 01bd
000001d0: 0211 dbbd 91ac fbbb 57e9 2dbd f8ad 90bd
000001e0: 98e4 cabb 43e8 75bd 98da 90bd 7c77 8dbd
000001f0: dcaa 043d af72 b3bd f1b9 f5bc 4e26 91bd

network_body.linear_encoder.seq_layers.2.weight f4 [128, 128]
0.004578604 -0.0830542 0.056862842 0.048962932 -0.17040628 -0.08282104 0.06551765 -0.06286878
-0.0760674 0.12084851 -0.032799415 0.10631869 -0.08820518 -0.1719765 -0.0021926193 0.08583164
-0.08783404 -0.08258359 0.012955457 0.02006316 -0.009501627 -0.052667063 -0.022568438 -0.0026124753
0.032267336 0.10355916 -0.08716214 -0.02012667 -0.031568583 0.1498451 0.120437525 0.177868
-0.08970943 0.10689065 -0.0017953615 -0.00781452 0.016921945 -0.08844461 0.027990526 -0.054422084
-0.04290439 -0.11528443 0.0057260934 -0.14470062 0.07396359 -0.09215921 -0.12704594 -0.07421368
0.08428469 -0.16044495 -0.12700105 -0.002162492 -0.10742709 0.013811968 -0.053378545 0.11331268
0.014134163 -0.17250645 -0.1453471 0.09680354 0.13410412 -0.21296194 -0.019706123 -0.16713381
-0.03293139 -0.012054178 -0.03349856 -0.029735316 -0.24632867 0.11409237 0.024057548 -0.11025984
0.04162526 -0.09417955 0.0016506887 0.0420736 -0.08604327 0.017023463 -0.12475555 -0.019280298
0.07524258 0.06357801 -0.00087217655 -0.21504754 -0.06378584 -0.014433253 -0.05818602 -0.06607798
0.013784141 0.09355364 0.010973362 -0.15864569 -0.041844722 0.029992498 0.048288383 0.0714511
-0.114736035 -0.12096399 -0.059896845 -0.10467208 0.16074894 -0.15216595 -0.019640781 0.07240582
-0.020866618 -0.12908123 -0.068106785 -0.1021857 -0.06321449 0.042785026 -0.1085522 -0.039049424
0.07621008 -0.07809608 -0.054299768 -0.102433555 0.015576856 -0.12785731 0.04756931 -0.140267
-0.035764243 -0.1144581 0.084442146 -0.08512137 -0.032623757 0.047418516 -0.099466756 -0.08760754
-0.20566633 0.031349193 0.011888339 0.09434177 0.038812574 -0.05546062 0.1131853 -0.0055102315
-0.03996901 -0.04076076 -0.009517218 -0.034635883 -0.11441883 -0.07706626 0.14898765 -0.040988002
-0.13482532 0.023729239 0.0384487 0.00055381196 0.023505418 -0.12715699 -0.0489644 -0.06541875
-0.10549943 0.13330507 0.1801468 -0.11100192 0.1749725 -0.064885736 -0.09310889 0.04609795
-0.08241135 0.0624464 0.19726545 -0.06672635 0.08730275 0.20543703 -0.026148016 0.019516483
-0.0055674636 -0.1234428 -0.06846208 -0.055768013 0.020577118 0.09019271 -0.18742718 0.04537821
-0.058633633 -0.00040186205 0.1388697 -0.023293057 -0.0013768813 -0.22768937 -0.19120194 -0.19549187
-0.14119402 0.012765529 0.10974026 0.017852623 -0.150461 -0.0062571797 -0.13266873 -0.007452445
-0.058410358 -0.12909238 -0.11892047 -0.1531712 0.025939591 -0.029646074 -0.18064535 0.083652526
-0.040607665 0.012241779 -0.10678031 0.011291661 0.043848958 -0.029150708 -0.016403437 0.06144599
0.076661766 -0.06437053 -0.14281294 -0.005830164 -0.109439984 -0.10840292 -0.15442489 -0.05637257
-0.071418874 -0.15318157 -0.13984427 -0.06507986 0.023391047 -0.06679148 0.036151912 0.079446115
0.015774773 -0.116310924 0.009613081 -0.096066125 -0.071140856 -0.03490772 -0.034474995 0.02927042
0.008524901 -0.08543821 -0.1301019 -0.17185777 0.11567616 -0.28057152 -0.07852643 0.0067173773
0.026034728 0.009382948 -0.03486539 -0.12843831 0.024544118 0.038714238 -0.1688988 0.26366305
-0.2468424 -0.12911262 0.08513317 0.013996986 0.06638167 -0.06399842 -0.09081143 0.055850826
00000000: 1d08 963b 5218 aabd 03e9 683d 5b8d 483d
00000010: fc7e 2ebe 149e a9bd 1e2e 863d 59c1 80bd
00000020: 3ac9 9bbd 6c7f f73d ae58 06bd 9dbd d93d
00000030: eba4 b4bd 9c1a 30be 0cb2 0fbb 80c8 af3d
00000040: 55e2 b3bd 9621 a9bd 2043 543c 7f5b a43c
00000050: b6ac 1bbc 6bb9 57bd 72e1 b8bc 1036 2bbb
00000060: c12a 043d d316 d43d 1082 b2bd b0e0 a4bc
00000070: 0f4e 01bd fe70 193e f3a7 f63d 0723 363e
00000080: 94b9 b7bd 7ce9 da3d 5652 ebba 7908 00bc
00000090: e49f 8a3c 7322 b5bd 634c e53c b1e9 5ebd
000000a0: 83bc 2fbd 3e1a ecbd f4a1 bb3b 662c 14be
000000b0: 397a 973d f8bd bcbd 5518 02be 58fd 97bd
000000c0: 749d ac3d ae4b 24be 900c 02be 98b8 0dbb
000000d0: bc02 dcbd 984b 623c 76a3 5abd 7a10 e83d
000000e0: fa92 673c 88a5 30be dfd5 14be ef40 c63d
000000f0: 9752 093e b212 5abe bc6e a1bc 2025 2bbe
00000100: 11e3 06bd e37e 45bc c935 09bd 7a97 f3bc
00000110: 953d 7cbe 43a9 e93d 5614 c53c e9cf e1bd
00000120: 407f 2a3d 35e1 c0bd ec5b d83a 5e55 2c3d
00000130: 7437 b0bd ca74 8b3c d67f ffbd b7f1 9dbc
00000140: c818 9a3d 3035 823d c7a2 64ba 6c35 5cbe
00000150: 27a2 82bd 7379 6cbc 7754 6ebd e453 87bd
00000160: e1d6 613c 0d99 bf3d 9ec9 333c 0474 22be
00000170: 5f65 2bbd d4b2 f53c 0aca 453d f454 923d
00000180: bafa eabd f8bb f7bd 6556 75bd 515e d6bd
00000190: 5f9b 243e 64d1 1bbe b4e5 a0bc 8149 943d
000001a0: 78f0 aabc df2d 04be 927b 8bbd bc46 d1bd
000001b0: 9976 81bd 5a3f 2f3d 9e50 debd 4af2 1fbd
000001c0: 0814 9c3d d6f0 9fbd 6f69 5ebd afc8 d1bd
000001d0: 1236 7f3c 07ed 02be 09d8 423d 27a2 0fbe
000001e0: 877d 12bd 0269 eabd 01f0 ac3d 1d54 aebd
000001f0: 7da0 05bd eb39 423d 3ab5 cbbd 956b b3bd
00000200: 329a 52be 0368 003d 4fc7 423c 4236 c13d
00000210: eff9 1e3d ad2a 63bd b2cd e73d 2c8f b4bb
00000220: 8bb6 23bd c1f4 26bd 1bee 1bbc 5bde 0dbd
00000230: 6b54 eabd ead4 9dbd 3890 183e 09e3 27bd
00000240: a60f 0abe d263 c23c 627c 1d3d b12d 113a
00000250: 6f8e c03c 7135 02be e58e 48bd 44fa 85bd
00000260: 1610 d8bd 2081 083e 6778 383e fa54 e3bd
00000270: fe2b 333e d0e2 84bd e0af bebd 34d1 3c3d
00000280: 48c7 a8bd ccc7 7f3d f4ff 493e d3a7 88bd
00000290: c9cb b23d 165e 523e 5d34 d6bc 08e1 9f3c
000002a0: 456f b6bb 94cf fcbd d935 8cbd 006d 64bd
000002b0: 5891 a83c f5b6 b83d e9ec 3fbe 80de 393d
000002c0: d229 70bd 03b1 d2b9 dc33 0e3e 15d1 bebc
000002d0: 7878 b4ba 6727 69be 71ca 43be 052f 48be
000002e0: 2a95 10be 8226 513c 80bf e03d aa3f 923c
000002f0: 7312 1abe 0709 cdbb 50da 07be a433 f4bb
00000300: b33f 6fbd cb30 04be 938c f3bd e9d8 1cbe
00000310: 447f d43c 53dc f2bc 18fb 38be 0452 ab3d
00000320: 3954 26bd be91 483c a3af dabd a900 393c
00000330: f79a 333d 77cd eebc 8060 86bc caae 7b3d
00000340: d800 9d3d b2d4 83bd 8e3d 12be f60a bfbb
00000350: 1222 e0bd 5a02 debd 8f21 1ebe ede6 66bd
00000360: 0f44 92bd a1db 1cbe 5633 0fbe 9748 85bd
00000370: 959e bf3c f9c9 88bd 0714 143d a5b4 a23d
00000380: 193a 813c 6c34 eebd 2f80 1d3c 51be c4bd
00000390: 4cb2 91bd 66fb 0ebd a735 0dbd 85c8 ef3c
000003a0: 07ac 0b3c 3afa aebd 6f39 05be 7cfb 2fbe
000003b0: 9fe7 ec3d 12a7 8fbe 77d2 a0bd 721d dc3b
000003c0: c846 d53c f0ba 193c 03cf 0ebd 5585 03be
000003d0: bf10 c93c d292 1e3d cff3 2cbe d8fe 863e
000003e0: 41c4 7cbe 1936 04be 4d5a ae3d 9d53 653c
000003f0: 1df3 873d 9b11 83bd 58fb b9bd d6c3 643d

network_body.linear_encoder.seq_layers.2.bias f4 [128]
-0.045499038 -0.040593572 -0.02559854 -0.013340204 0.0181557 -0.024622787 -0.018668551 -0.032480717
0.0018565063 -0.042938218 -0.0142626455 -0.014156382 -0.06183702 -8.890159e-05 0.026993848 -0.00038711386
-0.008279463 0.026438503 0.0702193 0.008551218 -0.026860995 0.03999998 0.0042036097 0.033849396
-0.030784866 -0.12628835 -0.08224124 -0.0028563864 -0.029882288 0.010731943 0.048491023 -0.0016932802
0.025129044 0.09173634 -0.01752864 0.021742431 -0.0539857 0.007891174 -0.0514714 0.04469739
0.019767651 -0.021907272 -0.04493126 0.06646472 -0.020589966 -0.053969257 0.03650049 -0.046965405
0.02588172 -0.05237466 -0.044777684 0.045003098 -0.046242468 0.056804974 -0.020888675 0.0028740873
0.009481957 0.027485691 0.018573925 0.007901693 0.006543048 0.00028940715 -0.022760648 -0.01970834
-0.06475808 -0.013348256 -0.06498975 -0.042652283 -0.0050118 -0.032147404 0.03626281 0.017677832
-0.004840642 0.020778814 0.0062763346 0.011474731 0.023111377 -0.026753295 0.003572523 0.06737172
0.048867483 0.036516424 -0.017187268 0.03380389 0.02280444 -0.021988627 0.0054015527 0.019741915
0.03323451 0.03486529 0.02729126 0.058689445 0.035299018 0.0022996517 -0.012747071 0.025898885
-0.002515343 -0.028762894 -0.022812588 -0.0112719145 -0.026880946 -0.006654601 0.012175206 0.057644594
0.020128038 -0.01182905 -0.015228064 -0.024514697 0.02998205 0.07914963 0.047393218 0.02016428
-0.028020052 -0.025062444 -0.010229866 0.004054916 0.024407437 0.03267154 0.035579953 0.0056831567
0.007025106 -0.0058483803 -0.02422209 0.041161824 0.04702172 -0.02744177 -1.4648802e-05 -0.024329523
00000000: 335d 3abd 7245 26bd 08b4 d1bc df90 5abc
00000010: 43bb 943c bab5 c9bc caee 98bc 800a 05bd
00000020: 0456 f33a fcdf 2fbd dfad 69bc 2bf0 67bc
00000030: d148 7dbd ad70 bab8 3422 dd3c 8bf5 cab9
00000040: 96a6 07bc 8f95 d83c 23cf 8f3d 681a 0c3c
00000050: 970b dcbc 05d7 233d 6fbe 893b aaa5 0a3d
00000060: 8b30 fcbc bc51 01be 186e a8bd 3632 3bbb
00000070: b3cb f4bc 08d5 2f3c 869e 463d 0ef1 ddba
00000080: 6ddb cd3c 43e0 bb3d 3998 8fbc 2f1d b23c
00000090: 1c20 5dbd fc49 013c add3 52bd 9c14 373d
000000a0: c5ef a13c e176 b3bc d709 38bd a81e 883d
000000b0: 4aac a8bc de0e 5dbd 8a81 153d cc5e 40bd
000000c0: e705 d43c d086 56bd ce68 37bd 2b55 383d
000000d0: be68 3dbd 55ac 683d ba1e abbc 2f5b 3c3b
000000e0: 365a 1b3c ac29 e13c 5828 983c 1a76 013c
000000f0: 1167 d63b 92bb 9739 8a74 babc 6273 a1bc
00000100: e29f 84bd a5b2 5abc 5919 85bd 29b4 2ebd
00000110: 073a a4bb ffac 03bd 5088 143d 1ad1 903c
00000120: 409e 9ebb 5538 aa3c b6a9 cd3b 8300 3c3c
00000130: 1254 bd3c ba29 dbbc fd20 6a3b 2ffa 893d
00000140: 4529 483d 3f92 153d 50cc 8cbc f375 0a3d
00000150: 61d0 ba3c 7e21 b4bc 82ff b03b ccb9 a13c
00000160: e920 083d e8ce 0e3d ec91 df3c 5864 703d
00000170: b495 103d c1b5 163b 17d9 50bc e629 d43c
00000180: 74d8 24bb 29a0 ebbc 77e1 babc d6ad 38bc
00000190: 6e35 dcbc d70e dabb 847a 473c bd1c 6c3d
000001a0: 8ee3 a43c a2ce 41bc 217f 79bc 0cd3 c8bc
000001b0: eb9c f53c 3419 a23d 641f 423d 8f2f a53c
000001c0: 4f8a e5bc c14f cdbc 2b9b 27bc 1adf 843b
000001d0: 1bf2 c73c 98d2 053d 49bc 113d c639 ba3b
000001e0: dc32 e63b c5a3 bfbb 686d c6bc 4d99 283d
000001f0: d999 403d 90cd e0bc 20c4 75b7 b54e c7bc

action_model._continuous_distribution.log_sigma f4 [1, 2]
-0.0022679889 0.02403539
00000000: 8aa2 14bb dee5 c43c

action_model._continuous_distribution.mu.weight f4 [2, 128]
0.0026958482 0.014377298 0.013959942 0.025151072 0.025803773 0.011913767 -0.012496866 -0.013073114
0.011960482 -0.0102315 0.014045804 0.0074949125 -0.006034199 0.025281059 0.04241223 -0.01914001
0.048780374 0.034941252 0.03263756 -0.00086419546 0.02360494 0.051589098 0.021291602 -0.011890978
-0.007013451 -0.0069361627 0.005403777 0.010380736 -0.011119866 -0.007860686 -0.027081892 0.030025965
-0.0072779567 0.11373698 -0.013831456 -0.04416526 0.011148458 0.042651553 0.0005900938 0.059199337
0.029727908 0.018616121 0.0008518596 -0.031181052 0.0008797544 -0.0063196844 -0.03778276 0.019689858
0.016630396 0.023452023 -0.007280115 -0.038415298 0.009576475 0.017674338 -0.009920968 -0.064264335
0.01962345 -0.029515902 0.016379025 0.0213364 -0.025607519 0.008123761 -0.005172147 0.001049023
0.0109412735 -0.023851326 0.012170368 -0.0012896494 0.004630698 0.0031244406 0.027051508 0.004966216
0.037395123 -0.001388987 0.0074059903 0.004571041 0.022033002 0.0046191113 -0.019327842 0.007805831
0.06136818 -0.027194256 -0.008886239 0.03682984 0.0025699046 -0.0092154015 0.010434575 -0.016045466
0.02198257 0.042599626 -0.031517968 0.03988502 -0.010215559 -0.0035519535 -0.018604789 0.043821458
-0.004685595 0.007147339 -0.021311402 0.0066735554 -0.014194808 -0.010590882 -0.033362556 0.058544457
-0.011597159 0.004447544 0.01232542 0.018728338 -0.054033455 -0.0049261083 -0.03938031 0.023799682
0.019484147 0.0015005386 0.021818997 0.034358267 -0.01739594 0.04044626 0.037234593 0.011567194
0.013718713 0.012721295 0.0003388023 0.0033655108 -0.008580673 0.007890321 0.012534077 0.012373729
0.0073528974 -0.0024199805 -0.012398379 0.004293437 -0.047408126 -0.015825007 0.0019742355 0.028321665
-0.021728784 -0.0017800183 -0.0124328965 0.00083714665 -0.009125649 0.0058367853 -0.006484908 0.0060557253
-0.032506045 -0.013033755 0.041816983 -0.042526376 -0.007819012 -0.011342749 -0.038686458 0.041671883
0.009267839 0.009034088 0.01992572 0.0015902364 0.010437043 0.014159567 0.035058476 0.0021712494
0.04079024 -0.029638343 0.005334179 0.024904497 0.017775198 -0.0032932293 -0.022367354 -0.018368656
-0.04790625 0.012045267 -0.0051091476 -0.04675828 -0.040008992 0.006427698 -0.03900511 0.014225117
0.0047874814 0.016064348 0.013901359 0.0257363 -0.0025716925 0.0390882 0.02525109 0.0029660189
0.017680252 -0.022241369 -0.0225293 -0.031278122 0.014124975 -0.020785013 -0.0217591 -0.011216927
-0.008590884 -0.016375396 -0.016455723 -0.0056505646 0.034546748 0.00021831613 -0.027192082 -0.033322398
-0.020309025 0.012446427 0.03885685 -0.033853672 -0.037777018 0.0024063247 -0.0025137884 0.042474918
0.0063783275 0.022076318 -0.0060144416 -0.010862034 -0.02849122 0.008877239 0.031948447 0.04675361
-0.031218173 0.0070712143 -0.034974635 0.014001712 0.068537 -0.014874554 0.01764383 -0.00806429
0.0025821486 -0.0071213106 0.028861258 -0.0029012915 -0.0071854475 0.00030878192 0.011822701 0.017118435
0.028747387 -0.014810284 -0.0071287057 -0.0058447467 -0.029383989 0.05580591 0.07642863 -0.0133222295
-0.009596173 0.0058862986 -0.0077359173 0.02152565 -0.021542963 0.023779353 0.028039394 -0.020936156
0.023434607 -0.022579007 0.02466636 -0.026275987 -0.032321002 0.01753775 -0.010180977 -0.00995539
00000000: d4ac 303b c28e 6b3c 3eb8 643c 9f09 ce3c
00000010: 6f62 d33c f631 433c a8bf 4cbc 9d30 56bc
00000020: e6f5 433c 05a2 27bc 5f20 663c e297 f53b
00000030: 88ba c5bb 391a cf3c 72b8 2d3d 83cb 9cbc
00000040: eecd 473d 8f1e 0f3d f6ae 053d 2d8b 62ba
00000050: 265f c13c 174f 533d ba6b ae3c 60d2 42bc
00000060: 17d1 e5bb c048 e3bb 2b12 b13b f613 2a3c
00000070: 1930 36bc 1bca 00bc d8da ddbc 03f9 f53c
00000080: ed7b eebb efee e83d 559d 62bc a2e6 34bd
00000090: 06a8 363c 65b3 2e3d 86b0 1a3a 017b 723d
000000a0: f187 f33c d680 983c 544f 5f3a 686f ffbc
000000b0: 529f 663a 5b15 cfbb 18c2 1abd a04c a13c
000000c0: 783c 883c 751e c03c 088e eebb 5c59 1dbd
000000d0: a6e6 1c3c c6c9 903c 8e8b 22bc 059d 83bd
000000e0: 5bc1 a03c 55cb f1bc 4e2d 863c adc9 ae3c
000000f0: dcc6 d1bc 8619 053c 1d7b a9bb 5f7f 893a
00000100: 0743 333c db63 c3bc 3966 473c 7409 a9ba
00000110: 1cbd 973b 6ac3 4c3b 209b dd3c a4bb a23b
00000120: a12b 193d ab0e b6ba f3ad f23b acc8 953b
00000130: 8e7e b43c ea5b 973b 6c55 9ebc 0ec8 ff3b
00000140: 335d 7b3d 7dc6 debc 9697 11bc e3da 163d
00000150: d86b 283b 32fc 16bc c8f5 2a3c c871 83bc
00000160: ca14 b43c f27c 2e3d fc18 01bd 7a5e 233d
00000170: 295f 27bc e4c7 68bb 1269 98bc 217e 333d
00000180: 9f89 99bb 3a34 ea3b 4095 aebc d7ad da3b
00000190: 5791 68bc 6185 2dbc 2da7 08bd 50cc 6f3d
000001a0: 0302 3ebc b4bc 913b 8ff0 493c 2c6c 993c
000001b0: 2f52 5dbd 316b a1bb 3f4d 21bd 8df7 c23c
000001c0: 389d 9f3c b8ad c43a c1bd b23c 41bb 0c3d
000001d0: ee81 8ebc faaa 253d 4d83 183d 5484 3d3c
000001e0: 74c4 603c fa6c 503c 46a1 b139 e78f 5c3b
000001f0: f395 0cbc 6846 013c bb5b 4d3c 2ebb 4a3c
00000200: 93f0 f03b 8998 1ebb 9222 4bbc f6af 8c3b
00000210: 062f 42bd 72a3 81bc 2d62 013b d602 e83c
00000220: 9000 b2bc 814f e9ba 59b3 4bbc f673 5b3a
00000230: bf83 15bc 8142 bf3b 5a7f d4bb 1b6f c63b
00000240: 0f25 05bd 888b 55bc 4948 2b3d 2330 2ebd
00000250: 501b 00bc f0d6 39bc b175 1ebd 23b0 2a3d
00000260: 22d8 173c b603 143c 433b a33c 7b6f d03a
00000270: 2200 2b3c 87fd 673c 7a99 0f3d 854b 0e3b
00000280: ab13 273d 1ccc f2bc 56ca ae3b 8404 cc3c
00000290: 4b9d 913c 38d3 57bb be3b b7bc dd79 96bc
000002a0: 5839 44bd 8359 453c a36a a7bb 9c85 3fbd
000002b0: 78e0 23bd 709f d23b d2c3 1fbd 7710 693c
000002c0: 4ee0 9c3b 6199 833c 87c2 633c efd4 d23c
000002d0: d789 28bb f31a 203d 60db ce3c 8a61 423b
000002e0: 2dd6 903c 8833 b6bc 5e8f b8bc 7d1d 00bd
000002f0: 706c 673c 5545 aabc 2440 b2bc 34c7 37bc
00000300: c7c0 0cbc b225 86bc 27ce 86bc 5f28 b9bb
00000310: e480 0d3d caeb 6439 eec1 debc 117d 08bd
00000320: 1d5f a6bc 19ec 4b3c 5c28 1f3d 26aa 0abd
00000330: 13bc 1abd 6eb3 1d3b 5fbe 24bb 2efa 2d3d
00000340: 4a01 d13b 65d9 b43c cb14 c5bb acf6 31bc
00000350: 6b66 e9bc d771 113c 60dc 023d b780 3f3d
00000360: 41bd ffbc a5b5 e73b 9041 0fbd 7067 653c
00000370: 205d 8c3d 67b4 73bc cb89 903c 1520 04bc
00000380: 4439 293b e259 e9bb 726e ec3c 9823 3ebb
00000390: e773 ebbb 02e4 a139 01b4 413c f63b 8c3c
000003a0: a47f eb3c d5a6 72bc eb97 e9bb 4a85 bfbb
000003b0: b1b6 f0bc bd94 643d 9d86 9c3d 7b45 5abc
000003c0: 4439 1dbc dae1 c03b 947d fdbb 8f56 b03c
000003d0: de7a b0bc ebcc c23c dfb2 e53c 4d82 abbc
000003e0: eff9 bf3c 9cf7 b8bc 1b11 ca3c bd40 d7bc
000003f0: 0763 04bd 54ab 8f3c 1dce 26bc ef1b 23bc

action_model._continuous_distribution.mu.bias f4 [2]
-0.0011584423 0.015528869
00000000: e0d6 97ba cc6c 7e3c

critic.network_body.linear_encoder.seq_layers.0.weight f4 [128, 6]
0.17220424 -0.4064186 0.17174627 0.69537264 -0.41707626 0.6528127 -0.11023152 0.114578746
-0.75421894 0.15101019 -0.50853395 0.7959049 -0.18156503 0.58088213 -0.16684854 -0.09417788
-0.4568513 -0.32958758 -0.21276739 -0.45958033 0.10038469 -0.9016759 0.17721888 -0.26985702
0.2248086 -0.28517744 0.1858084 0.23118211 -0.07996238 -0.48183903 -0.14712381 0.15471984
-0.4185318 -0.15995765 0.21914485 -0.1442689 0.31285888 0.8178734 -0.47807306 0.21793242
0.5906896 0.11394685 -0.6926888 0.4362388 0.41636324 -0.22394444 0.08270489 1.0551875
0.018968383 -0.2588323 -0.32949957 0.17334041 0.468328 -0.29064688 0.2911667 0.3474612
0.13813463 -0.28737038 0.0926229 -0.41639897 -0.23695399 -0.3138908 -0.23641098 0.21063337
0.04504813 -0.29509798 0.2048264 0.18072788 0.43443292 -0.36599967 0.09038572 0.41484305
-0.2289871 0.21839243 -0.46918198 -0.7807019 -0.46891454 -0.28741333 -0.02261997 -0.14735077
-0.4197012 -0.17215393 -0.39460424 0.35028946 0.7565072 -0.7964346 0.05488046 -0.22800708
0.019862436 -0.4340829 0.05004415 -0.51168495 -0.05785031 0.5402654 0.39770073 0.028411733
0.15638752 -0.1607465 0.4220975 -0.25161657 0.7280106 -0.07002419 0.21619283 0.040473133
-0.2289735 -0.2584002 0.12706898 0.6548618 0.04362097 0.47335005 0.122321375 0.2754515
0.37258914 0.068956845 -0.24451308 -0.07874684 0.36389408 -0.35117197 -0.87727225 -0.23416552
-0.3606586 -0.67750984 0.49047834 -0.09984691 -0.6463049 -0.33502507 -0.6128951 -0.21117342
0.2288224 -0.06421702 0.117866985 -0.7072762 -0.2547928 -0.67398804 -0.10160555 0.53957623
-0.2875407 0.26471597 0.42890954 -0.2213973 -0.06930186 0.24646357 -0.024789404 0.1141514
-0.48528817 0.27000827 0.15151268 0.37761208 -0.15481165 -0.43786874 -0.49913612 0.3309327
0.045343805 0.09589091 0.3465152 0.2822587 0.028470142 -0.5940016 -0.16227512 -0.16211483
0.8980617 0.24514084 -0.35500517 0.47088265 -1.0335429 -0.4591126 -0.18592712 -0.5303133
-0.52574366 0.16692318 0.39218387 -0.50016516 -0.4853797 0.12593323 -0.35906067 0.5604505
0.3018817 -0.23251183 0.017210335 -0.6190028 0.5501081 -0.13860579 -0.43274885 0.031262293
-0.37464312 -0.4991217 -0.08492646 0.31256187 0.09184108 -0.3212938 -0.20064557 0.45667648
0.61815834 0.013819568 -0.62885493 -0.015206536 0.099774964 0.30637813 -0.21640632 -0.1013893
-0.6049741 0.42379165 0.56897104 0.8067398 0.1350637 -0.16537517 0.004152398 -0.18577784
-0.6629431 0.02052901 -0.047311857 -0.17734079 0.50169206 -0.17179942 -0.35411954 -0.28064793
0.24652623 -0.11380359 0.08124909 -0.20693067 -0.40824467 -0.0062062466 -0.40608597 -0.246443
-0.43214348 -0.456387 -0.41686714 -0.26543328 0.03499835 0.768814 0.49119982 -0.8757011
-0.015079803 -0.8207185 -0.27359733 0.7253549 0.49915564 -0.20198688 0.20777552 -0.0716352
0.81524515 0.42312777 -0.17952347 0.4650672 0.27188548 -0.4567929 0.20400348 -0.48393306
-0.77532744 0.22915912 -0.3146143 0.48845232 0.113192536 -0.039766263 -0.016572013 0.22146249
00000000: 4f56 303e 1916 d0be 41de 2f3e f103 323f
00000010: 058b d5be bc1e 273f 10c1 e1bd 43a8 ea3d
00000020: 7e14 41bf 6aa2 1a3e 482f 02bf 6cc0 4b3f
00000030: 2fec 39be b1b4 143f 58da 2abe 55e0 c0bd
00000040: 6ae8 e9be b4bf a8be b2df 59be 1d4e ebbe
00000050: 7d96 cd3d 3bd4 66bf de78 353e b32a 8abe
00000060: 3a34 663e c702 92be 8f44 3e3e 01bb 6c3e
00000070: 51c3 a3bd 9bb3 f6be a0a7 16be e16e 1e3e
00000080: cd49 d6be f0cb 23be 8267 603e 3abb 13be
00000090: 0a2f a03e 2760 513f fec5 f4be ad29 5f3e
000000a0: 6f37 173f f75c e93d 0e54 31bf b15a df3e
000000b0: 902d d53e b151 65be 2e61 a93d 6210 873f
000000c0: 9563 9b3c ab85 84be 2bb4 a8be 2680 313e
000000d0: b0c8 ef3e abcf 94be cd13 953e 6fe6 b13e
000000e0: 2a73 0d3e 3622 93be 13b1 bd3d 3f32 d5be
000000f0: 11a4 72be 4cb6 a0be b815 72be 46b0 573e
00000100: 6384 383d 1517 97be 03be 513e bb10 393e
00000110: fe6d de3e 4f64 bbbe 261c b93d 4f66 d43e
00000120: 987b 6abe 44a2 5f3e 9f38 f0be 14dc 47bf
00000130: 9115 f0be d727 93be 844d b9bc 1fe3 16be
00000140: 13e3 d6be 1f49 30be 9109 cabe 2459 b33e
00000150: 75aa 413f 23e3 4bbf 55ca 603d b07a 69be
00000160: 8cb6 a23c 1d40 debe 18fb 4c3d c9fd 02bf
00000170: 72f4 6cbd d54e 0a3f 6e9f cb3e b9bf e83c
00000180: 0d24 203e bb9a 24be 2a1d d83e e3d3 80be
00000190: e75e 3a3f d868 8fbd a761 5d3e 28c7 253d
000001a0: 0778 6abe 084d 84be 5f1e 023e 06a5 273f
000001b0: e7ab 323d f05a f23e a183 fa3d fb07 8d3e
000001c0: 01c4 be3e 3f39 8d3d a361 7abe 0646 a1bd
000001d0: 5350 ba3e d0cc b3be ea94 60bf 16c9 6fbe
000001e0: 3ea8 b8be 4971 2dbf fa1f fb3e 897c ccbd
000001f0: 3d74 25bf 6888 abbe b1e6 1cbf d83d 58be
00000200: 6b50 6a3e 3784 83bd 3f64 f13d 0e10 35bf
00000210: 3474 82be 7b8a 2cbf 9216 d0bd ab21 0a3f
00000220: 8938 93be da88 873e 089a db3e f9b5 62be
00000230: 22ee 8dbd f260 7c3e 2613 cbbc 36c8 e93d
00000240: b177 f8be 863e 8a3e 2426 1b3e 5f56 c13e
00000250: f286 1ebe 5530 e0be c58e ffbe 0370 a93e
00000260: 6dba 393d 7462 c43d 716a b13e 3684 903e
00000270: 373a e93c 7d10 18bf 732b 26be 6e01 26be
00000280: 5fe7 653f 3306 7b3e 3dc3 b5be 8817 f13e
00000290: 224b 84bf cf10 ebbe ae63 3ebe 9dc2 07bf
000002a0: 2397 06bf e9ed 2a3e 53cc c83e d30a 00bf
000002b0: b083 f8be a4f4 003e cdd6 b7be af79 0f3f
000002c0: 3d90 9a3e 9517 6ebe b0fc 8c3c f876 1ebf
000002d0: e2d3 0c3f adee 0dbe 4291 ddbe e40c 003d
000002e0: 39d1 bfbe e18c ffbe eded adbd 1c08 a03e
000002f0: 2d17 bc3d 9f80 a4be 0876 4dbe 80d1 e93e
00000300: a03f 1e3f 786b 623c a3fc 20bf d624 79bc
00000310: d156 cc3d 98dd 9c3e 9e99 5dbe 31a5 cfbd
00000320: 95df 1abf 38fb d83e 16a8 113f 8086 4e3f
00000330: 234e 0a3e 1c58 29be d710 883b 8c3c 3ebe
00000340: a4b6 29bf 742c a83c 14ca 41bd d398 35be
00000350: e46e 003f 30ec 2fbe 284f b5be 16b1 8fbe
00000360: 5f71 7c3e db11 e9bd ec65 a63d a2e5 53be
00000370: 7205 d1be c55d cbbb 80ea cfbe 8e5b 7cbe
00000380: e941 ddbe 8fab e9be 9c6f d5be dfe6 87be
00000390: 6e5a 0f3d ffd0 443f 8b7e fb3e f32d 60bf
000003a0: 4711 77bc 9c1a 52bf f314 8cbe dcb0 393f
000003b0: 5491 ff3e a6d5 4ebe 1bc3 543e 7ab5 92bd
000003c0: e8b3 503f 34a4 d83e 00d5 37be 4a1d ee3e
000003d0: 9334 8b3e c2e0 e9be 4ae6 503e 13c6 f7be
000003e0: dc7b 46bf b0a8 6a3e 2015 a1be 6c16 fa3e
000003f0: 7dd1 e73d f3e1 22bd 08c2 87bc 10c7 623e

critic.network_body.linear_encoder.seq_layers.0.bias f4 [128]
-0.06436885 -0.059740894 0.03562234 0.06620002 -0.041747127 -0.10742417 -0.1151377 -0.033229012
-0.0044539985 0.001697831 -0.024294162 -0.022845913 0.014667261 -0.05675983 0.06141619 -0.08686341
0.023140218 -0.09440364 0.0052734814 -0.10249156 0.024101157 -0.073988765 0.12258778 -0.13929497
-0.019651078 0.104919516 0.07284759 -0.050724156 -0.06559292 -0.1179705 0.117335156 -0.05280569
-0.011788689 0.068510495 -0.0979059 0.009924902 0.03421794 -0.06697897 -0.090855934 -0.021604965
0.03429268 0.04024468 0.038278986 -0.11453485 -0.09764574 -0.04961342 -0.024696479 -0.06489829
-0.07183617 -0.061947174 -0.024127876 0.051525284 -0.13876124 -0.06018366 0.025509248 -0.055471793
-0.13546886 0.018630829 -0.109100856 -0.07910038 -0.22925761 -0.005331006 -0.08734451 -0.029801952
-0.09651431 0.004682252 -0.14565471 -0.019327922 0.03200625 0.020618748 0.02583939 -0.009858091
0.05445129 0.03364135 -0.017747898 0.038862396 -0.09079725 0.08157566 0.020610802 -0.031650633
-0.11691225 -0.0337016 0.07573875 0.024670586 0.015738443 -0.08173197 -0.022623857 -0.048956357
-0.1199145 -0.0075190063 -0.021212019 -0.095113575 -0.024815096 0.015659556 0.044685293 0.026192602
-0.12921785 -0.027958851 -0.08459892 -0.07790359 0.15395796 0.05769098 -0.10090768 -0.014664826
0.07246221 -0.004000762 -0.010720264 0.06431101 -0.098769516 0.07289253 -0.06327691 -0.17260718
-0.07714307 -0.045854405 -0.046961773 0.081808805 -0.094623506 0.024295166 0.06836863 -0.017240603
0.13881847 -0.086083874 -0.07501623 -0.0047865324 0.08610001 0.048421822 -0.22053497 0.057717983
00000000: d1d3 83bd deb2 74bd bbe8 113d e093 873d
00000010: 09ff 2abd 3401 dcbd 51cd ebbd 251b 08bd
00000020: d9f2 91bb c189 de3a 8d04 c7bc 5a27 bbbc
00000030: f44e 703c ff7c 68bd 8b8f 7b3d 72e5 b1bd
00000040: 8e90 bd3c b256 c1bd 2bcd ac3b 18e7 d1bd
00000050: ca6f c53c 6c87 97bd 4d0f fb3d 57a3 0ebe
00000060: 4cfb a0bc 0be0 d63d 1e31 953d 22c4 4fbd
00000070: 9555 86bd 849a f1bd 6a4d f03d c74a 58bd
00000080: 5825 41bc 3b4f 8c3d e382 c8bd 0e9c 223c
00000090: 1c28 0c3d 452c 89bd ad12 babd e5fc b0bc
000000a0: 7b76 0c3d 9bd7 243d 6dca 1c3d 3f91 eabd
000000b0: 7dfa c7bd 7137 4bbd 4550 cabc 65e9 84bd
000000c0: d81e 93bd 52bc 7dbd d3a7 c5bc 2d0c 533d
000000d0: 6d17 0ebe 2483 76bd c5f8 d03c 6436 63bd
000000e0: 59b8 0abe ae9f 983c 4570 dfbd 61ff a1bd
000000f0: 82c2 6abe b8af aebb aee1 b2bd 3923 f4bc
00000100: 4ba9 c5bd 946d 993b 8226 15be 9755 9ebc
00000110: fc18 033d a6e8 a83c 21ad d33c d583 21bc
00000120: 5108 5f3d 83cb 093d 0a64 91bc 2d2e 1f3d
00000130: e9f3 b9bd 2411 a73d fcd7 a83c 18a4 01bd
00000140: b16f efbd b00a 0abd eb1c 9b3d f819 ca3c
00000150: e8ed 803c 1763 a7bd ab55 b9bc 7686 48bd
00000160: bc95 f5bd ff61 f6bb d4c4 adbc e8ca c2bd
00000170: 0749 cbbc 7848 803c ed07 373d de91 d63c
00000180: af51 04be f609 e5bc 3342 adbd eb8b 9fbd
00000190: 28a7 1d3e 614d 6c3d b0a8 cebd bd44 70bc
000001a0: 1167 943d d318 83bb 0ca4 2fbc 7eb5 833d
000001b0: ac47 cabd ae48 953d 5397 81bd f0bf 30be
000001c0: 30fd 9dbd d4d1 3bbd fd5a 40bd 608b a73d
000001d0: f8c9 c1bd a806 c73c da04 8c3d 2a3c 8dbc
000001e0: 6e26 0e3e be4c b0bd 1ca2 99bd 58d8 9cbb
000001f0: 3455 b03d f655 463d ebd3 61be b169 6c3d

critic.network_body.linear_encoder.seq_layers.2.weight f4 [128, 128]
-0.0580196 -0.1420319 0.0026857753 -0.09410043 -0.093510896 0.12523165 -0.07566677 -0.011792672
-0.098074466 -0.071897864 -0.17126282 -0.0037259522 0.074483976 -0.027412873 0.093197934 -0.11118261
0.0024003787 -0.0945892 0.0012983163 0.2072126 0.01971471 -0.0974719 0.19165117 -0.04544364
-0.09404792 0.03416516 -0.11860093 -0.11109365 0.098533615 0.051584043 -0.17495354 0.07511907
-0.055599865 -0.023437176 -0.008933661 -0.12592064 0.0019403776 0.12213591 -0.0060422136 0.07292226
-0.21192177 -0.1599032 -0.25208294 -0.009827294 0.0714089 0.005356371 0.062812634 -0.13519162
-0.047924828 -0.043217335 0.07001653 -0.032872256 -0.02662833 0.09030867 -0.17827988 0.103329785
0.13431934 -0.029445186 -0.19977872 -0.042797934 -0.11474038 -0.08265849 0.096321866 0.055923875
-0.08106862 -0.04344169 -0.11620036 0.05004726 -0.1387121 0.0069382847 0.028574206 0.041305277
0.06290633 -0.13215245 -0.111289576 0.06071012 -0.1620805 -0.11168859 0.165036 0.027696664
0.04327193 -0.036718134 0.14369029 -0.089219205 -0.04838773 -0.18121155 -0.17157002 -0.13605377
0.032513652 -0.02431291 -0.014608673 0.19724299 -0.115344964 -0.0414876 0.06928973 -0.027187286
0.078047775 -0.02194361 0.11180708 0.08291594 0.17765212 -0.029699624 0.14906019 0.043320157
0.10271463 0.043236423 -0.0018223489 -0.012916784 -0.06914935 -0.017087992 0.026697401 -0.009977358
-0.10852494 -0.06069737 -0.025516193 0.067284964 -0.17199868 0.031849243 0.07786522 0.002100152
-0.122896224 0.048450302 -0.031703208 -0.1021666 0.025651013 -0.09975303 0.04287531 -0.05461948
-0.104489714 -0.009672555 -0.0767211 -0.001010886 -0.12437729 -0.1798381 0.001998186 -0.008180688
0.032456543 -0.08283903 0.12504208 -0.06217336 0.108733535 0.032964364 -0.14105415 -0.075306654
0.06666014 -0.07513077 -0.06324957 -0.027602963 -0.05312527 -0.060200337 -0.19476436 -0.08932299
0.025197163 -0.042063415 -0.1772005 0.11828207 -0.054315343 0.103662185 0.080565564 0.07309346
-0.005055001 0.0965471 0.035715498 -0.21481979 0.039642382 -0.025683122 0.059774593 0.0048920885
-0.07279479 0.008947933 0.016980268 0.0457443 -0.12600815 -0.040551387 0.009853686 -0.07419298
-0.075512156 0.07277552 0.07394807 0.08565251 -0.2534529 0.023994852 0.11114063 0.027881077
0.041862387 0.062586896 0.09911032 -0.038038794 -0.045669693 -0.07726413 -0.16892205 0.109139144
-0.0051963674 -0.047877066 -0.034476936 -0.083043374 -0.0420885 0.08518327 -0.15730134 -0.13942638
0.14833306 0.010831107 -0.17795518 -0.15532836 -0.15030177 -0.06781169 -0.071717754 -0.08069291
-0.17303477 -0.06259123 -0.13284217 -0.107103266 -0.28269917 0.12557153 -0.17281954 -0.14235078
-0.097494334 0.11144933 -0.13096213 -0.09361164 -0.027966809 0.034926184 -0.04342395 -0.019303307
-0.15496607 0.030343229 0.006960895 0.0016193783 -0.11470464 0.0144630615 -0.19547367 -0.03342484
-0.11557195 -0.21581097 -0.13024445 -0.007995412 -0.07793378 -0.0042663794 -0.03331556 0.10869666
-0.081282906 -0.0114118615 -0.09568767 0.010356128 -0.13722824 0.08616372 0.064233884 -0.0887839
-0.040748496 0.002800996 0.0038544992 -0.103126734 0.022713972 -0.08700147 -0.21385957 -0.12441707
00000000: f6a5 6dbd cf70 11be d503 303b bab7 c0bd
00000010: a482 bfbd ba3c 003e 2ef7 9abd 0d36 41bc
00000020: 44db c8bd 303f 93bd 855f 2fbe 1b2f 74bb
00000030: 0e8b 983d f690 e0bc 8fde be3d b5b3 e3bd
00000040: ac4f 1d3b fcb7 c1bd 442c aa3a 8a2f 543e
00000050: be80 a13c 599f c7bd 3440 443e 1c23 3abd
00000060: 329c c0bd c4f0 0b3d 0be5 f2bd 1185 e3bd
00000070: fecb c93d ca49 533d 0527 33be 07d8 993d
00000080: afbc 63bd 52ff bfbc 7d5e 12bc 57f1 00be
00000090: 4554 fe3a 6422 fa3d c3fd c5bb 4458 953d
000000a0: 0502 59be aabd 23be 0411 81be a902 21bc
000000b0: d43e 923d 7f84 af3b e9a3 803d ac6f 0abe
000000c0: d34c 44bd a904 31bd d464 8f3d 0fa5 06bd
000000d0: a823 dabc c1f3 b83d 008f 36be 919e d33d
000000e0: 028b 093e 0837 f1bc cb92 4cbe e34c 2fbd
000000f0: 01fd eabd db48 a9bd 6644 c53d 6f10 653d
00000100: 4e07 a6bd eaef 31bd 74fa edbd 5bfe 4c3d
00000110: 8b0a 0ebe 8d5a e33b 7414 ea3c b92f 293d
00000120: 09d5 803d f952 07be caeb e3bd 2dab 783d
00000130: 6ef8 25be fdbc e4bd 32ff 283e 1de4 e23c
00000140: e83d 313d c165 16bd 8c23 133e 8fb8 b6bd
00000150: 3632 46bd 858f 39be 0db0 2fbe ae51 0bbe
00000160: 092d 053d de2b c7bc 3759 6fbc 11fa 493e
00000170: fb39 ecbd e7ee 29bd c6e7 8d3d dfb7 debc
00000180: 83d7 9f3d 16c3 b3bc 1cfb e43d d5cf a93d
00000190: 70ea 353e a04c f3bc 3ca3 183e 7a70 313d
000001a0: 0c5c d23d ad18 313d e2db eeba eba0 53bc
000001b0: 2d9e 8dbd 1efc 8bbc 82b4 da3c 1378 23bc
000001c0: 5342 debd ce9d 78bd 5607 d1bc b3cc 893d
000001d0: 6c20 30be 5a74 023d cd77 9f3d b4a2 093b
000001e0: 04b1 fbbd d373 463d 39db 01bd b93c d1bd
000001f0: 1322 d23c 514b ccbd 059e 2f3d adb8 5fbd
00000200: b4fe d5bd a379 1ebc f41f 9dbd b57f 84ba
00000210: 85b9 febd 7b27 38be 00f4 023b 4b08 06bc
00000220: 27f1 043d 82a7 a9bd 080b 003e 7ea9 7ebd
00000230: b0af de3d a405 073d 8070 10be 603a 9abd
00000240: 1d85 883d 29de 99bd fe88 81bd 9c1f e2bc
00000250: e299 59bd a194 76bd 4f70 47be f9ee b6bd
00000260: 486a ce3c b04a 2cbd 0c74 35be df3d f23d
00000270: c479 5ebd d74c d43d 8fff a43d 06b2 953d
00000280: 6ca4 a5bb 7cba c53d 6a4a 123d b8f9 5bbe
00000290: 0d60 223d 6965 d2bc 34d6 743d d04d a03b
000002a0: 6f15 95bd 5a9a 123c 341a 8b3c 605e 3b3d
000002b0: 4808 01be 3619 26bd 5b71 213c 7df2 97bd
000002c0: 1ea6 9abd 550b 953d 1672 973d 956a af3d
000002d0: 94c4 81be da90 c43c b39d e33d db66 e43c
000002e0: e577 2b3d 8f2d 803d 5afa ca3d 91ce 1bbd
000002f0: 2510 3bbd a83c 9ebd e7f9 2cbe 5884 df3d
00000300: 4a46 aabb be1a 44bd b037 0dbd a512 aabd
00000310: fe64 2cbd 9174 ae3d 9a13 21be cac5 0ebe
00000320: 9fe4 173e f574 313c e239 36be 660e 1fbe
00000330: b5e8 19be dbe0 8abd c2e0 92bd 5342 a5bd
00000340: 0730 31be d52f 80bd c707 08be f558 dbbd
00000350: f2bd 90be d395 003e 9bf7 30be 67c4 11be
00000360: 1cab c7bd 8c3f e43d f01a 06be 76b7 bfbd
00000370: a61a e5bc c20e 0f3d 50dd 31bd f821 9ebc
00000380: 6daf 1ebe 5d92 f83c 3818 e43b 5241 d43a
00000390: 44ea eabd 7af6 6c3c 402a 48be 7ce8 08bd
000003a0: fdb0 ecbd 8dfd 5cbe cd5e 05be 30ff 02bc
000003b0: bf9b 9fbd fccc 8bbb e675 08bd 5b9c de3d
000003c0: a777 a6bd d1f8 3abc e6f7 c3bd c0ac 293c
000003d0: 8f85 0cbe 9b76 b03d 0e8d 833d 55d4 b5bd
000003e0: e5e7 26bd ea90 373b c49b 7c3b 1c34 d3bd
000003f0: a712 ba3c d42d b2bd 01fe 5abe 60ce febd

critic.network_body.linear_encoder.seq_layers.2.bias f4 [128]
0.013812386 0.18778965 0.056162063 -0.18605334 -0.036047094 0.070990644 -0.09631105 0.048380885
0.10643958 0.04795255 -0.109910294 0.0797605 -0.09560287 -0.0833693 -0.08133126 0.06329862
0.085244864 -0.17292356 0.08679506 -0.15916182 -0.05028352 -0.09172899 -0.08881335 0.12479554
-0.09381046 -0.09441113 -0.07968146 -0.21113844 -0.20431347 -0.2291967 -0.17767671 0.04426205
0.067333624 -0.14892346 -0.07084096 0.058390457 -0.09187433 0.04314534 0.09061432 -0.24844314
-0.13645229 0.03257587 -0.12322202 -0.14602214 0.16153961 0.10179148 0.053576898 -0.1568099
-0.18367551 -0.23554686 0.05188839 -0.1888941 0.051339783 0.14292426 -0.11927434 -0.15464175
-0.10827055 -0.14523368 0.016401462 0.12146342 -0.13623908 0.083441965 -0.08308261 -0.10637428
0.04697131 0.10884278 -0.079111084 -0.08146469 0.03477803 -0.0084283855 -0.08527412 -0.11023357
0.013051444 0.050375216 -0.10099264 -0.09377584 0.17057262 -0.06753737 0.044770833 0.04978812
-0.1278117 0.05596899 0.0130106155 -0.046186544 -0.06848257 -0.15821113 -0.21796876 -0.11446179
-0.08469567 0.014534526 -0.07614252 -0.073339425 0.08935508 0.042706966 -0.0884138 0.096015856
-0.013248512 -0.15495737 0.04884733 -0.030659435 -0.0065678167 0.058626533 0.040998172 -0.11288876
-0.19252539 0.03889231 -0.20255202 0.04716721 -0.22707582 -0.14719853 -0.19095841 0.111856304
0.040908936 -0.09433805 -0.15721712 0.064255916 -0.07878775 -0.082334355 -0.21873525 -0.15770967
0.2513845 0.008783134 -0.07921313 0.012239963 -0.1628544 0.05220395 -0.1784323 0.054408446
00000000: 594d 623c ee4b 403e 310a 663d c484 3ebe
00000010: 1ea6 13bd 8b63 913d ba3e c5bd 092b 463d
00000020: fffc d93d e569 443d a618 e1bd 7959 a33d
00000030: 70cb c3bd 86bd aabd 0191 a6bd b5a2 813d
00000040: dc94 ae3d e012 31be 9cc1 b13d 51fb 22be
00000050: 18f6 4dbd 69dc bbbd c6e3 b5bd ce94 ff3d
00000060: b31f c0bd 9f5a c1bd 0930 a3bd ad34 58be
00000070: 8d37 51be 8ab2 6abe e2f0 35be 204c 353d
00000080: 36e6 893d 647f 18be 1115 91bd d52a 6f3d
00000090: 9c28 bcbd 2bb9 303d 0094 b93d e167 7ebe
000000a0: 26ba 0bbe 476e 053d d45b fcbd d486 15be
000000b0: a46a 253e 0d78 d03d 7373 5b3d c692 20be
000000c0: 6f15 3cbe 3233 71be ec88 543d 746d 41be
000000d0: aa49 523d bd5a 123e 1b46 f4bd 685a 1ebe
000000e0: f3bc ddbd 23b8 14be 5c5c 863c d0c1 f83d
000000f0: 4282 0bbe 9fe3 aa3d 3727 aabd c2da d9bd
00000100: fd64 403d f7e8 de3d fe04 a2bd f6d6 a6bd
00000110: 6873 0e3d 3617 0abc 33a4 aebd 23c2 e1bd
00000120: b9d5 553c 3e56 4e3d 3bd5 cebd 8c0d c0bd
00000130: 97aa 2e3e 0851 8abd 9f61 373d a1ee 4b3d
00000140: 12e1 02be bd3f 653d 7a2a 553c 1a2e 3dbd
00000150: 9740 8cbd 1902 22be 3433 5fbe f16a eabd
00000160: ec74 adbd 3822 6e3c 9cf0 9bbd fb32 96bd
00000170: ccff b63d 80ed 2e3d 4b12 b5bd f6a3 c43d
00000180: 4910 59bc 25ad 1ebe 2314 483d 7f29 fbbc
00000190: d736 d7bb 6022 703d b3ed 273d 3932 e7bd
000001a0: 6025 45be 8b4d 1f3d cc69 4fbe 6832 413d
000001b0: 9086 68be 36bb 16be 9a8a 43be eb14 e53d
000001c0: 2190 273d 4f34 c1bd 86fd 20be 9b98 833d
000001d0: 795b a1bd ea9e a8bd 22fc 5fbe a57e 21be
000001e0: 78b5 803e 22e7 0f3c 7e3a a2bd 208a 483c
000001f0: 4ec3 26be cfd3 553d f5b6 36be 64db 5e3d

critic.value_heads.value_heads.extrinsic.weight f4 [1, 128]
0.000679183 0.019535294 0.12288095 -0.02780253 0.011288444 0.04010226 -0.0024886366 0.09992788
0.009427104 0.101280466 -0.008208611 0.05659401 0.003571267 -0.08733793 -0.12334442 0.116599225
0.086972125 -0.08671787 0.06138083 -0.059125207 -0.010189048 -0.06800805 -0.0693299 0.05102683
-0.008582305 -0.0550235 -0.08723851 -0.16995443 -0.08721735 -0.17605364 -0.21328491 0.096024595
0.021402229 -0.039114397 -0.04734676 0.0544624 -0.044020224 0.14165287 0.0022350308 -0.11966178
-0.068886586 0.004226614 -0.028770672 -0.12654537 0.07412057 0.032983575 0.04797524 -0.019776905
-0.21849456 -0.1724836 0.0041090115 -0.17945589 0.135107 0.10853311 -0.15435104 -0.15764621
-0.019553283 -0.029277666 6.348718e-05 0.057251617 -0.058933783 0.079210214 -0.12542896 -0.004050605
0.08590705 0.036905784 -0.0024068793 -0.0021220706 0.039239284 -0.016611364 -0.108168006 -0.023380578
-0.011861055 0.110446356 0.0023378825 -0.005777959 0.09368025 -0.08736741 0.0035361226 0.074492395
-0.02022638 0.054029502 -0.0011717025 -0.02208112 -0.003102138 -0.09449921 -0.15337762 -0.069298595
-0.13587818 -0.007845771 0.0031182363 -0.023874903 0.030536942 0.10860928 -0.15347522 0.022704398
-0.0049500586 -0.14033423 0.14577109 -0.002245531 -0.0015746664 0.025750773 -0.00065638864 -0.057361625
-0.048533797 -0.006344952 -0.026382703 0.04015675 -0.12626822 -0.20344116 -0.0652117 0.08563078
0.01863882 -0.04348011 -0.05753381 0.10310194 -0.11795003 -0.059476666 -0.105410494 -0.11210263
0.09059425 -0.024232447 -0.04294018 -0.001954815 -0.039279535 0.02283897 -0.15653437 0.09017653
00000000: 330b 323a 7b08 a03c 02a9 fb3d 22c2 e3bc
00000010: 2af3 383c 4442 243d 6518 23bb fda6 cc3d
00000020: 2474 1a3c 226c cf3d 697d 06bc 1fcf 673d
00000030: eb0b 6a3b 3bde b2bd 009c fcbd 93cb ee3d
00000040: 711e b23d 2399 b1bd 776a 7b3d 462d 72bd
00000050: f7ef 26bc ce47 8bbd d6fc 8dbd 8201 513d
00000060: cc9c 0cbc 5260 61bd 1baa b2bd 8908 2ebe
00000070: 039f b2bd 6847 34be 5c67 5abe 8ba8 c43d
00000080: ba53 af3c 6b36 20bd adee 41bd f713 5f3d
00000090: 8d4e 34bd 730d 113e 9879 123b 3c11 f5bd
000000a0: 6914 8dbd 687f 8a3b 79b0 ebbc 1c95 01be
000000b0: 87cc 973d c919 073d af81 443d 2d03 a2bc
000000c0: 0abd 5fbe 8a9f 30be e3a4 863b 49c3 37be
000000d0: 7d59 0a3e 9b46 de3d 330e 1ebe 026e 21be
000000e0: 352e a0bc b7d7 efbc 6c24 8538 ac80 6a3d
000000f0: 8d64 71bd f738 a23d 7370 00be f0ba 84bb
00000100: 09f0 af3d 852a 173d bcbc 1dbb 7012 0bbb
00000110: 5fb9 203d 8e14 88bc 3087 ddbd a088 bfbc
00000120: df54 42bc b331 e23d 2937 193b 0855 bdbb
00000130: 6edb bf3d afed b2bd 4bbe 673b 788f 983d
00000140: cbb1 a5bc 0a4e 5d3d d093 99ba 77e3 b4bc
00000150: 3d4d 4bbb cd88 c1bd 060f 1dbe 6cec 8dbd
00000160: a623 0bbe 8c8b 00bc 535b 4c3b 4d95 c3bc
00000170: 9c28 fa3c 8b6e de3d 9c28 1dbe 93fe b93c
00000180: 1a34 a2bb c7b3 0fbe 0445 153e c229 13bb
00000190: 0965 ceba 49f3 d23c 7f11 2cba 06f4 6abd
000001a0: 60cb 46bd 51e9 cfbb 8a20 d8bc 677b 243d
000001b0: 754c 01be e152 50be b68d 85bd 315f af3d
000001c0: 70b0 983c 3318 32bd 93a8 6bbd 1c27 d33d
000001d0: c98f f1bd ce9d 73bd 75e1 d7bd 1096 e5bd
000001e0: 7a89 b93d 2083 c6bc 0be2 2fbd 5a1c 00bb
000001f0: 94e3 20bd cb18 bb3c 8c4a 20be 79ae b83d
