results/ppo/Car Agent/Car Agent-96942.pt (torch, 444431 bytes, 42 tensors)

network_body.linear_encoder.seq_layers.0.weight f4 [128, 6]
0	0x3e0b0644	0.13576609
1	0x3f50a228	0.8149743
2	0xbe701db7	-0.23448835
3	0xbf337645	-0.7010234
4	0x3e6831b0	0.22675204
5	0x3e60a1aa	0.2193667
6	0x3cef6b76	0.029226046
7	0x3ef1484a	0.47125465
8	0x3ecfebf9	0.4060972
9	0xbf83e00e	-1.0302751
10	0x3e787e44	0.24266917
11	0xbcc44dcc	-0.023962878
12	0xbd1a8cd5	-0.037731964
13	0xbe846d06	-0.25864428
14	0x3a5bb4fc	0.0008381156
15	0x3f107a30	0.56436443
16	0xbf6f90b6	-0.93580186
17	0xbf41816c	-0.7558811
18	0x3f1ec096	0.6201261
19	0x3c04f644	0.008115355
20	0xbe8506f9	-0.25981882
21	0x3ee5e17e	0.448986
22	0xbcd605fa	-0.026125897
23	0x3ec0b282	0.3763619
24	0x3f07c25b	0.5303094
25	0x3e2d857f	0.16945456
26	0xbdb42135	-0.08795396
27	0xbeca45f4	-0.39506495
28	0x3e31ab57	0.17350517
29	0x3f2ef978	0.6834941
30	0xbe016bb4	-0.12638742
31	0xbecd8d05	-0.40146652
32	0xbe6b4866	-0.22976837
33	0xbf3773e2	-0.716612
34	0xbe9a8131	-0.3017669
35	0x3ed28b5b	0.41121945
36	0x3f3716cd	0.71519166
37	0xbdeadbe4	-0.11467722
38	0xbe14e006	-0.14538583
39	0x3e72aa8b	0.2369787
40	0xbd8dab22	-0.069174066
41	0xbedd2776	-0.4319417
42	0xbf0526f0	-0.5201254
43	0xbf1efc3d	-0.62103635
44	0xbe2ac5d5	-0.1667703
45	0xbe085779	-0.13314618
46	0xbe178635	-0.1479729
47	0xbe08f0a4	-0.13373047
48	0x3e81d615	0.25358644
49	0xbecfabc6	-0.4056074
50	0xbe1a99ad	-0.15097685
51	0x3e1b114a	0.15143314
52	0xbecedaa5	-0.40401188
53	0xbe63790c	-0.22214144
54	0x3e682180	0.22669029
55	0xbe8e0b15	-0.2774283
56	0x3ab752eb	0.0013986503
57	0xbee6c9ee	-0.45075935
58	0xbe729d37	-0.23692785
59	0xbe114135	-0.14185031
60	0xbebaf1b0	-0.36512518
61	0x3eeb1ae9	0.45918968
62	0x3e821251	0.254046
63	0xbe82db49	-0.25557926
64	0xbe6c4b0f	-0.23075508
65	0xbeea7344	-0.45791066
66	0x3f0b41b8	0.54397154
67	0xbe8f29af	-0.2796149
68	0xbeec8b97	-0.4620025
69	0x3f0e4e08	0.55587816
70	0x3f1cd67a	0.61264765
71	0x3ef61941	0.48066142
72	0xbec4a184	-0.38404477
73	0xbf0fd719	-0.5618759
74	0xbdbc1d5e	-0.09185289
75	0xbd58491b	-0.052804094
76	0xbc5ee18e	-0.013603581
77	0x3e9edd5b	0.31028256
78	0xbe2dbd5a	-0.16966763
79	0x3e408232	0.18799666
80	0x3f06d74f	0.52672285
81	0x3d2404f2	0.04004378
82	0xbeac1544	-0.33609974
83	0x3d15c83c	0.03656791
84	0xbe6aad8a	-0.22917762
85	0xbd11df7f	-0.035613533
86	0xbf20353a	-0.6258122
87	0x3ec7a6bf	0.38994405
88	0xbf040238	-0.51565886
89	0x3f570c05	0.84002715
90	0x3c5ef273	0.013607609
91	0x3ea30ede	0.3184728
92	0x3e773ccb	0.24144284
93	0x3d4da1cb	0.050203126
94	0xbeabaf21	-0.3353205
95	0xbeb0d740	-0.34539223
96	0xbef8896c	-0.48542345
97	0xbdc140b6	-0.09436171
98	0x3ee80503	0.45316324
99	0x3ec6b8d8	0.388129
100	0xbe1f0be1	-0.15531875
101	0x3ef62c32	0.48080593
102	0xbe1aa343	-0.15101342
103	0xbeb557a1	-0.35418418
104	0xbd58223a	-0.052767016
105	0x3e603d45	0.21898372
106	0xbe25f636	-0.16207203
107	0xbef63e5f	-0.4809446
108	0x3c99d7ef	0.018779723
109	0x3e7b10f0	0.2451818
110	0x3d1a0179	0.03759906
111	0x3ec02e3a	0.37535268
112	0xbf77a02a	-0.96728766
113	0x3f16140e	0.5862435
114	0xbf1c2501	-0.60993963
115	0x3e9fe794	0.31231368
116	0xbdf9530a	-0.121740416
117	0x3e0a9184	0.13532072
118	0xbf067194	-0.52517056
119	0x3f2bacf8	0.67060804
120	0xbe4422d2	-0.19153908
121	0xbe3cd477	-0.18440424
122	0xbe5ff850	-0.21872067
123	0x3e872d16	0.26401585
124	0x3de5ec61	0.11226726
125	0x3f366a23	0.712557
126	0xbf05f210	-0.52322483
127	0x3e251530	0.16121364
128	0x3e83270b	0.25615725
129	0xbf1f72da	-0.62284625
130	0x3f243bdd	0.64153844
131	0x3e1e2db1	0.15447117
132	0xbeb5c090	-0.35498476
133	0xbc7f44e4	-0.01558039
134	0x3e155bc2	0.14585784
135	0xbefb8ced	-0.49130955
136	0xbf196cda	-0.5993172
137	0xbef3e69f	-0.47636887
138	0xbe29d78e	-0.16586134
139	0xbeccf804	-0.4003297
140	0x3f75db70	0.9603796
141	0xbf14b4e8	-0.5808854
142	0x3f4468c0	0.76722336
143	0xbea93d15	-0.33054414
144	0xbe10e506	-0.14149866
145	0xbe8cc59b	-0.2749451
146	0xbf2774b9	-0.6541248
147	0x3d97f081	0.07418919
148	0xbefc93e8	-0.49331594
149	0xbf1cef46	-0.613026
150	0xbe5f3c16	-0.21800265
151	0x3eefc71f	0.46831605
152	0x3e7f1dd7	0.24913727
153	0x3e33743a	0.17524806
154	0xbe3a965f	-0.18221425
155	0x3e39bf04	0.18139273
156	0xbecc9f19	-0.39965132
157	0xbefe6df0	-0.4969325
158	0x3c9ed86d	0.01939031
159	0xbc16f68a	-0.009214053
160	0x3f065552	0.5247394
161	0x3e2a7b32	0.16648558
162	0x3f044d66	0.516806
163	0x3f2f062b	0.68368787
164	0x3f173b27	0.59074634
165	0x3f88336e	1.0640695
166	0xbe27a669	-0.16372074
167	0xbf32d29c	-0.69852614
168	0xbf2c9e6a	-0.6742922
169	0xbee266e7	-0.44219133
170	0x3cb0a1ec	0.021561585
171	0xbeef3f4a	-0.46727973
172	0x3ddf2226	0.10895185
173	0x3e85fc1f	0.26168916
174	0x3e2c36ba	0.16817752
175	0x3df7bd93	0.12096705
176	0x3e3cf074	0.184511
177	0xbee5b888	-0.4486735
178	0x3ebab2aa	0.36464435
179	0xbe7edd8a	-0.24889198
180	0xbed029aa	-0.40656787
181	0x3e64e93f	0.22354601
182	0x3f31f9df	0.695219
183	0x3f105f95	0.56395847
184	0x3da17950	0.07884467
185	0x3e0c25ea	0.13686338
186	0x3ecada4e	0.39619678
187	0xbe4bbf01	-0.19897081
188	0xbde7734d	-0.11301289
189	0xbe229e10	-0.15880609
190	0xbed29f11	-0.41136983
191	0xbec6629f	-0.38747117
192	0x3f1e4ed4	0.6183903
193	0xbed327cc	-0.412413
194	0xbdc66162	-0.09686543
195	0x3e1cc1e9	0.15308346
196	0xbeccecdb	-0.40024456
197	0xbe82d65c	-0.25554168
198	0x3ef1219c	0.47095954
199	0xbe303c4e	-0.17210504
200	0xbe652c9e	-0.22380301
201	0x3e96f8de	0.29486746
202	0x3eaa6d78	0.33286643
203	0xbe470bc1	-0.19438078
204	0x3e493d94	0.19652396
205	0x3e85a3c5	0.2610151
206	0xbf58a6f1	-0.8462973
207	0xbd8d8598	-0.069102466
208	0x3c4569d4	0.012049157
209	0xbed96be5	-0.4246513
210	0xbf2a0ae4	-0.6642287
211	0x3ce23296	0.027612012
212	0xbee2e62e	-0.44316238
213	0x3e968705	0.29399887
214	0x3f068fc7	0.52563137
215	0xbf8d2fd5	-1.1030222
216	0x3f459000	0.7717285
217	0xbf9c1e84	-1.2196813
218	0xbeafc6f7	-0.34331486
219	0x3f155f61	0.5834866
220	0x3dc9cac3	0.09853127
221	0x3e8d8fa9	0.27648667
222	0x3d079f19	0.03311071
223	0xbe0687b7	-0.13137709
224	0x3f520a50	0.82046986
225	0xbf89e652	-1.0773413
226	0xbee07e48	-0.43846345
227	0xbece607e	-0.40307993
228	0x3efed702	0.49773413
229	0x3f44064f	0.76572126
230	0xbe8867a9	-0.26641586
231	0xbf460ee7	-0.7736649
232	0xbe99a02d	-0.30005017
233	0x3e35040d	0.17677327
234	0xbe738918	-0.23782766
235	0xbe442407	-0.19154368
236	0x3efad1ed	0.48988286
237	0xbec0d8c6	-0.37665385
238	0xbe5800a9	-0.21094002
239	0xbe8cec8f	-0.2752423
240	0x3f09c6cb	0.5381896
241	0x3eb921d8	0.36158633
242	0xbe6fc753	-0.2341588
243	0x3cc63c47	0.024198664
244	0x3e3fffcc	0.18749923
245	0xbd74aa26	-0.05973258
246	0xbe504988	-0.2034055
247	0xbe80cf2b	-0.25158057
248	0x3e9145f9	0.28373697
249	0xbf062fea	-0.5241686
250	0xbdd925be	-0.10602902
251	0x3ef6de0e	0.4821629
252	0x3e3b35d0	0.18282247
253	0xbc268c48	-0.010165282
254	0xbe0ba00a	-0.13635269
255	0xbeacada2	-0.3372622

network_body.linear_encoder.seq_layers.0.bias f4 [128]
0	0x390821ef	0.00012982612
1	0xb90a1589	-0.00013168728
2	0xba3a8476	-0.0007115075
3	0xbbd529ae	-0.0065052127
4	0x36fa2d45	7.4558507e-06
5	0x3b7f3923	0.0038943968
6	0x3b3605c1	0.0027774426
7	0xbbbd63df	-0.005779728
8	0xbb93ee8c	-0.004514521
9	0xbb4167f3	-0.0029511421
10	0xbb5cbf0c	-0.0033683209
11	0x397a1be4	0.00023852248
12	0x3b3283cd	0.0027239204
13	0x3b200c25	0.0024421301
14	0xbb992f14	-0.0046748016
15	0x3b21cc97	0.0024688595
16	0x3b946945	0.0045291507
17	0x3a83ec31	0.0010064897
18	0x3a996f81	0.0011706204
19	0x3b039ce5	0.002008253
20	0x3a8700bf	0.0010299905
21	0x394899cf	0.00019130784
22	0xbbf3bbea	-0.0074381726
23	0xbb5a9bf3	-0.0033357113
24	0xbbb7d674	-0.0056102816
25	0xbb9427de	-0.004521354
26	0x3b2aec42	0.0026080762
27	0xb98d04e8	-0.0002689727
28	0xbc549436	-0.012974789
29	0x3b79bee6	0.003810817
30	0x38d7ebe2	0.000102959355
31	0xbb11b622	-0.0022233804
32	0xbb7f9a54	-0.00390019
33	0x3c16e45b	0.009209718
34	0x3b1dc4de	0.002407364
35	0x3bc36a7b	0.005963621
36	0xbc096751	-0.008386449
37	0xba9f3659	-0.0012146934
38	0xbb937484	-0.0044999737
39	0xbaa87b92	-0.001285421
40	0xbb8e9a06	-0.004351857
41	0xbbb66120	-0.0055657774
42	0x3a3fe9c0	0.0007320903
43	0xba60aa03	-0.00085702556
44	0x3baa088b	0.0051890067
45	0xbb900ee8	-0.004396308
46	0xbb829e86	-0.0039861826
47	0xbb072da8	-0.0020626578
48	0x3aedf88a	0.0018155735
49	0xbbb91c6a	-0.005649139
50	0xbadef0cc	-0.0017009019
51	0x3be23fc8	0.006904576
52	0xbb491e32	-0.0030688164
53	0x3a43c15a	0.00074674713
54	0x3baf2c65	0.0053458684
55	0x3a39b110	0.00070835743
56	0x3a73e2e4	0.00093035237
57	0x3a010999	0.00049223896
58	0xbb86acba	-0.004109946
59	0x3b686823	0.003546246
60	0x3b950f83	0.0045489683
61	0x3b0ceaab	0.0021502178
62	0xbbb7f3e1	-0.0056137894
63	0xbbbde4b5	-0.0057950863
64	0x3b8c7a76	0.0042870594
65	0x3ac1a661	0.0014774316
66	0xbb74ab01	-0.0037333372
67	0xbb574295	-0.0032846082
68	0xbaafe2a5	-0.0013418986
69	0xbb53dc0a	-0.0032327198
70	0xbbccd82b	-0.006251355
71	0x3ab003be	0.001342885
72	0x3ab238b9	0.0013597227
73	0x3b00bf2f	0.0019645204
74	0x3b1e6674	0.0024169954
75	0xba381811	-0.0007022629
76	0xbbd7980b	-0.006579404
77	0xbb5506c6	-0.0032505258
78	0xbb408de5	-0.002938145
79	0xbb2eb55f	-0.0026658399
80	0xbba31afc	-0.004977582
81	0xbbf39c5d	-0.0074344114
82	0xba3257e2	-0.00068032567
83	0x3b0b1b7f	0.0021226106
84	0x3b0a66ca	0.0021118396
85	0x3b355889	0.002767118
86	0xbbbbdd87	-0.005733195
87	0xbb235b9a	-0.0024926425
88	0xba2e4278	-0.0006647478
89	0x3aa15d1c	0.0012311074
90	0xbb0c1a50	-0.0021377988
91	0x3bb2930b	0.005449658
92	0xbb941d52	-0.004520097
93	0x3af2cc00	0.0018523932
94	0xbaf4ad74	-0.0018667416
95	0xbc047ecf	-0.008086874
96	0x3bf76543	0.007549913
97	0xbba676d2	-0.0050800825
98	0xbb64ac8c	-0.0034892885
99	0xbb5387fc	-0.0032277098
100	0x385c9f74	5.260059e-05
101	0x3a4858da	0.00076426344
102	0x3b24da26	0.002515444
103	0xbb37a224	-0.0028020227
104	0xb9337ee4	-0.0001711804
105	0xbac079ff	-0.0014684795
106	0xbba9bc97	-0.0051799524
107	0x3b773b66	0.0037724613
108	0x3aeee295	0.0018225486
109	0x3aaf9437	0.0013395612
110	0x39db010e	0.0004177172
111	0xbb5da8be	-0.0033822502
112	0x3a53d136	0.0008080186
113	0xba9f28ed	-0.0012142934
114	0x3b0a19d2	0.002107252
115	0xbae2e54d	-0.0017310769
116	0x39c90ee4	0.00038348802
117	0xb931fe59	-0.00016974787
118	0xbba0bf74	-0.0049056355
119	0xbabb44ed	-0.0014287509
120	0xbbe7fa40	-0.0070793927
121	0xbb5457f9	-0.0032401069
122	0x39468115	0.00018930838
123	0x39e1367b	0.00042955935
124	0x3b805059	0.003915828
125	0xbb5cde54	-0.0033701854
126	0xbb531fd1	-0.003221501
127	0x391a280d	0.00014701505

network_body.linear_encoder.seq_layers.2.weight f4 [128, 128]
0	0xbe302925	-0.17203195
1	0xbdd53a93	-0.10411563
2	0x3e09925f	0.13434742
3	0xbe38e469	-0.18055882
4	0xbd650687	-0.055914428
5	0x3cfc67d0	0.03081122
6	0x3ddcb289	0.107762404
7	0x3dbc307a	0.09188934
8	0xbc920eb2	-0.017829273
9	0x3e147217	0.14496647
10	0xbdb7801d	-0.089599825
11	0x3d9971dc	0.0749242
12	0x3c37ef06	0.011226421
13	0x3d69c002	0.05706788
14	0xbd072266	-0.03299179
15	0xbd35472b	-0.044257324
16	0xbd8084df	-0.06275343
17	0xbd5a8fa2	-0.053359635
18	0xbd7f4395	-0.06232031
19	0x3c3297af	0.010900422
20	0x3d714eb5	0.05891295
21	0xbd150c04	-0.036388412
22	0xbde0c224	-0.109745294
23	0xbd351c4f	-0.04421645
24	0xbd668665	-0.056280512
25	0xbde4a64d	-0.11164532
26	0xbe132d4f	-0.14372753
27	0xbe1ecdd3	-0.15508203
28	0x3e1324ee	0.14369556
29	0xba68e56c	-0.0008884284
30	0xbdf64224	-0.12024334
31	0xbcb19c6a	-0.02168103
32	0x3dea98e2	0.11454941
33	0x3d66b53e	0.05632519
34	0xbd0d463e	-0.034490816
35	0xbba0a6ff	-0.00490272
36	0xbdad75f1	-0.08469761
37	0xbdcb19eb	-0.09917053
38	0xbd2aead8	-0.04172787
39	0xbdaca39c	-0.084296435
40	0xbe291516	-0.1651195
41	0xbd402dc4	-0.046918646
42	0x3d6ea204	0.05825998
43	0xbd9b4faf	-0.07583558
44	0xbd0a0f92	-0.033706255
45	0xbe00dd7a	-0.12584487
46	0xbd710be6	-0.058849238
47	0x3e071a78	0.13193691
48	0x3dcc200a	0.099670485
49	0x3e3e4282	0.18580058
50	0x3bd72376	0.0065655066
51	0xbda84b53	-0.08217492
52	0xbd1b73cf	-0.03795224
53	0xbde74de6	-0.11294155
54	0xbde59156	-0.11209361
55	0xbbd5363c	-0.0065067094
56	0xbd897255	-0.0671126
57	0x3ddcb0ae	0.107758865
58	0xbcffb0ab	-0.031212172
59	0xbdc030d7	-0.093843155
60	0x3c18c297	0.009323738
61	0xbce71585	-0.028208503
62	0xbd287a23	-0.041132104
63	0x3e1870a4	0.14886719
64	0xbdf182e6	-0.11792545
65	0xbc686c06	-0.014185911
66	0xbce0c5f2	-0.027438138
67	0x3d3bbd1d	0.04583465
68	0x3d811256	0.063023254
69	0xbd3ce0e0	-0.046112895
70	0x3d362462	0.04446829
71	0x3d626764	0.055274382
72	0x3e245f9b	0.16052096
73	0x3c8d6ae5	0.017262885
74	0xbd2aff00	-0.041747093
75	0xbd35d79b	-0.04439507
76	0x3d8958f5	0.0670642
77	0xbe07d07c	-0.13263124
78	0xbdaaff3b	-0.083494626
79	0xbc85e01e	-0.016342219
80	0xbd422c00	-0.047405243
81	0x3d518aba	0.05115769
82	0xbdbbd879	-0.09172148
83	0xbd50a14f	-0.050935086
84	0xbd2fe483	-0.042942535
85	0xbd383d27	-0.044980194
86	0xbdead144	-0.114656955
87	0xbdda16e6	-0.10648899
88	0xbd870bab	-0.06594022
89	0xbe00c2db	-0.12574331
90	0xbcd6369a	-0.026149083
91	0xbd901d54	-0.07036844
92	0x3ca095ca	0.019602675
93	0xbca4f23c	-0.020135038
94	0x3db9f0f2	0.0907916
95	0xbd19b1e6	-0.037523173
96	0x3d70d992	0.05880124
97	0x3c559a30	0.013037249
98	0xbd3743f9	-0.04474256
99	0xbd066eae	-0.032820396
100	0xbc7f4ad4	-0.015581805
101	0xbe072f1e	-0.13201568
102	0xbe0a9d68	-0.13536608
103	0x3dacb2e5	0.08432559
104	0x3d888218	0.066654384
105	0x3db42903	0.08796885
106	0xbe236f4a	-0.15960422
107	0x3d372a7e	0.044718258
108	0x3d8b4843	0.06800892
109	0x3c993b77	0.018705113
110	0xbdacc09f	-0.08435177
111	0x3ca7e2ec	0.020493947
112	0x3d9f97eb	0.07792648
113	0xbdbd3c31	-0.09239996
114	0x3d1b562b	0.037923973
115	0x3d41298e	0.04715877
116	0xbd4f0901	-0.050545696
117	0xbe00dd2f	-0.12584375
118	0x3d0d603d	0.034515608
119	0xbe1d3064	-0.15350491
120	0xbd4530cc	-0.04814224
121	0xbd90b84e	-0.07066403
122	0x3ad8046f	0.0016480814
123	0x3da2c470	0.07947624
124	0x3bf882bb	0.0075839437
125	0x3dc42b79	0.09578604
126	0x3dc76518	0.09736079
127	0x3df5d395	0.12003247
128	0x3d2c810f	0.042115267
129	0xbde7c36c	-0.11316571
130	0xbcb96a81	-0.022633793
131	0xbd06659f	-0.032811757
132	0xbe1a94db	-0.15095846
133	0xbd531f8d	-0.05154376
134	0x3c1ada8a	0.009451518
135	0xbd2bab4a	-0.0419114
136	0x3c0558ac	0.008138817
137	0xbdfa0b70	-0.12209213
138	0x3c10bb91	0.008833782
139	0xbd16f963	-0.036858927
140	0xbd03c5f9	-0.032171223
141	0xbd124b65	-0.035716433
142	0xbd8fd0a4	-0.07022217
143	0x3d20f287	0.039293792
144	0xbd8e025b	-0.06934043
145	0x3e142227	0.14466153
146	0x3d07a2f0	0.033114374
147	0xbd4dd748	-0.050254136
148	0x3d837ca8	0.06420261
149	0x3de0d96a	0.109789684
150	0x3d5062a7	0.050875332
151	0xbd3d7c00	-0.046260834
152	0xbd4fd4b5	-0.050739963
153	0x3daa6b25	0.083212174
154	0xbdb87314	-0.090063244
155	0xbe0cb820	-0.13742113
156	0x3e6a65c1	0.22890379
157	0x3c33208e	0.010933055
158	0xbd85fedd	-0.06542752
159	0x3d48c77d	0.04901837
160	0x3cf6c0ea	0.030121285
161	0x3e1487b2	0.14504889
162	0xbe126b43	-0.1429873
163	0xbe04a110	-0.12952065
164	0xbd896170	-0.06708038
165	0xbdfaa2b0	-0.122380614
166	0x3bcd313f	0.006261974
167	0x3c8e56e0	0.01737541
168	0xbcc4e6ad	-0.024035776
169	0xbdef12c7	-0.11673503
170	0xbd10e54b	-0.03537492
171	0x3dba6cc0	0.09102774
172	0x3d83fdfd	0.06444929
173	0x3d787ef8	0.06066796
174	0xbbb7760c	-0.005598789
175	0xbdc5d850	-0.09660399
176	0x3e1df30e	0.1542475
177	0xbda6521a	-0.081211284
178	0x3dc372a5	0.09543351
179	0x3e4517f6	0.19247422
180	0xbd3b4487	-0.04571965
181	0xbd70a995	-0.058755476
182	0xbd15de24	-0.036588803
183	0xbd8d3cb0	-0.06896341
184	0xbcb33289	-0.021874683
185	0xbcd232c7	-0.025658978
186	0xbd0b097a	-0.033944584
187	0x3d9cd3a4	0.07657555
188	0xbda3569e	-0.07975505
189	0xbe1584a6	-0.14601383
190	0xbc089421	-0.008336098
191	0x3c8e3e46	0.017363679
192	0x3d5a3563	0.05327357
193	0x3d623707	0.05522826
194	0xbd9daece	-0.07699357
195	0xbe0832d1	-0.13300635
196	0xbd837856	-0.06419437
197	0x3e018f9f	0.12652443
198	0xbccc1ea2	-0.02491695
199	0xbd636e8e	-0.055525355
200	0x3de9ea16	0.114216015
201	0x3ddc599f	0.10759281
202	0x3d42c0a3	0.047546994
203	0x3dc1a764	0.09455755
204	0x3e57cda4	0.2107454
205	0xbd890c38	-0.06691784
206	0x3d282002	0.04104615
207	0xbce6c880	-0.028171778
208	0xbbbaffdd	-0.005706771
209	0xbd956387	-0.07294374
210	0x3b8668f9	0.004101869
211	0xbd60d527	-0.054890778
212	0xbdc64298	-0.096806705
213	0x3c13a58e	0.009011639
214	0xbcd59252	-0.026070748
215	0x3d374c90	0.04475075
216	0xbd9447cc	-0.07240257
217	0xbdd1f904	-0.10252574
218	0xbdc204d1	-0.09473575
219	0x3bd0cad5	0.0063718357
220	0xbd199f99	-0.03750572
221	0x3db06828	0.08613616
222	0xbc7e6076	-0.015525928
223	0xbd8b54eb	-0.06803306
224	0xbd76674f	-0.060157117
225	0xbdf8a0e4	-0.121400625
226	0x3e0b41fb	0.13599388
227	0xbc9c3a4a	-0.019070763
228	0xbcc69dd4	-0.02424518
229	0x3e0033fa	0.12519827
230	0x3cee65b6	0.029101234
231	0x3cbf42e9	0.023347335
232	0x3d63ca71	0.055612985
233	0x3c51eac0	0.012812316
234	0x3dc50b31	0.09621275
235	0x3e452641	0.19252874
236	0x3d84728b	0.0646716
237	0xbc5ca460	-0.013466924
238	0x3dabbadc	0.0838525
239	0xbde86e19	-0.113491245
240	0x3d4a36ea	0.049368776
241	0xbc45f68c	-0.012082707
242	0x3de46f67	0.11154061
243	0xbd90d1c4	-0.070712596
244	0xbca54fb0	-0.0201796
245	0xbc13569c	-0.008992817
246	0xbd79dfa8	-0.06100431
247	0xbcb60d5b	-0.022223165
248	0xbcb35f87	-0.021896137
249	0x3c5b0fb5	0.013370444
250	0x3cc67e10	0.024230033
251	0xbdbb6f02	-0.091520324
252	0xbd09615b	-0.03354011
253	0x3d693f39	0.05694506
254	0x3e5f0727	0.21780072
255	0xbe48d175	-0.19611152

network_body.linear_encoder.seq_layers.2.bias f4 [128]
0	0xbbb4f6e6	-0.0055225966
1	0xbb969548	-0.0045954324
2	0xbb83ec1c	-0.004025949
3	0xbb41b0c8	-0.0029554833
4	0xbaf4fb1b	-0.0018690558
5	0xba9e8c74	-0.0012096302
6	0x3a65266d	0.00087413826
7	0xbc032012	-0.008003252
8	0x3a9a5e25	0.0011777325
9	0xbb9ff108	-0.004881028
10	0xb9dd45fb	-0.00042204544
11	0x3b6925d4	0.0035575526
12	0x3b759cd2	0.0037477505
13	0xbb9fc5af	-0.0048758606
14	0xbbb0dbc1	-0.0053972905
15	0xbb8b2193	-0.0042459457
16	0xbaa74489	-0.0012761514
17	0x39bcdc01	0.0003602207
18	0xbb13a093	-0.002252613
19	0x3b2a5686	0.0025991513
20	0xbb6e21b9	-0.0036336018
21	0xbb8b6446	-0.004253897
22	0x3b20313d	0.002444341
23	0xbb20d99f	-0.0024543775
24	0xb9faf625	-0.00047867108
25	0xbb495398	-0.0030719992
26	0xbb4014bf	-0.002930924
27	0xbbb5902a	-0.0055408673
28	0xbac30673	-0.0014879241
29	0x3b556a59	0.003256461
30	0xbb62c75f	-0.0034603698
31	0x3a859d4b	0.0010193972
32	0xba1f2c40	-0.00060719624
33	0xbba7c4d7	-0.0051199007
34	0x3add34d5	0.0016876707
35	0xbb965e6f	-0.004588894
36	0xbb8449ed	-0.004037133
37	0xbaa9f686	-0.0012967146
38	0xbb3b6821	-0.0028596001
39	0x3ac7f8c6	0.0015256635
40	0xbb5169a3	-0.0031953834
41	0x3b621fc7	0.0034503804
42	0xbb055131	-0.0020342583
43	0xbb3282ed	-0.0027238682
44	0xba890cb1	-0.0010456053
45	0xbbac5ee8	-0.005260337
46	0xb82bd3c8	-4.0966814e-05
47	0x3b0d9ba4	0.0021607662
48	0xbb2890ba	-0.002572103
49	0x3a05a22a	0.00050977117
50	0x3b1f2f28	0.0024289582
51	0xbb91e71c	-0.004452599
52	0xbb3d2650	-0.0028861947
53	0xbac01736	-0.0014655355
54	0x3a0ae144	0.00052978494
55	0xba6f4f84	-0.0009128975
56	0x39aedaa6	0.00033350772
57	0x3b806f34	0.0039195064
58	0x3a57bd8e	0.0008229845
59	0xba6b8764	-0.00089847133
60	0xbbad3ebb	-0.005287019
61	0xb9935b0c	-0.0002810586
62	0xb92d12ed	-0.00016505616
63	0x3bd0156f	0.0063502113
64	0xbb65f10b	-0.00350863
65	0xb7862494	-1.5991078e-05
66	0xb9d03c19	-0.00039717628
67	0xbb86ad31	-0.0041100015
68	0xbb6706ca	-0.003525185
69	0x3b216373	0.0024625927
70	0xbbade75d	-0.0053071217
71	0xbbaa4652	-0.005196371
72	0xbb102ed1	-0.002200056
73	0xba70c041	-0.00091839215
74	0xb93c8e81	-0.00017982164
75	0x3b09587c	0.0020957282
76	0x3a9e0eb0	0.001205882
77	0xba645cf0	-0.00087113585
78	0xbbc5ada0	-0.0060326606
79	0xbae3ffaf	-0.0017394925
80	0x3ba92f7a	0.0051631304
81	0x3b110a08	0.0022131223
82	0x3ba6a1b1	0.005085193
83	0x3b3b2f1e	0.002856202
84	0x3b83b065	0.0040188306
85	0x3ba282aa	0.004959424
86	0xbb824ead	-0.003976664
87	0x3ac63b2c	0.0015123836
88	0xbb93d76f	-0.0045117657
89	0x39a2da16	0.00031061535
90	0xbbbe3962	-0.0058051804
91	0xba7a0bff	-0.0009538531
92	0xbb3ac2e6	-0.0028497516
93	0xbb2abba8	-0.0026051793
94	0xba149fea	-0.0005669581
95	0x3aa2c01a	0.001241687
96	0x3a4b123b	0.0007746552
97	0xbb496599	-0.0030730723
98	0xbb77f3e7	-0.0037834586
99	0x388ed792	6.811241e-05
100	0x3af839ee	0.0018938163
101	0xbb385e65	-0.0028132435
102	0xbb56f88f	-0.003280196
103	0xbbaf56ae	-0.005350909
104	0xbae01511	-0.0017096122
105	0xbb954e5b	-0.00455646
106	0x3b221632	0.0024732468
107	0x3b2c2bc8	0.0026271213
108	0x3b92c086	0.004478517
109	0xbb554335	-0.003254128
110	0xbaa98526	-0.0012933358
111	0xbbb07eda	-0.0053862156
112	0xbb0f9083	-0.0021906204
113	0x3ac42f1b	0.0014967652
114	0xbb4353cc	-0.0029804586
115	0xbb938d86	-0.004502955
116	0xbb339aed	-0.0027405575
117	0x3b460de7	0.0030220689
118	0x3ad8483a	0.0016501017
119	0x3b22291a	0.0024743737
120	0x3acb61f6	0.0015516866
121	0x3b2470ac	0.0025091572
122	0xbadc117b	-0.0016789878
123	0xbb103b5d	-0.002200804
124	0x3a84970d	0.0010115817
125	0x3a9ce293	0.001196938
126	0xbb79d748	-0.0038122702
127	0xbb97d3f8	-0.004633423

action_model._continuous_distribution.log_sigma f4 [1, 2]
0	0x3c9a4c49	0.018835204
1	0x3c63ee98	0.013911866

action_model._continuous_distribution.mu.weight f4 [2, 128]
0	0xbba8844f	-0.0051427255
1	0x3c2e1eb6	0.010627439
2	0xbb1f5b6e	-0.002431597
3	0x3c71c250	0.0147558
4	0xbb060b9e	-0.0020453702
5	0xbbee357c	-0.0072695594
6	0xbbb76721	-0.0055970107
7	0x3c601684	0.013677243
8	0xbc941361	-0.018075647
9	0x3cb4da70	0.022076815
10	0xbcdacd61	-0.02670926
11	0xbbef5d12	-0.007304796
12	0xbb414fd0	-0.0029497035
13	0x3bc0e630	0.0058868155
14	0x3b492346	0.003069119
15	0x3b09f8a5	0.0021052745
16	0x3be60f51	0.007020869
17	0x3ba99b77	0.0051760036
18	0x3cf2212d	0.029556835
19	0x3d174781	0.036933426
20	0x3a0b752f	0.0005319891
21	0x3c4fde6d	0.012687308
22	0xbcfab974	-0.030606009
23	0x3c328d3a	0.010897929
24	0x3c55e186	0.013054257
25	0x3c58d1eb	0.013233642
26	0x3c0ae818	0.008478187
27	0x3b811b72	0.0039400393
28	0x3d03975a	0.032126762
29	0xbbba510e	-0.005685932
30	0x3ce96bc6	0.028493773
31	0xbc48eb0a	-0.012263069
32	0xbbf9532a	-0.007608791
33	0x3bf32b61	0.0074209427
34	0xbcc1ee9a	-0.023673344
35	0x3bf19103	0.007372023
36	0xbbbe5664	-0.0058086384
37	0xbbaa26d6	-0.005192618
38	0xbae4f083	-0.0017466698
39	0x3c923808	0.017848983
40	0x3c39e7e7	0.011346794
41	0x3c038ac5	0.008028691
42	0xbb8ea012	-0.004352578
43	0x3c33f8c2	0.010984601
44	0xbc7c2154	-0.015388805
45	0x3cc37f12	0.023864303
46	0xbc3448ae	-0.011003656
47	0xbc8e66b6	-0.01738296
48	0x3c9bd370	0.01902172
49	0xbcbd8954	-0.023136772
50	0xbcaa9e58	-0.020827457
51	0x3c9bb37a	0.01900648
52	0x3cb88a79	0.022526966
53	0x3cc1c7a5	0.023654768
54	0x3c8ae86d	0.016956532
55	0x3cc78144	0.02435363
56	0x3cbeb0c8	0.023277655
57	0xbcada252	-0.021195564
58	0xbc343b19	-0.011000418
59	0xbcc4a20d	-0.024003053
60	0x3b090506	0.0020907535
61	0xbd74fef7	-0.059813466
62	0x3d44ae54	0.048017815
63	0x3cb7e88e	0.022449758
64	0x3c0b61b6	0.008507183
65	0xbc6c6903	-0.014429334
66	0xbcbe9ca8	-0.023268059
67	0xbbaee900	-0.0053378344
68	0xbc5f2b91	-0.013621227
69	0xbc5693bd	-0.013096747
70	0xbc4cefa0	-0.012508303
71	0xbc5eeb70	-0.013605937
72	0xba01b670	-0.0004948145
73	0x3c2e8666	0.01065216
74	0x3b9a8fa6	0.0047168313
75	0x3c3b7728	0.011441983
76	0xbca5fc18	-0.02026181
77	0x3ba32f84	0.0049800295
78	0xba01cd06	-0.00049515103
79	0xbc2dff4d	-0.0106199505
80	0x3d1c7a03	0.038202297
81	0xbc88eebc	-0.0167154
82	0xbb8511c6	-0.0040609566
83	0x3bba3452	0.0056825066
84	0xbd0f2e83	-0.034956466
85	0x3d0fcd37	0.035107818
86	0x3cb17b43	0.021665221
87	0x3c9b9b5e	0.018994983
88	0x3c41e8ea	0.011835316
89	0x3b07a1e5	0.0020695862
90	0x3c77f556	0.015134176
91	0x3a4fd291	0.00079278
92	0xbc518981	-0.012789131
93	0x3c883e4d	0.01663127
94	0x3ca30b02	0.01990271
95	0xbbf5a74a	-0.007496749
96	0x3cfc83e8	0.030824617
97	0xbafae6c9	-0.0019142266
98	0x3c831f2a	0.016006071
99	0xbb8a6cab	-0.00422438
100	0xbc9caddd	-0.019125873
101	0x3c8d0ed2	0.017218981
102	0x3c73ff63	0.014892432
103	0x3c8e5ee3	0.01737923
104	0xbc7d0db2	-0.01544516
105	0x3c93aded	0.01802727
106	0xbcbbb000	-0.022911072
107	0xbc919d92	-0.01777533
108	0x3b8bcc0a	0.0042662667
109	0x3cbdc9b7	0.023167474
110	0x3c8f1fbd	0.017471189
111	0x3cc4f09a	0.024040509
112	0xbb4725a7	-0.0030387433
113	0x3b8e2bb4	0.004338706
114	0x3ca672e1	0.02031845
115	0x3d03e6f9	0.032202695
116	0xbbe0d04f	-0.00686077
117	0x3590991a	1.0773394e-06
118	0xbcaa0014	-0.02075199
119	0xbba395f3	-0.0049922406
120	0xbd33a929	-0.043862496
121	0xbcc711e5	-0.024300525
122	0x3c150db3	0.009097504
123	0xbc2334b9	-0.0099613005
124	0xbac3d147	-0.0014939689
125	0xb91d80da	-0.00015020688
126	0x3ba73536	0.005102779
127	0xbabd926e	-0.0014463195
128	0x3c529dcd	0.012855005
129	0x39392506	0.00017656767
130	0xbd3e5946	-0.046471857
131	0xbc140159	-0.009033524
132	0x3c29dca1	0.010367543
133	0xb99c9dd8	-0.0002987224
134	0x3d23af73	0.039962243
135	0xbc434a60	-0.011919588
136	0x3b1f1216	0.0024272255
137	0xbce49938	-0.027905092
138	0xbc631974	-0.013861049
139	0x39b15f03	0.0003383086
140	0x3cc755df	0.024332939
141	0xbc3893b4	-0.011265684
142	0xbbe80a67	-0.007081318
143	0xbaf8dd64	-0.0018986878
144	0xbcc817cb	-0.024425408
145	0x381e1f2e	3.7699174e-05
146	0x3b462b11	0.0030238072
147	0xbcc8cd68	-0.024512008
148	0xbcce409b	-0.02517729
149	0xbb03fe8d	-0.0020140738
150	0x3ca57cae	0.020201053
151	0xbcc4df86	-0.024032366
152	0x3d1a3648	0.037649423
153	0xbc25d91d	-0.010122565
154	0xbca54e76	-0.020179015
155	0xbbb12a02	-0.005406619
156	0x3bdcf25a	0.0067427577
157	0x3d295da8	0.041349083
158	0x3ba46e43	0.005018027
159	0xbc2d5df4	-0.010581482
160	0xbc20099f	-0.009767919
161	0xbb7bf689	-0.0038446507
162	0x3c8f9d9c	0.017531209
163	0xba0b3703	-0.00053106266
164	0xbcf611e3	-0.030037826
165	0x3cb08246	0.021546494
166	0xbc0a9801	-0.008459092
167	0x3ca9d2cd	0.0207304
168	0xbbdbe019	-0.006710064
169	0x3c877800	0.016536713
170	0x3aa21335	0.0012365343
171	0x3b8ef4fd	0.004362701
172	0xbb599a48	-0.003320353
173	0xbca6349a	-0.020288754
174	0xbcd924b8	-0.026506767
175	0x3c2e330a	0.010632286
176	0xbcd67d68	-0.026182845
177	0xbbd92cf4	-0.0066276733
178	0x3cca8432	0.024721239
179	0xbc36007a	-0.011108512
180	0x3c83dc89	0.01609637
181	0xbcae0cd5	-0.021246353
182	0xbcd7fe59	-0.0263664
183	0xbc33dd2b	-0.0109780235
184	0xbc5c669e	-0.0134522
185	0x3bc9493c	0.0061427634
186	0x3bbe988c	0.005816525
187	0xbb9b49b5	-0.004739011
188	0x3a402628	0.00073299045
189	0xbabf2d23	-0.0014585595
190	0x3b960793	0.0045785396
191	0x3c9bcf84	0.01901985
192	0x3b60aed0	0.0034283884
193	0xbc423fe9	-0.011856058
194	0x3bd51915	0.006503234
195	0xbb00939b	-0.001961923
196	0x3ab88762	0.0014078433
197	0x3cf3c663	0.029757684
198	0x3bc324d1	0.0059553166
199	0xbc39077f	-0.011293291
200	0x3c56d0bb	0.013111289
201	0xbc1a0f4b	-0.00940306
202	0xbc5090f3	-0.012729871
203	0x3b836135	0.0040093907
204	0x3cac61cd	0.021042729
205	0x3c0352f5	0.008015384
206	0xbc026b5b	-0.007960166
207	0xbcde0412	-0.02710155
208	0x3c9b08de	0.018925127
209	0xbbce9fa4	-0.0063056517
210	0xbbf341f4	-0.0074236337
211	0x3ba6bec5	0.0050886595
212	0xbc084b8a	-0.008318791
213	0x3cbe602d	0.02323922
214	0x3d436480	0.047703266
215	0xbb06365c	-0.0020479178
216	0x3c1a384b	0.009412835
217	0x3ca42294	0.02003602
218	0x3c3936bf	0.011304556
219	0xbcb22731	-0.021747204
220	0xbc8cca20	-0.017186224
221	0x3b0fa0cb	0.0021915908
222	0x3c59f821	0.013303787
223	0xbb0aebae	-0.0021197605
224	0x3c1f002e	0.009704633
225	0xbc5ac99c	-0.0133537315
226	0x3b99aa47	0.004689488
227	0x3ba0052a	0.004883428
228	0x3c25609c	0.010093834
229	0xbcd10152	-0.025513325
230	0xbcb8593b	-0.022503486
231	0xbcbc5de4	-0.02299399
232	0x3bba94cd	0.005694008
233	0x3c1c6da2	0.009547623
234	0x3c9edf36	0.019393545
235	0x3c0fa689	0.008767732
236	0xbb281522	-0.0025647362
237	0x3c39fcb5	0.011351754
238	0x3c7a99ba	0.01529544
239	0xbb3dde05	-0.0028971445
240	0x3c362675	0.011117567
241	0x3cd996ca	0.02656116
242	0x3a89de28	0.0010518478
243	0x3ba5ca88	0.005059544
244	0xbc78ab44	-0.015177552
245	0x3d39ab25	0.04532923
246	0x3c91f155	0.017815271
247	0x3c73824c	0.014862608
248	0x3b88bb9c	0.0041727554
249	0xbbe6a7f8	-0.0070390664
250	0x3a439948	0.00074615004
251	0x3c8c989e	0.017162617
252	0x3bdf95ee	0.006823293
253	0x3cad845c	0.021181278
254	0x3c15106a	0.009098152
255	0xbc840b1b	-0.016118577

action_model._continuous_distribution.mu.bias f4 [2]
0	0xbaf4b3ed	-0.0018669345
1	0x3b3d8de8	0.0028923694

action_model._discrete_distribution.branches.0.weight f4 [2, 128]
0	0x3a9b76d2	0.0011860973
1	0x3b2eb63e	0.0026658918
2	0xbbf68b77	-0.0075239497
3	0xbc50897d	-0.012728092
4	0x3c84e7cb	0.016223809
5	0xbb5c8c93	-0.0033653125
6	0x3bdca408	0.0067334212
7	0xbc50d144	-0.012745205
8	0xbbd519e6	-0.0065033315
9	0xbc01e7be	-0.007928787
10	0xbb964ea5	-0.004587012
11	0xbb3db42f	-0.002894651
12	0xbae1962b	-0.0017210891
13	0x3a0649bb	0.0005122681
14	0x3ab75673	0.0013987556
15	0xbb2701e2	-0.00254833
16	0x3b21c588	0.0024684388
17	0x3b71163b	0.0036786932
18	0x391ce2ce	0.0001496181
19	0xbc8ea2f1	-0.01741168
20	0xbaa62e0a	-0.0012678516
21	0xbb020b33	-0.00198431
22	0x3c0974ba	0.008389646
23	0xbb88f210	-0.0041792467
24	0x3ba530ad	0.005041203
25	0xbc15d1cf	-0.009144261
26	0x3c545be7	0.012961364
27	0xbb33bbf4	-0.0027425261
28	0x3c2e02a2	0.010620745
29	0x3b700cb0	0.0036628656
30	0xbbeb9f9d	-0.0071906582
31	0xbc3f31e2	-0.011669608
32	0x3c127c90	0.008940831
33	0x3c0717b5	0.008245398
34	0x3b9c9100	0.0047780275
35	0x3c712706	0.014718777
36	0xbbb0a1ad	-0.005390367
37	0xbc583cb1	-0.013198064
38	0x3c001996	0.0078186
39	0xbbe2ac1e	-0.0069174906
40	0xbca3e3e0	-0.02000612
41	0xbc0f3674	-0.00874101
42	0x3b909e2f	0.004413388
43	0x3b0b066a	0.002121354
44	0x3bde317e	0.0067808023
45	0x3bbdaa2a	0.0057881074
46	0xbbd769fe	-0.0065739146
47	0x3bc79c5d	0.006091638
48	0xbc0ddf36	-0.008659175
49	0x3ad17f77	0.0015983422
50	0x3bb552de	0.00553356
51	0x3b8cc21b	0.0042956
52	0xbba9abc7	-0.005177948
53	0x3b76aace	0.0037638429
54	0xbb72aa93	-0.003702794
55	0x3adaa0bb	0.0016679981
56	0x3c64934e	0.013951136
57	0x3b8c1280	0.0042746663
58	0x3c1ab152	0.0094416905
59	0x3b7881d4	0.003791918
60	0x3c400e83	0.01172221
61	0x3b081250	0.0020762868
62	0x3b1c473b	0.0023846168
63	0xbc4ea988	-0.012613662
64	0xbb238eed	-0.0024957017
65	0xbc63c17d	-0.013901112
66	0x3c1249cc	0.008928727
67	0x3b925603	0.00446582
68	0xbc541f3f	-0.012946903
69	0x38ed1195	0.000113043156
70	0x3c426f05	0.011867289
71	0x3c07d4cf	0.008290484
72	0x3c04c12f	0.008102699
73	0xbb988193	-0.0046541183
74	0x3b8ba657	0.0042617726
75	0x3ba177b7	0.004927601
76	0xbc6bb44b	-0.014386247
77	0x3cde04be	0.02710187
78	0xbba05a77	-0.0048935967
79	0xbaec0f0e	-0.0018009858
80	0xbbf8c695	-0.007592032
81	0xbbbe0efa	-0.005800125
82	0xb914e528	-0.00014199747
83	0xb9994b56	-0.00029238564
84	0x3b918338	0.0044406913
85	0xbc15388e	-0.009107722
86	0x3c33d94c	0.010977101
87	0xbc52b4b8	-0.0128604695
88	0xbbdd7b6e	-0.0067590987
89	0x3b8df7d0	0.00433252
90	0xbc2543ad	-0.010086936
91	0xbc7ec38d	-0.015549553
92	0x3c4023bc	0.01172727
93	0xbc312fdc	-0.010814633
94	0x3c91d26d	0.017800534
95	0xbca13e8e	-0.019683149
96	0x3c08791f	0.008329659
97	0x3c044d92	0.008075135
98	0x3c4cf588	0.012509711
99	0xbb73eb95	-0.0037219275
100	0xbc214294	-0.009842534
101	0xbbd9854b	-0.006638204
102	0x3b5873fb	0.0033028114
103	0x3c2eddb0	0.010672972
104	0xbc6e89dd	-0.014559236
105	0x3ad6e08c	0.0016393824
106	0xbc627c37	-0.01382356
107	0xbc8d22ee	-0.01722857
108	0xbba1ffff	-0.004943847
109	0xbae34604	-0.0017339592
110	0xbb9e6490	-0.0048337653
111	0x39d68499	0.00040916054
112	0x3bbcad80	0.0057579875
113	0xbbcc9fe8	-0.0062446482
114	0x3bf7b57c	0.0075594764
115	0x3c09482b	0.008379023
116	0x3c284911	0.010271327
117	0xbc4867d5	-0.012231787
118	0x3bc3b73f	0.0059727724
119	0x3bb4dd68	0.0055195577
120	0xbbb70d9d	-0.0055863396
121	0xbc5d5b8a	-0.013510594
122	0xbc3f5969	-0.011679032
123	0xbbbd7575	-0.0057818242
124	0xbbb8e9e7	-0.0056431177
125	0x3b3d617b	0.0028897214
126	0xbb6558a3	-0.0034995459
127	0xbb5e4bc9	-0.0033919683
128	0xbb993a72	-0.0046761567
129	0xbbb110d5	-0.005403618
130	0xb902e2d1	-0.00012482262
131	0xba227083	-0.0006196575
132	0xbc920a4e	-0.01782718
133	0x3bcb4428	0.006203193
134	0x3c2b90f0	0.0104715675
135	0x3b384b42	0.002812103
136	0xbc687846	-0.014188832
137	0x3b5002ec	0.0031740023
138	0xbc849fc7	-0.016189469
139	0xbbb42e6a	-0.005498697
140	0xbc2c6b32	-0.010523604
141	0xbc85bf3f	-0.016326545
142	0x3c6cf0a3	0.014461669
143	0x3ad5a41f	0.0016299522
144	0xbbf07edd	-0.007339342
145	0xbc1663ac	-0.009179037
146	0xbbb258ca	-0.0054427134
147	0x3a2c583c	0.0006574427
148	0x3bef1236	0.007295872
149	0xba216737	-0.0006157043
150	0xbbf8aa9b	-0.007588697
151	0xbb896c01	-0.0041937833
152	0x39dd053f	0.00042156313
153	0x3a5075cb	0.0007952123
154	0xbb79b565	-0.0038102504
155	0xbb8acce9	-0.004235853
156	0x3b99d3b3	0.004694426
157	0x3ae70b3a	0.0017627247
158	0xbbd3cdb7	-0.006463732
159	0x3cb485d2	0.022036467
160	0x3b8085d0	0.0039222017
161	0x3befe3c6	0.007320854
162	0xbc7d8244	-0.015472952
163	0x3c5ee14f	0.013603522
164	0x3c06961f	0.008214503
165	0xbc6ee691	-0.0145813385
166	0xbc29c2cc	-0.010361385
167	0xba10ccc3	-0.0005523676
168	0xbbb67076	-0.0055676056
169	0x3b9b9d0d	0.0047489465
170	0x3b915392	0.004435011
171	0xbc93ce02	-0.018042568
172	0xbb724cc5	-0.0036972028
173	0xbb4d396b	-0.0031314741
174	0xbadb83c7	-0.0016747647
175	0xbba438b3	-0.005011642
176	0x38f4044b	0.00011635626
177	0x3790f0ed	1.7278328e-05
178	0x3bb02024	0.005374925
179	0xbb2c8b95	-0.0026328315
180	0x3b156a63	0.0022799007
181	0xbbbe9a97	-0.0058167684
182	0x3c705120	0.014667779
183	0x3a8f994d	0.0010955721
184	0xbc00aaed	-0.007853252
185	0x3c4ca8c2	0.012491407
186	0x3bc2c9a6	0.0059444485
187	0xba3dbe0b	-0.00072380964
188	0x3aebc1a9	0.0017986792
189	0xbb76dd36	-0.0037668473
190	0xbbb8afb2	-0.005636179
191	0xbafaa8d1	-0.0019123798
192	0xbc2a4019	-0.010391259
193	0x3c2bd3f3	0.010487544
194	0x3c76a3f7	0.015053741
195	0x3c0cdf5d	0.008598176
196	0x3a6e0545	0.0009079765
197	0x3abef17e	0.001456782
198	0x3ba841a9	0.0051347804
199	0x3c54ed77	0.012996069
200	0x3c0b994f	0.008520438
201	0x38b89ab2	8.802618e-05
202	0xbcaa2ea8	-0.0207742
203	0xbbfce453	-0.007717648
204	0x3b91acac	0.004445633
205	0xba52f334	-0.00080471043
206	0x3b6e2042	0.0036335145
207	0x3c0171b8	0.007900648
208	0x3c3b0c78	0.011416547
209	0xbb5bd2de	-0.0033542435
210	0x3c614648	0.0137496665
211	0x3ab778af	0.0013997759
212	0x3c149c20	0.009070426
213	0xbbf92ae7	-0.0076039913
214	0x3cb3f306	0.021966469
215	0x3b6026b1	0.003420275
216	0xbc09bfa1	-0.008407504
217	0xbb1cbcfd	-0.0023916357
218	0x3b8821c7	0.004154417
219	0x3c0ae8c9	0.008478352
220	0x3bc185c7	0.00590584
221	0x3c14436b	0.009049277
222	0xbbcd87d0	-0.0062722936
223	0x3ba1d0f3	0.0049382388
224	0xbb88b508	-0.004171971
225	0x3c795bbe	0.015219627
226	0x3a5ab3d2	0.00083428354
227	0xbc4e3ea0	-0.012588173
228	0xbb9699dd	-0.0045959787
229	0x3bfa5638	0.0076396726
230	0x3afef7cf	0.0019452515
231	0xbc809f59	-0.015700983
232	0x3c5b818b	0.013397585
233	0x3b6479b1	0.0034862573
234	0x3c844168	0.01614447
235	0xbc12d3ef	-0.008961662
236	0x3c8df68c	0.017329477
237	0x3bafdb71	0.0053667356
238	0xbba1d061	-0.004938171
239	0xbbc78505	-0.006088855
240	0xbcd95bfc	-0.02653312
241	0xb9707f19	-0.00022935531
242	0xbba6cdfe	-0.005090474
243	0xbcaa150c	-0.020761989
244	0xbb4abf6d	-0.0030936853
245	0x3ae23953	0.0017259516
246	0xb97ee6de	-0.00024309332
247	0x3c248663	0.010041806
248	0x39ac448b	0.00032857465
249	0xbc38a607	-0.011270053
250	0x3c677708	0.0141275
251	0xbc2147a1	-0.009843738
252	0xbc617b90	-0.01376237
253	0xbc9ee1cf	-0.019394783
254	0xbb5f74aa	-0.0034096637
255	0xbc0d8b11	-0.008639113

action_model._discrete_distribution.branches.0.bias f4 [2]
0	0xbb0eb721	-0.0021776634
1	0x3b0eb71f	0.002177663

critic.network_body.linear_encoder.seq_layers.0.weight f4 [128, 6]
0	0x3e9c374f	0.30510947
1	0xbe15232f	-0.14564203
2	0xbe30da0b	-0.17270677
3	0x3e2005f4	0.15627271
4	0xbdc6d9a4	-0.097094804
5	0xbf24c066	-0.64356077
6	0xbf0e53bf	-0.55596536
7	0x3ef6d490	0.48209047
8	0xbe2d0d41	-0.16899587
9	0x3f1f6d07	0.6227574
10	0xbeeb39f1	-0.45942643
11	0xbeb2ef28	-0.34948087
12	0xbe786ac8	-0.24259484
13	0x3e5b7b1f	0.21433686
14	0x3f920407	1.1407479
15	0xbcf94093	-0.0304263
16	0xbe23f4f9	-0.16011418
17	0xbe10f3da	-0.14155522
18	0x3db415e7	0.0879324
19	0xbe0c5c01	-0.13706972
20	0x3ed5844b	0.41702494
21	0x3eec421f	0.46144196
22	0xbe8ac98c	-0.27106893
23	0x3f51e491	0.8198939
24	0x3b3b2193	0.0028553947
25	0xbe5c7fbf	-0.21533106
26	0xbf5ad2a7	-0.8547768
27	0xbebb80dc	-0.3662175
28	0x3ece5862	0.40301806
29	0xbf41e822	-0.7574483
30	0xbe00fae0	-0.12595701
31	0x3f05bc60	0.5224056
32	0x3f3bfac5	0.7342952
33	0x3eb98a66	0.36238402
34	0xbef23e23	-0.47313032
35	0x3ed287d3	0.4111925
36	0xbe423850	-0.18966794
37	0xbf1668a5	-0.58753425
38	0x3eda22db	0.42604718
39	0xbf0220cc	-0.50831294
40	0xbd43f5e2	-0.047841914
41	0x3e9138dc	0.28363693
42	0xbe1da0ef	-0.15393423
43	0xbe65e3f8	-0.22450244
44	0xbd0d13f8	-0.03444287
45	0x3f3a72cb	0.7283141
46	0x3eb40334	0.35158694
47	0xbece5095	-0.40295854
48	0x3e0c13ca	0.13679424
49	0xbe3d0b57	-0.18461357
50	0xbe05e755	-0.13076527
51	0x3f165140	0.5871773
52	0xbecc61c3	-0.39918336
53	0x3f18d0cf	0.59693617
54	0xbe3d08bb	-0.18460362
55	0xbd7c72b8	-0.06163284
56	0x3e98ee8e	0.29869503
57	0x3d7ba2cf	0.061434563
58	0x3e0de8d3	0.13858347
59	0xbd9b6179	-0.07586951
60	0xbe348a8a	-0.17630973
61	0xbee74d8c	-0.4517635
62	0xbed98c5d	-0.424899
63	0xbe3b7be2	-0.18308976
64	0xbdf63cc3	-0.12023308
65	0xbd49f697	-0.049307432
66	0xbdba4773	-0.09095659
67	0x3e2c576f	0.16830228
68	0x3e5e6de7	0.21721612
69	0xbe91e477	-0.28494617
70	0xbe8dde98	-0.27708888
71	0xbe998e97	-0.299916
72	0x3f35c25e	0.70999706
73	0x3f1259fc	0.57168555
74	0xbed6046f	-0.41800258
75	0xbdd6203b	-0.10455366
76	0x3e38518a	0.17999855
77	0xbea2350f	-0.31681105
78	0xbe82c063	-0.25537404
79	0xbf0edf2f	-0.558093
80	0xbefb6414	-0.4909979
81	0x3ef65fe7	0.48120043
82	0xbd056e2f	-0.032575782
83	0xbe1078b8	-0.1410855
84	0x3ef41591	0.47672704
85	0x3ef4806c	0.47754228
86	0x3f1bc552	0.6084796
87	0xbf12ddb3	-0.57369536
88	0x3f0bf9ee	0.5467824
89	0xbeca2140	-0.39478493
90	0xbe61ef68	-0.22063982
91	0xbdcb5064	-0.09927443
92	0xbef55cb5	-0.47922292
93	0x3e18a86e	0.14908001
94	0x3e80e7df	0.25176904
95	0xbe5bd0c5	-0.21466358
96	0xbee9f541	-0.45694926
97	0xbf1f05cc	-0.6211822
98	0xbd77bd09	-0.060483012
99	0x3c542e6f	0.012950524
100	0xbf049875	-0.5179513
101	0x3ebe36b5	0.37151113
102	0x3f110fdd	0.5666483
103	0xbe031f06	-0.12804803
104	0xbeef8c14	-0.4678656
105	0x3f1fe21f	0.6245441
106	0xbd2d662c	-0.042333767
107	0x3d1e35d3	0.03862555
108	0x3e530be9	0.20610012
109	0xbd9a44ec	-0.07532677
110	0x3d926fbc	0.07150218
111	0x3d6c2d9d	0.057660688
112	0x3f78269c	0.96933913
113	0xbf07a663	-0.5298826
114	0x3de534d4	0.11191717
115	0x3ee8a873	0.45441017
116	0xbd8c3f9b	-0.06848069
117	0x3f37d252	0.718053
118	0xbeec82b0	-0.46193457
119	0x3c2a9e2b	0.010413687
120	0x3e543465	0.20723112
121	0xbd9393dc	-0.07205936
122	0xbf113743	-0.5672495
123	0x3cb37c2f	0.021909801
124	0xbf0d32f9	-0.55155903
125	0xbf7116a8	-0.94175196
126	0xbdbec465	-0.09314803
127	0xbd84f689	-0.06492335
128	0x3f30b619	0.6902786
129	0xbda5df35	-0.08099214
130	0xbf0b3403	-0.5437624
131	0x3e16373e	0.1466951
132	0x3f16ab0c	0.58854747
133	0x3f0518d9	0.5199104
134	0xbdb21d14	-0.086969525
135	0xbf00b11e	-0.5027026
136	0x3e3c20c1	0.1837187
137	0x3eb249bd	0.34821883
138	0xbe4876bf	-0.19576548
139	0x3f2531d6	0.6452917
140	0x3ea413ff	0.32046506
141	0x3f1153a5	0.56768256
142	0x3f052973	0.5201637
143	0xbec79c82	-0.38986593
144	0xbf96b23d	-1.1773144
145	0x3ecda223	0.40162763
146	0xbe7850eb	-0.24249618
147	0x3dffa5ad	0.12482772
148	0xbf09a2c9	-0.53764015
149	0x3e0ef267	0.13959657
150	0x3e714c6c	0.23564309
151	0xbe810f31	-0.25206903
152	0xbdaee5d2	-0.085399285
153	0x3f067e29	0.52536255
154	0xbf07480c	-0.5284431
155	0x3cbad2a7	0.022805525
156	0x3d460582	0.048345096
157	0x3e850d90	0.2598691
158	0x3e9f9136	0.31165475
159	0x3ea12fb3	0.31481704
160	0x3efda854	0.49542487
161	0xbe6a38b6	-0.22873196
162	0xbed1da67	-0.4098694
163	0xbdb12605	-0.0864983
164	0x3d3bdb7f	0.045863625
165	0xbe805402	-0.25064093
166	0x3d399260	0.04530561
167	0x3ea6ae80	0.32555008
168	0x3eb17c33	0.3466507
169	0xbf294cce	-0.6613282
170	0xbe115be9	-0.14195217
171	0xbf455ead	-0.7709759
172	0x3f3d92ae	0.7405194
173	0x3f3ec091	0.74512583
174	0xbf55a07d	-0.8344801
175	0x3c711976	0.014715543
176	0x3ccd693b	0.025074592
177	0xbe8acca5	-0.27109256
178	0x3f14c3b3	0.58111113
179	0xbef3dcca	-0.47629386
180	0xbe4a4634	-0.19753343
181	0x3ebc4976	0.36774796
182	0x3e2f843e	0.1714029
183	0xbf346661	-0.7046872
184	0xbe4d29c6	-0.20035467
185	0x3c012b1d	0.007883814
186	0x3f14faf1	0.58195406
187	0x3ee1472d	0.43999615
188	0x3e970c44	0.29501545
189	0xbe579e2e	-0.21056435
190	0xbe8dff58	-0.27733874
191	0xbd5aa3fb	-0.05337904
192	0x3e7b92bd	0.24567695
193	0x3e84f127	0.25965235
194	0xbf85687c	-1.0422511
195	0xbf008b25	-0.5021232
196	0xbf002663	-0.50058573
197	0x3ee0a53a	0.43876058
198	0xbd2a3282	-0.041552074
199	0xbee54371	-0.44778016
200	0x3d1b67b6	0.037940703
201	0x3d1fa506	0.038975738
202	0x3eeb2176	0.45923966
203	0x3de84557	0.113413505
204	0xbf400676	-0.7500986
205	0x3d010f04	0.03150846
206	0x3e5dd77d	0.21664234
207	0x3d918ed5	0.07107321
208	0xbd6b4b77	-0.057445016
209	0xbed2c731	-0.41167596
210	0xbe90a399	-0.28249815
211	0xbec4c00c	-0.3842777
212	0x3e6fec8b	0.23430078
213	0x3e3a2f72	0.18182161
214	0x3f01f27d	0.5076063
215	0x3f1943b8	0.59868956
216	0x3f03c846	0.5147747
217	0xbf06e87b	-0.5269849
218	0xbdc23cfa	-0.094842866
219	0xbd853c6b	-0.065056644
220	0x3f076f31	0.5290404
221	0xbe89f076	-0.2694127
222	0x3ea5f9fb	0.32417282
223	0x3c4465fa	0.011987204
224	0x3dbe46e4	0.09290865
225	0x3ecc03ab	0.39846548
226	0xbf017581	-0.5056992
227	0xbd19d8ce	-0.037560277
228	0x3f2daae7	0.678389
229	0xbe698f95	-0.22808678
230	0xbec5d7c5	-0.38641182
231	0x3d88091e	0.06642364
232	0x3f0c7c72	0.5487739
233	0xbdd5f6f4	-0.10447493
234	0xbf2f9791	-0.68590647
235	0x3e50cdf4	0.20391065
236	0x3e2b01bb	0.16699879
237	0x3f823d0f	1.0174884
238	0x3e3c1d32	0.18370512
239	0xbee12008	-0.4396975
240	0x3f05c76d	0.52257425
241	0x3da48330	0.080328345
242	0x3ea09329	0.31362274
243	0x3ef60d9e	0.48057264
244	0x3e1b882a	0.15188661
245	0xbeb582aa	-0.3545125
246	0xbd4c7123	-0.049912583
247	0xbeee7e66	-0.4658081
248	0xbea4b3c8	-0.32168412
249	0xbca58cca	-0.020208735
250	0x3ea47b7c	0.3212546
251	0x3e1846e8	0.14870799
252	0x3f1c16de	0.6097239
253	0xbe8c0674	-0.27348673
254	0x3f0d2a34	0.5514252
255	0x3e4c18ad	0.19931288

critic.network_body.linear_encoder.seq_layers.0.bias f4 [128]
0	0x3b0b7c1e	0.0021283696
1	0x3b9d2922	0.004796163
2	0xbb4a7016	-0.0030889562
3	0xbb69f41f	-0.0035698486
4	0xbc5fab15	-0.013651629
5	0x3a1315f3	0.00056108757
6	0x3aae6505	0.0013305253
7	0xbba249e3	-0.0049526556
8	0xbae1446f	-0.0017186532
9	0x39465d62	0.0001891754
10	0x3b98d674	0.0046642367
11	0xbad7a48e	-0.0016452239
12	0xbb6b1e69	-0.003587628
13	0xb95deffb	-0.00021165602
14	0xbbbbd540	-0.0057322085
15	0xbc9bdc4c	-0.019025944
16	0xbaeeef64	-0.0018229303
17	0xbbaced1f	-0.0052772905
18	0x3aa8c7d6	0.0012876939
19	0x3b87f69e	0.004149272
20	0xbb9b79fd	-0.0047447667
21	0xbae2a013	-0.0017290137
22	0xbbaa12e7	-0.0051902416
23	0xbc427ea9	-0.011871018
24	0xbc1a78db	-0.009428228
25	0xbb280adb	-0.0025641236
26	0x3a351ca1	0.0006908868
27	0x3bfa2398	0.0076336376
28	0x3c1bf8fe	0.009519814
29	0xbc079faa	-0.008277813
30	0xbb1b5089	-0.0023699126
31	0xb95b7afe	-0.00020931286
32	0xbc8a118b	-0.016854068
33	0x3b0bd514	0.0021336721
34	0xbae9f14d	-0.0017848402
35	0xb875092c	-5.8421094e-05
36	0x3c635b87	0.013876802
37	0xbb9e9599	-0.004839611
38	0xbb32f3a0	-0.0027305856
39	0x3c035526	0.008015906
40	0x389f38e0	7.5923046e-05
41	0x3c87fa78	0.016598925
42	0xba581864	-0.00082433806
43	0x3b563b0e	0.0032689008
44	0xbb887385	-0.0041641616
45	0x3a6e586c	0.00090921554
46	0xbb160fd7	-0.0022897625
47	0x3c21d8bf	0.009878336
48	0x3b127625	0.0022348252
49	0xb933cf9a	-0.00017148108
50	0x3980aaae	0.0002454123
51	0xbaf41380	-0.0018621534
52	0x3be75fc8	0.0070609786
53	0xbb769a64	-0.0037628645
54	0x3b749424	0.0037319744
55	0x393a8203	0.00017786775
56	0xbb98ae4e	-0.0046594506
57	0xba6d4f72	-0.0009052671
58	0xbb5f2121	-0.0034046846
59	0x3c405e3b	0.011741216
60	0x3b870964	0.0041209925
61	0x3b30745d	0.0026924827
62	0x3cacfcef	0.021116702
63	0xbb8183be	-0.0039524725
64	0xbbafc087	-0.005363527
65	0x3bf8ae33	0.0075891255
66	0x3c0b27af	0.008493348
67	0xba1c1c4d	-0.0005955145
68	0x3c2b2ed5	0.010448177
69	0xbbc9e4fd	-0.0061613307
70	0xbc06e89e	-0.008234171
71	0xbc394b32	-0.011309432
72	0x3beb243f	0.0071759517
73	0xbc3a3565	-0.011365269
74	0x3af070b4	0.0018344135
75	0xbbac7662	-0.005263136
76	0xbb6672e6	-0.00351637
77	0xbc0146b4	-0.007890392
78	0x3b4e4a25	0.00314773
79	0xbbf8deec	-0.0075949337
80	0xbb825ee3	-0.0039785965
81	0x3aecaac0	0.0018056259
82	0xba9a6d6e	-0.001178188
83	0x3a804d87	0.000978873
84	0xba16fdb7	-0.00057598524
85	0xbc2b54b1	-0.010457204
86	0x3abd3d41	0.0014437811
87	0xb88e9d8b	-6.800432e-05
88	0xbbcf1a57	-0.0063202786
89	0x3bd814d1	0.0065942784
90	0x3bd5b3cd	0.006521678
91	0x3bcf6776	0.006329472
92	0x3be0acca	0.0068565356
93	0xbbbb2755	-0.005711476
94	0x3befeba3	0.0073217913
95	0xbc94218e	-0.018082406
96	0xbab80a56	-0.0014041166
97	0xbbbeafba	-0.005819288
98	0xbc38bbbd	-0.011275229
99	0x3c09d7b5	0.008413245
100	0x3bd74041	0.006568939
101	0xbc24c6b0	-0.010057136
102	0x3ab7ddc6	0.0014027886
103	0x3c33be03	0.010970595
104	0xbb8398a7	-0.0040160003
105	0xbc32b500	-0.010907412
106	0x3bbfbc46	0.0058513014
107	0xbb7a9a04	-0.0038238773
108	0x3bd723e1	0.0065655564
109	0x3b98617c	0.004650293
110	0x3c0a2b9b	0.008433248
111	0xbc1beee5	-0.009517406
112	0x3b124785	0.002232046
113	0xbb9b4169	-0.004738022
114	0x3b2ac9e9	0.002606029
115	0xbc6f8ca3	-0.014620933
116	0xb9f657ad	-0.000469861
117	0xbc3aa1a4	-0.011391077
118	0x3baa589e	0.0051985523
119	0xbc1db806	-0.009626394
120	0xbc4220db	-0.011848654
121	0xbac70c70	-0.0015186202
122	0xbb5eb216	-0.003398066
123	0xbc15ef78	-0.009151332
124	0xbc8988b3	-0.016788816
125	0x39b1e088	0.0003392736
126	0x3beb9a69	0.007190038
127	0xbc362453	-0.011117059
