results/ppo/Car Agent/Car Agent-194282.onnx (onnx, 86866 bytes, 9 tensors)

action_model._continuous_distribution.log_sigma f4 [1, 2]
0	0xbbba7985	-0.005690756
1	0xbbd95bf8	-0.006633278

action_model._continuous_distribution.mu.bias f4 [2]
0	0x3c1834c9	0.009289929
1	0xbb89e7b6	-0.0042085303

action_model._continuous_distribution.mu.weight f4 [2, 128]
0	0x3aab2da2	0.0013059864
1	0x3c4b97df	0.012426346
2	0xbcb493cc	-0.022043131
3	0x3cb809e9	0.022465663
4	0xbc70dda4	-0.014701281
5	0xbc5a30c8	-0.013317294
6	0xbd061f46	-0.03274467
7	0xbc8b312a	-0.016991217
8	0xbb2bdbf1	-0.0026223625
9	0x3b4b155a	0.0030988068
10	0xbc144da2	-0.009051712
11	0xbb6add8c	-0.0035837619
12	0xbc9a58f8	-0.018841252
13	0xbc029c28	-0.007971801
14	0x3c4ded98	0.012568854
15	0x3c7441d5	0.014908274
16	0xbcc6e4d0	-0.024279028
17	0x3c030747	0.0079973405
18	0xba52dea3	-0.000804404
19	0xbbc50830	-0.006012939
20	0x3d0a0134	0.033692554
21	0xbaaebd1f	-0.0013331509
22	0x3c94c8d3	0.018162167
23	0xb9950cc4	-0.00028429006
24	0xbcb5a2dd	-0.022172386
25	0xbb9d3ceb	-0.0047985218
26	0x3c84f31b	0.016229203
27	0xbc974baf	-0.018468706
28	0xbbdaeb9c	-0.006680919
29	0x39aab935	0.00032562917
30	0xbc641799	-0.013921642
31	0xbce8c374	-0.028413512
32	0x3c619f82	0.01377094
33	0x3c9d028e	0.019166257
34	0xbca2b730	-0.019862741
35	0x3c99ec6a	0.018789489
36	0xbb8e0a63	-0.0043347343
37	0x3c4b3ae9	0.012404182
38	0xbbbe9a8d	-0.0058167637
39	0xbc1c6096	-0.009544512
40	0xba34a6dc	-0.0006891319
41	0xbc89f344	-0.01683963
42	0xba5e3d80	-0.0008477792
43	0x3ce2cb55	0.027684847
44	0xbcc1241a	-0.023576785
45	0xbd225ec8	-0.03964117
46	0xbd1b1a57	-0.037866917
47	0xbc07bd0a	-0.0082848165
48	0x3bb33e10	0.005470045
49	0xbd4d2353	-0.050082516
50	0xbc8a860c	-0.016909622
51	0x3c6fbc88	0.014632352
52	0xbc0cdbbf	-0.008597313
53	0x3c88074c	0.016605042
54	0xbcf4e9a7	-0.02989657
55	0xbae7a69e	-0.0017673557
56	0xbc036be2	-0.008021327
57	0xbd05661f	-0.032568093
58	0xbc1dc36b	-0.009629111
59	0xbd20635a	-0.03915725
60	0x3b880f19	0.0041521904
61	0xbacfeed1	-0.001586402
62	0x3cb87aea	0.022519547
63	0xbc0e2130	-0.008674905
64	0xbce25189	-0.02762677
65	0xbc07bca8	-0.008284725
66	0x3c0b0978	0.008486144
67	0x3d19a875	0.03751417
68	0xbb1aa0f3	-0.0023594468
69	0x3d019c9c	0.031643495
70	0x3b526776	0.0032105125
71	0xbc000b84	-0.007815246
72	0xbbe33b3c	-0.0069345515
73	0x3b94be2c	0.004539272
74	0x3cedb7f2	0.029018376
75	0xbcaaadd4	-0.02083484
76	0x3c930809	0.017948167
77	0x3c5c9889	0.013464102
78	0xbc04eff6	-0.008113852
79	0xbc294465	-0.010331248
80	0x3c11655c	0.008874264
81	0xba43a795	-0.00074636313
82	0xbb0b8474	-0.0021288665
83	0xbc77bea6	-0.015121138
84	0x3bba0a3d	0.00567749
85	0xbcc33167	-0.023827268
86	0xbb99852d	-0.0046850652
87	0x3c8f7c1b	0.017515233
88	0x3ca8b11d	0.020592267
89	0x3cce24a0	0.025163949
90	0x3a85389b	0.0010163964
91	0x3c430aff	0.011904477
92	0xbc16faa3	-0.00921503
93	0x3ce0e499	0.027452754
94	0xbb633da9	-0.0034674203
95	0xbc75fe09	-0.01501418
96	0x3b0e1f59	0.0021686165
97	0xbc8087be	-0.015689727
98	0xbd5eac16	-0.054363333
99	0xbbef4a24	-0.0073025394
100	0xbca56ff0	-0.020194978
101	0x3bbaf76e	0.0057057654
102	0x3c01b053	0.007915574
103	0x3b852384	0.0040630717
104	0x3d27f998	0.041009516
105	0x3b5946cd	0.0033153773
106	0xbc54c114	-0.012985487
107	0xba807104	-0.0009799306
108	0x3d074fd3	0.03303511
109	0x3c9ace5e	0.018897232
110	0xbab9d2f6	-0.0014177251
111	0xbbebcdd2	-0.0071961666
112	0xbd0d37c2	-0.034477003
113	0xbd0399bc	-0.032129034
114	0xbcaac67f	-0.020846603
115	0xbb854e6c	-0.0040681865
116	0xbbe550e2	-0.0069981674
117	0xbae1e749	-0.0017235066
118	0xbc45270b	-0.012033234
119	0x3bd5faad	0.006530127
120	0xbcb787b8	-0.022403583
121	0xbd299ae6	-0.04140749
122	0x3ccb1d01	0.024794104
123	0x3c9e38bd	0.019314164
124	0xbb75b960	-0.0037494525
125	0xbca24127	-0.019806458
126	0x3cac373a	0.021022428
127	0xbb9700ea	-0.0046082633
128	0x3ca06883	0.019581085
129	0x3bec5b73	0.00721305
130	0xbc5a6eff	-0.013332128
131	0xbcd42d4b	-0.025900504
132	0x3cd20a13	0.02563957
133	0xb9e93e3d	-0.00044487594
134	0xbc0866a7	-0.0083252555
135	0x3cd25392	0.025674615
136	0x3cf5cef5	0.030005911
137	0x3c5bff8c	0.013427626
138	0xbb899dad	-0.0041997046
139	0x3cba7b83	0.022763973
140	0xbbade767	-0.0053071263
141	0xbabcf461	-0.0014416092
142	0xbcf7a968	-0.030232146
143	0x3be46d7a	0.0069710584
144	0x3be0508b	0.006845539
145	0xbb209f8d	-0.0024509162
146	0x3cc23204	0.02370549
147	0xbccff453	-0.025385058
148	0xbd059998	-0.03261718
149	0x3c6cc5e8	0.014451481
150	0xbcb8bef2	-0.022551987
151	0x3acc7ec6	0.0015601746
152	0x3d4a9f50	0.04946834
153	0x3b2d6445	0.002645747
154	0xbb344e98	-0.0027512666
155	0xbaf93e08	-0.0019015679
156	0x3becf971	0.007231884
157	0xbcbf88c6	-0.023380648
158	0xbc1e364f	-0.009656503
159	0xbca9901b	-0.020698598
160	0xbd1452b4	-0.036211684
161	0x3c9e7c84	0.019346483
162	0xbc8e5546	-0.017374646
163	0x3ce86a65	0.028371045
164	0x3c03cbbb	0.008044179
165	0x3c64e364	0.01397023
166	0x3bd9c280	0.0066455007
167	0xbc94fa9e	-0.01818591
168	0xbcbb7f05	-0.022887716
169	0xbbd84b05	-0.00660074
170	0x3b86b9bb	0.0041114963
171	0x3cb6d19f	0.022316752
172	0xbc80e80a	-0.015735645
173	0xbcaa5cb3	-0.020796156
174	0x3cc3f1b9	0.023918973
175	0xbbbc1c6f	-0.0057406942
176	0x3c1902fd	0.009339091
177	0x3cc8aea0	0.02449733
178	0xbc310302	-0.01080394
179	0xbd04b2b6	-0.032396995
180	0x3cba333f	0.022729514
181	0xbcb2f50a	-0.02184536
182	0x3c235d38	0.009970956
183	0x3c7e794e	0.015531851
184	0xbd0e0040	-0.034668207
185	0xbc598667	-0.013276673
186	0x3ac60a6d	0.0015109308
187	0xbb579204	-0.0032893429
188	0x3b77c9e4	0.0037809545
189	0xbbca8031	-0.0061798324
190	0x3b876944	0.0041324217
191	0x3b017763	0.0019754998
192	0x3cb9d912	0.022686515
193	0x3c19b63d	0.009381828
194	0x3c86fe74	0.016478755
195	0xbca77b19	-0.02044444
196	0xbba70059	-0.005096477
197	0x3c3fb1a1	0.011700065
198	0x3c0e4688	0.008683808
199	0x3d08070a	0.033209838
200	0x3ba8cc72	0.005151325
201	0x3c614d9e	0.013751416
202	0xbc3c37aa	-0.011487881
203	0x3b490a3a	0.0030676262
204	0xbaa0dd6b	-0.0012273019
205	0xbadbad80	-0.0016760081
206	0xbbe87827	-0.0070944014
207	0x3cddf243	0.027093058
208	0x3bb3bd93	0.0054852455
209	0x3c1978ba	0.009367162
210	0x3c6f394c	0.014601063
211	0xbb0f6b29	-0.002188394
212	0x3aa2b0c6	0.0012412302
213	0x3c35b70d	0.011091006
214	0xbd04cbcb	-0.032420915
215	0x3cad2725	0.02113683
216	0x3cbb4f4f	0.022864966
217	0xbc9b9af5	-0.018994788
218	0xbcca3116	-0.02468161
219	0x3c37a860	0.011209577
220	0xbbf6a86e	-0.0075274026
221	0xbbd30806	-0.0064401655
222	0xbce7d945	-0.028301844
223	0xbca7f143	-0.020500785
224	0xbc91fde0	-0.017821252
225	0xbc993506	-0.018702041
226	0x3b574dcc	0.0032852767
227	0xbc3accd8	-0.011401378
228	0xbc13ee92	-0.009029048
229	0xbc85a4b5	-0.01631389
230	0xbcb3f940	-0.021969438
231	0xbc01bf10	-0.007919088
232	0xbc285c0b	-0.010275851
233	0xbb02738a	-0.0019905292
234	0x3b649420	0.0034878328
235	0x3cce9e3f	0.025221942
236	0x3cd7dafc	0.026349537
237	0x3c98d586	0.018656503
238	0x3b96cf3d	0.0046023414
239	0x3c6373ce	0.01388259
240	0x3c0690c9	0.00821323
241	0x3cd56794	0.026050366
242	0x3c592c6e	0.013255222
243	0x3bbff345	0.0058578574
244	0xbc9cfde4	-0.019164033
245	0xbd22f2fc	-0.03978251
246	0xbbb0da3b	-0.005397109
247	0xbb13c6eb	-0.0022548984
248	0x3cec0774	0.028812148
249	0xba9731c3	-0.0011535216
250	0xbc96a8d3	-0.018391049
251	0x3ac606b3	0.0015108198
252	0xbc6689bc	-0.014070924
253	0xbc22d007	-0.009937293
254	0xbb0f01d2	-0.0021821153
255	0xbceed3e6	-0.029153775

action_model._discrete_distribution.branches.0.bias f4 [2]
0	0x3ccf1380	0.025277853
1	0xbccf1380	-0.025277853

action_model._discrete_distribution.branches.0.weight f4 [2, 128]
0	0xbccbddb3	-0.024885988
1	0x3c823176	0.015892725
2	0xbd3583ab	-0.04431502
3	0xbb990677	-0.00466996
4	0xbc54603b	-0.012962396
5	0xbc8db404	-0.017297752
6	0xbd3268ee	-0.0435571
7	0x39b689dc	0.00034816458
8	0xbc575e31	-0.013145016
9	0xbc19fa67	-0.0093980795
10	0xbce7a3cd	-0.028276348
11	0xbc2fbee8	-0.010726668
12	0xbcdc6c77	-0.026907189
13	0x3ba46ebb	0.005018083
14	0x3cec84f2	0.028871987
15	0x3ad0e503	0.0015937391
16	0xbbd65e2b	-0.0065419874
17	0x3cbe34b4	0.02321849
18	0x3c834dd9	0.016028332
19	0xbb942ef5	-0.0045221993
20	0x3bdaee45	0.006681236
21	0x3c830754	0.015994705
22	0x3bc2f21e	0.005949273
23	0xbbca92a6	-0.0061820326
24	0xbc1af4b2	-0.009457754
25	0xbbf54941	-0.007485539
26	0xba74e846	-0.0009342473
27	0xbd3a72e4	-0.045519724
28	0xbcc13482	-0.023584608
29	0x3cde9f20	0.027175486
30	0xbc54de57	-0.012992463
31	0x3bc06979	0.0058719483
32	0x3c87b9ea	0.016568143
33	0x3c2a6431	0.010399864
34	0xbcb2200b	-0.021743795
35	0x3ba063b7	0.0048946994
36	0xbd4b96bb	-0.049704295
37	0xba4cd350	-0.00078134704
38	0xbbb99197	-0.0056631076
39	0xbc09f5da	-0.008420432
40	0xbc2275cc	-0.00991578
41	0xbd0da9ec	-0.03458588
42	0xbcfd7f75	-0.030944565
43	0x3c98d203	0.018654829
44	0xbc9bf281	-0.019036533
45	0xbcf7442f	-0.03018388
46	0xbc5c6f8e	-0.013454331
47	0xbd18713e	-0.03721737
48	0x3c1d368a	0.009595523
49	0x3bfe84e6	0.0077673076
50	0xbd8c0507	-0.068368964
51	0x3c5a01e2	0.013306113
52	0xbbd4fc09	-0.0064997715
53	0x3c9fd320	0.019509852
54	0xbb46e0aa	-0.0030346313
55	0x3bb6da2a	0.0055802064
56	0xbcee6eac	-0.029105507
57	0xbcec6d89	-0.028860824
58	0x3c1108d4	0.008852202
59	0xbbae8b12	-0.005326637
60	0xbb0c69d1	-0.0021425376
61	0xbcd7d4b5	-0.026346544
62	0x3cf75483	0.030191666
63	0x3c0e515d	0.008686391
64	0xbaadca11	-0.0013259073
65	0xbb67deb0	-0.0035380535
66	0xbc2e5084	-0.010639314
67	0x3bd10506	0.0063787727
68	0xbd05a85e	-0.03263127
69	0x3cf3bdde	0.029753622
70	0xba60ba9b	-0.0008572728
71	0xbbc88095	-0.006118844
72	0x3c527d42	0.012847247
73	0xbd117ba1	-0.035518292
74	0x3d0b71b4	0.034043983
75	0x3c019be0	0.007910699
76	0x3babf3ac	0.005247554
77	0x3b0bec58	0.0021350589
78	0x3c599e93	0.013282436
79	0xbc9d1791	-0.019176276
80	0xbc9118d7	-0.01771204
81	0x3bb012de	0.005373343
82	0xbbd89979	-0.0066100922
83	0xbb55742d	-0.0032570467
84	0x3c027cbb	0.007964308
85	0xbd24a0dc	-0.04019247
86	0xbc0f63c8	-0.008751817
87	0x3d0fdc06	0.03512194
88	0xbb3f7f66	-0.0029220222
89	0x3b77058b	0.0037692513
90	0x3ae66d9c	0.0017580274
91	0x3c8045bf	0.015658258
92	0xbca47273	-0.020074105
93	0x3a57771a	0.00082193466
94	0xb990687e	-0.00027543673
95	0x3c76df44	0.015067879
96	0x369aba45	4.6112423e-06
97	0xbcb6c7a3	-0.022311991
98	0xbc88a53a	-0.016680349
99	0x3bf19d9f	0.007373526
100	0x3b807527	0.0039202156
101	0x3c05156f	0.008122786
102	0x3c502a4e	0.012705399
103	0xbd165b62	-0.036708243
104	0x3ca89843	0.020580417
105	0x3c0f8be8	0.008761384
106	0xbb83634d	-0.0040096403
107	0x3b1f5297	0.0024310702
108	0x3c2c6a8b	0.010523449
109	0x3d1c3212	0.03813369
110	0xbbaa826f	-0.005203537
111	0x3caee9c6	0.021351706
112	0xbc6c58dd	-0.0144254835
113	0x3c8ba127	0.017044617
114	0xbd4122c4	-0.047152296
115	0xbcd975ef	-0.026545493
116	0x3bad91aa	0.0052969055
117	0xbcbdf410	-0.023187667
118	0xbc3520a4	-0.011055145
119	0x3b632960	0.0034662113
120	0xbd03c456	-0.032169662
121	0xbd61f6d0	-0.05516702
122	0x3c8bd4c2	0.017069224
123	0x3c097e03	0.00839186
124	0xba0c7a8d	-0.00053588377
125	0xbcdfa7d2	-0.027301703
126	0xbc4ca405	-0.012490277
127	0x3b9f5853	0.004862824
128	0x3ce3d612	0.027812038
129	0x3bba0512	0.005676874
130	0x3d1ecb5e	0.038768165
131	0x3ba8def0	0.0051535293
132	0x3c699c22	0.014258416
133	0x3c1a0989	0.009401687
134	0x3d787627	0.060659554
135	0xbb98af04	-0.0046595354
136	0xbba082a6	-0.004898387
137	0x3906bdf1	0.00012849995
138	0x3cb2a883	0.021808868
139	0x3cf52d3b	0.029928794
140	0x3cdc81be	0.026917335
141	0xbae5320d	-0.001748623
142	0xbd0bd061	-0.034134272
143	0x3c2c4d70	0.010516509
144	0x3c8f041f	0.01745802
145	0x3ac0553a	0.0014673837
146	0x3af878cd	0.00189569
147	0xbbf5c870	-0.0075007007
148	0xbc13f67c	-0.009030934
149	0xbc1ef047	-0.009700841
150	0xbcac337e	-0.021020647
151	0x3b53147c	0.0032208255
152	0x3be245cc	0.006905293
153	0x3c603b92	0.013686078
154	0x3c4b9181	0.012424828
155	0x3cd2537e	0.025674578
156	0x3cbefb90	0.023313314
157	0xbc0eb12e	-0.008709235
158	0xb90c4461	-0.00013376914
159	0xbc930738	-0.017947778
160	0xbc03754d	-0.008023572
161	0xbd0dde5a	-0.03463588
162	0x3c81825c	0.01580923
163	0x3bc0dc7a	0.005885658
164	0x3cec3e24	0.028838225
165	0x3bcb90c3	0.0062123253
166	0x3cc74c65	0.02432842
167	0x3c32636b	0.010887961
168	0xba8f28b1	-0.0010922161
169	0x3ca4a7e7	0.020099593
170	0x3c726629	0.014794865
171	0xbbe4f911	-0.006987699
172	0x3c98a8c2	0.018635157
173	0x3d49975a	0.049216606
174	0x3cb18173	0.021668172
175	0x3d5bc850	0.05365783
176	0x3b959b4c	0.004565632
177	0xbc071fd4	-0.0082473345
178	0x3d934796	0.07191388
179	0xbb9a5aa1	-0.004710511
180	0x3ca9d661	0.020732107
181	0xbb061232	-0.0020457623
182	0x3c205fe6	0.009788489
183	0xbc6799aa	-0.014135757
184	0x3c039584	0.008031253
185	0x3cc54034	0.024078466
186	0xbbeb1676	-0.0071743084
187	0x3cdec60b	0.027194044
188	0x3c240105	0.010010009
189	0x3b9b5f36	0.0047415746
190	0xbd570777	-0.052497353
191	0xbc770852	-0.015077667
192	0x3c232bc9	0.00995917
193	0x3bb824d8	0.0056196265
194	0x3c9a48fc	0.01883363
195	0x3bf9d181	0.0076238518
196	0x3d42ef12	0.047591276
197	0xbd00f795	-0.031486113
198	0xbaaffe8f	-0.0013427305
199	0x3c80e01e	0.015731867
200	0x3c31423b	0.010819013
201	0x3ce0bafb	0.02743291
202	0xbd2e82e4	-0.042605296
203	0x3bf2d148	0.007410202
204	0xbc2c56a6	-0.0105187055
205	0x3c16170c	0.009160768
206	0xbb44316d	-0.0029936687
207	0x3ca46705	0.020068655
208	0x3c5ee6b7	0.013604811
209	0xbc881e70	-0.016616076
210	0x3c688bd2	0.014193492
211	0x3bdc83cb	0.006729578
212	0xbc283993	-0.010267633
213	0x3d4692a6	0.0484797
214	0xba256816	-0.00063097605
215	0xbc13c429	-0.009018936
216	0xbc55c940	-0.01304847
217	0x3c19cf71	0.009387837
218	0x3b461c4f	0.0030229276
219	0xbc78fc08	-0.015196808
220	0x3c6bb8a8	0.014387287
221	0xbb5dfcfa	-0.003387271
222	0x3c1fc09a	0.00975051
223	0x3ba78e01	0.0051133637
224	0xbc91d08d	-0.01779964
225	0x3cff5889	0.031170147
226	0x3d15db4c	0.03658609
227	0xbb8ed796	-0.004359196
228	0x3bc37437	0.0059647816
229	0xbbee8448	-0.0072789527
230	0xbbc5ddda	-0.0060384097
231	0x3cba0ade	0.02271026
232	0xbd0fad88	-0.0350776
233	0xbbda299f	-0.0066577937
234	0x3a0757fc	0.0005162952
235	0x38d4bb65	0.00010143853
236	0xbca42ff3	-0.020042395
237	0xbcb771e0	-0.022393167
238	0xbbf70522	-0.0075384537
239	0x3b109bbe	0.0022065486
240	0x3ce02865	0.027363012
241	0x3ca5585b	0.020183733
242	0x3cceafc4	0.025230296
243	0x3d191bd2	0.037380047
244	0xbcb691c8	-0.02228631
245	0x3c92a0d5	0.017898956
246	0x3b4ac32a	0.003093908
247	0xbc85c009	-0.016326921
248	0x3d529a34	0.05141659
249	0x3d7d5a73	0.061853837
250	0xbc71dc2e	-0.014761968
251	0x3c8de522	0.017321173
252	0x3c9d8e34	0.019232847
253	0x3c65cef5	0.014026393
254	0xb9bd216d	-0.00036073793
255	0x3ba41da9	0.0050084186

network_body.linear_encoder.seq_layers.0.bias f4 [128]
0	0x3c309dd1	0.010779814
1	0xba2c0af3	-0.0006562911
2	0x39db4276	0.00041820452
3	0x3bbb3041	0.0057125394
4	0x3c025ad5	0.007956226
5	0xbbbd7d65	-0.0057827705
6	0xbb6581c2	-0.0035019969
7	0x3c73c1fa	0.014877791
8	0x3c21afeb	0.009868602
9	0xba90da18	-0.0011051325
10	0x3d0185b6	0.031621657
11	0x3c22ed0f	0.0099442145
12	0xbc30055a	-0.010743463
13	0x3b399b58	0.0028321352
14	0x3c4180a8	0.011810459
15	0x391d1e85	0.00014984056
16	0xba84e589	-0.0010139208
17	0xb65e3921	-3.3113831e-06
18	0x3c6ef6b9	0.01458519
19	0xba0b48da	-0.0005313285
20	0xbaaf90de	-0.0013394614
21	0x3bec226b	0.0072062514
22	0xbc273be1	-0.010207147
23	0x3c7902b2	0.0151983965
24	0xbbaec7f2	-0.005333894
25	0xbbe29370	-0.0069145486
26	0xbbf9e4a7	-0.0076261344
27	0x3ba8df6d	0.0051535876
28	0xbc75e1d4	-0.015007455
29	0x3bd853be	0.0066017797
30	0x3c2210bf	0.009891688
31	0x3c855755	0.016276995
32	0x3ccb3258	0.02480428
33	0x3bfb1948	0.007662926
34	0xbaecccc3	-0.0018066395
35	0xbbe6332c	-0.007025143
36	0x3bb12d4d	0.0054070116
37	0x3b4ac542	0.0030940329
38	0x3c09becf	0.008407309
39	0x3c2bcad0	0.010485366
40	0xbc23dac9	-0.010000893
41	0xbb9ae1d3	-0.0047266274
42	0x3cb23db5	0.02175794
43	0x3c49338e	0.012280358
44	0xbbeb6708	-0.007183913
45	0x3c813400	0.015771866
46	0xbaca1ac1	-0.001541935
47	0xbb9f47fb	-0.0048608757
48	0xba4cf134	-0.00078179245
49	0x3c5bb230	0.013409182
50	0x3ad2e2ba	0.0016089298
51	0xbca4a6d5	-0.020099083
52	0xbbce7be0	-0.006301388
53	0x3c9db5c4	0.019251712
54	0x3bf1a095	0.007373879
55	0xbaad4f24	-0.0013222438
56	0xbc49832e	-0.012299342
57	0x3c3a2e1a	0.0113635305
58	0x3c037fc7	0.00802607
59	0xbbd330fa	-0.0064450474
60	0xbccfced9	-0.025367187
61	0x3cb7da8d	0.02244308
62	0x3b06da67	0.0020576955
63	0x3b8b29c4	0.004246922
64	0xbb99556a	-0.0046793716
65	0xbb156ba6	-0.002279976
66	0xbc001930	-0.007818505
67	0xbb9e3d41	-0.0048290794
68	0x3c902e91	0.01760033
69	0xbc27eb7e	-0.010249017
70	0x3b42b941	0.002971247
71	0x3d0d4272	0.034487195
72	0x3a5e8a4c	0.0008489236
73	0xb95185fd	-0.00019981708
74	0xbbd4937b	-0.0064873076
75	0x3c5216a5	0.012822782
76	0xbc6fbd77	-0.014632574
77	0x3b94d461	0.004541919
78	0x3ad43c67	0.0016192318
79	0x3b8cf40c	0.0043015536
80	0x3b95fa80	0.004576981
81	0x3c5aae1f	0.013347178
82	0x3bdb4826	0.0066919504
83	0xb97c5889	-0.00024065575
84	0xbc6ba5db	-0.014382805
85	0x3c55fd97	0.013060949
86	0xbbb0633e	-0.0053829243
87	0xbbb26b77	-0.0054449397
88	0xbb18b379	-0.0023300333
89	0x3c9061aa	0.017624695
90	0xbc228931	-0.009920404
91	0xbbff02ab	-0.0077823005
92	0xbc5bb4c8	-0.013409801
93	0xbc44c1a2	-0.012009056
94	0x3b3fa46e	0.0029242295
95	0x3b7c669a	0.0038513304
96	0xbbba1e04	-0.0056798477
97	0x3bc7e1b4	0.006099904
98	0xbc1f1488	-0.009709485
99	0x3b430ce5	0.0029762324
100	0x3ba6d2af	0.0050910334
101	0x3c044974	0.008074153
102	0xbb5d043c	-0.0033724448
103	0x3c54d7fc	0.012990948
104	0xbc145bb2	-0.009055065
105	0x3c0cf161	0.008602471
106	0xba4093dd	-0.0007346252
107	0x39a09da3	0.00030635027
108	0xbb5a21ff	-0.0033284423
109	0xbc00c0b5	-0.007858445
110	0xbbb67705	-0.0055683875
111	0x3cc71b15	0.024304906
112	0x3c9108d8	0.017704412
113	0xbb809d1d	-0.0039249794
114	0xbc1fa292	-0.00974335
115	0x3cfcd854	0.030864872
116	0xbb97120c	-0.0046103057
117	0x3bfff274	0.007810885
118	0xb891f499	-6.959699e-05
119	0xbabdf857	-0.0014493567
120	0xbbdac62a	-0.006676455
121	0x3c4b5037	0.012409261
122	0x3c7be6b6	0.01537483
123	0x3c5ffeb5	0.013671567
124	0xbc65879d	-0.0140093835
125	0xba74c84d	-0.00093377085
126	0xbc0ff060	-0.008785337
127	0x3b3c5f1a	0.0028743208

network_body.linear_encoder.seq_layers.0.weight f4 [128, 30]
0	0x3ebdff86	0.3710901
1	0xbd9e4399	-0.07727737
2	0x3e943e48	0.28953767
3	0xbd80f10e	-0.062959775
4	0x3c67c204	0.014145378
5	0x3be2e7e8	0.006924618
6	0xbebcc874	-0.36871684
7	0xbd99954d	-0.0749918
8	0x3e0ac26c	0.13550729
9	0x3d1146be	0.035467856
10	0x3e9b8ff0	0.30383253
11	0x3ea83fb2	0.32861096
12	0xbe3a3c06	-0.1818696
13	0xbd8d05c1	-0.06885863
14	0xbe571c6a	-0.21006933
15	0xbe9c59d2	-0.30537277
16	0xbd64bb5a	-0.055842735
17	0x3e48b5c4	0.19600588
18	0x3d8d4e69	0.06899721
19	0xbe9999f2	-0.30000263
20	0x3d821102	0.063509
21	0x3c65ea07	0.014032847
22	0xbe3c229c	-0.18372577
23	0x3e560ca3	0.20903258
24	0x3d650922	0.055916913
25	0xbe13f185	-0.14447601
26	0x3e846f4f	0.25866172
27	0xbd92da19	-0.07170505
28	0x3df70a8c	0.120625585
29	0x3d76fe6a	0.060301222
30	0x3e89e0c2	0.2692929
31	0xbd5a3d3f	-0.053281065
32	0x3dfa81e1	0.12231804
33	0x3e1b1802	0.15145877
34	0x3d9640b4	0.0733656
35	0xbee7fff5	-0.45312467
36	0xbe80d8c6	-0.25165385
37	0xbeadf198	-0.33973384
38	0x3dba4807	0.090957694
39	0x3d4d445b	0.050114017
40	0xbccbec6e	-0.024893012
41	0x3d0ea8ec	0.034829065
42	0x3e35b6e3	0.17745547
43	0x3e8d6214	0.2761389
44	0x3cd816a6	0.026377987
45	0xbd012694	-0.03153093
46	0xbdfdedae	-0.123988494
47	0xbe680fab	-0.22662227
48	0xbe022fe1	-0.12713577
49	0xbe2a4f81	-0.16631891
50	0x3d43158c	0.04762797
51	0x3e06726d	0.13129587
52	0x3e21569c	0.15755695
53	0xbe1fab34	-0.15592653
54	0x3e2d2fe5	0.16912802
55	0xbce1eb58	-0.027578041
56	0x3c5333e6	0.0128907915
57	0xbcabe954	-0.020985283
58	0xbde0e00f	-0.10980236
59	0xbe37f6be	-0.17965218
60	0x3e33b79d	0.17550512
61	0xbd97ff36	-0.074217245
62	0x3dc61117	0.096712284
63	0xbe009518	-0.12556875
64	0x3b1c9f00	0.0023898482
65	0xbc9c7733	-0.019099807
66	0x3b6e8ef1	0.0036401118
67	0xbeb14dd5	-0.34629694
68	0xbec0efdb	-0.37682995
69	0xbd1a14f8	-0.037617654
70	0x3d3e4920	0.046456456
71	0xbe526863	-0.20547633
72	0x3e9f3660	0.31096172
73	0x3dec2c51	0.1153189
74	0x3cabefd2	0.020988379
75	0x3e54df21	0.20788242
76	0x3d80659a	0.06269379
77	0x3d9aa68c	0.075512975
78	0x3e553feb	0.20825164
79	0xbe0a037a	-0.13477889
80	0xbd53f306	-0.051745437
81	0x3e188dec	0.14897889
82	0xbd689a58	-0.05678782
83	0xbe7a2dbd	-0.2443151
84	0x3d871d62	0.06597401
85	0xbd810a6d	-0.06300817
86	0xbdbddfb6	-0.09271185
87	0xbdce9c79	-0.100884385
88	0xbd0f2d6d	-0.03495543
89	0x3de3d7a0	0.111251116
90	0x3d2be933	0.041970443
91	0x3b883765	0.004156994
92	0x3e5f4aec	0.21805924
93	0x3dc299fa	0.09502025
94	0x3e22dfd6	0.15905699
95	0x3d85fde7	0.06542569
96	0x3c7a87df	0.015291183
97	0x3d0a23db	0.0337256
98	0x3e852544	0.26004994
99	0x3e2f7c8d	0.17137356
100	0xbe5d1e71	-0.21593644
101	0x3dd0a041	0.10186816
102	0xbc42b991	-0.011885063
103	0xbd36dae3	-0.04464234
104	0xbe9d464b	-0.30717692
105	0xbd4cf2b6	-0.050036155
106	0xbe184984	-0.14871794
107	0xbdc0e3e2	-0.09418465
108	0x3d08186b	0.03322641
109	0x3c2ad026	0.010425603
110	0xbd77b59e	-0.060475938
111	0x3e5bd9de	0.21469828
112	0x3da18328	0.07886344
113	0x3d256450	0.04037887
114	0xbd878510	-0.066171765
115	0xbd04aacb	-0.032389443
116	0xbeab0233	-0.33400115
117	0x3c2cab82	0.0105389375
118	0xbcec5f81	-0.028854134
119	0xbe0c2955	-0.13687642
120	0x3ebc0c56	0.36728162
121	0xbde12e27	-0.10995131
122	0x3e506cf6	0.20354065
123	0xbe75fb88	-0.24021733
124	0x3eb78b49	0.35848454
125	0x3e15daa5	0.14634188
126	0xbd26176a	-0.040549673
127	0xbd93fc4a	-0.07225855
128	0xbe85b91d	-0.26117793
129	0x3e38589b	0.1800255
130	0x3e2ac556	0.1667684
131	0x3c89c148	0.016815796
132	0x3dcf2814	0.10115066
133	0x3e80a632	0.25126797
134	0xbde653bd	-0.112464406
135	0x3ca9bfb5	0.020721296
136	0xbd85a8d7	-0.06526344
137	0x3e162531	0.14662625
138	0x3e1c63d5	0.15272458
139	0xbd820a40	-0.06349611
140	0xbe519e57	-0.20470558
141	0xbecd383f	-0.40081975
142	0x3e87cab2	0.26521832
143	0xbda857ea	-0.08219893
144	0xbdafb8ff	-0.08580207
145	0x3e80ab10	0.2513051
146	0xbdcc32d2	-0.09970631
147	0x3d541169	0.051774416
148	0x3da4cf1f	0.08047318
149	0x3e91febd	0.28514662
150	0xbe0b6510	-0.13612771
151	0x3d4e6db9	0.05039761
152	0xbd1be298	-0.038057894
153	0x3cbaec31	0.022817703
154	0xbd92cbf0	-0.07167804
155	0x3dfcb675	0.123394884
156	0xbdb79f89	-0.08965976
157	0xbd884f86	-0.06655793
158	0xbe7df928	-0.24802077
159	0xbe53d40c	-0.20686358
160	0xbde731a6	-0.112887666
161	0x3f105904	0.5638583
162	0xbea640e2	-0.32471377
163	0x3e35a7d5	0.17739804
164	0xbe53c321	-0.20679905
165	0xbd9914f6	-0.07474701
166	0x3d9f7bd2	0.07787289
167	0xbe519777	-0.20467936
168	0x3d57c4fe	0.0526781
169	0x3b47e83a	0.0030503408
170	0xbd2733ff	-0.04082107
171	0x3e468083	0.19384961
172	0x3d1b0671	0.03784794
173	0xbdbfce6c	-0.09365544
174	0x3ec81dc2	0.39085203
175	0x3cf4a062	0.029861633
176	0xbcdecee6	-0.027198266
177	0xbe55ca2c	-0.20877904
178	0xbc302fe3	-0.010753605
179	0x3e03fa08	0.12888348
180	0xbe63298b	-0.22183816
181	0xbd327135	-0.043564994
182	0xbddc4b01	-0.10756493
183	0xbe30e378	-0.17274272
184	0x3d88e96e	0.06685148
185	0xbe23ae9a	-0.15984574
186	0x3e438480	0.19093513
187	0xbd3f94aa	-0.046772636
188	0x3e8a721a	0.27040178
189	0xbdb869c0	-0.09004545
190	0x3e30e008	0.17272961
191	0x3d510649	0.051031385
192	0xbcdaacf2	-0.026693795
193	0x3d9a0b78	0.07521719
194	0x3ca72b34	0.020406343
195	0x3cac289c	0.021015458
196	0x3e9df2c6	0.30849284
197	0xbe1c450f	-0.15260719
198	0xbd80dbad	-0.062919
199	0xbd6942cf	-0.05694848
200	0x3e5ad2db	0.21369497
201	0x3c9284f0	0.017885655
202	0xbea38bff	-0.31942746
203	0x3b9b6df1	0.0047433306
204	0x3e7bec84	0.24601942
205	0x3e076a4d	0.13224144
206	0xbd1e27e4	-0.03861226
207	0x3e1aa857	0.15103279
208	0x3e1c6ade	0.15275142
209	0xbca6320f	-0.020287542
210	0x3e548dba	0.2075719
211	0xbd0a6da8	-0.033795983
212	0x3e9abe84	0.30223477
213	0x3e0157c3	0.12631135
214	0xbb44dbf1	-0.0030038322
215	0xbd1f0c26	-0.038829945
216	0xbe4dc9ac	-0.20096463
217	0xbdaa1c08	-0.08306128
218	0xbe6b0d87	-0.22954379
219	0xbe5105ff	-0.20412444
220	0xbbf955de	-0.007609113
221	0x3e30f57d	0.17281146
222	0x3cceb4f3	0.025232768
223	0xbd3b5d63	-0.045743357
224	0xbf295852	-0.6615039
225	0xbd98f9e3	-0.07469537
226	0x3df093ca	0.117469385
227	0xbd7e0256	-0.062013946
228	0x3d4b0289	0.049562965
229	0x3de5551f	0.11197876
230	0xbd130583	-0.03589393
231	0xbe38b6d4	-0.18038493
232	0xbd892bbb	-0.06697794
233	0x3ed14430	0.40872335
234	0x3e521a6f	0.20517896
235	0xbae3f11f	-0.0017390585
236	0xbddd2f14	-0.10799995
237	0xbd13e0e4	-0.036103144
238	0xbe545581	-0.20735742
239	0xbd210ba2	-0.039317735
240	0xbe2d6635	-0.1693352
241	0x3cf8ffff	0.030395506
242	0x3d60211d	0.05471908
243	0x3ddacf6d	0.106840946
244	0xbc51ed5f	-0.012812941
245	0x3d3e4529	0.046452675
246	0x3e08216b	0.13293998
247	0x3dfd02db	0.1235406
248	0xbd2c552f	-0.042073425
249	0xbe9d660e	-0.30741924
250	0xbc4e718f	-0.012600317
251	0xbe0b4580	-0.13600731
252	0x3e5cd871	0.21566941
253	0x3e31a544	0.173482
254	0x3d3c9aba	0.046045996
255	0x3c5678d4	0.013090331

network_body.linear_encoder.seq_layers.2.bias f4 [128]
0	0xb9853926	-0.00025410316
1	0x3c1467d4	0.009057958
2	0xbc314755	-0.01082023
3	0x3ba406d7	0.005005698
4	0xbbda914c	-0.006670153
5	0xbc4c949b	-0.012486602
6	0xbb5933f7	-0.0033142546
7	0xbbe2f630	-0.0069263205
8	0x3bc187e4	0.005906092
9	0xbbdc7f4c	-0.006729042
10	0xbcd9020c	-0.026490234
11	0xba559f4d	-0.0008149043
12	0x3ba44ad9	0.0050138053
13	0xbc0ff5a6	-0.0087865945
14	0x3c3622da	0.011116708
15	0x3b0444d1	0.002018262
16	0xbaad555e	-0.0013224294
17	0x3cd16be4	0.025564142
18	0xbb852edf	-0.0040644254
19	0xbb4bdb42	-0.003110603
20	0x3c829004	0.015937813
21	0x3c14fdc3	0.009093705
22	0x3c85a3f9	0.01631354
23	0xbc7939b1	-0.015211509
24	0x3a2014d9	0.0006106622
25	0xbbfa1366	-0.007631707
26	0x3a799326	0.0009520523
27	0xbb8d040c	-0.004303461
28	0x3b82ad23	0.0039879247
29	0x3c7078aa	0.014677206
30	0x3ac0a6ac	0.001469811
31	0x3b0383e2	0.0020067622
32	0x3c25ae8e	0.010112418
33	0x3c3e6b07	0.011622197
34	0xbca180d9	-0.01971476
35	0xbaa7f50e	-0.0012814121
36	0xbb14a06b	-0.0022678624
37	0x3a0c2023	0.0005345365
38	0x3b8dfca4	0.0043330956
39	0x3c3d164c	0.0115409605
40	0x3bac3ca2	0.0052562514
41	0xbaf8e2c6	-0.0018988482
42	0xbc8ec47c	-0.017427675
43	0x3c0dcd1b	0.008654858
44	0x3c0834a6	0.008313334
45	0x3a095c3b	0.00052398787
46	0xbce5531a	-0.027993727
47	0x3c1362f2	0.008995758
48	0x3a88b8be	0.0010431034
49	0xbbf7eec0	-0.007566303
50	0x3bf9284e	0.0076036816
51	0x3c18197c	0.00928342
52	0xbb518a02	-0.0031973128
53	0xbc2bab80	-0.0104779005
54	0x3b8c67ad	0.00428482
55	0x3b996272	0.004680925
56	0xb953dd2c	-0.00020204921
57	0xbb59ecd0	-0.0033252724
58	0x3c0b9595	0.00851955
59	0xbc3b4bae	-0.011431618
60	0x3ad616dc	0.0016333717
61	0xbc406468	-0.011742689
62	0x3d0da178	0.034577817
63	0x3b28c2dd	0.0025750913
64	0xbc5bf740	-0.013425648
65	0xbc2081d8	-0.009796582
66	0x3a0a2f92	0.0005271371
67	0x3bac0daf	0.0052506546
68	0xbc5defda	-0.013545955
69	0x3d00d379	0.031451676
70	0x3b218f95	0.0024652232
71	0xbaa92c14	-0.0012906813
72	0xbbee2d16	-0.0072685583
73	0x3b5078b3	0.0031810224
74	0x3d18eaeb	0.03733341
75	0xb9e537d1	-0.0004371987
76	0x3c692655	0.0142303305
77	0xbaebdd52	-0.0017995036
78	0x3c1dc912	0.009630458
79	0xbb9dbd8d	-0.004813856
80	0xbb5c7e35	-0.0033644561
81	0x3c7ceaa0	0.015436798
82	0xbbe6b133	-0.0070401668
83	0xbc26c35e	-0.010178415
84	0x3cb6b080	0.022300959
85	0xbc0207e2	-0.00793645
86	0x3b55e042	0.0032634889
87	0x3cb056c5	0.02152575
88	0x39a77430	0.0003193929
89	0x3bdd0097	0.006744455
90	0xbc25442a	-0.010087052
91	0x3cae3858	0.021267101
92	0xbc52b854	-0.01286133
93	0x3c1b7708	0.0094888285
94	0x3b320332	0.002716255
95	0xbb667508	-0.003516497
96	0x3c16fd13	0.009215611
97	0xbc70cfc4	-0.014697973
98	0xbb9ca80e	-0.004780776
99	0x3c12e7ec	0.008966427
100	0xbc3499c5	-0.01102299
101	0x3c757e80	0.014983773
102	0x3c1d8896	0.009615084
103	0x3ae27840	0.0017278269
104	0x3d02f860	0.03197515
105	0x3b529d1e	0.0032137106
106	0xbc509d3a	-0.012732798
107	0x3b0ec670	0.0021785758
108	0x3c208f6e	0.009799821
109	0x3cc97619	0.024592446
110	0xbc1d6a97	-0.0096079325
111	0xbbcd0b7d	-0.006257473
112	0xbc4e1b16	-0.0125797
113	0xbc238cdb	-0.009982313
114	0x3c1b05fe	0.009461878
115	0xbc7149b2	-0.014727043
116	0x3875644b	5.8505957e-05
117	0x3b67ed3b	0.0035389203
118	0xbc6e373b	-0.014539535
119	0x3ca23b0c	0.019803546
120	0xbb299ad6	-0.0025879643
121	0xbc057f26	-0.00814799
122	0x3c836184	0.01603771
123	0xbb761947	-0.0037551688
124	0xbb929576	-0.0044733835
125	0xbb6769bf	-0.0035310832
126	0x3a72a33d	0.0009255892
127	0x3b5106ad	0.0031894848

network_body.linear_encoder.seq_layers.2.weight f4 [128, 128]
0	0x3d2accb1	0.041699115
1	0xbd286d20	-0.041119695
2	0xbd8b6756	-0.06806819
3	0xbd82f4de	-0.06394361
4	0x3d2b8850	0.041878045
5	0xbd4751b0	-0.048661888
6	0x3df028e5	0.1172655
7	0xbd77628b	-0.060396712
8	0x3c7367c3	0.014856282
9	0x3ddb26e8	0.1070078
10	0xbdce5df2	-0.100765124
11	0xbc98f4ae	-0.01867136
12	0xbd418256	-0.04724344
13	0x3dccabc8	0.09993702
14	0x3baac090	0.0052109435
15	0x3c6e60dd	0.014549461
16	0xbdad4cd2	-0.08461918
17	0xbdcb0a79	-0.09914107
18	0xbdebff2a	-0.11523278
19	0x3db78b0f	0.0896207
20	0xbd411827	-0.047142174
21	0x3e448277	0.19190393
22	0x3c611075	0.013736834
23	0xbd1d810b	-0.038453143
24	0x3ca41098	0.020027444
25	0xbded5a8d	-0.11589537
26	0x3de32f49	0.11093003
27	0xbd4545e8	-0.04816237
28	0xbd0f0696	-0.03491839
29	0xbdfec09e	-0.124390826
30	0xbcdeff21	-0.027221264
31	0x3c9f17ab	0.019420465
32	0x3cdf5292	0.027261052
33	0x3d5e9221	0.054338578
34	0xbccd9e4b	-0.025099894
35	0xbd1d3b8a	-0.03838686
36	0xbc146410	-0.00905706
37	0xbd9a2e1e	-0.075283274
38	0xbc1ed589	-0.009694465
39	0xbda12be6	-0.07869701
40	0xbcaa19d7	-0.020764275
41	0xbc533ea0	-0.012893349
42	0xbde9736d	-0.11398969
43	0x3ddc910c	0.10769853
44	0xbcca3199	-0.024681853
45	0xbd47981f	-0.04872906
46	0x3d61a251	0.055086438
47	0x3cef6bb0	0.029226154
48	0xbdc96a66	-0.09834747
49	0xbe18aa14	-0.1490863
50	0x3de42447	0.11139732
51	0xbbf329c1	-0.007420749
52	0xbc22ab6a	-0.009928564
53	0x3c97f388	0.018548742
54	0xbc3488c7	-0.011018938
55	0x3d2bbcab	0.041927975
56	0x3d2be4a9	0.041966114
57	0x3db54f7b	0.0885305
58	0x3e3ed46a	0.18635717
59	0xbe468164	-0.19385296
60	0xbdd03e36	-0.10168116
61	0x3dc1faf9	0.09471697
62	0x3e3ef39b	0.18647616
63	0x3d9da5f4	0.07697669
64	0x3d191910	0.037377417
65	0xbc8fc911	-0.01755193
66	0xbca4b51c	-0.02010589
67	0x3d8a3f07	0.06750303
68	0xbdd20478	-0.102547586
69	0x3d425975	0.047448594
70	0xbc699d00	-0.014258623
71	0x3b8b0fc6	0.0042438237
72	0xbdb59d56	-0.088679
73	0xbddf5584	-0.10904983
74	0x3d8d2d2d	0.06893382
75	0x3d97dc38	0.0741505
76	0x3d75d691	0.06001908
77	0xbd2707f3	-0.040779065
78	0x3c25575f	0.010091632
79	0xbde87821	-0.11351038
80	0x3d8e0592	0.06934656
81	0xbdf50e7f	-0.119656555
82	0xbd8920e7	-0.06695729
83	0x3d91f265	0.07126311
84	0xbd35b380	-0.044360638
85	0xbe0391e7	-0.12848626
86	0x3d2bacf5	0.04191299
87	0x3e1bf58d	0.15230389
88	0x3d531a7a	0.051538922
89	0x3dc78e33	0.09743919
90	0xbdae7dcc	-0.085200876
91	0x3e4eb998	0.20187986
92	0x3e0739b2	0.13205603
93	0xbd8c7fbd	-0.06860302
94	0x3e6c6412	0.23085049
95	0xbd31ed23	-0.04343904
96	0xbb3f6864	-0.0029206509
97	0xbc371881	-0.011175276
98	0x3d444fb0	0.04792756
99	0x3da4ccd8	0.08046883
100	0xbdd634cf	-0.10459291
101	0xbdcc259f	-0.09968113
102	0x3cc519ab	0.024060091
103	0x3d117bc7	0.035518434
104	0xbdfb2c7f	-0.12264346
105	0xbd80965c	-0.06278679
106	0xbda849e1	-0.08217216
107	0xbd7b1838	-0.061302394
108	0xbd4b947c	-0.049702153
109	0x3dddcfb5	0.108306326
110	0x3d42bdbb	0.047544222
111	0xbdc904c1	-0.0981536
112	0xbcfc7f5c	-0.030822448
113	0x3d568fda	0.05238328
114	0x3c19b417	0.009381316
115	0x3d119b72	0.035548635
116	0xbd3d244b	-0.04617719
117	0x3d0fad58	0.035077423
118	0x3de095c1	0.10966063
119	0x3d9688b8	0.07350296
120	0x3e13b0eb	0.14422958
121	0x3cccec9a	0.025015164
122	0x3d4489b0	0.04798287
123	0xbe4292f5	-0.19001372
124	0xbcbe33ba	-0.023218025
125	0x3c451b83	0.012030485
126	0x3e478628	0.1948477
127	0x3c1ef032	0.009700822
128	0x3c84f46f	0.016229836
129	0x3cb0f1cd	0.021599675
130	0xbdc8b49b	-0.09800073
131	0xbd35f325	-0.044421334
132	0x3dbe143d	0.09281204
133	0x3c53cd97	0.012927434
134	0x3d54b234	0.05192776
135	0xbc98fa0e	-0.018673923
136	0x3c74ba95	0.014937063
137	0x3ba51675	0.0050380775
138	0xbd0e8cb1	-0.034802143
139	0x3d1cf64b	0.03832082
140	0xbddf5037	-0.10903972
141	0xbd4e40c5	-0.050354738
142	0x3d2384a2	0.03992141
143	0x3d67f0b3	0.056626033
144	0x3e06a785	0.13149841
145	0xbd8f79ae	-0.070056304
146	0x3d43f634	0.04784222
147	0xbcd03d51	-0.025419863
148	0xbd97829e	-0.0739796
149	0x3e1c0bd7	0.15238892
150	0x3b5b90ef	0.0033503135
151	0xbc666d94	-0.014064211
152	0x3dec6cd0	0.11544192
153	0x3d6773ec	0.056507036
154	0x3d162c41	0.036663298
155	0xbca44b6d	-0.020055497
156	0xbc837330	-0.016046137
157	0xbc17ea08	-0.009272106
158	0xbd772eb3	-0.06034727
159	0x3dbe34e6	0.09287433
160	0x3d4a661f	0.049413797
161	0x3ccc93fb	0.024972906
162	0x3dc22235	0.09479181
163	0x3d818ccc	0.06325683
164	0xbd5b648e	-0.053562693
165	0xbd6ebd5f	-0.058286067
166	0x3c3d5121	0.011554987
167	0x3cb5e639	0.022204505
168	0x3d33bf9a	0.043883897
169	0xbdc54a90	-0.09633362
170	0xbd2007b6	-0.039069854
171	0x3d3756b8	0.044760436
172	0x3c880f3e	0.01660883
173	0x3c738742	0.014863791
174	0x3d81ef16	0.0634443
175	0xbbdd496e	-0.0067531383
176	0xbdda15d6	-0.10648696
177	0x3ce2b9ee	0.027676549
178	0xbe0abe13	-0.1354907
179	0xbe20dd15	-0.15709336
180	0x3d5be736	0.053687297
181	0x3d8d3826	0.06895475
182	0xbcb406d3	-0.02197591
183	0xbe08333f	-0.13300799
184	0xbdcff191	-0.10153497
185	0x3d9212d1	0.07132495
186	0xbe2f328e	-0.17109129
187	0x3d48b4f3	0.04900069
188	0x3d08c2ab	0.033388775
189	0x3dbfd471	0.09366692
190	0x3e2fd4a2	0.17170957
191	0xbdd8a7c0	-0.10578871
192	0x3c4ba449	0.012429305
193	0x3dcb3185	0.099215545
194	0x3d40cf58	0.04707274
195	0xbc88825f	-0.016663728
196	0xbdc05f8d	-0.09393225
197	0x3d599a3a	0.053125598
198	0xbc9cedb1	-0.019156309
199	0xbe5f5109	-0.21808256
200	0xbbb782d9	-0.005600315
201	0xbd344a6a	-0.04401628
202	0xbe0d9a51	-0.13828398
203	0x3c073954	0.008253414
204	0xbcaf55b4	-0.021403171
205	0x3cedd9a2	0.02903444
206	0x39cb9886	0.00038832816
207	0x3e4042ea	0.18775526
208	0xbc8a6b5b	-0.016896894
209	0xbd838a8f	-0.06422912
210	0x3e8b337e	0.27187723
211	0xbc7b8a27	-0.015352762
212	0xbd090737	-0.033454146
213	0xbda3c771	-0.07997025
214	0xbab286ed	-0.0013620533
215	0x3c9bf673	0.019038415
216	0xbdce4ac1	-0.10072852
217	0x3d92178e	0.07133399
218	0x3bd3f44a	0.0064683305
219	0xbdae50e4	-0.085115224
220	0x3c071fd5	0.008247335
221	0xbdf53cd6	-0.11974494
222	0xbe371bda	-0.17881718
223	0xbdaa785e	-0.083237395
224	0xbd074039	-0.033020232
225	0xbe429772	-0.19003084
226	0xbd9ea9b8	-0.07747215
227	0x3de396c8	0.111127436
228	0x3dff6dc4	0.12472108
229	0xbd578c08	-0.05262378
230	0x3d3d8586	0.046269916
231	0xbe007256	-0.12543616
232	0xbda1ca62	-0.078999296
233	0x3dcb3a9e	0.0992329
234	0x3d8563a2	0.06513144
235	0x3d6c90eb	0.057755392
236	0x3c469a8e	0.01212181
237	0x3d8d6cf7	0.06905549
238	0xbd6bc0bb	-0.05755685
239	0x3d7edb75	0.06222101
240	0x3d0e4318	0.034731954
241	0x3e0121ad	0.12610503
242	0xbd01dbe3	-0.03170384
243	0x3d888532	0.0666603
244	0x3e5061a2	0.20349744
245	0xbd5cf55f	-0.05394494
246	0xbdb4c9a4	-0.088275224
247	0x3e65366f	0.22384046
248	0x3d3caa43	0.04606081
249	0xbd43be56	-0.04778894
250	0x3ca225a1	0.019793333
251	0x3cfc5c45	0.030805716
252	0x3db5774f	0.08860647
253	0xbde2d534	-0.110758215
254	0xbdc90718	-0.09815806
255	0x3d1a5ac7	0.03768423
