results/ppo/Car Agent/Car Agent-90112.pt (torch, 453647 bytes, 42 tensors)

network_body.linear_encoder.seq_layers.0.weight f4 [128, 9]
00000000: 05fe 58be b8c8 95be e447 b3bd ae5a c2bd
00000010: 1056 96bd 396e 08bf 4dc3 313e 8e1e acbe
00000020: c5d7 623e 439d aebd 6a4f b5be 63c9 63bd
00000030: 5baa c9bd 4be9 9c3e 7d1c ca3d f2ba 0fbe
00000040: ec56 033e d2e7 27be a27c 113c 537c bebe
00000050: fe31 773e 51ae 82be 247c 87be a54a ef3d
00000060: 24f1 703e d4b1 2c3d 82bd d2bd 3a98 173e
00000070: b9e6 343e f8bd 38bd 914b d03d d34a 883d
00000080: ab70 9dbe 2ab4 1fbf 37e6 003e da3c 04be
00000090: 4abd 58bd 03a5 4a3d 74db 2e3e 9173 56be
000000a0: 0ba4 aabe e04b 56be e1c0 29bf 2c5e c73d
000000b0: ae9c 9cbe 74a7 71be 8255 c03e 83f8 463e
000000c0: 76fd 1b3e 3f9f 95be 8743 3f3e ef84 0e3e
000000d0: fb91 c93e 7c34 2fbd 0618 ac3d df0f 87be
000000e0: 3561 733e 7b5d a5bc 2168 55be 5f38 dabe
000000f0: ac56 4dbe 9ec6 053e eeba 71be 6900 963e
00000100: b333 053f 17fe 563e 54de ddbb d4aa 98be
00000110: 9d05 75bd cd9e 39bd 5eda 7f3f a553 9bbe
00000120: 65a0 b83e f708 a83d 1a2e e6be 604f 73be
00000130: 5a55 11bf 93b7 2e3e ef2c d13d c249 dcbd
00000140: e0e5 3dbd 2229 41be f1d5 28be 0791 003d
00000150: 1be1 513e c75a 88bd 24bc c03e 0293 dcbe
00000160: f587 fcbc 5a70 27bf 0f25 36be 5fcf 60be
00000170: fc90 cc3e 054e eebd 4796 0e3e 6f0e 153d
00000180: 48f4 3abb 295f 7ebd 6be5 a2bd e198 ab3d
00000190: 7400 603f 3b94 b0bd 1acd 35be fce6 023e
000001a0: cee3 003f f586 84bc 5b87 07bf 7648 0cbf
000001b0: a350 87be ca1e bfbe aca2 b5bd b0f7 c43e
000001c0: 4c08 573e b028 5dbe 40a3 bebe 6a68 9d3e
000001d0: 0316 1abf a8ce e33d e954 563d 0562 e4be
000001e0: b52c 7dbe 7b2d 273d fadb 8ebe 53e9 213e
000001f0: 417b 78be 3bff 27be bd75 99be 82d7 a33e
00000200: 4e76 09bf 0b22 463e ba03 e73e fdc4 0ebe
00000210: 3145 c2be 25b8 b63e d661 c0bd 396a 4e3d
00000220: 5929 e7be 603d 093e 8fa7 0f3c 7f86 453f
00000230: 1d11 bf3e 7c55 fd3e 7602 2a3f fb04 d53e
00000240: 3dae 2e3e 4728 0f3d 1b1a 8e3e eb55 4fbd
00000250: a301 9bbe 2e65 83be 24b3 b53e 3ecd 45bf
00000260: 05c3 88be b39e 16be db56 0fbf 53b5 aa3e
00000270: 2196 c2be 8773 15be 1be1 35be c107 54be
00000280: 19a8 54be cfd2 0d3f 5cf5 c4be c177 373e
00000290: 9dc8 13bf 0824 dd3e 8ecd 3a3e 895a 7fbd
000002a0: a0a7 773d bdef 5f3d 607b 8a3c f228 a2be
000002b0: e189 0bbf 3287 063f 57be bf3e 0c4c 133f
000002c0: 8b19 fa3e 4965 43bf f755 693e c435 b8be
000002d0: 16ad a93d d16a 83bd be7a 863c 24b6 d8be
000002e0: 4cd3 21bf b38d 61bd a564 1b3d b49d 5e3d
000002f0: 18fe 273e 26bd 9cbd 7436 fe3e 61f5 9bbd
00000300: cbf4 03be 5227 f83e 7e61 6e3e 211e 98bd
00000310: 7e75 0c3e 3ddc 0fbf 3269 8b3e 8516 833e
00000320: 8197 3a3e 6dfd 80be 5810 cdbe 12fb f93e
00000330: 50cf 26bf d5e3 d0bd 1ee3 f6bc f948 a5be
00000340: 3971 793e 461c 233e 07c5 493f 2f36 803f
00000350: faa9 e73b 189d bc3c 8086 89bd 77cc eebe
00000360: b2eb 1e3f 22ba 53be 6e6d 5a3e f18e 003e
00000370: f006 c4be 29e0 f8bd 4f40 a6be 027f 083e
00000380: 639a 0bbe 69c9 ce3e 987e 2d3e 32de d43e
00000390: 6c31 0f3d 1fd6 f6be dc2c d83c 3c99 46be
000003a0: 75d6 19bf e52e 6e3e b5f0 cfbe 47c8 e83e
000003b0: 6d8f b8be 4652 8ebd a74e 02be a439 673e
000003c0: 5ccd 093e 1681 9c3e 2b98 073f dd63 81bd
000003d0: 20d0 ac3e 4c62 49be 0a60 b53d acae 0cbe
000003e0: 113a e53d 6688 eebe f67a c93e 44c5 073f
000003f0: 6d3a b83e f902 53bf fae1 993d e357 55be
-0.21190651 -0.292547 -0.087539464 -0.09489952 -0.07340634 -0.53293186 0.17359658 -0.3361706
0.22152622 -0.08526089 -0.3541215 -0.05561198 -0.09846946 0.30646738 0.09868715 -0.14036158
0.12826127 -0.16397026 0.008879812 -0.37204227 0.24140164 -0.25523618 -0.264619 0.11684159
0.23529488 0.042161778 -0.10290052 0.14804164 0.17666139 -0.045103043 0.10170663 0.066548966
-0.3075002 -0.62384284 0.1258782 -0.12913838 -0.052914895 0.049473774 0.17075902 -0.20942523
-0.3332828 -0.20927382 -0.66309935 0.09734759 -0.30588287 -0.23599035 0.37565237 0.19430737
0.15233406 -0.29223058 0.18678103 0.13917898 0.39369187 -0.042774662 0.084030196 -0.26379296
0.2376755 -0.020186177 -0.20840503 -0.42621133 -0.20052594 0.13064048 -0.23606464 0.29297188
0.5203201 0.20995365 -0.0067708883 -0.29817832 -0.059819806 -0.04531746 0.99942577 -0.30337253
0.3605987 0.08204835 -0.44957048 -0.23760748 -0.5677086 0.17062216 0.102136485 -0.10756256
-0.046361804 -0.18863347 -0.16487862 0.03138831 0.20496027 -0.066579394 0.3764354 -0.43080908
-0.030826548 -0.6540581 -0.17787574 -0.21954106 0.39954364 -0.11635975 0.13924514 0.036390718
-0.002852695 -0.06210247 -0.07953914 0.08378769 0.8750069 -0.08622023 -0.17754021 0.12783426
0.503476 -0.016177634 -0.5294091 -0.54798067 -0.26428708 -0.37328178 -0.08868918 0.3847022
0.20999259 -0.21597552 -0.37233925 0.30743724 -0.6018984 0.11123401 0.05232707 -0.44606033
-0.24724086 0.040814858 -0.27902204 0.15811662 -0.24265768 -0.16405956 -0.2997264 0.32000357
-0.53696144 0.19348924 0.4512003 -0.13942333 -0.37943414 0.35687366 -0.09393661 0.05039427
-0.45148733 0.13402319 0.008767976 0.7715835 0.37317744 0.49479282 0.66410005 0.41605362
0.17058654 0.03495052 0.27754292 -0.050619047 -0.30274686 -0.2566313 0.35488236 -0.772663
-0.26711288 -0.14708976 -0.55991906 0.33341464 -0.38005164 -0.14594851 -0.17761652 -0.20706083
-0.20767249 0.55399793 -0.38468444 0.17916776 -0.57727987 0.43191552 0.18242475 -0.0623422
0.060462594 0.05467199 0.016904533 -0.31671864 -0.5450726 0.5255004 0.37449905 0.57537913
0.48847613 -0.76326424 0.22786699 -0.3597852 0.08284967 -0.06416858 0.01641595 -0.42326462
-0.6321304 -0.055066776 0.03793778 0.054349616 0.16405523 -0.07653265 0.4965092 -0.07615162
-0.1288635 0.484675 0.23279378 -0.07427622 0.13716695 -0.5619543 0.27228695 0.2560312
0.18221857 -0.2519335 -0.40051532 0.48824364 -0.65160084 -0.101997055 -0.030137595 -0.32282236
0.24359597 0.15928754 0.78816265 1.0016536 0.0070698233 0.023024127 -0.06715107 -0.4664037
0.6207839 -0.20676473 0.21330807 0.12554528 -0.38286543 -0.1215213 -0.3247094 0.133297
-0.13633113 0.4038804 0.16942823 0.41575772 0.03495924 -0.48210236 0.026388578 -0.19394392
-0.6009286 0.23260076 -0.40613332 0.454653 -0.36046925 -0.06949286 -0.12725316 0.22580582
0.13457245 0.30567235 0.52966565 -0.063178755 0.33752537 -0.19666404 0.088562086 -0.13738507
0.11192716 -0.4658844 0.39351624 0.5303538 0.35982075 -0.8242641 0.07513805 -0.20834307

network_body.linear_encoder.seq_layers.0.bias f4 [128]
00000000: 55e6 88bb e423 1a3b e9c7 a7bb 7845 78bb
00000010: e6b4 34ba a15f 223a 5f76 a1ba e174 0c3a
00000020: d9c9 c7b9 9309 d339 468c ccbb f911 373b
00000030: 81a3 afbb 844c f2ba e08a a3ba d789 3c3a
00000040: cac7 3cbb b2a3 a2bb fa3c 9abb e26c 89bb
00000050: ae37 d23a b440 14ba 0efc 61bc 1fa7 aaba
00000060: 6f49 fbbb 322b 01bb 05d2 1a3c 6d5b e3ba
00000070: 99ee 4bbb b3fe 863b c7a2 7c39 c297 17bc
00000080: 5bf6 133c da0a 413c 41dd 92bb 6925 d43a
00000090: 0ae9 7b3b ec27 11bc 4397 e4bb a96d faba
000000a0: f513 88ba c40b 1abc c2c6 22bb ee39 a83b
000000b0: 279c 46bc ed00 c2bb 1f25 8ebb c890 a6bb
000000c0: c7c9 71ba bc5b 9bbb eea1 d83b c9f1 08bb
000000d0: 0bb2 d3bb e03f 90bb 5dc6 953b 8e99 abbb
000000e0: d38c 55ba 29c9 f1ba b758 84bb e9cd 933a
000000f0: fa3d 7f3b 1921 c23b 1899 013b 1615 20ba
00000100: 69f6 89bb 2711 aebb 4098 acbc 5a09 5c3b
00000110: 205b 82ba 6e74 e03a 7977 613a 57e4 00bb
00000120: 2593 b6bb 504e 9dba d54f 8fbb 21a8 02bc
00000130: b050 07bc fe26 d0bb 375c d83a 7d8a 03bc
00000140: 1d66 02bc 820b 6cbb 811b b2b9 a35f 0738
00000150: 5133 8ebb 6908 2abb dc6c beba 0d1b 7c3a
00000160: cbe8 08bb 0efb bd3b d5db 07bb d80f 81bb
00000170: 11c0 05bb 69c9 8c3b 32ac b4ba 48c6 053b
00000180: 7a03 ccbb 0874 653b 2b1e 24bb 5ee1 e43a
00000190: 0f02 e1ba 09b3 af3b 0d34 6abb 874d a53a
000001a0: 3717 91bb 0a1f 173b 8269 9e3b 09c9 ebbb
000001b0: 7133 8e3a cc92 97bb 13df 08bb debd a8bb
000001c0: 6cba 09bc af8c 1b3a 00e2 46bb d14e 7bbc
000001d0: 8591 d5ba 910e 3ebb a256 c5ba 752c a9bc
000001e0: 89fc 933b 92dd 5b3b f0fa ffbb 4b47 2a3b
000001f0: 1d61 4fbc cfd7 0f39 9415 a2bb 3097 6db9
-0.0041778483 0.0023519928 -0.0051202667 -0.0037883203 -0.0006893411 0.00061940594 -0.0012318603 0.00053579925
-0.00038106626 0.0004025219 -0.006242308 0.0027934297 -0.0053600674 -0.0018485938 -0.0012477301 0.00071921706
-0.0028805607 -0.0049633617 -0.004706976 -0.004193888 0.0016038322 -0.00056553935 -0.013793005 -0.0013019777
-0.007668666 -0.0019709584 0.009449487 -0.0017345973 -0.0031117557 0.004119718 0.00024093232 -0.0092524905
0.009030904 0.011782372 -0.004481942 0.0016185466 0.0038438463 -0.008859616 -0.0069760396 -0.0019106168
-0.0010381924 -0.009402219 -0.0024837707 0.005133859 -0.012122191 -0.0059205205 -0.0043379213 -0.0050831772
-0.00092234876 -0.00474116 0.0066111004 -0.0020896068 -0.0064604334 -0.0044021457 0.004570766 -0.005236811
-0.00081462896 -0.0018446791 -0.004038896 0.0011276576 0.0038946853 0.0059243557 0.001977509 -0.00061066577
-0.0042102826 -0.0053121033 -0.021068692 0.003357491 -0.000994537 0.0017124543 0.00086008717 -0.001966735
-0.00557174 -0.0012001488 -0.0043735304 -0.007974655 -0.0082589835 -0.0063523045 0.0016506974 -0.008028624
-0.007958916 -0.0036017601 -0.00033971298 3.2275577e-05 -0.0043396135 -0.0025944954 -0.0014528292 0.0009617068
-0.0020890709 0.0057977503 -0.0020730395 -0.0039386563 -0.002040867 0.004296471 -0.0013784228 0.0020412374
-0.0062260004 0.0035011787 -0.0025042396 0.0017462184 -0.0017166751 0.005361919 -0.003573659 0.0012611606
-0.0044278163 0.0023059272 0.004834355 -0.007195596 0.0010849071 -0.004625654 -0.0020884916 -0.005149587
-0.008406263 0.0005933744 -0.003034711 -0.0153386155 -0.0016293979 -0.0029000381 -0.0015055726 -0.020651082
0.0045161885 0.0033548814 -0.0078118965 0.0025982435 -0.012657431 0.00013717938 -0.00494642 -0.00022658403

network_body.linear_encoder.seq_layers.2.weight f4 [128, 128]
00000000: b766 15be 5281 9e3d 7cc3 43bc 246d f93d
00000010: 2ee9 953d 9dd4 f13c 4691 5ebd 9635 8abd
00000020: 215f 9cbd 7836 983d 5c37 b7bd 225d 05bd
00000030: 60ec fabc 8eb6 2d3e 475f 47bd ccd0 a3bd
00000040: 4af8 f4bd 4070 38bb 205c 4ebd a1c7 96bd
00000050: 3795 03be 4d5d 0cbe d0d5 10be bbc4 963d
00000060: 9ca6 b7bd e690 5fbd 98e6 21bd f8a9 f4bd
00000070: 597c 80bd 6c89 2ebb ba35 d9bd 8202 39bc
00000080: c5d0 8d3c 7cfe 2f3e ad26 253d d473 8b3d
00000090: ec3c 9dbd b610 c5bc 61d3 a2bd 4dc2 c2bc
000000a0: 1eb6 34bd 88ba debb 05aa 733d d0db 7ebd
000000b0: 8f4c 0ebd 8a45 4a3e d7e8 81bc d920 663d
000000c0: 3520 393e 7f35 d43c f51d 57bd 2c91 7e3d
000000d0: 0b77 c1bd cc27 aebc 5f1e 77bd 2230 f4bc
000000e0: 74c6 1dbe 72f1 573d e08f 8fbd 3d7d 24be
000000f0: 38a8 ab3d 79a7 0bbd f4e0 eabb 775a 12be
00000100: 77c7 84bd 56ec f4bd 5aa5 dc3c ee19 86bd
00000110: dbd3 fa3d 2c53 cb3d cdd2 963c c69c c6bc
00000120: 9d7d 32bc a7a3 a13b 2b66 c9bd 0241 3dbd
00000130: 3f31 d8bc 0454 803c ac1f 073e 9d44 483d
00000140: 436f 7fbe f668 fabd d287 3c3d e379 c43d
00000150: a051 5abd 5059 413e 17cf 083e 1bb7 9b3d
00000160: 0472 033e 093e a13d f46f 113d 8aa9 9bbd
00000170: a290 2ebc c26b 6e3d 3483 153e 89d5 5cbd
00000180: c99a 673d db83 8e3c d4ca 82bd ada4 2fbd
00000190: 1581 6b3c ebbc 3f3d 1941 44bd 0ffa 0d3e
000001a0: 6e3e 2abe 35ad 163d 42dd 043e 1041 d2bd
000001b0: f1fc 49bd 4ee2 933c b77f b13d 671d 2dbd
000001c0: 9235 40be d5fc d1bd c6c9 9f3c 80b7 28bd
000001d0: bf9b 893b b16f 57bc 1b03 eebd 2add ad3d
000001e0: 3ef2 c83d a884 693d 042b cbbd 4977 0d3e
000001f0: d2c1 703d 65ee 103d 9141 413d ee44 ff3c
00000200: 64ea 90bc 954f 35bd 8153 13bd a913 f73d
00000210: 34b1 cf3d 4eea d0bd 42c8 ffbd 3b95 593d
00000220: bc01 cdbd 14bf cfbd ed00 3ebe 9b89 ee3c
00000230: 89da 9dbd 21da 6dbd fff4 b83d 79c9 5fbd
00000240: 31f9 853d b643 0ebe 21e4 7ebd c9ce 033d
00000250: 75df a2bd 6998 99bd 85a2 4bbd 7da4 963b
00000260: 65ff 893d d1d5 09be 561a 463e bc52 92ba
00000270: d80e 223e 6140 2b3d 0952 26bd 244b 03be
00000280: 5cd7 bcbd 0179 0a3c 0eb8 41be 7656 203e
00000290: 3cfc ca3d cc09 a4bd 5141 17be 8bd0 bc3c
000002a0: fa27 273d 36eb 493d 3132 6dbd 0c7a 1ebe
000002b0: ef10 4fbc c544 ffbc 70e3 a43c b493 6c3d
000002c0: 8bb3 47be 2a6d d93d 9cad ef3d a880 22be
000002d0: 2bc7 6f3d a54f 853c 1a65 58bd b0c0 07bd
000002e0: c517 9b3d 9373 fd3d d2c0 dcbd 5e4f 063d
000002f0: 172d e7bc 0698 3abe f38e 06bd dccb 05be
00000300: c5f2 e73c b680 3e3d 58e3 583e 297c 61bd
00000310: d936 e1bd 94db cdbd b901 c6bd c0e1 c23d
00000320: fea3 6fbd 1109 5ebc ee1f fb3c 61ef 9bbd
00000330: 5dda 833d 2649 333d cf43 84bd 6bbf cbbc
00000340: 286c 7abd e60e 0c3c 8927 ef3c 38f6 52bc
00000350: 2766 113c dbf8 99bd 29dd 983c a9da d7bd
00000360: ea06 edbd ea2c 2cbd 1b8b ef3c bc5a 91bd
00000370: 1abd 8dbd e495 6bbd 0f62 85bd bd12 80bb
00000380: c55a 7c3d 4882 fe3d b148 063d 1355 bcbd
00000390: b09c b93a 8afd e1bc 5412 213e 8721 ea3b
000003a0: 63ac cbbc e3d4 8fbd 56b8 c73c 68e7 af3b
000003b0: a5e0 ca3a ecfc 1bbd b552 f2bd fa7d 91bd
000003c0: 94d1 20be 4a91 543d 1de2 31bd a6c3 a9bd
000003d0: 3e0a 36be 4168 e4bd 0ab4 583d 290e b3bc
000003e0: 6250 f23d 1faf a73c 237d 84bd b158 03be
000003f0: 36c0 12bd c512 88bd 5904 fcbd c878 3bbd
-0.14589964 0.0773951 -0.011948463 0.1217902 0.07319866 0.029520327 -0.054337762 -0.06748502
-0.07635332 0.07432264 -0.08946106 -0.03255952 -0.03063029 0.1696417 -0.048674848 -0.07998809
-0.1196142 -0.0028143078 -0.050380826 -0.07362295 -0.1284989 -0.13707466 -0.14144063 0.07361742
-0.08967325 -0.054581545 -0.039526552 -0.119464815 -0.062737174 -0.0026632203 -0.10605951 -0.011292102
0.017311463 0.17186922 0.040320087 0.06809202 -0.076776356 -0.02405582 -0.079504736 -0.02377429
-0.044118993 -0.0067971386 0.059488315 -0.06222135 -0.03474098 0.1975309 -0.015858097 0.05618367
0.18078692 0.025904415 -0.052518804 0.062150165 -0.09446534 -0.021259211 -0.0603317 -0.029808108
-0.15407735 0.052720495 -0.07009864 -0.160634 0.083816946 -0.03409526 -0.00716793 -0.14292322
-0.064833574 -0.1195914 0.026934315 -0.065479144 0.122474395 0.09927973 0.018411065 -0.024244677
-0.010894206 0.004932839 -0.0983394 -0.046204574 -0.02639067 0.015665062 0.13195676 0.04889356
-0.24944787 -0.12227051 0.046027966 0.095935605 -0.0533005 0.18881726 0.13360249 0.07603284
0.12836462 0.078731604 0.035507157 -0.076006964 -0.0106546 0.058208235 0.14600831 -0.05391458
0.0565441 0.017396858 -0.06386343 -0.042881656 0.014374037 0.046811026 -0.047913644 0.13864921
-0.16625378 0.036786277 0.12975028 -0.10266316 -0.04931349 0.018052246 0.08666938 -0.04226437
-0.18770435 -0.10253302 0.019505393 -0.041190624 0.0041994746 -0.013149188 -0.11621686 0.08489449
0.09811829 0.057011276 -0.09920314 0.13815035 0.05877859 0.0353836 0.04718167 0.031160798
-0.017689891 -0.04426535 -0.035968307 0.12064297 0.10141221 -0.1020094 -0.12489368 0.053120833
-0.100100964 -0.10143867 -0.1855504 0.02911835 -0.07707698 -0.058069352 0.09031104 -0.0546355
0.0654167 -0.13893017 -0.06222928 0.032179628 -0.07952777 -0.07499773 -0.049715538 0.0045972452
0.06738166 -0.1346047 0.19345984 -0.0011163573 0.15825975 0.041809443 -0.04060558 -0.12821633
-0.09220764 0.008451701 -0.18917868 0.15657982 0.09911391 -0.08009681 -0.1477101 0.02304866
0.04080961 0.04929658 -0.057909194 -0.15476245 -0.012638315 -0.031160722 0.020127982 0.05775805
-0.19502084 0.106165245 0.11703035 -0.15869391 0.05853955 0.016273329 -0.052830793 -0.033142745
0.07572893 0.1237556 -0.10778965 0.032790534 -0.028219743 -0.18222055 -0.03285117 -0.13066047
0.028314004 0.046509467 0.21180475 -0.05505005 -0.109967895 -0.10051647 -0.09668297 0.09515715
-0.058506005 -0.013551966 0.030654874 -0.07614017 0.06438134 0.04377093 -0.06458246 -0.024871549
-0.061138302 0.008548474 0.029193657 -0.012876086 0.008874453 -0.075181685 0.018660145 -0.10539753
-0.115735844 -0.04203502 0.029241135 -0.07097384 -0.06920834 -0.057515994 -0.06512844 -0.003908484
0.061610002 0.12427193 0.032784168 -0.09195914 0.0014161076 -0.027586717 0.15729648 0.00714511
-0.024862474 -0.07023027 0.02437989 0.005368162 0.0015478326 -0.038083002 -0.11832181 -0.07104106
-0.15704948 0.05189637 -0.04342853 -0.0828927 -0.17777345 -0.11152697 0.052906074 -0.021857338
0.11831738 0.020469246 -0.064691804 -0.12826802 -0.035827838 -0.06644205 -0.12305517 -0.045769483

network_body.linear_encoder.seq_layers.2.bias f4 [128]
00000000: 2015 b93a eb94 92bb cdde 06bb fd00 37ba
00000010: de22 0c3b 2f83 edbb 667e 3fbb 2862 33bc
00000020: 3a8d 1bbc b2ad 94bb f1c6 2d3b 81a6 91bb
00000030: 8625 9abb ad0f a33c e9cf 973b ae37 d8bb
00000040: 43d6 0bbc 7e02 e53b 784d 783b 4218 15bc
00000050: c27b c13a 0b09 e5bb cfa3 51bc 87d3 84bc
00000060: cd00 7e3b 3626 39bc ac54 febb 5cc6 243b
00000070: 4a34 cfba 8621 d23a f8fc 0738 9ce5 68bb
00000080: 25ef 40bc 136e f1ba 643a 383b 3db9 97bb
00000090: 06f3 273b 7ff0 01bb 5690 48bb 5046 37bc
000000a0: e0f4 20bc 1812 c33a 9a74 783a 2cce 43ba
000000b0: d8fc 8b3b 9500 d0bb 3f29 bb38 3143 bfba
000000c0: 26b4 d537 284b cf3b 5416 ac3b 27d1 8137
000000d0: 9a9a 2c3b 9e03 47bc 6735 933b 7f0b 38bb
000000e0: c7a8 b339 27fb e83b e37d feba 8cfd 27bb
000000f0: 2d0b cd37 435d dfbb 0613 e93b a7c8 b6bb
00000100: 9887 d4ba 7573 5538 6287 aab9 1e49 cf39
00000110: 8884 c9ba 3954 34b8 962c bb38 3302 65ba
00000120: 32f4 69bb 9288 cbbb 92ae 1abb 0977 48bb
00000130: 7712 fa3b 0111 66bb c8a5 9bbb 6124 0dbc
00000140: 1c11 05bc 7c7c 233c f3df 02bb e4e0 a4b8
00000150: f0e6 35bc 4a26 b3bb fa48 983b 56c9 acbb
00000160: 1d52 acb9 2b80 343c 8aaf e9b9 0118 5e3b
00000170: d090 0a39 5d3a 5bbc 3b9a 4a3b 6d8e 15bb
00000180: 3fc7 11b9 aa98 05bc 8d58 8d3a 8f69 feb8
00000190: 111b 853a d27a cabb 5256 a5ba 9744 61ba
000001a0: cb68 183a 741a 59bb 338f b0bb 67e5 58bb
000001b0: 49e3 d63a 3c03 79bb 9961 9f3b acb7 27b9
000001c0: 6ea5 92ba f237 003b d705 37bb 75cd 42bc
000001d0: 0178 be38 af61 6dbc f8d8 8439 8241 b03a
000001e0: 9dec 28b9 52c0 ef3b 7691 9cb9 e3a5 b3ba
000001f0: 11d7 ffb9 5cae e0ba 9d61 563b 8554 9b3c
0.0014120676 -0.004473319 -0.0020579577 -0.0006981043 0.0021383087 -0.0072483043 -0.0029219626 -0.010948695
-0.00949412 -0.0045373077 0.0026516283 -0.0044448976 -0.00470418 0.019904936 0.004632939 -0.0065984344
-0.008534971 0.0069888225 0.0037887972 -0.009100022 0.0014761614 -0.0069896034 -0.012795403 -0.016214145
0.0038757802 -0.011300614 -0.0077615585 0.0025142645 -0.001580843 0.0016031719 3.2422104e-05 -0.0035537248
-0.0117757665 -0.0018419645 0.0028110975 -0.0046302364 0.002562703 -0.0019827185 -0.003060361 -0.011186197
-0.009824008 0.0014882712 0.0009477824 -0.00074693817 0.0042720847 -0.0063477256 8.9245375e-05 -0.0014592168
2.5475467e-05 0.006326098 0.005251685 1.5475393e-05 0.0026337267 -0.0121468585 0.00449245 -0.0028083024
0.0003426729 0.007110018 -0.0019416179 -0.0025633303 2.4443108e-05 -0.0068165376 0.0071128635 -0.005578119
-0.0016214726 5.0890685e-05 -0.00032525795 0.00039536593 -0.001537458 -4.2993783e-05 8.92516e-05 -0.00087359844
-0.003569853 -0.006211349 -0.0023602587 -0.0030588529 0.0076315957 -0.003510535 -0.0047499873 -0.00861463
-0.008121755 0.00997841 -0.001996991 -7.8620185e-05 -0.011102423 -0.005467211 0.0046473714 -0.0052730246
-0.00032867576 0.011016886 -0.0004457201 0.003388882 0.00013214652 -0.013380614 0.0030914682 -0.0022820488
-0.00013902503 -0.008154074 0.0010783836 -0.00012131326 0.0010155161 -0.006179192 -0.0012614226 -0.00085932895
0.0005813955 -0.003312734 -0.0053881644 -0.0033095719 0.001639464 -0.0037996313 0.0048639295 -0.00015994784
-0.0011188218 0.0019564596 -0.0027927065 -0.011889805 9.0822585e-05 -0.014488622 0.00025338656 0.0013447257
-0.00016109874 0.0073166275 -0.00029863016 -0.0013706054 -0.00048797627 -0.0017141807 0.003271199 0.0189612

action_model._continuous_distribution.log_sigma f4 [1, 2]
00000000: a665 003d 4c5e 2f3d
0.03134694 0.042814538

action_model._continuous_distribution.mu.weight f4 [2, 128]
00000000: cddb f5bc 7c35 76bb a9d5 14bd 127f 80bc
00000010: ab40 2e3c 478b 24bc a0f2 703c 12ec a43a
00000020: 53a9 98bb e91d f83b e013 93bc ca18 5ebc
00000030: 4d94 5b3b 4942 80bc 3baf cb3c 2447 9bbc
00000040: ab77 c9ba 8429 5cbc 9f7f 2ebc fbd0 6dbb
00000050: f6fa c63b ee15 11bc 7fba 81bc a474 1a3b
00000060: 38ce 1c3c 0ec4 20bc d0ae d4bc 60d4 e2bb
00000070: 5f33 ddbc 3cda c1bb 800a 903c 2731 483a
00000080: 4e21 4a3c 6fd5 b53b b75c f0ba 5f4d 203b
00000090: 5003 203c 914c 013c a847 46bd c884 19bc
000000a0: 6092 44bc 92f7 aebc 63b2 80bb 9277 77bc
000000b0: 1ca3 f83b 2752 46bc 866f e3bb d5ef 06bc
000000c0: 88c9 423b 0ef5 deba 117c 013b a13c c3bc
000000d0: e08f bbba 2e9f 063b 3dda b1ba f7ca c4bc
000000e0: 53f8 4cbb a1f5 4b3c 48c5 debc 56fd 6bbc
000000f0: 3344 e73c 4d03 b13b 07d7 99bc 4409 d03c
00000100: 8e32 c0bc d239 ccba ca44 933b de19 8dbc
00000110: ab52 0e3a ab8f af3c d64b 3e3a 9cf1 e93c
00000120: ae48 5a3b b73a 30bc f42a eabc 2449 8dbc
00000130: d027 37bc 831f 00bd 70c5 bebc 0899 21bc
00000140: 033c 0fbd c741 31bc d5ec ee3b 5f60 433c
00000150: 7624 c0bb 356c 223c 9aef 803b b669 33bc
00000160: 61c2 c6bc 1d6f a1bc 9db9 0bbc 999b 0e3d
00000170: 4a53 e6bc fe5b 67bc 221d f83b 71f3 e83c
00000180: e809 9d3c a4ae b73b 4118 383d 722a ce3b
00000190: 6a98 e9bb 74ba 173c f756 cb3c 9d29 963c
000001a0: 2067 8cbc f2d4 6dbc 8b3b 8b3b 69b6 d13b
000001b0: cf14 0f3c 3af4 c3bc a05d c03b b6d7 353d
000001c0: 87aa 6abc d911 5e3c bf43 a4bc f708 2a3b
000001d0: 5a9e ba3c 0c7c 22bc 4c7f f8bc 1bf3 2bbd
000001e0: a73b a63c a877 e6bc e4b9 303c 4f05 973c
000001f0: 12e3 eabc 83e8 e0bb 87f8 d03c 5b05 733c
00000200: a6fd b13b 4b83 473b 3bc4 84bc 65d3 e1bc
00000210: 0823 ad3c c8fe e13a ffbb afbb 859e d2bb
00000220: 3e38 0cbc 4217 993c b18d 2dbc 8bfb efbc
00000230: bab9 323b f148 04bb 5ef1 3abd 147c debc
00000240: 7374 dcba 46dc 003d 548a 813c f99e 6abb
00000250: f4c5 94bb a4f2 d4bc 56d2 a9bb cca2 3637
00000260: 434d 383c 8a04 903a 25dc ea3b 19af 183c
00000270: 0731 b3bc 410c 05bd 43fe 52b9 56fa da3c
00000280: e5f2 a03c f270 fa3a e907 efbc 5d22 13bc
00000290: 122c 5c3c 267c d0bb 0780 dabc fcb1 e7bc
000002a0: 2d2d 91bc f805 aebc e6ca f1bb 112b 823b
000002b0: fe59 c43a cc72 2e3c 47ba 023c c14a 35bb
000002c0: b79b 80bc e9a4 f63c 3a19 483c c576 dbbc
000002d0: 774c 1b3d a1f7 dabb 30da 6c3c e1a7 cabb
000002e0: 94fa 683b 07de 0a3c 5e44 a3bc e63b c4b9
000002f0: 5158 c13b b902 9abc 2482 053d 808a 64bc
00000300: 6fb6 833c d89b 8bbb 50ed 0c3c 251a 1b3a
00000310: fde1 9a3b 34dc 9ebc d15a 783c f889 a1bb
00000320: ceb7 d33c 30d7 25ba e7b6 45bc 022c d43c
00000330: bdc4 2f3c 6939 b2bc a204 813c 06f4 9cbc
00000340: bb80 c0bc 2d5c 253c 61ea fb39 0934 de3c
00000350: 84a0 fc3b 31c4 8fbc a21e f13b 47ec 803c
00000360: b2b4 053d 14cd b83c 61ef 2cbc 263e 24bc
00000370: 09b9 14ba f721 88bc f24a b03c 26af b7bb
00000380: 6f78 fabb fe0c f0bc 7d60 f73c 9f6a c13c
00000390: a499 843c 003f cebc 663b 4dbc cbb4 6e39
000003a0: 5d7b 89bc 9731 a8bb e3b7 00bc f849 f7bb
000003b0: ed45 1aba 01aa 6b3c 3eab e93c 46fb 1d3c
000003c0: 3e4f 4abc 3998 19ba 2df0 783b 33c9 adbc
000003d0: 1899 7a3c 4c10 05bc e393 77bb 86ee 9a3b
000003e0: 95a2 033d e960 66bc c0b5 bb3c c425 863c
000003f0: 2a4e 24bb 2843 d1bc 57ef 21bd 9ecc 0cbd
-0.030012036 -0.00375685 -0.036336575 -0.015685592 0.010635535 -0.010042972 0.014706284 0.0012582561
-0.004658857 0.007571925 -0.017953813 -0.013555715 0.0033505142 -0.015656607 0.02486383 -0.01895482
-0.0015370747 -0.0134376325 -0.010650544 -0.0036287892 0.0060723973 -0.008855326 -0.015835999 0.0023568058
0.009570651 -0.009812368 -0.025962263 -0.0069222897 -0.027002035 -0.005915908 0.017583132 0.0007636719
0.012337042 0.005549125 -0.0018338178 0.002446018 0.009766415 0.00789179 -0.04840818 -0.009370036
-0.011997789 -0.021358285 -0.0039275154 -0.015104191 0.0075878035 -0.012104548 -0.006940785 -0.008235891
0.0029722173 -0.0017010288 0.0019757787 -0.023832621 -0.0014309846 0.0020541656 -0.0013569068 -0.024022562
-0.0031275942 0.012448699 -0.02719368 -0.014403662 0.028230762 0.005402005 -0.01877929 0.025395043
-0.023461606 -0.0015581197 0.0044942843 -0.017224248 0.00054291886 0.02143081 0.0007259225 0.028557591
0.003330748 -0.010756186 -0.028584935 -0.01724679 -0.011178926 -0.031280052 -0.023287505 -0.009863146
-0.03496934 -0.010818905 0.007291416 0.011924832 -0.0058637215 0.009913494 0.0039348127 -0.010950496
-0.024262609 -0.019706303 -0.00852814 0.03481636 -0.028115887 -0.014121054 0.0075718323 0.028436394
0.019169763 0.0056055356 0.044945005 0.006291681 -0.007128765 0.0092607625 0.024821742 0.01833039
-0.017139018 -0.014516102 0.0042490414 0.006399919 0.0087329885 -0.023920167 0.005870536 0.04439517
-0.014322883 0.01355406 -0.020051835 0.0025945285 0.022780586 -0.00991727 -0.030334137 -0.04197989
0.020292116 -0.028133228 0.010786507 0.018435149 -0.028672729 -0.006863655 0.025509132 0.01483282
0.0054318486 0.0030443247 -0.016206851 -0.027566621 0.021134868 0.0017242068 -0.005362987 -0.0064275884
-0.008558331 0.018687848 -0.010592864 -0.02929475 0.0027271346 -0.0020185078 -0.045640342 -0.027158774
-0.0016819373 0.03146007 0.01581303 -0.0035800321 -0.0045401994 -0.025994606 -0.0051825447 1.0885949e-05
0.011248889 0.0010987681 0.0071673566 0.00931909 -0.021873964 -0.03248239 -0.0002012188 0.026730698
0.019647071 0.0019107147 -0.029178577 -0.008980361 0.013438242 -0.006362456 -0.026672376 -0.028283112
-0.017721737 -0.02124308 -0.0073789237 0.003972419 0.0014980433 0.010647487 0.007978982 -0.0027662965
-0.01569925 0.030107932 0.012213046 -0.026790032 0.03791472 -0.0066823517 0.014456317 -0.0061845635
0.0035549747 0.008475787 -0.019930061 -0.0003742866 0.0059004207 -0.018800126 0.032594815 -0.013949037
0.016078202 -0.0042605214 0.008601502 0.00059166766 0.004726647 -0.01939211 0.015158371 -0.0049297772
0.02584448 -0.0006326316 -0.012067533 0.02589989 0.010728058 -0.02175589 0.01574928 -0.019159328
-0.023498883 0.010092777 0.00048049077 0.027124422 0.0077095646 -0.017549606 0.007358388 0.015737666
0.032643028 0.022558726 -0.010555119 -0.010024583 -0.00056733243 -0.016617758 0.021520112 -0.005605596
-0.0076437513 -0.02930307 0.030197376 0.023610411 0.016186543 -0.025176525 -0.012526369 0.000227648
-0.016782457 -0.0051328647 -0.007856342 -0.0075466596 -0.00058850535 0.014383794 0.028524037 0.009642428
-0.012347994 -0.000585917 0.0037984953 -0.021214103 0.015295289 -0.008121561 -0.0037777356 0.0047281412
0.032137472 -0.014061191 0.022913814 0.01637543 -0.0025071003 -0.025544718 -0.039534893 -0.034374826

action_model._continuous_distribution.mu.bias f4 [2]
00000000: 0a9e d63a 8903 bc3a
0.0016374004 0.0014344315

action_model._discrete_distribution.branches.0.weight f4 [2, 128]
00000000: 8e74 d7bc 45ee d8ba 547f 16bc 752f 0dbc
00000010: 2c87 bdbc 897f 7c3c b931 fd3b 5725 5e3c
00000020: 3f5b 4d3b 4ad4 4a3c 6100 393c 33e2 c8bb
00000030: dfe0 b53b 44ef 813c 04d3 1c3c c3d0 0bbc
00000040: c210 3ebb d0f4 fe3b 5561 213b 3ad9 753b
00000050: 6bc8 73bc e02b 193c 7336 e83c e9ca c33b
00000060: 74e4 423c ceb8 eb3c 1b89 7b3c 7b0f 1f39
00000070: 4b57 84b9 d472 35bc 4b01 533c 6f5c 8b3c
00000080: 96db 17bb fec4 3d3c be56 0f3c cabe 67bb
00000090: 8c47 ecbb 2280 c6bb 289c ab3c 0b4e 433b
000000a0: 803b 76bc 6bc5 823c 9dd7 8bbc 9955 833b
000000b0: f13f 29bc 64b8 963c 8772 fdbb 872a cd3b
000000c0: 85a6 a33b 4820 213c 769a 4a3a bc4a 3a3c
000000d0: 904e cb3b f360 8dbb 4e00 da39 7105 cbba
000000e0: 0472 5ebb 955c 2cbc 51a4 de3b 6696 8e3b
000000f0: 13ed 8d3b bbd4 db3a d8d3 4a3c 4cc3 553c
00000100: 7ad6 763a c698 b33b b941 463b b944 363b
00000110: 6e5b 973b 1f97 003c 8242 86bb f76d 4abc
00000120: 2098 e23b 8045 113c 119a cc3a 736d 213c
00000130: 6d2a 033c fdc0 0e3c 1914 2b3c 27ec b5bb
00000140: b1a3 35bb b950 bcbb af7f 833b 628f f1bb
00000150: 2fae 253c afb9 10bc ee35 ccbb 7198 22bb
00000160: fe95 343c 6352 98bb 060b b53b b79e 283b
00000170: 71b0 b4ba 903e 4fbc 23fe 76bc 5652 093c
00000180: 1943 5b39 6b1d 06bc 5dd8 f73b 416d 9a3b
00000190: 7f22 083c 3aad 6cbc e7ed 44bc 1fcb 153c
000001a0: da44 86ba f2fd 313c 5ecd 773b 21ae e1b9
000001b0: ca34 54bb f018 0b3c b005 b3bc 8cdf 05bb
000001c0: 2a47 50bb 0cf3 cdbb 50d2 31bc ff3a 18bb
000001d0: 7333 7ebb ffcc 363b 6651 873b 34bd 97bb
000001e0: 3959 45bb 9932 b63c 3ec9 fa3a 816f 3d3c
000001f0: 71b1 3f3a fbdd 4d3b 6734 a03c 4f45 ac3b
00000200: 8089 8bbb 4668 5cbc a462 46ba 3501 7d3b
00000210: 1425 b6ba b104 83bc 5549 85bc ab7a 2fbb
00000220: 0a20 62bc 18c8 3f3c ce5e 86bc f58e 17bc
00000230: 7775 13bc b493 b6bc 077a 46bc d663 05bc
00000240: 7717 9f3b c9fa 043b 481a 493b b3ed 42bb
00000250: 9de2 0ebc 26a2 063b 7701 693b bce1 85bc
00000260: 6a89 953c 67a5 78bb 5e6d 6dbb 88b8 c53b
00000270: c23e 23bb 0ed6 e1bb 0817 5e3b dc78 a3bb
00000280: eb91 923a 0f57 81bb 72f0 7bbb 951e b5bb
00000290: 9938 023c b0b2 023c 9e9e 89bb ef6d c1ba
000002a0: 823b 193c 0f1a d6bb c647 3bbc c1eb fbba
000002b0: 525e 0a3c 5c23 b73b a58c ecbb 2273 c1ba
000002c0: 0414 573c f4aa 763c a2ec 173c bbff cc3b
000002d0: 3933 f33b ab0c 863a 4124 183c c8c9 94bc
000002e0: 599b 55ba b50e f33a 8054 333b b5db dabb
000002f0: 7921 d1bb 1ee4 91bc 7bcd 323b 9cb2 333a
00000300: a566 0fba d206 27bc 3fbb 953b 56eb 143c
00000310: c6b3 aabc 1ead fcba 8b44 213b 80e3 bc3b
00000320: b6fa 5ebc f9d2 743c db83 45bc 27f5 253c
00000330: 2f9c cb3c e145 bfbb a7e7 e5bb 926f 963b
00000340: d58f cdbb 0ab1 0a3b e770 903b ae8a aebc
00000350: f494 41bc 1e1b 303a 067e a03a 05e5 e7ba
00000360: bb63 5a3b 8bd6 f0bb 07dc 1b3b 85df 42bc
00000370: 04f5 15bc 4b86 d8bb eaef d93c eae9 febb
00000380: 8a09 50bb 39c1 98bc e201 9e3c 477c d6bb
00000390: d105 453c 0d57 b53c 5ea0 e0bb d399 8fbb
000003a0: a91d d5b8 3045 bb3b d278 a0bc 0ab5 be3a
000003b0: c0ee 21bc 2e89 97bc 82b4 f63b 2e99 16ba
000003c0: 8ce3 99ba 7a94 2bbc 20ee 23bb b37b 153c
000003d0: 8637 003c 1d69 a23a 5f55 05bb 6bc0 0dbb
000003e0: 35bd 05bc 5901 52bb 4a59 3b3c 1d4a 6fbc
000003f0: 0ddb 67bc 3a75 1fbc b6da aabc b8e4 31bb
-0.026300695 -0.0016550502 -0.009185631 -0.008617272 -0.023135744 0.015411266 0.0077268747 0.013558707
0.0031334904 0.012379715 0.011291594 -0.0061304807 0.0055504884 0.015861161 0.009571794 -0.008533659
-0.0029001688 0.007780649 0.0024624665 0.003751351 -0.014879326 0.0093488395 0.028346276 0.0059751165
0.011895288 0.028774645 0.015352513 0.00015169189 -0.0002524204 -0.01107474 0.012878726 0.01701185
-0.0023171655 0.011582611 0.008748708 -0.0035361522 -0.0072106775 -0.006057755 0.020948485 0.0029801156
-0.015028834 0.015963277 -0.017070586 0.004008007 -0.010330186 0.018398471 -0.0077346 0.006261173
0.004994216 0.009834357 0.0007728705 0.011370357 0.0062044337 -0.0043145358 0.00041580427 -0.0015489293
-0.003394247 -0.01052012 0.0067944904 0.004351425 0.00433124 0.0016771773 0.012379609 0.013047051
0.0009416115 0.0054808585 0.0030251576 0.0027811958 0.0046190536 0.00784853 -0.004097284 -0.012355319
0.0069151074 0.008866668 0.001560988 0.009852755 0.008005721 0.008713004 0.010441803 -0.005551833
-0.0027715976 -0.0057469276 0.004013024 -0.007371829 0.010112329 -0.008833333 -0.006232015 -0.00248101
0.011022089 -0.004648493 0.0055249957 0.0025729367 -0.0013785494 -0.012649193 -0.015075239 0.008381447
0.00020910463 -0.008185725 0.0075636343 0.004712731 0.008309006 -0.014445597 -0.012019611 0.009142666
-0.0010243908 0.010863768 0.0037811617 -0.0004304508 -0.0032380098 0.008489832 -0.021853298 -0.0020427434
-0.0031780698 -0.006285077 -0.010853365 -0.0023228524 -0.003878799 0.0027893183 0.0041295765 -0.004630709
-0.0030112995 0.022240924 0.0019133461 0.011562229 0.00073125126 0.0031412828 0.019556237 0.0052572857
-0.0042583346 -0.013452595 -0.0007567799 0.0038605456 -0.0013896548 -0.015993448 -0.016270319 -0.0026775997
-0.013801584 0.011705421 -0.016402628 -0.009250392 -0.009000174 -0.022287227 -0.0121140545 -0.0081414785
0.004855092 0.002029108 0.003068583 -0.002974373 -0.008721021 0.0020543425 0.0035553852 -0.01634299
0.018254 -0.0037940384 -0.0036228518 0.0060339607 -0.0024909233 -0.0068919724 0.003388824 -0.004988773
0.0011182403 -0.003947146 -0.0038442877 -0.0055273273 0.007948064 0.007977173 -0.004199817 -0.0014757494
0.009352567 -0.006533868 -0.011430686 -0.001922004 0.008445339 0.005588932 -0.0072189146 -0.0014759044
0.013127331 0.015055407 0.009272726 0.0062560714 0.0074218777 0.0010227164 0.009285987 -0.018162623
-0.0008148454 0.0018543812 0.0027363598 -0.006679023 -0.006382164 -0.01780897 0.002728312 0.0006854923
-0.00054703123 -0.010194497 0.0045694406 0.009089312 -0.020837676 -0.0019277667 0.0024607505 0.005764425
-0.013609579 0.014942878 -0.012055363 0.01012925 0.024854748 -0.0058371876 -0.0070161405 0.004590937
-0.0062732496 0.0021162652 0.0044079903 -0.021306362 -0.011815298 0.0006717908 0.0012244589 -0.0017692155
0.0033323604 -0.0073497943 0.002378227 -0.0118941115 -0.009152655 -0.006607806 0.026603658 -0.0077793496
-0.0031743967 -0.018646823 0.019288007 -0.0065455767 0.0120253125 0.022136236 -0.0068550548 -0.004382351
-0.00010162156 0.005715035 -0.019588862 0.0014549803 -0.009883583 -0.01849803 0.0075288424 -0.00057448715
-0.0011740788 -0.010472411 -0.002501376 0.0091237305 0.007825738 0.0012390945 -0.0020345075 -0.0021629583
-0.008162786 -0.003204426 0.011434862 -0.014605072 -0.014151347 -0.009732539 -0.020856243 -0.0027144384

action_model._discrete_distribution.branches.0.bias f4 [2]
00000000: b923 78bc b823 783c
-0.015145236 0.015145235

critic.network_body.linear_encoder.seq_layers.0.weight f4 [128, 9]
00000000: 5bda c7be 62b4 693e 8f3f 14be f0f9 eb3e
00000010: 0e83 e7be e8a0 cebe b40b 6abd 505c 84be
00000020: d64e c23e 4a32 ba3e f60c 76bd 7b90 2fbf
00000030: 1dcc 2f3e 68d2 0cbc 502a f8bc 3436 3dbe
00000040: e8e4 953e 106c bc3e b038 dfbe c025 533e
00000050: de35 db3d cd8c 203c a4ef 37be 27a6 bcbd
00000060: 242a a3be bc5d 2b3f 3232 963e b612 b63d
00000070: 4bff 603e cf2a c83e 33de c13e 38f9 6c3e
00000080: 62eb 73be 0e33 0e3d 73d1 343e 00b4 413e
00000090: 4fb1 b73e a669 a43e 5ed4 e0bd 1120 7dbf
000000a0: 1ba1 61be 0e9b 28be be0f 83be 84a8 813e
000000b0: 9e86 b13d 1fe1 0f3f 747e 0cbf 1685 033f
000000c0: 3033 cebd a436 0bbe f43a 96be 9cc9 95bc
000000d0: 3dd7 25be d1ff 35be 88d4 7d3e 8fad a2bc
000000e0: b31e 86be 7304 cb3e add2 96be 61ba 98be
000000f0: 2315 453e 3c33 cdbe b7d1 903d 23a5 5abe
00000100: ae37 b3bd 543f 843e d60f 4d3e 8579 0cbd
00000110: 3d9f 013e 19f9 143e b010 ab3d d84e 893e
00000120: fd88 a1bd f98b 75be 03e0 3bbd 25f5 2dbe
00000130: 625b 9d3e 8170 dfbc ae7e 11be c6d6 0ebf
00000140: c0c0 863c 0fcc ce3c edd3 b53e b3ba 973d
00000150: 9903 f93c faa4 dc3c e973 ee3e 9c34 a7be
00000160: ce38 e7be 121f 5f3e 2e44 48bf f597 f23c
00000170: 4bc5 d23e 3e58 623d b2c4 863d 03c8 1e3d
00000180: 9748 7dbd 195b d13d ba2c b1be 5532 883e
00000190: 4ae6 bc3e b535 7fbe ad18 da3c bd32 6a3e
000001a0: 65a6 8ebd 3852 99be 1804 343e a867 cdbd
000001b0: ed2d 943e 7c37 24bf 5578 a83c 17c8 1bbe
000001c0: 215a 00be 7003 1cbf 887a 353f 4b93 b9be
000001d0: b80d 273f ff72 9d3e 64e5 99bd eda8 1abd
000001e0: 18b8 c23e 85f7 d9be 7d4f a1bc 335a 9f3e
000001f0: 9d9a 32bd edc2 333d 736c 7d3d bb6f c6be
00000200: fd40 ce3e 297d d23d c48a ac3e 232f 0e3f
00000210: 9ea0 de3c a18e b2be f245 913e 27a6 eebe
00000220: 5e93 4e3e b171 e23e d047 d7bd d3af 033f
00000230: 7edb b6be 8cb4 05bf f89c 323f f097 423e
00000240: bd1a 15bd 58d9 493c d536 b1be cd62 2abc
00000250: d44f b83e 0490 4e3e 0f90 4fbe b03c f9be
00000260: dd27 4cbd e22c ef3c 0c85 ffbd c57d 533e
00000270: 88e9 0abf 33c9 b23e 1cd9 823d 4cd7 d03e
00000280: 22f9 153e 0e45 d03d 1c25 8d3e 3c6c 6b3d
00000290: 992e 85be 15f4 dcbe b584 d6be 6c86 cc3e
000002a0: 161a ce3d 8ceb 76be 18a2 d33e fc78 9a3d
000002b0: 34eb 863e 8f6e 2b3f c2eb d93b 58c5 12be
000002c0: 9c3b 423e a421 17be 0cdc 203f 43eb 11bf
000002d0: 8f50 1abf 28b6 40bf 10ef 32be d2d9 a93e
000002e0: 1c98 753e e940 86be 98ed 1d3f 742d 183e
000002f0: a0cc 323e 34e7 2e3f 8a01 ff3e 64ee b93e
00000300: 7bc3 e93c 3499 d8be 9dd4 643c 21f9 46be
00000310: 23b7 a6be 5650 1e3d 984c 683e f6bb e0be
00000320: 43d2 1cbe c52c d2be 7a0d 8cbe afc5 693d
00000330: 35ab 323e 1794 dfbe 6735 6a3e 6f69 333e
00000340: 6adf ef3e 68fe 55be d519 043e 7a51 6cbe
00000350: abe2 293f 5d7c 0a3f 59fe c43e 9570 82be
00000360: 862a 80be 9a79 ed3d b3e2 66bf ddd6 bbbc
00000370: 14f8 e23c 4477 153c 6d94 023f 0e21 f33e
00000380: 794a 9d3d ee63 a0bd 46e9 f2bd 78c5 78be
00000390: 7ff0 dd3d 07e8 b63d d7a7 343f d6ad 3abd
000003a0: 0872 623d 00cd 11bd 18ea 1abf 061e 983e
000003b0: 1d28 6b3d e686 4dbe adfa 88be f6e1 1e3e
000003c0: 944b 8b3e ab1c 6f3e 8d2c 2b3f 9839 66be
000003d0: bd61 03bf ba38 6a3e 7474 dcbd ea86 dbbe
000003e0: 5119 3dbe 356f 833a 6cbd fb3e 19d6 fdbe
000003f0: 478f 8ebd cdea 4dbe 61a6 7c3a 56b2 c6be
-0.3903378 0.22822717 -0.1447737 0.46089125 -0.45217174 -0.40357137 -0.057140067 -0.2585168
0.37950772 0.36366493 -0.060070954 -0.68579835 0.17167707 -0.008595087 -0.030293614 -0.18477708
0.29276204 0.36801195 -0.43597937 0.20619869 0.10703634 0.0097991945 -0.1796251 -0.092113785
-0.31868088 0.669399 0.2933517 0.088902876 0.21972387 0.3909516 0.37864837 0.23141944
-0.2382026 0.03471666 0.17658024 0.18916321 0.35877463 0.32111853 -0.10978006 -0.98877054
-0.22034113 -0.16465399 -0.25597948 0.2532388 0.08668254 0.5620288 -0.5488045 0.5137495
-0.10068357 -0.13595062 -0.29341853 -0.018284611 -0.16195388 -0.17773367 0.24788105 -0.01985815
-0.26195297 0.39651832 -0.29457608 -0.29829696 0.19246344 -0.4007815 0.0707125 -0.21352057
-0.087508544 0.25829566 0.20025572 -0.034295578 0.12658401 0.14548148 0.08352792 0.26817966
-0.078874566 -0.23979177 -0.04586793 -0.16988046 0.30733782 -0.027275326 -0.1420848 -0.5579647
0.016449332 0.025243787 0.3551325 0.07408657 0.030397223 0.026934136 0.46572807 -0.32657325
-0.45160526 0.21789196 -0.78229034 0.029613474 0.41166148 0.055259936 0.065804854 0.038764965
-0.061836805 0.102224536 -0.34604436 0.266009 0.36894447 -0.24922831 0.026623094 0.22870918
-0.06965331 -0.2994554 0.17579687 -0.100295365 0.2894129 -0.6414716 0.020565191 -0.15213047
-0.12534381 -0.60942745 0.7089009 -0.36245188 0.6525531 0.30751798 -0.07514456 -0.037758756
0.38031077 -0.42571655 -0.019691223 0.31123504 -0.043604482 0.043887068 0.061871003 -0.3875712
0.40283957 0.10277779 0.3369962 0.55540675 0.027176198 -0.34874442 0.28373677 -0.4661114
0.20173404 0.44227365 -0.10511744 0.5144016 -0.35714334 -0.5222862 0.69770765 0.19003272
-0.036402453 0.012319885 -0.34612146 -0.0103995325 0.35998404 0.20172125 -0.20269798 -0.48679113
-0.049842704 0.029196206 -0.124765486 0.20653446 -0.5426259 0.34919128 0.063890666 0.40789258
0.14645818 0.10169421 0.27567375 0.057476267 -0.26012114 -0.4315497 -0.41898122 0.39946306
0.10063569 -0.24113292 0.41334605 0.07542607 0.2635132 0.66965574 0.006650419 -0.14333093
0.18968052 -0.14758927 0.62835765 -0.56999606 -0.6027917 -0.7527795 -0.17474008 0.33173996
0.23983806 -0.26221398 0.61690664 0.14861089 0.1746087 0.6832154 0.49805862 0.3631469
0.028535595 -0.42304385 0.013966707 -0.19430973 -0.32561597 0.038650833 0.22685468 -0.43893403
-0.15314583 -0.4104978 -0.27354032 0.05707329 0.17448123 -0.4366767 0.22871934 0.17520688
0.4685014 -0.2089783 0.12900479 -0.23077956 0.6636149 0.54096013 0.38475302 -0.25476518
-0.25032443 0.11595459 -0.90189666 -0.022929603 0.027706183 0.009122673 0.5100773 0.47486156
0.0768022 -0.0783156 -0.118608996 -0.24294078 0.108368866 0.089309745 0.70568603 -0.04557594
0.05528453 -0.035595894 -0.6051345 0.29710406 0.057411302 -0.20070991 -0.2675375 0.15515885
0.272061 0.2335078 0.66864854 -0.22482908 -0.5132101 0.22873202 -0.10764399 -0.4287637
-0.18466689 0.0010027649 0.49167955 -0.49577406 -0.06960922 -0.201091 0.00096378295 -0.38807935

critic.network_body.linear_encoder.seq_layers.0.bias f4 [128]
00000000: 05b9 abbc 5282 203c e882 473c efee 023c
00000010: f5a8 1e3c 0944 a7bb 4bda 663c 84ef 683c
00000020: 8f8f 8c3c acfe dabb c9d7 1d3c c30e 323c
00000030: 87f3 21bc e46e 203c 8342 813b 04bf 1f3a
00000040: cb6d ba3b 9c9a 0c3c 3cd6 34bc 6d4d 233c
00000050: 9639 7ebc d2e7 b4bb 0fd6 26bc 8d42 fc3b
00000060: 915e bcbb 5fbf e5bb b8eb 7e3b d7c5 49bc
00000070: 5433 583c 273b 413c 1a54 f5bb 618c d53b
00000080: 8a24 5d3c 2416 88bb a431 d23b 204e e53b
00000090: 5717 393c a8d5 10bc f51e adbb 939c dc3b
000000a0: 4995 df3b 521f b6b9 ba3d 023c f988 3abc
000000b0: 2007 71bc 8187 1abc 0ca4 193a 55f9 ae3b
000000c0: 2732 e7bb 9d89 d3ba 36f6 13bc 88fc 303c
000000d0: 422b 62bb 53e5 c9bb 47b9 123c b28c 1d3b
000000e0: d3b5 20bc 543a 0ebc c18a 7ebb a8fc 3cbb
000000f0: f54c c73b f82f 12bb 8c68 1dbc 8435 d13b
00000100: efeb 34bc df44 acbb 17e2 ad3c 492b dabb
00000110: 711d 03bc 880d 153c 9f6d a53b 6cbf 24bc
00000120: 8e21 7fbc cbc5 22bc be49 1ebc 6940 c63b
00000130: d7ce 243c bc41 3d3c 367a a53b 7b7a 30bc
00000140: ee36 04bc 9cfd 83bc 51d3 4dbb 6144 703b
00000150: 7b17 833b d162 87bc ef13 753c 130f bcbb
00000160: 432a cf3b c4be 9abb 99ea 02bc 1f4c 2fbc
00000170: a1da 8c3b 7842 beba 2037 95bb 2053 ec3b
00000180: fe65 88bc 1fb1 bc38 4530 93bc 6530 34bc
00000190: 3153 3ebc 8cc8 35bc 5098 7fbc d845 0cbb
000001a0: ce69 64b9 d8f5 343c 9700 c73b 8f3e 98bb
000001b0: a5f4 053c 8ba3 3cbc f00f 023c e25e 533c
000001c0: 53e5 2a3c 9d74 143c e1ca 063c 9fcc 483c
000001d0: bd51 36bc e46e f8bb ee26 87ba a5bf 42bc
000001e0: 4805 d1bb 3a8f 4c3b cd00 283c 89dd 23bc
000001f0: 87be 4cbc f6c5 643c 1856 49bc f209 073c
-0.020962248 0.009796696 0.012177207 0.0079915365 0.009683837 -0.005104546 0.014090131 0.014217261
0.017158298 -0.0066831913 0.009633967 0.010867777 -0.009884722 0.009792063 0.0039446964 0.0006093832
0.005689358 0.008581784 -0.011037406 0.00996719 -0.015516659 -0.005520799 -0.0101828715 0.007698363
-0.005748578 -0.0070113386 0.0038897824 -0.012315235 0.013195831 0.011793888 -0.0074868323 0.0065169786
0.013497481 -0.00415303 0.006414609 0.0069978386 0.011297069 -0.008840002 -0.0052832314 0.0067325323
0.006823216 -0.0003473708 0.007949287 -0.011385196 -0.014711171 -0.009431721 0.00058609317 0.0053397813
-0.007055539 -0.0016139034 -0.009030869 0.010802396 -0.0034510647 -0.006161371 0.008955306 0.002404016
-0.009808975 -0.008680899 -0.0038840028 -0.0028837118 0.006082172 -0.0022306424 -0.009607445 0.0063845534
-0.011042579 -0.0052572335 0.021225972 -0.006657992 -0.008002625 0.009097464 0.0050484682 -0.010055404
-0.015571965 -0.009934853 -0.009661136 0.0060501588 0.01005908 0.011551317 0.005049969 -0.010771389
-0.008069737 -0.016112141 -0.0031406472 0.003666185 0.004000602 -0.016526612 0.014958366 -0.0057391017
0.0063221767 -0.004722448 -0.007990503 -0.010699301 0.0042985235 -0.0014515659 -0.0045536906 0.0072120577
-0.016650196 8.99753e-05 -0.017967353 -0.010997866 -0.011616514 -0.011095177 -0.015600279 -0.0021403935
-0.0002178319 0.011044942 0.0060730684 -0.0046461294 0.008176004 -0.011513601 0.00793837 0.01290104
0.010430652 0.009061006 0.008227081 0.012255817 -0.011127886 -0.0075815786 -0.0010311285 -0.011886512
-0.0063788034 0.00312133 0.010254097 -0.010001549 -0.012496597 0.013963213 -0.012288593 0.008242117

critic.network_body.linear_encoder.seq_layers.2.weight f4 [128, 128]
00000000: ad8f 2cbe 6eb2 6abe 32c3 23bd e0be 27bd
00000010: d70f 1d3e d994 11be 9a6a 8bbd 7027 51bd
00000020: 2523 02be 771d 38bd 5d2a 05be 5acb f1bc
00000030: 9bb2 cabd d19d 00bd 2681 b2bd 8ffd ffba
00000040: 5758 303e 04cf d83d 5c31 15bd 5ff8 5cbb
00000050: 89cf d7bd 9a9c 36be 6b97 c6bc d5fb 2fbd
00000060: ecf6 893d df72 043e eaea edbd 2996 6d3c
00000070: c2d1 b4bd f4ae a43d 7948 173b 86f3 2abd
00000080: c8f6 ca3b 2154 ad3c 0573 3c3d 7b55 2b3d
00000090: 6326 e63d 73e9 3fbd 900c 923b 7b8c 12bd
000000a0: 2f98 04be 13c1 323c 8da9 fcbc b350 96bd
000000b0: 5251 d8bd 8288 7fbd b5ce f8bc b7cc 923d
000000c0: 7f01 8abd c88a 95bd 1709 0abe 30da 693d
000000d0: 2ed2 77bb fa1f 58be eedc 933d 2592 a13d
000000e0: 5f61 0f3e 3652 d9bd ddc6 afbc 3007 cebc
000000f0: 75ad 10bd 4564 cdbc a29b f4bd 4932 11be
00000100: 168b a8bd 7b4b 823d c1ed ab3d 1d35 91bd
00000110: d227 a73d 28cc 6fbd ae74 10be 7862 4f3d
00000120: 783f efbd 881a b3bc 5769 b1be a26b 9dbd
00000130: bac2 d63d 1e6e c3bd f3a3 9dbd 483e 87bd
00000140: b01c 0fbd fb92 203e 11ec c5bc e66a 16be
00000150: f10a 4cbc ee84 87bd ec71 2b3d d7ee 9abd
00000160: a19b a43d 1e63 6b3d f280 5a3d 615f 5d3d
00000170: c5c6 233e 105f 12bd 6305 02be 832d 203d
00000180: 2c39 453e 8c66 0fbe 0fe9 c13d 3e64 9a3d
00000190: d2a9 87bd e958 adbc d04a 92bd 93a7 3ebd
000001a0: 08bb dc3d f100 8cbb a18b 15bd ff90 00be
000001b0: 6757 e8bd d952 793d dad3 a9bd f115 04be
000001c0: ab4d 3b3c a59e 78bd 8a06 b5bc c629 cabd
000001d0: 766e 75be 5d75 b4bd f636 7c3d 1547 09be
000001e0: 6774 e5bc 1f7c 2fbc 0fe3 cebd 61aa 13bc
000001f0: d14a 1b3d 9a70 06bc 0e17 0dbd 6f40 2bbd
00000200: e2db 1a3e fb96 35be 67b0 b7bb 749a 02bc
00000210: e369 a73c bba1 c03b 0382 11be ba9c e2bd
00000220: e915 94bc ed14 103e 5e41 1e3e 2159 0a3d
00000230: c417 603d c611 9ebd 33ea 10bd 443d 313a
00000240: a2c6 83bd fcbc b0bd 65b7 19ba 781a ec3b
00000250: 58b9 a6bb 1d89 22be 71f6 fdbd 7cff 9dbb
00000260: 20bc bd3d 915a d6bc cb52 95bb 10dd e8bd
00000270: 7ab3 9f3d 6ccd 893a 25a3 b33d 6c23 b7bd
00000280: 7987 273d 10c5 5b3d 505c 943c 7f91 993d
00000290: 8ba5 753e 8843 28be 085d 9b3d 5132 193d
000002a0: a983 d03a c639 bb3d 3f08 ff3c 4388 403d
000002b0: 4f6c 363d 4a06 e7bc 8b5e f03d 333f b0bd
000002c0: 18ca 96bd 6475 aabd 3a13 e1bd e08a 1d3b
000002d0: 9d71 5bbe 0911 773b 3bdf c0bd ae51 b73d
000002e0: 6d08 ba3d 3518 a23d 5c71 08bd f3b0 ad3d
000002f0: cedc 8cbd 736e 233d 0136 8b3d e8fe f03c
00000300: 2c77 56bd 3356 c3bb 020b a53d a2bc 643d
00000310: 6044 093d 7e77 093e 0784 a33d 3389 3abd
00000320: c80b 933b e03e abbb 020e 8cbc c0bb 61bd
00000330: 9a71 04bd 6b85 343e c4e4 713d 07dd 583d
00000340: 82b0 a93c 7c84 3fbd 0f29 203d 06b2 d73d
00000350: a7cc 3f3d 16bd d2bb 75ee 6b3d 9a4f 4ebd
00000360: f438 2dbe 3d94 9fbb 7f7f b33d dc1d bb3d
00000370: edd3 2c3d 4b97 acbd 0885 47bd 6403 8b3c
00000380: 1c5e 4cbd 1cd7 0c3d 9e98 32bd 8a0c 64bc
00000390: d47b 8cbd 2238 d7bd ec51 ddbc a13b 42be
000003a0: 760b bc3d b0c4 a2bd ef23 fabb a022 a53d
000003b0: ad20 9c3d 1974 003d 32ef 96bc 7f74 863d
000003c0: a636 553a aedb 78bc ce57 893d c1cc 24be
000003d0: 0e13 94bc 2fe7 c03a 9fd8 b83d a46c 013d
000003e0: 2337 ebbc 61e0 333d c913 60bd 9bf3 08bd
000003f0: f84c 903c 8345 b93d 8ee8 cfbc 552a e23d
-0.16851683 -0.22919628 -0.039981075 -0.040953517 0.15338074 -0.14216937 -0.06807442 -0.051063
-0.12708719 -0.044949975 -0.13004442 -0.02951591 -0.098973475 -0.031400505 -0.08716039 -0.0019530522
0.17221199 0.1058636 -0.036424026 -0.0033717377 -0.10537631 -0.17833176 -0.024242124 -0.042964775
0.0673655 0.12934445 -0.11617072 0.014501133 -0.08829071 0.08041182 0.0023083969 -0.04173615
0.0061939694 0.02115828 0.04600813 0.041829567 0.112377904 -0.046853494 0.004457064 -0.035778504
-0.12948678 0.01091029 -0.030842567 -0.07339611 -0.105623856 -0.062386043 -0.030372003 0.071679525
-0.067385666 -0.07301861 -0.1348003 0.057092845 -0.0037814486 -0.21105948 0.07219873 0.07889203
0.14001988 -0.106113836 -0.02145713 -0.025149912 -0.03532167 -0.025072226 -0.11943747 -0.14179339
-0.082296535 0.06362053 0.08394957 -0.07090209 0.08161892 -0.058544308 -0.1410701 0.050631016
-0.116820276 -0.021863237 -0.3465068 -0.07686545 0.1048636 -0.095424876 -0.076972865 -0.06603676
-0.034939468 0.15681069 -0.024160417 -0.14689216 -0.0124537805 -0.06617151 0.04185669 -0.07565086
0.08037496 0.057467572 0.053345628 0.05404604 0.15993793 -0.03573519 -0.12697367 0.039105903
0.1926009 -0.14003962 0.094682805 0.07538651 -0.066241875 -0.02116056 -0.071431756 -0.04654653
0.10777861 -0.004272573 -0.036510114 -0.12555312 -0.11344796 0.060870025 -0.082923606 -0.12898995
0.011432092 -0.06069817 -0.022097845 -0.09871249 -0.23967919 -0.08811448 0.061575852 -0.13406022
-0.028009607 -0.010710745 -0.10101902 -0.009012789 0.037913147 -0.008205557 -0.034445815 -0.041809496
0.15122941 -0.17733376 -0.0056057456 -0.007971395 0.020436233 0.005878655 -0.14209752 -0.110650495
-0.018076854 0.14070483 0.15454623 0.033776406 0.054710165 -0.07718234 -0.0353796 0.00067611434
-0.064343706 -0.08629796 -0.0005863815 0.0072053038 -0.0050880127 -0.15872617 -0.124005206 -0.004821716
0.092643976 -0.026166232 -0.004556989 -0.11370289 0.07797904 0.0010513491 0.08771352 -0.08942303
0.04090068 0.05365473 0.018110424 0.07498454 0.23988931 -0.16432011 0.07586104 0.0374015
0.0015908378 0.09141879 0.031131862 0.04700495 0.044536885 -0.028201241 0.11736783 -0.08605804
-0.07362765 -0.08323172 -0.10989995 0.0024039075 -0.21430059 0.0037699363 -0.09417578 0.08951126
0.09083638 0.079147734 -0.033311233 0.08481016 -0.06878053 0.039900254 0.0679741 0.029418424
-0.052359745 -0.0059612035 0.0805874 0.055843957 0.033512473 0.13424489 0.079841666 -0.045541
0.0044874884 -0.005226001 -0.017096523 -0.055110693 -0.0323349 0.1762902 0.05905606 0.052945163
0.020714048 -0.046757206 0.039101657 0.10532002 0.04682603 -0.006431232 0.057600457 -0.050368883
-0.16916257 -0.0048699663 0.08764552 0.091365546 0.042194296 -0.08427294 -0.048710853 0.01696939
-0.049894437 0.03438483 -0.04360258 -0.013919005 -0.06859556 -0.10508753 -0.027016602 -0.18968059
0.091818735 -0.079476714 -0.007633678 0.08063245 0.0762342 0.03136072 -0.018424604 0.065651886
0.00081334484 -0.0151890945 0.067062005 -0.16093732 -0.018075492 0.0014717336 0.09025692 0.03159775
-0.028712815 0.043915156 -0.05470637 -0.033435445 0.017614827 0.090464614 -0.025379445 0.110432304
