results/ppo/Car Agent/Car Agent-425761.onnx (onnx, 86866 bytes, 9 tensors)

action_model._continuous_distribution.log_sigma f4 [1, 2]
000000 ad 63 ab 3c 46 14 95 3c
       0.020921553 0.018198144

action_model._continuous_distribution.mu.bias f4 [2]
000000 4d c8 cc 3b 00 2c 88 3b
       0.0062494637 0.004155636

action_model._continuous_distribution.mu.weight f4 [2, 128]
000000 90 41 3c 3b 28 15 48 3c 05 9f 85 bc 36 e7 bc 3c
       0.0028725602 0.012212075 -0.016311178 0.023059469
000010 3d d9 77 bc 70 d5 6e bc 76 86 06 bd 20 f2 86 bc
       -0.015127477 -0.014577255 -0.032843076 -0.016472876
000020 c7 c8 67 bc 9a bb 44 3a 18 d3 28 bc ac 88 fc bb
       -0.01414699 0.00075047615 -0.010304235 -0.0077067222
000030 d2 5b 4f bc bb 47 f2 bb c7 c9 86 3c 6c 4f 56 3c
       -0.012656169 -0.007393805 0.016453637 0.013080459
000040 11 9d c2 bc 98 1a f2 3b 78 2c 05 ba 41 78 37 bb
       -0.023756536 0.007388424 -0.0005080174 -0.002799526
000050 b5 aa 11 3d 10 bd 9c ba f5 a5 97 3c 49 7e 92 b8
       0.03556319 -0.00119582 0.018511752 -6.985345e-05
000060 0c 75 bb bc b6 13 a4 bb 70 e2 9c 3c 0f 71 9a bc
       -0.02288296 -0.0050072325 0.019150943 -0.018852739
000070 e4 a8 de bb ad da c4 b8 c5 45 4c bc 00 1d e0 bc
       -0.0067950357 -9.38674e-05 -0.012467806 -0.027357578
000080 d7 e6 52 3c 70 62 80 3c 5f e2 a3 bc a2 9e 9c 3c
       0.012872419 0.015671939 -0.020005403 0.01911861
000090 b3 23 e4 bb b3 41 4f 3c 59 0f a2 bb 47 86 02 bc
       -0.0069622635 0.012649941 -0.0049456772 -0.0079665845
0000a0 11 f2 04 ba 15 8f 78 bc 29 b9 9a 3a db 96 e1 3c
       -0.0005071471 -0.015170832 0.001180445 0.027537754
0000b0 7a 81 9e bc bd 99 26 bd 98 6d 18 bd 5d 2c c8 bb
       -0.019348849 -0.04067396 -0.03721389 -0.006108804
0000c0 77 f4 55 b9 f9 d4 4d bd 72 e4 5c bc 87 82 80 3c
       -0.00020404333 -0.050251935 -0.0134822 0.01568724
0000d0 a8 66 e4 bb fb ff 83 3c 18 57 e1 bc 7d 6c 84 ba
       -0.0069702454 0.016113272 -0.02750735 -0.0010103133
0000e0 a5 1b bf bb c4 63 01 bd 54 77 1c bc f7 c5 1e bd
       -0.005832153 -0.031589285 -0.009549934 -0.038763013
0000f0 8d 2a 26 3c 4c 89 ab 3a 66 75 bc 3c b6 6d e5 bb
       0.010141981 0.0013087182 0.023005199 -0.007001604
000100 f6 f3 00 bd ee 44 0e bc d0 40 03 3c 26 85 22 3d
       -0.03148266 -0.008683426 0.008011058 0.03967776
000110 a1 3d 4f bb 2d 10 09 3d 3d e3 55 3b bd a5 68 bc
       -0.0031622427 0.033462692 0.0032636665 -0.014199671
000120 b0 61 cc bb b3 f3 3b 3c d6 3a f7 3c 51 39 a2 bc
       -0.006237231 0.011471677 0.030179422 -0.019802721
000130 0f 1e 9c 3c 91 f6 4a 3c ec f9 f2 bb 7b 69 17 bc
       0.019057302 0.012387888 -0.007415047 -0.009241457
000140 06 b9 33 3c da ee b7 b9 5c 05 0f bb 3c eb 7e bc
       0.010969406 -0.00035082438 -0.0021823263 -0.015559014
000150 39 94 c7 3b 39 06 c2 bc 8b 44 ae bb 06 2c 90 3c
       0.0060906676 -0.023684608 -0.0053182296 0.017599117
000160 05 ca a9 3c 81 7e d4 3c f4 3b 9c b8 b3 15 3e 3c
       0.020726213 0.025939228 -7.449827e-05 0.011601853
000170 9f 75 d2 bb 15 48 df 3c a4 c9 9e ba ad 08 6f bc
       -0.006422713 0.027256051 -0.0012114537 -0.014589471
000180 b6 4e 89 39 b5 98 74 bc b6 ab 5c bd d5 bb e0 3a
       0.0002618932 -0.014928986 -0.053874694 0.0017145822
000190 32 50 9e bc 7c ab dd 3b 0b 33 a9 3b d2 48 72 3b
       -0.01932535 0.0067648273 0.0051635555 0.0036969674
0001a0 70 a5 2d 3d 09 75 5f 3b a9 51 42 bc 1c fb f3 ba
       0.0423941 0.0034096858 -0.01186029 -0.0018614265
0001b0 59 ed 07 3d 86 96 9e 3c 1e a7 c1 ba 65 1b aa bb
       0.033185337 0.019358885 -0.0014774536 -0.005191254
0001c0 86 b0 02 bd 3e f7 04 bd 0f 5b 8c bc 65 a8 c9 bb
       -0.031906627 -0.03246235 -0.017133264 -0.0061541074
0001d0 a9 2c 6a b9 4c 5b 54 3b 50 75 36 bc db ea dc 3b
       -0.00022332616 0.003240305 -0.011136368 0.006741864
0001e0 2c c7 8e bc ba c7 26 bd 6c cb cb 3c 13 dd ba 3c
       -0.017428957 -0.040717818 0.024877273 0.022810495
0001f0 4d 0c 5b bb dc 47 9b bc bf 50 81 3c 4d 17 8d bb
       -0.003342408 -0.018955164 0.015785573 -0.004305756
000200 07 82 89 3c 37 9b 06 3c 65 ad d5 bc c4 f7 d3 bc
       0.016785635 0.008215717 -0.026083658 -0.02587498
000210 7a 44 dc 3c 21 59 d8 3b 71 03 99 bc 37 15 d6 3c
       0.02688812 0.006602422 -0.018678399 0.026133163
000220 84 e4 25 3d df 6e 25 3c cd 6e 02 bc ac 5b f9 3c
       0.040501133 0.0100972345 -0.007960987 0.03043922
000230 3d 1c 54 bb 78 36 97 3b 88 97 c4 bc 8a 6e e2 3b
       -0.0032365464 0.0046146475 -0.023998037 0.00691015
000240 97 77 a1 3b d2 07 78 bb c8 a5 cc 3c 62 e4 d8 bc
       0.0049275863 -0.0037846458 0.024981394 -0.026476089
000250 6e f1 02 bd 9e 9a 68 3c 9d 11 bd bc a2 86 12 3b
       -0.031968527 0.01419702 -0.023079688 0.002235808
000260 9d 6e 55 3d 1a 3a 93 3a 2a 8c fd ba 8b 39 b5 b9
       0.052107442 0.0011232526 -0.001934414 -0.00034565883
000270 d8 99 07 3b 12 da c0 bc 8e a3 30 bc 7a 3c a7 bc
       0.0020691063 -0.023541484 -0.010781182 -0.02041458
000280 3a 7a 12 bd b1 81 b0 3c 23 6d bd bc ad 0d ea 3c
       -0.035761096 0.021546217 -0.02312333 0.028570974
000290 83 cc 74 3b 9b 76 6c 3c ec cc a8 3b 65 55 95 bc
       0.0037353344 0.014432575 0.0051513817 -0.018229196
0002a0 8b 55 b0 bc 0f 67 04 bc 7f 86 8d 3b 29 fc ae 3c
       -0.021525165 -0.008081212 0.0043190117 0.021360474
0002b0 34 21 8a bc fa f1 b1 bc c7 6a c0 3c f1 8d 55 bc
       -0.016861536 -0.021721829 0.023488415 -0.01303433
0002c0 5a 18 68 3c 8f f7 ba 3c 13 35 b1 bc d1 26 0d bd
       0.014165962 0.022823123 -0.021631753 -0.034460846
0002d0 64 c8 bb 3c 9b 8d b4 bc cc 31 03 3c 27 32 8d 3c
       0.022922702 -0.022040179 0.008007478 0.017235829
0002e0 7c f1 1f bd 75 43 52 bc a7 7c 53 3b f6 c6 2e bb
       -0.039048657 -0.012833466 0.0032270344 -0.0026668883
0002f0 56 c1 ed ba 29 21 4e bc 2f df a5 3b 92 05 f4 3b
       -0.0018139284 -0.012581148 0.005062006 0.007446953
000300 76 97 cd 3c 44 1d 31 3c 25 71 66 3c 13 3a 80 bc
       0.025096636 0.0108102 0.014065062 -0.015652692
000310 3d dc ec bb 68 a1 1d 3c ea 1f 24 3c da 74 10 3d
       -0.007228403 0.009621002 0.0100173745 0.03526769
000320 bb 3d cc 3b 62 7e fd 3b 4a 7b 60 bc 26 0c 2e 3b
       0.006232945 0.0077360133 -0.013701269 0.0026557534
000330 bd 9a e1 ba 68 bc 48 3b da a5 d1 bb 28 94 97 3c
       -0.0017212253 0.0030629877 -0.006397945 0.018503264
000340 3f 5f 2e 3c fe 93 15 3c 45 46 71 3c 20 a8 c8 39
       0.010642826 0.009129522 0.014726226 0.00038272236
000350 73 d4 bf 39 1d bb 1b 3c 5f c0 1a bd c5 25 b4 3c
       0.00036588646 0.0095050605 -0.037781116 0.021990666
000360 1f b0 bf 3c 14 51 a0 bc 83 66 cd bc 43 9d 47 3c
       0.02339941 -0.019569911 -0.025073295 0.01218349
000370 f2 d0 1e bc e3 ac d3 bb 76 83 eb bc b6 52 a0 bc
       -0.009693371 -0.0064598187 -0.028749209 -0.01957069
000380 22 7d bf bc 0f dc e5 bc 9c 2e b3 3b c9 5c a3 bc
       -0.023375098 -0.028059034 0.0054682028 -0.019941704
000390 4b 73 1b bc 64 f5 89 bc f4 65 d2 bc 49 0a b4 bb
       -0.009487937 -0.016840644 -0.02568338 -0.00549439
0003a0 36 83 43 bc a2 c5 09 3b fc 8c af 3b 65 33 d7 3c
       -0.011933139 0.002102234 0.005357383 0.026269624
0003b0 c4 09 dd 3c 26 04 94 3c 98 2a 99 3b a1 5c 83 3c
       0.026982196 0.018068384 0.004674267 0.01603538
0003c0 28 31 fa 3b 5f ec dc 3c f7 b8 bd 3b ce 0c 1f 3c
       0.0076352544 0.02696818 0.005789872 0.009707643
0003d0 4d 66 6f bc 3d 1c 30 bd 9b bb a1 bb 43 16 01 bb
       -0.014611793 -0.04299568 -0.0049356944 -0.0019697107
0003e0 b1 67 d4 3c 8c 81 0e bc a5 57 9a bc 71 b2 fe 38
       0.02592835 -0.008697879 -0.01884062 0.00012144901
0003f0 60 ee 53 bc 0b c5 1e bc 26 0a 42 bb df f9 e9 bc
       -0.012935251 -0.009690533 -0.00296081 -0.02856153

action_model._discrete_distribution.branches.0.bias f4 [2]
000000 90 b1 bf 3c 8f b1 bf bc
       0.023400098 -0.023400096

action_model._discrete_distribution.branches.0.weight f4 [2, 128]
000000 53 33 bf bc 29 f0 75 3c 17 8e 34 bd 59 7c 8a bb
       -0.023339903 0.015010872 -0.04408082 -0.004226249
000010 3b f3 89 bc 3b 0a b8 bc a2 00 4b bd 67 8e dc ba
       -0.016839614 -0.022465816 -0.04956115 -0.0016827107
000020 bf 83 9c bc 52 3b 22 bc c6 23 f6 bc f0 04 8c bc
       -0.01910579 -0.009901838 -0.030046355 -0.017092198
000030 d9 e0 09 bd 8e 4f ef 3b 49 2e f2 3c 15 33 a3 3b
       -0.033661697 0.007303185 0.029563086 0.0049804547
000040 2f 3b 0c bc 74 c0 dd 3c cc 6e 7c 3c dd fd 58 bb
       -0.008559032 0.027069308 0.015407275 -0.0033110299
000050 e7 1f 0e 3c 65 82 90 3c ec 47 cd 3b 92 b2 16 bc
       0.008674598 0.017640302 0.0062646773 -0.009197848
000060 2b 74 23 bc 36 b6 01 bc c0 dc 3a ba cc 77 47 bd
       -0.009976427 -0.007916978 -0.0007128231 -0.04869823
000070 8c 32 c7 bc eb 65 c5 3c 34 b2 58 bc ff 7d 82 3b
       -0.024316095 0.02409645 -0.013226081 0.003982305
000080 74 bf 77 3c 4e 5d 8b 3c 92 e7 a7 bc 28 55 9f 3b
       0.01512133 0.017012265 -0.020496164 0.0048624463
000090 a9 57 4d bd e2 90 f3 b9 2f d2 a9 bb 43 31 27 bc
       -0.050132427 -0.00046456518 -0.0051825265 -0.010204616
0000a0 64 06 81 bc 2c e1 17 bd f7 c0 f9 bc 34 2a a7 3c
       -0.015750118 -0.037079975 -0.03048752 0.020405866
0000b0 76 51 94 bc 42 50 ff bc ce 2f 64 bc 6e 29 18 bd
       -0.01810525 -0.0311662 -0.013927413 -0.037148885
0000c0 01 00 36 3c ce 4e 09 3c 24 02 96 bd 86 e6 04 3c
       0.011108399 0.008380605 -0.07324627 0.008111602
0000d0 52 10 e3 bb 59 6f 9d 3c 44 f5 5a bb e6 cf 83 3b
       -0.006929436 0.019218134 -0.003341035 0.004022586
0000e0 96 01 f4 bc 44 f9 f9 bc e2 df ac 3b cb 16 05 bc
       -0.029785912 -0.030514367 0.0052757123 -0.00812311
0000f0 23 03 e0 ba 96 61 d1 bc 31 a5 14 3d d9 7e e8 3b
       -0.0017090779 -0.025559228 0.03629035 0.0070951995
000100 78 e0 cb 3a b2 4a cd bb ea 4b 37 bc fd 35 d9 3b
       0.0015554568 -0.006265008 -0.011187533 0.0066287504
000110 54 38 06 bd 85 4c 1e 3d 44 17 88 bb 31 2b 3e bc
       -0.032768562 0.038647193 -0.004153164 -0.011606977
000120 83 be 5f 3c f1 99 08 bd 58 c1 26 3d 3f fc 09 3c
       0.013656261 -0.033349935 0.04071173 0.008421957
000130 7a 1c e8 3a 6e 8d c9 ba 8b 8e 31 3c 5f f1 b2 bc
       0.0017708682 -0.0015377232 0.010837208 -0.02184361
000140 4f 0e 8d bc b6 77 88 3b 39 d4 1e bc c8 88 dd bb
       -0.017218737 0.0041646613 -0.0096941525 -0.0067606904
000150 0b 91 0c 3c 10 1d 26 bd 38 06 1d bc 8f e7 1f 3d
       0.008579503 -0.04055506 -0.009584002 0.03903919
000160 2f 43 c9 ba b4 3b 58 ba 11 71 13 3a 00 29 83 3c
       -0.0015355105 -0.00082486426 0.0005624453 0.016010761
000170 3a 08 9e bc 77 ce 79 39 13 e1 3e b9 2c 06 64 3c
       -0.019291032 0.00023823405 -0.00018203659 0.013917487
000180 07 07 bf 39 98 9e b8 bc 8f d8 f3 bc 49 2d 94 3c
       0.00036435595 -0.02253656 -0.02976635 0.018088
000190 ca b2 6d 3b d3 fb bb 3b b0 11 43 3c b4 cd 37 bd
       0.0036269897 0.005736807 0.0119060725 -0.04487391
0001a0 e2 11 e2 3c ae 7f 9d 3b 1e 41 b0 bb 53 ee 84 bb
       0.027596418 0.0048064804 -0.0053788563 -0.004056731
0001b0 98 3b 45 3c db 3e 4f 3d b8 70 d3 bb 54 06 d9 3c
       0.012038134 0.050597053 -0.006452646 0.026492275
0001c0 fe 84 9f bc 25 c7 a9 3c 6b cb 50 bd 05 54 ff bc
       -0.019472595 0.020724842 -0.050975244 -0.031167993
0001d0 b2 ba 0d 3c b3 5f ab bc bb 03 83 bc 88 f5 83 3b
       0.008650469 -0.020919656 -0.01599299 0.0040270723
0001e0 db 40 f6 bc be 5a 65 bd 0b 13 91 3c c3 53 0d 3c
       -0.030060222 -0.05599474 0.017709276 0.008625927
0001f0 df 4b a1 bb 8f 9e e2 bc d7 ba 4c bc 66 2c 3d 3b
       -0.0049223746 -0.027663497 -0.012495718 0.0028865575
000200 b2 2b d7 3c ae ea d6 3b ca d5 1d 3d d6 54 9a 3b
       0.026265953 0.0065587377 0.038533963 0.0047098203
000210 2d 91 94 3c 13 b6 6e 3c ed 86 88 3d 9d 45 2c bb
       0.018135631 0.014569777 0.0666636 -0.002628661
000220 2d 3f 8b 3a 72 be 25 3a 7c 28 c1 3c 5b a9 14 3d
       0.0010623686 0.0006322629 0.023578875 0.036294322
000230 7e eb 09 3d 44 2d 84 bb 05 a5 0e bd 11 a1 e9 3b
       0.03367185 -0.0040337164 -0.034825344 0.0071297963
000240 2c 8a 9f 3c 10 33 1c bb 35 f0 24 3b 32 bc 0e bc
       0.019475065 -0.0023834147 0.0025167589 -0.008711861
000250 3b 9f 34 bc 6e e6 39 bc e5 c8 ae bc ca 5c cc 3b
       -0.011024292 -0.011346443 -0.021336028 0.0062366473
000260 b0 44 f3 3b 23 4d 67 3c c0 f0 47 3c 47 5d ec 3c
       0.0074239597 0.014117512 0.012203395 0.028853072
000270 9b f9 c4 3c 69 7d b8 bb 58 65 d1 38 53 8c 83 bc
       0.024044802 -0.0056301844 9.984773e-05 -0.016058123
000280 b8 81 d7 bb f8 f3 28 bd d1 93 6e 3c 1a eb c1 3b
       -0.006576743 -0.04124829 0.014561609 0.005917919
000290 01 c0 ef 3c 70 2f c1 3b 87 5c c3 3c d5 9e 4f 3c
       0.02926636 0.0058955476 0.023847831 0.012672146
0002a0 d7 63 9b 3b 77 16 b9 3c 40 e9 6a 3c e1 2c 0f bc
       0.0047421264 0.02259372 0.014337838 -0.008738727
0002b0 b7 07 91 3c 53 9d 4d 3d 96 61 b5 3c 82 80 5b 3d
       0.017703874 0.050198864 0.02214126 0.05358935
0002c0 a4 10 48 3b 31 2c 11 bc b3 44 9d 3d 78 c2 fd 39
       0.0030527497 -0.008860634 0.07679119 0.0004840081
0002d0 82 5b ad 3c 96 e8 e5 ba 00 65 25 3c 82 14 4e bc
       0.021161798 -0.001754063 0.010094881 -0.012578132
0002e0 48 bb 0e 3c f0 cb d2 3c 52 c9 6b bb b2 ae f5 3c
       0.0087116435 0.02573201 -0.003597815 0.029990528
0002f0 fc e6 1c 3c c4 92 81 3b 66 02 70 bd 62 f6 5c bc
       0.009576555 0.0039542634 -0.058596037 -0.013486477
000300 f2 ec e7 3b 23 c0 08 3c 9b c6 9e 3c 89 a0 f1 3b
       0.0070778066 0.00834659 0.019381812 0.0073738736
000310 08 7f 43 3d 32 65 25 bd ab 00 00 3b 93 d5 ad 3c
       0.04772857 -0.04037971 0.0019531648 0.021220004
000320 fa 00 24 3c 67 f7 ce 3c 87 d2 49 bd 8f 10 e2 3b
       0.010009998 0.025264455 -0.04927304 0.0068989466
000330 d0 c0 e6 bb d0 43 52 3c 8f c4 0f ba d4 40 ba 3c
       -0.007042028 0.012833551 -0.00054843066 0.02273599
000340 ab d1 56 3c 5e 6f 7c bc a1 89 8d 3c 39 a9 27 3c
       0.013111512 -0.015407411 0.01727754 0.010233217
000350 e4 4d 32 bc da 0e 48 3d 44 fc 52 39 2c f2 53 bc
       -0.010882828 0.04884229 0.00020121137 -0.012936156
000360 be 80 6c bc 93 14 65 3c 73 3b 8a 3b 83 c2 7e bc
       -0.014434991 0.013981956 0.0042185127 -0.015549305
000370 4e e4 5e 3c 1e bc 37 bb d8 38 1e 3c 2e 40 cd 3b
       0.013604237 -0.002803571 0.009657107 0.0062637543
000380 fc c2 94 bc b8 97 00 3d 02 75 4b 3d 85 f7 76 bc
       -0.018159382 0.03139469 0.049672134 -0.015073662
000390 f1 0f cd 3b 33 55 a0 bb 6e ac ab bb 5d ef fc 3c
       0.006258004 -0.004892969 -0.005239061 0.030875856
0003a0 56 6a 2c bd d0 22 31 bb 30 23 f7 3a 8d ea d7 3b
       -0.042093597 -0.0027028807 0.0018855091 0.00658924
0003b0 73 98 b0 bc ba c5 0e bd d7 16 ce bb 5c 48 40 bb
       -0.021557068 -0.034856535 -0.006289344 -0.0029340005
0003c0 85 c0 04 3d 5e 32 87 3c 10 01 ee 3c e0 0a 2c 3d
       0.032410163 0.01650351 0.029053241 0.04200256
0003d0 af 0a d2 bc 75 0c 80 3c 9a 97 03 3c 44 58 8a bc
       -0.02563986 0.01563094 0.00803175 -0.016887791
0003e0 48 f6 49 3d 3b 5f 80 3d cf 58 7c bc 35 fa 8b 3c
       0.049307138 0.06268164 -0.015402033 0.017087081
0003f0 53 7d c1 3c 6b bc 6b 3c bb 47 ba b9 ca df e4 3b
       0.02361933 0.014388184 -0.00035530128 0.0069846855

network_body.linear_encoder.seq_layers.0.bias f4 [128]
000000 13 e2 96 3a 69 5b 27 bc 39 f5 cc 3b a3 95 c1 3c
       0.0011511467 -0.010214665 0.0062548188 0.023630923
000010 68 36 c4 bb f1 ba 00 bc f2 91 73 3b 27 76 92 3c
       -0.005987931 -0.00785707 0.0037165848 0.017878605
000020 01 f7 a8 3b 5c ff 53 bb da fc 06 3d d5 20 f4 3b
       0.0051563983 -0.003234825 0.03295598 0.007450203
000030 b2 e0 19 bc c2 f6 29 3a 0f 53 fa 3b aa 1f d9 3a
       -0.00939195 0.0006483608 0.007639296 0.0016565223
000040 a2 44 92 3a 65 30 58 3c 63 f4 6b 3c 96 83 d8 bb
       0.001115937 0.013195132 0.014401528 -0.006607483
000050 27 63 42 bb ff e4 9d 3b aa 9c 24 bb 4a b3 41 3c
       -0.002966115 0.004818558 -0.0025117793 0.011822531
000060 a8 b7 8c bc 01 e0 d9 bb 10 fa 38 3b 48 1e 32 3c
       -0.017177418 -0.006649018 0.002822522 0.010871477
000070 87 8a 76 bc 19 21 b1 3b 18 bf bf 3b 40 dd fc 3b
       -0.015047676 0.005405557 0.0058516376 0.0077168047
000080 c8 e7 ba 3c 67 a2 54 ba e6 8a 05 3b e5 41 ac bb
       0.0228156 -0.0008111358 0.002037698 -0.0052568787
000090 7b 7b 20 3c 92 c7 1c 3c fb 0b f7 3a 30 6f 6f 3a
       0.009795065 0.009569066 0.0018848175 0.00091336947
0000a0 8f 49 c0 bc 10 c3 7b 3b 7c db 44 3c 0d 92 13 3c
       -0.023472575 0.0038415827 0.01201522 0.009006989
0000b0 a1 8b 68 3b af 22 e0 3b 86 59 2b 3c 21 b1 25 bb
       0.0035483616 0.006840072 0.010458356 -0.002528258
0000c0 12 a1 16 3c 25 05 42 3c 0f 61 13 3a 3c 7e 97 bc
       0.009193676 0.011842047 0.0005622068 -0.01849281
0000d0 d2 e1 5a bc df 2f 4f 3c 1b 10 b0 3b 6c 7d 23 3a
       -0.013359504 0.012645691 0.0053730137 0.0006236646
0000e0 f2 01 e7 bb ab d4 b2 3b d7 80 e4 3b 68 e1 40 bb
       -0.0070497924 0.005457481 0.0069733667 -0.0029431228
0000f0 19 bf 95 bc fd 00 8f 3c a0 dc 50 3b a5 d8 87 3a
       -0.018279599 0.017456526 0.0031869784 0.0010364248
000100 7e 00 47 bb b7 ca cf 3b 0e 4d 88 39 a0 52 fc ba
       -0.0030365284 0.006341304 0.00025997352 -0.0019250698
000110 89 2b a0 3c 71 bb dd bb 73 90 17 3c 50 08 09 3d
       0.01955201 -0.0067667295 0.009250748 0.033455193
000120 73 a1 85 bb 71 82 3f 3a 52 f7 fb bb 8b c8 c7 3b
       -0.004078084 0.0007305509 -0.007689395 0.0060969046
000130 f3 72 d2 bb 78 98 65 3b 09 b1 b1 3c ef 82 64 3c
       -0.0064223944 0.0035033505 0.021690862 0.013947233
000140 e1 81 3a bb 23 56 f2 3b 9d 7d b8 3b 3c 39 ff ba
       -0.0028458762 0.007395522 0.0056302086 -0.0019472013
000150 cb ee 48 bc 8d b5 06 3c ce 54 06 bb e8 df 8b bc
       -0.012263964 0.008221996 -0.0020497325 -0.01707454
000160 6d d9 1b 3c 90 c3 65 3c 7d c6 60 ba 9f 36 a7 bb
       0.009512288 0.0140236765 -0.0008574499 -0.005102947
000170 cc 11 9e bc eb 35 2c bb 9e 3f d8 3b 85 de 83 3c
       -0.019295596 -0.0026277255 0.0065993806 0.016097317
000180 ac 89 c2 bb 61 82 84 3c 56 27 29 bc a2 a7 e1 bb
       -0.005936822 0.01617545 -0.01032432 -0.0068864385
000190 8d 99 19 3c 66 c8 01 3c d8 f7 1b bc cd 02 c3 3c
       0.009374988 0.007921314 -0.00951954 0.023805046
0001a0 d9 19 23 bc bf 16 7a 3c d2 3e a9 bb d3 54 fe 3a
       -0.009954893 0.015264212 -0.0051649595 0.0019403942
0001b0 ef b7 b1 3a 18 33 0f bc 78 57 84 bc 8c 4d af 3c
       0.0013558845 -0.008740209 -0.01615499 0.021399282
0001c0 de 85 3c 3c d0 d5 a2 3b 9f de 73 bb 01 eb 04 3d
       0.011506526 0.004969336 -0.003721155 0.03245068
0001d0 58 08 24 bb 47 15 0a 3c ab b4 41 bb ff 99 20 3c
       -0.0025029387 0.0084279245 -0.002955715 0.0098023405
0001e0 e0 68 59 bc 2f fc ff 3b 8c 04 7c 3c 8e 8d bc 3b
       -0.013269633 0.007812045 0.015381943 0.0057541793
0001f0 f3 d3 6c bc c8 27 6f bb 55 5b 41 bc 56 a8 db bb
       -0.0144548295 -0.0036492217 -0.01180156 -0.006703417

network_body.linear_encoder.seq_layers.0.weight f4 [128, 30]
000000 5c 00 bc 3e 25 82 a8 bd 78 d1 93 3e b6 6f 86 bd
       0.36719024 -0.08227948 0.2887075 -0.06564276
000010 d6 af 3e 3c 2a 3d c0 3b 70 1f be be a3 1c 9d bd
       0.011638602 0.0058666663 -0.3713336 -0.07671478
000020 23 2b 0a 3e dd f8 0a 3d 39 69 9a 3e 9c f1 a7 3e
       0.13493018 0.03392874 0.30158404 0.3280152
000030 41 08 3c be 9f b0 91 bd 4b 7b 57 be b3 fc 9c be
       -0.18362524 -0.07113766 -0.21043126 -0.30661544
000040 a9 e6 68 bd e1 33 49 3e 88 c1 8a 3d 07 be 99 be
       -0.0568606 0.19648696 0.067751944 -0.30027792
000050 e0 0e 81 3d f0 e3 45 3c 13 26 3d be 5f 08 57 3e
       0.06301665 0.01207827 -0.18471555 0.20999287
000060 56 49 5c 3d 5d 0a 14 be 2e 24 85 3e b9 b7 99 bd
       0.053780876 -0.14457078 0.26004165 -0.075057454
000070 5e 01 f5 3d 6c 36 7d 3d c8 40 84 3e 5d a9 5c bd
       0.119631514 0.06181948 0.25830674 -0.053872455
000080 39 96 ed 3d c6 e0 0f 3e e0 46 8b 3d e5 ba ea be
       0.11600918 0.14050588 0.06800628 -0.45845714
000090 b8 6e 86 be 59 06 b1 be df e2 b0 3d 02 0b 21 3d
       -0.26256347 -0.34575155 0.08637022 0.03931714
0000a0 ab 68 f4 bc d3 13 fc 3c be dd 2a 3e 09 7a 8a 3e
       -0.029835066 0.030771172 0.1668615 0.2704623
0000b0 99 e8 b7 3c ff 2d 2b bd 4a f5 00 be cb f6 6b be
       0.022449778 -0.041791912 -0.1259357 -0.23043363
0000c0 45 69 0c be 51 34 2a be 5d 02 34 3d 31 67 f9 3d
       -0.13712032 -0.1662152 0.043947566 0.12177885
0000d0 0e 3f 27 3e 39 75 23 be 34 a9 23 3e 0a 2c b9 bc
       0.16332647 -0.15962686 0.15982515 -0.022604007
0000e0 f7 73 1f 3c c3 fd f6 bc 22 85 d3 bd 69 9b 3a be
       0.009732238 -0.0301503 -0.103281274 -0.18223347
0000f0 c2 6c 34 3e e3 b3 83 bd 70 5d be 3d b1 82 01 be
       0.17619613 -0.06430795 0.092951655 -0.12647511
000100 c3 97 29 3c d8 58 be bc 1b c6 c8 3a bf a9 ac be
       0.010351124 -0.023235723 0.0015317829 -0.33723256
000110 48 31 c3 be 02 af 27 bd 07 04 5d 3d 5c ed 57 be
       -0.38123536 -0.040938385 0.05395892 -0.21086639
000120 50 53 9d 3e dc 66 ec 3d b4 a9 7c 3c d1 17 50 3e
       0.30727625 0.11543056 0.01542132 0.20321585
000130 28 8a 67 3d 21 bd 8c 3d 65 85 50 3e ec d5 0d be
       0.05652824 0.06872011 0.20363386 -0.13851136
000140 f2 d6 6f bd 68 b8 14 3e a0 c1 56 bd e0 20 81 be
       -0.058554597 0.1452347 -0.05243075 -0.25220394
000150 6f df 7b 3d 9d d9 74 bd d1 a4 cf bd b5 8b da bd
       0.06149238 -0.059777845 -0.10138858 -0.10671178
000160 33 b3 fd bc 0c e2 e1 3d 29 04 40 3d 48 26 dc 3b
       -0.030969238 0.11029443 0.046878967 0.0067184307
000170 25 fb 64 3e 81 22 c9 3d f1 7c 1f 3e 3b 0e 91 3d
       0.22361429 0.09821034 0.15575005 0.07082792
000180 16 2c 91 3c 90 99 e7 3c ae af 87 3e 0b cb 31 3e
       0.017721217 0.028271466 0.2650122 0.17362611
000190 a6 06 61 be 09 0c d9 3d 76 ff 19 bc 95 bf 3e bd
       -0.21975192 0.10597999 -0.009399286 -0.046569426
0001a0 fb c5 9b be 95 65 42 bd be 03 1a be ca 31 bd bd
       -0.30424485 -0.047460157 -0.1504049 -0.09238012
0001b0 91 2a 15 3d 15 4b 0d 3c 3f c2 74 bd bc 5f 5f 3e
       0.036417548 0.008623858 -0.05975556 0.21813864
0001c0 ed e2 9d 3d 77 c5 23 3d 59 be 7a bd 3d 98 03 bd
       0.07709298 0.03998324 -0.061216686 -0.032127608
0001d0 32 0f ac be 29 87 93 3c f1 f1 d1 bc 7e 4c 10 be
       -0.33605343 0.018008785 -0.025628062 -0.1409168
0001e0 97 8c b6 3e 33 ac e7 bd 57 e7 47 3e f5 09 7e be
       0.35654137 -0.11312141 0.19521843 -0.24808486
0001f0 14 5b b8 3e 1d 86 0d 3e 80 5b 40 bd 8f 4e 84 bd
       0.36006987 0.13820691 -0.04696226 -0.06460296
000200 a1 99 89 be 88 93 32 3e 90 3b 32 3e 05 9e 25 3c
       -0.26875022 0.17439091 0.17405534 0.010108476
000210 82 3a c4 3d c0 0a 86 3e 11 d3 f1 bd 75 c5 7d 3c
       0.09581472 0.26180077 -0.11807836 0.015488972
000220 ea 00 4b bd 1a 32 12 3e 50 02 17 3e 3e 43 47 bd
       -0.04956142 0.14276925 0.14746976 -0.04864811
000230 59 53 54 be 16 b3 cf be bc 1e 8e 3e 07 6d a5 bd
       -0.2073492 -0.4056632 0.27757823 -0.08077436
000240 09 73 bc bd 23 02 86 3e d9 d7 c5 bd f6 d1 34 3d
       -0.09201629 0.26173505 -0.0966031 0.044145547
000250 6f 52 bd 3d b1 f3 94 3e d3 c4 0c be 99 87 4c 3d
       0.092442386 0.29092172 -0.13746957 0.049934004
000260 41 3b 20 bd 28 b2 b9 3c 94 09 93 bd 0d d1 fc 3d
       -0.03911901 0.02266796 -0.07179561 0.12344561
000270 cd 1a b6 bd 9d f5 8b bd a7 ac 7d be 4b 44 53 be
       -0.088918306 -0.068339564 -0.24772893 -0.2063152
000280 4f 17 e9 bd 2c 34 10 3f d0 bc a5 be 81 82 37 3e
       -0.11381399 0.5632961 -0.32370615 0.17920877
000290 5f 85 54 be e9 10 97 bd 24 9d a4 3d 2c c0 52 be
       -0.20754002 -0.07376272 0.08037785 -0.2058112
0002a0 c0 78 5f 3d d3 8c c8 3b 7d ec 27 bd ab 33 49 3e
       0.054558516 0.006120303 -0.040997017 0.19648616
0002b0 bd 8d 27 3d 23 e2 c0 bd 92 1e c9 3e c5 6d f0 3c
       0.040906657 -0.09418132 0.39281136 0.029349217
0002c0 83 8e ea bc 67 66 53 be f9 76 4b bc e4 63 02 3e
       -0.028632408 -0.20644532 -0.012418502 0.12733418
0002d0 e7 5c 5d be 67 8d 28 bd d7 54 de bd 3d 1c 2d be
       -0.2161747 -0.041150477 -0.10856026 -0.16905303
0002e0 fc 25 8c 3d 29 1f 25 be 1a ef 45 3e 13 72 32 bd
       0.068431824 -0.16125168 0.19329491 -0.04356582
0002f0 b3 8c 89 3e 05 90 b8 bd 9f 90 34 3e a6 03 50 3d
       0.26865157 -0.090118445 0.17633294 0.05078473
000300 70 37 e2 bc 36 64 9f 3d f0 cc a6 3c a6 43 9c 3c
       -0.027614325 0.077827856 0.020361394 0.019075226
000310 d4 90 9e 3e 92 78 1c be 89 9f 84 bd 12 12 63 bd
       0.3096987 -0.15280369 -0.064757414 -0.055437155
000320 42 63 5b 3e c7 24 81 3c 5e 21 a2 be f1 6d b9 3b
       0.21424583 0.015764607 -0.31666082 0.005658858
000330 f5 e1 78 3e ab 0d 0b 3e 00 c2 20 bd f9 ed 18 3e
       0.24304946 0.13579433 -0.039247513 0.1493453
000340 2b c9 21 3e 1a 76 ae bc 4c 33 5b 3e eb f9 de bc
       0.15799396 -0.02129655 0.21406287 -0.02721878
000350 65 45 9d 3e 59 c0 07 3e dd 77 f6 3a 22 3b 0c bd
       0.30717006 0.13256969 0.0018804033 -0.03423608
000360 4b 98 47 be 62 00 a6 bd 6a 75 66 be 78 1f 4b be
       -0.19491689 -0.08105542 -0.22505727 -0.19836223
000370 ee b1 1b bc 9f 56 35 3e f4 01 fb 3c ce 84 49 bd
       -0.009502871 0.17708825 0.03064058 -0.049198918
000380 26 48 28 bf 17 44 8d bd 74 83 eb 3d d9 3e 6a bd
       -0.6573509 -0.06897753 0.11499682 -0.057188842
000390 47 04 63 3d 4d 18 df 3d 07 f1 18 bd 74 ef 35 be
       0.055424 0.10893307 -0.037339237 -0.17767125
0003a0 83 b1 8c bd 75 04 d1 3e 95 ff 54 3e ed 11 3e bb
       -0.06869795 0.40823713 0.20800622 -0.0029002384
0003b0 70 58 de bd c2 44 08 bd 75 cb 55 be 9e 86 24 bd
       -0.10856712 -0.033268698 -0.20878394 -0.040167443
0003c0 21 ee 2c be c5 4b cf 3c 43 79 65 3d f2 c2 dd 3d
       -0.16887714 0.025304684 0.056023847 0.108281985
0003d0 1f 69 89 bc 4a 5a 41 3d 80 33 09 3e bf 32 f7 3d
       -0.016773758 0.047205247 0.13398552 0.12070226
0003e0 a7 07 29 bd a6 5a 9c be 6a 47 7c bc 0b ac 0a be
       -0.041267063 -0.3053791 -0.015397886 -0.13542192
0003f0 97 e1 5e 3e 89 5d 2e 3e 01 1e 3f 3d 5a 0f 78 3c
       0.21765743 0.17027868 0.046659473 0.015140379

network_body.linear_encoder.seq_layers.2.bias f4 [128]
000000 46 35 ac ba f1 99 33 3c cc 73 22 bb 0f 2f 49 bb
       -0.0013138435 0.010961995 -0.0024788259 -0.0030698215
000010 67 c5 83 3b c1 7a b9 bb ac ff d0 b9 31 37 a7 3a
       0.004021335 -0.0056603854 -0.00039863342 0.0012757537
000020 be 5e bb 3c b9 89 00 bc 00 60 c1 bc 83 5a bc 3c
       0.022872325 -0.007845336 -0.023605347 0.022992378
000030 35 26 f3 3a ae 32 16 bc b6 52 12 3c af 8c 75 3a
       0.0018550815 -0.009167356 0.008930853 0.0009366972
000040 39 35 43 ba 6c e9 c5 3c 5e ab a3 ba a1 51 2c bb
       -0.00074465905 0.024159156 -0.0012486984 -0.0026293772
000050 86 7e 1c 3c d5 d2 74 3c 2c f5 1e 3c 2e 0a 3f bc
       0.00955165 0.014942844 0.009702008 -0.011660142
000060 ae 8b 39 3c db c9 f8 bb 65 60 31 3b a4 b7 03 ba
       0.011324806 -0.0075924224 0.0027065512 -0.0005024618
000070 64 05 9d 3b 8a d3 cf 3b e5 d6 e9 39 b5 61 b8 3a
       0.0047919024 0.006342356 0.00044601332 0.0014067205
000080 87 ef 22 3c f1 52 74 3c b8 97 8a bc 12 6a d2 b9
       0.009944803 0.014912353 -0.016918048 -0.0004013335
000090 8a b7 0b bb 05 b3 98 b9 ff a2 bc 3a 30 f9 16 3c
       -0.0021319115 -0.0002912508 0.0014391838 0.009214684
0000a0 45 d3 20 bb 54 5d bf bb ff d3 80 bc 2d f0 11 3c
       -0.002453999 -0.005839983 -0.015726088 0.00890736
0000b0 ad b8 66 3b 2e 6c 4b 3b 2c c7 ef bc 88 ee 12 3c
       0.003520529 0.0031039822 -0.029269777 0.008968003
0000c0 bc 9c bf 3b 99 b9 f2 bb 13 c6 b9 3b 0a 9d e9 3a
       0.0058475416 -0.007407379 0.0056693642 0.001782329
0000d0 df 61 83 bb 48 30 11 bc 1b a4 ec 3a 69 a2 46 3c
       -0.00400947 -0.008861609 0.0018054278 0.012123683
0000e0 1b 8b ea ba 8f a9 eb 3a 7b 66 40 3c 14 79 08 bc
       -0.001789424 0.001797961 0.011743183 -0.0083296485
0000f0 a1 9a 39 3b 3e 0d 3b bc 59 96 08 3d 00 ca b2 3a
       0.0028320926 -0.011416731 0.033346508 0.0013640523
000100 bc 11 8c b9 95 b9 7e ba ae 10 c9 ba 56 c0 bc 3b
       -0.00026716094 -0.0009716985 -0.0015340054 0.005760233
000110 f3 45 58 bc 15 42 04 3d 33 c5 22 3c 6c 44 47 3c
       -0.013200271 0.032289583 0.009934711 0.012162309
000120 05 3c 8e b9 52 47 6a b9 3b 76 f9 3c 10 2b bd b9
       -0.0002712907 -0.00022342548 0.030451884 -0.00036080973
000130 66 2a 22 3c 0e 09 ab bb 94 14 b8 3b bf 6b fc bb
       0.009897804 -0.0052195853 0.0056176875 -0.007703274
000140 3d f9 9b b8 c6 42 a7 3c 19 ec cc 3a 8a 44 e2 bb
       -7.4374e-05 0.020417582 0.0015634327 -0.006905143
000150 bc f4 92 3c 5f 7b ec bb 9f b6 4d 3b de 05 cb 3c
       0.017938964 -0.0072168554 0.0031389368 0.024783071
000160 5e 39 83 3b 6e b9 6f ba d9 e3 1e bc 64 f0 bc 3c
       0.0040046414 -0.00091447576 -0.009697878 0.023063846
000170 4f 6e 55 bc bd 49 99 3b b2 cb a7 ba 1d ae 13 bc
       -0.013026788 0.0046779797 -0.0012801795 -0.00901368
000180 1e 00 ff 3b d1 23 30 bc 8e 9c 5f 3b db a8 bc 3b
       0.0077819964 -0.010750727 0.0034120413 0.005757434
000190 c1 61 47 bc 6f 20 c4 3b c5 8a 27 3c 06 a0 bd 3b
       -0.012169302 0.0059853117 0.010225956 0.0057868985
0001a0 2b df e0 3c 79 fd 30 3b b1 73 eb bb 91 e4 2f 3c
       0.027450165 0.002700655 -0.0071854223 0.010735647
0001b0 a1 89 44 3c e3 3f f4 3c 4f 01 2f bc c0 7c 45 ba
       0.011995704 0.02981562 -0.010681464 -0.0007533543
0001c0 53 84 30 bc 2c e7 30 bb d2 f3 da 3b 33 e4 ef bb
       -0.010773736 -0.0026993258 0.0066818977 -0.0073209046
0001d0 82 0b 25 bb 48 34 97 3a 6d 77 61 bc fe 24 5c 3c
       -0.002518386 0.0011535967 -0.0137613835 0.013436554
0001e0 e9 84 a5 b9 43 44 f9 bb b5 40 10 3c fe 45 67 bb
       -0.00031570278 -0.0076070144 0.00880449 -0.0035289521
0001f0 07 a6 26 bc 56 41 f6 ba 70 4a 57 3a 6d 64 9f bb
       -0.01017142 -0.0018787782 0.0008212691 -0.0048642666

network_body.linear_encoder.seq_layers.2.weight f4 [128, 128]
000000 3d ac 14 3d b3 33 2c bd 88 72 8e bd 4a 24 87 bd
       0.03629707 -0.04204149 -0.06955439 -0.065987185
000010 ab cb 29 3d 79 24 4e bd fd cd e8 3d 3d b1 7a bd
       0.041454 -0.05032775 0.11367414 -0.061204184
000020 74 c1 4f 3c 50 08 db 3d c0 0e cc bd b2 ec 8e bc
       0.0126804 0.10694945 -0.09963751 -0.01744685
000030 c3 38 3b bd 9c 6c d0 3d be b3 99 ba ca 44 6b 3c
       -0.04570843 0.101769656 -0.0011726541 0.014359662
000040 6e 80 ae bd 9f 96 d0 bd be be ed bd 04 04 b6 3d
       -0.0852059 -0.10184979 -0.11608647 0.08887485
000050 d3 18 4e bd b1 39 43 3e aa 97 31 3c cd ab 28 bd
       -0.050316643 0.19064976 0.010839382 -0.041179467
000060 62 2b 94 3c c6 50 ee bd ce 59 dd 3d 04 ca 4e bd
       0.018087093 -0.116365 0.108081445 -0.050485626
000070 5b 76 0c bd 04 6a 04 be 98 33 f8 bc f8 32 84 3c
       -0.03429256 -0.12931067 -0.03029804 0.016137585
000080 dd 7d cd 3c 8f b3 4e 3d 49 50 04 bd 7f bc 27 bd
       0.02508443 0.05046421 -0.03230313 -0.04095125
000090 f2 22 59 bc f6 8e 9e bd 71 c8 3f bc 48 2d b2 bd
       -0.0132529605 -0.077421114 -0.011705504 -0.08700043
0000a0 12 ce b0 bc a1 cd 59 bc ae 73 f0 bd b1 16 d8 3d
       -0.021582637 -0.013293655 -0.11740814 0.10551203
0000b0 f4 05 dd bc b4 9e 61 bd 20 3e 54 3d f0 2c cf 3c
       -0.026980378 -0.05508299 0.05181706 0.025289983
0000c0 e6 12 ce bd 67 be 16 be 98 1e e9 3d 91 c9 7c bc
       -0.10062198 -0.1472107 0.113827884 -0.015428917
0000d0 12 b9 48 bc 4a ca 94 3c c9 8a 15 bc 20 a4 1e 3d
       -0.012251155 0.018162865 -0.009127327 0.03873074
0000e0 cc 64 0f 3d a3 18 b2 3d e7 24 37 3e ac 8b 47 be
       0.035008237 0.08696105 0.17885171 -0.19486874
0000f0 ea e7 d1 bd 14 81 bd 3d a9 9c 3f 3e 12 9d 90 3d
       -0.10249312 0.09253135 0.18712105 0.07061209
000100 a0 ef 18 3d 64 22 a0 bc e5 96 c1 bc 0d 5d 84 3d
       0.0373379 -0.019547649 -0.023631522 0.064630605
000110 3c 00 dc bd dd 9f 38 3d cf 5f 71 bc 86 b6 55 bb
       -0.10742232 0.045074333 -0.014732315 -0.0032610013
000120 a6 3b c4 bd d6 3d dc bd 43 02 8a 3d 2a bc 8b 3d
       -0.095816895 -0.10753982 0.06738713 0.06822999
000130 8c e5 70 3d 91 e2 28 bd 64 f1 f5 3b 12 2d ee bd
       0.058812663 -0.041231696 0.0075055826 -0.1162969
000140 a1 0a 87 3d d4 95 fe bd 92 ed 83 bd f0 2d 91 3d
       0.06593824 -0.12430921 -0.06441797 0.0708884
000150 46 f7 36 bd 3c 7b 01 be c4 87 2e 3d 47 c2 1b 3e
       -0.044669412 -0.12644666 0.042609945 0.1521083
000160 c0 06 3c 3d 6b dc be 3d 32 00 ac bd d8 f8 51 3e
       0.045904875 0.09319385 -0.08398475 0.20505083
000170 58 5f 06 3e 96 cb 8e bd 93 ad 69 3e 7a b0 38 bd
       0.13122308 -0.06972425 0.2282012 -0.045090176
000180 af 55 2b bb d3 ac 69 bc 4b 60 4c 3d 2c a8 a1 3d
       -0.00261436 -0.014262396 0.04989652 0.07893404
000190 9f 08 da bd 50 8f d7 bd 22 c0 bc 3c d0 b7 07 3d
       -0.106461756 -0.105253816 0.023040835 0.03313428
0001a0 b5 4b 04 be dc e7 83 bd 5b b5 ab bd 3c bc 7a bd
       -0.12919505 -0.06440708 -0.083842 -0.06121467
0001b0 0e 92 4b bd af ea e2 3d 12 9c 3d 3d 09 86 ca bd
       -0.049699835 0.110799186 0.04629142 -0.098888464
0001c0 3c 8a 18 bd 30 a5 48 3d e8 20 b5 3b 64 23 09 3d
       -0.037241206 0.04898566 0.0055276044 0.033481017
0001d0 ec 9d 37 bd e2 d6 17 3d 49 8b d0 3d e1 ca 87 3d
       -0.04482834 0.037070163 0.101828165 0.06630493
0001e0 cc ad 12 3e 44 fd c2 3c de 1f 41 3d 66 be 49 be
       0.14324111 0.023802407 0.04714953 -0.19701537
0001f0 16 87 bd bc 8a d6 ca 3b 26 75 45 3e cf 70 0b 3c
       -0.023135703 0.006190126 0.1928297 0.008510782
000200 bb 97 36 3c 47 8d b2 3c 1c 5f c1 bd 55 16 2f bd
       0.011144574 0.021795882 -0.09441969 -0.042745907
000210 f1 b0 d3 3d e4 ed a7 3c cc 34 35 3d c9 01 b6 bc
       0.10336483 0.020499177 0.044239804 -0.022217648
000220 0e b5 66 3c ac d8 8f 3b 6c 9d 0c bd a6 7c 16 3d
       0.014081253 0.004389843 -0.034329817 0.036739968
000230 56 cf e1 bd 40 dd 50 bd 5e f0 d1 3c 63 3d 65 3d
       -0.11025874 -0.05099225 0.025627311 0.055966746
000240 26 b0 06 3e 44 43 8c bd 1c a6 5d 3d fa df d0 bc
       0.13153133 -0.068487674 0.054113492 -0.025497425
000250 b3 80 8f bd 18 ab 1e 3e 73 e8 31 3c 26 c5 c7 bb
       -0.07006969 0.15494955 0.010858643 -0.0060965
000260 4e d1 dd 3d 6e ba 5b 3d 37 6f 29 3d 00 2a a4 bc
       0.10830937 0.05364459 0.04136583 -0.020039558
000270 3f 6a 8c bc a4 e2 76 bc fa 58 6f bd 3f 0a cb 3d
       -0.017140506 -0.015068684 -0.058434464 0.09914064
000280 5a ac 5d 3d 42 3d cf 3c 45 57 bf 3d b1 89 72 3d
       0.054119445 0.025297765 0.09342817 0.059213344
000290 fd fe 75 bd 10 a4 7c bd 3e 93 87 3c 45 f3 c6 3c
       -0.06005763 -0.0616799 0.016549703 0.024285922
0002a0 33 fd 33 3d 75 bc d8 bd d1 b7 24 bd b3 39 23 3d
       0.04394264 -0.1058282 -0.040214363 0.03984995
0002b0 49 b0 7f 3c 80 b4 89 3c 3f ee 92 3d 93 6a 8b 39
       0.0156059945 0.016809702 0.07174348 0.0002659155
0002c0 92 79 d1 bd 4c a1 0d 3d 52 0f 0c be 2d 7e 21 be
       -0.10228266 0.034577653 -0.13677719 -0.15770788
0002d0 cc d3 79 3d 3f 68 81 3d 4a 2f a0 bc 7d 44 0a be
       0.060993 0.063187115 -0.0195538 -0.13502689
0002e0 fc 04 b8 bd 53 7f 8b 3d 1a 94 2d be ec b0 3e 3d
       -0.08985326 0.068113945 -0.16951028 0.046555445
0002f0 1e 10 f9 3c 54 bd d1 3d d9 c5 34 3e af ec cc bd
       0.030403193 0.102411896 0.17653598 -0.10006081
000300 31 15 3f 3c e8 40 ce 3d 00 60 5a 3d 11 e5 cc bc
       0.011662767 0.10070974 0.05331421 -0.025011571
000310 9f c9 b4 bd c1 61 45 3d cc 87 91 bc d5 2f 5e be
       -0.08827519 0.04818893 -0.017764948 -0.21697934
000320 5d e9 ca bb a0 67 39 bd 5b ac 0f be 55 24 88 3c
       -0.00619237 -0.04526484 -0.14030592 0.016618887
000330 ca 6c cc bc ef 2c e9 3c 19 b9 e9 3a 57 eb 42 3e
       -0.024954218 0.028463809 0.0017831653 0.19035088
000340 08 39 aa bc d1 ae 63 bd 1d 78 89 3e 11 09 8f bc
       -0.020779148 -0.05558664 0.26849452 -0.017460378
000350 40 97 0a bd 33 22 a9 bd 8f ab 66 3b e5 3e 9a 3c
       -0.03383565 -0.08258476 0.0035197472 0.018828819
000360 ff 1b bd bd 03 88 89 3d 6a cb 50 b8 e6 c9 b1 bd
       -0.092338555 0.06715395 -4.978051e-05 -0.08681087
000370 5e 48 0a 3c a6 e2 fd bd f3 02 34 be bb a7 9d bd
       0.008440105 -0.123967454 -0.1757925 -0.07698008
000380 7b 6b e0 bc 55 89 43 be de da 95 bd a0 b7 da 3d
       -0.027395 -0.19095357 -0.07317136 0.10679555
000390 fe 4d 05 3e ff ca 76 bd 0f ca 3d 3d 6e 04 fb bd
       0.13018033 -0.060252186 0.046335276 -0.12256704
0003a0 c0 e5 a0 bd 05 1a dd 3d 9a e3 7c 3d 60 bb 6f 3d
       -0.07856321 0.107959785 0.061740495 0.058528304
0003b0 6b 52 1e 3c b8 5e 8b 3d 99 c4 68 bd e3 2d 86 3d
       0.009663205 0.068051755 -0.056828115 0.06551721
0003c0 43 4d 05 3d b8 e5 00 3e e2 b3 d1 bc 7a 89 9d 3d
       0.032544386 0.12587631 -0.02559847 0.07692237
0003d0 d0 d6 4e 3e 3d 1e 5d bd b8 2c c2 bd d5 e4 62 3e
       0.20199132 -0.053983916 -0.09481186 0.22157605
0003e0 fe b2 3d 3d cc 66 5d bd 2f 9d 9d 3c 1a c4 28 3d
       0.04631328 -0.054053113 0.01923999 0.041202642
0003f0 5d db a9 3d 80 30 e0 bd 82 44 dc bd ea 71 1b 3d
       0.08293793 -0.10946751 -0.10755254 0.037950434
