results/ppo/Car Agent/Car Agent-241597.onnx (onnx, 76114 bytes, 9 tensors)

action_model._continuous_distribution.log_sigma f4 [1, 2]
0	0x3cc867a3	0.02446348
1	0x3d1e9847	0.03871944

action_model._continuous_distribution.mu.bias f4 [2]
0	0xbb7aa932	-0.003824782
1	0x3ca10e05	0.019660005

action_model._continuous_distribution.mu.weight f4 [2, 128]
0	0x3d1c0d00	0.038098335
1	0x3cd86b2d	0.026418293
2	0x3d00d9ed	0.03145783
3	0x3c0b8597	0.008515737
4	0xbacb4c5c	-0.0015510428
5	0x3b2799b6	0.0025573797
6	0x3b9a0049	0.004699741
7	0x3c267066	0.010158634
8	0x3c5ccbcd	0.013476324
9	0xbcf7a9e6	-0.030232381
10	0xbc74f2ea	-0.014950493
11	0xbc849076	-0.016182166
12	0xbcd24627	-0.025668217
13	0xbd0a1db6	-0.03371974
14	0x3a92fce6	0.0011214286
15	0x3ae61f6f	0.0017556975
16	0x3b524fc6	0.0032091006
17	0x3ce568e5	0.02800412
18	0xbbd2c3b1	-0.0064320196
19	0xbc90a79c	-0.017658047
20	0x3c365c3a	0.011130387
21	0x3cc7cc44	0.024389394
22	0x3caef2fe	0.021356102
23	0x3c9be363	0.019029325
24	0x3c1d9238	0.009617381
25	0x3b03857b	0.0020068574
26	0x3d04bd36	0.032407008
27	0x3c2e9c37	0.010657362
28	0x3c4cb366	0.012493944
29	0x3bfb125d	0.007662101
30	0xbba3adc2	-0.004995079
31	0x3c3e264d	0.011605811
32	0xbcb170a8	-0.021660164
33	0x3c2a115e	0.010380117
34	0xbc9826ab	-0.018573126
35	0x3c846f47	0.016166342
36	0x3d3959ad	0.045251537
37	0x3c124f4d	0.00893004
38	0xbc5a7de1	-0.013335676
39	0x3c31f946	0.010862654
40	0x3bec623f	0.0072138603
41	0x3ccbab23	0.024861878
42	0x3cabff1f	0.020995675
43	0x3c2efa8a	0.01067985
44	0xbcb12805	-0.021625528
45	0x3cba832a	0.022767622
46	0xbb77a0e3	-0.0037785105
47	0xbcc35e42	-0.023848657
48	0x3b26f265	0.0025474068
49	0xba26db9b	-0.0006365121
50	0xbcfe8dc9	-0.031073468
51	0xbb12ce71	-0.002240088
52	0xbc5e22ad	-0.013558072
53	0xb9726ccf	-0.00023119453
54	0x3cacf6de	0.02111381
55	0x3c933025	0.017967293
56	0x3cc6292d	0.024189556
57	0xbd0d24af	-0.034458812
58	0x3d24514c	0.040116593
59	0xbc54a514	-0.012978811
60	0x3ca237e4	0.019802041
61	0x3d28d64a	0.041219987
62	0xbaad8467	-0.0013238312
63	0xbbd9d7d4	-0.006648043
64	0xbcbc0db1	-0.022955747
65	0xba859f18	-0.0010194508
66	0xbcca461d	-0.024691636
67	0x3c4306f1	0.01190351
68	0x3cb6f8a3	0.022335356
69	0x3c9626bc	0.018329017
70	0x3d1d4d6e	0.03840392
71	0xbc251ad4	-0.010077197
72	0x3c6e9c98	0.014563702
73	0x3d02bc63	0.03191794
74	0x3c1352e0	0.008991927
75	0xbae9bd4c	-0.0017832904
76	0x3d296439	0.041355345
77	0xbc70bf64	-0.014694069
78	0x3cb221bd	0.021744603
79	0x3b889b50	0.0041689053
80	0x3ceaff18	0.028686091
81	0xbc4b3e1e	-0.012404947
82	0xbc5dac2f	-0.013529821
83	0x3c834679	0.016024815
84	0x3c3ae8b4	0.01140802
85	0x3ccd77cf	0.025081543
86	0x3b0a4826	0.0021100133
87	0x3c15efc3	0.009151402
88	0x3c05b680	0.008161187
89	0x3cbbba5a	0.022916008
90	0x3b86832f	0.004104994
91	0xbb866fe3	-0.0041026934
92	0x3c1d498f	0.009600057
93	0xbd260b29	-0.040537987
94	0xbc4ecaa5	-0.012621556
95	0xbd09f2a6	-0.033678673
96	0x3babbe26	0.0052411733
97	0x3ba36099	0.0049858806
98	0x3c8e0fee	0.01734158
99	0x3cf55a04	0.02995015
100	0xbcbfd8fe	-0.0234189
101	0xbb71bc14	-0.0036885785
102	0x3d25b354	0.040454224
103	0x3c63b58c	0.013898265
104	0xbcd36cce	-0.025808718
105	0x3be15abf	0.006877273
106	0x3cb853ac	0.022500835
107	0x3d15b670	0.03655094
108	0x3c4b1b3d	0.012396631
109	0x3d0597f8	0.03261563
110	0x3ce9720e	0.028496768
111	0x3cc5552b	0.024088463
112	0xbc9afb40	-0.018918633
113	0xbc896b22	-0.016774718
114	0x3c347501	0.011014224
115	0x3c8ec92c	0.01742991
116	0xbc8f18d8	-0.017467901
117	0x3b00184c	0.0019545732
118	0x3cb079f6	0.02154253
119	0xbb7e5304	-0.0038806805
120	0xbd2379b6	-0.039910994
121	0x3d06a00e	0.032867484
122	0xbc754580	-0.014970183
123	0x3c55a7c8	0.01304049
124	0xbd031adf	-0.03200805
125	0x3ca3ff3b	0.020019164
126	0x3c25de63	0.010123822
127	0x3caa2572	0.020769808
128	0xbb8500ae	-0.004058919
129	0x3d09844e	0.03357344
130	0xbc18cebc	-0.009326633
131	0x3bebbc8d	0.007194108
132	0x3cb641f7	0.022248251
133	0xbc961e50	-0.018325001
134	0xbaafd40d	-0.0013414636
135	0xbd276210	-0.040865004
136	0xbd9d51e1	-0.07681633
137	0xbbae7206	-0.0053236512
138	0x3c871daa	0.016493637
139	0xbcd2390e	-0.025661971
140	0x3c2517db	0.010076488
141	0xbb044590	-0.0020183064
142	0x3c00d472	0.007863151
143	0xbcaaefe2	-0.020866338
144	0x3c803ce8	0.015654042
145	0xbc732fd9	-0.014842951
146	0xbc62e709	-0.013849028
147	0x3cdf6d19	0.027273702
148	0x39b3e666	0.000343132
149	0x3c37ac2e	0.011210484
150	0x3bc160f9	0.0059014526
151	0xbd1fbe50	-0.038999856
152	0xba97b031	-0.0011572895
153	0x3ce6c3f5	0.028169611
154	0xbc4c5353	-0.012471038
155	0xbc1fc811	-0.009752289
156	0xbc3467c8	-0.0110110715
157	0xbb913e9e	-0.0044325134
158	0x3cb8a1d4	0.022538103
159	0x3c0c86e7	0.008577085
160	0xbc9c920a	-0.019112606
161	0xbc6f9a5e	-0.014624206
162	0xbc021a79	-0.007940882
163	0xbc2ee7d3	-0.010675388
164	0x3cde46ac	0.027133308
165	0x3cb0ce40	0.021582723
166	0xbc23af7e	-0.009990571
167	0xbce9d2f6	-0.028542977
168	0x3b7448c8	0.0037274826
169	0x3c868d5e	0.016424831
170	0x3b297d4d	0.0025862039
171	0x3c5c8471	0.013459311
172	0xbc8c6df9	-0.017142283
173	0xbccf1772	-0.025279734
174	0xbbbbc87b	-0.0057306862
175	0xbafc10ee	-0.001923112
176	0x3ca66bc8	0.020315066
177	0xbc2edfcb	-0.010673474
178	0x3985bd41	0.00025508742
179	0x3c8d766f	0.017268388
180	0x3c573b85	0.013136749
181	0xbc7cced5	-0.015430172
182	0x3d1dc484	0.03851749
183	0xbc9470f6	-0.01812027
184	0x3c83b469	0.016077237
185	0x3c80bb93	0.015714442
186	0xbc27fb7a	-0.010252828
187	0xbc8153d8	-0.01578705
188	0x3ce00636	0.027346712
189	0x3cd2f41c	0.025751166
190	0xbcdd04fb	-0.026979914
191	0x3d35678e	0.04428821
192	0xbcb54a5c	-0.022130184
193	0xbcd69d3d	-0.026198024
194	0xba718a3c	-0.0009214019
195	0xbd13968a	-0.036032237
196	0xbb83d4a8	-0.0040231533
197	0xbd4b7594	-0.049672678
198	0x3cae4fb6	0.021278244
199	0xbbc1d884	-0.0059157033
200	0x3c29ee0f	0.010371699
201	0xba5c367a	-0.00084004516
202	0xbce70c1a	-0.028204013
203	0xbc8cfaad	-0.017209375
204	0x3c076671	0.00826417
205	0xbc547ba0	-0.012968928
206	0xbc255c0e	-0.010092748
207	0xbd8793f5	-0.066200174
208	0xbc46f214	-0.012142677
209	0x3c77f91f	0.015135079
210	0xbd112a84	-0.035440937
211	0xbc69102d	-0.014225048
212	0x3cba978a	0.022777338
213	0xbcc25c03	-0.023725515
214	0x3d270bc4	0.040782705
215	0xbb004a6b	-0.0019575607
216	0x3ba7c0c5	0.0051194155
217	0x3ad41509	0.0016180585
218	0x3c15bd9e	0.009139447
219	0xbc0bb39b	-0.008526708
220	0x3c2aea84	0.010431889
221	0xbc12be61	-0.008956523
222	0xbd25353c	-0.04033397
223	0x3c7b40ff	0.0153353205
224	0xbccbb9d9	-0.024868893
225	0xbc83b45e	-0.016077217
226	0x3b13a4c5	0.002252863
227	0x3bbd07c3	0.0057687475
228	0x3c50c2be	0.012741743
229	0xbb8f2fc1	-0.0043697064
230	0x3c90ca59	0.017674612
231	0x3ce63d33	0.028105354
232	0x3cf98790	0.030460149
233	0xbc948ece	-0.0181345
234	0xbbf2c917	-0.0074092257
235	0xbadef12d	-0.0017009132
236	0xbccc7e2e	-0.02496251
237	0xbb7811f0	-0.0037852488
238	0xbcea1635	-0.028575042
239	0xbd0ed7c8	-0.034873754
240	0xbb8b9b34	-0.004260445
241	0x3ad05c13	0.0015896581
242	0xbc91e7f9	-0.017810808
243	0xbcb59cca	-0.02216949
244	0xbbb2f89b	-0.005461765
245	0xbbc02735	-0.005864049
246	0xbb8ce1aa	-0.004299362
247	0xbcdefaa0	-0.027219117
248	0x3b10973d	0.0022062801
249	0xbbc16d58	-0.0059029274
250	0xbd0753c7	-0.03303888
251	0x3c8fb675	0.017543057
252	0xbcfb36e6	-0.030665826
253	0x3c256e18	0.010097049
254	0x3c8b79d9	0.017025875
255	0xbc73a850	-0.014871672

action_model._discrete_distribution.branches.0.bias f4 [2]
0	0x3c1caff8	0.009563439
1	0xbc1caffa	-0.00956344

action_model._discrete_distribution.branches.0.weight f4 [2, 128]
0	0xbca6be17	-0.020354314
1	0xbc61132f	-0.013737484
2	0xbaff842a	-0.0019494344
3	0xbcddea88	-0.027089372
4	0xbbd4baf3	-0.0064920126
5	0xbc6479ef	-0.013945087
6	0xbbc55fd0	-0.0060233846
7	0x3b08eb78	0.0020892303
8	0xbc8c6a1f	-0.017140446
9	0xbb9e0b84	-0.00482315
10	0x3b66802e	0.0035171616
11	0xbb768635	-0.0037616615
12	0x3ae0b8d3	0.0017144926
13	0x3bed44e7	0.00724088
14	0xbcc06f57	-0.023490591
15	0x3c188780	0.0093096495
16	0xbc3ad8dd	-0.011404243
17	0x3bca9afb	0.006183026
18	0xbc09d8f8	-0.008413546
19	0xbc17cbf3	-0.009264934
20	0xbc0825c9	-0.00830979
21	0x3c3c1e5a	0.011481846
22	0xbba315fc	-0.004976986
23	0x3c53d18e	0.01292838
24	0xb859841f	-5.185988e-05
25	0x3a3bcede	0.00071643095
26	0x3ad56c6a	0.001628292
27	0xbc8ae081	-0.016952755
28	0x3baa12ae	0.005190215
29	0xbc1f3a95	-0.009718557
30	0xbb2d45e3	-0.002643936
31	0x3bc8d2a5	0.0061286264
32	0xbbb2da73	-0.00545817
33	0xba8dd047	-0.0010819518
34	0x3c36bea2	0.011153849
35	0xbc974046	-0.018463265
36	0xbbcb8873	-0.0062113344
37	0x3c00b972	0.007856714
38	0x3c03f0d4	0.008053023
39	0xbb286746	-0.0025696321
40	0xbc39e763	-0.011346671
41	0xbb9fe8e4	-0.0048800576
42	0xbbce87f4	-0.006302828
43	0xbca8179a	-0.020519067
44	0xbb805941	-0.00391689
45	0x3a987987	0.0011632898
46	0xbc8b16c1	-0.016978623
47	0xbbd4f22d	-0.006498596
48	0x3be3c5f0	0.006951086
49	0xbcb611b7	-0.022225244
50	0x3b3eb14c	0.0029097376
51	0x3aca7507	0.0015446254
52	0x3b565b6b	0.0032708298
53	0xbb6865b5	-0.0035461013
54	0xbcac0406	-0.020998012
55	0x3c0f45dd	0.008744684
56	0xbc06ee56	-0.008235535
57	0xbbc0d4c1	-0.0058847372
58	0xbc572e90	-0.01313366
59	0xbca0be01	-0.01962185
60	0xbc727252	-0.014797764
61	0x399097b3	0.00027578845
62	0x3c58ab95	0.013224502
63	0x3ae08e30	0.0017132219
64	0x3c6d3c8f	0.01447977
65	0xbc2d26e7	-0.010568357
66	0x3bb67f8f	0.0055694054
67	0xbae4139f	-0.0017400867
68	0x3bff32db	0.007788045
69	0xbc007c1e	-0.007842092
70	0xbc137636	-0.009000352
71	0xbc8e9cd6	-0.01740877
72	0xbc4e372a	-0.012586394
73	0x3c235018	0.009967826
74	0xba901b20	-0.0010994412
75	0xbb2da8f1	-0.0026498402
76	0x3aa99491	0.0012937953
77	0x3c73f0b9	0.014888936
78	0xbb1a00bf	-0.002349898
79	0x3b64d264	0.0034915442
80	0xbb9b197e	-0.0047332635
81	0x3b6f0194	0.0036469446
82	0xbb43dd6e	-0.002988662
83	0xbb6ed656	-0.0036443672
84	0x3ba424cf	0.0050092707
85	0xbc7f3a1e	-0.015577821
86	0xbb4490c3	-0.0029993511
87	0xbc48efcc	-0.012264203
88	0xba117333	-0.0005548477
89	0x3baa33fb	0.005194185
90	0x3b732cdb	0.0037105593
91	0xbc686e05	-0.014186387
92	0x3c0c7f71	0.008575306
93	0xbaebd305	-0.0017991966
94	0xbc3ac8b2	-0.011400389
95	0xbb9fd98c	-0.0048782285
96	0xbc2b85d5	-0.01046892
97	0x3d06acad	0.03287952
98	0xbb3be75c	-0.0028671836
99	0x3b72368a	0.0036958777
100	0xba710535	-0.00091941963
101	0xbb323779	-0.0027193709
102	0xba9af69c	-0.0011822763
103	0x3bffd188	0.0078069605
104	0xb8db3bca	-0.0001045387
105	0x3bdd9a22	0.006762759
106	0xbc74a956	-0.014932951
107	0xbc77bf81	-0.015121342
108	0x3abf0b57	0.0014575523
109	0x3c3d4327	0.011551655
110	0xbbe1aa7a	-0.0068867775
111	0xbb9675fe	-0.0045917025
112	0x3bfda404	0.0077404995
113	0xbc26593f	-0.010153114
114	0x3af441fa	0.0018635385
115	0x39c6fec7	0.00037955327
116	0xbc867013	-0.016410863
117	0xbc7ef88c	-0.015562188
118	0xbcccfb89	-0.025022285
119	0xbc8aad01	-0.016928198
120	0xbb35d2a3	-0.0027743957
121	0xbbb1723f	-0.0054152305
122	0x3c396213	0.011314887
123	0x3c476658	0.012170397
124	0x3a3376c2	0.00068460044
125	0xbbd141f4	-0.006386036
126	0xbc55b1d3	-0.013042885
127	0x3c8820c0	0.016617179
128	0xb9fb4f45	-0.0004793351
129	0xbbd0f137	-0.0063764113
130	0x3beb8642	0.0071876356
131	0x3ca2a294	0.019852914
132	0xbb6874b1	-0.0035469944
133	0x3b14da1e	0.0022713016
134	0x3c00c871	0.007860289
135	0xbb01abe4	-0.0019786293
136	0x3c7c94e2	0.015416356
137	0x3c6c5ef2	0.014426934
138	0x3b8bf196	0.0042707426
139	0xbc1e08c3	-0.009645644
140	0xbbc2fa6b	-0.0059502623
141	0x3c4cfbd4	0.012511212
142	0xbbd307c2	-0.006440134
143	0xbaf4df75	-0.0018682318
144	0x3c3424a4	0.010995064
145	0xb9cbf9a9	-0.0003890519
146	0x3ba05045	0.0048923814
147	0x3c64d1a6	0.013966
148	0x3b0b9f8d	0.0021304816
149	0x3ba2e87d	0.0049715624
150	0xbbb5e3c3	-0.005550833
151	0xbc28184a	-0.010259697
152	0xbc711490	-0.014714375
153	0xbc21ff8e	-0.009887589
154	0x3c8a2143	0.016861564
155	0xbb9dd174	-0.0048162285
156	0xbba4acd9	-0.005025488
157	0xbc3eb8c0	-0.0116407275
158	0xbc252210	-0.010078922
159	0xbc04529f	-0.008076339
160	0x3c1d0207	0.009583003
161	0xbaff7123	-0.0019488673
162	0x3b098683	0.0020984716
163	0x3c65c116	0.014023086
164	0xbc1eb01a	-0.009685541
165	0x3b937052	0.0044994736
166	0x3c1fbfd0	0.0097503215
167	0xba9c692b	-0.0011933198
168	0x3c6b157b	0.014348383
169	0x3ca315d4	0.01990787
170	0x3bf7885b	0.0075540966
171	0x3c4ad78c	0.012380492
172	0x3ba2ba8e	0.0049660867
173	0x3c896da3	0.016775912
174	0x3c536cfd	0.012904403
175	0x37ffeab7	3.0507666e-05
176	0xbbcae5e2	-0.006191955
177	0x3ba8c972	0.0051509673
178	0xbb2831cf	-0.0025664454
179	0xbc547427	-0.012967146
180	0x3b621281	0.0034495892
181	0xbbde7d7f	-0.0067898626
182	0x3c8e9f27	0.017409874
183	0xba79367a	-0.0009506714
184	0xbb91f1a6	-0.0044538556
185	0xbbc8b94d	-0.006125605
186	0x3bf341cf	0.0074236165
187	0x3b3f6240	0.0029202849
188	0x3c7bf690	0.015378609
189	0x3b194335	0.0023386006
190	0xbb75064f	-0.0037387793
191	0x379204af	1.7406737e-05
192	0xbc309326	-0.01077727
193	0xbaa75e1c	-0.0012769136
194	0xbc014f1e	-0.007892398
195	0x3c75640e	0.014977468
196	0xbc2fa42f	-0.010720297
197	0x3c36bf6e	0.011154039
198	0xbb05eae3	-0.0020434193
199	0x3c263220	0.010143787
200	0x3c52639f	0.012841134
201	0xb9f9f602	-0.0004767627
202	0xbb56c493	-0.0032770976
203	0x3b084862	0.0020795097
204	0x3b81c7e9	0.0039605987
205	0xbbf09eec	-0.0073431637
206	0x3c409834	0.011755038
207	0xbb11cd84	-0.002224774
208	0x3c8aa5d7	0.016924782
209	0xba701218	-0.00091579696
210	0x3bad9fa0	0.00529857
211	0xbbb8268a	-0.0056198286
212	0x3b97c497	0.0046315896
213	0x3b558fe0	0.0032586977
214	0x3b48938d	0.0030605525
215	0x3c75290e	0.0149634015
216	0xbaf819c1	-0.0018928574
217	0x3c7f2372	0.015572416
218	0x3ba1bfe6	0.004936206
219	0xbbc24e1a	-0.0059297206
220	0xbac9ca7b	-0.0015395427
221	0xbbb6f8dc	-0.0055838656
222	0x3c5a4b30	0.01332359
223	0xb996f67d	-0.00028793878
224	0x3b55eac8	0.0032641161
225	0xbc3929c0	-0.011301458
226	0x3bdca870	0.0067339465
227	0xbc80f02c	-0.015739523
228	0xba8984c1	-0.0010491834
229	0x3c63d96c	0.013906818
230	0x3bff1748	0.0077847578
231	0xbb9e1e25	-0.004825371
232	0x3ad23b95	0.0016039485
233	0xbc8df532	-0.017328832
234	0x3beabe85	0.007163825
235	0x3c6ea681	0.014566065
236	0x3c3e64cf	0.011620714
237	0xbbcd8e3d	-0.0062730596
238	0x3c0b3c61	0.008498282
239	0x3b8d9bed	0.0043215663
240	0x3b38b037	0.0028181204
241	0xbcbf9eb2	-0.023391102
242	0x3a4d6095	0.0007834521
243	0xbafd0c61	-0.0019306057
244	0x3c6ecb80	0.014574885
245	0x3cab9ce1	0.02094883
246	0x3bc9b28a	0.0061553167
247	0xbb24c249	-0.0025140217
248	0xbc157a43	-0.009123388
249	0x3af7cf23	0.0018906336
250	0x3b40e46d	0.0029433027
251	0xbb218dca	-0.0024651163
252	0xbc0a48f9	-0.00844025
253	0x3aa9f95d	0.0012967993
254	0x3bba459d	0.005684568
255	0xbc00a931	-0.007852838

network_body.linear_encoder.seq_layers.0.bias f4 [128]
0	0xbc94dc36	-0.018171411
1	0x3aed3587	0.0018097617
2	0xbc85c7b5	-0.01633058
3	0xbc16b1de	-0.00919768
4	0xbd14b1da	-0.036302425
5	0xbbdb6af8	-0.0066961013
6	0x3bb84602	0.00562358
7	0xb9f959e8	-0.00047559966
8	0x3afa90d6	0.0019116651
9	0x3c4c9a03	0.012487891
10	0xbc5d10af	-0.013492747
11	0x3b5d06a5	0.0033725884
12	0xb9d8e821	-0.0004137168
13	0x3cc91b53	0.024549162
14	0xbc15488a	-0.009111533
15	0x3ca68757	0.020328207
16	0xbc7ff9d4	-0.0156235285
17	0xbcb8a27d	-0.022538418
18	0xbc165122	-0.009174617
19	0xbbcb906e	-0.0062122857
20	0x3c5a23e0	0.013314217
21	0xbc395ad4	-0.011313159
22	0xbc802ea0	-0.015647233
23	0xbce77c70	-0.028257579
24	0xbc376982	-0.011194589
25	0xbcc27307	-0.02373649
26	0xbc17178a	-0.009221921
27	0xbc942d1a	-0.018087912
28	0x3c103f79	0.008804196
29	0xbbae9924	-0.0053283144
30	0xbb2b2806	-0.0026116385
31	0x3c16a8a3	0.00919548
32	0xbcde0205	-0.027100572
33	0xbb26db62	-0.0025460352
34	0xbc8671b6	-0.016411643
35	0xbc6ea1a0	-0.014564902
36	0xbc19d818	-0.0093899
37	0x3bbccb5d	0.0057615475
38	0xbc71862a	-0.01474146
39	0xbc80f79d	-0.015743071
40	0xbc1b57bb	-0.009481366
41	0xbc22a606	-0.009927278
42	0xba899b55	-0.0010498563
43	0x3bd6555f	0.0065409387
44	0xbb42961d	-0.0029691525
45	0xbc85df10	-0.016341716
46	0xbc5df6d4	-0.013547618
47	0x3b491e01	0.003068805
48	0xbbb5cd6b	-0.0055481694
49	0xbc4b2171	-0.01239811
50	0xbc543887	-0.01295293
51	0xbc67f512	-0.01415755
52	0x39ab933a	0.00032725354
53	0xbbcfaac5	-0.006337496
54	0x3ba6a647	0.00508574
55	0x3c43ce28	0.011951007
56	0xbb3ece73	-0.0029114753
57	0x3c277cbd	0.010222611
58	0xbc6d2d8c	-0.014476191
59	0xbcd17b08	-0.025571361
60	0xbbae2222	-0.0053141275
61	0x3b20fc99	0.0024564622
62	0xbbb30125	-0.005462783
63	0xbcc358e6	-0.023846101
64	0xbcda0951	-0.02661577
65	0xbbbb0f1b	-0.005708588
66	0xbc80cbc0	-0.015722156
67	0x3c33a62d	0.010964912
68	0xbc7baa6d	-0.015360457
69	0x3bc552c7	0.0060218307
70	0x3caad798	0.020854756
71	0xbb955709	-0.0045574945
72	0xbc85c4c5	-0.016329179
73	0xb9ac1bad	-0.00032827017
74	0x3bf91875	0.0076017925
75	0xbb4be50a	-0.003111186
76	0xbcd2e789	-0.02574517
77	0x3b494711	0.0030712525
78	0x3be9d2cb	0.007135724
79	0x3bec8c33	0.0072188615
80	0xbba44ded	-0.0050141723
81	0xbbfcb5d6	-0.007712106
82	0xbc9b3877	-0.018947823
83	0xbbe7f3be	-0.007078617
84	0x3b27f5c9	0.0025628677
85	0x3bebc443	0.007195027
86	0xbb31162e	-0.0027021277
87	0x3bf36b72	0.00742858
88	0xb9e8f5b9	-0.00044433566
89	0xbbc696bf	-0.006060451
90	0xbc54ed1b	-0.0129959835
91	0xb9890894	-0.00026137067
92	0xbb3fb08e	-0.0029249522
93	0xbc3f299c	-0.011667635
94	0xba1abc51	-0.0005902695
95	0x3c4f7c40	0.012663901
96	0xbbb01f46	-0.005374822
97	0xbb271ee8	-0.00255006
98	0xbbb383fd	-0.0054783807
99	0xbbcc892f	-0.0062419395
100	0xbcd11812	-0.025524173
101	0xbadec4f0	-0.0016995948
102	0xbc5b0578	-0.013368003
103	0xbcb79199	-0.022408294
104	0x3c55a4b3	0.013039756
105	0xba843252	-0.0010085797
106	0xba14788a	-0.00056637137
107	0xbac5b87f	-0.0015084891
108	0xbb7624ed	-0.003755863
109	0x3b799f19	0.0038089214
110	0xbca45540	-0.020060182
111	0x3c84367b	0.01613926
112	0xb9aeed37	-0.00033364605
113	0x3ae441cc	0.0017414629
114	0x3a7d7ff7	0.00096702523
115	0xba55b0d4	-0.00081516546
116	0xbca21e77	-0.019789917
117	0xbbabbcf9	-0.005241033
118	0xbc86182e	-0.016368952
119	0xba72129b	-0.000923434
120	0x3b9101bb	0.004425255
121	0x3a63596f	0.00086726894
122	0xbc6394e0	-0.013890475
123	0xbcbbb4a1	-0.022913279
124	0xbc37de92	-0.0112224985
125	0xbb962d9e	-0.0045830747
126	0xbb8ed693	-0.0043590753
127	0x39da9c10	0.00041696476

network_body.linear_encoder.seq_layers.0.weight f4 [128, 9]
0	0x3d7ef5de	0.062246196
1	0xbf2491fa	-0.6428524
2	0x3ea67586	0.32511538
3	0x3e19ae1c	0.15007824
4	0x3cacb623	0.021082943
5	0xbef953bb	-0.48696694
6	0xbeb3d33a	-0.3512209
7	0xbe40ddd8	-0.18834627
8	0xbe848e31	-0.25889733
9	0xbecaacad	-0.39584866
10	0xbe213081	-0.15741159
11	0xbdfab5bd	-0.12241695
12	0xbe5b8577	-0.21437632
13	0x3d92aa88	0.071614325
14	0x3e9a5f45	0.3015081
15	0x3eb96515	0.36209932
16	0x3ebf0237	0.37306377
17	0x3f72708c	0.9470298
18	0xbf0f2fee	-0.5593251
19	0x3ee9b668	0.45646977
20	0xbf367a64	-0.71280503
21	0xbe29be6d	-0.16576548
22	0x3b95b60e	0.0045688218
23	0xbe5d339e	-0.21601722
24	0x3f035034	0.51294255
25	0x3d33f735	0.043936927
26	0xbdb4e239	-0.08832211
27	0x3dfe3d8d	0.12414084
28	0x3ea3c958	0.3198955
29	0x3ea3e0ad	0.32007352
30	0xbe0985a6	-0.13429889
31	0xbe7716f9	-0.24129857
32	0x3da13d7a	0.07873054
33	0xbe82a618	-0.25517344
34	0xbcf5cc35	-0.0300046
35	0x3e25070b	0.16115968
36	0x3d479159	0.0487226
37	0x3f010c60	0.5040951
38	0x3eaac74b	0.33355173
39	0xbf1ab650	-0.60434437
40	0xbe85e6a2	-0.2615252
41	0x3e81b383	0.2533227
42	0xbd340d2a	-0.043957867
43	0xbea07b1c	-0.31343925
44	0xbe27fb36	-0.16404423
45	0x3eb28a54	0.3487116
46	0xbcbd1e0e	-0.02308562
47	0xbd0022f1	-0.031283323
48	0x3e6e27e8	0.2325741
49	0xbea4b215	-0.32167116
50	0xbded0144	-0.11572507
51	0xbc01f2c4	-0.007931415
52	0xbe8c94a8	-0.27457166
53	0x3e73b0ea	0.23797956
54	0x3e79ffba	0.24413958
55	0x3f074ba0	0.5284977
56	0xbeb13e82	-0.34618002
57	0xbe5927cc	-0.21206588
58	0x3f2b8970	0.6700659
59	0xbe263c23	-0.16233878
60	0x3dc12e6b	0.09432682
61	0x3e2d00a0	0.1689477
62	0xbeac54ff	-0.33658597
63	0x3edd9059	0.4327419
64	0x3ec490bb	0.3839167
65	0xbe6e354e	-0.23262522
66	0xbf19cdd6	-0.60079706
67	0xbf3d0fba	-0.7385212
68	0xbded2276	-0.115788385
69	0x3e0baaa8	0.13639319
70	0xbd1a5ba3	-0.037685048
71	0x3c28110d	0.0102579715
72	0x3e4eb450	0.20185971
73	0x3ec07cf1	0.37595323
74	0xbf74ed58	-0.9567466
75	0xbd1d11b1	-0.03834695
76	0xbd9e8307	-0.07739835
77	0x3ebffa34	0.37495577
78	0xbc0734cd	-0.008252335
79	0x3e503cbb	0.20335667
80	0x3ebd457f	0.36967084
81	0xbeca0a4d	-0.39460984
82	0xbe34f88e	-0.17672941
83	0x3e89ef3e	0.2694034
84	0x3e179a08	0.14804852
85	0xbedbe87c	-0.4295081
86	0x3d45aff6	0.048263513
87	0x3e68f849	0.22750963
88	0x3d9e7715	0.07737557
89	0x3eaf648c	0.342564
90	0x3e475055	0.19464238
91	0xbded2691	-0.115796216
92	0x3eb390a7	0.35071298
93	0xbf0bb15f	-0.5456752
94	0x3ee0eb6b	0.4392961
95	0x3dec336e	0.11533247
96	0xbe16c7a0	-0.14724588
97	0xbebb2bd4	-0.36556876
98	0xbee7af71	-0.4525104
99	0x3e8d09a4	0.27546418
100	0xbe079397	-0.13239895
101	0xbeea812a	-0.4580167
102	0xbeb430f6	-0.35193604
103	0xbf0f20b1	-0.5590926
104	0xbe7a52ac	-0.244456
105	0x3f5b48b0	0.8565779
106	0xbeff7aff	-0.49898526
107	0xbcb929b3	-0.022602892
108	0xbf00703f	-0.50171274
109	0x3f4f2121	0.80909926
110	0xbe808493	-0.25101146
111	0x3dd89470	0.10575187
112	0xbf278bb8	-0.6544757
113	0x3e88ea3a	0.267412
114	0x3ee7db17	0.4528434
115	0xbf06533b	-0.5247075
116	0xbf509dde	-0.81490886
117	0xbeaba3b0	-0.3352332
118	0xbf07651a	-0.52888644
119	0x3ebc0046	0.3671896
120	0xbe8a93b7	-0.27065822
121	0x3f08e6b3	0.5347702
122	0xbd17ca88	-0.037058383
123	0xbe869bc6	-0.2629072
124	0x3f14ad43	0.58076876
125	0x3dce478e	0.10072242
126	0xbec87bf9	-0.39157084
127	0xbdbb2ea0	-0.091397524
128	0x3e5fc59d	0.21852727
129	0x3dff8914	0.124773175
130	0x3e7212ca	0.2363998
131	0xbec8941f	-0.39175507
132	0xbe02e704	-0.12783438
133	0xbec048ef	-0.37555644
134	0xbf38c634	-0.72177434
135	0xbf139f7b	-0.5766522
136	0xbeb6226a	-0.3557313
137	0xbe0208a4	-0.12698609
138	0x3f59122b	0.8479335
139	0xbe9a9271	-0.3018985
140	0x3edceada	0.43147928
141	0x3ed90ecb	0.423941
142	0xbdb5c6b7	-0.088757925
143	0xbd70ade5	-0.05875959
144	0xbeef87a6	-0.4678318
145	0x3e1a9a94	0.1509803
146	0x3e802b13	0.25032863
147	0x3c9a2cf2	0.01882026
148	0xbe793dfc	-0.24340051
149	0xbda691a2	-0.08133246
150	0xbeb46db7	-0.35239956
151	0x3ea98164	0.3310653
152	0x3e261238	0.16217887
153	0xbe56aa01	-0.20963289
154	0xbe310039	-0.17285241
155	0xbdf85fd8	-0.12127656
156	0xbf6fe459	-0.93707806
157	0xbf1af556	-0.605306
158	0xbdeeca44	-0.11659673
159	0xbe19a7ef	-0.15005468
160	0x3e84d4e0	0.2594366
161	0xbebc5c40	-0.3678913
162	0x3d9506a4	0.07276657
163	0x3d955afe	0.07292746
164	0xbd8eb483	-0.06968024
165	0xbe351eb8	-0.176875
166	0x3dfa01dd	0.12207387
167	0x3dc69b1d	0.09697554
168	0x3dde8eea	0.108671024
169	0x3e9cb898	0.30609584
170	0x3e6fb6c5	0.23409565
171	0x3e36e615	0.17861207
172	0xbdcf6720	-0.101270914
173	0xbd8aed7b	-0.06783577
174	0xbf1df10b	-0.6169593
175	0xbe81f426	-0.25381583
176	0xbe9dd6fa	-0.30828077
177	0xbe4e591b	-0.20151179
178	0xbf128ed7	-0.57249206
179	0x3ef7de6f	0.4841189
180	0xbb5e1230	-0.0033885352
181	0xbdd90551	-0.10596717
182	0xbe5eb6ff	-0.21749495
183	0xbdeabe71	-0.11462105
184	0xbd897a24	-0.067127496
185	0x3c7abe16	0.015304109
186	0xbe3b9663	-0.18319087
187	0xbd4cd646	-0.050009035
188	0x3e0ca3f3	0.13734417
189	0x3cbd1620	0.02308184
190	0xbddb5208	-0.107090056
191	0xbe949fa6	-0.29028052
192	0xbe2b1c3e	-0.16709992
193	0xbf057fa3	-0.52147883
194	0xbe208136	-0.1567429
195	0x3e910aff	0.28328702
196	0x3e17fd8c	0.14842814
197	0x3eb3d394	0.3512236
198	0xbeffd574	-0.4996754
199	0x3c9165b0	0.017748684
200	0xbecfea2e	-0.40608352
201	0xbe9bf86b	-0.30462965
202	0xbdeba39a	-0.11505814
203	0xbdf3dbe4	-0.11907175
204	0x3e614f4d	0.22002907
205	0xbe2c2e01	-0.16814424
206	0xbf120a92	-0.5704738
207	0x3e540b71	0.2070749
208	0xbe0ea915	-0.13931687
209	0x3d7d7071	0.06187481
210	0x3d6f20f4	0.058381036
211	0xbd141054	-0.036148384
212	0x3e4bfc93	0.19920568
213	0xbf504cfc	-0.8136747
214	0xbd96a2da	-0.0735528
215	0xbe9ca976	-0.30598038
216	0x3db68372	0.0891179
217	0xbef49d61	-0.4777632
218	0xbef1ba3f	-0.47212407
219	0xbd831259	-0.06399984
220	0xbe955005	-0.29162613
221	0x3eebb538	0.46036696
222	0xbeb07532	-0.34464413
223	0xbf0ca949	-0.5494581
224	0xbcfe8b41	-0.03107226
225	0xbe38aa68	-0.18033755
226	0xbe1baaed	-0.15201922
227	0xbdffa0b4	-0.124818236
228	0xbec4a5ac	-0.38407648
229	0x3e1ebac0	0.15500927
230	0xbdffe1ce	-0.12494241
231	0x3e2287ef	0.15872167
232	0x3d9d6b46	0.076864764
233	0x3d9b0aff	0.07570457
234	0xbf0e0345	-0.5547374
235	0x3e0f9521	0.14021732
236	0xbf098fd9	-0.5373512
237	0xbee7d1e3	-0.45277318
238	0x3f08047f	0.5313186
239	0xbf0080ad	-0.50196344
240	0x3e65e755	0.22451527
241	0x3d4f39aa	0.050592102
242	0x3e428dec	0.18999451
243	0x3e0f5dab	0.14000575
244	0xbeace31a	-0.33767015
245	0x3e12386a	0.14279333
246	0x3d5d6061	0.054046992
247	0x3ebc05cc	0.36723173
248	0xbe64a2e0	-0.22327757
249	0x3e2c220f	0.16809867
250	0xbed3b391	-0.41347936
251	0xbeea1a30	-0.45723104
252	0xbdab93d8	-0.08377808
253	0xbe06f4e8	-0.13179362
254	0x3f1c971a	0.6116806
255	0xbe48347c	-0.19551271

network_body.linear_encoder.seq_layers.2.bias f4 [128]
0	0x3b19c137	0.0023461112
1	0x3c34bec8	0.011031814
2	0xbc1870d8	-0.009304248
3	0xbbbcb542	-0.0057589123
4	0x3c4bfd62	0.012450548
5	0xbc9b098a	-0.018925447
6	0xbc8cfa54	-0.01720921
7	0xbcb6ba1f	-0.022305546
8	0x3cb5aaba	0.022176135
9	0x3ab57f8f	0.001384722
10	0x3c005ea6	0.007835066
11	0xbc78aaae	-0.015177412
12	0x3a71bd3a	0.00092216174
13	0xbaed67c1	-0.0018112586
14	0x3be74fe4	0.0070590843
15	0xbc43a400	-0.011940956
16	0x3c3f5132	0.011677073
17	0xbc5c1f9b	-0.01343527
18	0xbcd6b3ac	-0.026208721
19	0x3b9c924d	0.0047781826
20	0xbb6d2592	-0.0036185724
21	0x3b905524	0.004404681
22	0xb98ec569	-0.00027231433
23	0xbcbd034b	-0.02307286
24	0x3c09eb3c	0.008417901
25	0x3c8f4396	0.017488282
26	0xbca52e57	-0.020163698
27	0xbb8ca847	-0.004292521
28	0xbc174e8c	-0.009235036
29	0xbcc076fb	-0.023494234
30	0x3c898c3a	0.016790498
31	0x3c71acdc	0.014750686
32	0xbbc73eee	-0.0060805
33	0xbce1f700	-0.0275836
34	0xbbd8a848	-0.0066118576
35	0xbc8c17ff	-0.017101286
36	0x3c244ec9	0.0100285495
37	0x3cbd5466	0.023111533
38	0xbb8a7807	-0.004225734
39	0xbcb64c93	-0.02225331
40	0x3ba94875	0.0051661083
41	0xb9fbe2ef	-0.0004804353
42	0xbb6c02b4	-0.0036012353
43	0x3c0e17e8	0.008672692
44	0xbbe50361	-0.006988928
45	0xbca31cb2	-0.019911144
46	0xba9c5042	-0.0011925774
47	0x3be1cef5	0.0068911263
48	0x3c29c138	0.010361008
49	0xbc7992a4	-0.015232716
50	0x3c334e58	0.010943972
51	0xbbefc79e	-0.0073174974
52	0x3c869ed8	0.016433164
53	0xbcf57c0c	-0.029966377
54	0x3c772323	0.015084061
55	0xbc715953	-0.014730769
56	0x3c275574	0.010213245
57	0x3c426a50	0.011866167
58	0xbcda6f68	-0.02666445
59	0xbc08981d	-0.008337048
60	0x3ac2bc6d	0.0014857181
61	0x3c10d575	0.008839955
62	0xbc844e01	-0.016150476
63	0x3c713deb	0.014724235
64	0xbbbd2348	-0.005772028
65	0xbc6eb9e0	-0.014570683
66	0x3acd383c	0.0015657018
67	0xbcb6d613	-0.022318875
68	0xbccbbdf6	-0.024870854
69	0xbd1430db	-0.036179405
70	0x3bd1893e	0.0063945344
71	0xbbda6b73	-0.006665641
72	0x3c095e64	0.008384321
73	0xbb4ba657	-0.0031074488
74	0xbce545fb	-0.02798747
75	0xbc4fe255	-0.012688239
76	0xbc317634	-0.0108314045
77	0xbb789be4	-0.0037934715
78	0xbcc6dceb	-0.024275264
79	0xbcbaf5d5	-0.0228223
80	0xbca01892	-0.019542966
81	0x3c9d44ab	0.019197783
82	0xbc9b8167	-0.018982602
83	0xbc89ab43	-0.016805297
84	0x3c6691a7	0.014072812
85	0xbb906ad0	-0.0044072643
86	0x3c174e99	0.009235048
87	0xbbaaa4ac	-0.0052076187
88	0x3c592ffe	0.013256071
89	0xbc93f110	-0.018059283
90	0x3c66ea0e	0.014093889
91	0xbaf8af01	-0.0018973054
92	0x3c0e7e04	0.008697037
93	0xbbc5fa60	-0.00604181
94	0xbc09965b	-0.008397664
95	0x3ba05f35	0.004894162
96	0xbcb31478	-0.021860346
97	0xbc1ae354	-0.009453613
98	0x3bf0f525	0.0073534423
99	0x3b31434c	0.0027048169
100	0xb977941f	-0.00023610935
101	0xbbf83358	-0.00757448
102	0x3bd8fd13	0.0066219657
103	0x3c6ff278	0.014645211
104	0xbc81c4ba	-0.015840877
105	0xbcde172a	-0.027110655
106	0xbc1f6b4c	-0.009730171
107	0xbc7a7059	-0.015285575
108	0xbc45f82a	-0.012083093
109	0xbb14ddaf	-0.0022715142
110	0xbca06406	-0.019578945
111	0xbce00978	-0.027348265
112	0xbb82153c	-0.0039698165
113	0x3ba19d9f	0.00493212
114	0xbc60804f	-0.013702466
115	0xbca0d37a	-0.01963209
116	0xba3a5954	-0.0007108648
117	0xbc26c165	-0.010177945
118	0xbba71517	-0.0050989497
119	0xbcbadc53	-0.022810137
120	0xba14eeaa	-0.00056813157
121	0xbc66d687	-0.014089233
122	0xbc7ec07d	-0.0155488225
123	0x3c2dd32d	0.01060943
124	0xbc049e15	-0.00809433
125	0x3be9bd00	0.0071331263
126	0x3c08cbe7	0.008349395
127	0xbcd2e03c	-0.025741689

network_body.linear_encoder.seq_layers.2.weight f4 [128, 128]
0	0xbcdadc97	-0.026716514
1	0x3d429237	0.047502723
2	0x3cdbcbfe	0.02683067
3	0xbd071353	-0.032977413
4	0xbe01c4d6	-0.12672743
5	0xbdc7dc52	-0.0975882
6	0x3d1d91c4	0.03846909
7	0x3d9e02f8	0.0771541
8	0x3e3ff19b	0.18744509
9	0xbd420a9e	-0.047373407
10	0x3cc5ccbc	0.024145477
11	0x3e19ff0a	0.15038696
12	0xbd2f2c63	-0.04276694
13	0xbd2fe319	-0.042941187
14	0xbcaaa74d	-0.020831728
15	0xbd6df5a5	-0.058095593
16	0x3d60d4b3	0.054890346
17	0x3d6ba7e6	0.057533167
18	0x3d930c1e	0.071800455
19	0x3d91a16e	0.071108684
20	0xbe265117	-0.16241871
21	0x3bf951c3	0.0076086237
22	0x3d818dc1	0.063258655
23	0x3da2b87c	0.07945344
24	0x3d0915d4	0.033468083
25	0xbe073061	-0.13202049
26	0xbd04a3e2	-0.032382853
27	0xbdc04904	-0.093889266
28	0x3e2124db	0.15736715
29	0xbd729e5c	-0.059233055
30	0x3e3799dc	0.17929786
31	0xbd643138	-0.055711
32	0x3d71ba24	0.05901541
33	0xbe0ceac8	-0.13761437
34	0xbc4aef48	-0.012386151
35	0x3d4f0e2b	0.05055062
36	0xbd693eb1	-0.056944553
37	0x3dc0a46c	0.09406361
38	0xbd056fb3	-0.032577228
39	0xbe0d4a53	-0.13797884
40	0xbe064050	-0.13110471
41	0xbc0853f0	-0.0083207935
42	0xbc3500ed	-0.011047584
43	0x3e1e93da	0.15486088
44	0x3e11e69c	0.14248127
45	0xbe04c792	-0.12966755
46	0x3d9efb69	0.077627964
47	0xbe3d32c9	-0.18476404
48	0x3cbee881	0.023304226
49	0xbd1fca6d	-0.039011408
50	0x3dc29ffd	0.095031716
51	0x3c848d27	0.016180588
52	0xbd7cce27	-0.06172004
53	0xbd042d5f	-0.03226983
54	0xbe2cfde1	-0.16893722
55	0xbe029c5c	-0.12754959
56	0xbd09a8af	-0.033608135
57	0x3d9c3309	0.07626922
58	0xbd2cdb31	-0.042201225
59	0xbb2ac374	-0.002605644
60	0x3ca485ee	0.020083394
61	0xbdbc001f	-0.091797106
62	0xbd996fdf	-0.07492041
63	0xbd0f3195	-0.034959394
64	0x3dc53721	0.09629656
65	0xbd150335	-0.03638001
66	0x3c90c6ed	0.01767298
67	0x3d0b441c	0.0340005
68	0xbd7cc0ab	-0.06170718
69	0x3cc6c369	0.0242631
70	0x3c9f3a6b	0.019437036
71	0x3cfad0d1	0.03061715
72	0x3e081985	0.13290985
73	0x3e46e3b0	0.19422793
74	0x3e002f5a	0.12518063
75	0x3e59b1c3	0.21259217
76	0x3d459317	0.04823598
77	0x3e63aa5e	0.22232959
78	0xbcddc293	-0.02707032
79	0xbe241d58	-0.16026819
80	0xbe341f09	-0.17589964
81	0xbb32b521	-0.0027268606
82	0x3ca27216	0.019829791
83	0x3b8bbe81	0.004264653
84	0xbd66f54b	-0.056386273
85	0xbdeea7fe	-0.11653136
86	0xbe250805	-0.1611634
87	0xbe05c16e	-0.13062069
88	0xbd13ccf7	-0.03608414
89	0x3d50bb68	0.050959975
90	0x3db09415	0.086219944
91	0xbdcad52f	-0.09903943
92	0xbdaf66ae	-0.085645065
93	0xbe7e2526	-0.24818859
94	0xbd6fce50	-0.058546364
95	0xbdcaf3a0	-0.09909749
96	0x3db7122a	0.089390114
97	0x3c8e2769	0.017352777
98	0x39ace422	0.0003297637
99	0x3b5055aa	0.003178934
100	0x3cf48c71	0.029852124
101	0xbe0bd12a	-0.13654009
102	0x3d739bea	0.059474863
103	0xbe34932f	-0.17634271
104	0xbe0c6151	-0.13708998
105	0xbdfe0a19	-0.1240427
106	0x3d64cd19	0.05585966
107	0xbd716490	-0.058933794
108	0xbe0ceead	-0.13762923
109	0x3ca29fc1	0.019851567
110	0x3db9905d	0.09060738
111	0x3c3f9f06	0.011695629
112	0xbdf62ebc	-0.120206326
113	0xbaf412c2	-0.0018621313
114	0xbcf89785	-0.030345688
115	0xbdd21b03	-0.10259058
116	0xbe155e18	-0.14586675
117	0x3d67d7ac	0.056602165
118	0x3e2c118d	0.1680357
119	0xbcffdd77	-0.031233532
120	0xbd4ec52a	-0.050481
121	0xba945a86	-0.0011318482
122	0xbd679043	-0.056534063
123	0x3bd99038	0.0066395067
124	0xbd816be8	-0.063194096
125	0xbca0cdd1	-0.01962939
126	0xbe095fab	-0.134154
127	0xbd1561a6	-0.036470078
128	0x3d98bb8c	0.07457647
129	0xbcfc8c22	-0.03082854
130	0xbd17de9b	-0.037077527
131	0xbd02394f	-0.031792935
132	0xbce1b711	-0.027553113
133	0xbd8711bc	-0.065951794
134	0x3d421290	0.047380984
135	0x3e4b5e7c	0.19860262
136	0xbca09f02	-0.01960707
137	0x3d05ed5f	0.032697078
138	0x3e083bc3	0.13304047
139	0x3de42f4c	0.11141834
140	0xbd6d6749	-0.05795983
141	0x3c032dc5	0.008006518
142	0x3db434b5	0.087991156
143	0x3da6c9a9	0.08143932
144	0xbe48a287	-0.1959325
145	0xbe667268	-0.2250458
146	0x3d984966	0.07435875
147	0xbe47a794	-0.1949752
148	0x3d21d608	0.039510757
149	0x3d6282d2	0.05530054
150	0x3cc3cca1	0.023901286
151	0xbddc5aaa	-0.1075948
152	0xbd889673	-0.06669321
153	0xbccb9d0c	-0.02485516
154	0xbe073567	-0.13203965
155	0x3ddb2a40	0.10701418
156	0x3d15d859	0.03658328
157	0xbd1c0d33	-0.038098525
158	0xbd58ea99	-0.052958105
159	0xbd45cb44	-0.048289552
160	0x3cfc9f12	0.03083757
161	0x3e302385	0.1720105
162	0xbc34fb72	-0.011046277
163	0x3cfcb041	0.030845763
164	0xbc959d5d	-0.018263513
165	0x3de256f6	0.11051743
166	0x3d6ba6f2	0.05753226
167	0xbd8b7fa7	-0.06811457
168	0x3dcceb44	0.10005811
169	0x3d956f0f	0.07296573
170	0xbd74b61d	-0.05974399
171	0x3c79228c	0.0152059905
172	0xbcb2c4e9	-0.02182241
173	0x3d492cf7	0.049115147
174	0xbd9bbd01	-0.07604409
175	0xbcaebd41	-0.021330478
176	0xbd4c4a56	-0.04987558
177	0xbdb60b6b	-0.088888966
178	0xbddde031	-0.10833777
179	0x3e34bd1d	0.17650266
180	0x3d301f09	0.042998347
181	0xbdc83347	-0.097754054
182	0xbc18da3f	-0.009329378
183	0x3e265b9e	0.16245887
184	0xbd6664b6	-0.05624839
185	0xbdc4cd4e	-0.09609471
186	0xbdc868bb	-0.09785601
187	0xbb42ac75	-0.0029704843
188	0x3dacb733	0.0843338
189	0xbd857482	-0.06516363
190	0xbd4ca963	-0.049966227
191	0x3c706e7e	0.014674781
192	0x3c64b709	0.013959655
193	0xbe07515d	-0.13214631
194	0xbd0eaf4d	-0.03483515
195	0x3c80df4a	0.015731473
196	0x3c38f7bd	0.011289534
197	0xbd12d36e	-0.035846166
198	0x3d7b47de	0.061347835
199	0x3c97ab60	0.018514335
200	0xbc9d446c	-0.019197665
201	0xbb645a73	-0.003484395
202	0x3be93a88	0.007117573
203	0x3dad7b0d	0.08470736
204	0xbda5615d	-0.08075211
205	0xbd286007	-0.041107204
206	0x3de18e31	0.11013449
207	0xbd0c15d7	-0.034200516
208	0xbc3a9326	-0.011387622
209	0xbd03cffc	-0.03218077
210	0xbd723bf9	-0.059139226
211	0x3c0327b5	0.008005072
212	0x3d91f0a1	0.071259744
213	0x3d16a7c0	0.036781073
214	0x3e289ce4	0.16466099
215	0x3ded6682	0.115918174
216	0xbd52fc9c	-0.05151044
217	0x3d04fcf0	0.032467782
218	0x3b38b09f	0.0028181446
219	0x3df9b44f	0.12192594
220	0x3cd85f52	0.02641264
221	0xbd842725	-0.06452779
222	0x3dd10758	0.10206479
223	0x3cadc9c9	0.021214383
224	0x3db8b7d2	0.09019436
225	0xbe0e547b	-0.13899414
226	0xbddfaa62	-0.1092117
227	0xbd485705	-0.048911113
228	0xbc741677	-0.014897934
229	0xbe248d2c	-0.16069478
230	0xbd691f02	-0.056914337
231	0xbd729aa5	-0.05922951
232	0x3deba219	0.11505527
233	0xbdae098f	-0.08497917
234	0x3e517b08	0.20457089
235	0x3e541451	0.20710875
236	0xbd3c4d31	-0.045972053
237	0xbc4fe33d	-0.012688455
238	0xbd898c1a	-0.067161754
239	0x3c8c809b	0.017151168
240	0x3c7e12cb	0.01550741
241	0x3e2c51a8	0.16828024
242	0x3d7e6ef6	0.06211754
243	0xbde05c39	-0.1095509
244	0xbda1b8c5	-0.0789657
245	0x3dd104d2	0.102059975
246	0x3c333892	0.01093878
247	0xbd790068	-0.060791403
248	0xbd164d2a	-0.036694683
249	0xbdc3977e	-0.09550379
250	0xbdf13b8c	-0.11778936
251	0x3d8161e0	0.06317496
252	0x3df8fe9e	0.121579394
253	0x3b4c2069	0.0031147248
254	0x3cf26905	0.029591093
255	0x3da2f9ef	0.07957827
