results/ppo/Car Agent/Car Agent-342431.onnx (onnx, 86866 bytes, 9 tensors)

action_model._continuous_distribution.log_sigma f4 [1, 2]
0.014836163 0.012103992
00000000: 6113 733c d24f 463c

action_model._continuous_distribution.mu.bias f4 [2]
0.006322734 0.0035766696
00000000: f02e cf3b 8f66 6a3b

action_model._continuous_distribution.mu.weight f4 [2, 128]
0.0029220022 0.0125355525 -0.017409284 0.022937745 -0.0154754305 -0.014657391 -0.03007544 -0.016189847
-0.013201315 0.0018042849 -0.009078149 -0.007231038 -0.013447505 -0.0069519402 0.016366154 0.013309332
-0.023491278 0.00734174 -0.0005858059 -0.0030136474 0.035414547 -0.0009098751 0.018306656 0.00011339019
-0.023115795 -0.004941982 0.017789323 -0.018799985 -0.0045340867 0.000114280025 -0.013253281 -0.027737685
0.012711083 0.015948208 -0.021620471 0.019277615 -0.0044497494 0.012444769 -0.005305236 -0.008779903
-0.00071357784 -0.01586332 -0.00059168594 0.027103 -0.020502774 -0.038979273 -0.037306573 -0.007967617
0.0006716441 -0.05033032 -0.011165354 0.015326304 -0.008509783 0.01649819 -0.027489478 -0.00090938975
-0.008037117 -0.031582113 -0.009776848 -0.038703073 0.0064932643 0.0022998054 0.023589818 -0.008008512
-0.031045042 -0.008512005 0.009095067 0.03985189 -0.0032941601 0.033080895 0.0028346283 -0.0133723
-0.0060732043 0.008354573 0.030157028 -0.020267816 0.01927391 0.012230227 -0.007550159 -0.007951631
0.008428962 -0.0003938658 -0.0020648332 -0.015452101 0.006186727 -0.023558585 -0.0046152496 0.01751114
0.020812104 0.025773548 0.000578891 0.011702289 -0.0074452655 0.027377903 -0.0024634479 -0.014563619
0.0011905147 -0.016323028 -0.05392596 0.0012255022 -0.019310543 0.006895724 0.0057710134 0.0036342354
0.042375777 0.0042477055 -0.012116838 -0.001757578 0.033030443 0.019622069 -0.0022284787 -0.0060759876
-0.032732554 -0.03248396 -0.018568361 -0.0060561607 -0.00017249554 0.0004974098 -0.011026379 0.0068227886
-0.018791985 -0.039476413 0.025022693 0.020567479 -0.0035266497 -0.019594736 0.016325682 -0.0044896887
0.017033236 0.0072712125 -0.024316479 -0.025810858 0.027136404 0.006144053 -0.018993758 0.026036805
0.040218353 0.010030403 -0.006971543 0.02971389 -0.0035515742 0.003235408 -0.024118027 0.006808573
0.0047901478 -0.003972006 0.024191037 -0.02391481 -0.031910118 0.0140977865 -0.023301296 0.0019797052
0.051877517 0.0016825903 -0.0020978602 -0.00033727463 0.0022976536 -0.023323825 -0.010651454 -0.020123858
-0.034891013 0.021475833 -0.025678864 0.029414628 0.0076470035 0.013509397 0.00545599 -0.019269139
-0.021043895 -0.007894587 0.0038032248 0.0214512 -0.017003413 -0.022396157 0.023928527 -0.013295809
0.013904469 0.022469973 -0.020475289 -0.034075767 0.021874197 -0.021910647 0.008058671 0.017247068
-0.03749883 -0.013189078 0.0032693835 -0.002905186 -0.0005392738 -0.012868734 0.005179822 0.006812111
0.023928398 0.010930761 0.014622224 -0.016162824 -0.0071771406 0.009484774 0.010358726 0.03501726
0.006171387 0.008396475 -0.013353766 0.0022146164 -0.001286463 0.0023415375 -0.0064211916 0.019590624
0.007918362 0.009174131 0.014738826 0.0002767589 0.00047336164 0.009791423 -0.03555076 0.021701166
0.023277098 -0.01968187 -0.025002941 0.012078835 -0.009736618 -0.0065215435 -0.029713498 -0.019251531
-0.025048831 -0.026186008 0.006343603 -0.020978387 -0.0093639605 -0.016982459 -0.02618668 -0.0049046664
-0.012301221 0.002559148 0.005327238 0.026207618 0.026928367 0.017774662 0.0016779113 0.014981268
0.0065070437 0.026252532 0.008643712 0.00892791 -0.014597032 -0.042519685 -0.004493391 -0.002215588
0.023914814 -0.007426135 -0.018896382 -0.00020946143 -0.012890448 -0.011012083 -0.0024373753 -0.028334035
00000000: 107f 3f3b eb61 4d3c ea9d 8ebc f0e7 bb3c
00000010: a98c 7dbc 8e25 70bc c560 f6bc 92a0 84bc
00000020: 544a 58bc c17d ec3a 84bc 14bc 58f2 ecbb
00000030: ed52 5cbc 1acd e3bb 5012 863c 620f 5a3c
00000040: c870 c0bc fb92 f03b c590 19ba 9d80 45bb
00000050: d80e 113d af84 6eba d7f7 953c e5cb ed38
00000060: 565d bdbc 5af0 a1bb eaba 913c 6d02 9abc
00000070: ad92 94bb 9fa9 ef38 4a24 59bc 243a e3bc
00000080: 2542 503c d1a5 823c 6a1d b1bc 17ec 9d3c
00000090: 34cf 91bb 25e5 4b3c 8cd7 adbb 95d9 0fbc
000000a0: 660f 3bba cbf3 81bc 5f1b 1bba 1c07 de3c
000000b0: 6ff5 a7bc bba8 1fbd c7ce 18bd 9c8a 02bc
000000c0: 4611 303a 2a27 4ebd e4ee 36bc 2e1b 7b3c
000000d0: 9e6c 0bbc 3627 873c 9d31 e1bc 1d64 6eba
000000e0: 1dae 03bc 3f5c 01bd 132f 20bc 1d87 1ebd
000000f0: 73c5 d43b 55b8 163b 6f3f c13c 2236 03bc
00000100: 2c52 febc f075 0bbc 7a03 153c bc3b 233d
00000110: d6e2 57bb d57f 073d 2cc5 393b 7e17 5bbc
00000120: bb01 c7bb 9ee1 083c df0b f73c b108 a6bc
00000130: 52e4 9d3c 4a61 483c 5367 f7bb 8f47 02bc
00000140: a119 0a3c c67f ceb9 2752 07bb cf2a 7dbc
00000150: 07ba ca3b effd c0bc 853b 97bb 8673 8f3c
00000160: 257e aa3c 0c23 d33c b8c0 173a f5ba 3f3c
00000170: 6af7 f3bb a047 e03c cc71 21bb 3f9c 6ebc
00000180: 0b0b 9c3a dfb7 85bc 78e1 5cbd 08a1 a03a
00000190: 2531 9ebc 87f5 e13b c51a bd3b 5a2c 6e3b
000001a0: 3992 2d3d 5630 8b3b b485 46bc 885e e6ba
000001b0: ee4a 073d 76be a03c ab0b 12bb 1419 c7bb
000001c0: 9212 06bd e70d 05bd ad1c 98bc c272 c6bb
000001d0: ebdf 34b9 9b64 023a fca7 34bc b391 df3b
000001e0: a6f1 99bc 05b2 21bd 64fc cc3c 217d a83c
000001f0: 5d1f 67bb 2485 a0bc 70bd 853c 3d1e 93bb
00000200: 4989 8b3c 5a43 ee3b 5a33 c7bc 4b71 d3bc
00000210: 2a4d de3c 0d54 c93b cc98 9bbc 234b d53c
00000220: 00bc 243d 8f56 243c 8b71 e4bb 8b6a f33c
00000230: 87c1 68bb 2409 543b 2b93 c5bc 731a df3b
00000240: acf6 9c3b 9a27 82bb 482c c63c fee8 c3bc
00000250: 2fb4 02bd 67fa 663c 5ce2 bebc f1bd 013b
00000260: 857d 543d 5d8a dc3a 417c 09bb 3cd4 b0b9
00000270: 3b94 163b 9b11 bfbc 7083 2ebc cada a4bc
00000280: e1e9 0ebd 16ee af3c 7b5c d2bc f2f6 f03c
00000290: b793 fa3b 8556 5d3c 29c8 b23b 50da 9dbc
000002a0: 3f64 acbc 4c58 01bc 863f 793b 6dba af3c
000002b0: be4a 8bbc 2578 b7bc c205 c43c aad6 59bc
000002c0: 92cf 633c f312 b83c cbbb a7bc 0893 0bbd
000002d0: 8431 b33c f57d b3bc 8408 043c b949 8d3c
000002e0: 6098 19bd 0117 58bc 2743 563b ef64 3ebb
000002f0: 0d5e 0dba 62d7 52bc 7fbb a93b 2138 df3b
00000300: 7d05 c43c ef16 333c 0d92 6f3c e667 84bc
00000310: 382e ebbb 0766 1b3c a5b7 293c 426e 0f3d
00000320: 5939 ca3b 5e91 093c c1c9 5abc 1923 113b
00000330: 899e a8ba 7b74 193b dc68 d2bb 847c a03c
00000340: 04bc 013c 184f 163c 1e7b 713c f319 9139
00000350: 862d f839 346c 203c ac9d 11bd a5c6 b13c
00000360: 9daf be3c df3b a1bc f8d2 ccbc 4ee6 453c
00000370: 5686 1fbc acb2 d5bb b969 f3bc 63b5 9dbc
00000380: 3533 cdbc 0a84 d6bc 00de cf3b deda abbc
00000390: 4c6b 19bc cc1e 8bbc 7385 d6bc 53b7 a0bb
000003a0: 0f8b 49bc 61b7 273b 1c90 ae3b 5cb1 d63c
000003b0: e198 dc3c 2b9c 913c 5ced db3a fe73 753c
000003c0: 0a39 d53b 8d0f d73c 5b9e 0d3c 5e46 123c
000003d0: 6428 6fbc 1f29 2ebd 4c3d 93bb 6633 11bb
000003e0: 00e9 c33c ef56 f3bb 96cc 9abc e0a2 5bb9
000003f0: 7532 53bc 066c 34bc 5fbc 1fbb c71c e8bc

action_model._discrete_distribution.branches.0.bias f4 [2]
0.02506975 -0.02506975
00000000: 145f cd3c 145f cdbc

action_model._discrete_distribution.branches.0.weight f4 [2, 128]
-0.023009649 0.014956089 -0.044776473 -0.0042469166 -0.01564726 -0.021556592 -0.050345644 -0.0015655608
-0.018035421 -0.010150582 -0.029924788 -0.018813407 -0.03359391 0.005923682 0.029372972 0.004406721
-0.0084402645 0.026560716 0.01596094 -0.0035752035 0.00832106 0.016944267 0.006285194 -0.009013036
-0.010198153 -0.008355438 -0.00018763573 -0.047998562 -0.025125125 0.024444547 -0.013231117 0.0051581888
0.015668126 0.016562516 -0.02143395 0.0054051895 -0.04981794 -0.00026473036 -0.0052845245 -0.009939836
-0.014813227 -0.037141137 -0.03194681 0.019069698 -0.018612979 -0.03131635 -0.014105957 -0.037124228
0.010200816 0.008195358 -0.07321619 0.008488377 -0.006853287 0.019313043 -0.0032316595 0.004251639
-0.029485306 -0.030083071 0.006014708 -0.007743105 -0.0021064484 -0.02661542 0.034812834 0.006960785
0.0011398447 -0.005986046 -0.011358927 0.0067047654 -0.03289498 0.036230396 -0.0035199632 -0.010218251
0.013565768 -0.033846177 0.038375355 0.008748617 0.0020397091 -0.0012879831 0.010992223 -0.022243788
-0.018999195 0.004164208 -0.009078665 -0.00618309 0.008008868 -0.041154746 -0.0066735847 0.03810312
-0.001901881 -0.00015860912 0.00061136874 0.01605054 -0.018918388 0.0002101031 -7.970498e-05 0.014391997
0.0018901061 -0.023952106 -0.027703771 0.014920414 0.003385503 0.005992987 0.012556569 -0.04325432
0.024385057 0.0058310386 -0.0048642196 -0.0031367284 0.011748552 0.047134086 -0.0056735333 0.025681354
-0.01898044 0.020042218 -0.050601188 -0.030200273 0.008121543 -0.021114998 -0.015068 0.003622462
-0.031373654 -0.056524448 0.01766905 0.008433077 -0.004601547 -0.027535297 -0.012262827 0.00327114
0.025935698 0.0066135214 0.039229617 0.0047304872 0.01694328 0.013660537 0.06744818 -0.0027458104
-7.990114e-06 0.00088100514 0.023457307 0.03801553 0.03360406 -0.0026542165 -0.034635242 0.00770353
0.019356307 -0.0018748309 0.0019630836 -0.00844769 -0.010670755 -0.010650391 -0.021356551 0.0060518277
0.007645692 0.014555973 0.011678214 0.028153421 0.024853833 -0.0059782784 0.0001048867 -0.017234018
-0.00712355 -0.040798556 0.01549939 0.0053751757 0.028951868 0.0056957137 0.023949837 0.012407366
0.003805237 0.02265487 0.015797125 -0.0074025523 0.018211603 0.050349053 0.02231979 0.053564694
0.003960337 -0.008675388 0.07676111 0.000107233645 0.021085635 -0.0018489705 0.009985515 -0.012807185
0.008411042 0.025300715 -0.0043368107 0.02961051 0.009973923 0.00501045 -0.05711852 -0.013352068
0.0074934163 0.008067629 0.019553218 0.007297859 0.047854986 -0.037962917 0.0013199649 0.019831277
0.010100495 0.025760729 -0.04693667 0.0065722833 -0.007310869 0.012583812 -0.00070344715 0.023136169
0.014891967 -0.015406955 0.016662037 0.009655619 -0.010312194 0.049441975 -0.0027092083 -0.012000101
-0.014068614 0.013315699 0.0041695856 -0.015589076 0.0132315885 -0.0027754405 0.009554771 0.0057892553
-0.01968513 0.032810245 0.047609556 -0.011906087 0.006499494 -0.00514915 -0.0058895648 0.029256271
-0.03888226 -0.0037274435 0.0013708735 0.005669237 -0.021267487 -0.031393573 -0.007068458 -0.0021230855
0.031917997 0.017186133 0.0286792 0.041034847 -0.025110936 0.015826287 0.007106769 -0.016483182
0.05062059 0.06321133 -0.015361791 0.017279921 0.023298513 0.014259993 -0.00058818335 0.0066001033
00000000: bb7e bcbc 620a 753c 8967 37bd b829 8bbb
00000010: af2e 80bc 7397 b0bc 3c37 4ebd 8133 cdba
00000020: 05bf 93bc a04e 26bc d424 f5bc 931e 9abc
00000030: c599 09bd 721b c23b 969f f03c 4166 903b
00000040: 0949 0abc dc95 d93c 84c0 823c f64d 6abb
00000050: 0e55 083c b4ce 8a3c 07f4 cd3b 6aab 13bc
00000060: 2716 27bc 3fe5 08bc 15c0 44b9 249a 44bd
00000070: 35d3 cdbc ee3f c83c 54c7 58bc 0606 a93b
00000080: 715a 803c 1dae 873c 4096 afbc 041e b13b
00000090: e50d 4cbd 82cb 8ab9 ce29 adbb b2da 22bc
000000a0: 2db3 72bc 4e21 18bd a9da 02bd 0e38 9c3c
000000b0: 3f7a 98bc 9345 00bd ac1c 67bc 930f 18bd
000000c0: 5321 273c d345 063c 5ff2 95bd d512 0b3c
000000d0: 8a91 e0bb 6336 9e3c 40ca 53bb 5551 8b3b
000000e0: 2b8b f1bc c670 f6bc 0717 c53b dfb9 fdbb
000000f0: 570c 0abb 9508 dabc e797 0e3d 4c17 e43b
00000100: d766 953a 9826 c4bb cb1a 3abc a6b3 db3b
00000110: e3bc 06bd 5366 143d 2faf 66bb 736a 27bc
00000120: f442 5e3c 4aa2 0abd 7a2f 1d3d 5c56 0f3c
00000130: a4ac 053b 8bd1 a8ba ba18 343c 9b38 b6bc
00000140: 33a4 9bbc e973 883b aebe 14bc 859b cabb
00000150: a137 033c e191 28bd 16ae dabb 0412 1c3d
00000160: 8948 f9ba 5050 26b9 4344 203a 6c7c 833c
00000170: bcfa 9abc 1f4f 5c39 4927 a7b8 69cc 6b3c
00000180: 70bd f73a 3537 c4bc 05f3 e2bc c174 743c
00000190: 51df 5d3b d260 c43b 11ba 4d3c 712b 31bd
000001a0: 2cc3 c73c 4c12 bf3b 0864 9fbb 9291 4dbb
000001b0: 007d 403c ac0f 413d 0ce9 b9bb b461 d23c
000001c0: de7c 9bbc 942f a43c 3143 4fbd 9066 f7bc
000001d0: 3810 053c 5cf9 acbc c6df 76bc d466 6d3b
000001e0: a981 00bd 2e86 67bd afbe 903c e32a 0a3c
000001f0: 93c8 96bb b491 e1bc 06ea 48bc 9f60 563b
00000200: 1a77 d43c 3db6 d83b 3caf 203d 3402 9b3b
00000210: a2cc 8a3c 72d0 5f3c 4522 8a3d 0ef3 33bb
00000220: 470d 06b7 41f3 663a 8a29 c03c 2cb6 1b3d
00000230: 69a4 093d 5df2 2dbb afdd 0dbd e56d fc3b
00000240: 1e91 9e3c e3bc f5ba 14a7 003b 2e68 0abc
00000250: 64d4 2ebc fa7e 2ebc eff3 aebc 694e c63b
00000260: b788 fa3b 2d7c 6e3c fb55 3f3c 01a2 e63c
00000270: 449a cb3c 6fe5 c3bb 9ef6 db38 5b2e 8dbc
00000280: ab6c e9bb 631c 27bd 27f1 7d3c 3e22 b03b
00000290: 782c ed3c 1ca3 ba3b 7332 c43c 4448 4b3c
000002a0: 4861 793b b596 b93c f968 813c 1c91 f2bb
000002b0: 8030 953c cf3a 4e3d fed7 b63c a766 5b3d
000002c0: b7c5 813b 3723 0ebc ee34 9d3d a0e2 e038
000002d0: c8bb ac3c 2859 f2ba 499a 233c 3ad5 51bc
000002e0: 78ce 093c 7243 cf3c ce1b 8ebb be91 f23c
000002f0: aa69 233c b32e a43b 1cf5 69bd a2c2 5abc
00000300: 558b f53b 172e 043c 122e a03c e122 ef3b
00000310: 9703 443d 017f 1bbd ac02 ad3a 3475 a23c
00000320: 8c7c 253c 2a08 d33c aa40 40bd 4f5c d73b
00000330: 0490 efbb 552c 4e3c 8a67 38ba 1088 bd3c
00000340: 70fd 733c 746d 7cbc d37e 883c 9a32 1e3c
00000350: 7af4 28bc ab83 4a3d f98c 31bb 129c 44bc
00000360: 0b80 66bc 172a 5a3c 05a1 883b 5369 7fbc
00000370: 4ec9 583c 2ae4 35bb 9d8b 1c3c cbb3 bd3b
00000380: b642 a1bc 0964 063d 3d02 433d c011 43bc
00000390: b5f9 d43b 33ba a8bb 40fd c0bb d9aa ef3c
000003a0: 0143 1fbd 2048 74bb e2ae b33a 02c5 b93b
000003b0: 2739 aebc 8c96 00bd 869e e7bb 7723 0bbb
000003c0: 72bc 023d efc9 8c3c a4f0 ea3c 2814 283d
000003d0: 73b5 cdbc 21a6 813c e6df e83b bd07 87bc
000003e0: 8957 4f3d f174 813d 05b0 7bbc 9f8e 8d3c
000003f0: 86dc be3c bfa2 693c 5130 1aba ae45 d83b

network_body.linear_encoder.seq_layers.0.bias f4 [128]
0.0018900697 -0.007247561 0.0038927726 0.021624204 -0.003710928 -0.006878757 0.0026886137 0.016850011
0.0060483254 -0.0036040621 0.033035226 0.008280816 -0.009522716 0.00033052688 0.008565638 0.0018047567
0.0006474352 0.01085206 0.014668085 -0.004881858 -0.002425338 0.0052897236 -0.0041417326 0.011805182
-0.012862046 -0.007120346 1.8695306e-05 0.010467104 -0.014398393 0.0055725854 0.0077564213 0.009253772
0.024397273 0.0014190426 0.0013088504 -0.006572537 0.0076926285 0.008035182 0.003700288 0.0026833152
-0.020272909 0.0017943339 0.012236762 0.010411842 0.0013834267 0.008329454 0.009359618 -0.0013457314
0.008792394 0.012180542 0.00032849994 -0.019518467 -0.011046184 0.01359023 0.004006999 0.00059805694
-0.008092497 0.0072573293 0.007675956 -0.0036634333 -0.02105625 0.019061089 0.0036694803 0.0026973935
-0.0037346561 0.006800231 -0.0014156223 -0.0025655695 0.01960988 -0.008115017 0.007068008 0.03481562
-0.002977092 0.0008019546 -0.007604337 0.008043113 -0.007856071 0.0045329644 0.019870052 0.012545645
-0.0037242633 0.008275218 0.005932678 -0.0008659871 -0.012707842 0.008710693 -0.0019774653 -0.01373382
0.007840345 0.015755882 -0.004276391 -0.005769373 -0.017961575 -0.0041594487 0.0070232702 0.014439195
-0.005545383 0.013168174 -0.009936011 -0.0060193078 0.010029995 0.008768807 -0.00744906 0.022507941
-0.008779417 0.014299139 -0.0032939995 0.0035067638 0.00076651154 -0.008880385 -0.016864872 0.021774052
0.012059995 0.0030476388 -0.005251445 0.0327045 -0.0028107814 0.009264188 -0.0045627966 0.00841791
-0.014289737 0.008506357 0.015569202 0.006779139 -0.014433007 -0.0040632715 -0.010456329 -0.00397472
00000000: 37bc f73a f37c edbb e31d 7f3b 3e25 b13c
00000010: 0a33 73bb 3267 e1bb 7433 303b 0909 8a3c
00000020: 0831 c63b 2132 6cbb f24f 073d 42ac 073c
00000030: 2a05 1cbc 914a ad39 e456 0c3c 968d ec3a
00000040: a4b8 293a d7cc 313c 6852 703c fef7 9fbb
00000050: 6bf2 1ebb 6b55 ad3b 5fb7 87bb 866a 413c
00000060: 55bb 52bc cb51 e9bb ddd3 9c37 377e 2b3c
00000070: 3de7 6bbc 3c9a b63b 9429 fe3b 229d 173c
00000080: cadc c73c 2bff b93a bb8d ab3a 705e d7bb
00000090: 7212 fc3b ffa5 033c 8880 723b 8fda 2f3b
000000a0: 5f13 a6bc db2f eb3a b37c 483c 6e96 2a3c
000000b0: 1954 b53a 4378 083c 1559 193c 4163 b0ba
000000c0: f90d 103c e590 473c 843a ac39 31e5 9fbc
000000d0: 0efb 34bc 8ea9 5e3c 254d 833b ecc6 1c3a
000000e0: 6496 04bc e4ce ed3b 9686 fb3b 3616 70bb
000000f0: 287e acbc 0026 9c3c aa7b 703b c1c6 303b
00000100: 22c1 74bb 79d4 de3b 678c b9ba 1d23 28bb
00000110: e6a4 a03c d9f4 04bc c09a e73b d39a 0e3d
00000120: 511b 43bb 433a 523a cd2d f9bb 43c7 033c
00000130: c0b6 00bc 4389 943b 85c6 a23c 408c 4d3c
00000140: c512 74bb c894 073c e966 c23b 6903 63ba
00000150: 8d34 50bc 4bb7 0e3c 5d98 01bb d103 61bc
00000160: ca74 003c 7b12 813c f820 8cbb 020d bdbb
00000170: 2724 93bc fc4b 88bb 7623 e63b 6092 6c3c
00000180: 0bb6 b5bb 53bf 573c a7ca 22bc 9d3d c5bb
00000190: d954 243c 0bab 0f3c 3f17 f4bb 9362 b83c
000001a0: 8bd7 0fbc f046 6a3c 24e0 57bb bcd1 653b
000001b0: b8ef 483a 097f 11bc 3328 8abc 7f5f b23c
000001c0: 4997 453c e5ba 473b 5014 acbb 27f5 053d
000001d0: 1635 38bb d2c8 173c 8383 95bb 46eb 093c
000001e0: 801f 6abc 3f5e 0b3c f715 7f3c 8a23 de3b
000001f0: 6b78 6cbc 3125 85bb 0651 2bbc 5e3e 82bb

network_body.linear_encoder.seq_layers.0.weight f4 [128, 30]
0.36623812 -0.07988464 0.2884831 -0.06603332 0.013416349 0.0056438316 -0.37117073 -0.07559389
0.13470864 0.034321662 0.3018088 0.32791677 -0.18267876 -0.07133882 -0.2107155 -0.3055843
-0.05697151 0.19625536 0.068941996 -0.30042234 0.062893026 0.01292872 -0.18438283 0.20982781
0.054244988 -0.14446448 0.25988907 -0.07469106 0.11888689 0.06160017 0.2623053 -0.05187805
0.11751953 0.14451212 0.0699135 -0.4573208 -0.25839815 -0.3435323 0.08719067 0.04356979
-0.02765159 0.031439155 0.17122458 0.27242494 0.023188813 -0.037473176 -0.12391268 -0.22965641
-0.13284375 -0.16473213 0.044854432 0.12579444 0.16381462 -0.15856586 0.16360174 -0.021300768
0.010680289 -0.026392516 -0.10186413 -0.18142071 0.17382176 -0.07095556 0.09538044 -0.12754187
0.0043898667 -0.020585686 0.0016138146 -0.3424487 -0.37830132 -0.03984783 0.05243319 -0.20789148
0.30885544 0.118949085 0.018548217 0.20516989 0.06266699 0.07154806 0.20587689 -0.13301899
-0.0562573 0.14732717 -0.048797347 -0.24943003 0.062928386 -0.05965223 -0.09655437 -0.10608661
-0.030734682 0.11375893 0.046945706 0.0038112446 0.22309966 0.097977675 0.15402667 0.07037034
0.017155387 0.027383344 0.26468113 0.173077 -0.21945752 0.10564026 -0.01009005 -0.04631067
-0.3044594 -0.048329093 -0.15010092 -0.09247847 0.03539989 0.010116531 -0.06007179 0.21695025
0.0791313 0.039613437 -0.06279945 -0.030664798 -0.33620024 0.01601322 -0.023504829 -0.14093089
0.35590732 -0.10911302 0.19453654 -0.24919398 0.36356717 0.13737065 -0.048164126 -0.06133591
-0.26986325 0.17320465 0.17640801 0.008820986 0.09471204 0.2631288 -0.11954035 0.014686628
-0.048764687 0.14091147 0.14683497 -0.04800481 -0.20923263 -0.4058554 0.2786767 -0.08341598
-0.09190468 0.26409066 -0.099313855 0.044715546 0.09440787 0.28818342 -0.13663381 0.05011888
-0.037889346 0.022659449 -0.07184862 0.124614865 -0.08965665 -0.06765216 -0.24652368 -0.206366
-0.11397967 0.56404567 -0.3234622 0.17799854 -0.20663531 -0.073595405 0.07895465 -0.20468326
0.054564644 0.0048720227 -0.039845295 0.1960343 0.04060312 -0.09304808 0.39246312 0.030895235
-0.026546318 -0.20666657 -0.009416246 0.12893955 -0.21650657 -0.042085502 -0.108142495 -0.1688032
0.06817933 -0.16069143 0.19425574 -0.0433884 0.26893932 -0.0889629 0.17772603 0.050983816
-0.026468301 0.07984255 0.02041822 0.020172466 0.3111111 -0.15288575 -0.063663885 -0.054302335
0.21386662 0.016573934 -0.3165142 0.0053656683 0.24360739 0.13450636 -0.039235108 0.14990358
0.15737244 -0.020947902 0.21314117 -0.032856457 0.30675516 0.13171795 -0.0006548743 -0.034664627
-0.1958089 -0.082275786 -0.22573015 -0.19924995 -0.009856471 0.17629008 0.029794373 -0.04922891
-0.6582949 -0.06929527 0.116297096 -0.058810446 0.055249553 0.10924089 -0.03879986 -0.17719424
-0.067094475 0.40717703 0.20853318 -0.001097208 -0.10959236 -0.03286441 -0.20729843 -0.041066255
-0.16923957 0.025805846 0.056059513 0.1081743 -0.01636051 0.047522463 0.13413128 0.12083072
-0.040912785 -0.3055655 -0.015455019 -0.13490456 0.21748354 0.17006029 0.046967663 0.014921696
00000000: 9083 bb3e 8f9a a3bd 0fb4 933e 7a3c 87bd
00000010: 3fd0 5b3c e4ef b83b 170a bebe f8d0 9abd
00000020: 10f1 093e df94 0c3d af86 9a3e b5e4 a73e
00000030: 2410 3bbe 161a 92bd cec5 57be 8c75 9cbe
00000040: f55a 69bd 2af7 483e 7631 8d3d f5d0 99be
00000050: 0fce 803d fbd2 533c dace 3cbe 1add 563e
00000060: fe2f 5e3d 7fee 13be 2e10 853e a0f7 98bd
00000070: f87a f33d 7650 7c3d e14c 863e 147e 54bd
00000080: 14ae f03d fcfa 133e cf2e 8f3d f425 eabe
00000090: c34c 84be 77e3 afbe 0691 b23d 3c76 323d
000000a0: 9685 e2bc 58c6 003d 7f55 2f3e 487b 8b3e
000000b0: 77f6 bd3c 797d 19bd eec5 fdbd 0d2b 6bbe
000000c0: 3108 08be 8aaf 28be 48b9 373d 42d0 003e
000000d0: 05bf 273e 175f 22be 3787 273e f37e aebc
000000e0: 61fc 2e3c 1e35 d8bc 249e d0bd 5ac6 39be
000000f0: 55fe 313e 2651 91bd d256 c33d 569a 02be
00000100: dfd8 8f3b 50a3 a8bc a286 d33a 7055 afbe
00000110: b6b0 c1be 7a37 23bd 2fc4 563d 81e1 54be
00000120: 4d22 9e3e 949b f33d 6ef2 973c 0e18 523e
00000130: 8d57 803d ca87 923d 64d1 523e 2136 08be
00000140: 0e6e 66bd efdc 163e badf 47bd 966a 7fbe
00000150: 99e0 803d e655 74bd 4cbe c5bd f043 d9bd
00000160: 4dc7 fbbc 71fa e83d 244a 403d 13c6 793b
00000170: 3d74 643e 85a8 c83d 2bb9 1d3e 531e 903d
00000180: 7489 8c3c 0953 e03c 4984 873e 193b 313e
00000190: 79b9 60be ec59 d83d bd50 25bc 42b0 3dbd
000001a0: 1ae2 9bbe baf4 45bd 0eb4 19be 5a65 bdbd
000001b0: 7aff 103d cebf 253c d60d 76bd 3528 5e3e
000001c0: 970f a23d b341 223d ff9c 80bd be34 fbbc
000001d0: 7022 acbe 282e 833c 338d c0bc 3050 10be
000001e0: 7c39 b63e a676 dfbd 9634 473e b52c 7fbe
000001f0: 7a25 ba3e e4aa 0c3e bf47 45bd 5d3b 7bbd
00000200: 842b 8abe 8f5c 313e 4da4 343e e685 103c
00000210: 63f8 c13d d1b8 863e 92d1 f4bd 2fa0 703c
00000220: 7bbd 47bd 194b 103e e85b 163e b1a0 44bd
00000230: 1441 56be 47cc cfbe b6ae 8e3e ffd5 aabd
00000240: 8538 bcbd e436 873e 1065 cbbd a627 373d
00000250: ea58 c13d c78c 933e bce9 0bbe 7449 4d3d
00000260: dc31 1bbd 4fa0 b93c 5f25 93bd 1436 ff3d
00000270: e89d b7bd 378d 8abd b470 7cbe 9c51 53be
00000280: 2c6e e9bd 4c65 103f d69c a5be 4045 363e
00000290: 3598 53be 30b9 96bd fab2 a13d 7d98 51be
000002a0: 2d7f 5f3d 7da5 9f3b d234 23bd 37bd 483e
000002b0: 754f 263d fe8f bebd edf0 c83e 0118 fd3c
000002c0: aa77 d9bc 67a0 53be 9946 1abc bb08 043e
000002d0: e6b3 5dbe d961 2cbd d079 ddbd bfda 2cbe
000002e0: 9ba1 8b3d 4b8c 24be faea 463e 09b8 31bd
000002f0: 6ab2 893e 2e32 b6bd d0fd 353e 68d4 503d
00000300: 0dd4 d8bc 7e84 a33d 1c44 a73c ba40 a53c
00000310: f449 9f3e 158e 1cbe 3662 82bd 206c 5ebd
00000320: daff 5a3e 0fc6 873c 260e a2be 7dd2 af3b
00000330: 3774 793e 09bc 093e feb4 20bd 5380 193e
00000340: 3e26 213e ef9a abbc ae41 5a3e 7e94 06bd
00000350: 030f 9d3e 12e1 063e dfab 2bba 7ffc 0dbd
00000360: 2182 48be 3580 a8bd ce25 67be 2e08 4cbe
00000370: 097d 21bc 6385 343e 5413 f43c 41a4 49bd
00000380: 0486 28bf aeea 8dbd 2c2d ee3d 39e3 70bd
00000390: 5b4d 623d b0b9 df3d 9aec 1ebd 6872 35be
000003a0: d468 89bd 8279 d03e b989 553e 31d0 8fba
000003b0: f671 e0bd d59c 06bd 0a46 54be 1735 28bd
000003c0: 234d 2dbe c866 d33c a99e 653d 7d8a dd3d
000003d0: 7a06 86bc eaa6 423d b659 093e 1976 f73d
000003e0: 2a94 27bd 1573 9cbe 0c37 7dbc 6c24 0abe
000003f0: 01b4 5e3e 4924 2e3e 2a61 403d 217a 743c

network_body.linear_encoder.seq_layers.2.bias f4 [128]
-0.0013100035 0.010962519 -0.006488688 -0.0025806068 0.0029104517 -0.007495016 -0.0005023082 0.0008090549
0.02159136 -0.007502275 -0.024737252 0.021149516 0.0022042547 -0.009360234 0.009083772 0.0005946186
-0.0012581999 0.026145961 -0.001376542 -0.0049809306 0.010411069 0.015483504 0.01070205 -0.013844257
0.010743988 -0.007799513 0.0021975827 -0.001977018 0.004011215 0.0075681345 0.0012099029 0.0013514537
0.009795147 0.015045183 -0.016940612 -0.00023967861 -0.0025771372 -0.00048549665 0.0011884737 0.009708605
-0.0025221866 -0.005310837 -0.015981974 0.009110202 0.0053741615 0.0016656441 -0.029095408 0.008823167
0.004740319 -0.007861078 0.0057867453 0.0026543413 -0.0038352439 -0.008491869 0.002278407 0.0121138245
-0.0027853933 0.00021209351 0.012345685 -0.008882373 0.0014791583 -0.01105224 0.034367528 0.0014303066
-0.0011010764 -0.00196329 -0.0011144329 0.0058677047 -0.01306271 0.033133633 0.009416645 0.010162323
-0.00043143108 0.0005747314 0.0319569 -0.000758704 0.010330977 -0.005469493 0.006591383 -0.0072676777
-0.0014084773 0.020995503 0.00016928441 -0.0075204014 0.019334046 -0.0059783896 0.0014602124 0.025508579
0.0038274904 -0.000461333 -0.00956885 0.023724923 -0.012735286 0.0049040313 -0.00020166312 -0.008334376
0.0064846175 -0.011860878 0.0019503006 0.0065498073 -0.01196247 0.006866991 0.009684853 0.0034267772
0.028085198 0.002779643 -0.0076018716 0.009928772 0.0121158045 0.030008895 -0.010536095 -0.0017084747
-0.0114571145 -0.0030197839 0.008148921 -0.010136406 -0.0019796637 0.002066478 -0.014760858 0.014795075
-0.00043335985 -0.008320385 0.009653383 -0.0036288493 -0.01093369 -0.0025572246 0.0010220072 -0.0042497357
00000000: 6cb4 abba 239c 333c 0f9f d4bb 661f 29bb
00000010: 47bd 3e3b c098 f5bb 55ad 03ba c116 543a
00000020: 5de0 b03c a5d5 f5bb c7a5 cabc c041 ad3c
00000030: 4275 103b ab5b 19bc 1ad4 143c 2ee0 1b3a
00000040: 2fea a4ba 0e30 d63c 166d b4ba 1337 a3bb
00000050: 3093 2a3c 86ae 7d3c a757 2f3c 06d3 62bc
00000060: 8d07 303c 0f93 ffbb 5205 103b dc90 01bb
00000070: 8370 833b 1dfe f73b 9b95 9e3a 4323 b13a
00000080: d37b 203c 1280 763c 0ac7 8abc 3d52 7bb9
00000090: 30e5 28bb 428a feb9 8fc6 9b3a d710 1f3c
000000a0: 454b 25bb 8806 aebb a1ec 82bc f542 153c
000000b0: bc19 b03b be51 da3a 7e59 eebc 0b8f 103c
000000c0: ae54 9b3b c0cb 00bc bd9e bd3b 75f4 2d3b
000000d0: b758 7bbb 7b21 0bbc 5451 153b 1079 463c
000000e0: 258b 36bb 6b65 5e39 8e45 4a3c 5f87 11bc
000000f0: 51e0 c13a 7414 35bc f7c4 0c3d 2079 bb3a
00000100: fe51 90ba 8aaa 00bb 2a12 92ba e045 c03b
00000110: fa04 56bc 22b7 073d 4648 1a3c df7f 263c
00000120: b331 e2b9 92a9 163a 3de5 023d c3e3 46ba
00000130: 4243 293c 6f39 b3bb 87fc d73b b325 eebb
00000140: a89c b8ba c3fe ab3c f081 3139 b36d f6bb
00000150: 6f62 9e3c 5ee6 c3bb 9964 bf3a 5ef7 d03c
00000160: a2d6 7a3b 11df f1b9 aac6 1cbc c55a c23c
00000170: a9a7 50bc ffb1 a03b 8875 53b9 e88c 08bc
00000180: ea7c d43b 2154 42bc 3ba1 ff3a c49f d63b
00000190: 3cfe 43bc 7f04 e13b 38ad 1e3c c893 603b
000001a0: ee12 e63c ac2a 363b 1f19 f9bb 4aac 223c
000001b0: 5e81 463c 37d5 f53c 969f 2cbc e6ee dfba
000001c0: 9fb6 3bbc 91e7 45bb 0d83 053c 2b13 26bc
000001d0: 3fbd 01bb bf6d 073b 87d7 71bc 0b67 723c
000001e0: 9334 e3b9 3952 08bc 3929 1e3c fdd1 6dbb
000001f0: 3823 33bc 1c97 27bb dff4 853a 5e41 8bbb

network_body.linear_encoder.seq_layers.2.weight f4 [128, 128]
0.03646891 -0.04228961 -0.06934865 -0.06561086 0.040552367 -0.047290247 0.118450664 -0.061324965
0.013646429 0.10659281 -0.099882565 -0.01808076 -0.0466553 0.10092988 -0.002455129 0.013346612
-0.08574628 -0.10076941 -0.116727754 0.088429175 -0.04843452 0.19041005 0.0118544 -0.039838117
0.019194156 -0.11734785 0.10936466 -0.04952908 -0.034383457 -0.12788337 -0.028980687 0.018513296
0.026127093 0.051620986 -0.030769682 -0.040438402 -0.014877096 -0.077804595 -0.0146145 -0.084909506
-0.021957826 -0.016145596 -0.11800437 0.106011525 -0.028436841 -0.054006368 0.05409234 0.025923666
-0.09984865 -0.14814785 0.11235073 -0.014953986 -0.010419667 0.0176165 -0.010208022 0.04027393
0.033221416 0.08532274 0.18074213 -0.19402072 -0.1024364 0.09364999 0.18613276 0.07082112
0.03645995 -0.018947575 -0.024149718 0.06506044 -0.10473656 0.045847896 -0.015442692 -0.0017626607
-0.09543945 -0.10845396 0.067004964 0.06811436 0.05960726 -0.042070936 0.008103705 -0.11319402
0.06609415 -0.12129392 -0.06605451 0.069844276 -0.045634206 -0.12753068 0.04145512 0.15129235
0.049525674 0.09366123 -0.0869277 0.20275533 0.13096707 -0.06868227 0.22937874 -0.044808384
-0.0022456732 -0.015525671 0.045841824 0.078971155 -0.104097396 -0.10283015 0.022840302 0.034153633
-0.12796475 -0.06421755 -0.082268596 -0.061078414 -0.050790053 0.10894178 0.046349373 -0.097670786
-0.035615336 0.04717051 0.007988903 0.03397453 -0.04549541 0.036104884 0.10321676 0.06730137
0.14308655 0.022907887 0.046883583 -0.19435918 -0.024870519 0.0064678374 0.19273722 0.008458044
0.011820683 0.021380067 -0.09534341 -0.044425033 0.102191046 0.020857418 0.043546222 -0.02281843
0.013156573 0.0046545863 -0.03362076 0.03755648 -0.10948168 -0.049611185 0.029498141 0.056153625
0.13125224 -0.07027711 0.053776804 -0.02577041 -0.069348834 0.1549832 0.011101952 -0.0059706233
0.11081309 0.054361306 0.04135812 -0.019624576 -0.016312424 -0.014381085 -0.05789314 0.09929059
0.05411903 0.025355227 0.093649894 0.058350086 -0.057749894 -0.061657634 0.015876858 0.024441773
0.043611806 -0.104559705 -0.040185254 0.040579487 0.017557075 0.017131222 0.07244191 0.00015651631
-0.10358314 0.034277223 -0.13596699 -0.15664218 0.061133906 0.06334476 -0.018887414 -0.1354103
-0.09107507 0.06770613 -0.16861035 0.047266457 0.028874308 0.102436855 0.17715426 -0.09985695
0.0120285805 0.09945821 0.054903537 -0.02281472 -0.08813825 0.04755473 -0.017873917 -0.21650119
-0.0058009536 -0.044180725 -0.13984098 0.016277121 -0.023406144 0.028651245 0.000440429 0.19063036
-0.020781808 -0.05565785 0.26965216 -0.01699874 -0.03345597 -0.08224103 0.0037761466 0.01876699
-0.092022724 0.066998646 0.00024239843 -0.0849142 0.008013632 -0.12322596 -0.17759717 -0.07759972
-0.02698772 -0.19026566 -0.073468305 0.1067943 0.13099433 -0.060839627 0.04598315 -0.12365072
-0.07815307 0.10707184 0.06254849 0.05840709 0.009455536 0.06887696 -0.05757433 0.06598463
0.032374296 0.12592417 -0.025731392 0.07609294 0.20289533 -0.05386507 -0.09424968 0.22132334
0.045790937 -0.053867947 0.019214595 0.041984655 0.085041605 -0.10931391 -0.10610726 0.037434045
00000000: 6c60 153d df37 2dbd aa06 8ebd fd5e 86bd
00000010: 3d1a 263d 6bb3 41bd 4396 f23d e32f 7bbd
00000020: 4695 5f3c 554d da3d 3b8f ccbd 1a1e 94bc
00000030: a119 3fbd 53b4 ce3d 3be6 20bb c0ab 5a3c
00000040: bf9b afbd 3160 cebd f60e efbd 5b1a b53d
00000050: 4663 46bd dafa 423e f538 423c 4b2d 23bd
00000060: 103d 9d3c 1254 f0bd 94fa df3d 01df 4abd
00000070: abd5 0cbd dcf3 02be e868 edbc 32a9 973c
00000080: 7c08 d63c 8770 533d b310 fcbc bda2 25bd
00000090: 10bf 73bc 0458 9fbd a871 6fbc 09e5 adbd
000000a0: e6e0 b3bc c543 84bc 46ac f1bd 921c d93d
000000b0: 61f4 e8bc c835 5dbd ee8f 5d3d de5d d43c
000000c0: 737d ccbd 12b4 17be 2418 e63d 9001 75bc
000000d0: 40b7 2abc 7a50 903c 8c3f 27bc 47f6 243d
000000e0: 2e13 083d b0bd ae3d 7714 393e 5ead 46be
000000f0: 2dca d1bd 91cb bf3d 9699 3e3e aa0a 913d
00000100: 0757 153d f237 9bbc a1d5 c5bc 683e 853d
00000110: 1f80 d6bd 01cb 3b3d 5803 7dbc 1409 e7ba
00000120: c275 c3bd 1c1d debd e639 893d 8b7f 8b3d
00000130: be26 743d 9352 2cbd 67c5 043c 44d2 e7bd
00000140: 5f5c 873d f268 f8bd 9647 87bd 840a 8f3d
00000150: efea 3abd 6797 02be d8cc 293d 62ec 1a3e
00000160: 6fdb 4a3d 75d1 bf3d 2607 b2bd 189f 4f3e
00000170: 3b1c 063e 4aa9 8cbd 43e2 6a3e ff88 37bd
00000180: 252c 13bb 625f 7ebc a3c4 3b3d a1bb a13d
00000190: 0431 d5bd 9d98 d2bd 961b bb3c aee4 0b3d
000001a0: 3109 03be 7e84 83bd 707c a8bd 5c2d 7abd
000001b0: 3b09 50bd de1c df3d d7d8 3d3d 9f07 c8bd
000001c0: 63e1 11bd dd35 413d e3e3 023c e028 0b3d
000001d0: 6559 3abd b7e2 133d 4f63 d33d 4dd5 893d
000001e0: 4885 123e 52a9 bb3c 0009 403d 1806 47be
000001f0: 42bd cbbc 27f0 d33b e85c 453e 9c93 0a3c
00000200: 8aab 413c 4025 af3c 6843 c3bd 06f7 35bd
00000210: 8a49 d13d 2ddd aa3c 865d 323d b7ed babc
00000220: ab8e 573c 8085 983b ecb5 09bd d3d4 193d
00000230: ee37 e0bd 1935 4bbd 16a6 f13c 5801 663d
00000240: fd66 063e 72ed 8fbd 1145 5c3d 781c d3bc
00000250: c306 8ebd eab3 1e3e f6e4 353c 38a5 c3bb
00000260: f9f1 e23d f6a9 5e3d 2267 293d b8c3 a0bc
00000270: a2a1 85bc a49e 6bbc 5b21 6dbd dd58 cb3d
00000280: eaab 5d3d c4b5 cf3c 84cb bf3d 8000 6f3d
00000290: 278b 6cbd b78c 7cbd 2f10 823c 1d3a c83c
000002a0: 4ba2 323d 6623 d6bd 4b99 24bd ad36 263d
000002b0: dbd3 8f3c c756 8c3c 6d5c 943d 871e 2439
000002c0: 6623 d4bd 4666 0c3d ee3a 0bbe cf66 20be
000002d0: 8c67 7a3d e6ba 813d c7b9 9abc ffa8 0abe
000002e0: 9185 babd 83a9 8a3d 31a8 2cbe 799a 413d
000002f0: d089 ec3c 6aca d13d ed67 353e cd81 ccbd
00000300: 8613 453c bfb0 cb3d 88e2 603d f0e5 babc
00000310: d481 b4bd c0c8 423d 526c 92bc 7db2 5dbe
00000320: ed15 bebb d9f6 34bd 7932 0fbe 9957 853c
00000330: 3ebe bfbc 04b6 ea3c 61e9 e639 9b34 433e
00000340: 9c3e aabc 7cf9 63bd d90f 8a3e f140 8bbc
00000350: 2109 09bd fc6d a8bd 3a79 773b 3bbd 993c
00000360: 6976 bcbd 9636 893d 552c 7e39 7fe7 adbd
00000370: 9c4b 033c e45d fcbd 08dc 35be 9aec 9ebd
00000380: 5a15 ddbc 00d5 42be 8d76 96bd f8b6 da3d
00000390: 6123 063e f932 79bd d458 3c3d 973c fdbd
000003a0: b70e a0bd 7b48 db3d 6c19 803d 463c 6f3d
000003b0: 64eb 1a3c 5d0f 8d3d 10d3 6bbd f322 873d
000003c0: e99a 043d 44f2 003e a4ca d2bc 9ed6 9b3d
000003d0: cbc3 4f3e 9fa1 5cbd fa05 c1bd 96a2 623e
000003e0: 478f 3b3d a3a4 5cbd ed67 9d3c 1af8 2b3d
000003f0: 4b2a ae3d f9df dfbd c34e d9bd 7154 193d
