results/ppo/Car Agent/Car Agent-8255.onnx (onnx, 74578 bytes, 9 tensors)

action_model._continuous_distribution.log_sigma f4 [1, 2]
0	0x00000000	0.0
1	0x00000000	0.0

action_model._continuous_distribution.mu.bias f4 [2]
0	0x00000000	0.0
1	0x00000000	0.0

action_model._continuous_distribution.mu.weight f4 [2, 128]
0	0xbcbcbbe6	-0.023038816
1	0x3c6f33b7	0.014599732
2	0x3b6b04d8	0.0035861041
3	0x3c6ea2ab	0.01456515
4	0x3c2bb6b7	0.010480574
5	0xbcb296cc	-0.021800421
6	0x3c80cc0b	0.015722295
7	0x3d2a76ec	0.04161732
8	0x3b288525	0.0025714126
9	0x3c940da8	0.018072918
10	0xbc077668	-0.008267976
11	0xb7cf49e7	-2.4710736e-05
12	0xbb598108	-0.003318848
13	0x3cb1e8c7	0.021717442
14	0x3d7348ca	0.05939559
15	0x3cf7f0fd	0.03026628
16	0x3c7de3ab	0.015496175
17	0xbb831c93	-0.004001209
18	0x39cfe3d7	0.0003965187
19	0xbcd28ba5	-0.025701353
20	0x3ba654ab	0.005076011
21	0xbc9d48f1	-0.01919982
22	0x3d0bb194	0.0341049
23	0xbbac72e5	-0.00526272
24	0xbc87a1ba	-0.01655661
25	0x3ca05941	0.01957381
26	0xbca53acc	-0.020169638
27	0xbc10b589	-0.008832344
28	0x3c4195bf	0.011815487
29	0x3c0d80f0	0.008636698
30	0x3b8718e3	0.00412284
31	0xbc949202	-0.018136028
32	0x3bcdc6ef	0.0062798182
33	0xbc856dd6	-0.016287725
34	0xbb235c8e	-0.0024926993
35	0xbc25c32f	-0.010117336
36	0xbc01e335	-0.0079277055
37	0x3c161010	0.009159103
38	0x3c7bb395	0.01536264
39	0xbd10323b	-0.035204154
40	0x3a9ad8a8	0.0011813836
41	0x3d2799b7	0.04091808
42	0xbc105936	-0.008810332
43	0xbcb11d34	-0.02162037
44	0x3bfb382f	0.0076666097
45	0x3c0d3285	0.008618002
46	0x3be1e41b	0.0068936474
47	0xba54654a	-0.00081022514
48	0x3c9bb7dc	0.01900857
49	0xbc863bc1	-0.016385915
50	0xbd09dac4	-0.033655897
51	0x3d0646f1	0.0327825
52	0x3c293b87	0.010329134
53	0xbc2bb4cf	-0.01048012
54	0xbc582a78	-0.013193719
55	0xbb296ca2	-0.0025852104
56	0xbc6d4ad8	-0.014483176
57	0xbbed0417	-0.0072331536
58	0xbce92c92	-0.028463636
59	0xbb0fc720	-0.0021938756
60	0xbbb6e1d2	-0.005581119
61	0x3ba41ac8	0.0050080754
62	0x3bd735f5	0.0065677115
63	0x3ca47862	0.020076934
64	0x3c7cdf22	0.015434058
65	0xbb6aa775	-0.0035805379
66	0x3d1d8057	0.038452473
67	0xbd086ef1	-0.033308927
68	0x3c0b8bde	0.008517234
69	0x3d11bc5a	0.035580017
70	0x3a8d0192	0.0010757914
71	0x3aae6c0b	0.0013307346
72	0xbabb424e	-0.0014286728
73	0x3b98461f	0.004647031
74	0xbcc94caf	-0.024572698
75	0x3ca0bd27	0.019621445
76	0xbce3497f	-0.027745007
77	0x3774a5f8	1.4582176e-05
78	0x3ae8cd98	0.0017761467
79	0x3c41d90f	0.011831536
80	0xbc53bb0f	-0.012923016
81	0xba8fd5a7	-0.0010973708
82	0xbc08eee2	-0.008357735
83	0x3bbdd1af	0.0057928185
84	0x3cb0effb	0.021598807
85	0x3bd9f87a	0.006651935
86	0xbcaad5ea	-0.020853955
87	0xbd2d560b	-0.042318385
88	0x3bf09345	0.0073417746
89	0xbbfc2b92	-0.0076956237
90	0x3b92d263	0.0044806465
91	0xbc09c04f	-0.008407666
92	0x3bd3cd32	0.00646367
93	0x3ae723a3	0.0017634522
94	0xbc8efe6c	-0.017455302
95	0xba36d3f0	-0.000697433
96	0x396ceab2	0.00022594145
97	0x3b5c0c45	0.003357665
98	0xbce7c4a2	-0.028292004
99	0xbc9578ed	-0.018246138
100	0x3c5e953d	0.013585386
101	0x3cab42ec	0.020905934
102	0x3b4334f8	0.002978621
103	0xbc948582	-0.018130068
104	0xbc51125a	-0.012760723
105	0x3c15395d	0.009107915
106	0xbbcb926f	-0.0062125246
107	0x3a8dfc88	0.0010832706
108	0xba57a71b	-0.00082265
109	0xbc9f4893	-0.019443786
110	0xbc3560b8	-0.011070423
111	0x3cdafa87	0.026730789
112	0x3bd352e5	0.006449091
113	0x39a7aa05	0.00031979397
114	0xbb397ae7	-0.0028302015
115	0xbc96e4b0	-0.018419594
116	0xbbf03368	-0.007330347
117	0xbca9d3e6	-0.020730924
118	0xbcd56b5b	-0.026052168
119	0x3b4f92e8	0.0031673256
120	0xbc174007	-0.009231574
121	0xbac38ea7	-0.0014919833
122	0x3cec3d08	0.028837696
123	0x3cbeb56f	0.023279874
124	0x3c5ebc3b	0.013594682
125	0xbc6c59d3	-0.014425713
126	0xbb243987	-0.0025058703
127	0x3c02a803	0.007974627
128	0xbc318877	-0.010835758
129	0x3c04aa1f	0.008097201
130	0xbc6878f5	-0.014188995
131	0x3c23d6f7	0.009999982
132	0x3c798f7b	0.015231962
133	0xbcb0f0e5	-0.021599242
134	0xbc431b53	-0.01190837
135	0x3c085673	0.008321392
136	0x3c6d0ed3	0.014468866
137	0xbb0dd68e	-0.0021642777
138	0xba6a8105	-0.0008945617
139	0xbc855c03	-0.016279226
140	0xbcbd2df5	-0.023093203
141	0xbc9a84ac	-0.018862091
142	0x3c09dc82	0.00841439
143	0x3c64b0ef	0.0139582
144	0x3ca1e3a6	0.019761872
145	0x3bc1d376	0.0059151007
146	0xb95baf0b	-0.00020950676
147	0x3c58a79d	0.013223556
148	0x3c902a43	0.017598277
149	0xbcbcbaf4	-0.023038365
150	0x3b132d97	0.0022457594
151	0x3c566678	0.013085954
152	0x3c360f95	0.0111121135
153	0xbc8fdc03	-0.017560964
154	0x3a0c6603	0.0005355777
155	0x3c049fca	0.008094737
156	0xbca63324	-0.020288058
157	0x3b96f74f	0.004607118
158	0x3c8d969d	0.017283732
159	0x3c4d489d	0.012529519
160	0xbc87a16a	-0.01655646
161	0xbc881cd0	-0.016615301
162	0xbba58c1f	-0.005052104
163	0x3cd9e79f	0.026599703
164	0xbc5da0e3	-0.013527128
165	0xbd06afc9	-0.032882486
166	0xbcfef0d2	-0.031120691
167	0x3b8d673d	0.0043152855
168	0x3c2e4722	0.010637077
169	0x3d14070b	0.03613953
170	0xbc1b1d9c	-0.009467509
171	0x3be424b2	0.0069623822
172	0x3cc4679a	0.023975182
173	0x3be29842	0.006915123
174	0x3be65417	0.0070290673
175	0x3c3a5077	0.011371723
176	0xbc9d98d0	-0.019237906
177	0x3cd4eb37	0.025991065
178	0x3cc6e429	0.024278717
179	0xbc5fc148	-0.013656922
180	0xb914b89e	-0.00014183155
181	0xbc5c38ad	-0.013441247
182	0xbc0e6719	-0.008691573
183	0xbd0a624e	-0.033785157
184	0x3b336cc5	0.0027378064
185	0x3c9f9aa4	0.019482918
186	0xbc581b92	-0.013190167
187	0x3ccc7b3c	0.024961106
188	0xbce5a16a	-0.02803107
189	0x3cde4143	0.027130729
190	0xbc07f6b2	-0.008298563
191	0x3cc1eb7b	0.023671856
192	0xbcacafb3	-0.021079874
193	0xbc217403	-0.0098543195
194	0xbbab9f63	-0.0052375062
195	0x3c84ff25	0.016234944
196	0x3b00c126	0.0019646375
197	0x3cc7efc2	0.024406318
198	0xbac1686b	-0.001475585
199	0xba98b521	-0.001165066
200	0xbc8fce49	-0.01755442
201	0xbbc33845	-0.0059576356
202	0x3b102a5f	0.0021997911
203	0xbc008977	-0.007845274
204	0x3c6c2f05	0.014415507
205	0x3a92b716	0.001119348
206	0xbb75b7e8	-0.003749365
207	0x3be46730	0.0069703087
208	0xbc8dbee3	-0.017302936
209	0xbc8dffd1	-0.017333897
210	0x3bc13d31	0.005897187
211	0x3cafd003	0.021461492
212	0x3c500d45	0.012698476
213	0xbc000dcd	-0.00781579
214	0xbc363e77	-0.011123291
215	0xbc8bfda3	-0.017088717
216	0x3c114f4f	0.008869006
217	0x3c061ab0	0.008185074
218	0x3bd273c0	0.00642249
219	0xbbed24fb	-0.0072370744
220	0xbc069852	-0.008215027
221	0xbc78808b	-0.015167366
222	0xbb8f5f49	-0.0043753725
223	0x3bba0f65	0.0056781047
224	0x3ca21076	0.01978324
225	0xb9e41ef3	-0.00043510608
226	0xbc15277b	-0.009103651
227	0xbc4aa4a1	-0.012368352
228	0x3c19a078	0.009376638
229	0xbce984c8	-0.028505698
230	0x3c1c761d	0.009549645
231	0xbc841d11	-0.016127141
232	0xbc9dc6d0	-0.01925984
233	0xbc63e54a	-0.013909647
234	0xbc3fb6a1	-0.011701257
235	0x3ad13073	0.0015959874
236	0xbc475eef	-0.01216863
237	0x3ce66db7	0.028128488
238	0xbbebfa9d	-0.0072015063
239	0x3b1f80fc	0.0024338355
240	0x3c658057	0.014007649
241	0x3d18e29f	0.037325498
242	0xbceb8055	-0.028747717
243	0x3c00ad65	0.0078538405
244	0x3bb89ec7	0.005634162
245	0x3c217c7f	0.009856342
246	0x3d18d38e	0.03731113
247	0xbcf01a6b	-0.029309472
248	0xbc86d21c	-0.01645761
249	0x3ccf6a93	0.025319373
250	0xbbdf6505	-0.0068174624
251	0xbd00cfbe	-0.03144812
252	0xbcafdb44	-0.021466859
253	0xbacc6351	-0.0015593563
254	0xbbfb0a1b	-0.007661117
255	0x3bb9fda5	0.0056759887

action_model._discrete_distribution.branches.0.bias f4 [2]
0	0x00000000	0.0
1	0x00000000	0.0

action_model._discrete_distribution.branches.0.weight f4 [2, 128]
0	0x3c1b40df	0.009475916
1	0xbb0e010f	-0.0021668111
2	0xbbdf2abb	-0.006810514
3	0xba50e310	-0.0007968405
4	0xbc0635fc	-0.008191582
5	0x3c777713	0.015104073
6	0x3c213aa7	0.009840644
7	0xba25f17a	-0.00063302333
8	0xbc4b8ef6	-0.012424221
9	0x3ba5ea47	0.0050633284
10	0x3bd1c90d	0.006402141
11	0x3c09c222	0.008408101
12	0x3bd785da	0.0065772356
13	0xbc830494	-0.015993394
14	0xbb2f86e0	-0.0026783273
15	0xb9f01b73	-0.00045796818
16	0x3c8273b3	0.01592431
17	0x3b416400	0.0029509068
18	0xbc07bf6a	-0.008285383
19	0x3bdb8d62	0.0067002038
20	0x3bac4aa9	0.0052579236
21	0x3b1ddbd3	0.0024087324
22	0xba83a9f6	-0.0010045159
23	0x3c033ff3	0.008010852
24	0xbb80f8af	-0.0039358954
25	0x3c28bf1e	0.010299472
26	0x3c198f2b	0.009372513
27	0xba224a96	-0.0006190924
28	0x3c242c88	0.010020383
29	0x3c480423	0.0122080175
30	0x3bde4887	0.0067835483
31	0xbb19255d	-0.0023368218
32	0xbc031b9d	-0.008002189
33	0x3b4b1820	0.0030989721
34	0x3c346ea3	0.011012706
35	0xb945d923	-0.00018868274
36	0x3c58b777	0.013227335
37	0x3c8eb4af	0.017420141
38	0xbbfb7402	-0.0076737413
39	0xba1975f9	-0.0005854066
40	0x3b40adec	0.002940054
41	0xbc11cbe9	-0.008898714
42	0x3cae38b2	0.021267269
43	0x3c3c7c3b	0.011504228
44	0x38b51990	8.635514e-05
45	0x3a7638c8	0.00093926163
46	0x3a084db2	0.0005199566
47	0x3a926335	0.0011168482
48	0xbbd6bf5d	-0.006553574
49	0x3bb8954b	0.0056330315
50	0x3b9a3b45	0.0047067725
51	0x3c526a1f	0.012842684
52	0xbc1ebc28	-0.009688415
53	0xbc6e2427	-0.014534987
54	0xbc2a9030	-0.010410354
55	0xbb2907c4	-0.0025791982
56	0xbabbd996	-0.0014331813
57	0x3b963f9a	0.0045852186
58	0x3bcff8d5	0.0063468018
59	0xbc058d83	-0.008151415
60	0x3c2d8956	0.0105918255
61	0x3beed750	0.007288851
62	0x3c24640a	0.010033617
63	0xbb86e756	-0.004116933
64	0xbc473b25	-0.012160097
65	0x3c42e0ad	0.011894387
66	0xbbd37e70	-0.0064542815
67	0x3c330e6f	0.010928734
68	0xb96cb2ed	-0.00022573369
69	0x3a0366e1	0.00050125836
70	0xba8c6b7d	-0.0010713186
71	0x3c605f9b	0.013694669
72	0x3c82d5bd	0.015971059
73	0x3b956758	0.0045594387
74	0xbc1c4c74	-0.009539712
75	0x3b508ea5	0.0031823304
76	0xbb31d149	-0.00271328
77	0xb9c2ecf7	-0.00037179116
78	0xbc5db6ad	-0.013532323
79	0xbbd91885	-0.0066252374
80	0xba39fc2e	-0.00070947676
81	0x3b02c399	0.001995301
82	0x3c0d108f	0.008609905
83	0x3b9cde11	0.0047872146
84	0x3b9bf758	0.0047597103
85	0x39556017	0.00020349059
86	0x3c10c762	0.008836599
87	0xbbc08d85	-0.0058762454
88	0x3bd34f68	0.006448675
89	0xbb97cb97	-0.004632424
90	0xbc00e197	-0.007866285
91	0x3c3ec9cf	0.011644795
92	0xbc09977c	-0.008397933
93	0x3bc99b87	0.0061525735
94	0x3a37154f	0.0006984071
95	0x3be2eb7b	0.006925044
96	0x3c7514b5	0.01495855
97	0xbc679a3d	-0.014135894
98	0x3c62cfa5	0.013843452
99	0x3c69ac18	0.014262222
100	0x3afbed1a	0.0019220442
101	0x3c482749	0.012216398
102	0x3c03cee7	0.008044935
103	0x3c1b34a8	0.009473003
104	0xbc5e2f9d	-0.013561157
105	0xb9b58171	-0.00034619452
106	0x3c5676eb	0.013089876
107	0xbc13f701	-0.009031058
108	0x3c436e18	0.011928104
109	0x3baf8690	0.0053566173
110	0x3bf0148b	0.0073266677
111	0xbb2fa2ab	-0.0026799839
112	0xbc438477	-0.011933438
113	0xb9c850a1	-0.00038207046
114	0xbc5588d2	-0.013033109
115	0x3b506d88	0.0031803567
116	0x3ca5c420	0.020235121
117	0xba99bf5e	-0.0011730005
118	0xbb40d5be	-0.0029424275
119	0xbc262b5b	-0.010142173
120	0x3abaca17	0.0014250901
121	0x3b2ed66c	0.0026678098
122	0x3b182e53	0.002322097
123	0xbc75d5d8	-0.015004598
124	0xbbd03423	-0.0063538714
125	0x3a3f268c	0.0007291816
126	0x3b905e96	0.004405807
127	0x3b978bc6	0.0046248166
128	0x3bff1c03	0.0077853217
129	0xbc45f9be	-0.012083469
130	0x3c5a6c08	0.013331421
131	0xbb0d331a	-0.0021545351
132	0x3caa962f	0.020823566
133	0xbc72cb27	-0.014818943
134	0x3baa92c6	0.005205485
135	0xbca16a66	-0.019704055
136	0xbbdfe403	-0.006832601
137	0x3bb448bc	0.0055018347
138	0xbb107dc3	-0.0022047616
139	0xbc4e0a7a	-0.01257574
140	0xbc53f6dd	-0.012937275
141	0x3c307cb6	0.010771921
142	0xbb6945cb	-0.0035594578
143	0x3bef2c5b	0.0072989888
144	0x3b5d4250	0.003376145
145	0x3b53be8f	0.0032309627
146	0xbc519388	-0.012791522
147	0x3ca7d3ae	0.020486679
148	0xbb9de705	-0.0048187994
149	0x3bb17427	0.0054154578
150	0xbca329a7	-0.019917322
151	0xbb5082f2	-0.003181633
152	0xbbc94679	-0.006142434
153	0x3b82d8ad	0.003993115
154	0x3b9c25f5	0.004765267
155	0xbc0801ef	-0.008301242
156	0xbbb194a7	-0.005419332
157	0xbac42a7a	-0.0014966272
158	0xbbc2743e	-0.0059342673
159	0x3bb31ebd	0.005466311
160	0xbb7be153	-0.0038433864
161	0x3c323f3f	0.010879337
162	0x3b7f058b	0.0038913216
163	0x3c4ae0bf	0.012382685
164	0x3bf5d4b5	0.0075021633
165	0xbc147cd6	-0.009062966
166	0xbbfab11d	-0.007650508
167	0x3937c4b6	0.0001752552
168	0x3ba533cb	0.0050415746
169	0xbc4969eb	-0.012293319
170	0x3a747c7a	0.000932641
171	0xbc041617	-0.008061907
172	0x3c85916c	0.016304694
173	0xbbf2ef2b	-0.007413765
174	0x3b539503	0.0032284863
175	0x3c189f73	0.009315359
176	0xbb9ef40e	-0.004850871
177	0x3c37b56f	0.011212691
178	0x3b9bff8b	0.0047606877
179	0x3c7acfe7	0.015308357
180	0x3c414777	0.011796824
181	0xbb06a2f4	-0.0020543905
182	0x3b9139c3	0.0044319346
183	0xbc8bfff2	-0.017089818
184	0xbc3bdea7	-0.011466659
185	0xbbf0b99f	-0.0073463465
186	0xbafbf3c7	-0.0019222432
187	0x3bf6a158	0.007526558
188	0x3c06292b	0.008188526
189	0x3c6f9978	0.014623992
190	0x3c32fa13	0.01092388
191	0xbbd3fd2b	-0.006469389
192	0xbb0ce5a7	-0.0021499188
193	0x3bb10fbb	0.0054034865
194	0xbb419ce3	-0.0029542975
195	0xbc4deda0	-0.012568861
196	0x3be28162	0.0069123963
197	0x3bbbfcff	0.0057369466
198	0xbbd6d565	-0.0065562003
199	0x3b0504ed	0.0020297125
200	0x3c911fd7	0.017715378
201	0x3bbfa303	0.00584829
202	0x3c407b1f	0.011748104
203	0x3c01ac63	0.007914635
204	0xb9bd190d	-0.00036067553
205	0xbb39c922	-0.0028348644
206	0xbb461339	-0.003022386
207	0x3b1fc992	0.002438162
208	0x3a9bcd4d	0.0011886746
209	0x3c4d54f3	0.0125324605
210	0x3bbcea6f	0.0057652513
211	0x3c6aba9b	0.014326717
212	0x3ae132a0	0.0017181225
213	0xbc77d20a	-0.015125761
214	0x3bfd5745	0.0077313506
215	0xbc1f3b4e	-0.009718729
216	0x3b6f110f	0.0036478674
217	0x3b7281b0	0.003700357
218	0xbbb5c97e	-0.0055477014
219	0x3a53283a	0.00080550055
220	0x3b83c6d4	0.004021505
221	0x3ba7c4f0	0.0051199123
222	0xbb8235bf	-0.003973692
223	0xbc31b8ae	-0.010847254
224	0x3c72b327	0.014813221
225	0x3b9c93ab	0.0047783456
226	0xb9c7014a	-0.00037957198
227	0xbad02eef	-0.0015883128
228	0x3a8871d8	0.0010409905
229	0x3c269123	0.010166439
230	0xbc53cf13	-0.012927788
231	0x3bee8198	0.0072786324
232	0x3a68d007	0.0008881096
233	0xbca8c196	-0.020600121
234	0xbb8eb277	-0.0043547708
235	0xbb876f3e	-0.004133134
236	0xbbeacb57	-0.0071653533
237	0x3bd2f148	0.0064374544
238	0x3b5fb0cf	0.0034132486
239	0xbc1f7c21	-0.0097341845
240	0x3bb8c56b	0.0056387684
241	0xbb5b3633	-0.0033449053
242	0xbaf67020	-0.0018801726
243	0x3b98f37e	0.0046676984
244	0xbb417ea2	-0.0029524942
245	0x3ab4bf24	0.0013789875
246	0x3bf9f2d3	0.007627824
247	0xba94b8ff	-0.0011346637
248	0x3ac9e0cd	0.0015402079
249	0x3af6722f	0.001880234
250	0xbc1ef5ac	-0.009702127
251	0xbaa5ddd9	-0.0012654617
252	0xbba9c846	-0.005181345
253	0x3c0784a5	0.008271371
254	0xbbb1e0d7	-0.0054284143
255	0xbb998b16	-0.00468577

network_body.linear_encoder.seq_layers.0.bias f4 [128]
0	0x00000000	0.0
1	0x00000000	0.0
2	0x00000000	0.0
3	0x00000000	0.0
4	0x00000000	0.0
5	0x00000000	0.0
6	0x00000000	0.0
7	0x00000000	0.0
8	0x00000000	0.0
9	0x00000000	0.0
10	0x00000000	0.0
11	0x00000000	0.0
12	0x00000000	0.0
13	0x00000000	0.0
14	0x00000000	0.0
15	0x00000000	0.0
16	0x00000000	0.0
17	0x00000000	0.0
18	0x00000000	0.0
19	0x00000000	0.0
20	0x00000000	0.0
21	0x00000000	0.0
22	0x00000000	0.0
23	0x00000000	0.0
24	0x00000000	0.0
25	0x00000000	0.0
26	0x00000000	0.0
27	0x00000000	0.0
28	0x00000000	0.0
29	0x00000000	0.0
30	0x00000000	0.0
31	0x00000000	0.0
32	0x00000000	0.0
33	0x00000000	0.0
34	0x00000000	0.0
35	0x00000000	0.0
36	0x00000000	0.0
37	0x00000000	0.0
38	0x00000000	0.0
39	0x00000000	0.0
40	0x00000000	0.0
41	0x00000000	0.0
42	0x00000000	0.0
43	0x00000000	0.0
44	0x00000000	0.0
45	0x00000000	0.0
46	0x00000000	0.0
47	0x00000000	0.0
48	0x00000000	0.0
49	0x00000000	0.0
50	0x00000000	0.0
51	0x00000000	0.0
52	0x00000000	0.0
53	0x00000000	0.0
54	0x00000000	0.0
55	0x00000000	0.0
56	0x00000000	0.0
57	0x00000000	0.0
58	0x00000000	0.0
59	0x00000000	0.0
60	0x00000000	0.0
61	0x00000000	0.0
62	0x00000000	0.0
63	0x00000000	0.0
64	0x00000000	0.0
65	0x00000000	0.0
66	0x00000000	0.0
67	0x00000000	0.0
68	0x00000000	0.0
69	0x00000000	0.0
70	0x00000000	0.0
71	0x00000000	0.0
72	0x00000000	0.0
73	0x00000000	0.0
74	0x00000000	0.0
75	0x00000000	0.0
76	0x00000000	0.0
77	0x00000000	0.0
78	0x00000000	0.0
79	0x00000000	0.0
80	0x00000000	0.0
81	0x00000000	0.0
82	0x00000000	0.0
83	0x00000000	0.0
84	0x00000000	0.0
85	0x00000000	0.0
86	0x00000000	0.0
87	0x00000000	0.0
88	0x00000000	0.0
89	0x00000000	0.0
90	0x00000000	0.0
91	0x00000000	0.0
92	0x00000000	0.0
93	0x00000000	0.0
94	0x00000000	0.0
95	0x00000000	0.0
96	0x00000000	0.0
97	0x00000000	0.0
98	0x00000000	0.0
99	0x00000000	0.0
100	0x00000000	0.0
101	0x00000000	0.0
102	0x00000000	0.0
103	0x00000000	0.0
104	0x00000000	0.0
105	0x00000000	0.0
106	0x00000000	0.0
107	0x00000000	0.0
108	0x00000000	0.0
109	0x00000000	0.0
110	0x00000000	0.0
111	0x00000000	0.0
112	0x00000000	0.0
113	0x00000000	0.0
114	0x00000000	0.0
115	0x00000000	0.0
116	0x00000000	0.0
117	0x00000000	0.0
118	0x00000000	0.0
119	0x00000000	0.0
120	0x00000000	0.0
121	0x00000000	0.0
122	0x00000000	0.0
123	0x00000000	0.0
124	0x00000000	0.0
125	0x00000000	0.0
126	0x00000000	0.0
127	0x00000000	0.0

network_body.linear_encoder.seq_layers.0.weight f4 [128, 6]
0	0x3ea569f6	0.32307404
1	0x3d2443bc	0.04010366
2	0xbf2ba8eb	-0.67054623
3	0x3e366984	0.17813689
4	0xbe62171f	-0.22079132
5	0xbf15d385	-0.5852588
6	0x3d6f7b15	0.05846699
7	0xbd582205	-0.05276682
8	0xbf1f7ab6	-0.6229662
9	0xbc1db944	-0.00962669
10	0x3dda5cbb	0.10662218
11	0xbe1327dd	-0.14370675
12	0xbedbd178	-0.4293325
13	0xbdfd727b	-0.12375351
14	0x3e581d67	0.21104966
15	0xbe233b90	-0.1594069
16	0xbe537caa	-0.20653024
17	0x3d7de6b5	0.061987597
18	0x3e907728	0.2821591
19	0xbe07eaed	-0.13273211
20	0xbe400784	-0.18752867
21	0x3e2aeec9	0.16692652
22	0x3e612078	0.21985042
23	0x3ee32294	0.4436232
24	0xbf4b7ece	-0.79490364
25	0x3e2c4b9a	0.16825715
26	0x3e730f12	0.23736218
27	0xbf42ac5b	-0.76044244
28	0x3e80c2a2	0.25148493
29	0xbe63b700	-0.22237778
30	0x3e0974b3	0.13423423
31	0x3e013837	0.126191
32	0xbf501fd0	-0.8129854
33	0xbefff5f7	-0.49992344
34	0xbecda476	-0.40164536
35	0x3f3132e0	0.69218254
36	0xbcd51c12	-0.026014362
37	0x3db0cc9a	0.08632775
38	0x3f8f34ca	1.1187985
39	0x3e89cd46	0.26914424
40	0x3e99a4e5	0.30008617
41	0xbe3bb3bc	-0.18330282
42	0xbec0cfee	-0.37658638
43	0x3f1522c2	0.5825616
44	0xbe7b5019	-0.24542274
45	0xbefd2bc4	-0.49447453
46	0xbeca539d	-0.39516917
47	0x3e50cde0	0.20391035
48	0x3d20dbb7	0.039272036
49	0xbe1c2af2	-0.15250757
50	0xbf14d426	-0.5813621
51	0x3dfe2161	0.1240871
52	0xbf0125d1	-0.5044833
53	0xbe84a5d7	-0.25907776
54	0x3f263786	0.6492847
55	0xbf1d0e60	-0.6135006
56	0x3c0480fb	0.008087392
57	0x3aaf8ca3	0.0013393353
58	0x3ee1ae8f	0.4407849
59	0xbe95c1f4	-0.29249537
60	0x3e88f345	0.267481
61	0x3f3bd481	0.7337113
62	0x3f1881e7	0.59573215
63	0x3e93062f	0.28715655
64	0x3e9f60df	0.31128594
65	0xbeaec816	-0.34137028
66	0xbf98d173	-1.1938919
67	0xbf1fa85f	-0.6236629
68	0x3d60b3a6	0.054858826
69	0x3f733d15	0.9501508
70	0xbf91c790	-1.1389027
71	0xbf14794d	-0.5799759
72	0xbea45f55	-0.32103983
73	0x3de3dd22	0.11126162
74	0x3e0809c1	0.13284971
75	0xbefb4f9a	-0.4908417
76	0x3c9e2f07	0.019309534
77	0xbd278300	-0.040896416
78	0x3f018ba4	0.506037
79	0x3eb93aad	0.3617758
80	0x3e4b855b	0.1987509
81	0x3f53e593	0.8277218
82	0xbe9fc8ec	-0.3120798
83	0xbf85874a	-1.0431912
84	0x3d828726	0.06373434
85	0xbf44a920	-0.76820564
86	0x3ee9c848	0.45660615
87	0xbcfa55d8	-0.030558512
88	0x3eb9fa4a	0.36323768
89	0xbe302961	-0.17203285
90	0xbea3bd45	-0.3198034
91	0xbed416c7	-0.41423628
92	0xbeade61b	-0.3396462
93	0xbf5db943	-0.8661081
94	0x3eba8ed3	0.3643709
95	0x3d011121	0.031510476
96	0xbf20041b	-0.62506264
97	0x3e7947a9	0.24343742
98	0xbec79e30	-0.38987875
99	0xbe40b8c7	-0.18820487
100	0xbe9f8bbf	-0.31161305
101	0x3eb334c6	0.350012
102	0x3f0fd46e	0.56183517
103	0x3c5b374b	0.013379882
104	0x3eee2ac8	0.46517015
105	0x3f241298	0.6409087
106	0xbebfd17f	-0.3746452
107	0x3f2ed49d	0.6829317
108	0x3f610fad	0.87914544
109	0x3d5a6dfb	0.05332754
110	0x3ea6f462	0.32608324
111	0x3f213433	0.62970275
112	0xbe0a6500	-0.13515091
113	0x3f66dbb1	0.9017897
114	0xbe6ab509	-0.22920622
115	0xbe96ca2c	-0.2945112
116	0x3e8a5c72	0.27023655
117	0x3df5cce0	0.120019674
118	0xbd7eb0cb	-0.06218032
119	0xbe8eae7c	-0.27867496
120	0x3f18de43	0.59714144
121	0x3d9869e8	0.07442075
122	0xbe016d1e	-0.12639281
123	0x3f2c823d	0.6738623
124	0xbc6d9e06	-0.014503008
125	0xbe09efba	-0.13470355
126	0xbd5e973a	-0.05434344
127	0x3e840de2	0.25791842
128	0xbea495ef	-0.3214564
129	0x3f1c0e75	0.6095956
130	0x3f412519	0.7544723
131	0x3f2171f3	0.630645
132	0xbf23367d	-0.6375502
133	0xbf0240df	-0.50880235
134	0x3e36a13d	0.17834945
135	0x3e21c555	0.15797932
136	0xbe83f9c3	-0.2577649
137	0xbeb20d4e	-0.34775776
138	0x3e4bb0d2	0.1989167
139	0xbf020d2a	-0.50801337
140	0xbd96c40a	-0.0736161
141	0x3e1b23ff	0.1515045
142	0xbe2173fd	-0.15766902
143	0x3f0bc6f1	0.54600435
144	0x3d11ace3	0.03556527
145	0x3e0b3218	0.13593328
146	0xbf55e18c	-0.8354728
147	0x3d2f8a11	0.04285628
148	0x3ea1a55a	0.31571466
149	0xbf09cbda	-0.5382668
150	0x3e0ab4cc	0.13545531
151	0x3e37e398	0.17957914
152	0x3e44c4bf	0.19215678
153	0xbf11f65b	-0.57016534
154	0x3da8ad35	0.082361616
155	0x3ee30080	0.4433632
156	0xbe3b447d	-0.18287845
157	0xbddac35b	-0.10681792
158	0xbf077daa	-0.52926123
159	0xbe2b1373	-0.16706638
160	0xbd26267b	-0.04056404
161	0x3e63f9db	0.22263281
162	0x3cab1126	0.0208822
163	0x3e45f197	0.1933044
164	0xbdf3b4d0	-0.118997216
165	0xbf44a6d2	-0.7681705
166	0xbeb2ef1c	-0.3494805
167	0xbdd3f203	-0.103488944
168	0xbdcff2c5	-0.101537265
169	0x3ed8e294	0.42360365
170	0xbdd5b049	-0.10434014
171	0xbf0216a8	-0.5081582
172	0xbed38827	-0.41314813
173	0xbe0bf370	-0.13667083
174	0x3e50d377	0.20393167
175	0xbe82a51d	-0.25516596
176	0xbe2df185	-0.16986664
177	0x3f8be2fb	1.0928644
178	0xbec20bd6	-0.37899655
179	0xbd6c8188	-0.057740718
180	0x3e95b7a9	0.29241684
181	0xbd6efb2e	-0.058345012
182	0x3e8ce831	0.27520898
183	0x3eb7ea89	0.35921124
184	0x3df0c6ca	0.11756666
185	0x3e226e58	0.15862405
186	0x3d84cc43	0.06484272
187	0xbf80b324	-1.0054669
188	0x3e8870e1	0.2664862
189	0x3eefb8f5	0.468208
190	0xbef7c556	-0.48392743
191	0xbef531de	-0.47889608
192	0xbef4b6d5	-0.4779574
193	0xbe52c269	-0.20581974
194	0x3e4357fe	0.19076535
195	0xbf177538	-0.59163237
196	0x3e868345	0.26272026
197	0x3e05459b	0.13014834
198	0xbdeab46b	-0.11460193
199	0x3e46497a	0.19363967
200	0xbed9096f	-0.4239001
201	0x3c722ac3	0.014780703
202	0xbeeaea08	-0.45881677
203	0xbf660ca3	-0.8986303
204	0x3e79b9fb	0.24387352
205	0xbf509ada	-0.81486285
206	0xbe4a7819	-0.19772376
207	0x3ea6aef9	0.3255537
208	0x3ea05f42	0.31322676
209	0xbf1033ef	-0.56329244
210	0x3f011fea	0.5043932
211	0xbf02c0d6	-0.51075494
212	0x3eedf346	0.46474665
213	0x3ead9626	0.33903617
214	0xbf794981	-0.97377783
215	0x3df4ad74	0.11947146
216	0xbe99087c	-0.29889286
217	0xbe36b77b	-0.1784343
218	0xbdb3afa6	-0.08773737
219	0x3d0ad0e4	0.03389062
220	0xbdeb16a7	-0.1147893
221	0x3f0b0b84	0.54314446
222	0xbe03f3c2	-0.12885955
223	0x3e1272a9	0.14301552
224	0xbebf59ea	-0.37373286
225	0x3e3c3b61	0.18382026
226	0x3ed1a020	0.40942478
227	0xbe9bd96c	-0.30439317
228	0x3e1148cd	0.14187928
229	0xbe482e7f	-0.19548987
230	0xbd726ffb	-0.059188824
231	0xbf272040	-0.65283585
232	0x3f0970bb	0.5368764
233	0xbeb8b889	-0.3607829
234	0x3f0ad0e4	0.5422499
235	0x3e2cdea3	0.16881804
236	0xbc5d9e4e	-0.013526512
237	0xbe98defa	-0.29857618
238	0xbf197c55	-0.5995534
239	0x3d8ee37e	0.069769844
240	0xbefcb46c	-0.493564
241	0xbebad1a9	-0.36488083
242	0x3d17bd93	0.037046026
243	0x3d6388f8	0.055550545
244	0x3e81a950	0.25324488
245	0xbedb5fe0	-0.42846584
246	0xbe6839fb	-0.22678368
247	0xbebe933a	-0.372217
248	0x3e892b27	0.26790735
249	0x3be77642	0.007063658
250	0xbf030a84	-0.5118792
251	0x3eb26837	0.34845135
252	0x3e2af563	0.1669517
253	0x3eb4c18b	0.35303912
254	0xbe712608	-0.23549664
255	0xbf0e994f	-0.5570268

network_body.linear_encoder.seq_layers.2.bias f4 [128]
0	0x00000000	0.0
1	0x00000000	0.0
2	0x00000000	0.0
3	0x00000000	0.0
4	0x00000000	0.0
5	0x00000000	0.0
6	0x00000000	0.0
7	0x00000000	0.0
8	0x00000000	0.0
9	0x00000000	0.0
10	0x00000000	0.0
11	0x00000000	0.0
12	0x00000000	0.0
13	0x00000000	0.0
14	0x00000000	0.0
15	0x00000000	0.0
16	0x00000000	0.0
17	0x00000000	0.0
18	0x00000000	0.0
19	0x00000000	0.0
20	0x00000000	0.0
21	0x00000000	0.0
22	0x00000000	0.0
23	0x00000000	0.0
24	0x00000000	0.0
25	0x00000000	0.0
26	0x00000000	0.0
27	0x00000000	0.0
28	0x00000000	0.0
29	0x00000000	0.0
30	0x00000000	0.0
31	0x00000000	0.0
32	0x00000000	0.0
33	0x00000000	0.0
34	0x00000000	0.0
35	0x00000000	0.0
36	0x00000000	0.0
37	0x00000000	0.0
38	0x00000000	0.0
39	0x00000000	0.0
40	0x00000000	0.0
41	0x00000000	0.0
42	0x00000000	0.0
43	0x00000000	0.0
44	0x00000000	0.0
45	0x00000000	0.0
46	0x00000000	0.0
47	0x00000000	0.0
48	0x00000000	0.0
49	0x00000000	0.0
50	0x00000000	0.0
51	0x00000000	0.0
52	0x00000000	0.0
53	0x00000000	0.0
54	0x00000000	0.0
55	0x00000000	0.0
56	0x00000000	0.0
57	0x00000000	0.0
58	0x00000000	0.0
59	0x00000000	0.0
60	0x00000000	0.0
61	0x00000000	0.0
62	0x00000000	0.0
63	0x00000000	0.0
64	0x00000000	0.0
65	0x00000000	0.0
66	0x00000000	0.0
67	0x00000000	0.0
68	0x00000000	0.0
69	0x00000000	0.0
70	0x00000000	0.0
71	0x00000000	0.0
72	0x00000000	0.0
73	0x00000000	0.0
74	0x00000000	0.0
75	0x00000000	0.0
76	0x00000000	0.0
77	0x00000000	0.0
78	0x00000000	0.0
79	0x00000000	0.0
80	0x00000000	0.0
81	0x00000000	0.0
82	0x00000000	0.0
83	0x00000000	0.0
84	0x00000000	0.0
85	0x00000000	0.0
86	0x00000000	0.0
87	0x00000000	0.0
88	0x00000000	0.0
89	0x00000000	0.0
90	0x00000000	0.0
91	0x00000000	0.0
92	0x00000000	0.0
93	0x00000000	0.0
94	0x00000000	0.0
95	0x00000000	0.0
96	0x00000000	0.0
97	0x00000000	0.0
98	0x00000000	0.0
99	0x00000000	0.0
100	0x00000000	0.0
101	0x00000000	0.0
102	0x00000000	0.0
103	0x00000000	0.0
104	0x00000000	0.0
105	0x00000000	0.0
106	0x00000000	0.0
107	0x00000000	0.0
108	0x00000000	0.0
109	0x00000000	0.0
110	0x00000000	0.0
111	0x00000000	0.0
112	0x00000000	0.0
113	0x00000000	0.0
114	0x00000000	0.0
115	0x00000000	0.0
116	0x00000000	0.0
117	0x00000000	0.0
118	0x00000000	0.0
119	0x00000000	0.0
120	0x00000000	0.0
121	0x00000000	0.0
122	0x00000000	0.0
123	0x00000000	0.0
124	0x00000000	0.0
125	0x00000000	0.0
126	0x00000000	0.0
127	0x00000000	0.0

network_body.linear_encoder.seq_layers.2.weight f4 [128, 128]
0	0x3df483bb	0.11939188
1	0xbba6884f	-0.005082167
2	0xbdd880bb	-0.105714284
3	0x3bbb707c	0.0057201963
4	0xbdef61a1	-0.11688543
5	0xbdd316f9	-0.10307116
6	0x3cb6d37e	0.022317644
7	0xbbdf979e	-0.006823494
8	0x3db15b5f	0.08660006
9	0xbdee689b	-0.11641046
10	0x3dbc6646	0.091991946
11	0xbd329d94	-0.04360731
12	0x3cd59732	0.026073072
13	0xbddd48c9	-0.10804898
14	0x3da3c966	0.07997398
15	0x3e44dfa9	0.19225945
16	0x3d62865f	0.055303928
17	0xbdd3bc2e	-0.10338627
18	0x3df1518e	0.117831334
19	0xbd30f9ce	-0.043206982
20	0x3e4d54f5	0.2005194
21	0xbc936620	-0.017993033
22	0xbc628f74	-0.013828147
23	0xbd4219f2	-0.047388025
24	0x3d25a2dc	0.040438518
25	0x3bd7ec86	0.006589475
26	0x3e0028b2	0.12515524
27	0x3cb02e42	0.021506432
28	0xbb9817a8	-0.004641492
29	0x3cb38cb0	0.021917671
30	0x3b0ece7b	0.0021790552
31	0x3d98894c	0.07448062
32	0x3d87e1a8	0.066348374
33	0x3d734e81	0.05940104
34	0xbb86855f	-0.0041052545
35	0xbda9e26b	-0.08295139
36	0xbcdb05d9	-0.026736187
37	0x3cbad3b9	0.022806035
38	0x3c8984a8	0.016786888
39	0xbbbaebd1	-0.005704381
40	0x3dd35a52	0.103199616
41	0x3c8c7d8c	0.01714971
42	0x3d508e12	0.05091674
43	0xbd833b44	-0.064077884
44	0xbbb1c8ee	-0.005425564
45	0xbdb9b8aa	-0.09068425
46	0x3d738fbc	0.059463248
47	0x3d8903d9	0.06690187
48	0x3dc82929	0.09773476
49	0x3cc24b10	0.023717433
50	0xbda5dca2	-0.08098723
51	0xbe0855bb	-0.13313954
52	0x3cdc7920	0.026913226
53	0x3df679d7	0.12034958
54	0xbd5ebc61	-0.05437887
55	0x3e1bd272	0.15216997
56	0x3b1258aa	0.002233068
57	0x3e217910	0.15768838
58	0x3e29bf41	0.16576864
59	0xbc372c6f	-0.011180027
60	0x3b5a6d48	0.0033329297
61	0xbe04c813	-0.12966947
62	0xbd8662ab	-0.06561788
63	0xbd923814	-0.07139602
64	0xbd3b4f13	-0.045729708
65	0xbd562d8c	-0.05228953
66	0x3dcc091f	0.09962677
67	0xbe3799f6	-0.17929825
68	0x3e1aedb4	0.15129739
69	0x3da2fb52	0.07958092
70	0x3c923f69	0.017852502
71	0x3d3a3dcd	0.045469094
72	0xbd716659	-0.058935497
73	0x3d94d8d7	0.072679214
74	0x3dac96bc	0.08427188
75	0xbd384924	-0.044991627
76	0x3cbd7f3a	0.023131955
77	0x3d90fe8f	0.07079803
78	0x3ccfe709	0.02537872
79	0x3cd36740	0.02580607
80	0x3d74a937	0.05973169
81	0x3da24c68	0.079247296
82	0xbdafbfd0	-0.08581507
83	0x3d1a4f0b	0.037673037
84	0xbcd5286b	-0.02602025
85	0xbc477023	-0.012172732
86	0xbd39d36d	-0.045367647
87	0xbda88b58	-0.08229703
88	0xbde6a4d9	-0.11261911
89	0xbd0f7cd9	-0.035031173
90	0xbdb499ed	-0.088184215
91	0xbdae0e94	-0.08498874
92	0xbd6b0a98	-0.05738315
93	0x3e84f62e	0.2596907
94	0xbdb5df61	-0.08880497
95	0xbd028733	-0.031867217
96	0xbd3de3d5	-0.046359856
97	0x3e1a4bf6	0.1506804
98	0xbcbd45e8	-0.023104623
99	0xbdca2840	-0.09870958
100	0x3dd954af	0.10611855
101	0x3c11afb5	0.0088919895
102	0xbccd1c05	-0.025037775
103	0xbca930f4	-0.020653225
104	0x3d260189	0.040528808
105	0xbdfd58fd	-0.12370489
106	0xbd144186	-0.0361953
107	0x3d1ebf89	0.03875688
108	0xbd97c3dd	-0.07410405
109	0xbdd7316c	-0.10507473
110	0x3dec01ab	0.11523756
111	0xbcdaf4fd	-0.026728148
112	0xbe005d15	-0.12535508
113	0xbdd62e15	-0.10458008
114	0xbddde0ca	-0.10833891
115	0xbd623834	-0.05522938
116	0xbd0ab529	-0.033864174
117	0xbdcbe1cd	-0.099551775
118	0x3d0b3e04	0.03399469
119	0x3da4bf46	0.08044295
120	0xbb5d188b	-0.0033736553
121	0x3ca25d57	0.019819899
122	0x3e6e44eb	0.23268478
123	0xbe61a258	-0.22034585
124	0x3d5862ef	0.052828725
125	0xbc31ad3f	-0.010844528
126	0xbe3d5a86	-0.18491563
127	0x3df5a64c	0.11994609
128	0xbbf5c909	-0.007500772
129	0xbd535c98	-0.051601976
130	0xbd38e4ab	-0.04513995
131	0x3c8b5730	0.017009348
132	0x3daa9535	0.0832924
133	0xbe3c26e0	-0.18374205
134	0x3dc365a8	0.09540874
135	0x3e6b47de	0.22976634
136	0x3d71380e	0.05889135
137	0x3ce0ddef	0.027449576
138	0x3cc51e45	0.024062285
139	0xbd95d526	-0.073160455
140	0x3d536102	0.051606186
141	0x3d8f7038	0.07003826
142	0xbcdad4e9	-0.026712852
143	0x3d6ef9de	0.05834376
144	0x3d8dbd1b	0.06920835
145	0xbdc61aea	-0.09673102
146	0xbdf56c28	-0.1198352
147	0x3c551659	0.013005816
148	0xbd908a94	-0.07057682
149	0x3da1d812	0.0790254
150	0xbd07327e	-0.033007137
151	0x3d64051c	0.055668935
152	0xbcba2dff	-0.02272701
153	0x3cd5efcd	0.026115322
154	0x3e3837d4	0.17990047
155	0x3d0e81db	0.03479181
156	0x3e37094c	0.1787464
157	0x3d9b7870	0.07591331
158	0x3e1869af	0.14884065
159	0xbd8d7228	-0.06906539
160	0xbd9c9859	-0.076462455
161	0x3c1a4b41	0.009417356
162	0x3dc937ce	0.09825097
163	0x3c405cb2	0.01174085
164	0xbd920c23	-0.07131221
165	0xbb9de4c8	-0.0048185326
166	0x3d3b12b9	0.045672152
167	0xbdc16cd2	-0.09444584
168	0x3d508d09	0.05091575
169	0x3cf8fc1b	0.03039365
170	0x3d234f66	0.039870642
171	0xbccc23c5	-0.0249194
172	0xbd825512	-0.06363882
173	0x3d453a78	0.048151463
174	0x3e033fa6	0.12817249
175	0xbbae0699	-0.005310845
176	0x3d225a75	0.039637048
177	0xbdf9e101	-0.12201119
178	0x3ce20853	0.02759186
179	0x3d2c94f4	0.04213424
180	0x3d6d5faf	0.05795258
181	0xbcbc5a9f	-0.02299243
182	0x3d1dde19	0.038541887
183	0x3be19511	0.006884225
184	0xbd60e5ed	-0.054906774
185	0xbe3d1db0	-0.18468356
186	0xbdab4fa3	-0.08364799
187	0xbac3625d	-0.0014906634
188	0x3d0758af	0.03304356
189	0x3d9d0e37	0.07668727
190	0xbc564d96	-0.013080021
191	0x3debfcdf	0.11522841
192	0x3dfc2dd6	0.1231343
193	0x3e13fbf4	0.14451581
194	0xbc294613	-0.010331648
195	0x3cab3ec1	0.020903947
196	0xbdd88999	-0.1057312
197	0xbc583a45	-0.013197486
198	0x3d201261	0.039080027
199	0x3caa4e6a	0.020789344
200	0x3e03d571	0.1287439
201	0x3daa1e5c	0.08306572
202	0x3de0c481	0.1097498
203	0x3e63b97a	0.22238722
204	0xbd2781e4	-0.040895358
205	0x3df625c5	0.12018923
206	0x3dd1f916	0.102525875
207	0x3db959bf	0.09050321
208	0x3d335721	0.043784264
209	0xbdce33eb	-0.10068496
210	0xbc2e2934	-0.010629941
211	0xbc115e2c	-0.00887255
212	0x3d9b7208	0.07590109
213	0x3db8325f	0.089939825
214	0xbe15f367	-0.14643632
215	0xbe46c88c	-0.1941244
216	0x3de21a28	0.11040145
217	0xbda4b80c	-0.08042917
218	0x3d836488	0.06415659
219	0xbe25139c	-0.16120762
220	0x3b8869a9	0.0041629863
221	0xbc83b4ab	-0.01607736
222	0xbdbd77b6	-0.09251349
223	0xbe26983e	-0.16269013
224	0x3d22fb40	0.039790392
225	0x3d8431a5	0.064547814
226	0x3d87869e	0.06617473
227	0x3d83ab50	0.0642916
228	0x3e13f572	0.14449099
229	0x3e344f96	0.17608485
230	0xbe080c9c	-0.1328606
231	0xbd03e759	-0.032203052
232	0xbda06900	-0.07832527
233	0x3dd07c7f	0.10179996
234	0xbcd0f89b	-0.02550917
235	0x3d98cb65	0.074606694
236	0x3d480852	0.04883606
237	0x3d955bff	0.072929375
238	0x3d833662	0.06406857
239	0x3e1198dd	0.14218469
240	0xbbb2e099	-0.005458903
241	0x3a3d6f29	0.0007226342
242	0x3d57ad1a	0.052655317
243	0xbd105359	-0.035235737
244	0x3e01b73b	0.12667553
245	0x3d89bb1f	0.06725144
246	0xbd13721e	-0.035997503
247	0x3d2a80aa	0.04162661
248	0xbe351924	-0.17685372
249	0xbd96136a	-0.07327922
250	0x3e40b14c	0.18817633
251	0x3de21c9f	0.11040615
252	0xbdfe408a	-0.124146536
253	0x3b0f271b	0.0021843377
254	0xbd827a0d	-0.063709356
255	0xbd02f706	-0.03197386
