results/ppo/Car Agent/Car Agent-73151.pt (torch, 453647 bytes, 42 tensors)

network_body.linear_encoder.seq_layers.0.weight f4 [128, 9]
000000 d4 1d f1 bd 48 a6 07 3f 44 fb b7 3d c8 d5 83 3e
       -0.117732674 0.529881 0.08983472 0.2574904
000010 bc af 87 bd 48 b4 40 3e ef d6 27 3e c2 df 06 3f
       -0.066253155 0.18818772 0.16390584 0.5268518
000020 23 0b dc be 84 6a a1 be 88 f2 a9 bc 5d 5d 98 be
       -0.42977247 -0.31526577 -0.02074553 -0.2975873
000030 ca 31 8d be 1d ba 45 be 27 a0 94 bd 62 f7 18 be
       -0.2757705 -0.19309278 -0.07257109 -0.14938119
000040 07 d4 1c 3d e0 50 a5 3e 26 93 1a be 4d 21 1c bd
       0.038288143 0.32288265 -0.15095195 -0.038117696
000050 f2 f5 3c be 85 fb 90 3b b2 02 16 be 00 5a 89 be
       -0.18453196 0.0044245147 -0.14649466 -0.26826477
000060 78 b1 39 3e 8e fb c4 be 99 5c c2 3d 84 a8 6f be
       0.18134105 -0.3847317 0.09490318 -0.23404127
000070 1f de 1d be 55 f5 27 be 80 89 90 bd 87 fe d9 be
       -0.15416764 -0.1640218 -0.07057476 -0.42577
000080 fe 32 0a be 91 51 3f be d3 46 8b be 4c 81 c0 3e
       -0.13496014 -0.18683459 -0.27202472 0.37598646
000090 05 6b 35 3e 17 55 ae be f4 2e b3 3e c6 6f c5 bd
       0.17716606 -0.34049293 0.3499676 -0.0964046
0000a0 25 39 1f be 23 86 b5 3c 6a 57 c0 be aa 49 29 3f
       -0.15549143 0.022158688 -0.37566692 0.6612803
0000b0 3f af e2 be 0f 17 0e 3f be cc 77 3e 9a 61 fb bc
       -0.44274327 0.55503935 0.24199197 -0.030686188
0000c0 f5 92 c0 3d 62 e2 a8 3e 5a 87 98 be cc dc 4d 3d
       0.0940303 0.32985216 -0.29790765 0.050259396
0000d0 a3 50 05 3e 59 76 07 3e b2 82 01 3e 8f 59 ea be
       0.13019042 0.1322874 0.12647513 -0.45771453
0000e0 97 eb 1a bf ab 4b 20 3e d0 43 96 3e 0e 32 11 bf
       -0.6051573 0.15653865 0.29348612 -0.56717
0000f0 1e 0e b2 bd 72 d5 06 3f 29 24 f5 bd e0 89 50 3e
       -0.08694099 0.5266944 -0.119697876 0.20365095
000100 74 81 d3 3e 8e 6d dc 3b 04 20 c2 bd b2 5b c6 3e
       0.41309702 0.006726927 -0.09478763 0.38741833
000110 bd 0c 7c 3e 4b 96 7d 3c 75 6d 8a be 00 4b 88 3e
       0.24614234 0.015477727 -0.27036634 0.2661972
000120 77 6d 67 3e 77 2e 4b 3e f5 46 e9 3c 1f ac 9e be
       0.22600351 0.19841944 0.028476218 -0.30990693
000130 97 2d 08 3f 56 ca 5b 3e 6b ce ad be ac f6 bd 3d
       0.53194565 0.21463904 -0.33946547 0.092755646
000140 53 2a 70 bc 69 90 bb bc 8a dd a5 3e 68 5b 07 bf
       -0.014658528 -0.022896009 0.32395583 -0.5287385
000150 ab e2 b2 be 6a 93 f1 be b5 3c d7 bd 5c aa a1 3e
       -0.3493856 -0.4718278 -0.10509626 0.31575286
000160 6c c5 69 be 98 99 41 be 53 17 4e 3e 34 21 88 be
       -0.22829217 -0.18906248 0.20126085 -0.26587832
000170 d9 24 8b 3e bd c4 d9 3d c7 2c 01 bd e8 dd 7c 3e
       0.2717655 0.10633228 -0.031536844 0.24694026
000180 20 fe 2f 3e 55 d1 a8 be c3 19 53 3d ad e6 4a bd
       0.17186785 -0.32972208 0.05153824 -0.049536396
000190 ff 01 8d 3b b5 3c 6b be dd 48 87 bd 72 1b 7d 3d
       0.0043032165 -0.22972377 -0.066056944 0.061793752
0001a0 43 dc 06 be 7d de 14 bf 8b e5 ea be a9 f9 0a 3f
       -0.1316996 -0.5815199 -0.45878252 0.542872
0001b0 41 ec a1 3e ca 52 ff be 6b 5c 08 bf be 74 51 3d
       0.3162556 -0.4986785 -0.5326602 0.051136725
0001c0 33 ab 31 3e ab d5 c4 3d 76 d4 85 3a 12 26 a2 3d
       0.17350464 0.096110664 0.0010210413 0.079174176
0001d0 cd b4 0f 3f dd dd b9 be ed a8 3b 3f db de a0 3e
       0.56135255 -0.3630208 0.73304635 0.31420025
0001e0 27 b5 41 be 2e 0b 5f be 7e 94 b5 bd 95 2a c5 bc
       -0.1891676 -0.21781608 -0.08866213 -0.024068156
0001f0 00 00 8f bd d9 04 2e bd 01 c8 3a 3d bc b6 01 3e
       -0.06982422 -0.04248509 0.045600895 0.12667364
000200 33 82 84 be 2c 9a 55 3e 44 b5 02 bf 8a ea a9 bd
       -0.25880584 0.20859593 -0.5105784 -0.08296688
000210 f7 27 c8 be 72 50 0d bf 13 d7 e8 3c 56 2f 9f be
       -0.3909299 -0.55200875 0.028422868 -0.31090802
000220 07 8a 4c be 36 e9 29 bd c8 5d f2 3d c9 f9 93 be
       -0.19974528 -0.041482173 0.118342936 -0.28901508
000230 66 41 50 3e 33 37 31 be 41 d7 56 3d d8 ed 25 be
       0.20337448 -0.17306213 0.052451376 -0.16204011
000240 95 53 ec be da 0f 59 be f4 59 f8 bd 94 8a 94 3e
       -0.46157518 -0.21197453 -0.12126532 0.29011977
000250 67 4f d6 3e 31 bf b4 bd 04 9a 95 be 4a 19 2c bf
       0.41857454 -0.08825529 -0.29219067 -0.6722609
000260 c7 00 2a bf e7 44 7d 3e 01 97 c1 be 92 ca 18 bf
       -0.66407436 0.24733315 -0.3781052 -0.596841
000270 88 cd af 3e 56 f4 0c 3e 43 ca aa 3e 90 d2 bc be
       0.34336495 0.13765082 0.33357438 -0.36879396
000280 cb 9b 3f be 7f d5 99 3e 10 b6 de bd 82 b6 b7 be
       -0.18711774 0.30045697 -0.108745694 -0.3588143
000290 73 d6 3c be a9 f7 20 be 34 f6 d6 3d 89 da 5b be
       -0.18441181 -0.15719475 0.10496178 -0.21470083
0002a0 3d d3 aa 3c 61 34 26 bc 5c d2 46 3e 16 53 bd 3e
       0.02085268 -0.010144324 0.19416183 0.36977452
0002b0 a7 d2 8c 3e e0 e0 25 be 48 26 7e 3e 9e e7 40 3d
       0.27504465 -0.16199064 0.2481929 0.047095887
0002c0 77 e4 5a 3d f1 72 29 be e1 d2 0a 3f ff 52 7c be
       0.053440537 -0.16547753 0.54228026 -0.24641035
0002d0 79 39 62 be 7d 8b f1 be 58 15 1e bf 7a e3 11 3e
       -0.22092237 -0.47176734 -0.6175132 0.14246932
0002e0 ce f1 8a be 02 cc 38 be 4a bf a7 be fc 88 1b be
       -0.27137607 -0.18046573 -0.3276313 -0.15188974
0002f0 a9 b3 c1 be 76 09 0e be 5d e9 1b be 2a 9a 94 be
       -0.37832382 -0.13870797 -0.1522574 -0.29023868
000300 91 61 03 bf ba 57 b9 3e 4a 08 66 be fa 3f b8 3d
       -0.5132075 0.36199743 -0.224641 0.089965776
000310 fd 4b 5f 3f a7 aa 11 bf 80 5f f6 bb 24 52 74 3d
       0.87225324 -0.5690102 -0.0075187087 0.059648648
000320 a9 df c0 3e 91 3c 93 3e c6 09 57 3e 19 b9 0f 3e
       0.3767064 0.28757146 0.20999822 0.14035453
000330 81 0a 73 be d8 aa 45 3d 38 2a 9e 3e b1 d7 f3 3d
       -0.23734476 0.048258632 0.30891585 0.11906374
000340 fe f1 22 3f bd 9f ae bd 6b af f0 3e 59 f2 5f be
       0.636505 -0.085265614 0.47008833 -0.21869792
000350 a1 d8 74 be 63 b6 77 3f d8 7e a0 bc c5 92 2a bf
       -0.23910762 0.96762675 -0.019591734 -0.666302
000360 1b d7 e9 3e 5f 34 12 3f 14 1c da bd 8e e1 ad 3e
       0.45671925 0.5711116 -0.10649887 0.33961147
000370 be 1f bb be 27 a7 22 bf 10 30 72 be ae 86 6e bd
       -0.36547655 -0.63536304 -0.23651147 -0.05823391
000380 fd 61 7e be e5 2b f2 3d d6 f6 81 3e c8 df 50 3f
       -0.24842067 0.118247785 0.25383633 0.81591463
000390 24 f3 99 be 89 4d 00 bd 96 95 a2 be 98 0a de bd
       -0.30068314 -0.031323943 -0.3175475 -0.10841864
0003a0 5b ac 55 3f 3c 06 0f 3e 39 a7 17 3f a7 4b 72 3d
       0.8346612 0.13967222 0.59239537 0.05915418
0003b0 fa 04 3d 3e 08 c9 17 3f 86 d4 15 be 57 d2 09 3e
       0.1845893 0.59291124 -0.14631853 0.13459145
0003c0 8f 20 b1 bd 7d a2 45 be 7a 6e 40 be bc bd 46 3e
       -0.08648788 -0.19300266 -0.18792143 0.19408315
0003d0 de 26 3e be 03 05 8d bd 11 3c d7 be fb 60 73 3e
       -0.18569514 -0.068857215 -0.42038015 0.23767464
0003e0 ae e1 79 be 4b 7e 23 3e d9 8c 94 be b2 96 b5 3d
       -0.24402496 0.15966146 -0.29013708 0.088666335
0003f0 9b 3f e5 3d ac 75 5f 3e 66 02 90 3e ce 92 78 3e
       0.111937724 0.21822232 0.2812683 0.24274752

network_body.linear_encoder.seq_layers.0.bias f4 [128]
000000 c4 93 31 3c cb 70 7b ba bb e4 dc ba a2 44 b1 3b
       0.010838453 -0.00095916976 -0.0016852835 0.005409793
000010 54 72 c6 3b f4 73 db 3b 00 dc c9 39 57 5f 80 3b
       0.0060561094 0.0066971723 0.0003850162 0.0039176154
000020 37 99 89 bb 9f a4 d4 3a 87 e4 06 bb a6 7c c6 ba
       -0.004199173 0.0016223377 -0.002058299 -0.0015143349
000030 03 32 53 3b 5f 65 27 bc f6 b6 82 ba 1c 23 38 ba
       0.0032225854 -0.01021704 -0.000997274 -0.00070242747
000040 2a 5b 86 ba 58 a4 87 ba 60 e6 71 3b c9 94 ce bb
       -0.0010250558 -0.0010348661 0.0036910996 -0.0063043577
000050 8a df f4 ba f5 8a 91 bb 03 5b 5a bb da b4 69 3b
       -0.0018682342 -0.004441614 -0.0033318407 0.0035660774
000060 92 99 a4 ba 4e f6 d8 bb 2d 85 9f 3b 76 ba 37 3a
       -0.0012557975 -0.0066211587 0.0048681707 0.0007008681
000070 eb c7 9f 3b ee 61 73 38 7f 2f 90 bb 48 27 4f 3a
       0.004876127 5.802692e-05 -0.004400193 0.00079022767
000080 de b1 8a 3a 3c 8d aa bb 15 6c 82 3b e4 15 01 ba
       0.0010581573 -0.0052048247 0.0039801695 -0.00049242214
000090 ac 05 9d 3a 14 b5 96 bb f6 eb 91 ba bd 04 f6 3b
       0.001197984 -0.004599223 -0.0011132944 0.007507889
0000a0 50 2d 07 3c fa 68 46 3b e4 cb df ba 4d 01 1e bb
       0.008250549 0.0030274973 -0.0017074314 -0.0024109662
0000b0 c8 b1 c8 39 f1 0a 1c 3c 5d dc a6 ba d7 31 47 bc
       0.0003827943 0.009524093 -0.0012730468 -0.012157879
0000c0 b2 ff f6 3a 40 6d 59 bb 3f 38 38 3a 4c d7 ed 3b
       0.0018844514 -0.003317669 0.0007027424 0.0072583314
0000d0 9c 38 12 3a f8 0a 99 bb 86 e7 a7 ba c5 ef 0c 39
       0.00055778935 -0.004670497 -0.0012810088 0.00013440762
0000e0 c1 5b 39 bb e6 a4 76 bb de 22 69 bb 2b 60 80 bb
       -0.002828345 -0.0037634908 -0.003557376 -0.003917714
0000f0 f6 0b 0a ba 6b 60 c2 ba 28 40 1b bb 03 dd 13 3a
       -0.00052660645 -0.001482976 -0.0023689363 0.00056405383
000100 52 54 58 3b 93 d5 66 ba b8 bb 63 bb 1a 3a c0 bb
       0.0033009243 -0.0008805629 -0.003474934 -0.0058663012
000110 8b 79 c9 bb d9 31 b3 3b f7 2c ab bb a2 09 04 3b
       -0.0061485223 0.005468589 -0.005223866 0.0020147343
000120 55 6f 0b 3b 2b 11 9a b9 94 ff b6 ba 5c 64 00 3c
       0.0021276076 -0.0002938596 -0.0013961666 0.007836428
000130 62 11 2c 3b 57 4a 8a bb 9e 41 79 3b 6c 64 ca bb
       0.0026255478 -0.004220288 0.0038033496 -0.006176522
000140 31 48 39 bb 64 9d 3e bb 7d 7e 90 3b e7 44 c0 bb
       -0.002827179 -0.0029085511 0.00440961 -0.005867589
000150 ae e1 8b b9 45 50 e1 3a 93 8b 10 3c f7 2b f7 ba
       -0.0002668029 0.001719006 0.00882234 -0.0018857707
000160 f7 ca ef bb fa b0 06 bb 27 b2 08 3b db a9 8d 3b
       -0.0073178965 -0.0020552264 0.002085814 0.004323227
000170 70 d9 e3 bb 68 87 33 bc aa 4a a5 bb b5 14 7c bc
       -0.006953411 -0.010957576 -0.005044301 -0.015385796
000180 23 3d 34 3b 6e 7b ed bb 2a 45 f8 b9 7e d3 2f bb
       0.002750226 -0.00724738 -0.00047353777 -0.002682894
000190 03 3f 2a bb 0c 86 ea 3b 35 aa 27 ba 48 15 ba b8
       -0.00259775 0.007157093 -0.0006395907 -8.873135e-05
0001a0 d0 e0 07 3b 1c 22 fd ba 0b 2c 67 b7 3f 89 04 3b
       0.0020733364 -0.0019312534 -1.37789275e-05 0.0020223407
0001b0 c9 6d 53 3b c2 96 15 bb 8d 56 2b 3b b2 55 8f bb
       0.0032261482 -0.0022825454 0.0026144118 -0.0043742293
0001c0 d6 60 c2 3a 04 f2 1e 3c bc a5 19 bb 64 82 02 3c
       0.0014829885 0.009701256 -0.0023444733 0.007965658
0001d0 b1 00 3e 3b c6 d8 ef 3a d0 69 e1 bb 83 4a 6c ba
       0.0028992111 0.0018298856 -0.006879069 -0.00090137887
0001e0 0c 51 4f bb 03 71 a7 bb a7 50 f0 b9 a8 43 21 3b
       -0.0031634 -0.0051099076 -0.00045836458 0.0024606977
0001f0 61 47 2e bb 5a fe 47 3a 8a b9 f3 3a 68 12 fe 3b
       -0.0026592838 0.0007629149 0.0018594724 0.007753659

network_body.linear_encoder.seq_layers.2.weight f4 [128, 128]
000000 74 b0 29 bd ca bb 1e bd ed 50 22 3e 8d dc 03 3c
       -0.041428044 -0.03875331 0.15851183 0.008048189
000010 90 49 bb 3c 8d 5d e3 3d 19 1f 02 bd da f7 94 3d
       0.022862226 0.11101828 -0.03176794 0.072738364
000020 22 6b f5 bc a6 b1 cd 3d c0 b5 90 3d 51 31 bc 3d
       -0.029958311 0.100436494 0.07065916 0.09189094
000030 8e 58 42 be bb ad 46 bc 3e b7 a2 bd d9 b3 0d be
       -0.18979093 -0.0121263815 -0.07945107 -0.13838138
000040 da b5 21 bd 33 57 07 bd 92 3f 10 3d a7 70 76 bd
       -0.039480068 -0.033042144 0.035216875 -0.060166027
000050 c9 51 88 3b ee f9 6d 3c 1c 0a d1 bd 31 46 e3 3c
       0.00416014 0.01452492 -0.10207006 0.02774343
000060 4c a8 43 bd 53 51 5e bd 71 22 0e 3e 47 69 77 3c
       -0.047767922 -0.054276776 0.13880326 0.015100784
000070 b4 40 bd bd 4a da 09 3e 36 fa 17 bc dd 76 8b bc
       -0.09240857 0.13462177 -0.0092759635 -0.017024452
000080 f4 d5 5f 3e 9c 7e be 3c 81 51 66 be 58 29 d9 3c
       0.2185896 0.023253731 -0.22492029 0.026508972
000090 c3 ab 1e 3d aa 16 46 be 06 94 80 bd d3 68 bd 3d
       0.038738023 -0.19344583 -0.06278233 0.09248509
0000a0 28 19 07 3e aa fa 3e 3d 99 f9 fa 3b 17 8c 03 b8
       0.1319319 0.04662577 0.007659149 -3.1363303e-05
0000b0 df ee 02 bd c2 ad 26 be 29 53 90 bd b1 09 88 3d
       -0.031966086 -0.16277221 -0.070471115 0.066424735
0000c0 e1 f6 01 bd a2 7a 19 bd 50 a7 ca bd 8a 78 2f 3e
       -0.031729583 -0.037470467 -0.098951936 0.17135826
0000d0 be 46 c0 3d ac 93 12 3d e2 4d ab 3d 32 68 90 bd
       0.09388493 0.035785362 0.08364464 -0.07051124
0000e0 a7 79 96 bd aa 76 14 be 08 3d 09 3d 53 06 ab 3d
       -0.07347422 -0.14498392 0.03350547 0.083508156
0000f0 50 91 83 bc 3d 60 07 bd 05 95 89 3d 24 c1 94 3d
       -0.016060501 -0.033050764 0.06717876 0.07263401
000100 ec 16 35 be f6 1d b1 3c 9d fb cb 3d 02 28 fe 3d
       -0.17684525 0.021620732 0.09960101 0.12409975
000110 ba b6 80 bd 6b 90 e9 bd df 3c c1 3d 02 61 6f bd
       -0.06284852 -0.11404499 0.09435438 -0.058442123
000120 8e 8e 04 3d d1 cd f2 bd 27 09 9b 3d 84 68 11 3e
       0.032362513 -0.118556626 0.07570105 0.14200026
000130 b7 5b a0 3c 9b ab d7 bd be b8 e7 bc e9 9e 17 bd
       0.019574983 -0.10530778 -0.028286334 -0.037016783
000140 d2 1d 55 bd 3a df 2f bd a8 7b 8e bd e5 61 6c 3d
       -0.052030392 -0.042937495 -0.06957179 0.057710547
000150 d6 d4 7a 3c 1c 0a 59 3d 53 6f d6 bd 3c 40 91 3d
       0.015309533 0.052988157 -0.10470452 0.0709233
000160 0b af 19 3e 98 fc 91 3d 7e 95 01 bd 68 89 d0 3d
       0.1500818 0.071282566 -0.031636707 0.10182458
000170 cc 39 39 3c 06 6f 1b bd 0e df 30 3d 20 22 c6 bc
       0.011305284 -0.037947677 0.04318147 -0.024186194
000180 0b 27 9c bd 21 24 3b 3d 0d ea 33 bd c5 28 09 be
       -0.07624634 0.045688752 -0.04392438 -0.13394459
000190 22 78 42 bd fd 01 60 bc 6a 25 1f be 52 92 87 bd
       -0.04747785 -0.013672349 -0.15541616 -0.06619705
0001a0 28 8e af 3d 20 6a 98 3d 40 6c d9 3c 54 5f 42 3d
       0.08572036 0.07442117 0.026540875 0.047454193
0001b0 4e 7c 86 3d eb e3 a0 bd 46 22 38 3d d4 97 d2 bd
       0.06566678 -0.07855972 0.04495456 -0.10282865
0001c0 62 c1 8e 3d 51 70 27 be 49 da fa 3b ae 19 b9 bd
       0.069704786 -0.16351439 0.007655416 -0.09038101
0001d0 4a cd 5b bd 0e 39 e8 bd 13 dc 59 bd 47 92 17 3e
       -0.053662576 -0.11339007 -0.053188395 0.14801894
0001e0 16 5b 89 3d 20 1d dd 3c ec 20 2b be 56 8d 87 bd
       0.067068264 0.026991427 -0.16711777 -0.066187546
0001f0 0d 2a 54 3e 2e 25 bd bd 86 21 2b be 6c 23 9b 3c
       0.20719166 -0.09235607 -0.16712007 0.018937789
000200 2a 5c cb 3d 85 bb e0 3d c0 33 58 3c a4 d2 05 bc
       0.09929688 0.109732665 0.013195932 -0.008167896
000210 8f 02 35 3e c1 aa 65 3d 04 cb 1f be 50 11 75 3d
       0.17676757 0.056071047 -0.15604788 0.059830964
000220 3d c5 75 3d e7 d5 5d 3d 7a 1d 10 be d8 e9 18 3d
       0.060002554 0.05415907 -0.14073744 0.037332386
000230 4f 09 d4 3d 71 a9 1a 3d 01 b7 4a 3e ff a2 a8 bc
       0.10353338 0.03775925 0.19796373 -0.020585535
000240 df 72 eb bd 3f ed ba bd 5a bf 03 be ae aa f4 3c
       -0.11496519 -0.09127282 -0.12865964 0.029866543
000250 4b 43 46 3e d6 92 88 bd 79 28 d7 3d f9 ba 2a bd
       0.19361608 -0.06668632 0.105057664 -0.041682217
000260 3c 23 11 3d 12 ca c3 bd 98 80 ad 3d 42 6e a6 bd
       0.035433993 -0.09560026 0.08471793 -0.08126499
000270 3b 9f 87 bd f9 a8 1a bd 77 9a ab bb 65 ba 4f 3e
       -0.06622168 -0.0377588 -0.0052369195 0.20285948
000280 37 30 5a 3d ee 98 31 bc 19 da 5e bb e7 1b 52 3d
       0.053268638 -0.010839684 -0.0034004508 0.05129614
000290 e5 b8 29 3e 5d e0 c8 3c 58 ec 49 3d 5c 58 4e 3e
       0.16574438 0.024521047 0.04929766 0.20150894
0002a0 e1 15 8c be 3d 92 1d be c9 92 08 3e 64 8e 8f bd
       -0.27360442 -0.15387817 0.13337244 -0.07009581
0002b0 89 28 da bd 90 c5 ad bb 95 4e c1 3d bd be b1 bd
       -0.10652263 -0.0053030923 0.094388165 -0.086789586
0002c0 6b 59 40 bd fc 9f 0b 3c c2 b2 a8 3d 27 47 1a 3d
       -0.046960276 0.00852203 0.0823722 0.037665512
0002d0 ab 3a bb bd 98 72 b5 bc 85 a9 8b 3d 7a 1c 62 3d
       -0.091420494 -0.02214937 0.06819443 0.05520294
0002e0 b3 18 bf 3d 67 30 be 3d 59 b3 e4 bd 3d 62 8d bd
       0.09330883 0.09286576 -0.1116702 -0.06903503
0002f0 d8 c7 2d bd 6e 7c 9f 3d 5a 9e 2e 3b ad ba 11 3e
       -0.042426914 0.07787405 0.0026644678 0.14231367
000300 bd d8 99 bd 06 64 76 bd d7 c1 07 bd 3a 97 bf 3c
       -0.07512043 -0.060153984 -0.033143844 0.02338754
000310 b7 5e ba 3d f3 ec bb bb 7e 9a 55 bc 60 83 1f 3e
       0.09100097 -0.0057350337 -0.013037322 0.1557746
000320 c3 15 9a 3d c0 ad 23 be 02 c6 b0 3a 42 bb 1d 3d
       0.07523682 -0.15984249 0.0013486745 0.03850866
000330 ba c8 70 3b 42 3a 9d 3d 0b 1a 75 bd 1e 70 8f bd
       0.0036740736 0.076771274 -0.05983929 -0.070038065
000340 fc 04 bb bc ee e9 aa bc 72 e9 5a 3d a1 84 9e 3c
       -0.022829525 -0.0208635 0.053445287 0.019350352
000350 f1 a5 1c 3c 23 30 f2 3c b3 85 8d bd 31 c6 50 bd
       0.009561048 0.029563969 -0.06910267 -0.05097026
000360 f7 c7 8d 3d d5 af 83 3d 75 85 45 3e 97 a4 02 3e
       0.06922906 0.06430022 0.19289191 0.12758099
000370 87 bb 23 3e 07 e2 b6 3b 5e 00 14 3d 4f 36 eb 3d
       0.15989505 0.005581144 0.036133163 0.11484968
000380 a1 1c 8b 3d b2 b2 66 bd 09 73 02 3d 4e dc 4f bd
       0.0679257 -0.05632276 0.031847987 -0.05074721
000390 14 7e d7 3d a1 eb cc bd fc 03 74 be 31 e9 c6 3c
       0.10522094 -0.1000588 -0.23829645 0.024281116
0003a0 73 e8 01 3d 45 d1 90 3d f8 c6 19 bd b2 d0 58 bd
       0.03171582 0.07071165 -0.037543267 -0.052933402
0003b0 ca 56 9a bc 3f d0 f9 bd 04 60 5a 3d 25 87 9e bd
       -0.018840212 -0.12197923 0.053314224 -0.077406205
0003c0 c9 b2 23 3e 53 b4 ab 3b aa db cd 3c ad c1 55 3d
       0.1598617 0.005240002 0.025129158 0.052186657
0003d0 60 48 84 bd fa 43 af bd 73 80 01 3d b3 f6 73 bd
       -0.06459117 -0.085578874 0.03161664 -0.059561443
0003e0 cc 46 d0 3d ad 67 6a 3d e5 0e 4b 3c 31 72 80 3c
       0.101697534 0.05722778 0.012393688 0.01567945
0003f0 58 38 c2 bb 7e 5b e2 bd e4 ad 9f bb cf 6f 0c 3d
       -0.005927127 -0.11052607 -0.0048730243 0.034286316

network_body.linear_encoder.seq_layers.2.bias f4 [128]
000000 c1 48 7a 3b 01 51 39 bb 43 16 3c bb 7d 9a dc 3a
       0.0038190337 -0.0028277042 -0.0028699792 0.0016830709
000010 57 c6 8a bb f5 16 61 bb e1 ac e8 bb a0 ea 97 3a
       -0.0042350697 -0.003434596 -0.007100687 0.001159031
000020 3b dc 40 3b 4d 3d 79 3c 45 54 d7 3a f8 e0 05 bb
       0.0029428143 0.015212369 0.0016428313 -0.0020428281
000030 11 04 94 3a 25 e1 1b 3c 80 c6 43 3a 6f 95 eb ba
       0.0011292716 0.009514128 0.00074682385 -0.0017973612
000040 fa b8 82 ba 98 60 00 bb fa e4 74 bb 87 fd d8 39
       -0.000997334 -0.0019588824 -0.0037367926 0.00041387623
000050 79 e6 83 ba 51 a5 71 bb 79 7a da 3b 5d f0 96 bb
       -0.0010063193 -0.0036872218 0.006667432 -0.0046062903
000060 26 38 24 3b 0c 59 01 3b 23 c5 e8 3b 48 c6 ae ba
       0.002505788 0.0019736914 0.0071035787 -0.0013334239
000070 29 2b 2a 3c fa ba ff 3a 40 09 9b bb 0a 23 b9 3a
       0.010386267 0.0019510679 -0.0047313273 0.0014124822
000080 d1 a9 78 3b a7 2c 1a bb b3 3f 81 bb 29 90 1e 3b
       0.0037943015 -0.002352515 -0.003944361 0.0024194813
000090 9f c1 87 3a 33 1b ff 3b 17 ff a9 37 2e 1b 05 3b
       0.0010357386 0.007785225 2.0265155e-05 0.002031039
0000a0 c8 1f 90 bb ae 0a 88 3a 2f 50 38 b9 2f dc 2d 3b
       -0.00439832 0.0010379159 -0.00017577478 0.0026528945
0000b0 c1 f3 c7 3a 78 ab 2e bb ae 9e 8e ba 20 b0 c8 39
       0.001525514 -0.0026652496 -0.001088103 0.00038278196
0000c0 3c 7a 75 bb 5c 47 80 bb e2 8f b0 3a 71 65 6c 3b
       -0.003745689 -0.0039147567 0.0013470615 0.0036071206
0000d0 2a 93 58 bb 82 6c 06 3b 8f 54 2e ba c1 86 f8 b9
       -0.00330467 0.0020511453 -0.00066501735 -0.00047402646
0000e0 d7 ef 32 b9 9b 69 97 3b c2 b5 08 bb 90 93 fe 39
       -0.0001706475 0.0046207434 -0.002086029 0.00048556598
0000f0 be 5d 1b ba 9d 05 02 bb 21 f5 18 ba fc 54 fc ba
       -0.00059267494 -0.0019839772 -0.0005834867 -0.0019251402
000100 3a 44 f5 b9 c5 e9 2a ba 45 fe 7c 3b 5a 1f 99 3b
       -0.00046780874 -0.000651982 0.0038603705 0.004672927
000110 f8 c4 88 bb a0 3c 18 3b 81 64 86 ba 90 47 79 ba
       -0.004173871 0.0023229495 -0.0010253341 -0.000950926
000120 70 28 2b bb 62 c0 5f 3a cb c0 5a 3b 91 47 4d ba
       -0.0026116632 0.0008535442 0.0033379074 -0.00078307936
000130 d3 1a b0 ba 5b 39 57 bb ab 23 73 3b 06 26 01 bb
       -0.0013435729 -0.0032840583 0.0037100117 -0.0019706502
000140 a6 b6 f5 bb 34 c9 b6 ba bd f4 ee 3a c8 35 f1 bb
       -0.00749858 -0.0013945461 0.0018230897 -0.0073611476
000150 82 85 75 bb f9 b2 f4 3b 50 88 10 ba 9f 4b bc 3b
       -0.003746361 0.0074676243 -0.0005513476 0.0057463194
000160 21 4b 34 bb 3e 6a 98 bb 77 89 54 3b d4 a6 89 3a
       -0.00275106 -0.004651337 0.0032430568 0.0010501989
000170 28 33 32 3a 05 b6 7f bb a8 06 13 bb 4d 46 1f 3c
       0.0006797784 -0.0039018404 -0.0022434387 0.009721351
000180 05 50 96 3b 6c d4 4e bb 6f b8 29 38 3e 57 1a 3a
       0.004587176 -0.0031559719 4.0464507e-05 0.0005887634
000190 e4 f9 84 3b 60 d1 55 bb 26 b0 09 3c c3 2c d8 3a
       0.0040581096 -0.0032626018 0.0084038135 0.0016492832
0001a0 43 5a 92 ba 59 f9 b0 bb d1 94 a9 bb cd e7 a0 bb
       -0.0011165816 -0.0054008183 -0.005175211 -0.0049104453
0001b0 0b 06 23 ba 8f 6c 4c ba fd 7e df ba f4 34 75 3b
       -0.0006218857 -0.0007798159 -0.0017051395 0.0037415596
0001c0 e3 55 68 37 be 10 ba 39 52 57 8a 3b d5 47 8d 3b
       1.3848275e-05 0.00035489158 0.004221835 0.0043115416
0001d0 19 89 2d ba a9 a0 d0 ba e6 8e ee 3b e1 f1 a2 bb
       -0.00066198554 -0.0015917021 0.0072802184 -0.004972682
0001e0 df cc c7 38 87 ad 27 bb 01 a5 06 3b 33 07 87 3a
       9.52722e-05 -0.0025585608 0.0020545127 0.0010301828
0001f0 c2 f9 ae b9 b4 e9 d4 bb 17 81 03 3a 59 b3 73 ba
       -0.0003337395 -0.006497586 0.00050164893 -0.0009296439

action_model._continuous_distribution.log_sigma f4 [1, 2]
000000 80 77 6b 3b 5f 57 03 3c
       0.0035929382 0.008016436

action_model._continuous_distribution.mu.weight f4 [2, 128]
000000 1d f7 bd bc c9 84 b9 3b 92 93 06 3c 87 07 ed 39
       -0.023189122 0.005661581 0.008213894 0.0004520977
000010 22 88 13 bc c9 8b d5 3b 17 e6 af 3c aa ed e1 3c
       -0.009004625 0.006516908 0.02147202 0.027579147
000020 92 7a 40 3c 88 00 38 3b 92 5c 09 3d ff e8 c4 3b
       0.011747973 0.0028076489 0.033535548 0.0060092206
000030 db 8b bd bc 57 64 75 3c da b8 ab 3c 1d 4a b2 3c
       -0.023137977 0.014977536 0.020962168 0.021763856
000040 09 53 f7 bb dd 50 ac 3c 61 f2 2d 3c b1 b3 e4 3b
       -0.0075477404 0.021034652 0.01061687 0.0069794287
000050 97 f6 81 bc 55 1a fa bb 81 2c 1f 39 5c 23 a2 bb
       -0.015864654 -0.0076325336 0.0001518 -0.004948063
000060 59 d4 65 3b cc 01 09 3d 58 a8 f3 3b 80 d9 f9 3b
       0.0035069196 0.03344898 0.0074358396 0.007624805
000070 99 b3 b0 3a ad fc 99 3b 36 bd 83 bc ac 14 33 bc
       0.0013481259 0.0046993108 -0.016081434 -0.0109302215
000080 8b 46 2e 3c 15 51 88 bc f7 21 a1 bc c4 17 37 3c
       0.010636936 -0.016640225 -0.019669516 0.0111751
000090 b0 19 e1 bc ae a8 d4 3c 80 ee d6 bc f9 86 c8 bc
       -0.027478069 0.025959339 -0.026236773 -0.024478422
0000a0 16 ae f0 ba ff 57 c3 bb 2c ef 01 bc 4d 69 2b 3b
       -0.0018362429 -0.0059614177 -0.007930558 0.0026155293
0000b0 d7 1c b6 bc d8 ee a7 bc ea 77 8b bb c2 3b ce 3c
       -0.022230549 -0.020499632 -0.004256238 0.02517498
0000c0 33 7d cb 3b 02 59 ed 3c 3b 49 e4 bc 4e 3e 9f bc
       0.0062099933 0.028973106 -0.02786695 -0.019438889
0000d0 f7 c0 72 bb cf 22 ca bc 7d 1d 59 3c 15 31 09 bd
       -0.0037041286 -0.024674801 0.013251659 -0.033494074
0000e0 3e f8 2e bb dc 8c 7f 3c d6 39 e5 b9 b6 22 15 3d
       -0.0026698257 0.015597548 -0.00043721375 0.036410056
0000f0 ec db 10 3d 23 b2 8a 3b 6d d8 d7 3c e2 b5 b2 bb
       0.035365984 0.0042326613 0.026348317 -0.005453811
000100 68 e8 f7 bc b5 36 8c bc 8d b6 d5 3b 1c 77 04 bb
       -0.030262187 -0.01711593 0.006522006 -0.0020212596
000110 65 7b 06 bc 62 11 f7 bc de 24 67 bc 91 eb a2 bc
       -0.0082081305 -0.030159656 -0.014107911 -0.019887717
000120 09 c7 1b 3b 7f 70 9a bc 74 aa 59 bb b3 4a 63 3c
       0.0023769757 -0.01885247 -0.003321317 0.01387279
000130 be e5 0e bc b4 23 cb 3c 5a 9a ba bc 82 33 80 3c
       -0.008721767 0.024797298 -0.022778679 0.01564956
000140 11 ae 93 bc 06 d3 4d 3c e0 07 1b 3b d1 31 a2 3a
       -0.018027337 0.012562519 0.0023655817 0.0012374466
000150 75 34 52 3c 49 54 e8 3b 52 ae dc 3b 9f a5 e3 3b
       0.01282989 0.0070901257 0.006734648 0.006947234
000160 de e5 b4 bc e1 5f a5 bc 4f 0a 7b 3c 1a 5e c4 3a
       -0.022082265 -0.02018732 0.015322282 0.0014981658
000170 4f ac 71 3c bd cc 53 3c c3 97 0a bd 74 51 4f 3a
       0.014750554 0.012927231 -0.033836138 0.0007908561
000180 e1 e4 e2 3c 83 84 05 bd 0b e9 a4 3b a3 e2 6b 3c
       0.027697029 -0.032597076 0.0050326637 0.014397296
000190 7d 0b bd bb 24 2a 86 3c c2 21 61 3b c8 28 36 3c
       -0.005769192 0.016377516 0.0034352397 0.011118121
0001a0 8d 4b 66 3b 9d d7 5c bb 87 2c 96 bc e6 aa ae 3b
       0.0035140247 -0.0033697851 -0.01833178 0.0053304313
0001b0 c5 bc 6e 3c 37 dc 8b 3a 72 a0 d1 3c 3d 40 80 bb
       0.014571373 0.0010670488 0.025589202 -0.003913908
0001c0 58 c7 83 bc 73 dc f1 bc bf 9f bc 3c a8 ab 65 bc
       -0.016086265 -0.029524064 0.023025392 -0.014017977
0001d0 53 e5 0d bc e8 0e a8 3c cc 82 63 3b e4 5f 24 3b
       -0.008660632 0.02051492 0.0034715412 0.002508157
0001e0 d7 1c b1 ba d0 7c 83 3c b2 bd e7 3a 6a 78 d4 3b
       -0.0013512623 0.016050726 0.0017680435 0.006484081
0001f0 56 4f ee 3b a8 a3 37 3b 3b 56 e4 bc 67 0f 09 3c
       0.007272641 0.002802113 -0.02787315 0.008365489
000200 da a6 94 3c 3d bd 99 ba f9 7a 84 3c 76 31 12 3c
       0.018145967 -0.0011729371 0.01617192 0.008922925
000210 aa b6 36 bc 83 91 ac bc b1 d7 6a 3c ec c4 45 3c
       -0.011151949 -0.02106548 0.014333651 0.012070876
000220 0d af 9f bc 49 15 ef bb 0e fd 29 3c fa 9d bc bc
       -0.01949265 -0.0072962386 0.010375274 -0.023024548
000230 77 8f be bb 5b ad d5 3c 5f 8c 49 bb ed 69 af 3c
       -0.005815442 0.026083639 -0.0030753834 0.021412814
000240 ed 02 34 bd 70 b1 9a 3a 91 70 05 bc ec 7c 75 3c
       -0.043948103 0.0011802148 -0.008144514 0.014983397
000250 9f 58 4b 3b 0a 58 bc 3a 57 8f a1 3c 44 0f e9 3a
       0.0031028164 0.0014369499 0.01972167 0.0017781039
000260 8c 03 65 3c 6a 47 99 3a cd 46 b6 3c 85 a8 a1 bb
       0.013977896 0.0011694257 0.022250557 -0.004933419
000270 5e ff 18 3c 88 60 f2 3c 9d 6d d1 bc 2e a9 a5 bc
       0.009338228 0.029587045 -0.025564963 -0.020222273
000280 95 e1 48 3d 7e 05 8a bc 73 6b 18 3b 1d 42 ad bc
       0.049043257 -0.016848322 0.0023257404 -0.02114969
000290 db ff 50 bc 72 3f 18 3d 0f 69 9c 39 38 5d d8 3c
       -0.012756313 0.03716988 0.00029832913 0.026411638
0002a0 3d 8b 46 bc da 4e 80 3c db 35 ff 3b e9 da 06 bb
       -0.012118158 0.0156626 0.0077884025 -0.0020577258
0002b0 bc 5e b3 3a 0e df 0d bb d5 30 f4 3c 9b 6b 8f 39
       0.0013684849 -0.0021647844 0.029808441 0.00027355258
0002c0 74 82 78 3c 63 c6 86 bc 5f 1c 91 bb 79 df 84 bc
       0.015167821 -0.01645202 -0.004428431 -0.016219841
0002d0 5d 55 5e bc 4e b7 27 bc 3b ff a2 b9 ed ce 9b 3b
       -0.013570157 -0.010236574 -0.0003108921 0.004754892
0002e0 4f 77 19 bb d7 0e 6b 3c 9a 5a 67 3c a9 94 bf bb
       -0.002341706 0.0143468 0.014120722 -0.005846579
0002f0 f5 2b a8 bc 42 28 94 bc 30 86 2a bc f9 a7 00 bc
       -0.020528773 -0.018085603 -0.010407969 -0.007852548
000300 8b c6 3c 3b 65 7c 96 3b 4e bd ff 3b 8c 1a 43 3d
       0.0028804864 0.0045924657 0.0078045493 0.04763274
000310 b4 95 0e bd a9 06 19 3c f5 46 fe bb 03 9b 08 bc
       -0.034810737 0.009339967 -0.0077599236 -0.008337739
000320 e9 ee 00 bc 96 96 af 3b 84 ad ba 3b 90 0f 6a 3c
       -0.007869461 0.0053585274 0.005696954 0.014285937
000330 d4 23 e9 bc c9 96 28 3b 32 4c 1b 3d d3 e6 dc bc
       -0.028459467 0.002572464 0.037914462 -0.026965534
000340 d1 ec 35 3c 5a 91 5b bc 92 68 86 3a 54 89 0c bb
       0.011103825 -0.013401354 0.0010254553 -0.0021444159
000350 45 a8 d9 bc e7 0c cb 3c c5 74 0f 3d 73 29 81 3c
       -0.026569495 0.024786426 0.03502347 0.015766835
000360 69 95 19 bc 22 ae f0 bb 22 e9 b6 bc cd f3 4c 3b
       -0.009374001 -0.007344977 -0.022327963 0.0031273246
000370 ac 5d 55 bc e2 64 0d 3b 5e fb fa bb c7 cc f3 3c
       -0.013022821 0.0021575023 -0.00765936 0.029760731
000380 43 82 c9 3c fc c7 b1 3b ba 76 e7 bb 9c 19 f6 3c
       0.024598246 0.0054254513 -0.007063714 0.030041508
000390 c0 e1 97 3c e2 0d f3 bc 4b 2c 40 bd ec 40 8b bc
       0.018540263 -0.029669706 -0.04691724 -0.01699873
0003a0 cf dd 3a 3d 6d 20 f2 bb 04 9e d0 bc eb 3c 04 3c
       0.04562169 -0.0073891194 -0.025465973 0.008071165
0003b0 f7 5b 82 bb d6 3d 4b 3c bf e9 d6 3b 42 fa 80 bc
       -0.003978248 0.01240488 0.0065586264 -0.015744332
0003c0 aa eb 61 3c 51 43 f1 3c 4c b2 9a 3c 80 42 0a bd
       0.013789097 0.029451044 0.018883847 -0.033754826
0003d0 e4 f6 8d bb b1 19 2c bc 3c 4a 35 bc 23 0e 24 bc
       -0.00433241 -0.010504172 -0.011065062 -0.010013136
0003e0 fe c4 47 3c 30 be 31 bc 8f 25 17 3c a5 5a 84 bc
       0.012192963 -0.010848567 0.009225263 -0.016156504
0003f0 76 8b 11 bb 0b fb 33 bc 59 53 4a 3b 6c 1d bf bb
       -0.002220837 -0.010985146 0.0030872433 -0.005832365

action_model._continuous_distribution.mu.bias f4 [2]
000000 2a db 34 3a c3 12 20 3b
       0.0006899113 0.0024425245

action_model._discrete_distribution.branches.0.weight f4 [2, 128]
000000 1a f9 8a bb cb a3 de bb c2 7a 9a bb 86 a4 6d ba
       -0.004241121 -0.006794428 -0.004714341 -0.00090653484
000010 c6 b3 a4 ba 2f 1f f3 b8 d5 e9 64 bb 71 28 08 3b
       -0.0012565784 -0.00011592951 -0.0034929414 0.0020776058
000020 80 aa d6 bb 4a 61 be 3c 9b a2 b6 3b 6a b0 97 3b
       -0.006551087 0.02323975 0.0055735833 0.0046291845
000030 dd 9c 05 3b 5e 57 bb 3c 48 c7 47 3c 63 a8 18 bb
       0.0020387687 0.022868808 0.012193508 -0.0023293726
000040 f0 e7 42 bb 61 ae c6 ba 47 48 4c b9 7d 96 8e bb
       -0.0029740296 -0.001515817 -0.00019481881 -0.0043514357
000050 77 b7 9b 3c 5c 0c ce bb c5 7d 03 3c 14 3f 80 3c
       0.019008381 -0.0062880944 0.008025591 0.015655078
000060 30 52 71 39 f7 ab 19 3b 4e 1e 75 bb 9b ac ca bb
       0.00023014168 0.0023448446 -0.0037402096 -0.006185127
000070 20 1b d9 3c 69 56 bc 3b 1c d5 96 bc 7d 6e 72 3a
       0.026502192 0.0057476056 -0.018412165 0.00092480314
000080 25 48 3a 3b 76 aa 8a ba 8e 0f ef 3b 62 dc bf 3c
       0.002842435 -0.0010579366 0.0072955554 0.023420516
000090 70 94 23 3c 05 30 96 3c c4 77 f7 ba 58 ee b1 3c
       0.009984121 0.018333444 -0.0018880297 0.021720096
0000a0 52 7b d0 3b a7 f0 5b ba de 10 4d 3c 61 80 4f 3c
       0.006362357 -0.0008390047 0.0125162285 0.012664885
0000b0 42 f8 61 bc e8 2c 91 3b 2a b0 39 3c 6a 80 75 3c
       -0.013792099 0.004430402 0.011333505 0.01498423
0000c0 46 1f d0 bb 8e 8b 3a bc eb 28 1d bc d5 8d 21 3c
       -0.0063513843 -0.0113858115 -0.009592275 0.009860476
0000d0 f3 c6 22 bc 9e 73 b0 3a cb 55 97 3a a2 2e 9a 3b
       -0.0099351285 0.0013462191 0.0011545954 0.004705266
0000e0 7d 91 9f bb 83 b2 0e 3a 4a a7 9b bb 5f d2 99 bb
       -0.0048696385 0.00054434704 -0.004750167 -0.0046942676
0000f0 50 c0 09 3c 97 5a 3b ba f1 3c 40 3c b7 b8 da ba
       0.008407667 -0.0007146983 0.01173328 -0.0016687129
000100 45 68 3c bb 86 38 5c bb e3 d5 dd bb 9f b7 eb 3a
       -0.0028748673 -0.0033603027 -0.006769882 0.00179838
000110 4e 48 c4 3b 47 fd 06 3c 5d 7d 01 bd cd 0d a6 ba
       0.0059900647 0.008239097 -0.031613696 -0.0012668908
000120 09 37 e2 bb e1 b1 02 3c 23 94 dd 3b 92 4c 84 ba
       -0.0069035334 0.00797698 0.006762044 -0.001009362
000130 23 6e 27 bc 7c 9a 92 b9 80 3b 40 bb 07 79 0f 3c
       -0.01021913 -0.0002796239 -0.002933234 0.0087568825
000140 eb 98 1f bc e9 37 83 3b a8 80 6a bc c1 9c 9a 3b
       -0.009741048 0.0040044677 -0.014312901 0.0047183936
000150 93 05 34 bc 3a 2d d2 bb 00 17 a2 39 1d 6f 1b 3b
       -0.010987657 -0.006414083 0.00030916184 0.0023717352
000160 df 9c 9d 3b d4 38 64 3b 86 58 f9 3b 58 84 4f bb
       0.0048099603 0.0034823911 0.00760943 -0.0031664576
000170 ad fd cd bb 11 6e 45 3c 96 aa 40 3b 21 09 47 3c
       -0.006286344 0.012050168 0.0029398552 0.012148173
000180 05 26 8b 3c e0 85 26 3a c3 8c d5 bb 7e e5 7a 3c
       0.016985903 0.00063523464 -0.0065170242 0.015313504
000190 5b 4c 12 3b c9 b1 76 3b d2 28 2f bc 1b 4b 89 bc
       0.0022323343 0.003764259 -0.010690885 -0.016759446
0001a0 02 0a b5 3b e6 99 97 ba 3e 42 c0 3b 22 6f 32 bc
       0.0055248747 -0.0011566251 0.0058672717 -0.010890754
0001b0 ee 24 10 bc 7e ec 37 3c 24 ec 0b 3b e1 14 2c 3c
       -0.008797867 0.011225818 0.0021350468 0.010503025
0001c0 6b 8c 93 3c 54 b5 29 3b a9 93 1b 3c ea 02 39 bc
       0.018011292 0.0025895434 0.009495654 -0.011292199
0001d0 7c f4 8d bb b2 8f 5e bc 3e 33 31 3c 1f f0 1a 3c
       -0.0043321233 -0.013584064 0.01081544 0.009456663
0001e0 95 8f c7 3b d9 d2 2e bc 82 93 ae bb 5e ed 86 bc
       0.0060901144 -0.010670387 -0.005327643 -0.016470607
0001f0 66 de d4 bb 25 d4 72 ba f1 ef c3 bb 1b bc d1 bb
       -0.0064962385 -0.00092631794 -0.005979531 -0.0064005977
000200 22 d7 97 bc ad 3d 0c bc 58 e2 67 3a e9 bd e0 3b
       -0.0185352 -0.0085596265 0.00088456785 0.0068585766
000210 23 ab 1b 3b 41 59 d3 bb 03 e8 18 3c f7 bf 34 3c
       0.0023753128 -0.006449849 0.00933266 0.011032096
000220 28 87 8f bb 8d ca a2 bc 98 18 fe bb 78 36 b3 bb
       -0.0043801256 -0.019871974 -0.0077543966 -0.0054691397
000230 51 2e 39 3c 69 75 17 3a e8 63 1a bb 39 4a ab 3c
       0.011302547 0.00057776883 -0.0023558084 0.020909416
000240 1f 06 41 bb 4b 4c 43 3c 5c 29 33 bb a9 7f f9 ba
       -0.0029453111 0.011920045 -0.0027337885 -0.0019035238
000250 c3 8b ea bb eb 92 0b bb df 8a e6 3a 3f 20 b7 ba
       -0.007157774 -0.0021297287 0.0017588994 -0.0013971402
000260 f2 ac 2a 3b a1 0e 79 bc 0d 1a ff bb 7b fe 8f 3b
       0.0026043025 -0.015201242 -0.007785088 0.00439435
000270 52 8e ca bc 8f 7e 81 3b f3 6c 99 3c 86 fb 80 bc
       -0.024726067 0.0039518545 0.018728709 -0.015744936
000280 65 bd 4c 3b 7b 54 9a 3c 5d fe dd ba d6 56 09 bc
       0.0031240818 0.018839112 -0.0016936768 -0.00838252
000290 67 82 17 3c 35 82 19 bb 59 4f 73 bc eb f8 64 bb
       0.009247399 -0.0023423557 -0.014850461 -0.0034938406
0002a0 d0 f5 0a bc 9b 00 1f 3a f4 14 9a bb ea 67 e5 bb
       -0.008481458 0.0006065459 -0.004702205 -0.007000913
0002b0 51 c0 a3 bb 61 c6 46 3c 5a 71 14 3c 7e a5 6f ba
       -0.004997291 0.012132258 0.009060228 -0.0009141787
0002c0 ff 45 eb 3b 84 47 4e 3c 72 b8 c4 bb 93 f7 fe 3b
       0.007179975 0.012590293 -0.006003433 0.007780978
0002d0 18 28 14 3c 9d 78 a6 b8 da f1 e9 3b 27 1d 37 bc
       0.009042762 -7.937963e-05 0.0071394267 -0.011176384
0002e0 5f b3 b7 bc fa f3 31 ba 7b f0 15 bb 9f 55 b1 bb
       -0.022424398 -0.00067883695 -0.0022878933 -0.005411818
0002f0 d8 01 ff bb 69 27 41 3c a4 51 50 3c cf 49 f1 3b
       -0.007782202 0.011789181 0.012714777 0.007363535
000300 08 1c be ba 06 62 9f 3b 0d 52 b0 ba 1a 8e 75 bc
       -0.0014504204 0.00486398 -0.0013452187 -0.014987493
000310 14 92 fe 3a 42 e5 b2 bb 3f 0f f3 3b bc 06 75 3c
       0.0019422197 -0.0054594586 0.007417589 0.014955219
000320 3f 62 98 3b 78 38 88 3b 2e 2d 3b bc a8 86 f9 bb
       0.0046503837 0.004157122 -0.011424346 -0.007614929
000330 41 1a 8c bc a7 81 24 b9 77 1d e7 3a 05 90 8c 3a
       -0.017102363 -0.00015688558 0.0017632683 0.0010724074
000340 a0 db 2a bc 36 f5 34 bc 44 e2 d1 bb bd 9a b8 b9
       -0.010428339 -0.011044791 -0.006405147 -0.00035210504
000350 5a 60 6f bc 28 ba 70 bc 8c 8b 11 bb 69 d6 bf 3b
       -0.014610374 -0.014692821 -0.002220842 0.005854417
000360 bf 2c 10 3c f2 83 d0 39 e5 3a a0 bc 96 43 41 ba
       0.008799731 0.00039771158 -0.019559333 -0.0007372437
000370 15 63 52 bc 8e d9 4d 3c 0a fd d6 bb 2d b6 99 3c
       -0.012841006 0.012564076 -0.0065609263 0.018763626
000380 8a d1 c4 bb bd ab 33 3c 75 9d 61 3c 65 fd de bb
       -0.0060064243 0.010966239 0.013770451 -0.0068051093
000390 e4 80 42 3c 5b 3b 33 bc 96 9f bc ba 4c b5 8f 3a
       0.01187155 -0.010939444 -0.0014390822 0.0010964065
0003a0 4a 2a 76 bc 9d 54 fd 3a d4 4f 76 3b 6c 0f ce 3b
       -0.015024731 0.0019327585 0.0037584202 0.0062884595
0003b0 8a f0 da bb 0d fa 86 ba 24 f9 1e bc ff c7 bc 3a
       -0.0066815065 -0.001029791 -0.009702954 0.0014402865
0003c0 d7 73 9b bb 39 50 d2 ba 42 aa c4 bb d9 bd 63 3c
       -0.004744034 -0.0016045637 -0.0060017416 0.013900244
0003d0 7f 65 f6 ba dd 02 2c 3c 93 3c e5 bb 35 f3 47 bc
       -0.0018798559 0.01049873 -0.0069957464 -0.012203981
0003e0 5c 62 92 bc 31 21 94 bb 9e 99 96 bb e2 d0 cb 3c
       -0.017869167 -0.0045205583 -0.0045959493 0.024879877
0003f0 2a b0 10 bb 4e a3 04 3b 9d f4 be 3b 82 88 5a bc
       -0.0022077658 0.0020238939 0.0058275 -0.01333821

action_model._discrete_distribution.branches.0.bias f4 [2]
000000 ef 2d 18 3b ef 2d 18 bb
       0.0023220738 -0.0023220738

critic.network_body.linear_encoder.seq_layers.0.weight f4 [128, 9]
000000 e3 98 92 be 3e 7c 8e 3e fa 46 d6 bd 26 89 05 be
       -0.28632268 0.27829164 -0.104627565 -0.13040599
000010 e5 26 70 be 9c 72 8b 3d 78 9d b3 3d e1 24 81 3d
       -0.23452337 0.068089694 0.08770269 0.06305862
000020 b2 84 b5 3e 7a 0a 4f 3e a4 6f bd be b3 07 45 3e
       0.354528 0.2021884 -0.36999238 0.19241218
000030 68 35 99 bd 26 cf 8c 3e b2 42 ef bd a2 bb 71 be
       -0.074808896 0.27501792 -0.11682643 -0.23606732
000040 bc 85 41 3f 39 2c c9 3e 7b b6 95 3e ca fe 13 3e
       0.7559469 0.39291552 0.29240784 0.14452663
000050 c9 1f 03 bf 2e fa c3 be 58 8f 2d 3e 75 5b b6 bd
       -0.51220375 -0.3827681 0.16949213 -0.08904163
000060 e7 01 e9 bd 0f a0 b4 3e 9c 14 af bd a4 6e d8 bd
       -0.11377316 0.35278365 -0.08548853 -0.10567978
000070 d1 19 97 be 47 fd 0a be 72 b7 70 3e b1 05 c1 be
       -0.29511884 -0.1357318 0.23507479 -0.37699655
000080 83 fa bf 3e ca f9 ae 3e 1e 8b a7 3e f1 51 a3 3e
       0.37495813 0.3417495 0.32723325 0.31898454
000090 e5 c0 22 bf f1 96 40 be a1 44 e8 3e 7c 9a cc bd
       -0.63575584 -0.1880758 0.4536486 -0.09990403
0000a0 c4 10 35 be 2e 94 a8 be 99 29 91 be 53 a6 18 3d
       -0.17682177 -0.32925552 -0.2835205 0.037267994
0000b0 9b d3 eb 3e 85 52 cc 3e ce ce fe be 46 db d4 3d
       0.4605988 0.39906707 -0.49767154 0.103933856
0000c0 f7 1b b9 3e d9 c4 63 bf f9 2a af 3e ff ca f1 3d
       0.36154148 -0.8897224 0.34212473 0.118062966
0000d0 c1 b4 76 3e 4a 61 2e 3f 4b fb 3f be a6 32 37 3e
       0.2409239 0.681172 -0.18748204 0.17890415
0000e0 e8 8c b7 3d 05 fa a5 3e 32 a9 29 be 2b 14 81 be
       0.089624226 0.32417312 -0.16568449 -0.252107
0000f0 a9 22 2e 3e ab 12 61 3e 9c f8 ac 3d 41 bd c9 bc
       0.1700541 0.21979778 0.08445856 -0.024626376
000100 66 a5 b8 3d 23 23 00 bf 79 e8 ea be 37 cd e8 be
       0.09015922 -0.50053614 -0.45880488 -0.45469067
000110 15 81 31 3f 0e bf 63 3d d1 95 59 bd d8 fd 99 3e
       0.6933759 0.055602126 -0.05312139 0.3007648
000120 0a db c3 3e 65 48 23 3f 8f 7a b4 be 6c 35 90 3e
       0.3825305 0.6378234 -0.35249755 0.28165758
000130 32 93 2b be a5 09 f0 bd 3b a0 a4 be c7 14 30 be
       -0.1675537 -0.117205895 -0.32153496 -0.17195426
000140 94 cb 26 3f db bb 14 be e4 e8 0f 3f e8 4b 61 3f
       0.65154386 -0.14524786 0.5621474 0.8800645
000150 06 35 94 be 89 a9 16 be 10 d3 34 be 96 9b 9f 3c
       -0.28946704 -0.1471311 -0.17658639 0.019483369
000160 f9 96 38 be 52 e1 8a bd 5a 59 f5 bd e2 f1 9c 3e
       -0.18026341 -0.06781258 -0.11979933 0.30653292
000170 12 9e 9d be c6 f4 31 be ca e3 52 bd 25 6f a2 3e
       -0.3078466 -0.1737853 -0.051486768 0.31725422
000180 cd 51 8e 3e e8 b2 1e 3c d0 b3 48 3e b5 16 2e 3f
       0.27796784 0.009686209 0.19599843 0.680034
000190 9b b8 01 be 3c e1 b3 be 19 d8 dc be d1 aa e2 bc
       -0.12668078 -0.35132778 -0.4313362 -0.027669342
0001a0 9a 4f 6c be d6 c7 58 bd 3b b9 09 bf 5d 42 0f 3e
       -0.2307724 -0.052924953 -0.53798264 0.1399016
0001b0 e0 46 c6 3c b5 fc ae 3e 49 81 cd bd 6b 60 88 bc
       0.024203718 0.34177175 -0.10034425 -0.016647538
0001c0 23 2a 3e bf 5f 1c df be 13 de 3c 3e 3d 3a 37 3d
       -0.74283046 -0.43576333 0.1844409 0.044733275
0001d0 53 87 6a be 5a 0b c1 be 65 0f 03 3d f7 7a 27 3e
       -0.22903185 -0.37703973 0.031997103 0.16355501
0001e0 7e 14 39 3d 4c 70 da bd a8 a5 be 3e 6c f9 d3 3e
       0.04518556 -0.1066595 0.3723576 0.4140123
0001f0 55 0c bb 3e d4 99 03 be be 4e b0 3d d5 61 b9 3e
       0.36532846 -0.1285165 0.08608769 0.36207452
000200 68 41 97 3e b3 20 83 be 04 60 04 bf ca bb 9b be
       0.29542089 -0.25610885 -0.5170901 -0.3041671
000210 a5 d7 19 bc 7a 65 10 bf fa bd 46 bd ea d9 32 3d
       -0.009389793 -0.5640484 -0.04852102 0.04366485
000220 71 43 ff bd ec cf 3c 3f e3 55 97 3e d3 ae d8 be
       -0.12464035 0.73754764 0.29557714 -0.4232088
000230 0d a4 9a bc 3c e6 fc 3e f5 c4 b0 be 2c 0a 4a be
       -0.018877054 0.49394405 -0.34525266 -0.19730443
000240 af 86 d8 3e 02 77 3a 3c 4f 3a 10 be d4 08 62 3e
       0.42290255 0.011380913 -0.14084743 0.2207368
000250 06 b6 46 3e db 4d 84 3e 40 f4 15 3e 88 75 cd 3e
       0.19405374 0.2584065 0.14643955 0.40128732
000260 02 2e cb be de 2b 9b bd 5a 7b 0c bf 68 12 73 be
       -0.3968354 -0.075767264 -0.5487572 -0.2373749
000270 71 70 b3 be e4 9e 2a be f3 66 e7 be 21 fb a3 3e
       -0.35046723 -0.16662174 -0.45195732 0.32027534
000280 0c e3 18 3f 5f d4 88 bd a1 4c 41 3d f6 43 b6 be
       0.59721446 -0.066811316 0.04719222 -0.35598725
000290 fb fe 4a 3e bf 4f c3 3d 46 39 64 3d 15 2a 03 bd
       0.1982383 0.09536695 0.055718683 -0.032022554
0002a0 6f 03 91 3c dc a7 6e 3d 7d 9c a6 3e 8e fc 11 3f
       0.017701833 0.058265552 0.32541266 0.5702599
0002b0 36 b8 94 3c 87 19 73 3e eb 31 81 3e 0e d3 f7 be
       0.018154245 0.23740207 0.25233397 -0.4840321
0002c0 11 3b e6 3d dc 55 07 3f f7 1b bc bd 8f 40 01 3f
       0.11241735 0.52865386 -0.09185021 0.50489134
0002d0 3a 1b 82 bd 6a d2 07 3e 15 60 51 be 33 ae 02 3f
       -0.06352849 0.1326386 -0.20446809 0.51047057
0002e0 92 e0 97 3d 45 7c 8e bc 7c cd e6 be dd d7 32 bf
       0.0741588 -0.01739324 -0.45078647 -0.6986063
0002f0 67 05 d1 3e e3 02 9a 3e d4 fa 89 3e be cb cd be
       0.40824434 0.30080327 0.2694918 -0.40194505
000300 82 f1 e9 bd 22 22 a6 3e cd 5d 3e bf 46 cc c2 be
       -0.11423017 0.32447916 -0.7436188 -0.38046473
000310 0b 33 87 3e 05 93 26 3e 58 8d fe bd 42 6d d6 3d
       0.2640613 0.16267021 -0.12429303 0.10470058
000320 64 b6 99 3d e9 3e 89 3f 61 bb a9 3e 2b 4c a8 be
       0.075054914 1.0722324 0.3315077 -0.32870612
000330 01 b7 95 bb 84 5b a1 bf 0a a8 0d 3d 72 28 64 bd
       -0.004568935 -1.2606053 0.034584083 -0.055702634
000340 0b c6 7d 3f ec e3 c5 3e ee 23 28 bf 53 52 3e 3e
       0.99130315 0.38650453 -0.65679824 0.18586092
000350 bb e4 3e bf 97 b3 32 be 54 69 4a 3f 31 63 38 be
       -0.74567765 -0.1745132 0.7906697 -0.18006589
000360 b1 48 fc be 46 79 41 3e 5d 17 8b be 4a 18 e2 3b
       -0.4927421 0.18893918 -0.27166262 0.006899868
000370 ab e7 17 3e 69 7a cc be 6b 83 19 bf ef c3 c0 be
       0.14834468 -0.39937142 -0.5996615 -0.37649485
000380 3d 70 cd be e5 35 ad be a7 a8 d0 3d ce 39 6a 3e
       -0.40124694 -0.3383018 0.10188418 0.22873613
000390 e2 d2 73 3e 42 e5 35 3c b9 91 27 3e 05 c7 95 be
       0.23810914 0.011102023 0.16364183 -0.29253402
0003a0 34 33 42 3e 82 09 d0 3e f1 f3 38 3e d3 ca 24 bf
       0.18964845 0.40632254 0.18061806 -0.64371985
0003b0 25 5f cb 3e e3 f7 08 3e 34 53 8a 3d ba 0b e5 bd
       0.39721027 0.13375811 0.06754151 -0.11183877
0003c0 56 2e 1a 3d 4a 5e 16 3e 9f 3e d2 3d f9 4c 2e 3d
       0.037641846 0.14684406 0.1026585 0.042553876
0003d0 e8 0f 4e 3e 71 58 f9 3e c8 8b ba be 9d 67 f5 be
       0.20123255 0.48700288 -0.3643477 -0.47930613
0003e0 8a 1f de bd 23 82 57 3e 4e ce d7 bd 50 ed 9f be
       -0.10845859 0.21045737 -0.10537396 -0.31235743
0003f0 44 97 8b 3e e8 d7 4d bf 51 41 73 bd 93 f2 1b 3e
       0.27263844 -0.8040757 -0.059388462 0.15229253

critic.network_body.linear_encoder.seq_layers.0.bias f4 [128]
000000 c6 ed 9f 3c e9 5d 67 3b 4b 2f 6d bc d5 e9 ea 3b
       0.019522559 0.0035303778 -0.014476608 0.007168988
000010 b4 dc d0 38 76 d6 e5 3b c3 22 fe bb fd 24 e7 3b
       9.959322e-05 0.007014091 -0.0077556088 0.00705397
000020 b6 6c 23 bc 04 1f 23 3c ac 6b e8 3b 1d f9 08 bc
       -0.009974649 0.009956125 0.0070929136 -0.0083601745
000030 3f 37 6c bc 81 6f 53 bb db c3 bd 3b 2a 76 df bb
       -0.014417469 -0.0032262506 0.00579117 -0.006819506
000040 b1 4d 39 bc 32 5f 62 3c 31 28 e3 3b 9a a2 11 3c
       -0.011310027 0.013816642 0.0069322814 0.008888865
000050 61 b3 d5 3b 43 b6 32 3c 0c ca 22 bc 54 01 86 bc
       0.006521628 0.010907712 -0.009935867 -0.016358055
000060 f9 cf 91 bc 7b df e2 bb f7 49 c9 3b 81 46 85 bb
       -0.017799364 -0.0069236136 0.0061428505 -0.0040672426
000070 fc ed 0d bc 23 b9 6d bc 34 8e ef 3b 89 b9 5f bc
       -0.008662697 -0.014509472 0.007310653 -0.013655075
000080 d0 ad e3 3a 2a 67 d7 3b 96 79 53 bc 53 85 36 3b
       0.0017370526 0.0065735774 -0.012907406 0.0027850464
000090 b5 f8 03 bb 2d f1 03 3c 01 89 e8 3b f5 0f 00 bc
       -0.0020137255 0.008053106 0.0070964103 -0.007816304
0000a0 30 2a 81 bc 75 09 f6 3b fe 12 ce bb 36 f9 17 3c
       -0.015767187 0.0075084516 -0.006288885 0.009275725
0000b0 41 08 c2 3b 7e 02 e8 ba 89 39 0a bc da cd 89 3c
       0.005921394 -0.0017700938 -0.008436569 0.01682179
0000c0 9e ac 8e bc d2 84 34 bc d1 c3 44 3c 83 58 58 3c
       -0.017416295 -0.011017995 0.012009577 0.013204697
0000d0 fe c2 64 3c d1 59 af bb 37 08 29 3c d6 1f 84 bb
       0.013962505 -0.005351283 0.0103169 -0.0040321155
0000e0 ab 42 d9 bb b3 2d 00 bc cf 58 aa 3b 58 3e 08 bc
       -0.006630262 -0.007823396 0.005198575 -0.008315645
0000f0 f7 70 fd bb c2 78 c2 3b a6 22 ea bb 4c 65 c6 bb
       -0.0077344137 0.0059348056 -0.0071452437 -0.006054556
000100 57 bd f7 3b e4 34 39 3c e7 a9 a4 bc 3e ea 16 3c
       0.007560413 0.011304114 -0.020100547 0.009211121
000110 f8 c4 d0 bb e4 ba a5 bb e3 7f de bb 00 af b3 3b
       -0.0063711368 -0.0050576795 -0.0067901476 0.005483508
000120 ba cc fa bb 6b 6d cc bb bf d1 8b 3c 18 df 83 3b
       -0.0076538 -0.0062386296 0.017067788 0.0040243976
000130 1f f1 7b bc ec db ec bb d3 82 21 bb 6c 14 09 3c
       -0.015377312 -0.007228365 -0.0024644628 0.008366685
000140 37 de 91 bc 9d a0 ab bb 12 c0 53 3c eb 5a 9e 3c
       -0.017806156 -0.0052376525 0.012924211 0.019330462
000150 9d b1 b7 3b 1f 54 ae bc fe c9 c5 bb 66 ef b8 3c
       0.00560589 -0.021280346 -0.0060360422 0.022575092
000160 22 9d b9 bb bb cc 59 3c 45 dd d2 3b 4d a2 a5 bb
       -0.0056644836 0.01329344 0.006435069 -0.005054748
000170 ee c9 c9 bb 8a 2a 31 3c f5 dc 7c bc 95 32 09 3c
       -0.006158105 0.010813365 -0.01543354 0.008373876
000180 84 30 ff 3a 5d 47 50 3c 93 43 e5 bb bb ad 10 3c
       0.0019469415 0.012712327 -0.006996581 0.008830483
000190 a4 46 50 bc c6 eb 41 3c c6 81 27 bc e9 43 d4 bb
       -0.012712155 0.011835998 -0.0102238115 -0.006477822
0001a0 fa f0 ec bb 5b 9e 3e bc ca 15 c2 3b 33 5a 00 bc
       -0.007230875 -0.011634435 0.0059230076 -0.007834005
0001b0 6a 43 9a bb c3 73 cd bb 9d 9b 97 bb 2e 20 e7 bb
       -0.0047077434 -0.0062699034 -0.004626705 -0.0070533967
0001c0 bc 23 57 3c 72 4b a8 bb 35 41 08 bc 0d fb c5 3b
       0.013131078 -0.005135947 -0.008316328 0.0060418905
0001d0 1e ef 71 3c 79 47 2e bc b2 79 06 3c f6 e6 e4 bb
       0.014766483 -0.010637158 0.008207725 -0.0069855405
0001e0 a9 4e 90 bb ba 52 1e bc ed 9f 9b 3c 4a 1b 51 3c
       -0.0044039083 -0.009663278 0.018997157 0.012762854
0001f0 4d 92 94 3c 43 47 7e 3c 34 6a b7 3b 23 ff 1b bc
       0.018136168 0.01551992 0.005597377 -0.009521279
