results/ppo/Car Agent/Car Agent-21602.pt (torch, 453647 bytes, 42 tensors)

network_body.linear_encoder.seq_layers.0.weight f4 [128, 9]
0	0x3d143031	0.03617877
1	0xbbd7c026	-0.006584185
2	0x3e8751fe	0.26429743
3	0x3dee6f06	0.1164227
4	0xbd1d6b75	-0.038432557
5	0x3f32eb33	0.69890136
6	0x3f133c79	0.5751415
7	0x3e2214d8	0.15828264
8	0x3c9d6b06	0.019216072
9	0x3e2430c6	0.1603423
10	0x3d2152f8	0.039385766
11	0xbea185d5	-0.31547418
12	0xbe5f6adb	-0.21818106
13	0x3ed27711	0.41106465
14	0xbf0c7c40	-0.5487709
15	0x3e9047ab	0.28179678
16	0x3e80a998	0.2512939
17	0x3e878407	0.26467916
18	0xbde2bb8b	-0.11070927
19	0x3f11e8bf	0.5699577
20	0xbe63ba98	-0.22239149
21	0xbd21ee20	-0.039533734
22	0x3ece580c	0.4030155
23	0x3e473caa	0.19456735
24	0xbd43ccae	-0.04780262
25	0x3e19e2b8	0.15027893
26	0xbe93b9c8	-0.28852677
27	0xbde0b1b8	-0.10971397
28	0x3e6f4962	0.23367837
29	0x3dfa3008	0.122161925
30	0xbf190cf6	-0.597854
31	0x3c5ed41c	0.0136003755
32	0x3f22edcc	0.636441
33	0xbeff7860	-0.49896526
34	0x3ea73798	0.32659602
35	0xbdda4ae4	-0.106588155
36	0xbe2caed6	-0.1686357
37	0xbda10161	-0.07861591
38	0x3dbf0ffa	0.09329219
39	0x3ea95ea8	0.3308003
40	0x3e91f660	0.28508282
41	0xbd4240ec	-0.047425196
42	0xbe921b0a	-0.28536254
43	0xbf65bae8	-0.8973832
44	0x3cad09ee	0.021122899
45	0x3ca0b6be	0.019618388
46	0xbf3fd551	-0.7493487
47	0x3f0fdd83	0.56197375
48	0xbecd7fad	-0.4013647
49	0x3e37e3da	0.17958012
50	0xbdb8c70a	-0.09022339
51	0xbd1d5bf6	-0.03841778
52	0x3e8d9307	0.27651235
53	0x3e9500dd	0.2910222
54	0xbef95786	-0.48699588
55	0x3f2a8454	0.66608167
56	0x3f0e2b1a	0.5553452
57	0x3e28415b	0.16431181
58	0xbda60518	-0.0810644
59	0xbe0c36fd	-0.13692851
60	0xbc30269d	-0.010751394
61	0x3e20be3c	0.15697569
62	0x3f35cf57	0.710195
63	0xbf345a80	-0.7045059
64	0xbe9fd6e6	-0.31218642
65	0x3e811af7	0.25215885
66	0x3e515600	0.20442963
67	0x3e0763a7	0.13221608
68	0x3d42e221	0.047578935
69	0x3eaa2655	0.3323237
70	0x3c0e44fd	0.00868344
71	0x3eb4ed96	0.35337514
72	0xbe6411e3	-0.22272448
73	0xbe7289e0	-0.23685408
74	0xbe747e0e	-0.23876211
75	0xbe047bf0	-0.12937903
76	0x3dd9a4dc	0.106271476
77	0x3e288782	0.16457942
78	0x3dcaa0ae	0.098939285
79	0x3e601fbd	0.21887107
80	0xbd1494e3	-0.036274802
81	0xbe7832e0	-0.24238157
82	0xbd7979e1	-0.06090725
83	0x3d83139e	0.06400226
84	0xbd8cc273	-0.06873026
85	0xbe44522f	-0.19171976
86	0xbed0daa9	-0.40791824
87	0xbef71821	-0.48260596
88	0x3d8ddf75	0.06927387
89	0xbd808578	-0.06275457
90	0xbe9c7d40	-0.30564308
91	0x3e760951	0.24026991
92	0xbe89957e	-0.26871866
93	0x3d4f50bc	0.050614104
94	0x3e442cc1	0.19157697
95	0x3e511b86	0.20420656
96	0xbe18abcc	-0.14909285
97	0xbe70a5f8	-0.23500812
98	0xbeb17b0e	-0.34664196
99	0xbdd553da	-0.10416384
100	0xbdd3fcee	-0.10350977
101	0x3e902a80	0.28157425
102	0xbf5f5f03	-0.8725435
103	0x3ef6f16b	0.48231062
104	0x3f0b18c4	0.54334664
105	0xbdfed3f0	-0.124427676
106	0x3d2e365b	0.042532306
107	0xbf0b4ac7	-0.54410976
108	0xbb08c9e1	-0.0020872282
109	0x3f43deb5	0.765117
110	0xbf093fa8	-0.53612757
111	0xbe218e4f	-0.15776943
112	0xbeb4924f	-0.35267875
113	0x3ea4c756	0.3218333
114	0x3e8fd7be	0.28094286
115	0xbf0cff86	-0.550774
116	0xbec3beee	-0.38231605
117	0xbe9871ea	-0.2977441
118	0x3e502c5f	0.20329426
119	0x3dc80070	0.097657084
120	0x3e3f535a	0.1868414
121	0xbf07d0ef	-0.5305318
122	0x3dee8e2f	0.11648213
123	0x3e086bd0	0.13322377
124	0xbe7d440c	-0.24732989
125	0xbe6d4caf	-0.23173784
126	0xbe7a1a8b	-0.24424188
127	0xbf0bbd99	-0.5458618
128	0xbd907730	-0.07053983
129	0x3e1db1f5	0.15399916
130	0x3e5edb71	0.21763398
131	0xbe78f6cf	-0.243129
132	0xbe958819	-0.29205397
133	0x3e4550d9	0.19269122
134	0x3e5cc86d	0.21560831
135	0x3d822948	0.0635553
136	0xbf25ed1d	-0.6481493
137	0xbd0aaad1	-0.03385431
138	0xbf351f2e	-0.707507
139	0xbd26a16a	-0.04068128
140	0xbf1a73ae	-0.60332763
141	0x3e61e1dc	0.22058815
142	0x3e8b5ef8	0.27220893
143	0x3ec45510	0.38346148
144	0x3c08cbe8	0.008349396
145	0xbc4bc2a6	-0.0124365445
146	0x3dad044d	0.08448086
147	0xbe835142	-0.25647932
148	0xbc5bc418	-0.013413452
149	0xbccc6136	-0.024948698
150	0x3e11917d	0.14215656
151	0xbebf9244	-0.3741628
152	0xbd5026db	-0.050818305
153	0x3ceeb09e	0.029136952
154	0xbf196704	-0.59922814
155	0x3eaad186	0.3336298
156	0xbe3b02e8	-0.18262827
157	0x3e028601	0.12746431
158	0x3f28349a	0.65705264
159	0xbc135df4	-0.008994568
160	0xbd76866a	-0.06018678
161	0x3f02b2e6	0.5105423
162	0xbf0ed095	-0.5578702
163	0x3dfdd76b	0.12394603
164	0xbeb3b186	-0.35096377
165	0xbd011775	-0.03151651
166	0xbeb5dd37	-0.35520336
167	0x3dedb0a7	0.116059594
168	0x3d2550ed	0.04036038
169	0xbf1e5afc	-0.6185758
170	0x3edf4317	0.43605873
171	0xbf4a3e7d	-0.790016
172	0xbf04a5b2	-0.5181533
173	0x3e9bc5e3	0.30424413
174	0xbe80c60b	-0.25151095
175	0xbeb07884	-0.34466946
176	0xbed9cfe2	-0.42541414
177	0xbec646a5	-0.38725773
178	0x3eff9277	0.4991643
179	0x3e94e530	0.29081106
180	0x3dc0ddbe	0.09417294
181	0x3eb37489	0.35049847
182	0x3d80540f	0.06266033
183	0x3e72d4cf	0.23713993
184	0x3d90b4d6	0.07065742
185	0x3e8fa668	0.28056645
186	0x3cf15313	0.029458558
187	0x3eb74607	0.35795614
188	0x3d41a261	0.047273997
189	0xbe8d171d	-0.27556697
190	0x3eaf715a	0.34266168
191	0xbc8d9435	-0.017282585
192	0xbf0fc23e	-0.56155765
193	0x3eb96ba0	0.36214924
194	0x3cfc2492	0.030779157
195	0x3f04ffd9	0.5195289
196	0xbde19fe9	-0.110168286
197	0x3baf2ba4	0.0053457785
198	0xbcb91533	-0.022593116
199	0xbe4aaadd	-0.19791742
200	0x3e818b2e	0.25301498
201	0x3d10b2cd	0.035326768
202	0x3de1bd33	0.11022415
203	0x3f2b1874	0.6683419
204	0xbec7bf2a	-0.39013034
205	0xbdf96547	-0.1217752
206	0xbda4ce01	-0.080471046
207	0x3ef56ebc	0.47936046
208	0x3e005d49	0.12535585
209	0xbd2a1a25	-0.04152884
210	0x3f2ad8fe	0.66737354
211	0xbe528c73	-0.2056139
212	0xbe7dccd4	-0.24785167
213	0x3e441e54	0.19152194
214	0xbdbafb00	-0.09129906
215	0x3f44830f	0.7676248
216	0xbf04332e	-0.51640594
217	0x3e471935	0.1944321
218	0xbee53849	-0.44769505
219	0xbd7118ee	-0.058861665
220	0xbe2e6e21	-0.17034198
221	0x3eac5412	0.3365789
222	0x3eae7121	0.34070686
223	0x3dfc8c3b	0.12331434
224	0xbe8fcba7	-0.28085062
225	0x3ec51801	0.38494876
226	0xbf0ff47f	-0.56232446
227	0xbec9e9fe	-0.39436334
228	0x3e9dd6be	0.30827898
229	0xbd9bc373	-0.07605638
230	0xbd1a7b86	-0.037715457
231	0xbe8ec6b0	-0.27885962
232	0x3db3bade	0.087758765
233	0x3b613660	0.0034364685
234	0x3e9f7339	0.31142595
235	0xbec856ab	-0.39128622
236	0x3e93246f	0.28738734
237	0xbe4463f8	-0.1917876
238	0xbe11626a	-0.14197698
239	0xbf1fe721	-0.6246205
240	0xbe153871	-0.14572312
241	0x3ebc8511	0.36820272
242	0x3e27fc3d	0.16404815
243	0xbb7506f9	-0.003738819
244	0x3e37ebcc	0.17961043
245	0xbbc9d127	-0.006158966
246	0xbe4a9b62	-0.19785836
247	0xbb2b701a	-0.0026159347
248	0x3da88043	0.08227589
249	0x3f2e1ba0	0.680109
250	0x3d132eb5	0.035933215
251	0x3ed39d74	0.41331065
252	0xbd8e6c64	-0.069542676
253	0x3d6c7142	0.0577252
254	0x3de85162	0.113436475
255	0xbdd7cda1	-0.105372675

network_body.linear_encoder.seq_layers.0.bias f4 [128]
0	0xbc16b6be	-0.009198843
1	0x3b19ae76	0.0023449934
2	0x3bb8fc75	0.0056453296
3	0x38d56a88	0.000101764745
4	0xbc0ce010	-0.008598343
5	0x3c07cedf	0.008289068
6	0x3c1921ba	0.00934642
7	0xbc323e44	-0.010879103
8	0x3b9965a2	0.004681305
9	0xbbe0a8a1	-0.0068560396
10	0xbbb5dd46	-0.0055500595
11	0xbbaeb597	-0.005331706
12	0x3b8dafad	0.0043239207
13	0x3bc923d1	0.006138303
14	0xbc0ebf42	-0.008712592
15	0x3ba1b7e0	0.0049352497
16	0xbc21785e	-0.009855358
17	0x3c1e14d6	0.009648522
18	0xbbf97e9d	-0.0076139704
19	0xbba4a5af	-0.005024634
20	0x3bfe8f13	0.0077685206
21	0x3bfc348a	0.007696693
22	0x3c050495	0.008118768
23	0xbc2e4442	-0.010636391
24	0x3ba6151f	0.005068436
25	0x3b9ee307	0.004848841
26	0xbc06b480	-0.0082217455
27	0x3c10337f	0.00880134
28	0xb96fac92	-0.00022857104
29	0x3c16b332	0.009197997
30	0x3bb61f2b	0.0055579147
31	0x3bc409ad	0.0059825988
32	0x3be73820	0.007056251
33	0x3bd65a35	0.0065415152
34	0xbc221698	-0.009893082
35	0x3bdbde73	0.0067098676
36	0x3bb18751	0.0054177423
37	0x3b0c40da	0.002140096
38	0xbbbfeb74	-0.0058569256
39	0xbc0e2396	-0.008675477
40	0x3bf3378d	0.0074223937
41	0x3bc2d6ce	0.005946017
42	0x3bfa9300	0.0076469183
43	0x3be05589	0.006846134
44	0x3bbf8e36	0.0058458103
45	0xbc182b58	-0.009287678
46	0x3c09eef9	0.008418792
47	0xbc03c5f4	-0.008042801
48	0xbbf84a9c	-0.0075772535
49	0x3c070008	0.008239754
50	0xbbe3e61f	-0.006954923
51	0x3c0730e3	0.008251402
52	0xbb410ba5	-0.0029456404
53	0x3aa3cdad	0.0012497209
54	0x3bee6e51	0.0072763343
55	0xbbc7c253	-0.0060961633
56	0xbc2425dc	-0.010018792
57	0x3ac2b539	0.0014855034
58	0x3bb54727	0.0055321637
59	0xbbd37cd5	-0.00645409
60	0xbba84d5b	-0.0051361746
61	0xbc00f9fc	-0.007872101
62	0xbc15bf59	-0.009139859
63	0x3b6cd5cc	0.0036138175
64	0xbb749923	-0.0037322722
65	0xbbdb4a16	-0.0066921813
66	0xbc0b01a1	-0.008484275
67	0xbc15e2b2	-0.009148287
68	0xbc25b235	-0.010113289
69	0xbb3b6d24	-0.0028598988
70	0xbb84bf64	-0.004051136
71	0x3b394853	0.0028271868
72	0xbbc9ef3e	-0.006162553
73	0xbab3ab59	-0.0013707682
74	0xbbe11d52	-0.0068699503
75	0xb9e9f841	-0.00044626187
76	0xbc192e6e	-0.009349449
77	0xbc059584	-0.008153323
78	0x3a7e68b9	0.0009704936
79	0xbc0010f3	-0.007816541
80	0xbc101b33	-0.008795547
81	0x3bbdaeaa	0.005788644
82	0xbbd8834e	-0.0066074496
83	0xbbe0691f	-0.006848469
84	0xbb927bfc	-0.0044703465
85	0xbb729819	-0.0037016927
86	0xbb4ec9fb	-0.0031553495
87	0xbb86d9be	-0.0041153124
88	0xbc1a7551	-0.0094273845
89	0x3b327138	0.0027228128
90	0x3b571c59	0.0032823293
91	0xbb497332	-0.0030738828
92	0x3bf72ffd	0.0075435624
93	0xbc12b12b	-0.008953373
94	0x3b916116	0.0044366224
95	0x3bf01afa	0.0073274346
96	0x3b257948	0.0025249291
97	0x3ba88cbe	0.005143731
98	0x3b99571b	0.0046795732
99	0xbc1d357a	-0.009595269
100	0xbbc4c4f0	-0.006004922
101	0x3bd90378	0.006622728
102	0x3c06e434	0.008233119
103	0x3c089a45	0.008337562
104	0x3b9993dd	0.004686816
105	0x3b70d152	0.0036745858
106	0x3c111cc0	0.008856952
107	0x3bc247d9	0.005928975
108	0xbb5b1a67	-0.0033432485
109	0xbb861d8f	-0.004092879
110	0xbbd40c33	-0.006471181
111	0x3a5e92fa	0.0008490529
112	0x3bb2b9ce	0.0054542786
113	0xbaaf8ca7	-0.0013393358
114	0xbb1d6c4c	-0.0024020849
115	0xbc3d0de4	-0.011538956
116	0xbb7c3fea	-0.0038490244
117	0xbbaf74ba	-0.005354491
118	0xbb09484e	-0.0020947638
119	0x3af185ab	0.0018426677
120	0xbb2acc60	-0.0026061758
121	0xbb59f523	-0.0033257685
122	0xbbf26f82	-0.0073985467
123	0x3bf1c5ff	0.0073783393
124	0x3b8ade9e	0.004237964
125	0xbb0dcfaf	-0.0021638682
126	0x3c14d00a	0.0090828035
127	0xbbf83c9d	-0.007575585

network_body.linear_encoder.seq_layers.2.weight f4 [128, 128]
0	0x3dfe4196	0.12414853
1	0x3beca71d	0.00722207
2	0xbd88bb63	-0.06676366
3	0x3ce6c46d	0.028169835
4	0x3c3be05d	0.011467067
5	0x3d790a2e	0.060800724
6	0x3dcf0445	0.10108236
7	0x3e0a9dac	0.1353671
8	0x3ceec212	0.029145274
9	0xbd9b8be8	-0.075950444
10	0xbe237520	-0.15962648
11	0x3e18cd0c	0.14921969
12	0xbd25b026	-0.04045119
13	0x3c84c8fb	0.016209116
14	0x3dcba0f9	0.099428125
15	0x3c8e233d	0.017350787
16	0xbe32ed84	-0.17473418
17	0x3d924a5e	0.07143091
18	0xbc1d7a1c	-0.009611633
19	0x3c26c4b9	0.010178738
20	0xbdbaa3b6	-0.09113257
21	0x3be27e1e	0.006912007
22	0x3e1df622	0.15425923
23	0xbc8719fb	-0.01649188
24	0xbdb0d047	-0.08633476
25	0x3e7d2b4d	0.24723549
26	0xbdd8764f	-0.105694406
27	0xbd2f45f8	-0.042791337
28	0x3d3f665c	0.046728477
29	0x3c040374	0.008057464
30	0xbe16877b	-0.14700119
31	0x3dacc50c	0.08436021
32	0x3c029e15	0.00797226
33	0xbe019e30	-0.12658
34	0x3de20493	0.11036029
35	0xbd7fd327	-0.06245723
36	0x3d775326	0.06038203
37	0x3dc307db	0.09522983
38	0xbb7bf385	-0.003844471
39	0x3d0ebe0f	0.034849223
40	0xbaffcafd	-0.0019515451
41	0x3d25a9b0	0.04044503
42	0xbce050a5	-0.027382204
43	0x3d710549	0.05884293
44	0x3da81851	0.08207763
45	0xbd5ef1bf	-0.054429766
46	0x3ddabb87	0.10680299
47	0x3d6f1ec0	0.058378935
48	0xbe3fb8ac	-0.1872279
49	0x3d4f8cf4	0.050671533
50	0xbdec3154	-0.11532846
51	0xbe31270e	-0.17300054
52	0x3d090b2e	0.033457927
53	0x3d5a4255	0.053285915
54	0x3de9f3b7	0.11423438
55	0x3e18486c	0.14871377
56	0xbae52945	-0.0017483613
57	0x3d7a6629	0.061132584
58	0xbd3dd26a	-0.046343245
59	0xbe2dd9ce	-0.16977617
60	0xbd98824d	-0.07446728
61	0x3d6c5d4f	0.057706174
62	0x3d015242	0.031572588
63	0x3dac4e7c	0.08413407
64	0xbd197cc3	-0.037472498
65	0xbd93eb2a	-0.07222588
66	0xbd3cf07a	-0.046127774
67	0xbbb04e43	-0.0053804233
68	0xbe4ed9b6	-0.20200238
69	0x3d404374	0.04693933
70	0x3d8b05ef	0.06788241
71	0xbd84a293	-0.06476321
72	0xbc08715d	-0.008327809
73	0xbc4976ae	-0.012296362
74	0xbda0dc95	-0.07854573
75	0x3d8a31b2	0.0674776
76	0xbe2b682f	-0.16738962
77	0x3ddc02bd	0.1074271
78	0xbd8c1812	-0.068405285
79	0xbe28ca78	-0.16483486
80	0x3d71cb01	0.05903149
81	0x3da935e5	0.08262233
82	0xbcdc037c	-0.02685713
83	0x3c0b91b2	0.008518623
84	0xbd92f125	-0.07174901
85	0xbd2294fa	-0.039692856
86	0x3d6b6283	0.057466995
87	0x3e0263d1	0.1273339
88	0x3d65e59e	0.056127183
89	0xbc971a71	-0.018445225
90	0xbd14cd0c	-0.03632836
91	0xbdf4d6d0	-0.11955035
92	0x3c23ab1f	0.009989529
93	0xbc276044	-0.010215823
94	0x3d9b0500	0.07569313
95	0xbde4c031	-0.1116947
96	0x3bec8dc5	0.0072190487
97	0xbda708fb	-0.0815601
98	0x3de48297	0.111577205
99	0x3d821069	0.06350786
100	0x3d4cc4f9	0.049992535
101	0x3cd9a746	0.02656902
102	0xba84fa78	-0.0010145446
103	0x3e4da0da	0.20080891
104	0x3dc421a9	0.09576733
105	0xbd9958f9	-0.07487673
106	0x3dd2a606	0.10285573
107	0xbcf3883c	-0.029728048
108	0xbdf46c27	-0.11934691
109	0xbdc99b7f	-0.09844112
110	0x3d9c08c5	0.0761886
111	0x3dc9e95c	0.09858963
112	0xbe20a3e0	-0.15687513
113	0xbd0e8d8a	-0.03480295
114	0x3ca8ebab	0.020620188
115	0xbdfee8d5	-0.12446753
116	0xbd664e79	-0.05622718
117	0xbcb382a3	-0.021912878
118	0x3d7348b7	0.05939552
119	0xbd91b9d6	-0.071155235
120	0x3e4b566b	0.19857185
121	0x3dbc63aa	0.09198697
122	0xbe1f94b7	-0.15584074
123	0x3c50b280	0.01273787
124	0x3decb3cd	0.11557732
125	0x3c7517e2	0.014959307
126	0xbdd6ca09	-0.10487754
127	0xbceefd8e	-0.029173639
128	0xbcce79f8	-0.025204644
129	0xbd678be9	-0.056529913
130	0x3e0606f3	0.13088588
131	0x3d7ad3dc	0.0612372
132	0x3e05592b	0.13022296
133	0xbcee9699	-0.029124545
134	0x3daa02c8	0.08301312
135	0xbd0f6f24	-0.0350181
136	0x3dac1b07	0.084035926
137	0xbde8ffb6	-0.11376898
138	0x3d90f339	0.07077641
139	0xbd52475c	-0.051337585
140	0x3c0249cc	0.007952165
141	0x3d7408a6	0.05957856
142	0x3d4fc7dd	0.050727714
143	0x3dd59d76	0.10430424
144	0xbc0ee0cd	-0.008720589
145	0x3d1b5434	0.0379221
146	0xbc37c717	-0.0112169
147	0xbd5b8dfe	-0.05360221
148	0xbc980017	-0.01855473
149	0x3ce76f1c	0.028251223
150	0x3dfd392c	0.1236442
151	0xbd82f96d	-0.063952304
152	0xbd8d45bc	-0.068980664
153	0x3db6061c	0.08887884
154	0xbdc8fab4	-0.09813443
155	0xbd2a192d	-0.041527916
156	0xbe0b3f31	-0.13598324
157	0xbe15a885	-0.14615066
158	0x3dfc697b	0.12324806
159	0xba2f9c66	-0.00066990254
160	0xbd16f845	-0.036857862
161	0x3dc18ab9	0.09450287
162	0x3dcbbbd6	0.09947936
163	0x3df63acd	0.12022934
164	0x3d1da887	0.0384908
165	0xbca0a315	-0.019609014
166	0x3dc8b332	0.09799804
167	0x3da82d00	0.08211708
168	0xbc773e5a	-0.015090549
169	0xbdce1aea	-0.10063727
170	0x3caa66dd	0.020801002
171	0xbb43e8a5	-0.0029893306
172	0xbbb93e66	-0.0056531904
173	0x3d5e8042	0.054321535
174	0xbcd674da	-0.026178766
175	0x3d8a49e4	0.06752375
176	0xbe0569e1	-0.13028671
177	0x3e0ed30f	0.139477
178	0x3dbafbd1	0.091300614
179	0x3e50af00	0.20379257
180	0xbe288d47	-0.16460143
181	0xbdcab6ac	-0.09898123
182	0xbdab105e	-0.08352731
183	0x3b82a674	0.003987128
184	0x3da77c0a	0.081779554
185	0x3d1e26d3	0.038611244
186	0xbe51d520	-0.20491457
187	0xbc8d96bc	-0.01728379
188	0xbd28c66c	-0.041204855
189	0x3de0a744	0.109694034
190	0x3d04d3f4	0.032428697
191	0xbde4418c	-0.111453146
192	0xbe024ccf	-0.12724613
193	0xbe2d7287	-0.1693822
194	0x3b9714e2	0.0046106437
195	0x3cddfba7	0.027097536
196	0xbdcd23d2	-0.10016598
197	0xbdeba0e9	-0.115053006
198	0xbdb71cbe	-0.08941029
199	0x3d8699ea	0.065723255
200	0xbddbcf00	-0.107328415
201	0xbdf57b04	-0.11986354
202	0xbd736108	-0.059418708
203	0x3d022db0	0.031781852
204	0xbdc65b41	-0.09685374
205	0x3df7412b	0.12072977
206	0x3e309b5e	0.17246768
207	0x3dfcf9a5	0.123523034
208	0x3e0b1207	0.13581096
209	0x3b540cbc	0.0032356223
210	0xbc7d02ac	-0.015442532
211	0x3b95dfbe	0.0045737913
212	0xbdb798be	-0.0896468
213	0xbdd01a31	-0.101612456
214	0xbd63e868	-0.05564156
215	0xbc7bfce4	-0.015380118
216	0x3c57b57c	0.013165828
217	0xbda1fa7d	-0.07909105
218	0xbcaa3564	-0.020777412
219	0xbdfe83d8	-0.12427491
220	0x3de14717	0.109998874
221	0x3d9ffbc1	0.0781169
222	0xbc99b5e6	-0.018763494
223	0xbddc29c0	-0.10750151
224	0x3d1481e7	0.036256697
225	0x3e3853a9	0.18000664
226	0x3cc23ff2	0.023712132
227	0x3d3dec2f	0.04636782
228	0xbe18b9a8	-0.14914572
229	0xbd943dd4	-0.07238355
230	0x3d50e7bb	0.051002245
231	0xbde9c0f0	-0.11413753
232	0x3de44706	0.11146359
233	0xbd401a65	-0.04690017
234	0xbdfcb529	-0.12339241
235	0x3db6f4de	0.089334235
236	0x3d8329c7	0.06404453
237	0xbc8dd01e	-0.017311152
238	0x3e00dac1	0.12583448
239	0xbaf30917	-0.0018542138
240	0xbd5b051c	-0.05347167
241	0x3d0e2ac5	0.034708757
242	0xbe182f7a	-0.14861861
243	0xbd7b58eb	-0.061364096
244	0x3da6c4ee	0.0814303
245	0x3dc912ea	0.09818061
246	0x3dde0f91	0.10842813
247	0x3d17b369	0.037036333
248	0xbbad3008	-0.005285267
249	0xbe6c0cb5	-0.23051722
250	0x3debda78	0.11516279
251	0xbcf12c7b	-0.029440155
252	0xbd080453	-0.03320725
253	0xbcc33462	-0.023828689
254	0x3cd58915	0.026066342
255	0x3c2f696c	0.010706287

network_body.linear_encoder.seq_layers.2.bias f4 [128]
0	0x3bf130c1	0.0073605482
1	0xbc25903e	-0.010105191
2	0xbbc42797	-0.005986165
3	0xbbc9ac22	-0.006154553
4	0xbbfc3b59	-0.0076975045
5	0x3c21acb3	0.009867835
6	0x3c0eed56	0.0087235775
7	0xbbe3ca41	-0.006951601
8	0xbc223bf3	-0.009901988
9	0x3bb8bc7f	0.005637705
10	0xbbdd538c	-0.0067543443
11	0xbc01c363	-0.007920119
12	0x3a6ed970	0.000911138
13	0xbb1b6a67	-0.0023714544
14	0xbbca11e5	-0.006166684
15	0x3c223a04	0.009901527
16	0x3b83b1dc	0.004019005
17	0xbc0ba4e4	-0.0085232
18	0xbbd00d11	-0.006349214
19	0x3b0ea8b8	0.0021768045
20	0x3bb7b69f	0.005606487
21	0xbbd7640d	-0.0065732063
22	0xbc2c46a1	-0.010514886
23	0xbba99064	-0.0051746834
24	0xbb2e8e3d	-0.0026635074
25	0x3b80f06a	0.0039349096
26	0x3baf8ab7	0.0053571123
27	0x3bb067d7	0.0053834724
28	0x3bd10699	0.0063789603
29	0x3c0fb69e	0.008771567
30	0xbb95103d	-0.004549055
31	0xbb8f1e3c	-0.004367618
32	0x3afb1b60	0.0019157939
33	0x3ace149e	0.0015722697
34	0x3b1aabad	0.0023600862
35	0x3b998654	0.0046852026
36	0x3a828f0f	0.0009960848
37	0xbbb2914c	-0.0054494496
38	0xbbac2124	-0.005252974
39	0xbac3c907	-0.001493723
40	0x3c1c9302	0.009556534
41	0xbc10401c	-0.008804347
42	0xbbd31b49	-0.0064424616
43	0x3c0ac933	0.008470821
44	0x3b757339	0.0037452711
45	0x3c4354e9	0.0119221
46	0xbb9ba652	-0.0047500515
47	0x3c23b4ec	0.009991866
48	0x3bf4ee58	0.007474702
49	0x3a875ee0	0.0010327958
50	0x3c1b5a1a	0.009481931
51	0x3c0a54d7	0.008443079
52	0xbc17554e	-0.009236647
53	0x3bdb0f37	0.0066851634
54	0xbc037e5d	-0.008025733
55	0xbc0eae00	-0.008708477
56	0xbc12053d	-0.008912382
57	0x3bc69263	0.006059931
58	0xbc194e98	-0.009357117
59	0xbc168f80	-0.0091894865
60	0xbbd04426	-0.00635578
61	0x3c061f9f	0.00818625
62	0xbb6afae9	-0.003585512
63	0x3bd8deeb	0.006618371
64	0x3b93c638	0.0045097135
65	0x3c0ed3c8	0.008717485
66	0x3ae762aa	0.0017653306
67	0x3c255fd1	0.010093645
68	0x3b6948e1	0.0035596418
69	0xbc174a0e	-0.009233965
70	0xbc2c9e63	-0.010535809
71	0xbbe7c3a3	-0.0070728823
72	0x3bdddce3	0.0067707165
73	0x3b9c96d1	0.004778721
74	0x3c084d9f	0.008319288
75	0x3b00438d	0.0019571513
76	0x3b899feb	0.004199972
77	0xbb488dc6	-0.0030602082
78	0xbbc121b0	-0.0058939084
79	0xbc1e02e9	-0.0096442485
80	0x3ac462a2	0.0014983008
81	0x3bdf8dc1	0.0068223183
82	0xba610246	-0.00085834076
83	0xb99028ba	-0.00027496164
84	0x39d5e74c	0.00040798855
85	0xbc0d5232	-0.008625554
86	0xbc1c8c5e	-0.0095549505
87	0xbbc2df96	-0.0059470637
88	0xbc136c25	-0.008997952
89	0xbc19cc63	-0.0093871085
90	0x3c0633dd	0.008191076
91	0xbc14a310	-0.00907208
92	0xbb8cf264	-0.004301356
93	0x3b4353f4	0.0029804679
94	0xbb95745d	-0.0045609907
95	0xba447e31	-0.00074956106
96	0x3c15df30	0.00914745
97	0x3c1415f7	0.00903844
98	0xbb919ae6	-0.004443514
99	0xba2b618d	-0.00065376685
100	0xbb235130	-0.0024920218
101	0xbc17d9cb	-0.0092682345
102	0x3c0a49fc	0.008440491
103	0x3b81353d	0.003943114
104	0xbc067e43	-0.008208814
105	0xbc1f6de1	-0.009730787
106	0xbaaf5f2c	-0.0013379804
107	0x3be2cc34	0.0069213156
108	0xbc24b399	-0.010052585
109	0x3b479269	0.0030452257
110	0xbc2b64bc	-0.010461029
111	0xbbd8620f	-0.0066034864
112	0xbc0c0d53	-0.008548099
113	0x3b7f9abc	0.003900214
114	0x3b77e7f5	0.0037827466
115	0xbc28dbb1	-0.010306285
116	0xbb05a16b	-0.0020390402
117	0x3c2fb033	0.0107231615
118	0xbb7e9c07	-0.0038850324
119	0xba9cc086	-0.0011959232
120	0xbc1f81e6	-0.00973556
121	0x3c5ab950	0.013349846
122	0xbbcd4166	-0.0062638996
123	0x3b60510b	0.0034227993
124	0x3c07dd5d	0.008292523
125	0xbbb4e6a1	-0.005520657
126	0xbb53086e	-0.003220107
127	0x3c1b651e	0.009484557

action_model._continuous_distribution.log_sigma f4 [1, 2]
0	0x3b712334	0.0036794664
1	0x3c0545ae	0.008134289

action_model._continuous_distribution.mu.weight f4 [2, 128]
0	0xbc43afc9	-0.011943766
1	0x3d1a7e57	0.037718143
2	0x3c9163ff	0.017747877
3	0x3b928b50	0.0044721738
4	0xbb5ed974	-0.0034004124
5	0xbc9c3d40	-0.019072175
6	0xbcb361b8	-0.021897182
7	0x3c074088	0.008255132
8	0x3bec0531	0.0072027673
9	0xbc63be68	-0.013900377
10	0x3c8cea29	0.0172015
11	0x3bc93300	0.006140113
12	0xbbb0d2e9	-0.005396236
13	0x3b224209	0.0024758598
14	0x3ca9d14e	0.020729687
15	0xbcb8eafe	-0.02257299
16	0x3b6242ff	0.0034524796
17	0x3c8f17a6	0.017467331
18	0xbb2f456a	-0.0026744255
19	0x3c8679bf	0.016415475
20	0xbd05043e	-0.03247475
21	0x3cbd4c5b	0.023107698
22	0x3c9b11eb	0.018929442
23	0xbbdfab74	-0.0068258587
24	0xbafd270f	-0.0019314009
25	0x3bd40e7f	0.0064714546
26	0x3c23d092	0.0099984575
27	0xbcc4fa5e	-0.024045166
28	0xbc38c79f	-0.011278062
29	0xbc1e23ee	-0.009652121
30	0x3bbde7b3	0.005795443
31	0xbb1ca282	-0.0023900573
32	0x3c8f41d0	0.017487437
33	0xbcd3e43a	-0.025865663
34	0xbc7aa76b	-0.015298705
35	0x3b80341a	0.003912461
36	0x3ae33113	0.0017333351
37	0x3ae30014	0.0017318749
38	0x3b86cb77	0.0041136104
39	0xbca68ca4	-0.020330735
40	0x39f66f44	0.00047003676
41	0x3c1bd277	0.009510628
42	0xbc0e516c	-0.008686405
43	0xba8795a4	-0.0010344279
44	0xbcc2d5bd	-0.023783559
45	0xbc2cfed1	-0.0105588
46	0x3be45c3e	0.006969004
47	0xbc2127ce	-0.00983615
48	0xbc9ad862	-0.018902007
49	0xbc384085	-0.011245851
50	0xbcb10fcd	-0.02161398
51	0xbcb99d25	-0.02265794
52	0x3bca14a8	0.006167013
53	0xbc1b8f09	-0.009494551
54	0x3cf603a6	0.030031037
55	0x3b104eab	0.0022019546
56	0x3c852bac	0.016256176
57	0xbc5cf3d8	-0.013485871
58	0x3c8263f3	0.0159168
59	0x3c60c6e5	0.013719295
60	0x3b567081	0.0032720866
61	0xbd3fc4a9	-0.04681841
62	0x3c5fcb09	0.013659247
63	0xbce9d3a3	-0.028543299
64	0x3b1a4ba3	0.0023543618
65	0xbbf7399c	-0.0075447094
66	0x3c265636	0.01015239
67	0xbd2536e0	-0.040335536
68	0xbb454d61	-0.0030105936
69	0x3c1340ea	0.008987645
70	0x3bb86245	0.005626949
71	0x3c7c2877	0.015390507
72	0xbcfc414a	-0.030792851
73	0xbc294d03	-0.010333302
74	0xbd35ef26	-0.044417523
75	0x3bfc0e3b	0.007692126
76	0xbc59cb44	-0.013293091
77	0x3c3745a8	0.011186041
78	0xbb75a86a	-0.0037484416
79	0x3c59661c	0.013268974
80	0x3d138956	0.036019646
81	0x3a57bac2	0.0008229428
82	0xbc72b343	-0.014813247
83	0x3c9ab682	0.018885855
84	0x3c284823	0.010271105
85	0xb9df8b0c	-0.00042637473
86	0x3cbc1884	0.022960909
87	0x3af3e7a1	0.001860846
88	0x3c2c5518	0.010518335
89	0x3bc5aae7	0.006032336
90	0x3c8e847a	0.017397154
91	0x3d159cfb	0.03652666
92	0x3bcc645d	0.00623755
93	0xbc150b55	-0.00909694
94	0xbc4df751	-0.012571172
95	0x3cbe1a6c	0.023205958
96	0xbc9f0d53	-0.019415533
97	0xbd252166	-0.040315054
98	0x3c814fd1	0.01578513
99	0xbc78dc78	-0.015189283
100	0x3b691a6e	0.0035568732
101	0x3c5ef68d	0.013608587
102	0xbc9c0286	-0.019044172
103	0x3cbd9d9e	0.023146447
104	0x3c427ade	0.011870114
105	0x3ca277e5	0.01983256
106	0xbbf35c1f	-0.007426753
107	0xbbf7ad6c	-0.0075585153
108	0x390937f9	0.0001308619
109	0xbd0e908d	-0.034805823
110	0x3c0f4155	0.008743604
111	0xbc97b1f4	-0.018517472
112	0x3c74274e	0.014901949
113	0x3bfd295c	0.0077258777
114	0x3d08b4c6	0.033375524
115	0x3c8f99ab	0.01752933
116	0xba0ae936	-0.00052990334
117	0xbab7118d	-0.0013967023
118	0xbb221eb7	-0.0024737546
119	0xba0fb858	-0.00054824864
120	0x3b2c029a	0.0026246668
121	0xbbe946b7	-0.0071190256
122	0x3ca7b673	0.02047274
123	0x3c0bebca	0.008540103
124	0xbd584c51	-0.052807156
125	0x3bb45c69	0.00550418
126	0x3cd666f7	0.026172144
127	0xbc087e2b	-0.008330862
128	0xbc9401cd	-0.018067265
129	0xbcb4c373	-0.022065854
130	0xbc29b430	-0.010357901
131	0x3b069bf8	0.0020539742
132	0x3d8a1353	0.06741967
133	0x3c8a5fbb	0.016891351
134	0xbceb73bc	-0.02874171
135	0x3c3719f8	0.011175625
136	0x3c3e4116	0.011612197
137	0x3c003857	0.007825932
138	0x3ba63ccd	0.005073166
139	0x3c03a7d8	0.008035623
140	0x3c3abaa8	0.011397041
141	0x3b89bb7f	0.0042032595
142	0x3c7551ec	0.014973145
143	0xbd26f424	-0.040760174
144	0xbcbe3246	-0.023217332
145	0xbba3a015	-0.0049934485
146	0x3c018014	0.007904071
147	0xbcb0dd85	-0.021590004
148	0x3d23af13	0.039961886
149	0xbc3410dc	-0.010990348
150	0x3c92c9c7	0.01791848
151	0x3c3292eb	0.010899286
152	0xbc97f9a6	-0.018551659
153	0xbc843bad	-0.016141737
154	0xbc824931	-0.015904041
155	0xbad15899	-0.0015971839
156	0xbd46ea75	-0.04856344
157	0xbcdf6be5	-0.027273128
158	0xbc9a2c1d	-0.018819863
159	0x3c215a4c	0.009848189
160	0x3bc069dd	0.005871995
161	0x3ca3a867	0.019977761
162	0x3b2ea825	0.0026650515
163	0xbc0ed24e	-0.008717133
164	0xbd2dc4b8	-0.042423934
165	0xbbde52ac	-0.0067847576
166	0xbaabd0de	-0.0013108512
167	0x3c953449	0.018213408
168	0xbc9793f1	-0.018503161
169	0x3c984b78	0.018590674
170	0x3be30566	0.006928134
171	0xbb4c1829	-0.003114233
172	0x3c3b3e79	0.011428469
173	0xbcefb1e3	-0.029259628
174	0xbc161969	-0.009161332
175	0xbc305fe6	-0.0107650515
176	0x3ca2fc67	0.019895745
177	0x3c0f272a	0.008737365
178	0xbc82772c	-0.015925966
179	0xbc446423	-0.011986765
180	0x3c735ddd	0.014853922
181	0x3c4051b8	0.011738233
182	0x3c5e91a2	0.013584526
183	0x3d148a0a	0.036264457
184	0x3a9c3c0b	0.001191975
185	0x3c4a9f75	0.012367119
186	0x3bbf34f5	0.0058351704
187	0x3cf951e0	0.030434549
188	0x3a0d5985	0.00053920626
189	0xbc3527b3	-0.011056828
190	0xbc0ac60a	-0.008470068
191	0x3bf54431	0.0074849357
192	0xbc890e2d	-0.016730392
193	0x39d2144c	0.00040069444
194	0xb98c43b6	-0.0002675333
195	0xbc0f6e21	-0.008754284
196	0x3ae525bf	0.0017482563
197	0x3c7aed06	0.0153153
198	0x3c72db45	0.014822786
199	0xbb4be0e6	-0.0031109392
200	0x3abf6e28	0.0014604973
201	0x3bcaef31	0.0061930646
202	0xbb84fec5	-0.004058691
203	0xbbe1c411	-0.006889828
204	0x3c67431d	0.014115122
205	0xbc82e44a	-0.015977997
206	0x3d1793f9	0.037006352
207	0x3c503f3b	0.012710388
208	0xbbb0edb4	-0.00539943
209	0x3af61b8a	0.0018776518
210	0x3cbaad3c	0.022787683
211	0x3c88457e	0.016634699
212	0xbc9c0f0b	-0.019050142
213	0x3c27f1c8	0.010250516
214	0x3b6f5a60	0.0036522374
215	0x3ba241b7	0.0049516815
216	0x3ac45bc4	0.0014980962
217	0x3c7ff84d	0.015623164
218	0x3c0267f0	0.007959351
219	0x3cea86d4	0.028628744
220	0xbb48faa9	-0.0030666983
221	0x3cf7312b	0.030174812
222	0x3c90d320	0.017678797
223	0xba7bb5c4	-0.00096019753
224	0xbbc67d6a	-0.006057431
225	0x3c21d123	0.009876522
226	0xbc371636	-0.011174729
227	0x3ce74d43	0.028235083
228	0x3a936746	0.0011245988
229	0x3a90e75b	0.0011055277
230	0xbbba4f7c	-0.005685745
231	0xbc720ebd	-0.014774022
232	0xbc6476da	-0.013944352
233	0x3cee168a	0.029063482
234	0x3cc19629	0.023631172
235	0x3b341524	0.002747842
236	0x3c913f91	0.017730506
237	0xbd0c9bea	-0.03432838
238	0x3c9ef739	0.019404994
239	0x3c9a0dba	0.018805373
240	0x3c4a9af4	0.012366045
241	0xbce8d0cd	-0.028419876
242	0x3ba2864c	0.004959857
243	0x3c5d895f	0.013521521
244	0xbaa4b10a	-0.0012564969
245	0xbc9836b9	-0.018580781
246	0x3c45d38c	0.0120743625
247	0x391f08eb	0.00015166744
248	0x3c2512b3	0.010075259
249	0xbd030eba	-0.031996466
250	0xbc4272d3	-0.011868197
251	0xbc4a905b	-0.012363519
252	0xbd1508aa	-0.036385216
253	0x3c949743	0.018138533
254	0xbc7826c2	-0.015145959
255	0x3b737636	0.0037149317

action_model._continuous_distribution.mu.bias f4 [2]
0	0xbc18f2b2	-0.009335207
1	0xbc01c099	-0.007919454

action_model._discrete_distribution.branches.0.weight f4 [2, 128]
0	0x3b913371	0.004431181
1	0xbbb8e9ba	-0.0056430968
2	0x3cd10ee7	0.025519801
3	0xbbee2a86	-0.007268253
4	0xbc52fa8a	-0.012877116
5	0xbc126fdc	-0.008937802
6	0x3ba3421d	0.0049822466
7	0xbc97ae20	-0.018515646
8	0x3b6d2c43	0.0036189712
9	0x3bdab771	0.0066747
10	0xbc539079	-0.012912863
11	0x3c1727d4	0.009225804
12	0xbc4d369f	-0.01252523
13	0xbd07bec9	-0.03314093
14	0xbad35aed	-0.001612512
15	0xbc2e71bd	-0.0106472345
16	0xbc967b8b	-0.018369457
17	0xbc001b0a	-0.007818947
18	0x3c453df6	0.012038698
19	0xb9b3e4b9	-0.00034311952
20	0x3ba6e008	0.0050926246
21	0xbc5ddb53	-0.0135410605
22	0x3c0cebba	0.0086011235
23	0x3b1e42d9	0.002414873
24	0x3a9c0126	0.0011902198
25	0xbab0e0f1	-0.0013494772
26	0xbb9baf99	-0.0047511575
27	0xbc974b49	-0.018468516
28	0x3be75317	0.0070594656
29	0x3c0ab2c2	0.008465471
30	0xbb194e86	-0.002339275
31	0xbc718768	-0.014741756
32	0x3c869092	0.016426358
33	0xbc0fcf10	-0.008777395
34	0x3c3f7fb7	0.011688164
35	0xbaeccd5a	-0.0018066571
36	0xbb8b571c	-0.0042523276
37	0xbbb90ac1	-0.005647034
38	0x3c32268f	0.010873451
39	0x3b834b97	0.0040068137
40	0xbbcbe948	-0.0062228777
41	0x3c1d3eee	0.009597523
42	0x3c02d196	0.0079845395
43	0x3ba11912	0.0049163187
44	0xbb5959be	-0.0033165063
45	0x3c92e027	0.01792915
46	0xbc2ab656	-0.010419449
47	0xb90c0a2c	-0.0001335523
48	0xbc7844ef	-0.015153154
49	0x3bd714a5	0.0065637403
50	0xbc3c31d9	-0.011486494
51	0xbbd6ba90	-0.0065530017
52	0xba81c074	-0.0009899274
53	0x3bba9126	0.0056935726
54	0xb8f9f673	-0.0001191915
55	0xba3f7e7c	-0.00073049194
56	0x3c7f9b6a	0.015601018
57	0x3b28895f	0.0025716645
58	0x3bfc90e5	0.0077077025
59	0xbb9812a5	-0.0046408945
60	0x3c888e8c	0.016669534
61	0xbb894a89	-0.0041897935
62	0xbb25b324	-0.0025283778
63	0xbc7e7432	-0.015530633
64	0xbbb49c18	-0.005511772
65	0xbc079374	-0.008274902
66	0x3c7f7ad2	0.0155932475
67	0x3a89b260	0.001050543
68	0xbc10a2e4	-0.008827899
69	0x3be3a0e8	0.0069466718
70	0x3b6c527e	0.0036059911
71	0x3ba818a2	0.0051298896
72	0xbc171671	-0.009221659
73	0xbc6e0898	-0.014528416
74	0xbb230064	-0.002487206
75	0x3bf5434b	0.0074848286
76	0xbb378e82	-0.0028008525
77	0xbbbb280d	-0.0057115615
78	0x3c572629	0.013131657
79	0xbb9b98bd	-0.0047484324
80	0xbc95a03f	-0.018264888
81	0xbc143ee3	-0.0090481965
82	0xbc7057af	-0.014669343
83	0xbb942655	-0.004521171
84	0xbbf7f99a	-0.0075675966
85	0xbc6d4866	-0.014482593
86	0x3ae9451b	0.0017797084
87	0x3ba3cd06	0.004998806
88	0xbc28ed3f	-0.01031047
89	0xb9b1a3f8	-0.00033882237
90	0x3c86afdb	0.016441276
91	0x3c39f8f4	0.011350859
92	0x3c5dcb8a	0.013537297
93	0xbb869616	-0.004107247
94	0x3b8dd2ce	0.0043281084
95	0x3b90252c	0.0043989625
96	0xbbffeadc	-0.00780998
97	0xbbb5db42	-0.005549819
98	0xbc477460	-0.012173742
99	0xbc0787f2	-0.008272158
100	0xbb117111	-0.0022192637
101	0x3be154df	0.0068765725
102	0xbb696229	-0.0035611487
103	0xbaec8b64	-0.0018046913
104	0xbc915dbb	-0.01774489
105	0x3c2d5d24	0.0105812885
106	0xbb2df260	-0.0026542172
107	0xbcbbaedc	-0.022910528
108	0x3c737af8	0.014860861
109	0x3ba4e0d1	0.005031683
110	0x3bb7cf67	0.005609441
111	0x3c3b1061	0.011417479
112	0x3c60a114	0.013710279
113	0x3c284dda	0.0102724675
114	0x3ae75f2a	0.0017652262
115	0x3c4dd09a	0.0125619415
116	0x3ba6eb31	0.005093955
117	0x3b81f175	0.0039655515
118	0x3b84d181	0.004053295
119	0xbc3dbe92	-0.01158108
120	0xbb048210	-0.0020219125
121	0x3c6f8932	0.014620112
122	0x3c5ffba4	0.013670836
123	0x39e40694	0.0004349245
124	0xbc302fc3	-0.010753575
125	0x3a0d6a46	0.0005394559
126	0x3b89d885	0.0042067193
127	0x3c006b84	0.007838134
128	0x3c3a0750	0.0113542825
129	0x3b8d2df3	0.004308456
130	0x3c18b72f	0.009321018
131	0x3c310b09	0.010805854
132	0x3c05bf48	0.008163281
133	0x3bf03d28	0.007331509
134	0x3c1af7ea	0.009458521
135	0x3a8ecc00	0.0010894537
136	0x3c4defc7	0.012569374
137	0x3b83af8d	0.00401873
138	0xbc01456c	-0.007890087
139	0xbb3fb0bd	-0.0029249631
140	0xb9694a32	-0.00022248251
141	0x3b288456	0.0025713644
142	0xbc9feda8	-0.019522503
143	0x39121420	0.00013931142
144	0x3b951b39	0.0045503643
145	0xbb8a82ff	-0.0042270417
146	0x3a6896c7	0.0008872565
147	0x3cd17043	0.025566226
148	0xbc6695ce	-0.014073802
149	0xbb95352f	-0.004553459
150	0xbc4d7140	-0.012539208
151	0xba0edfae	-0.0005450201
152	0x3b593048	0.003314035
153	0xbc441928	-0.011968888
154	0x3c442de7	0.011973835
155	0x3b3838c3	0.0028110004
156	0x3b89fc5f	0.004210993
157	0x3c41cffe	0.011829374
158	0x3c1c8a3a	0.00955444
159	0xbbf095d5	-0.00734208
160	0xbc468e07	-0.012118823
161	0x3bc4f1f1	0.006010287
162	0xb9f3caa5	-0.00046499554
163	0xbad73db1	-0.0016421584
164	0x3b848f9f	0.0040454413
165	0xbbfe5be5	-0.0077624195
166	0xbc567ceb	-0.013091306
167	0x3b2339c6	0.0024906262
168	0x3b0c6ace	0.0021425965
169	0x3bbfde5f	0.005855366
170	0xbc29d9ad	-0.010366839
171	0x3bc1364a	0.0058963643
172	0x39f7a646	0.00047235395
173	0x3ad0b667	0.0015923501
174	0xbc022f09	-0.007945784
175	0xbac5e525	-0.0015098198
176	0x3c0d68e9	0.00863097
177	0x3b80772c	0.0039204564
178	0x3c5480e5	0.012970184
179	0x3ba7473d	0.005104928
180	0x3c2a8eba	0.010410005
181	0xbbc71581	-0.0060755615
182	0x3b8de972	0.0043308074
183	0xbc1f2612	-0.0097136665
184	0x3b069308	0.0020534415
185	0x3c75e046	0.015007084
186	0x3b88a3dc	0.004169924
187	0xbc202c5a	-0.009776199
188	0xbc56041a	-0.013062501
189	0x3b7c142b	0.003846417
190	0x3c935f24	0.017989703
191	0x3ba539ad	0.005042276
192	0xbc195d1e	-0.00936058
193	0x3c420358	0.0118416175
194	0xbb24b01e	-0.0025129388
195	0x3bd2c9e0	0.006432757
196	0xbbdcd67b	-0.0067394353
197	0x3973dcc6	0.0002325653
198	0x3c32075f	0.010866015
199	0x3b958b65	0.0045637363
200	0xbc20d368	-0.009816028
201	0x3bcf215e	0.0063211164
202	0xb9c4483f	-0.0003743786
203	0x3c178911	0.009248988
204	0xbb81a819	-0.0039568064
205	0x3bfe7a45	0.0077660405
206	0x3b395e08	0.0028284807
207	0xbb9b2fd2	-0.0047359252
208	0x3c384398	0.011246584
209	0x3b85dfea	0.0040855305
210	0xbc13d497	-0.009022853
211	0x3b17e906	0.0023179664
212	0x3acda9b9	0.001569084
213	0x3a18211c	0.00058032735
214	0xbc143100	-0.009044886
215	0xbb9656f5	-0.004588003
216	0xbc064390	-0.008194819
217	0xbcb6b244	-0.0223018
218	0xbbe8d96b	-0.0071059964
219	0x3c404946	0.01173622
220	0x3c4490af	0.011997386
221	0x3ce0ddd7	0.027449531
222	0x3b149b1f	0.0022675467
223	0xbb6f5f87	-0.0036525445
224	0x3bf2b394	0.0074066613
225	0xbb9fc752	-0.0048760558
226	0x3b9697db	0.0045957393
227	0x3b951ce4	0.004550563
228	0xbbb4904e	-0.0055103665
229	0x38cc07e3	9.728947e-05
230	0x3a994993	0.00116949
231	0x3be565a7	0.0070006433
232	0xbc0a1235	-0.008427192
233	0xbc80937c	-0.015695326
234	0x3b8d2ff3	0.0043086945
235	0xbb3d5be7	-0.002889389
236	0xbb595fdc	-0.003316871
237	0xbc571418	-0.013127349
238	0xbbe9629a	-0.00712235
239	0xbad6c7dd	-0.0016386468
240	0x3b82dde8	0.0039937384
241	0xbc96629e	-0.018357571
242	0x3c02a313	0.00797345
243	0x3affaf1b	0.0019507142
244	0xbc57d599	-0.013173484
245	0xba9fbf22	-0.0012187699
246	0xba2cf930	-0.0006598411
247	0xbc04d325	-0.008106981
248	0x3c26a95d	0.010172215
249	0xbc0defdd	-0.008663145
250	0x3b9e2763	0.0048264726
251	0xbc75f29a	-0.015011454
252	0xbbaa426f	-0.005195908
253	0xbb05e3dd	-0.0020430007
254	0x3c09637e	0.008385537
255	0x3c0f3152	0.008739786

action_model._discrete_distribution.branches.0.bias f4 [2]
0	0xbb24d61b	-0.002515203
1	0x3b24d61b	0.002515203

critic.network_body.linear_encoder.seq_layers.0.weight f4 [128, 9]
0	0x3cb81aaa	0.022473652
1	0xbf35124d	-0.7073105
2	0x3de740b7	0.1129164
3	0x3e2c30b9	0.16815461
4	0x3dea7c76	0.1144952
5	0x3e1a9c03	0.15098576
6	0xbf563fb7	-0.8369097
7	0xbefc97a8	-0.49334455
8	0x3ebeefc9	0.37292317
9	0x3e375f07	0.17907344
10	0x3eda91d8	0.42689395
11	0xbe9e0885	-0.30865875
12	0x3e03aa9b	0.1285805
13	0x3e040684	0.1289311
14	0x3f4d5528	0.80208063
15	0x3e829afa	0.25508863
16	0xbea6da1e	-0.32588285
17	0x3e8a8968	0.27057958
18	0xbea826b5	-0.3284203
19	0x3ea5775e	0.32317632
20	0x3e16a1cb	0.14710157
21	0xbed36fae	-0.41296142
22	0x3edb6ac2	0.42854887
23	0xbe539d95	-0.20665582
24	0x3db07699	0.08616371
25	0x3e93a5e8	0.28837514
26	0x3d410069	0.04711953
27	0x3e165149	0.14679445
28	0xbf0c5381	-0.54814917
29	0xbe60cb01	-0.2195244
30	0xbf0a5aaf	-0.5404462
31	0xbe1c032b	-0.15235583
32	0x3d6fdc06	0.05855944
33	0xbeb8a0a0	-0.36060047
34	0xbd1589da	-0.03650842
35	0x3d4c3d5b	0.0498632
36	0x3f0476a6	0.51743543
37	0x3e009e1f	0.12560318
38	0xbe177ca9	-0.14793648
39	0xbef8c7d3	-0.48589954
40	0xbeee341f	-0.4652414
41	0xbcd7aa35	-0.026326278
42	0x3dbcc43f	0.092171185
43	0x3f21fc95	0.63276035
44	0xbdaa825c	-0.08325645
45	0xbc240098	-0.010009907
46	0xbe1f8d82	-0.15581325
47	0x3e491bc8	0.19639504
48	0xbe59c237	-0.21265493
49	0x3e03ad93	0.12859182
50	0xbef09507	-0.469887
51	0x3e2c5947	0.16830932
52	0x3e476d06	0.19475183
53	0x3ec0cf23	0.37658033
54	0x3f00fc3c	0.5038488
55	0x3cec5e0c	0.028853439
56	0xbf798939	-0.9747501
57	0xbdeb971e	-0.11503433
58	0x3ea17aaf	0.31538913
59	0x3eb4cc63	0.35312185
60	0x3e0298ea	0.12753645
61	0xbf2b5bca	-0.66936934
62	0x3d0e6d74	0.03477235
63	0xbeb591f5	-0.3546292
64	0xbed4966e	-0.4152102
65	0xbe5e59c4	-0.2171393
66	0x3ef5c0f9	0.4799879
67	0x3e0d9284	0.13825423
68	0x3e8c39b4	0.27387774
69	0x3ec6a8d5	0.38800684
70	0xbe66c9af	-0.22537874
71	0xbe66eb83	-0.22550778
72	0xbea1c527	-0.31595728
73	0x3e3eb2d3	0.18622904
74	0x3d22b4a5	0.039723057
75	0xbd1a3e5f	-0.037657138
76	0x3f09842f	0.5371732
77	0x3e3d5c7a	0.18492308
78	0xbee2443b	-0.4419268
79	0xbc81c915	-0.015842954
80	0xbe22934b	-0.158765
81	0x3d4a4e17	0.04939088
82	0x3d9a3c0e	0.07530986
83	0x3d7e0b4c	0.062022492
84	0x3ca0779d	0.019588286
85	0x3ecb3853	0.3969141
86	0xbe298a40	-0.16556644
87	0xbe9c5608	-0.30534387
88	0x3e24f0a5	0.16107424
89	0xbe28c578	-0.16481578
90	0xbe68b90b	-0.22726838
91	0xbe568fd6	-0.20953307
92	0x3e1836d4	0.14864665
93	0xbeffdc49	-0.49972752
94	0x3e2cb7b8	0.16866958
95	0x3e6ebb31	0.23313595
96	0xbecc9528	-0.39957547
97	0x3d9359b0	0.07194841
98	0xbee685a0	-0.45023823
99	0x3f5c3e49	0.8603254
100	0xbcdb71ea	-0.026787717
101	0x3e8fda18	0.2809608
102	0x3df22c30	0.11824834
103	0xbe1b80ba	-0.15185824
104	0xbed6f5e3	-0.41984472
105	0xbcf75ff9	-0.03019713
106	0x3f02ac02	0.51043713
107	0xbf08a757	-0.5338034
108	0x3d2f7164	0.042832747
109	0xbe383973	-0.17990665
110	0xbee8220d	-0.4533848
111	0xbe8d0901	-0.27545932
112	0xbe3cc1d0	-0.18433309
113	0xbf36ea6e	-0.7145146
114	0x3f1f919c	0.6233156
115	0xbc9617a0	-0.018321812
116	0x3edc08f2	0.42975575
117	0x3ef72e1f	0.48277375
118	0x3e3972a7	0.18110143
119	0xbdd63792	-0.10459818
120	0x3cac5e6e	0.021041121
121	0xbe6dd944	-0.23227412
122	0xbecccd7d	-0.40000525
123	0xbe1c6305	-0.15272148
124	0xbeb4ba3a	-0.3529833
125	0xbe1db4c7	-0.15400992
126	0xbdf67954	-0.1203486
127	0x3edf233b	0.43581566
128	0xbe27c128	-0.16382277
129	0xbf007319	-0.50175625
130	0xbec30786	-0.38091677
131	0x3d9f96ac	0.0779241
132	0xbf0eb40f	-0.557435
133	0x3ca5c27a	0.020234335
134	0x3eacc929	0.33747223
135	0x3ea32a02	0.31867987
136	0xbf28d358	-0.65947485
137	0xbe1f0413	-0.15528898
138	0xbc29d532	-0.010365771
139	0xbf013240	-0.504673
140	0x3ec28bb7	0.3799722
141	0xbe1af307	-0.1513177
142	0xbee56577	-0.44803974
143	0xbdd23dc7	-0.10265689
144	0x3d86defe	0.06585501
145	0xbdcb3f8b	-0.09924229
146	0x3eea0af3	0.4571148
147	0xbc4b0da2	-0.012393387
148	0xbe4dc63f	-0.20095156
149	0xbe2676ac	-0.16256207
150	0x3ee569fe	0.44807428
151	0xbd75bbf9	-0.059993718
152	0xbd95c5bb	-0.07313105
153	0x3e9cc616	0.30619878
154	0x3e86b75a	0.2631176
155	0xbe3b077c	-0.18264574
156	0x3e9f2fa3	0.3109103
157	0xbbcedf3a	-0.006313232
158	0x3dbd78e5	0.092515744
159	0x3ed073ae	0.40713257
160	0xbf674fba	-0.9035603
161	0x3e78eb76	0.24308571
162	0xbde2d813	-0.11076369
163	0xbe7233a3	-0.2365251
164	0x3f021948	0.50819826
165	0xbe088f55	-0.13335927
166	0x3e3aa229	0.18225922
167	0x3e851468	0.2599213
168	0xbef31254	-0.4747492
169	0xbca9d2c0	-0.020730376
170	0x3f211f6e	0.6293858
171	0x3e52116d	0.2051446
172	0xbe5c5cb5	-0.2151974
173	0xbeac3010	-0.3363042
174	0x3f1c4ffb	0.6105954
175	0x3e6ec893	0.233187
176	0x3eb43b05	0.35201278
177	0xbdf3e754	-0.11909357
178	0x3f1c724a	0.6111189
179	0xbea12e9c	-0.31480873
180	0x3ea219a4	0.31660187
181	0xbd56ce9e	-0.05244314
182	0xbee10cc3	-0.4395505
183	0xbe250ef0	-0.1611898
184	0xbe9a1b6e	-0.30099052
185	0xbe9a4132	-0.30127865
186	0xbe6d24b5	-0.23158534
187	0xbdf6197a	-0.12016578
188	0xbd2bdbb1	-0.04195756
189	0x3f3fff2e	0.7499875
190	0xbce18f56	-0.027534168
191	0x3d14924b	0.03627233
192	0xbe1fe05a	-0.15612927
193	0x3f1818cc	0.5941284
194	0x3e9518cb	0.29120478
195	0x3e890527	0.26761743
196	0xbe9e9276	-0.30971116
197	0x3dd540c9	0.104127474
198	0x3eaf29fa	0.34211713
199	0x3e949a85	0.2902414
200	0x3eb446a8	0.35210156
201	0xbe6ad205	-0.22931679
202	0xbe3419c2	-0.17587951
203	0xbf3b5c4b	-0.731877
204	0x3de7d127	0.113191895
205	0xbf57c1b8	-0.84279966
206	0x3f082fea	0.5319811
207	0x3ec0f07c	0.37683475
208	0x3e98f840	0.298769
209	0xbf1bb10c	-0.6081703
210	0x3dd86f5b	0.10568114
211	0x3cf5c32b	0.03000029
212	0x3d87cb78	0.066306055
213	0x3e8942f3	0.2680889
214	0xbee13bde	-0.43990988
215	0x3e8e7b86	0.27828616
216	0x3e8fbe7e	0.28075022
217	0x3e615cbc	0.22008032
218	0xbe20322e	-0.15644142
219	0xbc7f3853	-0.015577394
220	0xbec5794e	-0.3856911
221	0x3f2f81a5	0.68557197
222	0x3e073d98	0.1320709
223	0xbcbd22ac	-0.023087822
224	0x3d8c0ed7	0.06838768
225	0xbf736463	-0.9507505
226	0xbeeefb27	-0.4667599
227	0x3d81a3c6	0.063300654
228	0x3e317b90	0.17332292
229	0xbf1e5584	-0.61849236
230	0xbe3e3df2	-0.18578318
231	0xbe247082	-0.16058543
232	0xbdae3daf	-0.08507859
233	0x3f173452	0.5906421
234	0x3cd87d5f	0.02642697
235	0xbd9dc5bf	-0.07703733
236	0x3e0b477d	0.1360149
237	0x3e87d6de	0.26531118
238	0x3ed852ca	0.42250663
239	0xbdf464af	-0.11933266
240	0x3e43d544	0.19124323
241	0x3da18b0c	0.07887849
242	0xbe16f3b0	-0.14741397
243	0xbebff60f	-0.37492415
244	0x3dbde35d	0.09271882
245	0x3e3d8e7e	0.18511388
246	0x3e6dcd76	0.23222908
247	0xbef95c44	-0.48703206
248	0xbe4d391a	-0.20041314
249	0xbd6df4ff	-0.058094975
250	0x3e049c65	0.12950285
251	0x3dc6cbb6	0.097068235
252	0x3ed1da83	0.40987024
253	0x3e385529	0.18001236
254	0x3e19e85c	0.15030044
255	0xbd4180d1	-0.04724199

critic.network_body.linear_encoder.seq_layers.0.bias f4 [128]
0	0x3c2efd66	0.010680532
1	0xbbaadb22	-0.005214111
2	0xbbb6587c	-0.0055647474
3	0x3be02a03	0.0068409457
4	0x3817165a	3.6022022e-05
5	0xbc155d81	-0.009116531
6	0xba66f793	-0.0008810695
7	0xbb4e76a4	-0.003150382
8	0x3c1a9361	0.009434552
9	0x3be9a309	0.007130031
10	0xbc0cdb00	-0.008597136
11	0x3a70997e	0.00091781456
12	0xba686d86	-0.0008866418
13	0x3ac872bb	0.0015292981
14	0x3c1b3664	0.009473417
15	0xbc06c22d	-0.008225006
16	0xbaa68bb7	-0.0012706433
17	0x3bdbdd6a	0.006709744
18	0xbba8324b	-0.0051329485
19	0xbb894210	-0.0041887835
20	0x3bac27d7	0.0052537727
21	0xbbdc7df3	-0.0067288815
22	0x3c42d162	0.011890741
23	0xbab7e0cd	-0.0014028788
24	0x3bbf374d	0.00583545
25	0x3a956c62	0.0011400098
26	0xbb394c97	-0.002827441
27	0xbbbbc51e	-0.0057302853
28	0xbb502c05	-0.003176452
29	0xbaf8cdf0	-0.0018982273
30	0xbb6061c1	-0.0034237953
31	0x3beb1515	0.007174144
32	0xbbeb92dd	-0.0071891383
33	0x3aa386af	0.0012476052
34	0x3ae5e712	0.0017540178
35	0xbc3b6a37	-0.011438898
36	0x3a9c6092	0.0011930636
37	0x3bd8e042	0.0066185305
38	0xba09b53c	-0.0005253141
39	0xbc0a886c	-0.008455377
40	0xbbc2b5a1	-0.005942062
41	0x39f99887	0.00047606623
42	0xbbdddc2c	-0.0067706313
43	0x3c05a125	0.008156096
44	0x3bb0b3df	0.005392536
45	0x3b313e49	0.0027045181
46	0xbc12d64e	-0.008962227
47	0x3c20dcd4	0.0098182745
48	0x3bd01a3b	0.006350783
49	0xbb6a4aec	-0.0035750223
50	0xbc267d0b	-0.0101616485
51	0x3c0dcf5f	0.008655398
52	0x3c3cc2f1	0.011521087
53	0x3b2226f2	0.0024742451
54	0xbb328f1a	-0.002724594
55	0xbbfd5324	-0.0077308584
56	0xbbcdab5a	-0.00627653
57	0xbb95e202	-0.0045740614
58	0xbbb8fc13	-0.005645284
59	0xbbd85c14	-0.0066027734
60	0x3b60b457	0.0034287178
61	0xbc02a0c2	-0.007972898
62	0x3be83099	0.0070858714
63	0x3bccf732	0.006255054
64	0xbc1ce507	-0.009576089
65	0x3b1d37cd	0.0023989559
66	0xbc128907	-0.008943803
67	0x3b89e8b7	0.00420865
68	0xbba6b8e8	-0.0050879605
69	0x3bc6610e	0.0060540503
70	0x3b33190e	0.0027328166
71	0xbbff270a	-0.0077866362
72	0xbc1fe313	-0.009758729
73	0xbb87b757	-0.004141729
74	0x3bf67d87	0.0075222882
75	0x3c09abce	0.008402778
76	0xbc199bac	-0.009375494
77	0x3bee08cf	0.0072642337
78	0x3b881e63	0.004154013
79	0x39ba49ff	0.00035531816
80	0x3a72263f	0.00092372665
81	0x3c2147bd	0.009843764
82	0x3c16f6ab	0.009214084
83	0xbbfc6c2e	-0.0077033257
84	0xbc017682	-0.00790179
85	0xba71d022	-0.00092244346
86	0x3c09450b	0.0083782775
87	0x3b9b0619	0.0047309515
88	0xbb28815d	-0.0025711872
89	0x3bad4828	0.0052881427
90	0x3b9c983b	0.0047788895
91	0x3baa83f8	0.00520372
92	0xbb050123	-0.0020294867
93	0x393d2924	0.0001803977
94	0xbb51ba7d	-0.0032002025
95	0xbb78a5bc	-0.0037940582
96	0x3bc8eb88	0.006131593
97	0x3b3fc2a9	0.0029260314
98	0xbbf9aacc	-0.0076192375
99	0xba6ce275	-0.000903643
100	0xbc02a202	-0.007973196
101	0x3b5928df	0.0033135933
102	0x3ba33c4c	0.004981553
103	0xbc064bd0	-0.008196786
104	0x3b0207dd	0.0019841113
105	0xb931e383	-0.0001696479
106	0x3c12894f	0.00894387
107	0x3bb022d9	0.005375248
108	0xbc104f2a	-0.008807937
109	0x3bda782b	0.006667157
110	0x3a10fc1b	0.00055307307
111	0xbb4d5b1b	-0.003133482
112	0xbbd1b4c8	-0.0063997246
113	0x3b9fd141	0.00487724
114	0xbba0a6fa	-0.0049027177
115	0xbb63364e	-0.003466982
116	0x3c0b120b	0.0084881885
117	0xbbca5cff	-0.006175637
118	0xbbf22c2d	-0.00739052
119	0x3a8df063	0.0010829087
120	0x3b48e865	0.0030656096
121	0xbbd5d267	-0.006525326
122	0xba1f11d5	-0.0006068026
123	0xb8367556	-4.350146e-05
124	0xbad8e81b	-0.0016548665
125	0x3c163027	0.009166754
126	0x3b78e357	0.0037977302
127	0x3ba3588a	0.00498492
