results/ppo/Car Agent/Car Agent-26631.onnx (onnx, 86866 bytes, 9 tensors)

action_model._continuous_distribution.log_sigma f4 [1, 2]
0	0x3aec4836	0.0018026892
1	0x3b9736e3	0.0046146973

action_model._continuous_distribution.mu.bias f4 [2]
0	0x3b0112ad	0.001969497
1	0xbb3df74e	-0.0028986516

action_model._continuous_distribution.mu.weight f4 [2, 128]
0	0xbcf0ec42	-0.029409532
1	0xbc9476cc	-0.018123053
2	0xbc7ae43b	-0.015313203
3	0x3c7c4571	0.0153974155
4	0x3ccb2c8c	0.024801515
5	0xbc050240	-0.008118212
6	0xbbe97154	-0.0071241055
7	0xbc00863c	-0.007844504
8	0x3c0e6fdc	0.008693662
9	0xbc3d7c05	-0.011565213
10	0x3cbc00a7	0.02294953
11	0xbb96d9dc	-0.0046036076
12	0x3bc1a54a	0.0059095966
13	0xbc57bf3a	-0.013168151
14	0x3c08ebb6	0.008356979
15	0xbd121038	-0.03566
16	0x3ccae64f	0.024768023
17	0xbc69f113	-0.014278668
18	0x3d0a1138	0.033707827
19	0x3bc35eb8	0.005962219
20	0xbc84ce2a	-0.016211588
21	0x3bb68d7e	0.0055710664
22	0xba9414c8	-0.0011297697
23	0xbd00f573	-0.03148408
24	0xbbb73827	-0.0055914107
25	0x3cb4aeb7	0.022055967
26	0xbc387e06	-0.011260515
27	0xbc5c1aba	-0.0134341065
28	0xbc2edf9f	-0.010673433
29	0x3c26455f	0.010148375
30	0xbb8a678d	-0.00422377
31	0xbd2c96f3	-0.042136144
32	0xbca491ec	-0.020089112
33	0x3be338f1	0.006934278
34	0xbc37e313	-0.011223572
35	0x3b1f5dbe	0.002431735
36	0x3ba04ec7	0.0048922035
37	0xbcbdef4e	-0.023185398
38	0x3cb524bc	0.022112243
39	0xbc00aa36	-0.007853081
40	0xbc6d88f7	-0.014497987
41	0x3c8537d4	0.016261972
42	0x3c518283	0.012787464
43	0x3c5e4a61	0.013567538
44	0xbc2c149f	-0.010502963
45	0x3b4e8884	0.0031514475
46	0x3c25e86f	0.010126217
47	0xbb1fc243	-0.0024377264
48	0xbc1b9d6a	-0.00949798
49	0x3c5756d0	0.013143256
50	0xbc7c2afd	-0.015391109
51	0xbd1d8442	-0.03845621
52	0xbc1f18f9	-0.009710544
53	0xbcc4e4d9	-0.024034904
54	0x3bdbb094	0.0067043994
55	0x3c15537e	0.009114144
56	0x3b552500	0.0032523274
57	0x3cb9a824	0.022663184
58	0x3b0bbf6d	0.0021323815
59	0xbd01fde5	-0.031736273
60	0xbd14e14a	-0.036347665
61	0x3c62ccd7	0.013842783
62	0xbd159ed0	-0.03652841
63	0x3b33ce78	0.0027436297
64	0xbc4d2b0b	-0.012522469
65	0x3b790288	0.0037995894
66	0xbb75ec0b	-0.0037524726
67	0x3d0285fc	0.03186606
68	0x398ac4bf	0.00026467998
69	0x3cb50370	0.022096366
70	0xbb6a4e39	-0.003575219
71	0x3b633ec5	0.0034674865
72	0xbcb785ec	-0.022402726
73	0xbb3f249d	-0.002916611
74	0x3cee93df	0.029123245
75	0xbac1bac4	-0.0014780392
76	0xbd44103f	-0.047867056
77	0xbc5d2ae2	-0.013498994
78	0xbd2349ba	-0.039865233
79	0xbce0cde8	-0.027441934
80	0x3c533852	0.012891846
81	0x3cda1a50	0.026623875
82	0xbce5a7d1	-0.028034123
83	0xbca7ae35	-0.02046881
84	0xbc11b2c4	-0.008892719
85	0x3d20c3c2	0.03924919
86	0xbc307aa0	-0.010771424
87	0xbb95f1ff	-0.0045759673
88	0xbd043795	-0.03227957
89	0xbd0dee8b	-0.03465132
90	0xbcc19843	-0.023632174
91	0xbc2bc052	-0.010482864
92	0xbc3fbe3e	-0.011703072
93	0xbd407750	-0.046988785
94	0xbc592048	-0.013252325
95	0x3b43d15e	0.0029879431
96	0x3b0ab36b	0.002116407
97	0xbb21d59f	-0.0024693978
98	0x3b99bbe3	0.0046915873
99	0x3c83b418	0.016077086
100	0xbce69db7	-0.028151376
101	0x3bb2f9da	0.0054619135
102	0x3c834add	0.016026909
103	0x3cd17e66	0.025572967
104	0x3c92a9ca	0.017903227
105	0x3c20b42d	0.009808582
106	0x3b366f83	0.0027837462
107	0x3b9dc2a6	0.0048144637
108	0xbc96c826	-0.018405985
109	0x3c7cc152	0.0154269505
110	0x3c0ed59a	0.008717919
111	0xbc00ea44	-0.007868353
112	0x3c4f34e6	0.012646889
113	0x3c3c7c33	0.011504221
114	0x3c894a17	0.016758962
115	0xbc0c00d4	-0.008545119
116	0xbcb1dc1c	-0.021711402
117	0xbaec33ac	-0.001802077
118	0xbc632bd5	-0.013865431
119	0xbd0f2cc3	-0.034954797
120	0xbbd343e5	-0.0064473026
121	0x3ace3a5e	0.0015733948
122	0xbcb18e71	-0.021674367
123	0x3ba08383	0.00489849
124	0x3bc84328	0.0061115213
125	0x3b2579df	0.0025249643
126	0x3c92a10c	0.017899059
127	0x3b190fe6	0.0023355423
128	0x3bdb1d10	0.006686814
129	0xbc19e1a0	-0.009392172
130	0x3b85c4e2	0.004082308
131	0x3c9a748f	0.018854408
132	0x3c8eedec	0.017447434
133	0x3c810ea6	0.015754055
134	0x3c0ebe99	0.008712434
135	0x3d137c69	0.03600732
136	0x3bc10f71	0.0058917333
137	0x3cd0d61e	0.025492724
138	0x3c41ab72	0.011820661
139	0x3cc5c665	0.024142453
140	0xbcb03b64	-0.021512695
141	0xbd584e5d	-0.052809108
142	0x3bb1c00f	0.0054245065
143	0x3d29d69f	0.041464444
144	0xbbf479a5	-0.00746079
145	0xb8def22a	-0.000106308915
146	0x3b1dd6cf	0.0024084335
147	0xbc4d1a27	-0.012518442
148	0xbce1da19	-0.027569817
149	0x3cc1ec0b	0.023672124
150	0x3ac2d8ec	0.0014865673
151	0x3cf6f11f	0.030144272
152	0x3b398eac	0.0028313799
153	0x3c0e6b8f	0.008692636
154	0x3c3342a3	0.01094118
155	0x3c35b374	0.011090148
156	0xbc56d493	-0.013112205
157	0xba9a0497	-0.0011750635
158	0xbb7a7a5e	-0.003821991
159	0x3b35f7d6	0.002776613
160	0xbc18fd6d	-0.009337765
161	0x3c231e3c	0.009955939
162	0xbceac72c	-0.028659426
163	0x3c464715	0.012101908
164	0xbbf43db6	-0.0074536456
165	0xbc2a1bea	-0.010382632
166	0x3ca2633f	0.019822715
167	0xbc5f6030	-0.013633773
168	0x3985025e	0.000253695
169	0xbbdb0382	-0.006683768
170	0x3c1ff9f9	0.009764188
171	0x3c231258	0.009953104
172	0x3b81a065	0.003955888
173	0x3a82757b	0.0009953225
174	0x3c50f41a	0.012753511
175	0xbc45af4d	-0.012065721
176	0x3d00706b	0.03135721
177	0x3bf8d803	0.00759411
178	0xbc087ebb	-0.008330996
179	0x3cbcde48	0.02305521
180	0xbb917eeb	-0.0044401786
181	0x3ae0e48b	0.0017157955
182	0x3c207054	0.009792406
183	0xbd0a11f5	-0.03370853
184	0x3b1719ea	0.0023056217
185	0xbc2e3186	-0.0106319245
186	0x3a0fef3d	0.00054906664
187	0x3c0e1f1d	0.00867441
188	0xbcdbe28c	-0.026841424
189	0xbcacb4cb	-0.021082303
190	0xbcdd251b	-0.026995232
191	0xbcc6552f	-0.02421054
192	0xbca3e65d	-0.020007307
193	0x3b31d760	0.002713643
194	0x3d08f004	0.03343202
195	0xbc424c4c	-0.011859011
196	0x3ca4030d	0.020020986
197	0x3b4d2439	0.0031302108
198	0x3b9e0068	0.004821826
199	0x3b9da781	0.004811228
200	0xbad9b584	-0.0016609882
201	0xba0c4b8e	-0.00053518347
202	0x3c69d65b	0.014272298
203	0xbb808c82	-0.003923
204	0x3d299916	0.04140576
205	0xbc930858	-0.017948315
206	0x3ce7f021	0.028312745
207	0x3a68801f	0.0008869189
208	0x3cf41342	0.02979434
209	0x3d024d0c	0.03181176
210	0x3bafae7f	0.0053613777
211	0xb98bedc4	-0.00026689295
212	0xbcd38a31	-0.02582273
213	0xbcf3f405	-0.029779444
214	0x3cb8e27b	0.022568932
215	0x3d063d92	0.03277356
216	0x3c167b2c	0.00918464
217	0x3c7500b7	0.014953784
218	0xbcb2a423	-0.021806782
219	0x3ca7416b	0.020416936
220	0x3c004ab4	0.007830311
221	0x3d31d328	0.043414265
222	0x3c2118a5	0.009832536
223	0xbad1e8d0	-0.0016014818
224	0x3c52d6e3	0.012868616
225	0x3c6ab85b	0.01432618
226	0xbce782ed	-0.028260672
227	0x3cd2e021	0.025741639
228	0x3bb6738a	0.0055679725
229	0xbc04ac7b	-0.008097763
230	0x3a747ab2	0.00093261444
231	0x3ca41136	0.020027738
232	0x3c88f20e	0.016716983
233	0xbbb4e052	-0.005519905
234	0xbc97b423	-0.018518513
235	0xbc26dc94	-0.010184426
236	0xbcc10b9b	-0.023565104
237	0x3c411a0d	0.011785996
238	0xbc834129	-0.016022282
239	0x3c4ad035	0.012378742
240	0x3cad54e3	0.021158641
241	0xbc44dafd	-0.0120151015
242	0xbc7708b9	-0.015077763
243	0xba95527e	-0.0011392382
244	0x3ba741f0	0.005104296
245	0x3c194053	0.009353715
246	0x3c01837d	0.007904884
247	0x3bb4170a	0.0054959105
248	0xbd10af6d	-0.03532355
249	0xbcb02574	-0.021502234
250	0x3a2bc682	0.00065527123
251	0xbcfdda2b	-0.03098782
252	0x3c13ffb9	0.009033137
253	0x3d363e80	0.0444932
254	0xbc1982a4	-0.009369526
255	0x3c867e1b	0.016417554

action_model._discrete_distribution.branches.0.bias f4 [2]
0	0x3b77eca8	0.0037830267
1	0xbb77eca9	-0.003783027

action_model._discrete_distribution.branches.0.weight f4 [2, 128]
0	0xbc1f1da8	-0.00971166
1	0xbc49736b	-0.012295584
2	0xbc4ae0c3	-0.012382689
3	0x3c18d3b2	0.009327816
4	0xbcaa344f	-0.020776896
5	0x3b504cc3	0.0031784035
6	0xbb1350eb	-0.002247865
7	0xbbc4162f	-0.00598409
8	0x3bc432eb	0.005987515
9	0xbc0d2496	-0.00861468
10	0x3bb6cd86	0.0055786995
11	0x3c73bbe3	0.014876339
12	0x3b8acd59	0.004235905
13	0xbc04288c	-0.008066308
14	0x3a713134	0.0009200752
15	0x3ccc8ae9	0.024968581
16	0xbb3fd8a2	-0.002927341
17	0x3b173eb2	0.002307814
18	0xbc1eedf4	-0.009700287
19	0xbb856216	-0.0040705306
20	0xb92043f7	-0.00015284108
21	0xbc21ce00	-0.009875774
22	0xbc04fa7b	-0.00811636
23	0x3bc0ad79	0.0058800546
24	0x3bfa2105	0.0076333308
25	0xbb90f76d	-0.0044240267
26	0x3ab1cb0c	0.0013564541
27	0xbbe4f072	-0.006986671
28	0xbc88d9e1	-0.016705455
29	0xbc4c5d96	-0.0124734845
30	0xbc3dd7e3	-0.011587116
31	0x3c285b58	0.010275684
32	0xbb8ed6b0	-0.004359089
33	0xba510a67	-0.00079742674
34	0x3c35d6f6	0.011098614
35	0xbba7ea5d	-0.005124374
36	0xbb53f385	-0.0032341194
37	0xbc28e58e	-0.010308636
38	0x3cb3e12e	0.02195796
39	0x3b13b263	0.0022536747
40	0x3b8e61af	0.004345141
41	0xbcd9f5a9	-0.026606398
42	0x3ca8b8f9	0.020596014
43	0xbc301444	-0.010747019
44	0xbc5a24c9	-0.013314434
45	0xbbcaaa65	-0.0061848634
46	0xba86abcc	-0.0010274588
47	0xbc584a8a	-0.013201365
48	0xbc10fae7	-0.008848882
49	0xbbbc26a2	-0.00574191
50	0xba958a46	-0.0011409007
51	0x3b4fce96	0.0031708828
52	0xbbcafe8b	-0.0061948947
53	0xbc390f25	-0.011295115
54	0xbbfbb1e9	-0.0076811207
55	0x39c769fb	0.000380352
56	0xbb850930	-0.004059933
57	0x3a8fc9b3	0.0010970145
58	0x3a775d2b	0.00094361854
59	0x3c1cabf0	0.0095624775
60	0x3b8abe28	0.004234094
61	0x3c89dc90	0.016828805
62	0xbb62a1f7	-0.0034581402
63	0x3a55ea13	0.0008160185
64	0xbb74ff5c	-0.0037383651
65	0x3c2fc0d8	0.01072713
66	0x3ac8f474	0.0015331642
67	0xbc10cbb4	-0.008837629
68	0xbbf31290	-0.0074179843
69	0x3c5676d1	0.0130898515
70	0xbbfda89a	-0.007741046
71	0x3c330893	0.010927337
72	0xbbd084dc	-0.0063634943
73	0xbbf6add4	-0.007528046
74	0x3c29c9f0	0.010363087
75	0x3be3e013	0.006954202
76	0xbc4ca80e	-0.012491239
77	0x3be5347e	0.006994783
78	0xbb1a3bf0	-0.002353426
79	0xbb8deaaa	-0.0043309527
80	0x3bb0f2a0	0.005400017
81	0x3adc02d9	0.0016785517
82	0xbc5bf1f0	-0.013424382
83	0x3c10fcc8	0.00884933
84	0x3b1e23e4	0.002413028
85	0x3b8f574c	0.0043744203
86	0xbc1e9e64	-0.009681318
87	0x3b0b4cc0	0.0021255463
88	0xbc54ff43	-0.013000312
89	0xbb26bb51	-0.002544124
90	0xba8bd79e	-0.0010669117
91	0xbcb1cf06	-0.021705162
92	0x3c066153	0.008201915
93	0xbbc0c52b	-0.0058828793
94	0xbc1b156b	-0.009465556
95	0xbc11f3a5	-0.008908187
96	0xbbdf6234	-0.0068171266
97	0xbc2843d8	-0.010270081
98	0xbcd1ae52	-0.025595818
99	0xbbdb9300	-0.0067008734
100	0x3c4fb88b	0.012678276
101	0xbac3641f	-0.0014907158
102	0x3b8918aa	0.0041838484
103	0x3ab0dda4	0.0013493788
104	0xbb674121	-0.0035286623
105	0xbc0191bc	-0.007908281
106	0x3bdb2f81	0.0066890125
107	0xbc529d4e	-0.012854887
108	0xbb8f027d	-0.0043643103
109	0xbbb52908	-0.005528573
110	0x3ad07d45	0.0015906474
111	0xbc3a2924	-0.011362348
112	0x3c0789a3	0.008272561
113	0xbbe2f74a	-0.006926452
114	0xbc732d6f	-0.014842375
115	0x3c4b8f0b	0.012424241
116	0x3b27bc6f	0.0025594493
117	0xbc03c139	-0.008041673
118	0x3c192744	0.009347741
119	0x3bf81bc7	0.0075716707
120	0x3b78fe4e	0.0037993374
121	0x3b8354f3	0.0040079295
122	0x3b922997	0.0044605243
123	0xbba456ed	-0.005015245
124	0xbbd029e1	-0.0063526486
125	0xbc01b6bf	-0.007917105
126	0x3c1cfb04	0.009581331
127	0x38e229a8	0.00010784279
128	0x3a2b8e0b	0.00065442984
129	0x3c1cdcad	0.009574098
130	0xbb70ad50	-0.0036724396
131	0xbb9de2e1	-0.004818306
132	0x3ca53038	0.020164594
133	0x39b73f8b	0.00034951823
134	0x3ad4e882	0.0016243609
135	0x3b11626d	0.002218391
136	0x3b262b6f	0.0025355478
137	0x3caeee39	0.021353828
138	0xbab50867	-0.0013811708
139	0x3b0f35e9	0.0021852201
140	0x3a15a01c	0.0005707757
141	0x3c69b46c	0.014264207
142	0x3a1c9a99	0.00059739646
143	0x3c602ab6	0.013682058
144	0x3b6b2696	0.0035881153
145	0x3b0b44a1	0.0021250623
146	0xbbdb69e6	-0.0066959737
147	0x3b148523	0.0022662363
148	0xbc806fb3	-0.015678262
149	0x3ab9ae35	0.0014166298
150	0xbb0cba05	-0.002147318
151	0xbc4c4061	-0.012466521
152	0xbbaccd3e	-0.00527349
153	0x3b969a7a	0.0045960518
154	0xbc49639b	-0.012291814
155	0xbc8165ff	-0.015795706
156	0xbbcc6b55	-0.006238381
157	0x3c73fce7	0.01489184
158	0x3bc3e316	0.0059779985
159	0x3c5774c8	0.013150401
160	0xbb0f0f3b	-0.0021829146
161	0x3ba5e66c	0.005062869
162	0x3c2a251e	0.010384826
163	0xba22a6b9	-0.0006204653
164	0x3a411444	0.00073653855
165	0x3b251437	0.002518905
166	0xbc0527ca	-0.008127162
167	0x3ce49e2e	0.027907457
168	0x3c087daf	0.008330747
169	0xbb9c2931	-0.0047656526
170	0xbc2aa276	-0.01041471
171	0x3b9cb239	0.004781988
172	0x3a990d8c	0.0011677011
173	0x39dc8d61	0.00042067005
174	0xbbb5e2c9	-0.0055507165
175	0x3c96ccb1	0.018408151
176	0xbb89791a	-0.0041953446
177	0xbc4674cb	-0.012112807
178	0x3b863aef	0.004096381
179	0x3c306fb5	0.0107688205
180	0x3c1e986a	0.009679893
181	0x3bd6143c	0.006533174
182	0xbbf6d3a6	-0.0075325547
183	0x3c591fb0	0.013252184
184	0x3ce823f7	0.028337462
185	0x3c43a6c7	0.011941618
186	0xbba7ea91	-0.005124398
187	0xbb3e7bde	-0.002906553
188	0xb7ab5be9	-2.0427588e-05
189	0xbc9c3f2a	-0.019073088
190	0x3c54509a	0.01295867
191	0x3ac24599	0.0014821767
192	0x3c26af32	0.010173606
193	0x3b25958d	0.0025266141
194	0xbb061f3a	-0.002046539
195	0xbc2e837c	-0.0106514655
196	0x3bf2865b	0.0074012703
197	0x39429b61	0.00018559165
198	0xbb1fec60	-0.0024402365
199	0x3b983208	0.004644636
200	0xbc3a3762	-0.011365743
201	0x3b523dfc	0.0032080403
202	0x3aff0e7d	0.0019459274
203	0x3ba0f7dd	0.00491236
204	0x3c42c871	0.011888609
205	0x3c74819e	0.014923481
206	0x3c3451a5	0.011005794
207	0x3cacb935	0.021084407
208	0x3b6de508	0.0036299843
209	0xbb54ce73	-0.0032471686
210	0xbb4d3239	-0.0031310453
211	0x3cb45165	0.022011468
212	0xbc914c34	-0.017736532
213	0x3c082eaa	0.008311907
214	0x3bfcf0cc	0.007719135
215	0x3bb13cc5	0.0054088556
216	0x3a4cad65	0.000780782
217	0x3b1993c7	0.002343403
218	0x3c5999b8	0.013281278
219	0x3b58c0ff	0.003307402
220	0x3ae47fa0	0.0017433055
221	0xbc076a55	-0.008265098
222	0xbb5320aa	-0.0032215514
223	0xbc0b0a6e	-0.008486373
224	0xbabbb451	-0.0014320706
225	0x3a90769d	0.0011021678
226	0xbb4b794b	-0.0031047638
227	0x3af071c0	0.0018344447
228	0xbbaaa3d6	-0.005207519
229	0xbc424e6a	-0.011859516
230	0xbc0d4378	-0.008622043
231	0x3c82a34c	0.015947007
232	0x3bd7f087	0.0065899524
233	0xbb9d48df	-0.0047999467
234	0x3c31c9d5	0.010851343
235	0xbb8175a7	-0.003950793
236	0xbabb0f33	-0.0014271497
237	0xbc38af6b	-0.011272292
238	0xbb99e9d6	-0.004697065
239	0x3bd18933	0.0063945292
240	0xbbb15090	-0.005411215
241	0x3c8aa826	0.016925883
242	0x3c29dbbf	0.010367333
243	0x39b5925e	0.00034632062
244	0x3bcc5b47	0.006236467
245	0x3ae12d31	0.0017179606
246	0x3c3f7912	0.01168658
247	0x3c0fb013	0.008770007
248	0x3afbaa28	0.0019200491
249	0xbc6316d3	-0.013860422
250	0x3c92aa54	0.017903484
251	0xbaf0048e	-0.0018311904
252	0xbb188fff	-0.0023279188
253	0xbb4b47bf	-0.0031018106
254	0xbc54e4a8	-0.012993969
255	0x3b0558af	0.002034705

network_body.linear_encoder.seq_layers.0.bias f4 [128]
0	0xbb1de707	-0.0024094002
1	0xba912234	-0.0011072815
2	0x38bc3eee	8.97626e-05
3	0x3b11dd1c	0.0022257036
4	0xbba11fba	-0.004917112
5	0xbb715d6c	-0.0036829365
6	0xbb4ad974	-0.0030952366
7	0xba8c9d41	-0.0010728018
8	0xb9e9ba2c	-0.00044579932
9	0xbb1f5f1f	-0.0024318171
10	0xba183a6f	-0.0005807047
11	0x3aa7b453	0.001279483
12	0xbba2eca8	-0.0049720593
13	0x3afe5c96	0.0019406255
14	0xbb28cbb8	-0.0025756191
15	0x3af1aa59	0.0018437608
16	0xba9ad840	-0.0011813715
17	0xbb8d2f35	-0.004308606
18	0xbacbb623	-0.0015541952
19	0x3a396ee7	0.00070737157
20	0x3a2e4b8d	0.0006648831
21	0x3afe8e9c	0.0019421163
22	0x3aec668e	0.0018035935
23	0xbbb2fdd1	-0.005462386
24	0xbb28dab7	-0.002576513
25	0xbb82bfcb	-0.0039901487
26	0x3b266868	0.002539182
27	0x3b1c92b7	0.002389116
28	0xbba652f9	-0.005075809
29	0x3b556f8b	0.0032567705
30	0xbb1fccf8	-0.0024383646
31	0x389c6d5a	7.459028e-05
32	0x3a8e89c7	0.0010874801
33	0xbacf3838	-0.0015809601
34	0xb984c438	-0.00025323196
35	0x3a140fae	0.00056480884
36	0x3af9ffb9	0.0019073404
37	0xba9a361b	-0.0011765392
38	0x387dc145	6.0499897e-05
39	0x3b2447a9	0.0025067127
40	0xbb6f7e27	-0.0036543699
41	0x38b12b45	8.448077e-05
42	0x3a8f2b20	0.0010922886
43	0xbba6590e	-0.005076534
44	0x3b0d70cf	0.0021582132
45	0xba69b1d5	-0.00089147437
46	0x39ae4987	0.00033242648
47	0xbb0e427d	-0.002170711
48	0xbb696887	-0.0035615282
49	0x3ac24741	0.0014822261
50	0xba950dad	-0.0011371874
51	0xbb704760	-0.0036663637
52	0xbb597549	-0.003318148
53	0x3b5c68fc	0.0033631912
54	0xbb5d763f	-0.0033792404
55	0x39211b9a	0.00015364439
56	0xbaecf46f	-0.0018078218
57	0xbae7ef86	-0.0017695285
58	0xbb753c38	-0.0037419926
59	0xbb29e684	-0.0025924752
60	0xbb4668c6	-0.0030274852
61	0xbb3e7219	-0.0029059707
62	0x3acfb9e3	0.0015848245
63	0xbb8d6109	-0.004314546
64	0xbb6c30e5	-0.0036039886
65	0x3a1aa383	0.0005898999
66	0x3b1f4e28	0.002430806
67	0xbb1f98dc	-0.0024352586
68	0x3ad9df45	0.0016622326
69	0xbb967a20	-0.004592195
70	0x3b9cadfe	0.0047814837
71	0xbafee8f0	-0.0019448083
72	0xbb8c0a89	-0.004273717
73	0x3afc64e6	0.0019256144
74	0xbafaf497	-0.001914638
75	0x38d1e4d9	0.00010008523
76	0xbabe2581	-0.0014507027
77	0xbb167f09	-0.0022963902
78	0x3afd7b8c	0.0019339188
79	0x3b24f24a	0.002516883
80	0x3b0e7edf	0.0021743102
81	0x38d1b2e3	9.999217e-05
82	0xbb2d4fd7	-0.0026445293
83	0xba9edbf4	-0.0012119994
84	0x3afd8737	0.0019342665
85	0xb638f65d	-2.756154e-06
86	0x39bf1091	0.00036442702
87	0x3ac5c3c1	0.0015088246
88	0x3b60d9e8	0.003430957
89	0xbb788b2b	-0.0037924747
90	0xbb119813	-0.0022215887
91	0x3b0f2118	0.0021839794
92	0x3b1ca4e0	0.0023901984
93	0x3b6dda70	0.003629353
94	0xbb65b837	-0.0035052428
95	0xbb80ca54	-0.0039303694
96	0xba64d5d0	-0.00087293703
97	0x3a59e5e7	0.0008312151
98	0xbba0ff0e	-0.0049132174
99	0xb7d657d3	-2.5551684e-05
100	0x39dd4458	0.00042203325
101	0x3921db88	0.00015435938
102	0xbb54c4f3	-0.0032466024
103	0xba953c49	-0.0011385764
104	0x3ab90ae4	0.0014117626
105	0x3b68dd3a	0.0035532252
106	0xb95084e2	-0.00019885928
107	0x3a99c1b3	0.00117307
108	0xb9864eba	-0.00025617128
109	0xbb334f39	-0.0027360453
110	0xbb079860	-0.0020690188
111	0x3a10bffc	0.0005521772
112	0x3a6f2316	0.00091223547
113	0x3a83c9bd	0.001005463
114	0xbbfaca7b	-0.007653532
115	0xba47a66f	-0.0007616048
116	0xba37a5c3	-0.00070055964
117	0x3b4ab943	0.0030933178
118	0xba75a617	-0.00093707576
119	0xbb5b787c	-0.0033488562
120	0xbaa5587a	-0.0012614869
121	0xbb8a41bb	-0.0042192615
122	0x3aaaad62	0.0013021643
123	0x3baafc9d	0.005218102
124	0x3b92b452	0.0044770623
125	0xbac60b8c	-0.0015109642
126	0x3bb5c4d3	0.005547145
127	0xbb78bd71	-0.0037954713

network_body.linear_encoder.seq_layers.0.weight f4 [128, 30]
0	0x3df661a9	0.12030346
1	0x3e6df9e1	0.23239852
2	0x3e571e46	0.21007642
3	0xbd527f77	-0.05139109
4	0x3e098007	0.13427745
5	0xbd3ce969	-0.046121035
6	0x3de1be1e	0.1102259
7	0xbe5cddca	-0.21568981
8	0xbcbbe466	-0.022936057
9	0x3d5a803d	0.053344954
10	0xbddd75cf	-0.10813486
11	0xbe64db89	-0.22349371
12	0xbd2e29f4	-0.04252048
13	0x3ca43e10	0.020049125
14	0xbe886cd5	-0.26645532
15	0x3d487940	0.048943758
16	0x3d8a8cdb	0.06765147
17	0x3d953a46	0.072865054
18	0x3e8566d1	0.26055005
19	0x3e539ab0	0.20664477
20	0xbde15d41	-0.11004115
21	0x3e4abed3	0.19799356
22	0xbc9ff4d4	-0.019525923
23	0x3ea487a0	0.32134724
24	0xbe8e0f92	-0.27746254
25	0xb9c1c7d2	-0.00036960706
26	0x3e017f4b	0.12646215
27	0xbe432903	-0.19058613
28	0xbe7ec7cf	-0.24880908
29	0xbd2013ac	-0.03908126
30	0xbd6d814e	-0.057984643
31	0x3dc1e267	0.09467011
32	0x3e8361a4	0.2566043
33	0x3e76c00f	0.24096702
34	0xbdf66959	-0.12031812
35	0xba8e97ba	-0.0010878958
36	0xbc44457e	-0.011979459
37	0xbeb4cb21	-0.35311225
38	0xbdbb9f50	-0.09161246
39	0x3e750669	0.23928227
40	0x3d1f6734	0.03891678
41	0x3eaeaf43	0.3411809
42	0xbdf5c5b3	-0.12000599
43	0xbd75b806	-0.05998995
44	0x3c617d9e	0.01376286
45	0x3dc22f3a	0.09481664
46	0xbd455cf3	-0.048184346
47	0xbe970152	-0.29493195
48	0xbd1a6e4e	-0.03770285
49	0xbdaaf70b	-0.08347901
50	0x3e4eac6d	0.20182963
51	0x3ea1e2f4	0.31618464
52	0xbc83ff4d	-0.016112948
53	0x3e3c01ba	0.18360034
54	0x3e5b4d64	0.21416241
55	0x3d8f4ee6	0.069974706
56	0xbd598d7d	-0.05311345
57	0x3dc35795	0.09538189
58	0x3e60d1f3	0.2195509
59	0x3cd19184	0.025582083
60	0xbda72c44	-0.0816274
61	0xbdad0577	-0.08448308
62	0x3da2eca8	0.07955295
63	0xbe4b3b6b	-0.19846885
64	0x3df85afd	0.1212673
65	0x3df56320	0.11981797
66	0x3c5c92ba	0.013462717
67	0xbebda269	-0.37037972
68	0xbe21e5c1	-0.158103
69	0x3ea1422e	0.31495804
70	0x3e9b39a7	0.30317423
71	0x3d64cb80	0.055858135
72	0xbec4ae3b	-0.38414177
73	0x3dbc53f8	0.09195703
74	0xbe9485e0	-0.2900839
75	0x3bd0f859	0.0063772616
76	0xbe93004b	-0.2871116
77	0x3e85ce6c	0.2613405
78	0xbd53fbd2	-0.051753826
79	0xbd9fc1a5	-0.07800607
80	0x3b6e2ae3	0.003634148
81	0x3e51fddc	0.20506996
82	0x3eb9f18a	0.36317092
83	0x3c897198	0.016777799
84	0x3e33c698	0.17556226
85	0x3ebf11a8	0.37318158
86	0xbeacca7c	-0.33748233
87	0xbeccf437	-0.4003007
88	0x3b04aa90	0.0020243265
89	0xbe0b6810	-0.13613915
90	0x3ebaf858	0.36517596
91	0xbdfbe04b	-0.1229864
92	0x3ca15694	0.019694604
93	0xbea81f39	-0.3283632
94	0xbe39457f	-0.18092917
95	0xbe329aa0	-0.17441797
96	0xbdb8649d	-0.090035655
97	0x3ec0206c	0.37524736
98	0x3e3203c5	0.1738425
99	0x3d993f48	0.07482773
100	0xbeb95074	-0.36194193
101	0xbd31cbb0	-0.043407142
102	0x3e6b2aa8	0.22965491
103	0x3cc58620	0.024111807
104	0xbf06704d	-0.5251511
105	0x3d3c3b1f	0.04595482
106	0x3e15ff58	0.14648187
107	0xbd636562	-0.055516608
108	0x3c100f3c	0.008792695
109	0xbdd6bf99	-0.10485763
110	0xbd3126a3	-0.043249737
111	0xbe341178	-0.17584789
112	0x3e1509f4	0.14554578
113	0xbe41c54c	-0.18922919
114	0xbe016938	-0.12637794
115	0x3e6009cf	0.21878742
116	0x3d57e666	0.05270996
117	0x3d607d8c	0.05480723
118	0xbba0ca0b	-0.004906898
119	0xbda12632	-0.07868613
120	0x3c3bdbea	0.011466006
121	0x3dc77bd4	0.09740415
122	0xbe3bbf39	-0.18334664
123	0x3de96c97	0.11397665
124	0xbda9a106	-0.08282666
125	0x3da0217a	0.07818885
126	0xbc29ca10	-0.010363117
127	0xbd8a792c	-0.06761393
128	0xbe57ddc0	-0.21080685
129	0x3e5de920	0.21670961
130	0xbe31f3f3	-0.17378215
131	0x3db76ca1	0.08956266
132	0x3e73fc17	0.23826633
133	0xbe8cdd45	-0.27512565
134	0xbde2dace	-0.1107689
135	0xbc8ed25e	-0.017434295
136	0xbee11dba	-0.43967992
137	0x3e3776c9	0.17916407
138	0x3d481f58	0.048858017
139	0x3d9bcd7f	0.07607555
140	0x3e063825	0.13107355
141	0xbe3489bf	-0.17630671
142	0x3e90ca02	0.2827912
143	0x3dfc38fe	0.12315558
144	0x3dc64d86	0.09682755
145	0x3ea43015	0.32067934
146	0xbd66bd27	-0.056332733
147	0x3e5d75f3	0.21627025
148	0xbd8fb8e8	-0.0701769
149	0x3e9b84bf	0.30374715
150	0x3d847ea7	0.064694695
151	0x3dda0952	0.10646309
152	0xbee8882d	-0.45416394
153	0x3ea63dd1	0.32469037
154	0x3e949aee	0.29024452
155	0xbdb2b097	-0.08725088
156	0x3d92cf99	0.07168502
157	0xbe129cc3	-0.14317612
158	0xbe258f74	-0.16168004
159	0xbe2da462	-0.16957238
160	0x3e1e217d	0.15442462
161	0x3e38b08d	0.18036099
162	0x3e760938	0.24026954
163	0x3e3da5d6	0.18520293
164	0xbcaef2f6	-0.021356087
165	0x3e88dea8	0.26732373
166	0x3e9b1daf	0.30296084
167	0x3dd6aab0	0.10481775
168	0x3e2eeff3	0.17083721
169	0x3daa4762	0.083143964
170	0xbe4faff6	-0.20281968
171	0x3dab9e78	0.08379835
172	0xbdf76c04	-0.12081149
173	0x3e889e71	0.2668338
174	0xbdbcd331	-0.09219969
175	0xbce63999	-0.028103637
176	0x3d04e920	0.032448888
177	0x3e2d3e15	0.16918214
178	0x3d87a8e8	0.06624013
179	0xbddbd087	-0.10733133
180	0x3d9a2623	0.07526805
181	0x3d8f25ea	0.069896534
182	0x3d55fee2	0.05224503
183	0x3d4b1ab6	0.04958602
184	0xbd824fa2	-0.06362845
185	0x3dcc615f	0.099795096
186	0x3e42cc23	0.19023184
187	0x3dcba192	0.099429265
188	0xbe51f554	-0.20503742
189	0x3d019236	0.03163358
190	0xbd43f57d	-0.047841538
191	0xbb5d0276	-0.003372339
192	0xbe808c91	-0.25107244
193	0xbc56a555	-0.013100942
194	0xbe41b978	-0.18918407
195	0xbdd8c031	-0.105835326
196	0xbdaad4f4	-0.08341399
197	0x3de366b3	0.11103573
198	0xbbc0440c	-0.005867487
199	0x3e885866	0.26629943
200	0x3dc0ed03	0.094202064
201	0xbeb5a40d	-0.35476723
202	0x3d6d172e	0.057883434
203	0x3dedd9c9	0.11613805
204	0x3dbb7f30	0.091551185
205	0xbe0fa0d0	-0.14026189
206	0xbda241b8	-0.07922691
207	0x3e1dc803	0.1540833
208	0xbe72d66c	-0.23714608
209	0xbe6b4472	-0.22975329
210	0x3e53efae	0.206969
211	0x3e4c65ad	0.19960661
212	0x3eb8db78	0.3610494
213	0xbdde6f40	-0.10861063
214	0xbe3e027d	-0.18555637
215	0x3e8e72a2	0.27821833
216	0x3dc1a5b8	0.094554365
217	0x3ca1920f	0.019722966
218	0xbd34cb79	-0.04413936
219	0xbe36193f	-0.17783068
220	0x3e4830d3	0.19549875
221	0x3e388718	0.18020284
222	0x3d49002e	0.049072437
223	0x3ea0f06c	0.31433427
224	0x3e9619cc	0.29316556
225	0x3dd8d29f	0.10587048
226	0x3eb2ce07	0.3492281
227	0x3dbd7bf9	0.092521615
228	0x3e2b7d14	0.16746932
229	0xbe39145e	-0.18074176
230	0x3cb14f89	0.02164437
231	0xbd5ac3d3	-0.05340941
232	0x3e178abe	0.1479902
233	0x3d8cb4c1	0.068704136
234	0x3ec92bfb	0.39291367
235	0x3d828edf	0.06374907
236	0x3e17417a	0.14771071
237	0x3c910060	0.017700374
238	0x3e317261	0.17328788
239	0x3be6d951	0.007044949
240	0xbde778a1	-0.11302305
241	0x3e3c4c3f	0.1838846
242	0xbe0edb15	-0.1395076
243	0x3e86d4d7	0.2633426
244	0x3df8e7d8	0.12153596
245	0xbcc03f2e	-0.023467626
246	0x3cf009ea	0.029301602
247	0x3e8d2139	0.2756441
248	0xbe4a9012	-0.19781521
249	0xbe9cc475	-0.30618635
250	0x3e33f8f4	0.17575437
251	0x3c327084	0.010891084
252	0x3de4fdd8	0.11181229
253	0xbdc1d929	-0.09465248
254	0xbdd7c9c5	-0.10536531
255	0xbe9f6b3f	-0.3113651

network_body.linear_encoder.seq_layers.2.bias f4 [128]
0	0x3b68a7c2	0.0035500382
1	0x3b630477	0.0034640112
2	0xba582857	-0.0008245757
3	0xbae198d0	-0.0017211679
4	0x3b0cc46b	0.002147938
5	0xbb876777	-0.004132207
6	0xbb762ba1	-0.0037562626
7	0xbb9625a4	-0.004582124
8	0xba9e3120	-0.0012069084
9	0xbac7492e	-0.0015204304
10	0x3829ecdb	4.051333e-05
11	0x3a2cf3b2	0.0006597593
12	0x3aea414c	0.0017872243
13	0x3ab1689d	0.0013535206
14	0xb9d56f72	-0.0004070956
15	0xbb5b69c6	-0.0033479794
16	0x3b25a85c	0.0025277352
17	0xbb6bf61b	-0.0036004845
18	0x3a7abc89	0.0009564837
19	0x3b045c55	0.0020196636
20	0x3b1696a1	0.0022977965
21	0x3a745ac6	0.00093213876
22	0xbbaa4bba	-0.0051970156
23	0xbb20f3a0	-0.0024559274
24	0x3819585e	3.656034e-05
25	0xbadd8c11	-0.0016902705
26	0xbb02c525	-0.0019953933
27	0xbb37d77c	-0.0028052023
28	0x3aa6a881	0.0012715013
29	0x3ab6590f	0.001391204
30	0x38a336d5	7.782659e-05
31	0x39d0c73d	0.00039821296
32	0x3ab87dc4	0.0014075567
33	0x3a0ebc48	0.0005444926
34	0x3bac721c	0.0052626263
35	0x3a1f92b4	0.0006087229
36	0x3b2b896a	0.0026174434
37	0xba6b8433	-0.0008984238
38	0x3aebbc27	0.0017985151
39	0x3858f690	5.1728042e-05
40	0xbb305634	-0.002690685
41	0x395d198f	0.00021085724
42	0x3b617977	0.0034404674
43	0x3a9ee3cd	0.0012122333
44	0xbb8bf6d6	-0.0042713685
45	0x3a2aed0e	0.0006520309
46	0xb98dec53	-0.0002706969
47	0x3bbdb6df	0.005789622
48	0xbadb7fdd	-0.001674648
49	0x3a87ec20	0.0010370053
50	0x3b19cb90	0.002346728
51	0x3afa3b83	0.0019091222
52	0x3bc389cd	0.005967355
53	0xbb3d4119	-0.0028877913
54	0x3b0adacf	0.002118755
55	0x3b848c06	0.0040450124
56	0x3bbe10bc	0.0058003347
57	0x3b2194ee	0.002465542
58	0x3b5c2433	0.0033590912
59	0x3ab4baa4	0.0013788533
60	0x39a42da0	0.0003131451
61	0x3bd88245	0.006607326
62	0xbacb4133	-0.0015507102
63	0x3b6c7c34	0.0036084773
64	0x393fdf57	0.0001829838
65	0xba85368e	-0.0010163353
66	0xbb2dc683	-0.0026516027
67	0xbb13b42f	-0.0022537818
68	0xbb05040d	-0.0020296604
69	0x3b19d840	0.0023474842
70	0xbbda3542	-0.006659181
71	0x3a6ebd72	0.0009107209
72	0xba58d7ab	-0.0008271883
73	0xbb5108c2	-0.003189609
74	0x3affefa6	0.0019526377
75	0xbaff5c0d	-0.0019482389
76	0xbb697fc4	-0.0035629133
77	0x3b135d05	0.0022485864
78	0xbb71e1cb	-0.0036908265
79	0x3b7157da	0.0036826045
80	0xbaf91f2d	-0.0019006483
81	0x3a49af7c	0.0007693691
82	0xb9cfd11a	-0.0003963791
83	0x3b387a2c	0.0028148992
84	0x3b24329a	0.0025054575
85	0x3b4354b1	0.0029805119
86	0xbb09566f	-0.002095606
87	0xb8e26203	-0.00010794776
88	0x380b6131	3.32307e-05
89	0xbb52070e	-0.0032047662
90	0x3ba24b3c	0.0049528163
91	0x3b6d7853	0.003623505
92	0xbb4086ad	-0.0029377148
93	0xbadbf3f4	-0.0016781078
94	0xbb7f4fb9	-0.003895743
95	0x3b118a62	0.0022207727
96	0xbb1661a9	-0.0022946394
97	0xb895701b	-7.125755e-05
98	0xbb17defa	-0.0023173676
99	0xbb109a15	-0.0022064496
100	0xbaaad573	-0.0013033584
101	0x3b4d720b	0.0031348492
102	0x3b2a7ac8	0.0026013125
103	0xba4d5844	-0.0007833282
104	0xba535b84	-0.0008062648
105	0x3b2a35ad	0.0025971935
106	0x3ab1bb89	0.0013559918
107	0x3a61c56c	0.0008612487
108	0x39abc4cb	0.00032762284
109	0xbb76e123	-0.0037670813
110	0x389c44a0	7.451442e-05
111	0xbbbe0399	-0.0057987687
112	0x3a0ad52a	0.0005296046
113	0x3a356a7b	0.0006920469
114	0x3a8e16d8	0.0010840548
115	0x3a0a0d5a	0.0005266272
116	0xbb5fd481	-0.0034153762
117	0xbb95acb0	-0.004567705
118	0x3a916db7	0.001109532
119	0xba6a2be0	-0.00089329295
120	0x3b29d84f	0.0025916283
121	0x3b0ec3f2	0.0021784273
122	0xbacd2dc3	-0.0015653897
123	0x3ab8c8db	0.0014097946
124	0xbaf0a2bc	-0.0018359045
125	0xbb61e7fa	-0.0034470544
126	0x3b65807d	0.0035019212
127	0xbbac6f25	-0.005262273

network_body.linear_encoder.seq_layers.2.weight f4 [128, 128]
0	0xbe0e9481	-0.13923837
1	0x3d1d478b	0.038398307
2	0xbd3b5b5d	-0.045741428
3	0x3db4187e	0.08793734
4	0xbdecbfdc	-0.11560032
5	0x3d707c0c	0.05871205
6	0x3d92965e	0.071575865
7	0x3c735406	0.014851576
8	0x3cbe9064	0.02326221
9	0x3d8d5bad	0.069022514
10	0xbc84c227	-0.01620586
11	0xbd7c2dd8	-0.061567158
12	0xbd93683a	-0.07197614
13	0x3e270cd2	0.16313484
14	0xbdc42f0d	-0.09579287
15	0xbcd533e6	-0.026025724
16	0xbdefb340	-0.11704111
17	0xbccaebe2	-0.02477068
18	0x3de9b3d4	0.114112526
19	0xbd70f0ec	-0.05882351
20	0xbd8f2155	-0.069887795
21	0xbdf8aa8f	-0.121419065
22	0x3d82ef18	0.0639326
23	0xbd3d6675	-0.04624029
24	0x3d133ca9	0.035946522
25	0xbdcfc556	-0.10145061
26	0xbd8932b5	-0.06699125
27	0xba8724db	-0.0010310666
28	0xb8e7ef83	-0.00011059551
29	0xbc5d205d	-0.013496486
30	0x3c825465	0.015909383
31	0xbd5be353	-0.05368359
32	0x3ae775f0	0.001765905
33	0xbcfe63d2	-0.031053457
34	0x3c44dbc6	0.012015289
35	0xbc3c7e60	-0.0115047395
36	0xbe1d0627	-0.15334378
37	0x3d5932f1	0.053027097
38	0x3d0eabcb	0.034831803
39	0x3bd40a9f	0.0064709927
40	0x3e232987	0.1593381
41	0xbe19c91c	-0.15018123
42	0x3ca31d9b	0.019911578
43	0xbdbf3d09	-0.093378134
44	0x3dc51ac0	0.09624243
45	0xbb115f92	-0.0022182208
46	0xbdd59e53	-0.104305886
47	0x3d8f342f	0.06992375
48	0xbc309087	-0.0107766455
49	0x3d134e82	0.035963543
50	0x3da5b930	0.08091962
51	0xbcae0572	-0.02124283
52	0xbd717c72	-0.05895657
53	0x3d6fc738	0.0585396
54	0xbd983b85	-0.074332274
55	0x3c8880c8	0.01666297
56	0xbdfa9e90	-0.12237275
57	0xbc359718	-0.011083387
58	0xbe0e9121	-0.1392255
59	0xbd2c74fd	-0.042103756
60	0xbd903f36	-0.070433065
61	0xbddd369b	-0.10801431
62	0x3da45ad6	0.08025138
63	0xbda3ed64	-0.08004263
64	0x3dbecd34	0.09316483
65	0x3e1eb3be	0.15498254
66	0x3c9d8494	0.019228257
67	0xbcae7e49	-0.021300452
68	0x3dbf2a98	0.09334296
69	0x3d8e4a92	0.06947817
70	0x3e065d8e	0.13121626
71	0x3d9ab7e4	0.075546056
72	0x3e486215	0.19568665
73	0x3db363b8	0.08759254
74	0x3cb44ce1	0.022009315
75	0x3c956ffc	0.018241875
76	0xbdeac1a5	-0.11462716
77	0x3d568166	0.052369498
78	0xbdfa341c	-0.1221697
79	0x3bc80d2c	0.006105086
80	0xbd20347d	-0.039112557
81	0xbdd0586c	-0.10173115
82	0xbdf4f0f2	-0.11960019
83	0x3c8e1072	0.017341826
84	0xbd29775b	-0.041373592
85	0x3e0d576f	0.13802885
86	0xbd0feb88	-0.03513673
87	0xbd093f88	-0.033507854
88	0xbe0162a2	-0.12635282
89	0x3dccd076	0.10000698
90	0x3d810172	0.06299104
91	0xbde0dff6	-0.10980217
92	0xbde78a18	-0.11305636
93	0xbd0f06ee	-0.034918718
94	0x3e3468ca	0.17618099
95	0xbb0cc812	-0.0021481556
96	0xbd1e195a	-0.038598396
97	0x3cf41393	0.02979449
98	0xbd1b8531	-0.037968818
99	0xbdbc1b1e	-0.0918486
100	0xbdf9bccd	-0.12194214
101	0xbc93ce01	-0.018042566
102	0xbc30caaa	-0.010790506
103	0x3d0fbe53	0.035093617
104	0xbd953e81	-0.07287312
105	0xbcd1866d	-0.025576795
106	0x3cefac9a	0.029257108
107	0x3ca7b0f2	0.020470116
108	0x3e4d6d02	0.20061114
109	0xbe2f2d3a	-0.17107096
110	0x3deb6f26	0.11495809
111	0xbd84aa53	-0.06477799
112	0x3d17ff3e	0.037108652
113	0x3dea8e23	0.11452892
114	0xbd84dbb0	-0.064872146
115	0xbdfaa5fc	-0.1223869
116	0x3cc74247	0.024323596
117	0x3dd4f3bf	0.103980534
118	0xbd66b815	-0.056327898
119	0xbe22b2a4	-0.15888458
120	0x3dfb75b6	0.12278311
121	0xbe6459f1	-0.22299935
122	0xbc3aa192	-0.01139106
123	0x3cb8d565	0.022562692
124	0x3d08b20d	0.033372927
125	0xbe007f69	-0.12548603
126	0xbd92e5e1	-0.07172752
127	0x3b0c57d0	0.0021414645
128	0x3b099320	0.0020992234
129	0x3defe068	0.11712724
130	0x3dce9c8b	0.10088452
131	0xbd915ee5	-0.07098178
132	0x3d5fb0b8	0.05461189
133	0x3c91f847	0.017818583
134	0xbe232bb9	-0.15934648
135	0x3d1d6ee2	0.038435824
136	0x3e0e8a5c	0.13919967
137	0xbd0d4a0a	-0.034494437
138	0xbe0d9fc0	-0.13830471
139	0x3dd77756	0.105208084
140	0x3dcfe6f1	0.101514705
141	0xbd7df648	-0.06200245
142	0x3cc11e8d	0.023574138
143	0x3d7c16fd	0.06154536
144	0x3db82e6e	0.08993231
145	0x3cc06fbd	0.023490781
146	0x3de46a74	0.11153117
147	0xbe11128f	-0.14167236
148	0xbdf95a9f	-0.12175488
149	0x3d9adff2	0.075622454
150	0xbb1b4826	-0.0023694127
151	0x3ce5da60	0.02805823
152	0xbe2232e5	-0.15839727
153	0x3d727c0e	0.05920034
154	0x3d84c57b	0.06482979
155	0x3b84277b	0.0040330268
156	0xbd572410	-0.052524626
157	0x3dba35bf	0.090922825
158	0x3c9f66de	0.01945823
159	0xbdeea503	-0.11652567
160	0xbe03d81b	-0.12875406
161	0x3d97e94b	0.07417544
162	0xbe006bd7	-0.12541138
163	0xbccaa973	-0.024739003
164	0x3d63bbb1	0.05559892
165	0x3d13632b	0.035983246
166	0x3ccbb3bf	0.024865983
167	0xba3387ce	-0.00068485446
168	0xbce62fb8	-0.028098926
169	0xbd84c76a	-0.06483348
170	0xbbc45e61	-0.005992696
171	0x3caa8328	0.020814493
172	0xbd1cb337	-0.03825685
173	0xbdcc0797	-0.09962385
174	0xbd94fbe3	-0.07274606
175	0x3d94363e	0.072369084
176	0x3db24254	0.08704057
177	0xbd2dad2d	-0.04240148
178	0x3d90702e	0.070526466
179	0x3dd0a8e4	0.10188463
180	0xbce13b98	-0.027494237
181	0x3de9a68a	0.11408718
182	0xbc3233b1	-0.010876582
183	0x3d818bcc	0.06325492
184	0x3cc669f0	0.024220437
185	0xbdfeb696	-0.12437169
186	0xbd77b4c2	-0.06047512
187	0x3de4c168	0.11169702
188	0xbd9ea288	-0.07745844
189	0xbd564f8d	-0.05232196
190	0x3d046047	0.03231838
191	0xbea4e4a7	-0.32205698
192	0x3d8213a9	0.06351406
193	0x3b19e50a	0.0023482465
194	0x3d08bcca	0.03338317
195	0x3aa3b551	0.001248995
196	0x3d5a3735	0.053275306
197	0xbd5da565	-0.05411281
198	0xbcb715d5	-0.022349278
199	0x3cd280e0	0.025696218
200	0x3a6a851d	0.0008946227
201	0x3dd0bddc	0.10192463
202	0x3d044349	0.03229073
203	0xbdaeae57	-0.085293464
204	0x3d900599	0.07032318
205	0xbd283ea1	-0.041075353
206	0xbe213d4a	-0.15746036
207	0xbd5b39bb	-0.053521853
208	0xbd20a906	-0.039223693
209	0xbd7529c8	-0.0598543
210	0xbe05250d	-0.13002415
211	0xbcbff939	-0.023434268
212	0xbb2d814c	-0.0026474772
213	0x3e58874c	0.21145362
214	0x3d4ac7a0	0.049506783
215	0x3d909fc4	0.07061723
216	0xbcde4ee9	-0.027137237
217	0xbd229513	-0.03969295
218	0xbda73765	-0.081648625
219	0xbd8dac20	-0.06917596
220	0x3e5c49dc	0.2151255
221	0xbdbd6168	-0.092470944
222	0xbd95b675	-0.073101915
223	0x3b5383b5	0.0032274548
224	0x3de72352	0.11286034
225	0xbe02c316	-0.12769732
226	0xbdb447bf	-0.08802747
227	0x3d28e927	0.041237976
228	0x3dc67848	0.096909106
229	0x3dabd345	0.08389906
230	0xbdaf4353	-0.08557763
231	0x3d9f43e5	0.07776622
232	0xbd6785b0	-0.05652398
233	0x3d53fc72	0.051754422
234	0xbc088b62	-0.008334013
235	0xbd00d47d	-0.031452645
236	0x3cda1790	0.026622564
237	0x3d8ba9b5	0.068194784
238	0x3c98f53e	0.018671628
239	0x3b080136	0.0020752675
240	0x3df30e0c	0.118679136
241	0x3da444ae	0.08020912
242	0xbcdcb5fb	-0.026942244
243	0xbdf8c1c8	-0.12146336
244	0x3dd9e655	0.106396355
245	0x3cd27b4a	0.025693554
246	0x3d1e2cab	0.038616817
247	0x3da2191c	0.079149455
248	0xbdf43830	-0.119247794
249	0xbe01267f	-0.12612341
250	0x3d3769cf	0.04477864
251	0xbd419d45	-0.047269125
252	0x3d7feb93	0.06248052
253	0xbcbcdac9	-0.023053544
254	0xbe63e6ef	-0.22256063
255	0xbc3cbc46	-0.011519497
