results/ppo/Car Agent/Car Agent-83151.onnx (onnx, 76114 bytes, 9 tensors)

action_model._continuous_distribution.log_sigma f4 [1, 2]
000000 27 71 eb 3c 6d d2 a1 3c
       0.028740479 0.01975366

action_model._continuous_distribution.mu.bias f4 [2]
000000 19 6a bf b9 a8 44 cf bb
       -0.00036509408 -0.006325323

action_model._continuous_distribution.mu.weight f4 [2, 128]
000000 a0 dd 83 ba a8 a5 bc 3c bb 96 05 3c a0 78 97 b9
       -0.0010060556 0.02302821 0.008153613 -0.00028890837
000010 d7 06 38 bd 26 0a ed b8 73 48 b3 3c 3c c3 5b b9
       -0.044928398 -0.00011302931 0.021885132 -0.00020958198
000020 e6 05 31 ba f5 cc 71 bc a0 83 20 3d bf c7 08 3c
       -0.0006752893 -0.014758338 0.039188027 0.008348404
000030 f0 81 23 bd f3 f5 c4 bc ce e3 8b 3c d2 be fa ba
       -0.03991884 -0.024043059 0.0170764 -0.0019130355
000040 76 f9 a5 bb 57 64 53 3a d2 37 eb bc 0b c3 07 3d
       -0.0050651385 0.0008063963 -0.02871314 0.03314499
000050 a5 d9 26 3b a8 1d 90 3c 44 b6 1a bb 73 84 ad 3a
       0.0025459316 0.017592266 -0.0023607174 0.0013238325
000060 96 8a 40 3c 7a 79 95 bc aa 78 09 3c 04 19 e4 3a
       0.011751791 -0.018246401 0.008390585 0.0017402475
000070 75 2b 83 3c 51 6a 9b bc 58 79 47 bc 61 b2 03 3b
       0.016011933 -0.018971594 -0.012174927 0.0020095336
000080 1b 09 d3 ba 25 22 0d 3c 38 04 b1 bb ef 35 b7 3c
       -0.0016100736 0.008614098 -0.0054021142 0.022364585
000090 5e 24 a6 3c ef 7a 48 bc 21 df 87 3c f5 31 8d 3c
       0.020281013 -0.012236341 0.016585888 0.017235735
0000a0 98 1c 5a bc fb 34 6c 3c 3f 5b a1 bc 3a 89 6d 39
       -0.013312481 0.014416928 -0.01969683 0.00022653202
0000b0 20 42 22 bc 6f b0 1a 3c 06 48 ae bb 91 4d a4 3b
       -0.009903461 0.009441479 -0.0053186445 0.0050141294
0000c0 42 c8 1e bc 8d 77 fa 3b eb a4 fe bc bf 8b b5 bc
       -0.0096913 0.007643646 -0.031084498 -0.022161363
0000d0 cd 64 05 bd 12 b6 a0 3b 79 a2 01 bd 3c 7f 2e 3b
       -0.032566834 0.004904517 -0.031649087 0.002662613
0000e0 38 4b 22 3c b4 7e 00 bd 01 69 0c 3c 09 c1 a7 bc
       0.009905629 -0.031370834 0.008569957 -0.020477789
0000f0 74 e0 e8 3c 1a b1 41 ba d0 5f 84 3c 42 be ac bc
       0.02842734 -0.0007388756 0.016158968 -0.021086816
000100 20 78 1d bb 3d a6 a5 3b d9 5d eb bb 7f eb 67 bc
       -0.00240279 0.0050552175 -0.0071828184 -0.014155268
000110 65 2f 74 3c 8e d0 6c 3c 5d dd 76 bc 63 af 81 3c
       0.014903878 0.01445402 -0.015067426 0.015830701
000120 1a 55 0c 3d 31 bb cd bc a1 53 72 3c b5 00 aa 3c
       0.034260847 -0.025113674 0.0147904465 0.02075229
000130 cc 14 da 3c 18 30 85 3b 42 cd cb bc b5 b5 8e bc
       0.026621245 0.004064571 -0.024878148 -0.017420629
000140 db ac 81 3b ef dc 62 3b 7b 57 0c 3c bc df 97 3c
       0.0039573736 0.003461655 0.008565779 0.018539302
000150 20 fa 11 bc c4 04 14 3d fe 6b 15 3c 76 d1 9e bc
       -0.008909732 0.036137357 0.009119986 -0.019386988
000160 09 c4 e0 bb 93 2e 1f 3d 00 2b 1b 3d 33 4e e9 ba
       -0.0068593067 0.038862776 0.037882805 -0.0017799794
000170 ed 4f 89 3c a1 46 53 bc 7e 6e bd b8 1a 96 02 ba
       0.016761744 -0.012895257 -9.032803e-05 -0.00049814733
000180 cb 80 a6 bc 90 81 c5 3b cd 5c c7 bc 5e 72 96 3c
       -0.020325085 0.006027408 -0.024336243 0.018365081
000190 bb 1d ac bc 21 c9 a5 bc 03 5b 4c 3c 58 04 fb 3b
       -0.02101027 -0.020237507 0.012472871 0.00766043
0001a0 14 0e dd bb 10 ee 0e 3b 90 7c 10 ba bd 16 be 3b
       -0.006746063 0.0021809377 -0.00055117253 0.0058010505
0001b0 40 0c 30 3d 6a f3 4c 3c ac 69 34 3c 34 34 c6 bc
       0.042980433 0.012509206 0.011011522 -0.024194814
0001c0 21 8f 9a 3c 11 f0 42 3c bd c4 b4 3c 69 20 8d 3c
       0.018867077 0.011898057 0.022066468 0.017227368
0001d0 04 08 13 3c fa ef 08 bc 18 d8 89 bc b6 9f a5 ba
       0.008974079 -0.008357996 -0.016826674 -0.0012636099
0001e0 ba d2 c1 3b ac a8 0c 3c 01 2e 63 3b eb f3 f3 ba
       0.005915013 0.008585136 0.0034664872 -0.0018612122
0001f0 c3 de f0 3b b7 c6 49 bc 49 4c 50 bc a4 91 67 3c
       0.007350774 -0.012315444 -0.0127135 0.0141338445
000200 da 0d 84 bc 1a 3e 7b 3c 09 ad 27 3b d2 68 bb 3b
       -0.016119886 0.01533463 0.0025585315 0.0057192827
000210 3e 39 06 bd c3 91 99 bc 18 06 c6 bb 4c 8f d1 3c
       -0.032769434 -0.018746262 -0.006043207 0.025581025
000220 33 74 37 bc 3f a5 0c bd bc d4 e6 bc 66 51 bd 3c
       -0.011197138 -0.03433728 -0.028177612 0.023110103
000230 5e a9 94 3a f0 ef e0 bb b0 0f 08 bc 8b fd a3 bc
       0.0011341979 -0.0068645403 -0.008304521 -0.02001836
000240 7d ec d0 3c e8 fd 2b bc b7 d2 80 bb cd 1c 53 3c
       0.025503391 -0.010497548 -0.003931369 0.012885285
000250 63 c8 63 3c dc 9f fb 3c 97 d3 1b 3c d4 cc 0a 3c
       0.013902756 0.030715875 0.009510896 0.008471686
000260 c5 de b1 bc 43 0f ba ba 13 59 6c bb b6 82 b0 bc
       -0.02171267 -0.0014195222 -0.0036063835 -0.021546703
000270 cc 5d a8 3b 4b d4 58 bb 38 a5 a2 bc 57 3c ab 3a
       0.0051381346 -0.003308552 -0.019854173 0.0013064247
000280 03 45 3f bc 0a ea 10 bb 92 48 2d 3c 4c 92 e1 bb
       -0.0116741685 -0.0022112154 0.010576384 -0.006883895
000290 c5 74 e7 bb ef 0a 01 bc d9 73 59 3b c6 86 2e 3d
       -0.0070634806 -0.007876142 0.0033180623 0.042609
0002a0 cb a9 37 3b 1c eb 30 3b 3d 40 9b 3c 2c af a8 bc
       0.0028024788 0.0026995605 0.01895153 -0.020591341
0002b0 d9 41 23 3c 8e 04 64 ba 6f 9c ad bc b6 e5 03 bc
       0.00996443 -0.00086981885 -0.021192757 -0.008050373
0002c0 e8 f3 71 3c 61 4d c0 bb 32 6f 51 3c 2e 73 07 bd
       0.014767624 -0.0058685993 0.012782859 -0.03306883
0002d0 09 1e 2b 3c 16 f5 08 bc 67 e6 84 39 b5 92 23 3b
       0.010444173 -0.008359214 0.00025348665 0.002495927
0002e0 b7 e1 08 bd dd 7c 73 bc c4 0b 79 ba 13 d1 f8 3c
       -0.033418383 -0.014861313 -0.00095003494 0.030373132
0002f0 72 b6 fe 3c d1 90 74 bb fa f3 f4 b9 fc af 1b 3d
       0.031092856 -0.0037317763 -0.00046721083 0.03800963
000300 78 cf 98 3c b7 cd 98 bc 96 d1 05 3c fe 77 81 3c
       0.018653616 -0.01865278 0.008167645 0.015804287
000310 38 56 ea bc 3a aa 99 3b de 20 f9 bb 1f 30 2e bc
       -0.028605565 0.004689482 -0.007602795 -0.01063159
000320 9d 4a 53 3c 29 79 da 3c f9 c8 38 bc e3 6c 21 3d
       0.012896207 0.026669102 -0.011278384 0.039410483
000330 57 51 a9 3c 6f 65 ba bc 35 63 78 3c 43 1b 1b bc
       0.020668669 -0.022753445 0.015160372 -0.009466949
000340 07 cb 47 bc ce af 18 3b bb cf 7b bc 33 21 af 3b
       -0.012194402 0.0023298147 -0.015369351 0.005344534
000350 f1 c9 05 bd 1c e4 96 3c 9f c8 a8 bc ff ec cb bc
       -0.03266329 0.018419318 -0.020603476 -0.024893282
000360 f0 70 9c 3b ad f0 20 3c 84 34 9f bb 98 12 0e 3b
       0.0047742054 0.009823007 -0.0048585553 0.0021678563
000370 81 91 3b bd 31 df 4d 3b 55 64 d9 bc 4c 00 94 3c
       -0.04579306 0.003141355 -0.0265371 0.018066548
000380 34 4e 11 3d 80 de 60 3c 3e 52 f1 bb e8 44 b6 bc
       0.03547497 0.013724923 -0.0073645404 -0.022249654
000390 64 83 90 bc 29 00 00 3c 96 f7 40 bb 58 c4 14 3c
       -0.017640777 0.007812538 -0.0029444448 0.009080015
0003a0 8f 20 3d 3c eb 48 60 3b 13 8d 53 3b e1 cf 63 bc
       0.011543407 0.003422315 0.0032280132 -0.013904543
0003b0 c7 eb d5 3c fe 6f 23 bc 9e 5f 50 3d 69 bb 91 bc
       0.026113404 -0.0099754315 0.050872438 -0.01778956
0003c0 fa 44 06 bc 21 5e ef bc d2 9a 80 3b cc 36 35 bc
       -0.008195156 -0.029219689 0.003924706 -0.011060428
0003d0 88 41 2c bb 0c 61 91 3c d0 4a 21 3d a0 01 45 bc
       -0.0026284177 0.01774647 0.039377987 -0.012024313
0003e0 62 7c ed bb eb 57 04 3c e7 b9 a1 bc 11 39 0d 3c
       -0.0072474936 0.008077602 -0.019741965 0.008619563
0003f0 b9 af 55 3c ab 26 da 3a 8f 8e 60 bc 44 f6 1c bd
       0.013042384 0.0016643604 -0.013705864 -0.038320795

action_model._discrete_distribution.branches.0.bias f4 [2]
000000 28 2a 1d ba 4e 2a 1d 3a
       -0.00059953565 0.00059953786

action_model._discrete_distribution.branches.0.weight f4 [2, 128]
000000 bc 2e ee 3a 2a f5 5f 3c fc c2 a6 bb 83 5f 88 bb
       0.0018171887 0.0136692915 -0.005089162 -0.0041617765
000010 06 be 07 bc c0 f8 4c bc d3 79 b2 3c 7e 05 e5 bb
       -0.008285051 -0.0125104785 0.021786606 -0.00698918
000020 71 eb 3e bb 3a 75 5b bb 56 87 a1 3b c9 a8 a9 bb
       -0.0029132033 -0.003348662 0.0049294634 -0.0051775915
000030 ab 34 b4 bb b3 3c 77 bc 74 b2 3f bc c5 61 fb 3b
       -0.0054994426 -0.015090155 -0.011700261 0.007671567
000040 06 fe 02 3a a6 d9 19 3b f1 dd 01 3c 1e 2b 29 3c
       0.0004996959 0.0023475676 0.00792645 0.010325221
000050 08 c6 bc 3b 38 78 17 3c 2c 87 87 3b fe 8e 18 3b
       0.005760912 0.009244971 0.004135987 0.002327859
000060 bb 20 d1 bb 95 ec 9b 3c 81 7e c8 ba c9 98 8d 3b
       -0.0063820756 0.01903371 -0.001529649 0.004321192
000070 38 34 b8 ba 47 28 04 bb 92 96 0a bc be 38 99 3c
       -0.0014053648 -0.0020165609 -0.00845875 0.018703815
000080 f8 83 43 3b 31 a3 9c 3b 63 1c 34 3c d1 0d 0a bc
       0.0029833298 0.004780196 0.010993096 -0.008426146
000090 ab 86 a2 3c 55 50 a9 3b 4f 59 23 3c 82 91 21 3c
       0.019839605 0.005167047 0.009970023 0.009861352
0000a0 53 2f cd 3b 89 56 16 bc b9 bb 41 3c 95 89 2f 3b
       0.006261745 -0.009175905 0.011824542 0.0026784886
0000b0 3e 19 ce 3b 09 da 63 bc a7 1f 07 ba c2 e7 52 3a
       0.00628963 -0.013906964 -0.0005154558 0.0008045399
0000c0 4c 8f 80 3c 6c bf 42 bc 78 5e fb 3b 21 08 b5 ba
       0.01569333 -0.011886459 0.0076711737 -0.0013811627
0000d0 b4 04 1d 3b fb 1b 2e 3c 3e 7b 89 bc 57 87 f1 3b
       0.0023959102 0.010626788 -0.0167824 0.00737087
0000e0 1c a3 09 bc e0 c4 8f bb ec ba cc ba c5 af 86 3b
       -0.008400705 -0.004387483 -0.0015619672 0.004110309
0000f0 f2 a6 a1 3a 7a f3 00 bc 78 c4 e9 ba 95 b6 37 3c
       0.0012333079 -0.007870549 -0.0017835042 0.011212965
000100 8a 6c 9c b9 aa a5 1d 3c 29 17 83 3c a0 49 66 3c
       -0.00029835507 0.009622017 0.016002255 0.0140556395
000110 b7 df 02 3c 0c 5d a2 3b da 4c db bb 99 52 4a 3b
       0.007987908 0.0049549397 -0.006692511 0.0030871986
000120 ad a8 23 3c 92 08 e5 bb cc 21 98 bb 6e e5 d0 bb
       0.009988946 -0.006989547 -0.004642701 -0.0063750064
000130 dc ad da 3b 95 43 37 bc 8a b3 ee 3b b7 a9 4b bc
       0.0066735577 -0.011185546 0.0072845863 -0.0124306
000140 82 c2 3f bb f6 0b 00 ba 8f 7c 33 bb 0f 03 eb ba
       -0.0029260223 -0.0004884595 -0.0027387475 -0.0017929989
000150 49 f3 15 3c f9 63 66 3a 49 2e 3f 3b 13 07 cd bb
       0.009152242 0.0008788701 0.0029171875 -0.006256947
000160 ea 1d 78 bb f0 c4 82 bb 76 1f 40 3c 54 75 13 bb
       -0.0037859627 -0.003990762 0.011726251 -0.0022500353
000170 13 74 be 3a b3 67 84 3c 4f 9d 66 bc 2f 6a 6b 3b
       0.0014530442 0.016162729 -0.014075591 0.0035921445
000180 7c bd 69 3c ff fc 26 bc f7 23 f9 bb 5b 0d 09 3c
       0.014266368 -0.010192155 -0.0076031643 0.008365001
000190 ab 88 7d 3b 05 36 01 bc fe 48 0d bc 14 6c 0d bc
       0.0038686197 -0.007886414 -0.00862336 -0.008631725
0001a0 a4 ec 37 bc aa b1 a0 3c c2 80 8b bb d8 b4 da bb
       -0.011225853 0.019615967 -0.0042572925 -0.0066743903
0001b0 69 06 18 3c 56 33 0d 3c f3 9f 80 bc ae 41 5b bc
       0.009278872 0.0086181965 -0.01570127 -0.0133823585
0001c0 34 e0 0d 3b 24 9a db 3b a9 d4 e9 bb df 5c 4d bc
       0.0021648528 0.0067017246 -0.007135947 -0.012534349
0001d0 a7 61 82 bb a5 9d 5b 3c 8a f5 a4 bb 18 1f 52 3c
       -0.003978926 0.013404285 -0.0050341533 0.012824796
0001e0 26 dd 07 3c e5 47 67 bc 77 b3 8b ba e9 f4 60 3c
       0.008292472 -0.014116262 -0.0010658343 0.013730266
0001f0 0d c6 77 bc 70 03 7f bb ca ad 8c bb 47 71 f0 bb
       -0.015122903 -0.003891196 -0.004293178 -0.0073377225
000200 62 a0 86 3a cf ae 7c bc 14 ae 6d bb a6 58 55 bc
       0.0010271186 -0.015422537 -0.0036267089 -0.013021624
000210 71 11 68 bb b3 9e 0a bc 33 02 13 3c 20 bb f9 3b
       -0.0035410787 -0.008460688 0.008972692 0.007621184
000220 bf 75 21 3c a3 99 3d 3b 34 f3 06 bc 66 fd e2 3b
       0.009854733 0.0028930686 -0.008236695 0.00692718
000230 88 41 db 3a 41 73 37 3a ce 5f ae 3b 66 19 ea 3b
       0.0016727904 0.000699807 0.0053214794 0.007144141
000240 54 03 ac 3c d0 39 d4 3b 65 16 27 3c 09 85 c6 bb
       0.02099768 0.0064766183 0.01019821 -0.0060583395
000250 3b 7e d5 3a a6 5a 09 bc 89 ac 9c 3a eb 0d 2c bb
       0.001628823 -0.008383429 0.0011953275 -0.0026253413
000260 02 f8 00 3c d3 52 8a bb 6d 9b 95 3b 4d 23 a3 bc
       0.00787163 -0.004221299 0.0045656473 -0.019914294
000270 98 90 0a 3b fb df 3d 3a 1e c8 fb 3a 5f 45 00 bb
       0.0021143313 0.00072431535 0.001920942 -0.0019572598
000280 f8 fa 2b ba a2 4d 9b 3c 69 71 db 3b ae ce 3f 3c
       -0.00065605296 0.018957917 0.006696869 0.011706991
000290 3a f1 10 bc 3e 63 02 3c 19 c9 dc bb 70 8a df bb
       -0.008846575 0.0079582315 -0.00673784 -0.006821923
0002a0 4f 7e 14 bc 1e 34 ce 3b f8 67 24 bc 68 19 61 3c
       -0.009063317 0.006292834 -0.010034554 0.0137389675
0002b0 37 2e 8c 3b 92 a5 90 3c eb 3f 75 3c ba 08 32 3c
       0.00427797 0.017657075 0.0149688525 0.010866338
0002c0 90 c6 8b 3c ea c9 5e 3c c4 06 ef b9 13 58 c7 bb
       0.017062455 0.013597945 -0.00045590673 -0.0060834973
0002d0 52 85 bf bc 7a 2b 56 bc fb ea 0a bc c8 a2 07 bc
       -0.023379002 -0.013071889 -0.008478875 -0.008278556
0002e0 ec aa bf 3b 9e 70 8f bb a0 b5 b3 bb fa 22 0b 3a
       0.005849233 -0.0043774387 -0.005484298 0.0005307641
0002f0 e6 b4 7e bc 2c 2b 86 ba 2d 81 34 3c c7 1f 35 bc
       -0.015546059 -0.0010236255 0.011017126 -0.01105494
000300 98 0e ab 3a 07 28 d2 3a a7 bb 0b 3c a6 44 25 bc
       0.0013050614 0.0016033658 0.0085286265 -0.010087168
000310 8c b4 99 bb 8b df 85 bc 98 85 98 3c 28 c4 1d 3c
       -0.0046907123 -0.016341945 0.01861839 0.009629287
000320 b1 4a aa ba 47 79 38 3c 83 f2 81 bc 3e 02 93 3c
       -0.001299223 0.0112593835 -0.015862709 0.017945405
000330 9e 4f b2 bb e7 6f ac bc 71 3e 8b bb a2 4f 36 3c
       -0.00544162 -0.021049453 -0.004249387 0.011127384
000340 08 40 a5 bb 03 f9 22 bc d9 ce ba 3b 1b c0 c2 3b
       -0.0050430335 -0.009947064 0.0057009277 0.005943311
000350 c2 4e 98 bc 57 b9 a5 bb a1 d9 8d 3b c8 89 86 3b
       -0.018592242 -0.0050574946 0.004328922 0.0041057803
000360 bf ca dc 3b 36 fd da 3b 80 f9 c8 3b 8e 2d fe bb
       0.0067380364 0.006683017 0.0061332583 -0.0077568954
000370 56 09 01 3a 2d 75 df 3b 40 ac a2 3b 5e 7a 8c bb
       0.00049223506 0.0068193884 0.0049643815 -0.0042870482
000380 8b d1 05 bc 19 a9 5d ba 4b a0 90 3b c1 07 fa 3b
       -0.008167635 -0.00084556785 0.0044136397 0.007630319
000390 31 57 05 bc 5a 23 b8 3b f6 08 82 bc 23 6c 9d bb
       -0.008138464 0.0056194486 -0.015873414 -0.0048041507
0003a0 c8 3a 15 3c 17 a6 4a bc 7e 2b 9d 3c f3 1c d8 3b
       0.009108253 -0.0123687005 0.019185778 0.006595248
0003b0 b0 f7 ee bb a4 22 ca 3b f0 6c 22 bb 11 8a 6f bc
       -0.0072927102 0.0061686803 -0.002478417 -0.01462032
0003c0 eb 84 ae bb 42 97 f8 ba 71 37 f3 b9 a4 f0 9e bb
       -0.0053259037 -0.0018965977 -0.0004638988 -0.004850464
0003d0 b6 c5 a5 ba 7f c9 96 bb a0 b6 eb ba 01 97 8d bc
       -0.0012647423 -0.004601657 -0.0017983504 -0.017283918
0003e0 34 db 2f bb 46 ef ce 3b 5d d1 a4 3b 7b be 77 3a
       -0.0026833536 0.0063151447 0.005029841 0.0009450686
0003f0 29 e8 64 3c 54 a7 67 3b 66 5a 6e bb 06 75 83 3c
       0.013971367 0.0035347538 -0.00363698 0.016047012

network_body.linear_encoder.seq_layers.0.bias f4 [128]
000000 9c bc 19 bb e5 43 64 3b 28 b5 32 bc 3a 9d 99 bb
       -0.0023458367 0.0034830507 -0.010907449 -0.0046879323
000010 a0 bd 14 ba 8b dd 02 bc b2 01 a2 3b 75 f0 05 3b
       -0.0005674008 -0.00798739 0.0049440498 0.0020437513
000020 9b ba 5f 3b 90 25 bc 3b d9 81 01 3c f9 d4 ef 3b
       0.0034138325 0.0057417825 0.007904493 0.0073190895
000030 0e 41 0f 3b cd 35 00 3c b7 42 de bb 64 91 e0 bb
       0.0021858844 0.007825327 -0.0067828554 -0.0068532694
000040 4b 2e 66 39 e9 a0 1d 3c 4c 25 54 3a f0 fa 61 bc
       0.00021951755 0.0096208835 0.0008092716 -0.013792738
000050 c0 40 8f 3b 53 d1 cb bb cd 7d 5c 37 08 61 41 bc
       0.0043717325 -0.0062200218 1.3142312e-05 -0.011802919
000060 c8 e8 92 3a 98 be 4d bc c1 79 d2 bb ac 1a 80 3b
       0.001120829 -0.012557648 -0.0064232056 0.0039094295
000070 cb f2 1c bb 22 75 a4 bb b7 51 3a 3b 34 75 1b bb
       -0.0023948427 -0.005018846 0.0028430053 -0.0023720982
000080 8b a9 59 bb 6e 6c a4 3a 3f 9e eb 3b 8f 72 be bb
       -0.0033212628 0.0012544522 0.0071904953 -0.0058119963
000090 9c 5c d4 b9 3f a6 07 bc 81 3a d8 ba ea 7f 24 3b
       -0.0004050479 -0.008279382 -0.0016496928 0.0025100657
0000a0 00 1b bd 3a ce b4 cb bb c8 d9 b1 bb 0b 3e e2 bb
       0.0014427602 -0.006216622 -0.005427573 -0.0069043688
0000b0 20 58 2d 3b c8 c7 5e 3a 88 7e 54 bb e4 35 01 bb
       0.0026450232 0.00084983977 -0.0032424051 -0.001971596
0000c0 cd 7d c7 bb e4 87 57 38 83 2a 88 3b 33 7f b1 3b
       -0.0060879947 5.1386553e-05 0.0041554584 0.0054167747
0000d0 82 4d c6 bb dd 2b ca bb ba 30 51 3a 23 d7 57 bb
       -0.00605172 -0.0061697797 0.0007979978 -0.0032934628
0000e0 50 7a 73 3a b8 43 cd bb 20 be ae bb a6 c1 74 ba
       0.00092879403 -0.006264176 -0.0053327233 -0.0009336717
0000f0 c8 b4 95 bb 31 1a 7c bb 7f e2 06 3c 41 40 aa bb
       -0.00456867 -0.003846776 0.008232712 -0.005195648
000100 6d 69 ca bb e4 83 e6 bb 4b 89 a3 ba a6 33 41 3b
       -0.0061771185 -0.0070347656 -0.001247683 0.0029480248
000110 04 11 60 bb 3b c7 9a 3c 1d a6 13 3c e6 20 5a bb
       -0.003418983 0.018893829 0.009011772 -0.003328377
000120 f5 81 ac 3b e3 89 bb b9 8d c5 a6 3b 38 79 95 bb
       0.0052645155 -0.00035770153 0.005089468 -0.0045615695
000130 07 e4 a8 ba e2 ba 9f ba 98 57 5b ba b9 f8 ea bb
       -0.001288534 -0.0012186433 -0.00083672395 -0.0071707633
000140 28 6f 61 bb c2 1c be 3b 8b e5 52 bb 1e a7 b8 ba
       -0.003439853 0.005801768 -0.0032180275 -0.0014087891
000150 41 8c c9 bb 94 59 2d 3a 32 40 df bb 2d dd cf ba
       -0.006150753 0.00066127745 -0.0068130726 -0.0015858762
000160 c9 07 38 bc d1 3b 7b 3a cb db 8c 3c 51 ba b4 b8
       -0.011232325 0.00095838035 0.01719465 -8.617773e-05
000170 a0 7b 20 3b ae ea 24 3b 78 b3 8a 3b f4 21 0e 3c
       0.0024487749 0.0025164294 0.00423282 0.008675087
000180 ce b1 27 ba a7 b6 3e bb a5 c1 89 3b cd 27 9d bb
       -0.00063970394 -0.0029100568 0.0042039924 -0.0047960044
000190 d7 ba f0 bb 7b 98 27 bb ed aa 96 3b e5 ca 9c bb
       -0.007346492 -0.0025573063 0.0045980127 -0.004784929
0001a0 18 17 d5 bb 3a ef 83 3b 86 6a aa bb e4 eb 55 bc
       -0.006502997 0.0040263208 -0.005200687 -0.013056729
0001b0 41 bb f7 3b a7 35 af 3b 89 86 fe bb e8 24 1f 3a
       0.007560164 0.005346972 -0.0077675027 0.0006070868
0001c0 b0 6a 48 bc 8e f8 d7 3b 9d 05 c1 3b 28 4e f4 ba
       -0.0122324675 0.0065909093 0.0058905617 -0.0018639015
0001d0 7e 26 77 ba 13 42 cd 39 ab ea ea ba 13 4f 09 ba
       -0.0009428038 0.00039149876 -0.001792272 -0.0005237918
0001e0 04 79 98 3b e1 e6 6b 3b 0f 26 18 bc e1 13 4c bb
       0.004653098 0.003599577 -0.009286418 -0.0031139778
0001f0 02 62 e4 bb 39 5d 4c bc 8c 80 f6 bb 29 8f b8 ba
       -0.0069696913 -0.012473398 -0.007522648 -0.0014080751

network_body.linear_encoder.seq_layers.0.weight f4 [128, 9]
000000 89 35 40 be 56 b3 73 3d db 1d 58 3d 9b 52 0a bf
       -0.18770422 0.0594972 0.052762847 -0.54032296
000010 1a 29 07 bc 3d 8c 93 3c 39 1f 7b 3d 5a bd e6 3e
       -0.0082495455 0.018011207 0.061309073 0.4506634
000020 e5 74 b3 bd d8 8e 8e 3d 96 b2 0c 3f 73 36 bb 3d
       -0.0876253 0.06960839 0.5496 0.09141245
000030 53 45 89 be c7 f5 66 3e 21 7d 0b be a1 21 e1 bd
       -0.26810703 0.22554694 -0.13621952 -0.10992742
000040 f1 3f 16 3e 16 67 0f 3e 54 b0 99 bd 49 38 38 bf
       0.14672829 0.14004168 -0.07504335 -0.71960884
000050 58 42 8d bd 78 b4 23 3e 46 2a 01 3e d2 ee 99 3b
       -0.0689742 0.15986812 0.12613782 0.004697659
000060 54 91 bf bd 2e 68 82 be 9b 23 c8 3e 3a e5 00 bf
       -0.09353891 -0.25470108 0.39089665 -0.5034977
000070 d2 a4 1b be b5 81 97 3e 64 9c 6f 3e 13 43 cf 3e
       -0.15199593 0.29591146 0.23399502 0.4048086
000080 a7 62 26 3e 35 ef 15 bf 4e a5 27 bf 5e 63 0f bf
       0.1624857 -0.58568126 -0.6548661 -0.56011
000090 18 1b 90 3e 10 06 88 bd f8 c5 1d 3e 3f c1 76 3e
       0.2814567 -0.06641781 0.1540755 0.24097155
0000a0 e8 05 85 3d 16 02 e4 be 19 f4 27 3e 96 83 2f bf
       0.06495267 -0.4453284 0.1640171 -0.6856016
0000b0 27 2b 71 be ae 75 25 bf 0c 9c 45 3e 52 29 70 bd
       -0.23551618 -0.6463269 0.19297808 -0.058633156
0000c0 9f ad cd 3e 98 ab 7f be 74 c3 03 3e 18 3d 82 be
       0.40171525 -0.24967802 0.12867528 -0.25437236
0000d0 e0 5e 9f 3d 75 38 7a be af fd c5 3e 34 1d 67 3e
       0.07781768 -0.24435599 0.38670108 0.22569734
0000e0 28 5f 94 3e 36 98 db be c1 ea a1 3e a1 5e 24 be
       0.28978848 -0.42889565 0.31624416 -0.16051723
0000f0 a2 20 f7 be 23 c6 01 3d b3 2c 21 bf 3d 5a e9 3e
       -0.48267084 0.0316831 -0.6295883 0.4557666
000100 5e 24 f5 3c 54 1e 7f be 10 9b 2e be 06 c8 26 3e
       0.029924568 -0.24913913 -0.17051339 0.1628724
000110 4b 7b b3 3e bc 4e b4 be 67 66 01 bf 81 51 9c 3d
       0.35055003 -0.3521632 -0.5054688 0.07632733
000120 c1 89 30 3f 43 e7 e1 be 67 4f 0b 3f 11 55 db bd
       0.68960196 -0.4412175 0.54418033 -0.107095845
000130 cc 15 c4 3d 42 37 f1 bd 8b ff ee be 19 b5 9a 3d
       0.0957447 -0.11778118 -0.4667934 0.07554073
000140 15 43 f3 3d f8 89 21 be 4d d0 90 bc d5 1b ba 3e
       0.11878029 -0.15775287 -0.01767745 0.3634936
000150 56 f9 8c be 13 22 9a bb 43 09 22 bf 1d 1f 78 bd
       -0.27533978 -0.004703769 -0.6329538 -0.060576547
000160 e4 cd 14 3f dc 4b 0e 3e 48 15 84 bd 07 7f 45 3f
       0.58126664 0.13896126 -0.064493716 0.77146953
000170 48 6d 51 3e c9 5a e5 3e b5 37 b7 be fc a7 08 3f
       0.20451844 0.44795826 -0.3578469 0.53381324
000180 a9 dc e0 be 1d 1d 4f 3e 06 d1 ee bd 59 ea 8a be
       -0.4391835 0.2022595 -0.11660962 -0.27131918
000190 c4 43 29 3e 55 06 b3 3e c1 f5 2f 3c 98 10 bd be
       0.16529757 0.34965768 0.010739745 -0.36926723
0001a0 4f 5e 5d be 45 49 c1 3d 12 1a a4 3c 85 03 81 3e
       -0.21618007 0.09437803 0.020031963 0.25197998
0001b0 82 01 db be 57 98 28 bd fe 67 0a 3f 85 12 94 3d
       -0.42774588 -0.041160908 0.5406493 0.07230095
0001c0 0b 9f 36 bd 74 84 af 3d 2f 0a b0 be 3a 7a bf be
       -0.04458527 0.08570185 -0.3438277 -0.3739794
0001d0 df e6 44 3e 70 91 83 3e 5d 6a 59 3e 47 dd 6d 3d
       0.19228695 0.25696898 0.2123198 0.058072355
0001e0 c3 bc 08 bf 5e a5 91 bd 85 28 e5 3c d7 c3 c1 3e
       -0.5341303 -0.071116194 0.027973423 0.37844726
0001f0 06 80 d4 3e fd aa 04 3f bb 7a 83 bc 62 0d 5b be
       0.41503924 0.5182341 -0.016049733 -0.21391824
000200 bf 19 e9 3e 2f 6a 07 3e 2e 71 8b be 41 dd 73 be
       0.45527455 0.132241 -0.27234787 -0.2381487
000210 d5 f5 8f be 1e 70 3a bd 58 2a 30 be 84 da d8 3d
       -0.28117242 -0.04551708 -0.17203653 0.105885535
000220 78 04 5b 3f fa b4 67 3e e5 56 5a 3f ef 80 ab 3e
       0.85553694 0.22627631 0.8528884 0.33496806
000230 fb 38 6e bd 03 ba 99 3d 4b 0a 20 3f 96 23 d7 bd
       -0.05815981 0.07506182 0.62515706 -0.10504834
000240 de 1e bf be e6 3c ae be 21 09 86 be d8 21 fe be
       -0.37328237 -0.34030837 -0.2617884 -0.49635196
000250 3c ee 7f 3d 03 e5 96 be d4 62 24 bf 56 de b9 3c
       0.062483057 -0.29471597 -0.642133 0.022689026
000260 0d 10 a9 3e 5e f4 23 bd f1 a6 d1 3d ca ba 0e be
       0.33020058 -0.04002797 0.1023692 -0.13938442
000270 ff c0 03 bf bc 45 6f 3e 12 d8 21 3f 3f e9 44 be
       -0.51466364 0.23366445 0.6322032 -0.19229601
000280 09 bc 8e be 44 9c 60 be ad 84 fd be 4f 9f a5 3d
       -0.27877834 -0.2193461 -0.49515286 0.08087026
000290 bd 72 52 3d 14 ff 8e be 5d cb 9f 3e 9c f5 32 3f
       0.051378954 -0.27928984 0.3120984 0.6990602
0002a0 7e 0f 92 3e 9e 72 50 bd 55 52 8e 3e a8 2e 84 3e
       0.28527445 -0.050890557 0.2779719 0.25816846
0002b0 a4 d9 20 bd 68 f3 0f 3f dc 36 b9 3d 6f 4a 2e 3f
       -0.03927006 0.56230783 0.09043667 0.68082327
0002c0 34 c0 8a 3d 80 63 37 3e 4e 9c d3 3c 3b b6 51 3e
       0.06774941 0.1790905 0.025831368 0.20479672
0002d0 83 75 7d bd 74 7c c7 3e af 48 8e 3e 2a b0 07 be
       -0.061879646 0.38962138 0.27789828 -0.13250795
0002e0 da 5d aa be 92 38 53 be ca 33 1e 3e e3 b3 aa be
       -0.33274728 -0.20627049 0.15449443 -0.33340368
0002f0 ab 17 89 be f6 32 0e 3f 9f 27 57 3e f2 e8 26 3e
       -0.2677587 0.5554651 0.21011208 0.16299799
000300 fa 2f a0 bc 51 25 97 3d b0 93 92 be 24 d8 83 be
       -0.019554127 0.073801644 -0.28628302 -0.2575084
000310 b8 60 4e be 1b 53 cc be b7 89 14 3d 70 37 60 3e
       -0.20154083 -0.39907154 0.036264148 0.21896148
000320 4c da a6 3e 30 57 39 be e5 32 ac be cd 61 9f be
       0.32588422 -0.18099666 -0.3363258 -0.31129304
000330 3e ae a4 3b 6b 21 f8 bd c1 c5 63 3d 6a c2 e9 be
       0.005025654 -0.12115749 0.055608515 -0.4565614
000340 54 bf 8a 3e e4 9d a0 be a6 e3 23 3d 3c 5b e5 3d
       0.27099097 -0.3137046 0.040012024 0.11199042
000350 60 56 8f 3f e7 b9 91 be e5 f3 4f bf 1e ec 17 bf
       1.1198235 -0.28462145 -0.8123153 -0.5934466
000360 32 91 79 3e 2b 49 84 3e 4a b6 05 be dd 17 91 bc
       0.24371794 0.25837073 -0.13057819 -0.017711574
000370 5e db 9b 3e 7e fb 06 be f6 41 05 3f cf 43 ce 3e
       0.304408 -0.13181874 0.52053773 0.4028611
000380 4b 73 23 bf 49 8c 2d bd 9d c4 0a bf b3 b0 9d be
       -0.638478 -0.042370114 -0.5420626 -0.30798873
000390 3b 56 31 3f 9c 97 85 bd 27 1b 0b 3f f1 cd cb be
       0.692722 -0.06523058 0.54338306 -0.39805558
0003a0 13 27 8c be 8d 99 ff 3d eb a5 b0 be 7e e8 86 3e
       -0.2737356 0.12480459 -0.34501585 0.26349252
0003b0 ea 78 26 bd 1a 91 a5 3d 3a 83 3e 3f fb d0 06 3f
       -0.040642656 0.080843166 0.74418986 0.5266263
0003c0 83 f3 34 3d 1f 68 f9 bd a1 15 19 bd 95 a5 b0 be
       0.044177543 -0.12178063 -0.037374143 -0.3450133
0003d0 54 9c 90 3e 35 5b b7 bc 59 8d 6b be 7c d9 1c 3e
       0.2824427 -0.022382358 -0.23003139 0.15317339
0003e0 43 a0 7c 3e 70 8a 3f be 87 81 b1 3e 81 67 f1 3d
       0.2467051 -0.18705153 0.34669134 0.1178732
0003f0 70 19 cb bd 81 53 68 3d bc 18 fa 3e 41 aa 15 be
       -0.09916961 0.05672026 0.48846996 -0.14615728

network_body.linear_encoder.seq_layers.2.bias f4 [128]
000000 ff 6e ab 3b 4d 0c 1e bc 99 44 65 bc 8b 6b 4a bc
       0.0052317376 -0.009646487 -0.013993406 -0.012354742
000010 6d 0d 02 3b 9f a4 87 bb 8f 13 79 ba a7 22 15 bc
       0.0019844428 -0.0041394974 -0.00095015106 -0.0091025
000020 ca 66 97 3b ef 50 2b bb 96 99 c9 3b 26 6e 80 b8
       0.0046204077 -0.002614077 0.006152342 -6.1240324e-05
000030 1f ea 8f 3b 4f 8b df 3b cf 43 87 bb 6e c6 a0 ba
       0.004391923 0.006822027 -0.0041279565 -0.0012266168
000040 11 43 96 3b dd 7c a7 38 fe 78 ef 3b 89 5f 19 3a
       0.0045856317 7.986438e-05 0.0073081246 0.00058507227
000050 67 36 42 bc 14 66 0f bc 46 49 c3 bb 09 a6 cb bb
       -0.011853791 -0.008752365 -0.0059596626 -0.0062148613
000060 20 5a fa b9 22 44 9e bb 58 46 c3 bb a6 ac ff 3a
       -0.00047750864 -0.0048298994 -0.0059593134 0.0019506409
000070 42 ea bd 3a e2 ee c9 bb a5 34 aa 3b bc d0 9a bb
       0.001448937 -0.0061625103 0.005194264 -0.00472459
000080 43 95 b4 3b 41 3e ef ba 90 23 de 3a 5e 0b 99 bb
       0.0055109574 -0.0018252806 0.0016947854 -0.0046705445
000090 60 ed a0 ba 8d 7c 96 3b a8 b5 71 39 e9 09 b3 bb
       -0.0012277775 0.0045924843 0.00023051223 -0.005463828
0000a0 90 70 c4 bb 53 db 02 3a 52 b3 5f ba b1 c3 8c 3b
       -0.005994864 0.00049917883 -0.0008533496 0.004295789
0000b0 f0 49 9d bb f2 ec 27 bc 65 30 d2 3a 96 f6 ca bb
       -0.004800074 -0.010249363 0.0016036151 -0.006193946
0000c0 81 b5 e1 38 41 67 97 3b 1f 65 5c bb 47 84 7f 3b
       0.00010762644 0.004620463 -0.0033629609 0.0038988756
0000d0 c2 b0 e3 ba a5 34 53 3a 8e 98 1b bb a8 09 1b 3b
       -0.0017371404 0.0008056856 -0.0023742053 0.0023656879
0000e0 54 3d a9 3b c1 3f f7 bb 1b 3f a5 bb 4f 43 c0 bb
       0.0051647816 -0.007545442 -0.005042923 -0.005867399
0000f0 a8 3e 24 bb 95 1a b3 b8 98 fd 59 bb fe 71 92 bb
       -0.002506176 -8.5403364e-05 -0.0033262726 -0.0044691553
000100 86 c9 1d bc 8d 69 ad 3b db b2 07 bc 09 cf a5 bb
       -0.009630566 0.0052921236 -0.008282389 -0.005060081
000110 5e d4 3a 3b eb 08 ec ba a7 dd a1 3b af 7c ec 3a
       0.0028507928 -0.0018008029 0.004939753 0.001804253
000120 a6 fb f0 bb 2b d5 d2 ba 43 1f 09 3b 8c 88 fa 3b
       -0.0073542176 -0.0016085258 0.0020923174 0.007645672
000130 1a 3a 37 bc fc 8e 62 b7 3c 4e 46 3b a6 9b 08 3c
       -0.011183286 -1.3503941e-05 0.0030259034 0.008337891
000140 0a eb 9e 3b 6c ee 48 bc 2a 60 1c 3c bd 54 a6 bb
       0.004849796 -0.012263875 0.009544412 -0.0050760196
000150 01 1c 7f 39 7d c1 9c bb 26 c4 93 39 8e 56 b7 ba
       0.00024329127 -0.004783808 0.00028184167 -0.0013987587
000160 00 1b 9b bb 74 ea 3a bb 88 fe 39 ba 00 56 da bb
       -0.0047334433 -0.0028521093 -0.0007095118 -0.006663084
000170 98 ce a3 3b 2c b0 c2 bb f2 e1 92 3b 6b 35 d2 bb
       0.004998993 -0.0059414115 0.004482501 -0.0064150593
000180 ce a2 90 bb 29 90 f3 bb 44 10 ea 3a f0 a5 8a 3b
       -0.004413939 -0.0074329567 0.0017857631 0.004231207
000190 7f fa 48 39 70 e5 39 bb 61 92 89 bb 03 c5 59 bc
       0.00019166803 -0.0028365515 -0.004198358 -0.0132916
0001a0 84 6d 6c bb 8f e9 93 bb db 21 b0 bb c6 14 db 3b
       -0.0036076019 -0.0045139263 -0.0053751296 0.006685826
0001b0 1c 70 56 bc 88 8f 88 3b 27 e8 fa 3a ac dc 01 3b
       -0.013088252 0.004167501 0.0019142673 0.0019815369
0001c0 87 d3 50 3b a9 7f ec 3b b2 39 01 39 22 da 6b 3b
       0.0031864361 0.0072173667 0.00012323892 0.0035988172
0001d0 ac e7 93 3a 64 bb 4a bb f5 0c 9b bb 0e 0a 94 b7
       0.0011284254 -0.0030934447 -0.004731769 -1.7647657e-05
0001e0 97 cb 68 3b 63 37 ed bb f2 da 4f 3b 6b 32 ef bb
       0.003552174 -0.0072392686 0.0031716195 -0.0072997115
0001f0 fe a9 77 bc 8a 5b b9 ba 09 79 4d 3b 54 1e a2 3b
       -0.015116213 -0.0014141661 0.003135266 0.004947463

network_body.linear_encoder.seq_layers.2.weight f4 [128, 128]
000000 3b 1c e8 3d bf 18 98 3d f7 33 ee bc 6a fa 69 3d
       0.113335095 0.07426595 -0.029077513 0.05712358
000010 35 0d 87 3c 9e 6a ee 3d 45 50 5b bd 12 53 88 3d
       0.01648579 0.11641429 -0.053543348 0.066564694
000020 85 77 ef bc f6 6d 8d 3c 8f cd 9d bd 95 31 cc 3d
       -0.029231796 0.017264348 -0.07705223 0.099703945
000030 ec e9 b0 bd a5 4f e0 bd 09 04 d1 3b e2 77 13 be
       -0.08638367 -0.10952691 0.006378655 -0.144012
000040 88 97 b6 bd d7 43 ca bc e1 2b 27 bc b1 6c 38 3d
       -0.08915621 -0.024690552 -0.010203333 0.04502553
000050 da f6 9a 3d 61 ee 41 bb 21 8b d9 bd 00 5e 46 3d
       0.075666144 -0.0029591548 -0.1062224 0.04842949
000060 93 7a 93 bd a1 fd 29 3e 8b 0d 34 3e 8e 6f fa bd
       -0.072011136 0.16600658 0.17583291 -0.122283086
000070 c3 16 cc 3d d4 79 3a 3d d4 e9 b9 bd 1d df 3e bb
       0.09965279 0.04552634 -0.09077802 -0.0029124685
000080 9b 08 89 bd 76 d7 42 be 72 96 4f 3c 52 65 31 bd
       -0.066910945 -0.19027504 0.012670146 -0.043309517
000090 ed 85 00 3e 6e 82 82 bd 15 76 a8 bc ba 12 37 bc
       0.12551089 -0.06372534 -0.020564118 -0.011173898
0000a0 d4 20 90 bd 90 f0 18 3d 63 6a 12 bd 8a c9 e9 bd
       -0.070375115 0.037338793 -0.03574599 -0.11415394
0000b0 c8 09 26 3e 51 5e cb 3c 99 f6 6a 3c d1 d6 46 3e
       0.16214669 0.024825247 0.01434102 0.19417883
0000c0 6e 7f 36 3c 92 0a 80 3d 6f e0 d4 bc cc 7e 1b 3d
       0.01113878 0.06252016 -0.025985925 0.03796272
0000d0 b1 58 0a 3d 55 00 30 bd 08 95 b6 bd 74 49 cc bd
       0.03377599 -0.042969067 -0.08915144 -0.099749476
0000e0 b8 f9 17 bd 63 ac db 3c 5f 38 80 3d 47 d5 97 ba
       -0.037103385 0.026815599 0.06260752 -0.0011583947
0000f0 c0 54 97 3d 20 f9 ab 3c 9e a6 cb bd 89 28 3a 3e
       0.07389212 0.020992815 -0.09943889 0.18179525
000100 d3 99 82 3c 08 ca c6 bc aa ea 4b 3d a5 b6 54 bd
       0.01594249 -0.024266258 0.04978434 -0.051931996
000110 6a b5 10 be 1a 04 0c 3d ec b2 ed bc a5 dd 60 be
       -0.14131704 0.0341836 -0.02901598 -0.2195955
000120 ba 5a 9b bd 1f 2e 7c bd 84 b9 f5 bd dd 13 73 3d
       -0.07585664 -0.061567422 -0.11998275 0.059345115
000130 9a 77 8b 3d f2 ff 47 bd 63 4e 14 3e 35 0f f0 3d
       0.068099216 -0.048828073 0.14483027 0.117216505
000140 a9 8c 70 3d fe 9b 10 bd 5f bb 93 3d c7 53 11 3d
       0.058727894 -0.035305016 0.072134726 0.035480287
000150 01 7f 68 3b 94 57 2c 3d ba c7 da bc cd 26 95 3d
       0.003547609 0.04207571 -0.026706565 0.07282791
000160 51 4f bd 3d 9c 0b a6 bd 85 25 23 be 1c 62 b2 bd
       0.09243644 -0.08107683 -0.15932281 -0.08710119
000170 4a e7 a7 3d 2c e1 ba bc 01 cc 47 be 36 cd a9 bd
       0.08198412 -0.022812448 -0.19511415 -0.08291094
000180 0e ce fb bd 29 9f 28 bc 35 10 b4 bc 44 14 88 3b
       -0.12295161 -0.010291853 -0.021980384 0.0041528065
000190 97 23 01 3e 6e 79 79 3d ab b7 d8 3c 05 b4 fe bd
       0.12611233 0.06090682 0.026454767 -0.1243668
0001a0 e4 24 36 3d d3 47 17 3d c3 f9 9b 3c 5c 6b 13 bc
       0.044468775 0.03693373 0.019039994 -0.008997764
0001b0 f7 8c 8b 3b 4f fb d6 3b 7a d3 91 3c 29 2c 0f bd
       0.0042587477 0.00656072 0.017801035 -0.034954224
0001c0 b7 ad 93 bd 7c 65 07 bd e7 8d f8 3d 70 84 a7 3d
       -0.07210868 -0.033055767 0.12136441 0.08179557
0001d0 58 b0 cd 3d 2a 28 24 be 3a 1b 38 3c 62 6a 93 be
       0.100434005 -0.16030946 0.01123696 -0.287921
0001e0 99 fb 3b bd 7d a3 b1 3b c3 25 19 3e d2 12 77 bc
       -0.04589424 0.0054211006 0.14955811 -0.015080171
0001f0 f8 44 be bd 42 7a 04 be 7b ab 5b 3c cb d9 3e be
       -0.092904985 -0.12937263 0.013407583 -0.18637769
000200 f0 8f 74 bd 61 d7 cc bd 37 d5 2a be 3c 24 3d bd
       -0.059707582 -0.10002018 -0.16682898 -0.046177134
000210 c7 2f 3c 3d 69 d3 7c bb 56 5d db bd 03 dd 27 bd
       0.045944 -0.0038578159 -0.10711162 -0.040982258
000220 20 d4 fb 3d c1 c8 05 3e da 6c a1 bd b6 1d 4b 3e
       0.12296319 0.13064863 -0.0788209 0.19835553
000230 b8 f9 0d 3c df ac 1d 3e f8 02 0e 3d 4b 23 1d bd
       0.008665495 0.15397976 0.0346708 -0.038363736
000240 73 8b bc bd ef c4 1e 3e 1f 67 57 3c e8 f8 6b 3e
       -0.09206285 0.15504812 0.013147145 0.23044169
000250 f9 1a 3b bc a8 9d ea bc f9 9b 97 3c c1 ac a7 3c
       -0.011420005 -0.02863963 0.01850699 0.020468118
000260 74 f3 e6 bd 1c a4 cd bd 7f 21 20 bd 1e 75 82 bd
       -0.11276904 -0.10041067 -0.039094444 -0.063699946
000270 43 58 61 3d 39 b5 08 3e bf f3 2d be 79 5e ef bc
       0.055015814 0.13350381 -0.16987513 -0.029219853
000280 76 05 d5 bd e2 58 11 be d7 f0 d5 bd f4 d4 12 bd
       -0.10401432 -0.14194062 -0.10446327 -0.03584762
000290 58 03 f0 bd b8 df 50 3b 7f 9e b2 bd 30 90 1e bc
       -0.11719388 0.0031871628 -0.08721637 -0.009677932
0002a0 04 bd 13 be 49 30 52 3d 19 6b 93 3d 28 8f 86 bd
       -0.14427572 0.05131558 0.07198162 -0.06570274
0002b0 11 f3 d7 bd 56 60 85 3d 1f e2 71 3d 72 ee 46 be
       -0.10544408 0.06512515 0.059053537 -0.19426897
0002c0 fc 85 78 bd 4c 42 6c 3c 40 7d 7e 3d 70 9d be 3c
       -0.060674652 0.014420103 0.062131166 0.023268431
0002d0 e2 04 a7 3c 9f 17 84 3d ed 3f dc 3d ba 69 28 be
       0.02038807 0.06449818 0.107543804 -0.16446581
0002e0 dc f6 28 3d 43 2b b9 bd d3 3b 0f bc 0e db a1 bd
       0.04125105 -0.09041455 -0.008742291 -0.079031095
0002f0 51 be b7 bd 41 97 f1 3d 4d ed 17 be 13 4d ca bc
       -0.08971847 0.117964275 -0.14836617 -0.024694955
000300 7d 0f 01 be a5 74 36 bd 17 ff 7d 3e 45 1b a2 bb
       -0.12603565 -0.044544835 0.2480434 -0.0049470984
000310 b7 81 a8 3c 01 a2 15 be aa 30 95 bd 72 c0 d1 bd
       0.020569665 -0.14612581 -0.072846726 -0.10241784
000320 0b 12 89 bd 0f 8e 1a bd 0f 62 ad be be 28 0c 3e
       -0.066928945 -0.037733134 -0.33863875 0.13687417
000330 5f 49 ae 3d 7a 23 96 bd 4d bd b8 bd c4 55 6a 3d
       0.08510088 -0.07330985 -0.09020481 0.0572107
000340 90 c4 45 3d d1 9d e3 3d 40 d5 3f be 08 18 8d 3c
       0.04828316 0.111140855 -0.18733692 0.017223373
000350 e0 e8 28 bd 77 82 05 3d 3b 78 bd 3b d9 b5 a4 bc
       -0.041237712 0.032595124 0.005782155 -0.020106243
000360 36 d9 48 bb 9b 72 46 3c 0e c2 db bd f6 f0 91 bc
       -0.0030647046 0.012112285 -0.10730372 -0.017815094
000370 2e fc 29 3e 56 7c f6 bd 98 48 da bb dd 56 f1 bc
       0.16600105 -0.12035434 -0.006661486 -0.029460365
000380 57 fd ea 3c 97 41 c5 bd 14 cf bf bc 66 29 38 3d
       0.028685255 -0.09631651 -0.023414172 0.044961356
000390 2a a0 8e bd 67 8c b3 3c 0c f5 37 bd 58 8c 17 be
       -0.069641426 0.021917535 -0.04491143 -0.1479963
0003a0 c1 f9 19 bd 3a ac 68 3d 41 da ed 3b 50 11 23 3d
       -0.0375917 0.056804873 0.007258684 0.039811432
0003b0 d4 fa 88 3d 2d 86 c6 bd b9 b0 14 3d ef 74 55 bb
       0.06688467 -0.09693561 0.03630135 -0.0032570919
0003c0 ed 28 16 3e 35 61 8b bc 42 52 23 be b1 c0 12 3d
       0.1466405 -0.017014125 -0.15949348 0.035828296
0003d0 1a c9 e9 bd 06 13 21 bd 2b 22 9a 3d 0a af 2e 3e
       -0.1141531 -0.039324783 0.07526048 0.1705896
0003e0 ab f9 24 be 23 d1 c7 bd 76 98 65 3e e3 8a e9 3c
       -0.16110866 -0.097566865 0.2242144 0.02850861
0003f0 7d e5 d0 3d b3 20 0a bd 83 5e 8b 3d f3 4b eb 3d
       0.102000214 -0.03372259 0.06805136 0.114890955
