results/ppo/Car Agent/Car Agent-39507.pt (torch, 609615 bytes, 42 tensors)

network_body.linear_encoder.seq_layers.0.weight f4 [128, 60]
0	0x3d396fbd	0.045272578
1	0xbdf60160	-0.12011981
2	0xbce93365	-0.02846689
3	0xbe160a35	-0.14652331
4	0xbcfb4682	-0.03067327
5	0xbb4e5814	-0.0031485604
6	0xbdf4a1e2	-0.11944939
7	0xbd014d9a	-0.031568147
8	0x3dc21107	0.09475904
9	0xbbfd07f4	-0.0077218954
10	0x3df42d3d	0.11922691
11	0xbdfb62ac	-0.122746795
12	0xbdf5bc94	-0.11998859
13	0x3ea8c1e3	0.32960424
14	0x3dbd31f2	0.09238042
15	0x3bb72f5e	0.0055903634
16	0x3d4bd3e7	0.049762633
17	0x3e1554e5	0.14583166
18	0x3e97dd0f	0.29660842
19	0x3dbd6c2b	0.09249147
20	0x3d4b92dc	0.049700603
21	0xbdd9c079	-0.10632414
22	0xbcf502ae	-0.029908504
23	0xbdbbf7d9	-0.091781326
24	0xbe07df17	-0.13268696
25	0xbcb46a58	-0.022023365
26	0xbce382cb	-0.027772328
27	0x3da052a2	0.07828261
28	0x3dd5123b	0.10403868
29	0x3d0abe98	0.03387317
30	0xbd8b0bff	-0.067893974
31	0xbdcc04d9	-0.09961862
32	0x3d0c7e8e	0.03430038
33	0xbd6dc441	-0.05804849
34	0xbe19a0ab	-0.15002696
35	0xbe5f360b	-0.2179796
36	0x3d3ae96d	0.04563277
37	0x3e574998	0.21024168
38	0x3d8f7c90	0.0700618
39	0xbe0f9dc3	-0.14025025
40	0xbd070e21	-0.03297246
41	0xbd36cc52	-0.04462845
42	0x3c3cb885	0.011518602
43	0xbad42c09	-0.001618744
44	0xbe96f162	-0.29481035
45	0xbce1b51b	-0.027552178
46	0xbde1bd44	-0.11022428
47	0xbe43a61c	-0.19106334
48	0x3ca54424	0.020174094
49	0x3d872ad4	0.06599966
50	0x3e6d93e6	0.2320095
51	0xbd267dd1	-0.04064733
52	0xbb06a270	-0.0020543598
53	0xbbc421a7	-0.005985457
54	0x3dfa3e28	0.122188866
55	0x3d8c5482	0.06852056
56	0xbe3d0718	-0.18459737
57	0xbbed1ad1	-0.007235863
58	0x3d9b7fb5	0.075927176
59	0xbdeec5be	-0.1165881
60	0xbc56a723	-0.013101372
61	0x3c823cc0	0.015898108
62	0x3c4a61b0	0.012352392
63	0x3d98f1a1	0.07467962
64	0xbe41f02e	-0.18939278
65	0xbdc6aae4	-0.097005635
66	0x3e0d3ab9	0.13791932
67	0xbea66af6	-0.3250348
68	0xbdcf041e	-0.10108207
69	0xbca7d50d	-0.020487333
70	0x3bbc2b1d	0.005742444
71	0x3d93840a	0.07202919
72	0x3df8f397	0.12155836
73	0x3e0d3703	0.13790517
74	0xbe23298c	-0.15933818
75	0x3d0eb461	0.03483999
76	0xbe855bf2	-0.2604671
77	0xbe2e9e6a	-0.17052618
78	0x3e93dfdd	0.28881732
79	0xbe05be9f	-0.13060997
80	0xbe9538a9	-0.2914479
81	0x3e695dc9	0.22789682
82	0x3e6b2ff6	0.22967514
83	0x3ddc0d8a	0.1074477
84	0x3e0ef46c	0.13960427
85	0x3de3d72d	0.11125026
86	0x3e2bf5a1	0.16792919
87	0xbe60ca2d	-0.21952124
88	0x3d57b363	0.05266131
89	0xbe1eeef5	-0.15520842
90	0x3e6df9d1	0.23239829
91	0xbd24928c	-0.04017882
92	0x3d2037ec	0.03911583
93	0xbe27da48	-0.16391861
94	0xbd174491	-0.036930624
95	0xbe058a1b	-0.13040964
96	0x3e957f57	0.29198715
97	0xbd3d087b	-0.046150666
98	0x3e69b4a2	0.22822812
99	0xbc8cbd13	-0.017180001
100	0xbe587fc5	-0.2114249
101	0xbe5f82f2	-0.21827295
102	0x3e1dfb13	0.15427808
103	0xbdb4ec1b	-0.08834096
104	0x3e2012b3	0.15632133
105	0xbd69c09e	-0.05706846
106	0x3d953689	0.072857924
107	0xbe3c610d	-0.18396397
108	0x3dd3985d	0.10331795
109	0xbd63a01a	-0.055572607
110	0xbd74e501	-0.059788708
111	0x3c51108b	0.012760292
112	0x3da6dc61	0.08147503
113	0x3c32896e	0.010897024
114	0x3d9912cf	0.074742906
115	0x3d878562	0.06617238
116	0xbcf80431	-0.030275436
117	0xbe64c24f	-0.22339748
118	0x3d981563	0.07425954
119	0xbdcc946d	-0.099892475
120	0xbdb33111	-0.08749593
121	0xbd6cd35b	-0.05781875
122	0xbe217def	-0.15770696
123	0xbe216486	-0.15761003
124	0xbca2c0c1	-0.019867303
125	0x3e079dcd	0.1324379
126	0x3d098f42	0.033583887
127	0x3e6a15e6	0.22859916
128	0xbdb47b55	-0.08812586
129	0xbddd8fa5	-0.10818414
130	0x3c8ce998	0.01720123
131	0x38a4ba3b	7.8548175e-05
132	0xbc94f02c	-0.01818093
133	0xbc8aaa35	-0.016926864
134	0x3d3307d6	0.043708645
135	0xbdd68f3f	-0.10476541
136	0x3dbfb224	0.093601495
137	0xbbc31e63	-0.00595455
138	0x3d3fa5d8	0.04678902
139	0x3c4eedd3	0.012629944
140	0x3ea9051c	0.3301171
141	0x3c8ca1d6	0.017167013
142	0xbe39589a	-0.18100205
143	0xbdd37bf1	-0.10326374
144	0xbe4872e9	-0.19575085
145	0x3dc9b2c9	0.09848554
146	0x3e207e9a	0.15673295
147	0xbc566c19	-0.013087296
148	0xbe794d5c	-0.24345917
149	0x3daae4a8	0.08344394
150	0x3e042921	0.12906314
151	0x3d65b072	0.056076474
152	0xbcfe0f74	-0.031013228
153	0x3e09a0f3	0.13440304
154	0x3e755610	0.23958611
155	0xbd37bbf9	-0.044857
156	0x3e7b3d40	0.24535084
157	0x3cf38591	0.029726775
158	0xbe27e5cb	-0.16396253
159	0xbdc2ec88	-0.09517771
160	0xbca1efb7	-0.019767625
161	0x3d02ccb1	0.03193349
162	0xbd5533b1	-0.05205125
163	0x3e1fe6bb	0.1561536
164	0xbd3990d1	-0.045304123
165	0x3e3e255a	0.18568936
166	0x3df120c3	0.11773827
167	0x3dca0de7	0.09865933
168	0xbd0c534c	-0.034259126
169	0xbe75191b	-0.23935358
170	0xbcbebf5f	-0.023284612
171	0x3e05f1c3	0.13080506
172	0x3cd9955e	0.026560482
173	0x3c59e8bb	0.013300116
174	0x3d462e4d	0.048384
175	0xbdb5fa2d	-0.08885608
176	0x3caaefd5	0.020866314
177	0xbe538618	-0.20656621
178	0xbe0d0302	-0.13770679
179	0xbe2caea9	-0.16863503
180	0x3def24b1	0.1167692
181	0x3de6d9e1	0.11272026
182	0x3db5d75b	0.088789664
183	0x3e297ec6	0.16552266
184	0xbddefe28	-0.1088832
185	0x3da6dc2a	0.08147462
186	0x3d0e0976	0.03467699
187	0x3e41a34c	0.18909949
188	0x3de3ac81	0.11116887
189	0x3e027d10	0.1274302
190	0x3d74b810	0.05974585
191	0x3dd6b8b5	0.10484449
192	0x3dc445eb	0.09583648
193	0x3e641e13	0.22277097
194	0x3d917bde	0.07103704
195	0x3d9704f7	0.07373994
196	0x3de3a203	0.11114886
197	0x3d16ed2c	0.03684728
198	0xbdd90f86	-0.10598664
199	0xbd13710e	-0.03599649
200	0xbde1334f	-0.109961145
201	0xbcda310d	-0.026634717
202	0x3e51afe8	0.20477259
203	0x3ccb9894	0.024853028
204	0x3e393dea	0.18090025
205	0x3e677f5b	0.22607176
206	0xbe855bc7	-0.26046583
207	0x3c9ef96b	0.019406041
208	0x3ddcb5bb	0.1077685
209	0xbde8d088	-0.11367899
210	0x3dfae9bd	0.12251613
211	0xbdc80666	-0.097668454
212	0x3def185f	0.1167457
213	0x3d9233ca	0.07138784
214	0xbebb5996	-0.36591786
215	0xbd4af6f5	-0.049551923
216	0x3e231351	0.15925337
217	0xbd7821a4	-0.060578957
218	0x3d9df3bc	0.07712504
219	0x3d4cccd4	0.050000027
220	0x3e82fa9a	0.2558182
221	0x3d551b64	0.052028075
222	0xbdac2c47	-0.08406883
223	0x3e32508d	0.1741354
224	0xbcec973c	-0.028880708
225	0x3e2cfe6a	0.16893926
226	0xbdec9c80	-0.115532875
227	0x3dda63f7	0.10663598
228	0xbc71d7cc	-0.014760923
229	0xbc3446a3	-0.011003169
230	0x3d0bc05a	0.034118988
231	0xbd0ff89e	-0.03514921
232	0xbdc0d4d4	-0.09415594
233	0x3a0fcc6e	0.00054854795
234	0x3d527deb	0.051389616
235	0x3e1fea33	0.15616684
236	0x3dc94fd8	0.09829682
237	0xbe40feb4	-0.18847162
238	0x3e1c28e6	0.15249977
239	0xbda92672	-0.08259286
240	0xbd413159	-0.047166202
241	0xbe0f2c12	-0.13981655
242	0x3e7d0dba	0.24712268
243	0x3e3d1ea7	0.18468724
244	0x3e137243	0.14399056
245	0xbe896879	-0.2683752
246	0x3e5d0864	0.21585232
247	0xbd9adfdb	-0.07562228
248	0xbda00077	-0.07812589
249	0xbbf92d8d	-0.007604307
250	0xbd92c6f6	-0.07166855
251	0xbe9eed0a	-0.3104022
252	0xbd968277	-0.07349103
253	0x3dab2949	0.08357484
254	0x3d8d262f	0.068920486
255	0x3d4c5719	0.04988775

network_body.linear_encoder.seq_layers.0.bias f4 [128]
0	0xbb3fba51	-0.002925534
1	0x3a5c28bd	0.00083984045
2	0x3a1ad5ef	0.00059065124
3	0xba84a298	-0.0010119257
4	0x3a1b8112	0.0005932014
5	0x3b39a52d	0.0028327212
6	0xb8f04587	-0.00011457042
7	0xbb0e435c	-0.002170763
8	0xbaecb46d	-0.0018059142
9	0xbb628c96	-0.003456866
10	0xb99898b2	-0.00029105466
11	0xbb0b512f	-0.0021258106
12	0x3a9b35b0	0.0011841562
13	0xb7f1e636	-2.883664e-05
14	0x3b2bfbe3	0.0026242665
15	0xbb125ccb	-0.002233314
16	0xba780d39	-0.00094624195
17	0x399215e9	0.00027863614
18	0x3ac0aa22	0.0014699141
19	0x3a086044	0.0005202333
20	0xbb5188c2	-0.0031972383
21	0xbbd5ff93	-0.006530711
22	0x3abf0586	0.001457379
23	0xba634dfa	-0.0008670982
24	0xbbe885f6	-0.0070960475
25	0x3a9d2d3c	0.001199163
26	0xba96d5c8	-0.0011507804
27	0xbb47dd53	-0.003049691
28	0x3a0a3b88	0.0005273153
29	0x38c6e579	9.484118e-05
30	0xbb02b01f	-0.0019941402
31	0xbab0f00f	-0.0013499277
32	0x3a0a0828	0.00052654976
33	0xbb61b439	-0.0034439696
34	0x3ae2e361	0.0017310196
35	0x3ac971bc	0.0015368978
36	0xba841f2b	-0.001008009
37	0x392cda83	0.000164846
38	0xbbbd56e0	-0.0057781786
39	0xba13ccea	-0.00056381396
40	0x3ade6666	0.0016967773
41	0xbb2478c9	-0.0025096408
42	0xbb9b2148	-0.004734192
43	0xbb248a3a	-0.0025106804
44	0xbaed9938	-0.0018127328
45	0x391360d8	0.0001405509
46	0x3a462197	0.0007558106
47	0xbb6a07c9	-0.0035710207
48	0xba12c489	-0.0005598744
49	0x38062272	3.198017e-05
50	0x3b758af4	0.0037466856
51	0x3ab1e689	0.0013572733
52	0xbb4ace1c	-0.0030945605
53	0x3b699ee8	0.0035647694
54	0xbb05c23c	-0.0020409962
55	0x3b8a7e94	0.004226515
56	0xbb2b7d6f	-0.0026167294
57	0x3a41843e	0.00073820713
58	0x3bacdf2c	0.0052756276
59	0xbbadac2c	-0.0053000655
60	0xbb32fcc4	-0.0027311305
61	0x3acad1a7	0.0015473858
62	0xbab10abb	-0.0013507226
63	0x3b356af5	0.002768216
64	0x3b49d6bb	0.0030798155
65	0xbba792ac	-0.00511392
66	0x3ba7c454	0.0051198397
67	0x3b932aa7	0.0044911685
68	0x3b13027e	0.0022431905
69	0x3a4d3429	0.0007827902
70	0x3a35b06d	0.00069308915
71	0x3917b3f3	0.00014467518
72	0x398bf17c	0.00026692066
73	0x392635f4	0.00015851093
74	0xbb4203d4	-0.0029604333
75	0x3a8e5182	0.0010858031
76	0xb91cf50a	-0.00014968604
77	0xba481bdf	-0.00076335476
78	0xbb854125	-0.0040666037
79	0xb9c86e9a	-0.00038229377
80	0x3b8cb91a	0.0042945268
81	0x3b051921	0.0020309167
82	0xbae9163d	-0.0017783117
83	0xbafa4bed	-0.0019096114
84	0xb9b67b01	-0.0003480539
85	0xbb3b71a6	-0.0028601675
86	0xba83ec56	-0.001006494
87	0xbac25a48	-0.0014827931
88	0xba038b4c	-0.000501801
89	0x3a69af11	0.00089143316
90	0xbb8c3350	-0.004278578
91	0x3ae8df27	0.00177667
92	0x3892d873	7.002139e-05
93	0xba00781d	-0.0004900711
94	0x3b14a50d	0.0022681386
95	0x3b39bfda	0.0028343112
96	0xbb834c8c	-0.004006928
97	0x3af4df4c	0.001868227
98	0xbac8e1d3	-0.001532609
99	0xbae2f90f	-0.0017316657
100	0xbb4cddd7	-0.0031260157
101	0xba86c641	-0.0010282473
102	0x38b37d9a	8.55878e-05
103	0x3b7757e9	0.0037741608
104	0x3b09e52e	0.0021041143
105	0xba67a7f5	-0.0008836978
106	0xbb3a413e	-0.0028420235
107	0x3b8efa35	0.004363323
108	0xbae82383	-0.0017710779
109	0x3b4d0aa0	0.003128685
110	0x3b65d7e0	0.0035071298
111	0xbb1cc50c	-0.002392116
112	0xba1a1d93	-0.00058790407
113	0xbb1a92de	-0.0023586075
114	0xbac16bd5	-0.0014756868
115	0x3ae7820a	0.0017662656
116	0x3b99e7b2	0.0046968097
117	0x3aeeabbf	0.0018209143
118	0xb9b34d7a	-0.00034199265
119	0x3a524044	0.00080204406
120	0x39ca131f	0.0003854269
121	0xbbb50c14	-0.0055251215
122	0x3b55ec36	0.0032642013
123	0xba46649b	-0.0007568092
124	0x3a2af575	0.00065215613
125	0x3ad9e333	0.0016623497
126	0x3958998f	0.0002065657
127	0x3b4c861b	0.0031207863

network_body.linear_encoder.seq_layers.2.weight f4 [128, 128]
0	0x3d3d4205	0.04620554
1	0xbd69927c	-0.057024464
2	0x3e20b193	0.15692739
3	0xbd35db17	-0.044398393
4	0x3cb4a445	0.022050986
5	0xbcc972fc	-0.024590962
6	0xbd5f0920	-0.05445206
7	0x3d131ec9	0.03591803
8	0x3cb84daa	0.02249797
9	0x3d9d20e9	0.07672293
10	0xbdbc9306	-0.0920773
11	0x3d5affea	0.053466715
12	0x3e0c3bf2	0.13694742
13	0x3d3b780d	0.045768786
14	0xbdc9fbdf	-0.09862494
15	0xbb690426	-0.0035555451
16	0xbc697531	-0.014249132
17	0xbd69df30	-0.057097614
18	0x3db90839	0.090347715
19	0xbd5392f0	-0.051653802
20	0x3d178f1e	0.03700172
21	0x3d89f25e	0.06735681
22	0xbc4c2e8d	-0.01246227
23	0xbdac8789	-0.08424289
24	0xbcbd4cb7	-0.02310787
25	0x3cfb6a16	0.030690234
26	0xbcbc1f75	-0.022964219
27	0x3d6b31af	0.05742043
28	0x3dc8af0e	0.09799014
29	0xbd5631ec	-0.052293703
30	0xbc0ecc11	-0.008715645
31	0xbdf98a6b	-0.12184604
32	0x3bed652a	0.0072447257
33	0x3dde2bae	0.10848175
34	0xbdd0b774	-0.10191241
35	0xbc9ed3a5	-0.01938803
36	0x3dc91d80	0.0982008
37	0x3da58e99	0.08083839
38	0xbe368054	-0.17822391
39	0x3d2f7f57	0.04284605
40	0x3c00b054	0.00785454
41	0x3d95f9bb	0.07323023
42	0x38adb780	8.2834624e-05
43	0xbc0065c0	-0.007836759
44	0xbdfbe3ac	-0.12299284
45	0x3dd355f4	0.10319129
46	0xbd083a68	-0.033258826
47	0x3cb6a485	0.022295246
48	0xbd59c06e	-0.05316203
49	0xbd891510	-0.066934705
50	0xbd8dd2a8	-0.06924945
51	0x3c4ce286	0.012505179
52	0x3d748013	0.059692454
53	0xbdceb3a9	-0.10092861
54	0x3d0acb39	0.033885214
55	0xbdb4640a	-0.088081434
56	0xbe0b95db	-0.13631384
57	0xbe430e73	-0.1904848
58	0x3d2944c6	0.041325353
59	0x3dd2f8bc	0.103013486
60	0xbd310aef	-0.043223318
61	0x3d712388	0.058871776
62	0xbcdf5cc0	-0.027265906
63	0xbde8c920	-0.113664865
64	0xbd0955c4	-0.033529058
65	0xbd1fc7f6	-0.039009057
66	0xbe2931bb	-0.16522877
67	0xbde32dcf	-0.11092722
68	0xbdc3260f	-0.095287435
69	0x3dee8ebb	0.116483174
70	0xbdd7a9c2	-0.105304256
71	0xbe3d9ae8	-0.18516123
72	0x3ce3f703	0.027827745
73	0xbd20fb25	-0.03930201
74	0x3ca6c8e0	0.020359457
75	0x3c2781cc	0.010223817
76	0x3d580ac7	0.052744653
77	0xbaa33b71	-0.0012453628
78	0x3b8f4b1c	0.0043729674
79	0x3d9bbe27	0.07604628
80	0xbbda03d9	-0.0066532907
81	0xbe8250ac	-0.25452173
82	0xbe2c5974	-0.16830999
83	0xb8f511a3	-0.000116857955
84	0x3d194db7	0.03742763
85	0x3d8d83e8	0.06909925
86	0x3d1e45b3	0.03864069
87	0xbc88c5f4	-0.016695954
88	0xbdfca612	-0.12336363
89	0x3a930f54	0.0011219778
90	0xbd0efeea	-0.034911074
91	0x3a83e392	0.0010062328
92	0x3cb79404	0.022409447
93	0x3cd6fdac	0.026244007
94	0xbc58eda0	-0.013240248
95	0xbd29f690	-0.041494906
96	0xbe117088	-0.14203084
97	0x3c78a08b	0.015174995
98	0x3d9f3914	0.07774559
99	0xbd41d720	-0.0473243
100	0x3b91b41d	0.00444652
101	0x3d900b9c	0.07033464
102	0xbcdde3cf	-0.027086167
103	0x3e0d40d8	0.13794267
104	0x3e0da1ae	0.13831207
105	0x3cd987d6	0.02655403
106	0x3dc9dc6c	0.09856495
107	0xbd94cd62	-0.07265736
108	0x3e32b359	0.17451228
109	0x3d900f1d	0.07034133
110	0xbdbe3bb3	-0.092887305
111	0x3ebeae41	0.3724232
112	0x3e2f56b7	0.17122923
113	0xbb635d42	-0.0034693037
114	0xbda716ea	-0.081586674
115	0xbe170939	-0.14749612
116	0xbe25e2fa	-0.16199866
117	0x3cd1c4e1	0.025606574
118	0x3c90dea7	0.017684294
119	0x3d5c4a32	0.053781696
120	0xbc6a9bf5	-0.01431941
121	0x3d07c66a	0.033148207
122	0xbdc32d76	-0.09530155
123	0xbc6bded6	-0.01439639
124	0x3db93c90	0.090447545
125	0x3d6424bc	0.055699095
126	0x3d23f52d	0.04002874
127	0xbd0ef9bd	-0.034906138
128	0xbb6a2912	-0.0035730046
129	0x3dbc5d96	0.091975376
130	0xbdb2818c	-0.08716115
131	0xbd185250	-0.037187874
132	0x3db41997	0.087939434
133	0x3e325cf5	0.17418273
134	0xbdbb215b	-0.091372214
135	0xbd41ee26	-0.047346257
136	0x3c7f1d30	0.015570924
137	0x3d79bd13	0.06097133
138	0x3e141d0c	0.14464206
139	0xbd212d7f	-0.03935003
140	0xbe386a8f	-0.18009399
141	0x3dc5158c	0.0962325
142	0xbe1a73e1	-0.15083267
143	0x3d3a8a54	0.045542076
144	0x3c1367ae	0.008996887
145	0xbd624801	-0.05524445
146	0x3da2293e	0.079180226
147	0x3e0ce304	0.13758475
148	0xbd357408	-0.04430011
149	0xbc865209	-0.01639654
150	0xbe1261b7	-0.14295088
151	0x3cc3a564	0.023882575
152	0x3cdd5110	0.027016193
153	0xbde21c5d	-0.11040566
154	0x3ca87584	0.020563848
155	0xbd1feb7e	-0.039042942
156	0x3dbe9c4a	0.093071535
157	0xbc35395c	-0.011061039
158	0xbe522e0b	-0.20525376
159	0xbdd40eaf	-0.10354363
160	0x3e479c38	0.19493186
161	0xbca8d6f7	-0.020610316
162	0xbe009075	-0.12555106
163	0xbe2a08c5	-0.16604908
164	0xbe044200	-0.12915802
165	0xbda2f3dc	-0.07956669
166	0xbdd7e868	-0.10542375
167	0xbb5c266b	-0.0033592235
168	0x3db099f6	0.08623116
169	0xbb015024	-0.0019731605
170	0xbd0f370b	-0.034964602
171	0x3dc5a1cf	0.09650003
172	0x3e3c4202	0.18384555
173	0x3de4cc78	0.11171812
174	0x3d135542	0.03596998
175	0xbc79c3d1	-0.01524444
176	0x3da9d9ed	0.08293519
177	0x3e258297	0.16163097
178	0x3c8163bc	0.015794627
179	0x3dabe640	0.08393526
180	0xbd6ab067	-0.057297137
181	0xbdc38b2d	-0.0954803
182	0xbd803e4b	-0.062618814
183	0xbd6766df	-0.05649459
184	0xbe072e5f	-0.13201283
185	0xbdbeb52a	-0.09311898
186	0x3d0f4898	0.03498134
187	0xbd9f724c	-0.07785472
188	0xbd4a8f66	-0.04945316
189	0xbe16788e	-0.14694425
190	0x39a4c4f2	0.00031427253
191	0xbc979413	-0.018503224
192	0xbde55d9a	-0.11199494
193	0x3d93f63d	0.072247006
194	0xbd2d7982	-0.042352207
195	0xbc4272b3	-0.011868167
196	0x3d5ca080	0.053864002
197	0xbc77d3ed	-0.015126211
198	0x3d6535ea	0.05595962
199	0x3c2cacab	0.010539214
200	0xbdec7f09	-0.115476675
201	0xbc881446	-0.01661123
202	0x3dcb5f0e	0.099302396
203	0x3d425179	0.04744098
204	0xbe8c95b1	-0.27457955
205	0xbda3ddc3	-0.08001282
206	0x3db698ea	0.08915885
207	0xbe068896	-0.13138041
208	0x3d880d86	0.066432044
209	0xbe3c945c	-0.1841597
210	0xbc835cf4	-0.016035534
211	0x3e17d9ed	0.14829226
212	0xbe057d57	-0.13036095
213	0x3d9fd55a	0.078043655
214	0x3db67675	0.08909313
215	0xbcfa311b	-0.030540993
216	0xb9d1003a	-0.00039863755
217	0xbd7b6c42	-0.06138254
218	0x3aac8413	0.001316192
219	0x3d12b3e3	0.035816085
220	0x3cf0e5fb	0.029406538
221	0xbd84edc6	-0.06490664
222	0xbcb56899	-0.022144603
223	0x3d7b2b01	0.06132031
224	0xbc1922ef	-0.009346708
225	0xbdb9a1dc	-0.09064075
226	0xbcbf42d6	-0.0233473
227	0xbd941d76	-0.07232182
228	0xbdf5a7a8	-0.119948685
229	0x3d95213a	0.07281728
230	0x3db71b97	0.08940809
231	0x3d549445	0.051899213
232	0x3d6a49dd	0.057199348
233	0x3dc8d264	0.09805754
234	0xbd41406d	-0.04718058
235	0xbd68c446	-0.056827806
236	0xbcf0ef0e	-0.029410865
237	0xbc8a213c	-0.01686155
238	0xbc820f37	-0.015876396
239	0xbdce4d71	-0.100733645
240	0x3dfe7a7f	0.12425708
241	0xbdae6bdf	-0.085166685
242	0x3dc52355	0.0962588
243	0x3d615f7b	0.055022698
244	0x3bff7d80	0.007796943
245	0x3d923cbb	0.0714049
246	0x3d93f56f	0.07224547
247	0x3de9bdd6	0.114131615
248	0xbc6b8ed9	-0.014377319
249	0x3c097932	0.008390712
250	0xbd421ba2	-0.047389634
251	0xbbf579b4	-0.007491315
252	0xbd8525b0	-0.06501329
253	0xbe0ee1c1	-0.13953306
254	0x3c978fb0	0.018501133
255	0xbe059039	-0.13043298

network_body.linear_encoder.seq_layers.2.bias f4 [128]
0	0xbb997cce	-0.0046840673
1	0xba91b7a6	-0.0011117354
2	0x3ac64428	0.0015126513
3	0xbacf3539	-0.0015808708
4	0xba2a286e	-0.000649101
5	0xbb4ba3fd	-0.0031073086
6	0x3a110f4b	0.000553359
7	0xb9b0dadc	-0.000337324
8	0xb98b0a59	-0.00026519856
9	0xb9584bac	-0.00020627555
10	0x3ab63d92	0.0013903847
11	0xb9fcb788	-0.00048201927
12	0xbbbb89b1	-0.005723201
13	0xb93d9292	-0.00018079046
14	0xbb2cfc3a	-0.0026395456
15	0xbb380ce3	-0.0028083853
16	0xba82820a	-0.0009956968
17	0xbae1dc8c	-0.0017231866
18	0xbb2289e1	-0.002480142
19	0xbaa87ba8	-0.0012854235
20	0x3acf9772	0.0015837981
21	0xbb94e31c	-0.004543675
22	0x3b0cae97	0.0021466368
23	0xbb7b7258	-0.0038367715
24	0xbb74ff35	-0.003738356
25	0x3b3866d5	0.0028137465
26	0xbb91eccc	-0.004453277
27	0xbb17e914	-0.0023179697
28	0x3b0cbd33	0.0021475076
29	0x3892beb4	6.997344e-05
30	0xbad9f901	-0.0016629995
31	0xba94adee	-0.0011343339
32	0x3a3754f4	0.0006993555
33	0x3b61b5cb	0.0034440632
34	0xbb8cbe52	-0.004295149
35	0xb96b8b89	-0.00022463327
36	0x39bdce84	0.00036202755
37	0xbb422139	-0.0029621853
38	0x3a857a60	0.0010183565
39	0x3b2c28c5	0.0026269418
40	0x3b2a38e9	0.0025973863
41	0xb851744d	-4.9937797e-05
42	0x3b3b5c23	0.0028588853
43	0xbb1540d0	-0.0022774227
44	0x3b3945d1	0.0028270374
45	0xbaf50d7a	-0.0018696033
46	0xba104904	-0.0005504044
47	0xba4a6d94	-0.0007722017
48	0x3b1e41cc	0.0024148105
49	0x39ed26fe	0.00045233214
50	0x3a481458	0.0007632426
51	0xbb512644	-0.0031913677
52	0x3af8bd00	0.0018977225
53	0x3a1d403d	0.0005998647
54	0x3a3b4180	0.0007143244
55	0x3af6ca68	0.0018828632
56	0x3b29e8f2	0.00259262
57	0xbb09d342	-0.002103046
58	0xba709d4c	-0.00091787125
59	0xbadf4cc1	-0.0017036424
60	0x3a7a52ae	0.00095490634
61	0x3a9226ef	0.0011150519
62	0xbb9bb4d7	-0.0047517824
63	0x3a4259a8	0.00074138725
64	0xb9ecfa87	-0.00045200085
65	0x3b149a8b	0.0022675123
66	0x3b527db0	0.0032118373
67	0x3abc6e03	0.0014376048
68	0x3aa1a515	0.0012332523
69	0xbaaebc2c	-0.0013331226
70	0xbb346bb2	-0.0027530012
71	0x3aad4a90	0.0013221074
72	0x3b00575d	0.0019583323
73	0xba64d324	-0.0008728972
74	0x3b06793e	0.0020519043
75	0x3b103123	0.0022001944
76	0xbac782ff	-0.0015221535
77	0xba393f5f	-0.0007066633
78	0x3a09a1ed	0.0005250264
79	0x392bd6d5	0.00016387862
80	0xbb511f8c	-0.0031909673
81	0x3b9cfb94	0.0047907326
82	0xba86b6a8	-0.0010277824
83	0xba754295	-0.000935593
84	0xbb8ec292	-0.0043566907
85	0x3b4a9e7c	0.0030917218
86	0xbba4d3bd	-0.005030124
87	0xba17f4f9	-0.00057966966
88	0xbb841dd5	-0.0040318766
89	0xbb8c52ed	-0.0042823465
90	0x3b6d1cde	0.0036180536
91	0x3a5c7e43	0.00084111484
92	0xbb819c3e	-0.003955393
93	0xbbae1e79	-0.005313691
94	0xbaa634ca	-0.0012680527
95	0x3b79bf82	0.0038108532
96	0xbb8d7c1b	-0.004317773
97	0x3b0bd09a	0.0021334053
98	0x38242162	3.9131737e-05
99	0x3a5f7d2d	0.00085254275
100	0x3a2f5762	0.0006688741
101	0xbb352099	-0.0027637838
102	0x3b5c4d71	0.0033615495
103	0x3ab041b5	0.0013447317
104	0xbb3ff043	-0.0029287494
105	0x3af12e3a	0.0018400617
106	0xbb355561	-0.0027669298
107	0x3bcda94e	0.006276286
108	0x39a1ac81	0.00030836838
109	0x3b2fde01	0.0026835205
110	0x3aec6d79	0.0018037996
111	0xbae9529d	-0.001780111
112	0x3b1948b9	0.0023389293
113	0xba896ef5	-0.0010485338
114	0xbaf27f87	-0.0018501141
115	0x3ab39431	0.0013700781
116	0x3b2ba967	0.00261935
117	0xbb11db87	-0.0022256093
118	0x3b301b82	0.0026871865
119	0x3b2aa0c5	0.0026035768
120	0x3aa2d3a0	0.0012422688
121	0xbb115459	-0.002217552
122	0xbb244b26	-0.0025069206
123	0xbbaa9b88	-0.005206529
124	0x3a7355bd	0.00092824904
125	0x3926c5ee	0.00015904728
126	0x3b0e4ffd	0.0021715157
127	0xb9f1fb0b	-0.00046154144

action_model._continuous_distribution.log_sigma f4 [1, 2]
0	0xbc00fa10	-0.00787212
1	0xbc0f423c	-0.008743819

action_model._continuous_distribution.mu.weight f4 [2, 128]
0	0xbc7103dc	-0.014710393
1	0x3c8824ac	0.016619049
2	0xbb35a8a8	-0.0027718935
3	0x3af74a71	0.001886679
4	0x3c7201e8	0.014770962
5	0xbc52d7f6	-0.012868872
6	0x3ab66016	0.0013914134
7	0xba887ec1	-0.0010413752
8	0xbc0260ae	-0.007957621
9	0x3ceeebc7	0.029165162
10	0x3c548caa	0.01297299
11	0xbc464e88	-0.012103684
12	0xbc761523	-0.015019688
13	0xbcae050d	-0.021242643
14	0xbbf72c5c	-0.00754313
15	0x3b7a94c2	0.003823564
16	0xbd37f49c	-0.044911012
17	0xbc52ff66	-0.012878275
18	0xbbf81066	-0.007570314
19	0xbd20fc53	-0.039303135
20	0x3cbf97ac	0.023387752
21	0x3b517f8c	0.0031966893
22	0x3c595c22	0.013266595
23	0xbc8fed61	-0.017569246
24	0xbb1fc4d1	-0.0024378786
25	0xbc2d7161	-0.010586114
26	0xbc36e3cb	-0.0111627085
27	0xbcbc41bd	-0.022980565
28	0xbd244db0	-0.04011315
29	0xbc3f75a8	-0.011685766
30	0xbc87bdf5	-0.01657007
31	0xbb8b7d26	-0.004256862
32	0x3c8afb0a	0.016965408
33	0x3b9b3f22	0.0047377506
34	0xbb937d94	-0.004501054
35	0x3d0be3bd	0.034152735
36	0x3ba7f1e0	0.0051252693
37	0xbca688f0	-0.020328969
38	0x3bd8134a	0.0065940963
39	0x3b9a80a1	0.004715041
40	0x3c59adc7	0.013286061
41	0x3cd4c931	0.025974842
42	0x3a95e4af	0.0011435951
43	0x3b95d988	0.004573051
44	0x3ccd4a0c	0.025059722
45	0x3a8b59d5	0.001063163
46	0x3c1375a7	0.0090002185
47	0xbc8a6fb1	-0.016898962
48	0xbc093581	-0.008374573
49	0x3d043a63	0.032282244
50	0xbc948ac3	-0.018132573
51	0xbc8b4a3b	-0.01700317
52	0xbc539759	-0.012914502
53	0x3cab91fb	0.020943632
54	0xbb397c78	-0.002830295
55	0x3b46152c	0.0030225022
56	0xbcfc313f	-0.030785201
57	0xbcd73d0d	-0.026274228
58	0xbab578e3	-0.0013845231
59	0xbcc0bb59	-0.023526834
60	0xbb05dc21	-0.0020425397
61	0x3b1c93fe	0.002389192
62	0x3932dc70	0.00017057522
63	0xbbe02a4d	-0.00684098
64	0x3c781910	0.015142694
65	0xbc5a9413	-0.013340968
66	0xb9ce9ff2	-0.0003941055
67	0x3d038d54	0.032117203
68	0xbc8d18f9	-0.017223822
69	0xbc42f734	-0.011899758
70	0x3ca0b080	0.019615412
71	0x3c5ea405	0.01358891
72	0xbc02c561	-0.007981629
73	0xbc71b4f8	-0.014752619
74	0x3b0fac8f	0.0021922921
75	0xbcedfb93	-0.029050624
76	0xbab54a55	-0.0013831357
77	0x3ce1681b	0.027515462
78	0x3cea30a6	0.02858765
79	0x3c199ddd	0.009376016
80	0xbbe9776b	-0.0071248314
81	0x3c5c82b8	0.0134589
82	0xbc977327	-0.018487526
83	0x3c9bb43c	0.01900684
84	0xbc509c4f	-0.012732579
85	0x3b8e313a	0.0043393644
86	0xbc412547	-0.011788673
87	0x3c6ba479	0.014382475
88	0xbbe0edad	-0.0068642707
89	0x3bd9ec76	0.006650503
90	0x3cbaa0a4	0.022781678
91	0xba672627	-0.0008817636
92	0x3c3353e0	0.01094529
93	0x3b8e74da	0.004347426
94	0xbbeea51b	-0.0072828657
95	0x3a8b8ef4	0.0010647462
96	0xbb885a5b	-0.004161162
97	0x3c035c73	0.008017647
98	0x3ce19a17	0.027539296
99	0x3d2463fb	0.04013441
100	0xbce6fd60	-0.02819699
101	0x3b9b85de	0.004746183
102	0xbb4800fd	-0.0030518167
103	0x3c758709	0.014985808
104	0xbc7245da	-0.014787162
105	0xbbe8c870	-0.007103972
106	0xbc120d8e	-0.0089143645
107	0x3cbc020c	0.022950195
108	0x3bdcc033	0.006736779
109	0x3c91ae25	0.017783234
110	0x3ceef508	0.029169574
111	0xbaeaa946	-0.0017903231
112	0xbbe052db	-0.0068458146
113	0x3a777e39	0.0009441111
114	0x3c38d3e2	0.011280986
115	0xb999b85d	-0.00029319795
116	0x3c09cfb9	0.008411341
117	0x3c124a9b	0.00892892
118	0x3c0567f2	0.008142458
119	0x3b992f4f	0.004674829
120	0xbd082b47	-0.033244397
121	0x3c56f490	0.013119832
122	0xbc277f49	-0.010223218
123	0xbcaaac1a	-0.020834018
124	0x3d01a8c9	0.031655107
125	0x3ca2ca3f	0.01987183
126	0xbcb859a7	-0.022503687
127	0xbcf0f283	-0.029412514
128	0x3bf8c988	0.007592384
129	0x3ca3a797	0.019977374
130	0xbc8013de	-0.015634473
131	0x3b8eb598	0.0043551438
132	0xbbb56d43	-0.0055367067
133	0xba5fb0c1	-0.0008533113
134	0xbb82112d	-0.0039693327
135	0x3cba291f	0.022724686
136	0xbd1d95e6	-0.038473032
137	0x3c567562	0.01308951
138	0x3c4bc351	0.012436704
139	0x3cb3712a	0.021904547
140	0x3c50810f	0.0127260825
141	0x3b957019	0.004560482
142	0x3c7c6b2c	0.015406411
143	0x3bdb5a65	0.0066941255
144	0xbb639f37	-0.003473235
145	0x3c71526e	0.014729125
146	0xbc4d6b28	-0.012537755
147	0x3d0ea26f	0.034822877
148	0x3bdd803d	0.006759672
149	0x3bea01b2	0.0071413154
150	0xbc309145	-0.010776822
151	0x3c714e5f	0.014728158
152	0x3c30625c	0.010765638
153	0xbcb146e4	-0.021640249
154	0x3c3f1606	0.011662966
155	0x3b910d39	0.004426625
156	0x3cc6902c	0.024238668
157	0x3b41ee03	0.002959133
158	0xbc82be95	-0.015960017
159	0xbcc8cc50	-0.024511486
160	0x3a2b0c7c	0.00065249926
161	0xbc3cb0a1	-0.011516721
162	0xbaf019ec	-0.0018318272
163	0x3b7e8882	0.003883869
164	0x3c659ae6	0.014013981
165	0x3d034fc6	0.0320585
166	0xbc05db96	-0.008170029
167	0x3c928c8e	0.017889287
168	0x3c303aed	0.0107562365
169	0xbaad13c5	-0.0013204744
170	0xbc2b377f	-0.010450243
171	0xbc19f898	-0.009397648
172	0xb9ecbd8c	-0.0004515465
173	0x3cf4a451	0.029863508
174	0x3c9b54c0	0.01896131
175	0x3d09a6d3	0.03360636
176	0x3c4713a3	0.012150678
177	0xbb01c258	-0.0019799676
178	0x3b9a48f7	0.004708405
179	0x390c871b	0.00013401771
180	0x3ba06a3d	0.004895477
181	0xbc9e8160	-0.0193488
182	0x3c6e3b7d	0.01454055
183	0x3c4f0414	0.01263525
184	0xbc1ee46a	-0.009698013
185	0x3cf7a8ae	0.0302318
186	0x3d035a04	0.032068267
187	0x3c0ffcda	0.008788312
188	0xbc94df04	-0.018172748
189	0xbd24dbc6	-0.040248655
190	0x3b0f6e4c	0.002188581
191	0xbd1540bf	-0.0364387
192	0xbcaf121c	-0.02137094
193	0x3c4ba332	0.0124290455
194	0xbcbd5000	-0.023109436
195	0x3c352802	0.011056902
196	0xbb78a156	-0.003793796
197	0x3c58524e	0.013203217
198	0x3c946041	0.018112304
199	0x3b12a651	0.0022376964
200	0xbbc0ee87	-0.0058878097
201	0x3c5b2c84	0.013377313
202	0xbcab47c3	-0.020908242
203	0x3bfb80c8	0.007675264
204	0x3cf7e0e2	0.0302586
205	0x3ccf1fb5	0.025283674
206	0xbc428750	-0.011873081
207	0x3d0e970d	0.034812022
208	0x3c17720c	0.0092434995
209	0xbb79f7f1	-0.003814217
210	0xbbdfd370	-0.0068306252
211	0x3d21df75	0.039519746
212	0xbc0f7cef	-0.008757814
213	0xbb9490bc	-0.0045338552
214	0x3b9e5466	0.0048318384
215	0x3c7daff2	0.015483843
216	0x3ba56215	0.0050470927
217	0x3b8d4e17	0.0043122876
218	0xbcc24395	-0.023713866
219	0x3c08dfe2	0.008354159
220	0x3c3d6090	0.011558667
221	0x3ae1c020	0.0017223395
222	0x3b163f72	0.0022926
223	0x3bc4df73	0.0060080825
224	0x3c549fa6	0.012977516
225	0xbc079d54	-0.008277256
226	0x3d6798a2	0.056542046
227	0x3cc28b17	0.023747964
228	0xbce9866b	-0.028506478
229	0x3caafcea	0.020872552
230	0xb94a79a9	-0.00019309543
231	0x3c1ba042	0.009498658
232	0x3bd6b5cf	0.006552435
233	0xbc4e7998	-0.012602232
234	0x3b7ca1fa	0.0038548694
235	0xbd118309	-0.035525355
236	0xbc68b0c2	-0.014202299
237	0xbc9a3ab7	-0.018826826
238	0x3ba5a80a	0.005055432
239	0xbc92b845	-0.017910132
240	0x3b14c16f	0.0022698303
241	0x3cbebe33	0.023284053
242	0xbc8af23c	-0.01696121
243	0x3ceb7df3	0.02874658
244	0xbcb33721	-0.021876873
245	0x3d7f8aef	0.062388357
246	0xbb93ca60	-0.004510209
247	0xbc39e96f	-0.011347159
248	0xbb9ba113	-0.004749426
249	0xbbce1f0b	-0.0062903217
250	0x3cb4411f	0.022003708
251	0xbb4b0704	-0.0030979523
252	0xbb5bd30b	-0.003354254
253	0xbbdde144	-0.0067712385
254	0xbcbbe721	-0.02293736
255	0x3c60e251	0.013725833

action_model._continuous_distribution.mu.bias f4 [2]
0	0x3af3c73a	0.0018598803
1	0xbab27d0b	-0.0013617588

action_model._discrete_distribution.branches.0.weight f4 [2, 128]
0	0xbc663ba1	-0.014052303
1	0x3b475083	0.003041298
2	0xbbb3606a	-0.00547414
3	0x3b823230	0.003973268
4	0xbca309d3	-0.019902145
5	0x3b8e7dfa	0.0043485137
6	0xbac7a6bd	-0.0015232187
7	0x3b93e34d	0.0045131803
8	0xbc1f9203	-0.009739402
9	0xbb493488	-0.0030701477
10	0x3c080eae	0.008304281
11	0x3acf2732	0.0015804528
12	0xbc5700ff	-0.013122796
13	0xb975621a	-0.00023401566
14	0xbb78002a	-0.0037841895
15	0xbb80549f	-0.0039163376
16	0x3bd3ccee	0.0064636385
17	0xbc2df403	-0.010617259
18	0xbb84b169	-0.0040494693
19	0x3c3e96e9	0.0116326595
20	0x3c178736	0.009248545
21	0xbc7a90ee	-0.015293343
22	0xbb6b18fe	-0.003587305
23	0x3c243381	0.010022045
24	0x3bb79160	0.005602047
25	0xbba12614	-0.0049178693
26	0x3b23bcb9	0.0024984314
27	0x3bdccf5e	0.0067385873
28	0x3bcac9ef	0.006188623
29	0x3b94e97b	0.0045444346
30	0xbc40f20b	-0.011776458
31	0x3c094aec	0.008379679
32	0x3b478166	0.0030442118
33	0x3c746c4a	0.014918396
34	0xbc3fc949	-0.011705705
35	0xbb98c18a	-0.0046617435
36	0xbc259f0b	-0.01010872
37	0x3a033e0b	0.00050064985
38	0xbb8d5037	-0.004312541
39	0x3c31234e	0.01081164
40	0x3c24ec9f	0.0100661805
41	0xb868b11e	-5.5478064e-05
42	0x3cb4f244	0.022088178
43	0x3b8e6971	0.0043460657
44	0x3b1144a5	0.002216616
45	0x3bd69e6b	0.0065496466
46	0xbb88b36c	-0.0041717794
47	0x3ba7c2c4	0.0051196534
48	0x3cc302aa	0.023804981
49	0x3a73a5c2	0.0009294414
50	0x3ca216af	0.019786207
51	0xbaf373ba	-0.0018573918
52	0xbb604dfe	-0.0034226174
53	0xbcc1b752	-0.023646984
54	0x3c1b35c4	0.009473268
55	0x3c67615a	0.0141223315
56	0x3c9585a0	0.018252194
57	0xbbce77ba	-0.0063008936
58	0xbc3240f0	-0.01087974
59	0xbbb0b412	-0.00539256
60	0x3c8b4cb4	0.017004348
61	0x3c265620	0.01015237
62	0x3c35fce2	0.011107655
63	0xbb890d46	-0.0041824905
64	0xbc0294bd	-0.007970032
65	0x3c18ad0f	0.009318604
66	0xbc00903a	-0.007846886
67	0xbbb6e886	-0.005581918
68	0x3b818641	0.003952772
69	0x3c4f2e60	0.012645334
70	0xbc4f8e6f	-0.012668236
71	0xbc107c98	-0.008818768
72	0x3c2af9ad	0.010435504
73	0xbb2535c6	-0.0025209053
74	0xbbc46660	-0.0059936494
75	0xbb456679	-0.0030120893
76	0x39c2fd4e	0.0003719129
77	0x3b42ad65	0.0029705402
78	0xbc618882	-0.013765456
79	0x3b461d96	0.0030230037
80	0x3ab90daf	0.0014118458
81	0x3c67f15f	0.014156668
82	0x39ab4d1f	0.0003267312
83	0x3ba641d3	0.005073765
84	0xbbbabb23	-0.005698578
85	0x3c43f7e5	0.011960958
86	0xbbc91d69	-0.006137539
87	0x3afc79b9	0.001926235
88	0xbc95714a	-0.018242497
89	0xbcf3d3e6	-0.029764127
90	0x3c9123a6	0.017717194
91	0x3aa6abb1	0.0012715963
92	0xbc300e41	-0.010745586
93	0xbc15eb50	-0.009150341
94	0xbbe0de4d	-0.006862438
95	0x3bd02838	0.0063524507
96	0xb9ca9b20	-0.0003864402
97	0xbb5956ac	-0.0033163233
98	0x3bfddf56	0.007747571
99	0x3bfca60a	0.007710223
100	0x3ac2763a	0.001483626
101	0x3a85f55e	0.001022022
102	0x3bfe1b3c	0.0077547114
103	0x3c4763e8	0.012169816
104	0xbb8791d1	-0.0041372557
105	0xbb93d3da	-0.0045113387
106	0xbc6a81e6	-0.014313197
107	0x3bd4d59f	0.006495192
108	0xbc2841c3	-0.010269585
109	0x39d4139e	0.00040450407
110	0x3c117846	0.008878773
111	0xbb807019	-0.003919613
112	0xbc329494	-0.010899682
113	0x3bdb95e0	0.006701216
114	0x3b20eb45	0.0024554294
115	0x3be2f976	0.0069267107
116	0xbb6e782b	-0.0036387544
117	0x3b07d74a	0.0020727688
118	0x39ca2a85	0.00038560122
119	0x3baaf784	0.0052174944
120	0x3b94eaa3	0.0045445724
121	0xbc18f961	-0.0093368
122	0x3a7bdc22	0.00096076925
123	0xbbedc988	-0.0072566904
124	0xb9ad351a	-0.00033036695
125	0x3c0188b4	0.007906128
126	0xbbf62460	-0.0075116605
127	0x3b835cd9	0.004008871
128	0x3a8dce07	0.0010818847
129	0xb974b82b	-0.00023338261
130	0x3c19d87d	0.009389994
131	0x38fb0e0f	0.00011971231
132	0x3bb0bb36	0.005393411
133	0x3c0879af	0.008329793
134	0xbc01ca49	-0.007921764
135	0x3a9e492c	0.001207625
136	0x3c72fa1b	0.014830138
137	0xbae5f44d	-0.0017544121
138	0xbc04022a	-0.008057157
139	0xbc0cc7be	-0.008592544
140	0x3c29ee95	0.010371824
141	0xba10ebf1	-0.0005528322
142	0xbb7da0e0	-0.0038700625
143	0x3ba7b466	0.0051179407
144	0xbbadc2bc	-0.005302755
145	0x3ca9ff22	0.02075154
146	0x3af03fb4	0.0018329532
147	0xbc80a4c4	-0.015703566
148	0xbb045bce	-0.0020196321
149	0xbb95ef02	-0.004575611
150	0xbc32b00c	-0.010906231
151	0x3cb20571	0.02173111
152	0x3c4b8fb9	0.012424403
153	0x39b2ff11	0.00034140845
154	0x3c31d313	0.010853547
155	0xbb3d7fcd	-0.0028915287
156	0x3a8501f7	0.001014768
157	0xbc3777e6	-0.01119802
158	0xba100c58	-0.00054950034
159	0x3bafa55c	0.0053602885
160	0x3aed5ded	0.0018109657
161	0xbb881e14	-0.004153976
162	0x3ca1a4c1	0.019731881
163	0xbb895526	-0.0041910587
164	0xbc057a3a	-0.008146817
165	0x3c4a49a3	0.012346658
166	0xbc3344d2	-0.010941701
167	0x3b034024	0.0020027244
168	0xbc3ca1d3	-0.011513191
169	0x3b854b4c	0.004067814
170	0x3b85804e	0.004074133
171	0x3bf72311	0.007542022
172	0xbc706edf	-0.014674871
173	0x3bbfc92e	0.00585284
174	0x3c433a8c	0.011915814
175	0xbbad988c	-0.005297726
176	0x3bc3932d	0.0059684725
177	0xbbfa03f0	-0.007629864
178	0x3b9d5e07	0.0048024687
179	0x3afd2091	0.0019312074
180	0x3c9acc56	0.018896263
181	0x3c26ae58	0.010173403
182	0x3b027f48	0.0019912291
183	0xba9a6536	-0.0011779431
184	0xbcf0f237	-0.029412372
185	0xbc37f458	-0.01122769
186	0x3b9eeff4	0.004850382
187	0xbb86ae90	-0.004110165
188	0x3c025468	0.007954694
189	0xbbe3b2de	-0.006948813
190	0x3c8adb4e	0.016950276
191	0xbb808323	-0.0039218827
192	0x3c678b4b	0.014132331
193	0xbc119c97	-0.008887432
194	0xbae2545a	-0.001726757
195	0xbc63d042	-0.013904633
196	0x3a9203b4	0.001114002
197	0x3bf49a43	0.0074646785
198	0xbc9c76b7	-0.019099576
199	0x3be828e9	0.007084955
200	0xbb4e5fee	-0.0031490284
201	0x3a3d014a	0.000720997
202	0xbc8d7f02	-0.017272476
203	0x3c3c73f1	0.011502252
204	0x39d6be53	0.00040959063
205	0xbb1b2227	-0.002367148
206	0x3bb22aa2	0.005437211
207	0xbc4f8f87	-0.012668497
208	0xbc45f0ae	-0.012081308
209	0xbc6f3741	-0.014600576
210	0xbbffcefd	-0.0078066573
211	0x3c880893	0.016605651
212	0x3bca9290	0.0061820224
213	0xbae07cb6	-0.001712701
214	0x3bda2244	0.006656917
215	0xb84b9a72	-4.854281e-05
216	0xba5d6287	-0.00084451627
217	0x3b4ee31e	0.0031568478
218	0xbc4e0821	-0.01257518
219	0xbb944e38	-0.004525926
220	0x3c04e324	0.008110795
221	0x3bdf98cf	0.006823636
222	0x3aa048aa	0.0012228687
223	0xbc132de1	-0.008983106
224	0x3c90e4de	0.017687257
225	0xbc719773	-0.014745581
226	0xbb59ba1a	-0.0033222497
227	0xbbc513a9	-0.0060143066
228	0xbb84b40f	-0.004049785
229	0x3c37ffe4	0.011230443
230	0xbad1c160	-0.0016003065
231	0xbacc374d	-0.0015580446
232	0x3bf92f9f	0.007604554
233	0x3bec2a90	0.0072072223
234	0xbc8567ee	-0.01628491
235	0xbc3caf15	-0.011516352
236	0xbc6ef6c3	-0.0145852
237	0xbc51987e	-0.012792705
238	0xbc01e7d4	-0.007928807
239	0xbac11fa9	-0.0014734167
240	0xbcc8a70a	-0.024493713
241	0x3af74ff6	0.0018868435
242	0x3c29fb10	0.010374799
243	0xbc49b1bd	-0.0123104425
244	0xbc084f59	-0.008319699
245	0x3c9bf9a9	0.019039946
246	0xbc0a7670	-0.008451089
247	0xbbf84bd1	-0.0075773974
248	0xbbb81a10	-0.0056183413
249	0x3c5a7de4	0.013335679
250	0x3c88491a	0.01663642
251	0x3c409834	0.011755038
252	0x3b524e82	0.0032090251
253	0x3a800e16	0.0009769823
254	0xbaedec02	-0.0018152001
255	0xbac4ade9	-0.0015005443

action_model._discrete_distribution.branches.0.bias f4 [2]
0	0x3b9c11c6	0.004762861
1	0xbb9c11c6	-0.004762861

critic.network_body.linear_encoder.seq_layers.0.weight f4 [128, 60]
0	0x3c18c10c	0.00932337
1	0xbd61dfe1	-0.05514515
2	0xbcbc7de0	-0.02300924
3	0xbeb2ee8a	-0.34947616
4	0xbd821200	-0.063510895
5	0xbd1a03b1	-0.037601177
6	0x3d9fb1f9	0.077976175
7	0x3d6a2f6f	0.057174142
8	0x3e31802e	0.17334053
9	0x3c13a48e	0.009011401
10	0xbdbab64d	-0.09116802
11	0x3ce34bf4	0.027746178
12	0x3e3c9e28	0.18419707
13	0x3d3dffaf	0.046386417
14	0xbd50fa58	-0.051019996
15	0x3d8a9985	0.06767563
16	0x3cc430c1	0.023949029
17	0xbe6bb9c8	-0.23020089
18	0xbe3dc1cb	-0.18530957
19	0xbd0864fd	-0.033299435
20	0xbd8b4524	-0.06800297
21	0xbe9715d7	-0.2950885
22	0xbda0715c	-0.078341216
23	0x3db66fe0	0.08908057
24	0x3d8a5e0a	0.06756218
25	0xbda215da	-0.07914324
26	0x3db2a2d9	0.08722467
27	0xbe40f7b5	-0.18844493
28	0xbe8b3fcd	-0.27197114
29	0xbd8ff4d1	-0.07029117
30	0x3e48660c	0.19570178
31	0x3d23c6cc	0.03998451
32	0x3e2df672	0.16988543
33	0xbab67bdc	-0.0013922411
34	0x3ec7cbb7	0.3902261
35	0xbdaef93c	-0.085436314
36	0x3d11b825	0.035576005
37	0x3e0b9f25	0.13634928
38	0xbd48c953	-0.049020123
39	0xbe9dd08c	-0.3082317
40	0x3d8edce0	0.06975722
41	0xbe645011	-0.22296168
42	0x3d11fd09	0.035641704
43	0x3d9c204f	0.0762335
44	0x3a7285ed	0.0009251524
45	0xbda47451	-0.08029998
46	0x3c38c769	0.011278012
47	0xbe6dec0e	-0.23234579
48	0x3e752dff	0.23943327
49	0x3d9381bb	0.072024785
50	0x3d623eba	0.055235602
51	0xbe971a5c	-0.29512298
52	0x3e05f72f	0.13082574
53	0x3d9c7cdb	0.07641002
54	0xbdad860f	-0.08472835
55	0x3d8ed222	0.069736734
56	0xbe8206c9	-0.25395802
57	0x3df5b5cc	0.119975656
58	0x3e99fc84	0.30075467
59	0x3d875ff8	0.066101015
60	0x3cf150dd	0.029457504
61	0x3e1e5398	0.15461576
62	0x3e0ea033	0.13928299
63	0xbdafd9a7	-0.08586436
64	0xbc0984ff	-0.008393525
65	0xbddb578d	-0.10710058
66	0x3e5115d5	0.20418485
67	0xbd89e06e	-0.0673226
68	0xbb76541b	-0.0037586752
69	0x3df581ef	0.119876735
70	0xbe4ee0c5	-0.2020293
71	0xbe504812	-0.20339993
72	0xbde3f200	-0.11130142
73	0xbd5029e2	-0.050821193
74	0xbd9d872b	-0.07691797
75	0x3e3e35d3	0.1857522
76	0x3da6c2fa	0.081426576
77	0xbd77414c	-0.060365006
78	0xbce9b061	-0.028526487
79	0xbb020dfc	-0.001984476
80	0xbe69fac7	-0.2284957
81	0x3cee9d5c	0.02912777
82	0xbe328647	-0.17434035
83	0x3d6ba5cd	0.057531167
84	0x3c2ac138	0.0104220435
85	0x3e3f20d8	0.18664873
86	0x3d390664	0.04517211
87	0x3e95f194	0.29285872
88	0x3cfdcef3	0.03098247
89	0xbd05ff16	-0.032713972
90	0x3e2cf628	0.16890776
91	0xbe22bd1a	-0.15892449
92	0xbcdcc3fa	-0.026948918
93	0xbd5347f1	-0.05158228
94	0xbdeac244	-0.114628345
95	0x3dd6582b	0.104660355
96	0x3df0ee90	0.11764252
97	0x3de6ee20	0.112758875
98	0xbd73bf0d	-0.059508372
99	0x3daed5ac	0.085368484
100	0x3de40a93	0.11134829
101	0x3de5e643	0.112255596
102	0xbe35368a	-0.17696586
103	0x3e869443	0.2628499
104	0x3e88abed	0.2669367
105	0x3d50df2f	0.050994094
106	0x3d32d712	0.04366214
107	0x3e4251fb	0.18976586
108	0xbcd18515	-0.025576154
109	0x3e195ea3	0.14977507
110	0xbc9155e9	-0.01774116
111	0xbcac5e0e	-0.021040943
112	0x3d17d93c	0.037072405
113	0x3d0c6200	0.034273148
114	0xbdfe1849	-0.12406976
115	0xbcd2a21e	-0.02571207
116	0xbe571043	-0.21002297
117	0x3d1fdcc6	0.039028905
118	0x3d9c2e17	0.076259784
119	0x3d8dcaa4	0.06923416
120	0xbe53cfad	-0.20684691
121	0xbdc0ce9b	-0.09414407
122	0xbd0f82a9	-0.035036717
123	0x3d54e97b	0.051980477
124	0xbd9dbd5c	-0.07702133
125	0x3e62d876	0.22152886
126	0x3e563179	0.2091731
127	0xbe271fa0	-0.16320658
128	0x3d8a38b9	0.067491
129	0xbdca2c56	-0.09871738
130	0xbe773ac5	-0.24143513
131	0x3d7b01d4	0.06128104
132	0x3e03aab6	0.1285809
133	0xbe1caf85	-0.1530133
134	0xbe0feef1	-0.14055993
135	0x3e1b5915	0.15170701
136	0x3e76ef1c	0.2411465
137	0x3d89bdac	0.0672563
138	0xbe4b4ff3	-0.19854717
139	0x3c5492d1	0.012974457
140	0x3def9127	0.116976075
141	0xbda6b836	-0.08140604
142	0x3d6713ac	0.056415245
143	0x3d842937	0.064531736
144	0x3d533c78	0.05157134
145	0xbd958a1d	-0.07301734
146	0xbdc6e2ea	-0.09711249
147	0xbd8eb826	-0.06968717
148	0x3c549ade	0.012976376
149	0xbe7c3e52	-0.24633148
150	0xbd94b6e3	-0.072614454
151	0xbe316faf	-0.1732776
152	0xbe4f1258	-0.20221841
153	0xbb10894c	-0.0022054492
154	0x3dd50a82	0.10402395
155	0xbe9f5538	-0.31119704
156	0x3df03f6f	0.11730849
157	0x3e0dc4ad	0.13844557
158	0xbd223123	-0.03959764
159	0x3e0af594	0.13570243
160	0xbe0d4be2	-0.13798478
161	0x3dbdb86d	0.09263692
162	0x3e19ca5d	0.15018602
163	0x3e0d4907	0.13797389
164	0x3d40d12c	0.04707448
165	0xbd7778d4	-0.060417965
166	0x3dfeab7e	0.12435053
167	0x3c911b35	0.017713169
168	0x3e3903d5	0.18067868
169	0xbe681f63	-0.22668223
170	0x3dc9d4ff	0.09855079
171	0xbd375d4e	-0.044766717
172	0x3d938648	0.072033465
173	0x3dc7106d	0.0971993
174	0x3e8ff858	0.2811916
175	0xbd4f39f3	-0.050592374
176	0xbe2318da	-0.15927449
177	0x3dd47061	0.10372997
178	0xbe403f42	-0.18774131
179	0x3c3789a7	0.0112022525
180	0xbe849407	-0.25894186
181	0x3d1cf6b3	0.03832121
182	0x3e54c365	0.20777662
183	0xbe13c4a7	-0.14430486
184	0xbd65e10b	-0.05612282
185	0xbde3e6a1	-0.11127973
186	0xbc9d4ef8	-0.019202694
187	0xbd3fafec	-0.04679863
188	0xbd8f518e	-0.06997977
189	0x3c4d5ead	0.0125347795
190	0x3de40674	0.11134043
191	0xbdd67daa	-0.10473187
192	0x3d3437e9	0.043998633
193	0xbe164ffc	-0.14678949
194	0x3dc0c8d4	0.09413305
195	0x3e711973	0.23544864
196	0xbdb55ce7	-0.0885561
197	0xbced7823	-0.02898795
198	0xbe48c422	-0.19606069
199	0x3ce423d8	0.027849123
200	0x3d7d25c0	0.06180358
201	0x3e20fd23	0.15721564
202	0xbcd72bc0	-0.026265979
203	0x3e4e8872	0.20169237
204	0x3ddeaa2c	0.108723015
205	0x3cece8b1	0.02891955
206	0x3bb82187	0.005619231
207	0x3dd0c8dd	0.10194562
208	0x3c53abae	0.01291935
209	0x3dae0f26	0.08498983
210	0x3e6453e1	0.22297622
211	0xbe3ea903	-0.1861916
212	0x3e19865f	0.14992665
213	0xbdb4dc30	-0.0883106
214	0xbe21b5ee	-0.15792057
215	0x3e11097a	0.14163771
216	0xbdad50cf	-0.08462679
217	0xbde35758	-0.11100644
218	0x3e04d29c	0.12970966
219	0x3d580d57	0.052747097
220	0xbe077173	-0.13226871
221	0xbe031af4	-0.1280325
222	0xbe22aed4	-0.15887004
223	0xbe769adc	-0.24082512
224	0xbe1b426f	-0.15162061
225	0xbce23547	-0.027613295
226	0xbc9807f4	-0.01855848
227	0x3db95ec1	0.09051276
228	0x3e31a02a	0.17346254
229	0x3d86d1d9	0.06582994
230	0x3e23c9d7	0.15994965
231	0x3e1babd4	0.15202266
232	0xbdc1de13	-0.094661854
233	0xbe2107f7	-0.15725695
234	0x3e2a60fb	0.16638558
235	0x3e349769	0.17635883
236	0xbcc68c10	-0.024236709
237	0x3d656407	0.056003597
238	0xbda62e67	-0.08114319
239	0x3dd1bf88	0.1024161
240	0x3e2ede0b	0.1707689
241	0x3da08c2d	0.078392364
242	0x3e17c1dd	0.14820047
243	0x3e548a13	0.20755796
244	0xbda627ac	-0.081130356
245	0x3e57e419	0.21083106
246	0x3c07dc4c	0.008292269
247	0x3d7e24ee	0.062046938
248	0xbded3283	-0.115819
249	0xbe2a2d3a	-0.16618815
250	0xbe8c4681	-0.2739754
251	0x3d903037	0.07040446
252	0xbd3162aa	-0.043306984
253	0xbdb09555	-0.08622233
254	0x3e115e70	0.14196181
255	0xbd2c05df	-0.041997787

critic.network_body.linear_encoder.seq_layers.0.bias f4 [128]
0	0xba97b2ec	-0.0011573709
1	0xba941f66	-0.0011300861
2	0xbb41d1e3	-0.0029574565
3	0x3a68f2e4	0.0008886291
4	0xba97f2a6	-0.0011592701
5	0xbb2ad3f6	-0.002606628
6	0x39008865	0.00012257842
7	0x3ab1bbc5	0.0013559988
8	0x3b67f196	0.00353918
9	0x3a1ef3e4	0.0006063564
10	0x3a9450ff	0.0011315643
11	0xbb818b4c	-0.003953373
12	0x3b3e1668	0.0029005054
13	0x3b330d3f	0.0027321128
14	0x3a497a23	0.00076857413
15	0xba6ade6e	-0.0008959536
16	0x3c06b286	0.008221274
17	0xbb401471	-0.002930906
18	0x3ad30334	0.0016098977
19	0xbb67483c	-0.0035290858
20	0x3baeef6b	0.0053385994
21	0xbbccae2f	-0.0062463502
22	0xbb01a1fe	-0.0019780393
23	0xbad05ed3	-0.00158974
24	0xbb534320	-0.0032236055
25	0xbb0ba9f3	-0.0021311014
26	0xbad025de	-0.0015880426
27	0x3aa7d3a8	0.0012804167
28	0x3babaf72	0.0052394206
29	0xbb22c5cc	-0.0024837134
30	0x3afa6d85	0.0019106126
31	0x3a74aa88	0.00093332725
32	0x3b59da36	0.0033241636
33	0xbbfe4671	-0.007759862
34	0x3975a447	0.00023426219
35	0xbb03386a	-0.002002264
36	0x3b06b05d	0.0020551898
37	0x3a58f9b0	0.00082769524
38	0xbb5972f4	-0.003318009
39	0x3b56477f	0.0032696424
40	0xbbb0c340	-0.0053943694
41	0x3a925426	0.0011163994
42	0x39becdfa	0.00036393089
43	0xbbd4b9e4	-0.0064918865
44	0xba8d1ac6	-0.0010765425
45	0x39d14a79	0.00039919073
46	0xbb86e9c9	-0.004117225
47	0x3ab6c9d8	0.0013945652
48	0xbb251438	-0.0025189053
49	0xbb0a5618	-0.0021108445
50	0xbb97ca49	-0.0046322686
51	0x3b407716	0.0029367856
52	0xbaf3413a	-0.0018558868
53	0x3b01aeda	0.0019788058
54	0xbaaad9e9	-0.0013034913
55	0x3ab9d3f6	0.0014177549
56	0xbb687c18	-0.0035474356
57	0xba9a0b58	-0.0011752648
58	0x3a7f5666	0.00097403524
59	0x3b52474c	0.0032085953
60	0x3a27d959	0.0006402932
61	0xbb1825f1	-0.0023215974
62	0x3b65c19a	0.0035058022
63	0xbad092b3	-0.001591286
64	0x3b50e3cf	0.0031874066
65	0x3a02996f	0.000498197
66	0xbba89980	-0.0051452518
67	0x3b6534a9	0.0034974015
68	0xba3dcf0b	-0.00072406296
69	0xbae74849	-0.0017645444
70	0xbae2b8cd	-0.0017297507
71	0xbba870a9	-0.0051403833
72	0xbaaf6a6c	-0.0013383157
73	0xbb5f1035	-0.003403676
74	0xba93d76f	-0.0011279414
75	0x3b348afd	0.0027548664
76	0xbad17928	-0.0015981542
77	0x3a94345f	0.0011307112
78	0xbba08631	-0.0048988094
79	0xba22a7f1	-0.0006204835
80	0xbb14cfcf	-0.0022706871
81	0x3a3d525e	0.00072220515
82	0x3a318698	0.000677207
83	0x3aa0643c	0.0012236903
84	0x3acf3914	0.0015809857
85	0x3af26da0	0.0018495806
86	0xbbd514ba	-0.006502715
87	0x3a51b5ea	0.00079998246
88	0xbb387c48	-0.002815025
89	0x3bb6d550	0.005579628
90	0x3a0eeeb0	0.00054524373
91	0xbac2c266	-0.0014858961
92	0x39b28590	0.00034050317
93	0xbab9e361	-0.0014182144
94	0x3aa4ab27	0.0012563214
95	0xbb3d7d96	-0.0028913966
96	0x398e8ec6	0.00027190725
97	0x3b4e8612	0.0031513018
98	0xbb5316d1	-0.0032209645
99	0x3788e130	1.6317324e-05
100	0x3a80a981	0.0009816141
101	0x3aeaaa20	0.0017903484
102	0x3a9094a6	0.0011030629
103	0x3a39dd34	0.0007090152
104	0x3ab77cc2	0.0013998973
105	0xbb0bfe2e	-0.002136122
106	0x3ab2a8c9	0.0013630624
107	0xbb8f9ce7	-0.004382718
108	0xb8a01129	-7.632591e-05
109	0xbb91a372	-0.004444533
110	0xba676198	-0.0008826493
111	0x3a0038f3	0.00048912986
112	0xbb00dc7c	-0.001966267
113	0xbae3f3a2	-0.0017391334
114	0xba99e5a3	-0.0011741411
115	0xbbda9e37	-0.0066716927
116	0x3b14753f	0.0022652892
117	0x39b1488f	0.0003381413
118	0xbb4d668c	-0.003134164
119	0x3ac544bc	0.0015050392
120	0xba8d3ca6	-0.0010775521
121	0x3be63eae	0.007026515
122	0xbb92106c	-0.004457524
123	0xbb3a06c9	-0.0028385392
124	0x3b40f07b	0.0029440213
125	0x3991f29c	0.00027837313
126	0xbaab4da6	-0.0013069406
127	0xbb81712d	-0.003950259
