results/ppo/Car Agent/Car Agent-6413.pt (torch, 154463 bytes, 14 tensors)

network_body.linear_encoder.seq_layers.0.weight f4 [128, 9]
0.40875027 -0.2674847 -0.081513084 -0.6194334 0.0448921 0.08553068 0.23451534 -0.126326
0.26099825 0.04857963 -0.47492468 -0.3872782 -0.36340523 -0.6213948 -0.38422495 0.042792305
-0.36696896 0.10821195 -0.5057415 0.044602834 0.6590875 0.044375814 0.19431369 -0.050710928
-0.11849048 -0.21964854 0.40932244 0.37604082 -0.24810171 0.3728263 0.85076535 0.04822391
-0.18431884 0.31107664 -0.005636263 0.306574 -0.20258263 0.21861678 -0.3964922 0.5569688
0.1675511 0.33711308 0.44884336 0.43412703 -0.22422956 0.253085 0.262291 -0.35386652
0.27581003 -0.09825666 0.09669754 -0.013551213 -0.19576126 -0.2790267 0.22378342 -0.2666322
0.16852498 -0.2303174 0.24693476 -0.43675154 -0.7857342 0.271633 0.2320014 0.09398788
-0.59226036 -0.15893558 0.30136305 0.111949354 0.38448602 -0.1431312 -0.65123093 0.3042204
-0.17885445 -0.063202545 -0.0054828096 -0.10079353 0.12357315 0.09880999 0.020411918 0.16955999
-0.115245745 0.29487783 0.0071264706 1.0483394 -0.016942829 0.36164838 0.21836287 -0.5403391
0.11303967 0.41481984 -0.20452535 0.013063702 -0.56778574 -0.08634376 -0.37483972 0.35166627
-0.20579827 -0.7530025 0.41362342 0.14122558 0.035802294 -0.16873424 -0.15320303 -0.29266518
0.6257579 0.04482595 0.2996777 -0.24519287 0.13809419 -0.17838788 -0.11787704 0.044159576
-0.14354041 0.17221527 -0.070463195 -0.16577733 -0.38917848 -0.21272674 0.24147779 -0.27359846
-0.1944018 0.25928682 0.22331177 0.34418744 -0.16626428 0.1269484 0.11403181 -0.09683993
0.5216448 -0.04525768 0.040762812 0.36746365 0.44810566 0.03166892 -0.5888933 -0.36798966
-0.06535249 -0.3664889 -0.33880597 0.15571383 0.13038671 0.14841011 0.02524661 0.34233832
-0.3042264 0.07195537 0.08278378 0.12899838 -0.16245005 0.102188855 0.645906 -0.064949274
0.8145448 0.6143807 0.0049771355 0.27367482 0.023072084 0.040014997 -0.3564375 0.3790682
-0.39385217 0.42756975 -0.5476992 0.27073678 0.42482898 0.020823076 0.38589257 -0.15140167
0.032539457 0.59957737 -0.63142335 -0.50404584 -0.45341128 -0.17053281 -0.27631074 0.16182852
-0.6004375 0.056664284 -0.57115024 -0.115775995 -0.24001251 -0.45243117 0.18398681 0.31173652
-0.2765484 -0.030579321 -0.09525737 -0.22740883 -0.038052943 -0.044165295 -0.44435212 -0.51856995
-0.057445507 -0.4037968 -0.43086237 -0.81785023 -0.08046457 -0.10899168 -0.72931087 -0.017595824
-0.31251281 -0.19315845 -0.10329135 -0.37724644 -0.13937932 -1.0033777 0.30912873 -0.07222906
0.642341 0.16153246 -0.049683444 0.12524085 0.024100557 0.29858062 -0.23234133 -0.06621528
0.40550065 -0.101984054 -0.2810786 -0.032932 -0.32931244 0.10105407 0.4513099 0.114366636
0.046170276 0.16499807 0.56304765 -0.29413718 0.08844471 -0.2690645 -0.0792616 0.09286603
-0.598676 0.047507014 -0.59427017 -0.42519248 0.5912559 -0.2988072 0.33427173 -0.7882688
-0.54099065 0.07694805 -0.41385794 -0.044516634 0.18802553 -0.36181372 0.30130345 -0.22816066
0.046115782 -0.12459054 -0.11000519 -0.46243498 0.21181832 0.4957604 0.11528014 0.12269871
00000000: b747 d13e c1f3 88be 55f0 a6bd 3093 1ebf
00000010: c7e0 373d b62a af3d ca24 703e 9a5b 01be
00000020: 90a1 853e 6ffb 463d 5429 f3be 5449 c6be
00000030: 4010 babe bb13 1fbf 22b9 c4be fc46 2f3d
00000040: 5be3 bbbe 3a9e dd3d 4678 01bf 76b1 363d
00000050: f5b9 283f 6ac3 353d 2bfa 463e 43b6 4fbd
00000060: 23ab f2bd 8ceb 60be b692 d13e 6c88 c03e
00000070: 600e 7ebe 17e3 be3e c2cb 593f 6f86 453d
00000080: 14be 3cbe 7045 9f3e 67b0 b8bb 44f7 9c3e
00000090: d271 4fbe 14dd 5f3e 0701 cbbe 8295 0e3f
000000a0: 8492 2b3e 169a ac3e ccce e53e e645 de3e
000000b0: 6f9c 65be 5b94 813e 024b 863e fe2d b5be
000000c0: f936 8d3e ca3a c9bd 5c09 c63d e805 5ebc
000000d0: a475 48be 96dc 8ebe 7b27 653e 0484 88be
000000e0: d091 2c3e 53d8 6bbe 77dc 7c3e e69d dfbe
000000f0: e025 49bf 7b13 8b3e c691 6d3e b87c c03d
00000100: 609e 17bf 02c0 22be 424c 9a3e b445 e53d
00000110: 5adb c43e fc90 12be 12b7 26bf c7c2 9b3e
00000120: 9f25 37be 5670 81bd 24a9 b3bb d76c cebd
00000130: eb13 fd3d e45c ca3d e536 a73c 22a1 2d3e
00000140: f605 ecbd 3afa 963e 2b85 e93b fc2f 863f
00000150: b0cb 8abc fa29 b93e 849a 5f3e aa53 0abf
00000160: 5881 e73d 4463 d43e 186f 51be 2309 563c
00000170: 685a 11bf ffd4 b0bd feea bfbe 9a0d b43e
00000180: c8bc 52be c6c4 40bf 73c6 d33e 709d 103e
00000190: 6da5 123d abc8 2cbe 41e1 1cbe 36d8 95be
000001a0: ab31 203f 6a9b 373d 5b6f 993e d713 7bbe
000001b0: 9068 0d3e 50ab 36be 8469 f1bd ace0 343d
000001c0: 42fc 12be 3359 303e 024f 90bd 88c1 29be
000001d0: 6742 c7be 0ad5 59be f445 773e 1915 8cbe
000001e0: 4411 47be 3ec1 843e d7ab 643e 5639 b03e
000001f0: 2f41 2abe c3fe 013e 8289 e93d 0354 c6bd
00000200: 838a 053f 1e60 39bd e8f6 263d 3224 bc3e
00000210: 1b6e e53e 45b7 013d b6c1 16bf 2469 bcbe
00000220: 87d7 85bd 6fa4 bbbe fa77 adbe 7273 1f3e
00000230: 1884 053e d2f8 173e fbd1 ce3c f846 af3e
00000240: 90c3 9bbe 565d 933d 8b8a a93d 2718 043e
00000250: 4e59 26be 6448 d13d 185a 253f 2004 85bd
00000260: 0286 503f 0e48 1d3f 3d17 a33b 1b1f 8c3e
00000270: ab01 bd3c c4e6 233d fa7e b6be 3a15 c23e
00000280: fea6 c9be 6cea da3e 0436 0cbf 039e 8a3e
00000290: 2f83 d93e 2895 aa3c b693 c53e 0a09 1bbe
000002a0: 1848 053d e77d 193f f6a4 21bf 2609 01bf
000002b0: 8625 e8be 27a0 2ebe 9a78 8dbe 60b6 253e
000002c0: 46b6 19bf cf18 683d e736 12bf f71b edbd
000002d0: d7c5 75be 0fa5 e7be 0a67 3c3e ee9b 9f3e
000002e0: c097 8dbe 7c81 fabc 4c16 c3bd dcdd 68be
000002f0: 67dd 1bbd abe6 34bd 1f82 e3be 00c1 04bf
00000300: fb4b 6bbd 74be cebe fe99 dcbe a25e 51bf
00000310: 9cca a4bd 0837 dfbd 1eb4 3abf 1e25 90bc
00000320: ae01 a0be 54cb 45be 6a8a d3bd 7226 c1be
00000330: 74b9 0ebe ae6e 80bf 1f46 9e3e d4ec 93bd
00000340: 7670 243f c468 253e de80 4bbd 233f 003e
00000350: 886e c53c 8fdf 983e e3ea 6dbe e09b 87bd
00000360: c89d cf3e 04dd d0bd 89e9 8fbe b4e3 06bd
00000370: a49b a8be 70f5 ce3d 1712 e73e 0e39 ea3d
00000380: 0b1d 3d3d 41f5 283e e423 103f 2699 96be
00000390: 8022 b53d d2c2 89be e853 a2bd 8c30 be3d
000003a0: d542 19bf b796 423d 1722 18bf d4b2 d9be
000003b0: 8c5c 173f 42fd 98be aa25 ab3e fccb 49bf
000003c0: 5d7e 0abf f096 9d3d 30e5 d3be 1357 36bd
000003d0: c489 403e a63f b9be 7244 9a3e f3a2 69be
000003e0: e7e3 3c3d 5329 ffbd 674a e1bd 47c4 ecbe
000003f0: e7e6 583e 4fd4 fd3e fe17 ec3d 7649 fb3d

network_body.linear_encoder.seq_layers.0.bias f4 [128]
0.0 0.0 0.0 0.0 0.0 0.0 0.0 0.0
0.0 0.0 0.0 0.0 0.0 0.0 0.0 0.0
0.0 0.0 0.0 0.0 0.0 0.0 0.0 0.0
0.0 0.0 0.0 0.0 0.0 0.0 0.0 0.0
0.0 0.0 0.0 0.0 0.0 0.0 0.0 0.0
0.0 0.0 0.0 0.0 0.0 0.0 0.0 0.0
0.0 0.0 0.0 0.0 0.0 0.0 0.0 0.0
0.0 0.0 0.0 0.0 0.0 0.0 0.0 0.0
0.0 0.0 0.0 0.0 0.0 0.0 0.0 0.0
0.0 0.0 0.0 0.0 0.0 0.0 0.0 0.0
0.0 0.0 0.0 0.0 0.0 0.0 0.0 0.0
0.0 0.0 0.0 0.0 0.0 0.0 0.0 0.0
0.0 0.0 0.0 0.0 0.0 0.0 0.0 0.0
0.0 0.0 0.0 0.0 0.0 0.0 0.0 0.0
0.0 0.0 0.0 0.0 0.0 0.0 0.0 0.0
0.0 0.0 0.0 0.0 0.0 0.0 0.0 0.0
00000000: 0000 0000 0000 0000 0000 0000 0000 0000
00000010: 0000 0000 0000 0000 0000 0000 0000 0000
00000020: 0000 0000 0000 0000 0000 0000 0000 0000
00000030: 0000 0000 0000 0000 0000 0000 0000 0000
00000040: 0000 0000 0000 0000 0000 0000 0000 0000
00000050: 0000 0000 0000 0000 0000 0000 0000 0000
00000060: 0000 0000 0000 0000 0000 0000 0000 0000
00000070: 0000 0000 0000 0000 0000 0000 0000 0000
00000080: 0000 0000 0000 0000 0000 0000 0000 0000
00000090: 0000 0000 0000 0000 0000 0000 0000 0000
000000a0: 0000 0000 0000 0000 0000 0000 0000 0000
000000b0: 0000 0000 0000 0000 0000 0000 0000 0000
000000c0: 0000 0000 0000 0000 0000 0000 0000 0000
000000d0: 0000 0000 0000 0000 0000 0000 0000 0000
000000e0: 0000 0000 0000 0000 0000 0000 0000 0000
000000f0: 0000 0000 0000 0000 0000 0000 0000 0000
00000100: 0000 0000 0000 0000 0000 0000 0000 0000
00000110: 0000 0000 0000 0000 0000 0000 0000 0000
00000120: 0000 0000 0000 0000 0000 0000 0000 0000
00000130: 0000 0000 0000 0000 0000 0000 0000 0000
00000140: 0000 0000 0000 0000 0000 0000 0000 0000
00000150: 0000 0000 0000 0000 0000 0000 0000 0000
00000160: 0000 0000 0000 0000 0000 0000 0000 0000
00000170: 0000 0000 0000 0000 0000 0000 0000 0000
00000180: 0000 0000 0000 0000 0000 0000 0000 0000
00000190: 0000 0000 0000 0000 0000 0000 0000 0000
000001a0: 0000 0000 0000 0000 0000 0000 0000 0000
000001b0: 0000 0000 0000 0000 0000 0000 0000 0000
000001c0: 0000 0000 0000 0000 0000 0000 0000 0000
000001d0: 0000 0000 0000 0000 0000 0000 0000 0000
000001e0: 0000 0000 0000 0000 0000 0000 0000 0000
000001f0: 0000 0000 0000 0000 0000 0000 0000 0000

network_body.linear_encoder.seq_layers.2.weight f4 [128, 128]
0.07758046 0.0068622576 0.029966746 -0.053660117 0.12632811 0.07622116 -0.05794967 0.010231041
0.06693056 -0.11418031 -0.039049298 0.04260321 0.0007117177 0.029559057 -0.080569215 -0.091933645
-0.062271424 -0.018062327 -0.054264884 -0.006182822 0.05338717 -0.097571544 -0.042102274 -0.11386511
-0.12999716 -0.003106268 0.0027859001 -0.060270213 -0.106621265 0.1191655 0.0010532968 -0.05491148
-0.030077452 -0.12661105 0.10524686 -0.13575684 -0.0129206255 -0.10055607 0.036313806 0.06884542
0.1415245 -0.0017509112 -0.120277286 0.15817083 -0.048924625 -0.120621294 -0.03913839 -0.024450537
-0.003195157 0.10009717 -0.14262857 0.016074404 -0.16892302 0.05434963 0.09428757 -0.05636249
-0.0399081 -0.08578227 0.07373089 0.12292985 0.10544546 -0.022501174 0.04085921 0.10881038
-0.13212456 0.07086695 -0.12211065 -0.0043351064 -0.03491974 -0.030810984 0.009587704 0.16130231
0.052683048 -0.122290514 0.07756716 -0.12093908 0.11803899 0.091081284 0.031026462 -0.11047928
-0.04436803 0.015466628 0.006926846 0.21770318 0.1335068 -0.03518134 0.053127714 -0.106113836
0.011403294 -0.050822023 -0.004221019 0.20826231 0.06461633 0.043079805 0.013781277 0.05928585
-0.0108576855 -0.07237548 0.09993264 -0.035141964 -0.009084603 -0.04649932 0.0054320637 0.05840264
-0.22210257 0.07738394 0.11807938 -0.13783768 -0.09476659 -0.02629883 -0.018006872 -0.054642905
0.12726027 0.2342372 -0.050093535 0.16346616 -0.00637085 0.04001606 -0.07190858 0.24938102
-0.1510695 -0.021091422 0.023466254 -0.020952472 0.06086341 -0.17147706 -0.103613324 0.02811652
-0.015746444 -0.10691318 -0.0014446841 0.12406425 0.0921167 -0.048890907 -0.13731116 -0.08708019
0.08095592 -0.038128357 0.1704465 0.09603218 -0.1638417 -0.1327075 0.0619711 0.069175586
-0.07962335 0.11066384 0.009614395 -0.098993175 -0.114282444 0.06004581 -0.022298839 0.1109625
-0.033059325 -0.024452724 -0.08975835 -0.09313191 0.046330888 -0.097389944 -0.008271842 -0.023490299
0.090792224 -0.037004206 0.0063280337 0.09994645 0.11602247 0.1464107 -0.25236416 0.06570477
0.046153173 0.033160243 -0.06830191 0.037689812 -0.047888808 -0.055648364 0.020552028 -0.057637084
-0.07496506 0.07575338 0.18723994 0.017824482 0.066216335 -0.065328404 0.011570455 -0.021504624
-0.036696665 0.10565141 0.13341317 -0.0012164816 0.053274926 -0.024221085 -0.07470489 -0.03623141
0.060712434 -0.0931726 -0.045917206 0.108460784 -0.0111060655 -0.02182465 0.027546443 -0.023494288
0.054182213 0.10188039 -0.09744433 -0.11984919 0.0075584473 0.11199018 -0.058085084 0.04743361
0.06013596 0.06782267 -0.07911157 0.1105961 0.114308275 0.118660696 0.015635796 -0.009639771
-0.06562412 0.018012634 -0.04677315 0.030223222 -0.09464405 0.10603104 -0.01809584 -0.12369637
-0.011106049 0.030274197 0.06798396 0.043649737 0.119179115 -0.012175206 0.03794789 0.036553897
0.017800525 -0.038970917 -0.015182313 0.074472524 0.07667322 0.1221321 -0.053187393 0.039796323
-0.060894277 -0.017799824 -0.18846838 -0.005069769 -0.07150691 0.050455157 -0.11352348 -0.004144976
-0.06701628 0.02757746 -0.15425685 -0.10962192 0.12495738 -0.1631063 -0.01684406 -0.035574388
00000000: 81e2 9e3d cadc e03b d27c f53c b6ca 5bbd
00000010: 285c 013e d719 9c3d a25c 6dbd 19a0 273c
00000020: e412 893d 5ed7 e9bd 28f2 1fbd b480 2e3d
00000030: 9192 3a3a d625 f23c 7901 a5bd b547 bcbd
00000040: 5210 7fbd 72f7 93bc db44 5ebd 4599 cabb
00000050: 81ac 5a3d 97d3 c7bd 6f73 2cbd 1c32 e9bd
00000060: fa1d 05be 8792 4bbb a693 363b e6dd 76bd
00000070: 405c dabd 0b0d f43d c70e 8a3a dcea 60bd
00000080: fd64 f6bc 54a6 01be aa8b d73d d703 0bbe
00000090: 08b1 53bc 57f0 cdbd c9bd 143d d4fe 8c3d
000000a0: cceb 103e d57e e5ba f053 f6bd 89f7 213e
000000b0: 3065 48bd 4c08 f7bd 944f 20bd 7e4c c8bc
000000c0: d765 51bb bfff cc3d 390d 12be 78ae 833c
000000d0: 28fa 2cbe b89d 5e3d d719 c13d 5bdc 66bd
000000e0: ad76 23bd 9dae afbd 3900 973d a5c2 fb3d
000000f0: caf3 d73d 6254 b8bc fd5b 273d fad7 de3d
00000100: a94b 07be b122 913d 2615 fabd 820d 8ebb
00000110: 0008 0fbd 5167 fcbc bf15 1d3c 6f2c 253e
00000120: 2eca 573d 7373 fabd 88db 9e3d e9ae f7bd
00000130: 6dbe f13d d388 ba3d 352b fe3c f642 e2bd
00000140: 40bb 35bd bd67 7d3c 99fa e23b 95ed 5e3e
00000150: 02b6 083e 4f1a 10bd 729c 593d 3652 d9bd
00000160: e2d4 3a3c c12a 50bd 7950 8abb b742 553e
00000170: 9155 843d 7374 303d deca 613c b8d5 723d
00000180: 6fe4 31bc 9839 94bd 7ca9 cc3d 05f1 0fbd
00000190: 96d7 14bc 1276 3ebd 74ff b13b 9b37 6f3d
000001a0: db6e 63be 797b 9e3d 9ad3 f13d 5225 0dbe
000001b0: fc14 c2bd a570 d7bc 2683 93bc 3dd1 5fbd
000001c0: 8450 023e e0db 6f3e e12e 4dbd ac63 273e
000001d0: 90c2 d0bb e1e7 233d ce44 93bd bd5d 7f3e
000001e0: f7b1 1abe ebc7 acbc 4d3c c03c 85a4 abbc
000001f0: e94b 793d af97 2fbe 3933 d4bd 9e54 e63c
00000200: b0fe 80bc 4cf5 dabd 8e5b bdba 6615 fe3d
00000210: aea7 bc3d d541 48bd 4c9b 0cbe 1957 b2bd
00000220: 38cc a53d 7b2c 1cbd 8789 2e3e 85ac c43d
00000230: 1ec6 27be 7ae4 07be 68d5 7d3d eeab 8d3d
00000240: 9111 a3bd b9a3 e23d b285 1d3c efbc cabd
00000250: ea0c eabd 98f2 753d 0eac b6bc 4f40 e33d
00000260: 3769 07bd 1451 c8bc 3ad3 b7bd f1bb bebd
00000270: 75c5 3d3d 6174 c7bd 9f86 07bc ba6e c0bc
00000280: 46f1 b93d b991 17bd 655b cf3b b9b0 cc3d
00000290: 309d ed3d b0ec 153e e035 81be 3990 863d
000002a0: 1c0b 3d3d 09d3 073d dfe1 8bbd a260 1a3d
000002b0: 0e27 44bd 8aef 63bd ba5c a83c dd14 6cbd
000002c0: 4887 99bd 9724 9b3d d4bb 3f3e a604 923c
000002d0: 6e9c 873d e6ca 85bd 0192 3d3c 772a b0bc
000002e0: 3e4f 16bd c45f d83d 769d 083e 5972 9fba
000002f0: cf36 5a3d 4c6b c6bc e1fe 98bd 6367 14bd
00000300: 9aad 783d 47d1 bebd ae13 3cbd b020 de3d
00000310: 37f6 35bc 9cc9 b2bc 14a9 e13c 1877 c0bc
00000320: 2bee 5d3d aaa6 d03d e590 c7bd 7e73 f5bd
00000330: daac f73b 1c5b e53d a0ea 6dbd bf49 423d
00000340: 2051 763d 9de6 8a3d 3f05 a2bd 3580 e23d
00000350: 751a ea3d 6104 f33d a416 803c 21f0 1dbc
00000360: f065 86bd 3b8f 933c 3495 3fbd b196 f73c
00000370: bdd4 c1bd cd26 d93d ba3d 94bc 8654 fdbd
00000380: 25f6 35bc 9801 f83c 2d3b 8b3d 11ca 323d
00000390: 2e14 f43d 847a 47bc 3f6f 1b3d 8ab9 153d
000003a0: 68d2 913c f89f 1fbd 3cbf 78bc 0d85 983d
000003b0: d906 9d3d 6520 fa3d 06db 59bd 7801 233d
000003c0: 476c 79bd f0d0 91bc dbfd 40be 4e20 a6bb
000003d0: 3772 92bd 11aa 4e3d 007f e8bd 94d2 87bb
000003e0: d53f 89bd 20ea e13c 82f5 1dbe 7581 e0bd
000003f0: a8e9 ff3d 5705 27be 8efc 89bc 73b6 11bd

network_body.linear_encoder.seq_layers.2.bias f4 [128]
0.0 0.0 0.0 0.0 0.0 0.0 0.0 0.0
0.0 0.0 0.0 0.0 0.0 0.0 0.0 0.0
0.0 0.0 0.0 0.0 0.0 0.0 0.0 0.0
0.0 0.0 0.0 0.0 0.0 0.0 0.0 0.0
0.0 0.0 0.0 0.0 0.0 0.0 0.0 0.0
0.0 0.0 0.0 0.0 0.0 0.0 0.0 0.0
0.0 0.0 0.0 0.0 0.0 0.0 0.0 0.0
0.0 0.0 0.0 0.0 0.0 0.0 0.0 0.0
0.0 0.0 0.0 0.0 0.0 0.0 0.0 0.0
0.0 0.0 0.0 0.0 0.0 0.0 0.0 0.0
0.0 0.0 0.0 0.0 0.0 0.0 0.0 0.0
0.0 0.0 0.0 0.0 0.0 0.0 0.0 0.0
0.0 0.0 0.0 0.0 0.0 0.0 0.0 0.0
0.0 0.0 0.0 0.0 0.0 0.0 0.0 0.0
0.0 0.0 0.0 0.0 0.0 0.0 0.0 0.0
0.0 0.0 0.0 0.0 0.0 0.0 0.0 0.0
00000000: 0000 0000 0000 0000 0000 0000 0000 0000
00000010: 0000 0000 0000 0000 0000 0000 0000 0000
00000020: 0000 0000 0000 0000 0000 0000 0000 0000
00000030: 0000 0000 0000 0000 0000 0000 0000 0000
00000040: 0000 0000 0000 0000 0000 0000 0000 0000
00000050: 0000 0000 0000 0000 0000 0000 0000 0000
00000060: 0000 0000 0000 0000 0000 0000 0000 0000
00000070: 0000 0000 0000 0000 0000 0000 0000 0000
00000080: 0000 0000 0000 0000 0000 0000 0000 0000
00000090: 0000 0000 0000 0000 0000 0000 0000 0000
000000a0: 0000 0000 0000 0000 0000 0000 0000 0000
000000b0: 0000 0000 0000 0000 0000 0000 0000 0000
000000c0: 0000 0000 0000 0000 0000 0000 0000 0000
000000d0: 0000 0000 0000 0000 0000 0000 0000 0000
000000e0: 0000 0000 0000 0000 0000 0000 0000 0000
000000f0: 0000 0000 0000 0000 0000 0000 0000 0000
00000100: 0000 0000 0000 0000 0000 0000 0000 0000
00000110: 0000 0000 0000 0000 0000 0000 0000 0000
00000120: 0000 0000 0000 0000 0000 0000 0000 0000
00000130: 0000 0000 0000 0000 0000 0000 0000 0000
00000140: 0000 0000 0000 0000 0000 0000 0000 0000
00000150: 0000 0000 0000 0000 0000 0000 0000 0000
00000160: 0000 0000 0000 0000 0000 0000 0000 0000
00000170: 0000 0000 0000 0000 0000 0000 0000 0000
00000180: 0000 0000 0000 0000 0000 0000 0000 0000
00000190: 0000 0000 0000 0000 0000 0000 0000 0000
000001a0: 0000 0000 0000 0000 0000 0000 0000 0000
000001b0: 0000 0000 0000 0000 0000 0000 0000 0000
000001c0: 0000 0000 0000 0000 0000 0000 0000 0000
000001d0: 0000 0000 0000 0000 0000 0000 0000 0000
000001e0: 0000 0000 0000 0000 0000 0000 0000 0000
000001f0: 0000 0000 0000 0000 0000 0000 0000 0000

action_model._continuous_distribution.log_sigma f4 [1, 2]
0.0 0.0
00000000: 0000 0000 0000 0000

action_model._continuous_distribution.mu.weight f4 [2, 128]
0.019936511 -0.010330264 0.009023997 -0.0140193 0.039054982 -0.016207514 0.0005672997 0.02802206
-0.023548264 0.012437791 0.0020948288 -0.007250567 0.008864401 0.003210415 -0.012734234 0.028366243
-0.02081671 -0.016002042 0.021232624 -0.00078584877 -0.01076481 0.012976008 0.016816525 0.02582032
0.01241659 0.008610537 0.024693089 -0.015763836 0.010174978 -0.018574206 -0.017064674 0.04380525
0.011511752 0.012781404 -0.010481059 -0.00997308 -0.020103259 -0.038290035 -0.00040734102 -0.003908616
-0.019046083 -0.013069089 0.0035968677 -0.0045172577 -0.013488772 0.0155569585 -0.004717067 -0.032483473
0.009090796 0.01578916 0.018433092 0.022573423 -0.0117663825 -0.011173088 0.010739158 0.025261248
0.019056022 0.018057548 -0.010142937 -0.01871592 -0.019280042 0.0073791305 0.02618283 -0.0011699359
0.004939873 -0.0051828716 0.013587509 0.025963029 0.035642963 -0.0012585468 -0.015438685 -0.029468102
-0.000912877 0.010598516 0.020785542 -0.023162402 -0.018174754 0.017718753 -0.027163902 0.022999948
-0.01766728 -0.036969505 0.010076173 0.02009382 0.010748587 -0.0032684002 0.016265469 0.03432303
-0.0046427147 -0.0029621476 -0.015201174 -0.004717683 0.014969468 -0.02099173 -0.014342661 0.022638746
0.034151055 0.018265896 -0.009671737 -0.018173857 -0.015342087 0.013556391 -0.0011297887 0.0061889775
0.00893567 0.011780799 0.016146243 -0.00581238 0.019038655 -0.033229675 -0.01301597 0.008158425
0.006179112 0.021287074 0.0029694107 0.016223568 -0.03852154 -0.036506962 -0.0072150803 -0.033733025
0.0017775226 -0.004560959 -0.0005993689 -0.011423419 0.016399385 -0.03614133 0.0035125993 0.018723143
-0.007611427 0.007748568 -0.0012506729 0.004760833 0.017927464 0.0047742585 0.027268672 0.031467568
-0.008195602 0.019783758 0.033439163 0.014308512 -0.025870744 -0.027662387 -0.01059841 0.0019934638
-0.026915714 0.009564353 0.0057892315 0.002694407 0.03090944 -0.034515973 -0.0082161715 0.0035137068
-0.014961632 0.025334526 0.007894176 -0.012250703 0.018514058 -0.029464383 0.0035127688 -0.03292988
0.035557467 0.014915124 -0.026256952 0.01077758 -0.014085759 0.024765959 0.0028980016 0.007689719
0.0035803025 0.009020937 0.01288179 -0.0045064823 -0.005167014 0.006811322 0.0036290516 0.0072025503
-0.004141505 0.01451163 0.026635101 -0.009424477 -0.02280421 -0.0053127524 0.0152151305 -0.008936345
0.00713427 -0.0010073095 0.03348338 -0.016467469 -0.00884554 -0.011787492 0.0040585175 -0.025933145
-0.014069852 -0.011220827 0.0026869297 -0.027568927 -0.0044233487 0.0042351536 0.016789986 0.019408647
0.0064961216 0.021939881 0.021724612 0.023393279 -0.016200893 -0.003529112 -0.009167469 -0.015853511
-0.0086081205 0.006307321 0.009153805 0.012770223 -0.015387773 -0.009008049 0.0131306965 0.03083747
0.033527106 0.023272082 -0.005801776 -0.023463225 -0.016602276 0.00276665 -0.0026701363 -0.0001720409
-0.014510716 0.026661595 -0.004434632 -0.0272968 0.016651122 0.0029139556 -0.0033706687 0.010604727
-0.0072769523 0.018171143 -0.008425218 -0.02080272 0.027559584 -0.00051044155 0.017839475 -0.021372039
-0.014309593 -0.0011985602 0.0039717103 -0.0014722007 -0.027203286 0.014407813 -0.032840263 0.02229474
-0.008639676 -0.022947747 0.0016285096 -0.035524208 0.0028598974 -0.004565708 -0.015117722 -0.0100036515
00000000: e551 a33c 4540 29bc 63d9 133c 35b1 65bc
00000010: 1ef8 1f3d 9fc5 84bc d7b6 143a 858e e53c
00000020: 4ae8 c0bc e0c7 4b3c 6549 093b 2a96 edbb
00000030: fe3b 113c d365 523b 40a3 50bc 5360 e83c
00000040: ce87 aabc b716 83bc 0af0 ad3c 6b01 4eba
00000050: e35e 30bc 5299 543c cfc2 893c 2385 d33c
00000060: f46e 4b3c 3613 0d3c 2949 ca3c 2923 81bc
00000070: f3b4 263c ef28 98bc 37cb 8bbc 226d 333d
00000080: ca9b 3c3c 1869 513c bfb8 2bbc 2166 23bc
00000090: 97af a4bc 03d6 1cbd 6390 d5b9 d913 80bb
000000a0: 8806 9cbc bb1f 56bc 6db9 6b3b 8105 94bb
000000b0: 0300 5dbc 9de2 7e3c a091 9abb 640d 05bd
000000c0: 90f1 143c 4558 813c ff00 973c e6eb b83c
000000d0: c9c7 40bc 540f 37bc 4bf3 2f3c adf0 ce3c
000000e0: 601b 9c3c 6ced 933c 902e 26bc 2152 99bc
000000f0: 2ef1 9dbc a2cc f13b 607d d63c 8958 99ba
00000100: a8de a13b 14d5 a9bb 259e 5e3c 6bb0 d43c
00000110: 5bfe 113d d3f5 a4ba 8af2 7cbc 1767 f1bc
00000120: 234e 6fba 66a5 2d3c 7146 aa3c 14bf bdbc
00000130: 39e3 94bc eb26 913c d586 debc 636a bc3c
00000140: f9ba 90bc 566d 17bd 8816 253c cb9b a43c
00000150: d71a 303c a832 56bb 293f 853c 4e96 0c3d
00000160: ea21 98bb 9720 42bb 580e 79bc cb96 9abb
00000170: 8042 753c d9f6 abbc 7bfd 6abc e474 b93c
00000180: fae1 0b3d 5ca2 953c 3576 1ebc 57e1 94bc
00000190: 605d 7bbc a01b 5e3c 6b15 94ba e8cc ca3b
000001a0: eb66 123c 4104 413c 2045 843c c775 bebb
000001b0: f4f6 9b3c d71b 08bd ef40 55bc eaaa 053c
000001c0: 267a ca3b 3b62 ae3c 729a 423b 4ae7 843c
000001d0: c3c8 1dbd 5388 15bd 7b6c ecbb a42b 0abd
000001e0: c3fb e83a 1974 95bb f71e 1dba 4b29 3bbc
000001f0: 0158 863c ee08 14bd a333 663b 4761 993c
00000200: 4769 f9bb b3e7 fd3b 9eed a3ba c300 9c3b
00000210: 9edc 923c 6271 9c3b 8d62 df3c 23e4 003d
00000220: d946 06bc 8c11 a23c 81f7 083d 406e 6a3c
00000230: e2ee d3bc 3b9c e2bc f4a4 2dbc c6a4 023b
00000240: 587e dcbc ceb3 1c3c 98b3 bd3b a694 303b
00000250: cb35 fd3c 9f60 0dbd 1f9d 06bc 3846 663b
00000260: a221 75bc 5a8a cf3c 9356 013c 2cb7 48bc
00000270: cbaa 973c 4a5f f1bc 7b36 663b 7be1 06bd
00000280: b5a4 113d 905e 743c d218 d7bc 7294 303c
00000290: f5c7 66bc fbe1 ca3c 66ec 3d3b 0afa fb3b
000002a0: 82a3 6a3b 8dcc 133c 250e 533c 1dab 93bb
000002b0: 0e50 a9bb 8331 df3b 62d5 6d3b 5f03 ec3b
000002c0: 76b5 87bb 30c2 6d3c db31 da3c 1f69 1abc
000002d0: e5cf babc 9916 aebb e248 793c bf69 12bc
000002e0: 98c6 e93b b307 84ba de25 093d c9e6 86bc
000002f0: e2ec 10bc 5320 41bc 50fd 843b bf71 d4bc
00000300: 3d85 66bc 8fd7 37bc 3317 303b 3bd8 e1bc
00000310: bdf1 90bb 0bc7 8a3b 278b 893c e2fe 9e3c
00000320: 6bdd d43b 44bb b33c d0f7 b13c 43a3 bf3c
00000330: bcb7 84bc ad48 67bb 2733 16bc 39df 81bc
00000340: 1309 0dbc a5ad ce3b d7f9 153c 333a 513c
00000350: ff1c 7cbc 7f96 13bc 2222 573c dd9e fc3c
00000360: b853 093d 18a5 be3c d31c bebb f335 c0bc
00000370: 7f01 88bc af50 353b 74fd 2ebb e165 34b9
00000380: 5bbe 6dbc 6b69 da3c 6450 91bb 8a9d dfbc
00000390: ef67 883c 10f8 3e3b 70e6 5cbb 73bf 2d3c
000003a0: 8073 eebb a6db 943c ed09 0abc 776a aabc
000003b0: a3c4 e13c 27cf 05ba 1724 923c 6a14 afbc
000003c0: c872 6abc 0219 9dba 1f25 823b dcf6 c0ba
000003d0: 6dd9 debc bf0e 6c3c 8383 06bd 75a3 b63c
000003e0: 6d8d 0dbc eafc bbbc b773 d53a d581 11bd
000003f0: 1e6d 3b3b ef9b 95bb 52b0 77bc 5be6 23bc

action_model._continuous_distribution.mu.bias f4 [2]
0.0 0.0
00000000: 0000 0000 0000 0000

action_model._discrete_distribution.branches.0.weight f4 [2, 128]
-0.0043909946 0.00019868676 -0.003955651 0.008589031 -0.0009766336 0.010646707 -0.008575113 -0.0038744812
0.011505253 0.0011225998 0.0045441356 0.012060931 0.004080732 0.0137617085 -0.0024203507 0.003800432
-0.00039851727 -0.0020607542 -0.002866686 0.012451894 0.009293803 -0.012652747 -0.0050478424 0.0046450943
0.011810803 -0.00017116705 0.00769256 -0.006287501 -0.0008265992 0.009572874 -0.003308884 0.0145978425
-0.021392694 0.011581885 -0.007988489 -0.00030565244 0.019269114 -0.0008374423 0.001323819 0.007721927
0.0063289637 2.2290586e-05 -0.011708677 -0.0058488436 -0.0011250459 0.007669003 -0.0011330646 0.002340283
0.004133822 -0.01471329 -0.00019628322 -0.0021463425 0.0049911384 -7.8584635e-05 -0.0017899948 0.0016804681
-0.006063461 0.0100750355 0.0014063109 -0.006681128 0.0040134294 0.006556018 -0.0049772905 -0.0048043025
-0.00024080428 -0.002154498 -0.009562298 0.0013930307 0.022508191 -0.0021890698 0.006223782 0.00067473314
0.0096091395 -0.01616022 -0.0030541595 -0.0040077274 -0.0058617326 0.010688399 -0.0027350998 0.0025556977
-0.0002252484 0.013986233 -0.0009544077 0.009809881 0.016415304 -0.008297754 -0.013192067 0.0020026113
-0.0041953907 0.0065901256 0.011222529 0.0066862325 0.0042136735 -0.0047503477 -0.0039325133 0.0027430996
-0.01059564 0.015917344 -0.0012637544 0.004416085 0.0053899414 0.008866986 -0.009202112 0.016079547
-0.011530674 0.013327273 0.0065444927 -0.0077578644 0.0016603976 -0.0049407324 0.003879531 -0.0012166545
0.013751193 -0.0015957427 -0.009673607 -0.008765302 0.009740883 -0.0009945838 0.0068758875 -0.0054794676
-0.010619105 -0.005475233 -0.014109962 -0.008117853 0.00011665366 0.0012080797 0.007989376 -0.00079238473
0.01919146 -0.0098971445 -0.012641852 -0.012815604 -0.0009442518 -0.008747379 -0.0096022915 0.008839676
0.0050841076 -0.006487875 0.003321991 0.007022808 0.012309807 -0.010707239 0.006444189 0.0034363715
-0.00038801026 0.00021767139 0.020360382 0.003847011 0.007085071 0.0065511325 -0.0005573015 -0.0076072924
0.002388491 0.0067402194 0.0059394883 -0.019971995 -0.009264342 -0.0014891688 -0.0027678374 -0.008804493
-0.0017949293 0.00577967 0.0022974492 0.009493204 0.00023461567 -0.0044979313 -0.009141757 -0.0011580213
0.0002409262 0.0034831488 -0.002464719 -0.0048699635 -0.003710641 0.003986647 -0.0034410662 0.0011865975
0.0012108765 0.00028804093 -0.008148591 0.0058320723 -0.0064549665 -0.0016940894 0.012733497 -0.004651214
-0.0023575563 0.01758246 0.008440463 -0.0080735 0.009211966 0.0034002138 0.012181542 -0.012052539
-0.005280881 0.0024544324 0.005569942 0.021320077 0.018711278 -0.0001206488 0.0010141709 -0.011301224
0.01809856 -0.0077595077 0.0046168105 -0.005993099 0.003612817 0.005034064 0.0003140563 0.0005093843
-0.0006382934 -0.00018703725 0.009759567 -0.0038254454 0.009332977 -0.00022423973 -0.0026826938 -0.0043063834
0.00010906491 -0.0032985334 -0.0087317685 0.001067887 0.00081079 0.010981928 0.007925345 0.008887091
-0.000951868 0.012323358 0.011678825 0.012813911 0.010784183 0.0049510216 -0.013546188 0.0033172604
-0.006176976 0.0025442182 -0.004479499 0.010956387 0.003217003 -0.0025359127 0.0019281184 -0.011424536
-0.0074547566 -0.0016434506 0.008598081 -0.0035930132 0.016273832 -0.005068698 0.010045885 0.012986618
0.008166836 0.0038782954 0.008712836 0.011620566 -0.009689477 -0.0016155596 0.010949565 0.018914295
00000000: 55e2 8fbb 9256 5039 689e 81bb 02b9 0c3c
00000010: 6302 80ba 876f 2e3c a17e 0cbc 02eb 7dbb
00000020: 8780 3c3c 3324 933a f9e6 943b 369b 453c
00000030: a9b7 853b ca78 613c bf9e 1ebb ab10 793b
00000040: 15f0 d0b9 b80d 07bb 03df 3bbb 0703 4c3c
00000050: 0945 183c 784d 4fbc 5f68 a5bb e035 983b
00000060: 1982 413c 4e7b 33b9 df11 fc3b 6207 cebb
00000070: 22b0 58ba 8bd7 1c3c ddd9 58bb ca2b 6f3c
00000080: bb3f afbc f2c1 3d3c 27e2 02bc fa3f a0b9
00000090: 43da 9d3c cd87 5bba ff83 ad3a 3808 fd3b
000000a0: 3263 cf3b abfc ba37 c0d5 3fbc a8a7 bfbb
000000b0: 4776 93ba 434c fb3b 5783 94ba 6f5f 193b
000000c0: 0375 873b 0310 71bc 60d1 4db9 a7a9 0cbb
000000d0: b48c a33b cecd a4b8 429e eaba 2743 dc3a
000000e0: ffaf c6bb c311 253c f753 b83a 5ded dabb
000000f0: 1683 833b ddd3 d63b 8a18 a3bb 696d 9dbb
00000100: 6880 7cb9 7a32 0dbb 2fab 1cbc 5b96 b63a
00000110: 1963 b83c 7f76 0fbb def0 cb3b 93e0 303a
00000120: a76f 1d3c 7062 84bc 4b28 48bb 4153 83bb
00000130: c713 c0bb 651e 2f3c 5c3f 33bb 7e7d 273b
00000140: a830 6cb9 8326 653c 3731 7aba a0b9 203c
00000150: 6379 863c 4ef3 07bc 8a23 58bc 3e3e 033b
00000160: 7d79 89bb fbf1 d73b b3de 373c 2f18 db3b
00000170: db12 8a3b cea8 9bbb 50dc 80bb 93c5 333b
00000180: 5699 2dbc 1765 823c 90a4 a5ba ceb4 903b
00000190: 1b9e b03b d646 113c 75c4 16bc 41b9 833c
000001a0: 27eb 3cbc a25a 5a3c 2f73 d63b af35 febb
000001b0: b3a1 d93a dee5 a1bb bb3f 7e3b 2778 9fba
000001c0: af4c 613c 3d28 d1ba 0c7e 1ebc 579c 0fbc
000001d0: 3998 1f3c b25c 82ba 204f e13b 1b8d b3bb
000001e0: c1fb 2dbc 9569 b3bb 782d 67bc be00 05bc
000001f0: f5a3 f438 6e58 9e3a dfe5 023c 0ab8 4fba
00000200: 6937 9d3c a227 22bc c51f 4fbc 8af8 51bc
00000210: aa87 77ba 2b51 0fbc ee52 1dbc 4ad4 103c
00000220: 9698 a63b 3d98 d4bb c3b5 593b 951f e63b
00000230: 13af 493c 6a6d 2fbc c729 d33b bf34 613b
00000240: db6d cbb9 b83e 6439 d1ca a63c 221e 7c3b
00000250: e229 e83b e2aa d63b df17 12ba 9846 f9bb
00000260: 3b88 1c3b 0fdd dc3b 0aa0 c23b 4f9c a3bc
00000270: 77c9 17bc 3730 c3ba 9b64 35bb b840 10bc
00000280: d543 ebba 6363 bd3b cd90 163b 6289 1b3c
00000290: 2a03 7639 6263 93bb 4fc7 15bc bfc8 97ba
000002a0: 22a1 7c39 8a45 643b 1f87 21bb 3794 9fbb
000002b0: 3a2e 73bb 6ba2 823b 8383 61bb 9b87 9b3a
000002c0: 46b6 9e3a 3304 9739 ab81 05bc f81a bf3b
000002d0: 2f84 d3bb 350c deba 28a0 503c 3669 98bb
000002e0: 3b81 1abb 1709 903c de49 0a3c b746 04bc
000002f0: c9ed 163c 1fd6 5e3b 1795 473c 0378 45bc
00000300: 3e0b adbb 8bda 203b 0f84 b63b 71a7 ae3c
00000310: 6548 993c d504 fdb8 eeed 843a c528 39bc
00000320: 6e43 943c 7843 febb 9d48 973b c261 c4bb
00000330: 03c5 6c3b caf4 a43b eca7 a439 3488 053a
00000340: 2553 27ba 6e1f 44b9 97e6 1f3c 53b4 7abb
00000350: 58e9 183c e521 6bb9 22d0 2fbb 901c 8dbb
00000360: c7b9 e438 352c 58bb b10f 0fbc 57f8 8b3a
00000370: 328b 543a 8bed 333c 4ed9 013c 299b 113c
00000380: c886 79ba e9e7 493c 8b58 3f3c 70f1 513c
00000390: 24b0 303c 2e3c a23b d5f0 5dbc 6566 593b
000003a0: 3b68 cabb e6bc 263b c3c8 92bb 6b82 333c
000003b0: 5bd4 523b 8e31 26bb ebb8 fc3a fa2d 3bbc
000003c0: 0847 f4bb 0d69 d7ba f7de 0c3c c278 6bbb
000003d0: b350 853c 5217 a6bb 7f97 243c d3c5 543c
000003e0: 31ce 053c 002b 7e3b 48c0 0e3c 3064 3e3c
000003f0: 9dc0 1ebc 2fc1 d3ba ce65 333c 27f2 9a3c

action_model._discrete_distribution.branches.0.bias f4 [2]
0.0 0.0
00000000: 0000 0000 0000 0000

critic.network_body.linear_encoder.seq_layers.0.weight f4 [128, 9]
0.14651905 -0.3426859 -0.115883514 0.5785479 -0.21393108 0.38334224 0.30959237 -0.43480927
0.08546826 0.038766135 -0.40115103 -0.15160525 0.03858301 -1.1367846 0.47368893 -0.056987017
0.063439526 -0.28386635 0.4131301 0.025888406 0.11084837 0.37167045 -0.47547692 -0.7335329
-0.46963143 0.17826574 -0.24110371 -0.15829368 0.0068876976 -0.009612242 -0.36002845 0.47837055
-0.07086187 -0.42074534 -0.4516341 -0.21033305 -0.36827296 -0.26435128 0.3656772 0.2922415
-0.010257552 0.0119651025 -0.19429293 -0.23071598 0.044000354 -0.35641253 -0.35147727 -0.3055357
-0.4017845 -0.18610911 0.3857736 0.22069606 0.021238953 -0.06817953 0.13999948 -0.49470574
-0.9287354 0.626189 -0.2929923 -0.27428585 0.25093886 -0.07648155 0.14284492 0.07434329
0.27297866 0.19959466 -0.91678333 -0.20162952 -0.22545093 -0.33283234 0.061780524 -0.07980788
0.07271384 -0.05800411 0.21433342 -0.5082086 0.1759582 0.039720368 -0.409764 0.1296938
0.3023035 0.24128698 0.14348973 -0.16582511 0.1332263 0.15363255 0.6726975 -0.08760196
-0.030759163 -0.23179524 -0.30879053 -0.082414865 0.0031055685 -0.09020728 -0.06880166 -0.025439892
-0.121948265 -0.028669015 -0.49002957 0.3358626 -0.50572205 0.018117404 0.8992798 -0.016699146
0.03691798 -0.044302743 -0.47831354 -0.07400264 -0.019665705 -0.008792511 0.12002191 0.2868062
-0.26269764 0.21186504 -0.15368004 0.29055616 0.31759837 -0.27178878 -0.004913093 -0.56266797
0.47330174 -0.30352226 0.31177476 0.18989283 0.13460872 -0.26444107 -0.27218983 -0.25449014
0.21284316 0.09730067 -0.00079545093 -0.23840515 0.3046118 -0.38573346 -0.39219266 -0.23376672
0.25721842 0.19260484 0.32968485 0.1523107 -0.4847507 -0.84475255 0.07780568 0.17827967
-0.5215429 -0.37365645 0.4227001 0.56964445 -0.050378345 -0.06762718 0.15033074 0.42898875
-0.2416827 -0.41345006 0.0041783284 0.33749533 0.25069314 -0.18593977 -0.33020568 0.25111592
-0.535792 -0.16035274 0.097878754 0.13898888 -0.3082799 0.39784667 -0.48929507 0.33804998
0.029306095 -0.34841812 0.08601921 -0.2278841 -0.24424073 0.09386935 0.15374263 0.23444602
0.5024023 -0.07119194 0.0114063155 0.61399925 -0.3397859 -0.16421634 -0.48307115 0.7650914
-0.29373595 -0.36267358 0.07443634 0.21910885 -0.63347447 0.07125401 -0.07787213 -0.17355523
0.21121883 0.10514252 0.62921625 -0.13310088 0.17487797 -0.023828018 0.1295049 0.48348188
0.3248535 0.42501864 -0.30606812 0.5390867 -0.26974988 0.14236 -0.21444409 -0.3961147
-0.93952364 -0.40818855 -0.5876546 -0.1446316 0.028845292 0.17620926 -0.15577123 -0.007863075
0.49063775 -0.38949388 0.23799834 0.06981333 0.17982107 0.5345872 0.04358109 -0.3154444
-0.48464665 -0.18520498 -0.1904921 -0.26687774 0.14652637 -0.43080753 0.08377265 -0.3077411
0.58470523 0.06305242 -0.2603676 -0.6907371 -0.07086154 -0.23648411 -0.14577086 0.60781264
0.042058434 -0.042381566 0.32545963 -0.31509572 -0.43898258 0.099431634 0.23347181 -0.12734844
-0.029731687 -0.04381346 0.12426126 -0.118454896 0.001746946 0.47247443 -0.12526807 -0.674348
00000000: 1709 163e 8774 afbe 5654 edbd b71b 143f
00000010: c010 5bbe 6f45 c43e e482 9e3e 529f debe
00000020: fc09 af3d 3dc9 1e3d ab63 cdbe 683e 1bbe
00000030: 3809 1e3d 2882 91bf 5b87 f23e 386b 69bd
00000040: 95ec 813d ee56 91be ca85 d33e ec13 d43c
00000050: 7804 e33d 974b be3e b671 f3be d0c8 3bbf
00000060: 8873 f0be 4b8b 363e e4e3 76be bd17 22be
00000070: 32b2 e13b aa7c 1dbc a655 b8be fcec f43e
00000080: 0720 91bd ef6b d7be 963c e7be 8c61 57be
00000090: 468e bcbe 0d59 87be 0b3a bb3e aea0 953e
000000a0: 4b0f 28bc 4709 443c baf4 46be cf40 6cbe
000000b0: b739 343d b47b b6be d4f4 b3be 2d6f 9cbe
000000c0: b3b6 cdbe 6393 3ebe 1e84 c53e 26fe 613e
000000d0: 50fd ad3c b6a1 8bbd 065c 0f3e 124a fdbe
000000e0: 9ac1 6dbf ec4d 203f 1603 96be 326f 8cbe
000000f0: 0f7b 803e 5ca2 9cbd f045 123e 4b41 983d
00000100: dcc3 8b3e 8b62 4c3e 50b2 6abf f877 4ebe
00000110: 9cdc 66be 0069 aabe 930d 7d3d 5072 a3bd
00000120: feea 943d b895 6dbd 387a 5b3e f519 02bf
00000130: 632e 343e d3b1 223d 96cc d1be 74ce 043e
00000140: 86c7 9a3e ef13 773e f9ee 123e 0fce 29be
00000150: 7a6c 083e da51 1d3e e735 2c3f a868 b3bd
00000160: a4fa fbbc bb5b 6dbe cb19 9ebe 20c9 a8bd
00000170: cb86 4b3b 98be b8bd e2e7 8cbd 5267 d0bc
00000180: 03c0 f9bd 48db eabc 28e5 fabe 2ff6 ab3e
00000190: 0077 01bf f36a 943c 3337 663f a6cc 88bc
000001a0: 4f37 173d cb76 35bd 83e5 f4be b28e 97bd
000001b0: f919 a1bc 770e 10bc 0cce f53d 43d8 923e
000001c0: 4e80 86be 26f3 583e 4d5e 1dbe c7c3 943e
000001d0: 419c a23e e627 8bbe 03fe a0bb 020b 10bf
000001e0: 9b54 f23e 4567 9bbe f1a0 9f3e 4473 423e
000001f0: ded6 093e d264 87be 775c 8bbe 884c 82be
00000200: 8ff3 593e 9345 c73d cf85 50ba 7b20 74be
00000210: 14f6 9b3e db7e c5be 7acd c8be 8b60 6fbe
00000220: 22b2 833e 343a 453e 74cc a83e 56f7 1b3e
00000230: 3e31 f8be b441 58bf 9658 9f3d f28e 363e
00000240: d683 05bf e64f bfbe 266c d83e 38d4 113f
00000250: 8659 4ebd 1e80 8abd 4df0 193e 6aa4 db3e
00000260: ab7b 77be baaf d3be 5cea 883b 30cc ac3e
00000270: da5a 803e ff66 3ebe b810 a9be 4492 803e
00000280: aa29 09bf 8233 24be a874 c83d 1a53 0e3e
00000290: ddd6 9dbe 8fb2 cb3e e284 fabe e314 ad3e
000002a0: 5613 f03c dc63 b2be d72a b03d 735a 69be
000002b0: 3e1a 7abe 933e c03d b56e 1d3e 9e12 703e
000002c0: 709d 003f 14cd 91bd 8ee1 3a3c 0e2f 1d3f
000002d0: 6bf8 adbe 5428 28be 1a55 f7be 08dd 433f
000002e0: 8f64 96be 5ab0 b9be 1472 983d 125e 603e
000002f0: 622b 22bf 9fed 913d 6c7b 9fbd 76b8 31be
00000300: c049 583e f654 d73d 5114 213f 994b 08be
00000310: 3613 333e fa32 c3bc ef9c 043e f08a f73e
00000320: 3353 a63e 0b9c d93e f6b4 9cbe 9601 0a3f
00000330: a81c 8abe d2c6 113e 3b97 5bbe 8ccf cabe
00000340: 9f84 70bf 17fe d0be 8870 16bf 4e1a 14be
00000350: f64c ec3c 3370 343e 7e82 1fbe 20d4 00bc
00000360: df34 fb3e be6b c7be d6b5 733e 4bfa 8e3d
00000370: 0423 383e b5da 083f 1682 323d ee81 a1be
00000380: 9b23 f8be 60a6 3dbe 5c10 43be 33a4 88be
00000390: 020b 163e ce92 dcbe ff90 ab3d 3e90 9dbe
000003a0: 3eaf 153f a121 813d e74e 85be 26d4 30bf
000003b0: db1f 91bd e428 72be f544 15be 9c99 1b3f
000003c0: 7745 2c3d 4b98 2dbd a5a2 a63e 3a54 a1be
000003d0: 53c2 e0be d0a2 cb3d 3c13 6f3e a167 02be
000003e0: de8f f3bc be75 33bd b07c fe3d 7b98 f2bd
000003f0: c8f9 e43a 2be8 f13e 4646 00be 12a2 2cbf

critic.network_body.linear_encoder.seq_layers.0.bias f4 [128]
0.0 0.0 0.0 0.0 0.0 0.0 0.0 0.0
0.0 0.0 0.0 0.0 0.0 0.0 0.0 0.0
0.0 0.0 0.0 0.0 0.0 0.0 0.0 0.0
0.0 0.0 0.0 0.0 0.0 0.0 0.0 0.0
0.0 0.0 0.0 0.0 0.0 0.0 0.0 0.0
0.0 0.0 0.0 0.0 0.0 0.0 0.0 0.0
0.0 0.0 0.0 0.0 0.0 0.0 0.0 0.0
0.0 0.0 0.0 0.0 0.0 0.0 0.0 0.0
0.0 0.0 0.0 0.0 0.0 0.0 0.0 0.0
0.0 0.0 0.0 0.0 0.0 0.0 0.0 0.0
0.0 0.0 0.0 0.0 0.0 0.0 0.0 0.0
0.0 0.0 0.0 0.0 0.0 0.0 0.0 0.0
0.0 0.0 0.0 0.0 0.0 0.0 0.0 0.0
0.0 0.0 0.0 0.0 0.0 0.0 0.0 0.0
0.0 0.0 0.0 0.0 0.0 0.0 0.0 0.0
0.0 0.0 0.0 0.0 0.0 0.0 0.0 0.0
00000000: 0000 0000 0000 0000 0000 0000 0000 0000
00000010: 0000 0000 0000 0000 0000 0000 0000 0000
00000020: 0000 0000 0000 0000 0000 0000 0000 0000
00000030: 0000 0000 0000 0000 0000 0000 0000 0000
00000040: 0000 0000 0000 0000 0000 0000 0000 0000
00000050: 0000 0000 0000 0000 0000 0000 0000 0000
00000060: 0000 0000 0000 0000 0000 0000 0000 0000
00000070: 0000 0000 0000 0000 0000 0000 0000 0000
00000080: 0000 0000 0000 0000 0000 0000 0000 0000
00000090: 0000 0000 0000 0000 0000 0000 0000 0000
000000a0: 0000 0000 0000 0000 0000 0000 0000 0000
000000b0: 0000 0000 0000 0000 0000 0000 0000 0000
000000c0: 0000 0000 0000 0000 0000 0000 0000 0000
000000d0: 0000 0000 0000 0000 0000 0000 0000 0000
000000e0: 0000 0000 0000 0000 0000 0000 0000 0000
000000f0: 0000 0000 0000 0000 0000 0000 0000 0000
00000100: 0000 0000 0000 0000 0000 0000 0000 0000
00000110: 0000 0000 0000 0000 0000 0000 0000 0000
00000120: 0000 0000 0000 0000 0000 0000 0000 0000
00000130: 0000 0000 0000 0000 0000 0000 0000 0000
00000140: 0000 0000 0000 0000 0000 0000 0000 0000
00000150: 0000 0000 0000 0000 0000 0000 0000 0000
00000160: 0000 0000 0000 0000 0000 0000 0000 0000
00000170: 0000 0000 0000 0000 0000 0000 0000 0000
00000180: 0000 0000 0000 0000 0000 0000 0000 0000
00000190: 0000 0000 0000 0000 0000 0000 0000 0000
000001a0: 0000 0000 0000 0000 0000 0000 0000 0000
000001b0: 0000 0000 0000 0000 0000 0000 0000 0000
000001c0: 0000 0000 0000 0000 0000 0000 0000 0000
000001d0: 0000 0000 0000 0000 0000 0000 0000 0000
000001e0: 0000 0000 0000 0000 0000 0000 0000 0000
000001f0: 0000 0000 0000 0000 0000 0000 0000 0000

critic.network_body.linear_encoder.seq_layers.2.weight f4 [128, 128]
0.17320892 -0.1108901 0.16108724 0.07389018 0.026577953 0.08875893 0.081262685 0.055619657
-0.06032587 -0.07078688 0.03957766 0.13470136 0.13392764 0.097233705 -0.01047807 -0.13715884
0.11550573 0.009767786 0.15219077 0.012011503 -0.14123386 -0.132143 -0.174047 0.028785111
-0.06289995 -0.11833322 -0.021866648 -0.12263443 -0.04578164 0.010795284 -0.124899425 0.018853996
-0.05567238 -0.061764304 0.098790444 0.1778345 -0.0050376905 0.13573535 0.061478887 0.1472519
-0.0152619295 0.089031704 -0.0882319 -0.10969157 -0.06559602 -0.12237629 0.08151311 0.0705944
0.023235483 0.09466698 0.10570078 -0.15106598 0.064850435 0.08704037 -0.13977742 0.01669342
-0.16875991 0.2505861 -0.09389798 0.19597228 0.09308454 0.036187872 0.0015752694 0.08088535
0.0445647 0.1465896 -0.03011672 0.010732712 0.040949322 -0.1605292 0.06553457 0.056377225
-0.0014656489 0.13363247 0.018739313 -0.053934906 0.10992202 0.041753933 0.12712452 -0.05651932
0.01731603 0.070563115 -0.10784156 -0.10035463 0.019741097 -0.013874654 -0.05569914 -0.083078004
-0.0102607785 0.04268098 -0.15329145 0.02701462 0.24937008 0.118129335 -0.048967414 0.14415431
0.011104375 -0.096704476 -0.113628715 0.012567804 0.086557336 0.057064347 -0.05226388 0.12992875
0.024318902 0.10640218 -0.0048467545 0.019851897 -0.021643782 0.017924784 0.08699031 -0.0031267307
0.04163321 -0.098181196 0.0034191874 -0.027619202 -0.1675011 -0.009747006 0.14301406 -0.03323426
-0.08943041 -0.027613811 0.01213386 -0.052774392 -0.15513867 0.03729803 -0.15431753 0.016314445
0.049784042 -0.0031998127 -0.00321553 -0.13525765 -0.015210218 0.15722351 0.0780756 -0.0648703
-0.04666474 -0.20670283 0.031494368 0.11110567 0.12365422 -0.06980197 -0.008141746 0.22275157
-0.09881279 -0.05096998 0.014743876 -0.1400494 0.08400889 -0.016817365 0.10765133 -0.09586073
-0.044706833 0.0755291 0.027682219 -0.116548 -0.064340584 0.019083079 0.022185382 -0.083959885
-0.088727556 -0.10218036 -0.0052228896 -0.035232227 -0.07780217 -0.10222724 -0.032169987 -0.046297424
0.09336229 -0.017934699 0.02658762 -0.001211504 0.023671795 0.0901982 -0.059697893 0.039185777
0.120910875 -0.060931213 0.07758129 -0.0336405 0.004361758 0.1836259 0.059620295 -0.04489318
0.13717969 -0.021748863 0.019974723 -0.09089227 0.09441041 -0.19310012 0.0636393 -0.083180815
-0.058521666 0.18858114 -0.051894896 -0.19315252 -0.09509432 -0.115371905 -0.059974436 0.010012708
0.11393837 -0.038709223 -0.0012897343 -0.08170604 0.013294157 -0.12559174 0.00040741815 0.15834926
0.09783515 0.03597102 -0.05455203 -0.19072136 0.09503205 0.008593339 0.12670627 0.076410726
0.0032977408 0.1510251 -0.12601902 -0.104167186 -0.0025258719 -0.11347001 0.1019679 -0.12166925
-0.10402981 -0.12998648 -0.032616083 -0.0026478758 0.0093930885 -0.032304056 0.017210603 0.028737579
0.11350436 0.13179147 0.018797321 0.048418224 0.011200209 -0.06164312 0.0749533 0.043379836
0.009039088 -0.107409514 -0.029462902 0.072879255 -0.044017576 0.037234228 -0.22587913 -0.017391808
-0.09422559 0.085632525 -0.0055441214 0.027136354 0.06416114 0.08245605 -0.0093220165 0.10919699
00000000: ae5d 313e 591a e3bd 0ef4 243e bc53 973d
00000010: 02ba d93c 3ec7 b53d 0d6d a63d 70d1 633d
00000020: 4218 77bd b6f8 90bd 2f1c 223d 27ef 093e
00000030: 5424 093e 7722 c73d 36ac 2bbc 5e73 0cbe
00000040: 458e ec3d 1009 203c e6d7 1b3e e5cb 443c
00000050: 9c9f 10be 7f50 07be 6039 32be c1ce eb3c
00000060: b0d1 80bd b058 f2bd af21 b3bc c327 fbbd
00000070: 8785 3bbd b4de 303c 45cb ffbd b273 9a3c
00000080: b908 64bd 91fc 7cbd a552 ca3d 3f1a 363e
00000090: 3613 a5bb 35fe 0a3e 49d1 7b3d 34c9 163e
000000a0: 2c0d 7abc 4156 b63d edb2 b4bd f9a5 e0bd
000000b0: 3557 86bd 6ca0 fabd 58f0 a63d cc93 903d
000000c0: 5758 be3c c3e0 c13d a779 d83d 0ab1 1abe
000000d0: 4ed0 843d 3942 b23d d021 0fbe a4c0 883c
000000e0: 66cf 2cbe d24c 803e 964d c0bd f5ac 483e
000000f0: 1ba3 be3d bc39 143d 4579 ce3a 38a7 a53d
00000100: 7a89 363d 961b 163e 57b7 f6bc 42d8 2f3c
00000110: 7aba 273d c461 24be fd36 863d ceeb 663d
00000120: 041b c0ba f3d6 083e 3083 993c d9ea 5cbd
00000130: cc1e e13d 2c06 2b3d ee2c 023e cd80 67bd
00000140: 59da 8d3c 6583 903d 09dc dcbd ba86 cdbd
00000150: 15b8 a13c 8452 63bc c824 64bd cd24 aabd
00000160: d31c 28bc 40d2 2e3d 6ff8 1cbe c44d dd3c
00000170: df5a 7f3e cbed f13d 0e92 48bd 309d 133e
00000180: 20ef 353c ff0c c6bd 2cb6 e8bd 31e9 4d3c
00000190: f944 b13d 4ebc 693d a612 56bd 0b0c 053e
000001a0: 6f38 c73c 63e9 d93d 86d1 9ebb 72a0 a23c
000001b0: 4d4e b1bc ffd6 923c fa27 b23d d6e9 4cbb
000001c0: 9687 2a3d 3913 c9bd 7214 603b aa41 e2bc
000001d0: 6985 2bbe e8b1 1fbc 4772 123e a620 08bd
000001e0: 4a27 b7bd 5c36 e2bc 19cd 463c f629 58bd
000001f0: acdc 1ebe d2c5 183d 6a05 1ebe dfa5 853c
00000200: 5aea 4b3d f3b3 51bb a4bb 52bb fb80 0abe
00000210: 4734 79bc 33ff 203e 1ae6 9f3d b8da 84bd
00000220: 8723 3fbd e8a9 53be 3d00 013d 5f8b e33d
00000230: 6c3e fd3d 56f4 8ebd f564 05bc fd18 643e
00000240: 5c5e cabd e6c5 50bd 4c90 713c 1c69 0fbe
00000250: da0c ac3d 92c4 89bc 4d78 dc3d a152 c4bd
00000260: 831e 37bd 00af 9a3d d2c5 e23c b8b0 eebd
00000270: ffc4 83bd 1e54 9c3c 1ebe b53c 29f3 abbd
00000280: cbb6 b5bd f043 d1bd c624 abbb ab4f 10bd
00000290: be56 9fbd 845c d1bd adc4 03bd 5ea2 3dbd
000002a0: ba34 bf3d caeb 92bc 48ce d93c 54cb 9eba
000002b0: 5aeb c13c d5b9 b83d c785 74bd 4481 203d
000002c0: 1fa0 f73d 0293 79bd f0e2 9e3d 9fca 09bd
000002d0: 14ed 8e3b 6e08 3c3e 6934 743d e9e1 37bd
000002e0: d578 0c3e ac2a b2bc 08a2 a33c ba25 babd
000002f0: 3f5a c13d 0abc 45be 5255 823d b45a aabd
00000300: 6ab4 6fbd 6a1b 413e be8f 54bd c6c9 45be
00000310: d0c0 c2bd 1b48 ecbd c1a7 75bd 570c 243c
00000320: 8558 e93d 908d 1ebd 4d0c a9ba 7f55 a7bd
00000330: bccf 593c 1f9b 00be bd9a d539 4f26 223e
00000340: cc5d c83d 5956 133d f371 5fbd 764c 43be
00000350: 2aa0 c23d 13cb 0c3c 4abf 013e 3a7d 9c3d
00000360: e91e 583b 53a6 1a3e 210b 01be 9b55 d5bd
00000370: 1989 25bb f762 e8bd 8cd4 d03d ba2d f9bd
00000380: 950d d5bd 2d1b 05be 7198 05bd fc87 2dbb
00000390: 78e5 193c 4251 04bd 40fd 8c3c 126b eb3c
000003a0: f974 e83d 58f4 063e d7fc 993c 3052 463d
000003b0: 1581 373c 7f7d 7cbd 1e81 993d 0eaf 313d
000003c0: af18 143c 85f9 dbbd 2f5c f1bc b841 953d
000003d0: c64b 34bd eb82 183d dc4c 67be 4479 8ebc
000003e0: 59f9 c0bd 1b60 af3d 76ab b5bb 0f4d de3c
000003f0: ea66 833d b8de a83d 5fbb 18bc aca2 df3d

critic.network_body.linear_encoder.seq_layers.2.bias f4 [128]
0.0 0.0 0.0 0.0 0.0 0.0 0.0 0.0
0.0 0.0 0.0 0.0 0.0 0.0 0.0 0.0
0.0 0.0 0.0 0.0 0.0 0.0 0.0 0.0
0.0 0.0 0.0 0.0 0.0 0.0 0.0 0.0
0.0 0.0 0.0 0.0 0.0 0.0 0.0 0.0
0.0 0.0 0.0 0.0 0.0 0.0 0.0 0.0
0.0 0.0 0.0 0.0 0.0 0.0 0.0 0.0
0.0 0.0 0.0 0.0 0.0 0.0 0.0 0.0
0.0 0.0 0.0 0.0 0.0 0.0 0.0 0.0
0.0 0.0 0.0 0.0 0.0 0.0 0.0 0.0
0.0 0.0 0.0 0.0 0.0 0.0 0.0 0.0
0.0 0.0 0.0 0.0 0.0 0.0 0.0 0.0
0.0 0.0 0.0 0.0 0.0 0.0 0.0 0.0
0.0 0.0 0.0 0.0 0.0 0.0 0.0 0.0
0.0 0.0 0.0 0.0 0.0 0.0 0.0 0.0
0.0 0.0 0.0 0.0 0.0 0.0 0.0 0.0
00000000: 0000 0000 0000 0000 0000 0000 0000 0000
00000010: 0000 0000 0000 0000 0000 0000 0000 0000
00000020: 0000 0000 0000 0000 0000 0000 0000 0000
00000030: 0000 0000 0000 0000 0000 0000 0000 0000
00000040: 0000 0000 0000 0000 0000 0000 0000 0000
00000050: 0000 0000 0000 0000 0000 0000 0000 0000
00000060: 0000 0000 0000 0000 0000 0000 0000 0000
00000070: 0000 0000 0000 0000 0000 0000 0000 0000
00000080: 0000 0000 0000 0000 0000 0000 0000 0000
00000090: 0000 0000 0000 0000 0000 0000 0000 0000
000000a0: 0000 0000 0000 0000 0000 0000 0000 0000
000000b0: 0000 0000 0000 0000 0000 0000 0000 0000
000000c0: 0000 0000 0000 0000 0000 0000 0000 0000
000000d0: 0000 0000 0000 0000 0000 0000 0000 0000
000000e0: 0000 0000 0000 0000 0000 0000 0000 0000
000000f0: 0000 0000 0000 0000 0000 0000 0000 0000
00000100: 0000 0000 0000 0000 0000 0000 0000 0000
00000110: 0000 0000 0000 0000 0000 0000 0000 0000
00000120: 0000 0000 0000 0000 0000 0000 0000 0000
00000130: 0000 0000 0000 0000 0000 0000 0000 0000
00000140: 0000 0000 0000 0000 0000 0000 0000 0000
00000150: 0000 0000 0000 0000 0000 0000 0000 0000
00000160: 0000 0000 0000 0000 0000 0000 0000 0000
00000170: 0000 0000 0000 0000 0000 0000 0000 0000
00000180: 0000 0000 0000 0000 0000 0000 0000 0000
00000190: 0000 0000 0000 0000 0000 0000 0000 0000
000001a0: 0000 0000 0000 0000 0000 0000 0000 0000
000001b0: 0000 0000 0000 0000 0000 0000 0000 0000
000001c0: 0000 0000 0000 0000 0000 0000 0000 0000
000001d0: 0000 0000 0000 0000 0000 0000 0000 0000
000001e0: 0000 0000 0000 0000 0000 0000 0000 0000
000001f0: 0000 0000 0000 0000 0000 0000 0000 0000

critic.value_heads.value_heads.extrinsic.weight f4 [1, 128]
0.18190083 0.1772891 -0.03349127 0.0856486 -0.031337768 0.15383942 -0.113282435 -0.09734478
-0.063620746 0.06537653 -0.024911923 -0.073150426 -0.07895966 0.19268191 -0.13925591 0.095722415
0.1849677 0.003568816 -0.014834802 0.1323929 0.1456762 -0.11650769 0.08453464 -0.10213377
-0.18823995 0.008978344 0.11791526 0.17366798 -0.078007974 -0.08877606 0.11922021 -0.06830934
-0.17622139 -0.03865414 0.20824079 0.08733431 -0.021818807 -0.09934265 -0.076136425 -0.19433267
0.17025833 0.012625907 0.06352073 -0.009876576 0.15445255 0.20131601 -0.16518839 -0.0021692254
-0.13292266 0.0072024963 -0.029692458 -0.2000627 0.092296645 -0.123790465 0.029214215 -0.18980439
0.123408645 -0.0950929 0.04743419 0.0029071346 -0.18729265 -0.15593566 -0.044535782 0.039228797
-0.12556434 0.07997637 0.093664825 -0.13489155 0.17434427 -0.17341837 0.060314592 -0.2131119
0.0032277815 -0.18108566 -0.05426237 0.15867366 0.050521675 0.20642738 -0.031661924 0.09653064
0.1844559 0.16938442 -0.046155293 -0.18660584 0.050262112 0.16290222 -0.1972421 -0.21093795
-0.17635036 0.03927024 -0.011246254 0.18648578 0.07965799 -0.18907556 0.07522984 -0.17550197
-0.053042836 0.07214821 0.19015944 -0.014808578 0.037139706 -0.1491671 0.0028481318 0.047410715
0.12904476 -0.04932042 0.0026299881 -0.15541634 -0.11878023 0.10957397 0.19497085 -0.09036557
0.12604833 -0.16646126 0.17988324 -0.03769133 0.16658084 0.19403994 -0.16043663 0.1471885
0.03505761 0.06572291 0.045888774 0.08977659 0.004080766 0.14994045 -0.2007932 -0.0488793
00000000: 3644 3a3e 468b 353e 242e 09bd 8868 af3d
00000010: 085c 00bd 1588 1d3e 9f00 e8bd b35c c7bd
00000020: 984b 82bd 21e4 853d 1714 ccbc e4cf 95bd
00000030: 9ab5 a1bd 684e 453e 1a99 0ebe 1d0a c43d
00000040: 2c68 3d3e cce2 693b ab0d 73bc 0192 073e
00000050: 242c 153e 959b eebd 7f20 ad3d 832b d1bd
00000060: f9c1 40be e719 133c 8e7d f13d 05d6 313e
00000070: a5c2 9fbd 39d0 b5bd ba29 f43d c4e5 8bbd
00000080: 6173 34be ce53 1ebd 133d 553e 55dc b23d
00000090: 5bbd b2bc 2974 cbbd 6aed 9bbd 25ff 46be
000000a0: 3358 2e3e e4dc 4e3c 2817 823d 5dd1 21bc
000000b0: cf28 1e3e c925 4e3e 2527 29be 9029 0ebb
000000c0: e11c 08be eb02 ec3b 993d f3bc 3ddd 4cbe
000000d0: 0606 bd3d db85 fdbd a652 ef3c 155c 42be
000000e0: acbd fc3d 11c0 c2bd 5a4a 423d a085 3e3b
000000f0: a5c9 3fbe 99ad 1fbe 276b 36bd 60ae 203d
00000100: f093 00be a7ca a33d 58d3 bf3d 0321 0abe
00000110: 4e87 323e 9694 31be 6f0c 773d 023a 5abe
00000120: 3089 533b 856e 39be 3842 5ebd 597b 223e
00000130: d1ef 4e3d b361 533e efaf 01bd dbb1 c53d
00000140: 02e2 3c3e 1c73 2d3e 550d 3dbd 9a15 3fbe
00000150: a5df 4d3d d7cf 263e d5f9 49be 1e00 58be
00000160: 3095 34be d5d9 203d 3542 38bc 21f6 3e3e
00000170: ba23 a33d 069d 41be 1a12 9a3d cab6 33be
00000180: 7243 59bd 71c2 933d 28b9 423e ae9f 72bc
00000190: ce1f 183d 43bf 18be b9a7 3a3b bd31 423d
000001a0: 4f24 043e 3504 4abd e15b 2c3b 7625 1fbe
000001b0: 0d43 f3bd 5168 e03d 70a6 473e 9511 b9bd
000001c0: d012 013e d274 2abe 5033 383e 3962 1abd
000001d0: 2b94 2a3e 68b2 463e 8049 24be 95b8 163e
000001e0: 9298 0f3d bc99 863d def5 3b3d cadc b73d
000001f0: f2b7 853b fd89 193e bc9c 4dbe a935 48bd
