results/ppo/Car Agent/Car Agent-24223.pt (torch, 444431 bytes, 42 tensors)

network_body.linear_encoder.seq_layers.0.weight f4 [128, 6]
0	0xbe52de3f	-0.20592593
1	0x3f19af8c	0.6003349
2	0x3e949759	0.2902172
3	0x3ee10760	0.4395094
4	0xbe9c84be	-0.30570024
5	0xbeca527e	-0.39516062
6	0x3ea47720	0.32122135
7	0x3f1abeee	0.60447586
8	0x3da3eee3	0.080045484
9	0x3de7b593	0.113139294
10	0xbcbda02e	-0.023147669
11	0x3ed3a845	0.41339317
12	0xbe937ba1	-0.2880526
13	0xbdeedfcd	-0.1166378
14	0x3dc1a4c9	0.094552584
15	0x3e14cd74	0.14531499
16	0xbe900b37	-0.28133556
17	0x3ef5c813	0.48004207
18	0x3d24086e	0.0400471
19	0xbf647a15	-0.8924878
20	0x3dbe141c	0.09281179
21	0x3e64abb0	0.22331119
22	0x3d7722aa	0.060335793
23	0x3e344364	0.17603832
24	0xbde39bfd	-0.11113737
25	0xbdb9d476	-0.09073727
26	0x3e3c6e91	0.18401553
27	0x3e8f87e8	0.28033376
28	0x3c8ad1d8	0.016945764
29	0xbf8a6e99	-1.0815002
30	0x3e60a447	0.21937667
31	0x3ec8c97a	0.39216214
32	0xbf03fabc	-0.51554465
33	0x3f328b49	0.6974378
34	0x3d4278d3	0.04747851
35	0xbef8e06f	-0.4860873
36	0xbdf9d8e7	-0.12199574
37	0x3dbd8e2f	0.09255635
38	0x3e574370	0.21021819
39	0xbe6a8352	-0.22901657
40	0xbe205317	-0.15656696
41	0xbf40caab	-0.75309247
42	0x3edff7f0	0.4374385
43	0xbe03237d	-0.12806506
44	0xbea0eb71	-0.31429628
45	0x3eb66f50	0.356318
46	0x3e931f2c	0.2873472
47	0xbc7331df	-0.014843433
48	0x3eebed96	0.460797
49	0x3e248cfd	0.16069408
50	0xbf19c3f7	-0.60064644
51	0x3f010123	0.5039236
52	0x3eba4bec	0.3638605
53	0xbf06a2f1	-0.5259238
54	0x3eb71c06	0.35763568
55	0x3bbd6af6	0.005780573
56	0xbf0b6c16	-0.544618
57	0x3d87c431	0.066292174
58	0xbd9d4438	-0.07679027
59	0x3db3a350	0.08771384
60	0xbe50dbf8	-0.20396411
61	0x3f1141fb	0.56741303
62	0x3e1cff1b	0.1533169
63	0x3b822a46	0.0039723245
64	0xbf489559	-0.78352886
65	0x3ea3cccc	0.31992185
66	0xbe2f353e	-0.17110154
67	0x3e317bc4	0.17332369
68	0xbdeab8be	-0.11461018
69	0x3f40461c	0.7510698
70	0x3f3d888f	0.74036497
71	0xbe86ee70	-0.26353788
72	0x3dae3502	0.08506204
73	0x3e9a0555	0.30082193
74	0x3da4f73b	0.08054968
75	0x3e4e3777	0.20138346
76	0xbf2cc31b	-0.6748521
77	0xbdd990ce	-0.106233224
78	0x3e8ccf8e	0.27502102
79	0x3e0f6f47	0.14007293
80	0xbec17d7f	-0.37791058
81	0xbdf5c3bf	-0.12000226
82	0x3d19c9b4	0.037545875
83	0x3e52541f	0.20539902
84	0x3e653de3	0.22386889
85	0x3d8c9459	0.068642326
86	0xbe78c09c	-0.24292225
87	0x3d2ff057	0.042953815
88	0x3e305b17	0.17222248
89	0x3df65e80	0.12029743
90	0xbf4dbada	-0.8036324
91	0x3ea585cc	0.3232864
92	0xbde12d25	-0.10994939
93	0x3e34fb27	0.17673932
94	0xbed23df8	-0.41062903
95	0xbc855be9	-0.016279178
96	0x3f3cb539	0.73714024
97	0xbf5aa1ff	-0.85403436
98	0x3ecaa3e8	0.39578176
99	0x3eb9f9ff	0.36323544
100	0xbdbf7fca	-0.09350546
101	0xbe9b4005	-0.3032228
102	0x3eb8bb65	0.3608047
103	0xbee418cc	-0.4455017
104	0xbf09fda9	-0.5390268
105	0x3caf2802	0.021381382
106	0xbf23fa68	-0.64053965
107	0x3ea1f07f	0.31628796
108	0xbe1a1c3c	-0.15049833
109	0x3e171eb9	0.14757814
110	0x3e9b5952	0.30341583
111	0x3ea77a27	0.32710382
112	0x3e282217	0.16419254
113	0xbf5200b1	-0.82032305
114	0xbe6ba9ea	-0.23014036
115	0x3e692f4a	0.22771946
116	0xbec9d4f5	-0.39420286
117	0x3eb72885	0.357731
118	0xbf17f316	-0.59355295
119	0x3d40b578	0.047048062
120	0x3e38cb25	0.18046243
121	0x3ed97564	0.42472374
122	0xbef874f1	-0.4852672
123	0x3dc35c96	0.09539144
124	0x3f289442	0.65851223
125	0xbe5a1175	-0.21295722
126	0x3e9109d5	0.28327814
127	0xbe91fe7c	-0.2851447
128	0xbed17d51	-0.4091592
129	0x3f38e85f	0.7222957
130	0x3eeaa66d	0.45830098
131	0xbe2522b9	-0.16126527
132	0xbeb445c7	-0.35209486
133	0xbe7dec74	-0.24797231
134	0x3f082fcb	0.53197926
135	0x3dd8a6d3	0.10578694
136	0x3e17e38e	0.14832899
137	0xbea33614	-0.31877196
138	0xbcae7ef5	-0.021300772
139	0x3e46d243	0.19416146
140	0x3eb1bc64	0.34714043
141	0x3eb343ea	0.35012752
142	0xbd4a3f81	-0.04937697
143	0x3eb9d3cd	0.36294404
144	0xbdf48dc7	-0.119411044
145	0x3d0a210a	0.033722915
146	0xbf045491	-0.5169154
147	0x3e9a475f	0.30132577
148	0x3e1aefe5	0.15130575
149	0xbf357fbd	-0.7089804
150	0xbe76ef6c	-0.2411477
151	0xbe353039	-0.17694177
152	0x3e2167a7	0.15762196
153	0xbf2b5fd2	-0.66943085
154	0x3f08dd1d	0.5346239
155	0xbe76aba4	-0.24088913
156	0xbe84f51b	-0.2596825
157	0x3db1f96c	0.086901516
158	0x3e6168e9	0.22012676
159	0x3f277256	0.6540884
160	0x3f025783	0.5091478
161	0x3ec3c2e9	0.38234642
162	0xbda7967e	-0.08183001
163	0x3f196c41	0.5993081
164	0xbf6e9149	-0.9319044
165	0xbe84884b	-0.25885233
166	0xbeeccd3e	-0.46250337
167	0x3d86cc37	0.0658192
168	0x3cccacad	0.024984682
169	0xbea2c3ec	-0.31790102
170	0x3d28dc1b	0.041225534
171	0x3e9bfd8e	0.30466884
172	0x3e777305	0.2416497
173	0x3e8fdf38	0.2809999
174	0xbd0d54fa	-0.034504868
175	0x3f40892b	0.752093
176	0xbdbae0c0	-0.09124899
177	0xbf409d0c	-0.75239635
178	0x3ec397d7	0.38201782
179	0xbe980f2d	-0.29699078
180	0x3f139b89	0.576592
181	0x3ebf7ac3	0.37398347
182	0xbedbdd35	-0.42942205
183	0x3f31f58d	0.69515306
184	0x3e70f2f6	0.23530182
185	0x3f5d8767	0.8653473
186	0xbea3656c	-0.31913316
187	0x3d7272b5	0.059191424
188	0x3e4f82b1	0.20264699
189	0x3e31b167	0.1735283
190	0xbcc4c79c	-0.024020962
191	0xbdbe0111	-0.09277547
192	0xbe41203d	-0.18859954
193	0x3f5cf2f0	0.86308193
194	0x3e07c607	0.13259135
195	0x3e9a9a8e	0.3019604
196	0xbf049d78	-0.5180278
197	0x3f280cf6	0.65644777
198	0xbdef3d99	-0.11681671
199	0x3df4b1a8	0.11947948
200	0xbd8fdb3b	-0.07024237
201	0x3f195518	0.5989547
202	0xbefb94aa	-0.4913686
203	0xbebd8fb7	-0.37023708
204	0x3d849bda	0.06475039
205	0x3cca2471	0.02467558
206	0x3c75433f	0.014969646
207	0x3c121796	0.008916756
208	0x3ea12b47	0.3147833
209	0x3e33bbc1	0.17552091
210	0xbf485085	-0.78247863
211	0xbf45a908	-0.77211046
212	0xbf2808d2	-0.6563846
213	0x3f5b6889	0.85706383
214	0xbd02aeff	-0.03190517
215	0xbdaf6634	-0.085644156
216	0xbe97c5cd	-0.29643098
217	0xbe277e59	-0.16356792
218	0xbf043e40	-0.51657486
219	0xbd25597a	-0.040368535
220	0xbf87a3e4	-1.059689
221	0xbed14896	-0.4087569
222	0x3e878fd6	0.26476926
223	0xbecab2be	-0.39589494
224	0xbe2a0518	-0.16603506
225	0x3e96896e	0.29401726
226	0x3d0053d1	0.031329934
227	0x3e3b43de	0.18287608
228	0xbe193cbc	-0.14964575
229	0x3ea86929	0.3289273
230	0x3e702279	0.2345065
231	0x3e8c40d5	0.27393213
232	0xbe9ea566	-0.30985564
233	0xbd8c5d39	-0.06853718
234	0x3e0cc0e0	0.13745451
235	0xbe0ac44e	-0.13551447
236	0xbddb08d8	-0.10695046
237	0x3a300bfa	0.0006715652
238	0x3f27ffd3	0.6562473
239	0xbf0af60a	-0.54281676
240	0x3e8b5d8d	0.2721981
241	0xbeaf0246	-0.34181422
242	0x3eeabedf	0.45848748
243	0x3f3ed500	0.7454376
244	0xbe647a92	-0.22312382
245	0x3f0cabef	0.5494985
246	0x3e1a5462	0.15071252
247	0x3ea86748	0.32891297
248	0xbf24bb23	-0.6434805
249	0xbd9965d4	-0.07490125
250	0x3ee9094c	0.45514905
251	0x3eb05ca6	0.34445685
252	0x3eeb2b18	0.45931315
253	0x3e07e9a9	0.13272728
254	0x3bb555b6	0.005533899
255	0xbef00bbc	-0.46883953

network_body.linear_encoder.seq_layers.0.bias f4 [128]
0	0x39e1ae72	0.00043045316
1	0xbb777b91	-0.003776286
2	0xbb69e62d	-0.0035690174
3	0xb7cabce8	-2.4168243e-05
4	0x3aa6e843	0.0012734014
5	0x398613f2	0.00025573332
6	0x3ac62607	0.0015117534
7	0x3b8f791b	0.0043784506
8	0x3a9c5fe5	0.0011930434
9	0xbb09e720	-0.0021042302
10	0x3b091a88	0.0020920355
11	0x3a836662	0.0010025019
12	0xb90ea247	-0.00013602628
13	0xbb2577f7	-0.0025248507
14	0x3afbcdd7	0.0019211125
15	0x3b34e538	0.0027602445
16	0x3ad94456	0.0016576152
17	0x3bc527cd	0.0060167075
18	0xbb4a009d	-0.003082312
19	0xb9ea7238	-0.00044717058
20	0x38ad3795	8.259636e-05
21	0xb9112e4c	-0.00013845525
22	0xbaf9537e	-0.0019022075
23	0x3a44f36e	0.00075130805
24	0xba27ee9b	-0.00064060994
25	0x38a83bd3	8.0220074e-05
26	0x3b825553	0.0039774566
27	0x39ee5a71	0.00045462282
28	0xbb0f68a3	-0.0021882437
29	0x396ac4bb	0.00022389267
30	0x3b83f49a	0.0040269615
31	0xba78f7ba	-0.00094973634
32	0x3bc8dc25	0.006129759
33	0xbae9cf92	-0.001783835
34	0xbb07ae2c	-0.002070318
35	0xbafc6456	-0.0019255977
36	0x38f0192d	0.00011448781
37	0x3b5d82a5	0.0033799794
38	0xba715e3b	-0.0009207462
39	0xbaa36034	-0.0012464584
40	0xb97733ee	-0.00023575101
41	0x3af82ce6	0.0018934279
42	0xbb872aaf	-0.0041249613
43	0x3b25b84a	0.0025286847
44	0xba9f42dc	-0.0012150663
45	0xbb52b93c	-0.0032153865
46	0x390e4ced	0.00013570832
47	0xbb229616	-0.0024808696
48	0x3b276eac	0.0025548143
49	0x3a1a902a	0.0005896116
50	0xba94646f	-0.0011321435
51	0x3a0849ab	0.00051989657
52	0x3bcfd300	0.006342292
53	0x3bb8e6ae	0.0056427335
54	0xbb43443f	-0.0029795317
55	0x3b4190f7	0.0029535869
56	0x39004207	0.00012231628
57	0xbb3bfe3e	-0.0028685476
58	0x3b125314	0.002232735
59	0xbb73802c	-0.0037155254
60	0xb8e2bc54	-0.000108115986
61	0x399272e9	0.00027932905
62	0x3a562d4d	0.00081702025
63	0x3b3713f8	0.0027935486
64	0x3b16cacc	0.002300906
65	0x3b4db2d8	0.0031387117
66	0x3ac39dbf	0.0014924331
67	0xbb17eca2	-0.0023181816
68	0x3b42f4d3	0.0029747977
69	0xbb1343b4	-0.0022470774
70	0xba225aa1	-0.00061933143
71	0xba1c46b7	-0.0005961465
72	0xba60f99b	-0.0008582116
73	0x3b9665eb	0.0045897863
74	0xbb3867b2	-0.002813798
75	0xb94c6819	-0.00019493735
76	0x3b313e16	0.0027045063
77	0xba9a3567	-0.0011765183
78	0xbb60684c	-0.0034241853
79	0xbac91539	-0.0015341408
80	0xbb449a25	-0.0029999104
81	0x3b8f9f18	0.004382979
82	0x3abdb5f9	0.0014473788
83	0x3b4a2e52	0.0030850363
84	0x3b8cdb2b	0.004298588
85	0x3a57ddbf	0.0008234642
86	0x36a27f41	4.8427905e-06
87	0x3b6fd63d	0.0036596202
88	0x3aaa0f72	0.0012974574
89	0xbb0b001e	-0.0021209787
90	0x3b6bda75	0.0035988365
91	0x3b866160	0.0041009635
92	0x3b9df41a	0.004820359
93	0xba052495	-0.00050789985
94	0x3b659536	0.0035031564
95	0xb9bf8759	-0.000365312
96	0x3b49d9cc	0.0030799983
97	0xbbbf7650	-0.0058429614
98	0xb9779f42	-0.00023615084
99	0x3995604a	0.00028491236
100	0xba3ea99c	-0.00072731986
101	0x3a9d3e04	0.0011996632
102	0xb998fb51	-0.00029178945
103	0xbb591e3a	-0.0033129589
104	0x3acb1679	0.0015494368
105	0xbb15d646	-0.0022863313
106	0x3af8e1b9	0.0018988169
107	0xba89add7	-0.0010504079
108	0xbb449731	-0.0029997344
109	0x3a3ff075	0.00073219027
110	0x3b241067	0.002503419
111	0xba5b5185	-0.00083663344
112	0xbada9098	-0.0016675172
113	0x3b1205cb	0.0022281285
114	0x3a99f3d8	0.0011745645
115	0xb8d58e9f	-0.00010183197
116	0xba1268eb	-0.0005585092
117	0xbb174e5b	-0.0023087475
118	0x3b806998	0.0039188378
119	0xbacb679c	-0.0015518549
120	0x3ac0b8ac	0.0014703474
121	0x3a27c42e	0.00063997775
122	0xb9e03e8e	-0.00042771216
123	0x38b818cb	8.778422e-05
124	0x3bd629b4	0.006535733
125	0xbab414ad	-0.0013739072
126	0x3ad6032e	0.0016327852
127	0x3b1aedd6	0.0023640296

network_body.linear_encoder.seq_layers.2.weight f4 [128, 128]
0	0xbe04e82e	-0.12979195
1	0x3dfb0896	0.12257497
2	0xbd51249f	-0.051060315
3	0xbd62bf3a	-0.05535815
4	0xbb250a2c	-0.0025183065
5	0x3cc76ec3	0.024344807
6	0x3de0063b	0.10938688
7	0x3d43ef28	0.0478355
8	0xbd76f76e	-0.06029456
9	0xbe0314ce	-0.12800905
10	0xbda869c8	-0.08223301
11	0x3deda97c	0.11604592
12	0x3dd7b955	0.10533396
13	0x3cc54016	0.02407841
14	0xbdda18bd	-0.1064925
15	0xbca2b196	-0.01986007
16	0x3cacac89	0.021078365
17	0xbc0ff61f	-0.008786707
18	0xbd33d19b	-0.043901067
19	0xbdf7e054	-0.12103334
20	0x3e321322	0.17390111
21	0xbcb9bf84	-0.02267433
22	0x3c176f66	0.009242868
23	0x3d94934b	0.072546564
24	0xbe8574fb	-0.26065812
25	0x3cea1d98	0.028578565
26	0xbe29c262	-0.16578057
27	0xbd324e6d	-0.043531824
28	0x3cce68b2	0.025196407
29	0x3d69179e	0.05690729
30	0xbddfab55	-0.10921351
31	0x3d511077	0.051041093
32	0x3d0a81ec	0.03381531
33	0x3d6c90d5	0.05775531
34	0xbd7b7b96	-0.061397158
35	0x3daf6740	0.08564615
36	0xbcac2063	-0.021011537
37	0x3e472537	0.1944779
38	0xbd8a395f	-0.06749224
39	0x3d887948	0.066637576
40	0xbb629bb0	-0.003457766
41	0x3e50cf45	0.20391567
42	0x3d6193e9	0.0550727
43	0x3d119ca1	0.035549764
44	0x3dab1c3a	0.08354993
45	0xbe235f1c	-0.1595425
46	0x3d331e5a	0.043730117
47	0x3ccb656a	0.024828631
48	0xbd3ff12a	-0.04686085
49	0xbe77c099	-0.24194564
50	0x3cfc5748	0.030803338
51	0xbe1ac926	-0.15115795
52	0x3ced2831	0.028949829
53	0x3d528271	0.05139393
54	0x3da1d875	0.07902614
55	0x3c62ff65	0.013854836
56	0x3c805a6d	0.015668118
57	0xbca8e5e8	-0.02061744
58	0xbb534ff9	-0.0032243712
59	0x3d555366	0.052081488
60	0xbdccb907	-0.09996229
61	0xbc4b2d1b	-0.012400891
62	0x3e2cad1a	0.16862908
63	0x3d4e0912	0.05030162
64	0x3d969c3f	0.0735402
65	0x3d847b28	0.06468803
66	0xbdcbcc8e	-0.09951125
67	0x3e1ad204	0.15119177
68	0x3dbe0c6d	0.09279714
69	0x3e1b6dc2	0.15178588
70	0x3d9f607a	0.07782073
71	0x3e00d1d8	0.12580049
72	0xbdab9a9a	-0.08379097
73	0x3c60ff4f	0.013732745
74	0x3e3a01e1	0.18164779
75	0xbd0256a4	-0.03182091
76	0xbe514f18	-0.20440328
77	0xbd3200e8	-0.043457896
78	0xbe009458	-0.12556589
79	0x39ed8e59	0.0004531022
80	0xbcbee964	-0.023304649
81	0x3d9ef044	0.07760671
82	0xbcf3d018	-0.029762313
83	0x3df7872a	0.120863274
84	0x3db44648	0.088024676
85	0xbd0eac0c	-0.034832045
86	0xbd97404d	-0.07385311
87	0x3d25e6c5	0.040503282
88	0x3d86a0f9	0.06573672
89	0xbd5ce6b2	-0.053930946
90	0xbbf149c0	-0.007363528
91	0x3dc8ede4	0.09810999
92	0xbc010211	-0.007874028
93	0x3d9bb0d4	0.07602087
94	0xbd80ae66	-0.06283264
95	0xbe07f314	-0.1327632
96	0x3de0d4ab	0.10978063
97	0x3c404c3e	0.011736928
98	0xbca63c88	-0.020292535
99	0xbd3033a3	-0.043017995
100	0xbc448ab5	-0.011995961
101	0x3e08e86a	0.13369909
102	0xbdd64c14	-0.104637295
103	0xbe07d4e3	-0.13264804
104	0x3c4e8750	0.012605503
105	0xbd831b3b	-0.06401678
106	0x3ddab3df	0.10678839
107	0x3d9e232d	0.07721553
108	0xbc178595	-0.009248157
109	0x3dfecb0e	0.12441073
110	0xbdbe8c67	-0.09304123
111	0x3d461d37	0.048367705
112	0xbddd2676	-0.107983515
113	0x3e1a527b	0.15070526
114	0x3dcbb8e7	0.09947377
115	0xb9ae66ee	-0.00033264555
116	0x3cfa2810	0.030536681
117	0xbe2221ac	-0.15833157
118	0x3dab005c	0.08349678
119	0x3d54891a	0.051888563
120	0x3d0cef58	0.034407943
121	0xbd79da38	-0.060999125
122	0xbd2d36fb	-0.04228876
123	0xbda60adb	-0.08107539
124	0xbc230e1e	-0.009952096
125	0xbe2bbf39	-0.16772164
126	0xbdb04fa1	-0.08608938
127	0xbc4b9e67	-0.012427903
128	0xbd71d740	-0.05904317
129	0xbdffe25a	-0.12494345
130	0xbdde980e	-0.10868846
131	0x3e445367	0.1917244
132	0xbca5b178	-0.020226225
133	0xbd8200e8	-0.06347829
134	0x3b442307	0.0029928104
135	0x3d51d74d	0.051230717
136	0x3d4d91e9	0.05018798
137	0xbe15d6aa	-0.14632669
138	0xbd1919e0	-0.037378192
139	0xbdd3b524	-0.10337284
140	0xbde6dfbc	-0.11273143
141	0xbe1c889b	-0.15286486
142	0x3d5f9b53	0.054591488
143	0xbe252616	-0.1612781
144	0xbd2096a4	-0.039206162
145	0xbcfa4d84	-0.03055454
146	0xbe02105d	-0.12701555
147	0x3d9448a1	0.07240415
148	0xbdba3296	-0.0909168
149	0x3bf4d251	0.0074713607
150	0x3dd28a72	0.102803126
151	0x3d826a7b	0.06367966
152	0x3c7d93ac	0.015477102
153	0x3dacab4d	0.084311105
154	0xbc5dea3d	-0.013544616
155	0x3dbecd01	0.09316445
156	0x3d86c747	0.06580978
157	0x3de1c6d0	0.110242486
158	0xbd0826a7	-0.033239987
159	0xbe652c03	-0.2238007
160	0xbada7a9f	-0.0016668624
161	0x3dac2b91	0.08406747
162	0xbdca45fe	-0.09876631
163	0xbde024ff	-0.109445564
164	0xbd96227e	-0.073307976
165	0xbd423b51	-0.04741985
166	0x3d2df59b	0.042470556
167	0xbd6083de	-0.05481326
168	0xbd1b5a73	-0.037928056
169	0x3d27e171	0.040986482
170	0xbc5df0b4	-0.013546158
171	0x3c5597c1	0.013036669
172	0x3ccc7794	0.024959363
173	0x3e3736aa	0.17891946
174	0xbd41e186	-0.047334217
175	0xbe894d3a	-0.26816732
176	0xbc91e0ec	-0.017807446
177	0xbdd4997f	-0.103808396
178	0xbdbecd3d	-0.0931649
179	0xbdf5cd10	-0.12002003
180	0x3c96f200	0.018425941
181	0xbc8cd0e7	-0.017189456
182	0xbc17c689	-0.009263643
183	0xbdeda297	-0.11603277
184	0xbbb99ef5	-0.005664701
185	0xbe5b67f9	-0.21426381
186	0xbd92ebab	-0.07173856
187	0x3dfaba66	0.12242584
188	0xbd078ddb	-0.03309427
189	0xbd9c463d	-0.076305844
190	0xbdcaeb5e	-0.09908174
191	0x3d86d886	0.06584267
192	0xbe1169d7	-0.14200531
193	0xbdbda9ed	-0.092609264
194	0x3cf070b1	0.02935061
195	0xbdb29699	-0.087201305
196	0xbba530a7	-0.0050412
197	0xbdcc32b1	-0.09970606
198	0xbde0158d	-0.109416105
199	0x3e02f771	0.12789704
200	0x3d150fd9	0.036392067
201	0x3e211e2d	0.15734167
202	0xbd0c95b4	-0.034322456
203	0xbd1a8c54	-0.037731484
204	0x3e5190a2	0.2046533
205	0xbe3179d8	-0.17331636
206	0xbd88830f	-0.066656224
207	0x3d9364dd	0.071969725
208	0x3d759dbe	0.059964888
209	0x3e89c4f6	0.26908082
210	0xbdcd5a03	-0.10026934
211	0xbcd4aff5	-0.02596281
212	0xbc29cfba	-0.010364467
213	0xbd85de70	-0.06536567
214	0x3dbf83d0	0.09351313
215	0xbd9c0900	-0.07618904
216	0xbd62e988	-0.055398494
217	0xbc792261	-0.0152059505
218	0x3cbe1a65	0.023205945
219	0x3d563809	0.052299533
220	0xbcf0f137	-0.029411895
221	0xbd189ff6	-0.037261926
222	0xbb7ce76a	-0.0038590082
223	0x3e5a1389	0.21296515
224	0xbe729164	-0.23688275
225	0x3c8f1929	0.017468052
226	0xbd0a313e	-0.033738367
227	0x3d89ad9b	0.06722566
228	0xbd1d56f0	-0.03841299
229	0xbe71d1eb	-0.23615234
230	0x3d5a8687	0.05335095
231	0xbe3d62e4	-0.18494755
232	0x3d7e02a1	0.062014226
233	0x3d76c9b0	0.060250938
234	0x3d04b182	0.032395847
235	0xbdd7e63e	-0.10541962
236	0x3cf7764d	0.030207777
237	0x3dd47731	0.103742965
238	0xbd58c6e9	-0.05292407
239	0xbe8822e4	-0.2658912
240	0x3d0b90d4	0.034073666
241	0xbd217338	-0.03941652
242	0xbd3f3124	-0.046677724
243	0x3e48a136	0.19592747
244	0x3d1ec7c5	0.038764734
245	0x3d4e7a7f	0.05040979
246	0x3d1539ff	0.036432263
247	0xbbfd8843	-0.007737191
248	0x3e07a325	0.13245828
249	0xbde27739	-0.11057896
250	0x3d9226e3	0.07136323
251	0x3d59c0b7	0.053162303
252	0x3c1557ef	0.009115203
253	0xbd08fef2	-0.03344626
254	0xbcbcae50	-0.023032337
255	0x3e08ef0f	0.13372444

network_body.linear_encoder.seq_layers.2.bias f4 [128]
0	0x3b5e8c82	0.003395826
1	0x3b55c41a	0.0032618106
2	0x3a1e770d	0.00060449616
3	0xba8609c8	-0.0010226304
4	0xba0cb820	-0.0005368013
5	0xbb3770a0	-0.0027990714
6	0xbad16809	-0.001597644
7	0xbb174fc9	-0.0023088327
8	0xbbc9ab34	-0.006154442
9	0xba9c14b3	-0.0011908024
10	0xba887260	-0.0010410063
11	0x3b2730dd	0.0025511303
12	0x3b3e3336	0.0029022223
13	0xbb0dee37	-0.002165688
14	0xba161089	-0.000572451
15	0x3b3d5ab6	0.002889318
16	0xba832c64	-0.0010007736
17	0x3ba050fc	0.0048924666
18	0xbba6d973	-0.00509184
19	0x3af3622d	0.0018568687
20	0x39df42a4	0.00042583526
21	0x3b0de901	0.0021653774
22	0xbb2616e5	-0.0025343236
23	0x3b903e4b	0.004401957
24	0x3aecd713	0.0018069468
25	0xbaba2338	-0.001420117
26	0x3bb6f447	0.0055833193
27	0x3b0a5fa2	0.002111413
28	0xbaeaf6bb	-0.0017926315
29	0xba236cc6	-0.0006234165
30	0xbb1c115c	-0.0023814058
31	0x3b8cbdaa	0.0042950707
32	0x3b371912	0.0027938527
33	0xba390e67	-0.0007059336
34	0xb9ba023e	-0.00035478355
35	0xbafd436f	-0.0019322465
36	0x3b0c304b	0.002139109
37	0xbac203cd	-0.0014802158
38	0x3abd3377	0.0014434893
39	0x3a0ae0e4	0.00052977935
40	0x3a44f9c7	0.00075140264
41	0xbbb466f5	-0.0055054375
42	0xba6d9d1b	-0.0009064243
43	0x399a6342	0.00029447122
44	0xba87718c	-0.0010333522
45	0xba9374d7	-0.0011250031
46	0x3a0eb9fb	0.00054445834
47	0x3b5b3991	0.003345106
48	0x3b325570	0.002721157
49	0x3b9b8612	0.004746207
50	0xbb233f69	-0.0024909622
51	0xb9bc2b70	-0.00035890518
52	0xbadba9e1	-0.0016759002
53	0x3aae63df	0.001330491
54	0xba2f13ec	-0.0006678689
55	0x3b6908ab	0.0035558145
56	0x3ad7ed5d	0.0016473938
57	0xba22a057	-0.0006203702
58	0xb9a8af17	-0.0003217391
59	0xbb8b9dc6	-0.0042607514
60	0xba746cb9	-0.0009324062
61	0xba3a2b83	-0.00071018207
62	0xbb55abbd	-0.0032603585
63	0xba848c15	-0.0010112548
64	0xba6e028e	-0.000907936
65	0xbb5a0309	-0.003326597
66	0xbb2be8d1	-0.0026231299
67	0x3bc54000	0.0060195923
68	0x3b3912e5	0.0028240022
69	0x3b060911	0.0020452181
70	0xba926dd0	-0.0011171643
71	0x3b735bef	0.0037133654
72	0x3b816a88	0.003949467
73	0x3b3a2e1a	0.0028408826
74	0xba84ed44	-0.0010141511
75	0x3882b315	6.23224e-05
76	0x395e7e5d	0.00021218644
77	0x3b18fd17	0.0023344213
78	0xbb3aed85	-0.002852292
79	0xbbb224b7	-0.0054365057
80	0x3b9bdb16	0.0047563417
81	0xba4d36e6	-0.000782831
82	0xbaaba745	-0.0013096115
83	0x3a93cddf	0.0011276564
84	0xba0a6635	-0.0005279512
85	0xbb1aee2a	-0.0023640492
86	0x3ba3c8f6	0.0049983216
87	0x3ad4d4e0	0.0016237758
88	0x3b79f420	0.0038139895
89	0x3b84d862	0.004054115
90	0x3b14171e	0.0022596787
91	0x3a46ceab	0.00075838965
92	0x3a9dff66	0.0012054264
93	0xb9b66d6c	-0.0003479527
94	0x3b913b1f	0.0044320966
95	0xbaf8220f	-0.0018931049
96	0xba6ae1d2	-0.00089600415
97	0xb9cfad5c	-0.0003961128
98	0x38b9bfaf	8.857191e-05
99	0xbb02c24b	-0.0019952233
100	0x3b103b5a	0.0022008033
101	0x3b151142	0.0022745882
102	0xbb5b0f96	-0.0033426038
103	0x3b1b284f	0.002367515
104	0x3a2a8a72	0.00065056153
105	0x3a85580a	0.0010173332
106	0x3b9a720e	0.0047133034
107	0xbb1202fb	-0.0022279609
108	0x3af1ffdc	0.0018463093
109	0xbb75a3f5	-0.003748176
110	0xb9dc2aeb	-0.00041993646
111	0x3b9eae1a	0.004842532
112	0x3b398ded	0.0028313354
113	0xbb2271f5	-0.0024787162
114	0x3b0f3fee	0.0021858173
115	0xba5a94ad	-0.00083381945
116	0x3ad71712	0.0016410074
117	0xbabaead5	-0.0014260659
118	0x3ba8d847	0.0051527354
119	0x39afbfc0	0.00033521466
120	0x3b36745a	0.0027840347
121	0x3a123ec0	0.00055788085
122	0x3b70f209	0.0036765358
123	0x3bbbda3c	0.0057328027
124	0x3b7363ba	0.00371383
125	0xbba4cc60	-0.005029246
126	0xbbb9f3eb	-0.0056748292
127	0xbaba493b	-0.0014212498

action_model._continuous_distribution.log_sigma f4 [1, 2]
0	0x3b6b7c83	0.003593237
1	0x3b2e3067	0.0026579143

action_model._continuous_distribution.mu.weight f4 [2, 128]
0	0x3c029378	0.00796973
1	0x3d09c2b5	0.033632953
2	0x3c26cb17	0.010180256
3	0xbb3f59fd	-0.0029197924
4	0xbcf92f9d	-0.030418212
5	0xbc08363f	-0.0083137145
6	0x3901be33	0.00012373253
7	0xbc9e8b44	-0.019353516
8	0xbc28f6f6	-0.010312786
9	0x3b7a7217	0.0038214976
10	0xbc39cd14	-0.011340398
11	0xbaa9a9b5	-0.0012944253
12	0x3c0a6d50	0.008448914
13	0xbb078959	-0.002068123
14	0xbb878656	-0.004135887
15	0x3c507242	0.012722554
16	0x3bbc6ad7	0.005750041
17	0x3c9caec5	0.019126305
18	0xbb3d99f5	-0.0028930877
19	0xbc420787	-0.011842615
20	0xbbad8475	-0.005295331
21	0x3c5af8de	0.013364999
22	0xbc028a60	-0.0079675615
23	0x3b013280	0.0019713938
24	0xbcc4605b	-0.023971727
25	0xbb36373c	-0.0027803918
26	0x3beea113	0.007282385
27	0xbb8bd8d6	-0.004267792
28	0xbc472aae	-0.012156172
29	0xbca738db	-0.020412853
30	0x3adf0b2d	0.001701688
31	0x3b970108	0.004608277
32	0xbc3ad7dd	-0.011404005
33	0x3a514e94	0.00079844263
34	0x3acee9c9	0.0015786226
35	0xbd01d699	-0.031698797
36	0xbbdc0f15	-0.006715665
37	0x3c037396	0.008023163
38	0xbccf9f0b	-0.025344392
39	0x3bbc3f23	0.005744831
40	0x3c5966c6	0.013269132
41	0xbbc46a3a	-0.0059941085
42	0xbb170140	-0.0023041517
43	0x3c3d0a3e	0.011538086
44	0xbd2d913d	-0.04237484
45	0xbc54af51	-0.012981252
46	0x3d0eb34f	0.03483897
47	0x3c59c626	0.013291871
48	0xbb8c4709	-0.004280929
49	0x3c16e940	0.009210885
50	0xba43e18f	-0.00074722705
51	0x3ba5d9ad	0.0050613494
52	0xbcf7463e	-0.030184861
53	0x3caa6d15	0.020803967
54	0xbc13b2ae	-0.0090147685
55	0x3ab01187	0.0013432958
56	0x3d1cc243	0.0382712
57	0xbc129d05	-0.008948569
58	0xbcc88b52	-0.024480496
59	0xbca98607	-0.020693792
60	0x3c737f3d	0.014861879
61	0xbca7e375	-0.020494202
62	0xbc631941	-0.0138610015
63	0x3c50907a	0.012729758
64	0xbc1b5e39	-0.009482914
65	0xbc0e6ca5	-0.008692895
66	0xbc9e7ce2	-0.019346658
67	0x3ccdefd5	0.025138775
68	0x3a7b51e0	0.00095870905
69	0x3c0a5ffc	0.008445736
70	0xbd084cc3	-0.03327633
71	0xbb3083c1	-0.0026934
72	0x3cad0be9	0.021123843
73	0x3c89e5d7	0.016833229
74	0xbb474c7a	-0.0030410574
75	0x3c0c86e0	0.008577079
76	0x3b8a03d0	0.0042118803
77	0xbbd8e018	-0.006618511
78	0xbd017d07	-0.031613376
79	0x3a9bed73	0.0011896327
80	0x3cd6ec4f	0.026235728
81	0xbd4f4da2	-0.050611146
82	0xbc81fa75	-0.015866498
83	0xbca55f8a	-0.020187158
84	0x3bc8e692	0.0061310017
85	0xbc7e0bbb	-0.015505726
86	0x3d306917	0.04306897
87	0x3ce1f1cf	0.027581124
88	0x3ce098ae	0.027416553
89	0x3c67ddb8	0.014151983
90	0x3cf3f9bf	0.029782174
91	0x3c90a73a	0.017657865
92	0x3d351508	0.04420951
93	0xbc742aae	-0.014902754
94	0x3cb14c31	0.021642776
95	0xbc82426f	-0.015900819
96	0xbc43fadc	-0.011961665
97	0xbac4ba4d	-0.0015009135
98	0x3b1f6e45	0.00243272
99	0xbd235208	-0.039873153
100	0x3cb6d1e6	0.022316884
101	0x3b4d443d	0.003132119
102	0xbc560712	-0.013063209
103	0xbbd689f9	-0.0065472093
104	0xbc316c71	-0.010829077
105	0x3c9243c5	0.01785458
106	0x3c001973	0.007818568
107	0xba97a8f4	-0.0011570738
108	0xbc340281	-0.010986925
109	0xbd1e484b	-0.038643163
110	0xbb6a3ec8	-0.0035742987
111	0x3cab4145	0.020905146
112	0x3c9760cc	0.018478774
113	0xbc02df53	-0.007987815
114	0x3c1b540e	0.009480489
115	0xbb905273	-0.00440436
116	0xbcab1fc4	-0.02088917
117	0xbc0c6d07	-0.008570916
118	0x3cc8c3d1	0.024507435
119	0x3b246c2f	0.0025088897
120	0x3cdf645a	0.027269531
121	0x3c27d4f8	0.010243647
122	0x3ca4fd8e	0.020140436
123	0x3b3fe78d	0.0029282302
124	0x3cf14702	0.029452804
125	0xbcdf91cd	-0.027291203
126	0xbc556f5e	-0.01302704
127	0xbc0c3306	-0.008557087
128	0x3ca7087e	0.020389792
129	0x3d2dd2da	0.04243741
130	0x3bcf7f94	0.006332347
131	0xbcd7beb4	-0.026336052
132	0x3bf36e6d	0.0074289353
133	0xbbc454a4	-0.0059915353
134	0xbc8aa309	-0.016923444
135	0x3c927e4a	0.017882485
136	0xbace0b27	-0.0015719876
137	0x3bd18ff5	0.006395335
138	0x3c6d6ef4	0.014491785
139	0x3c5e4c82	0.013568046
140	0x3cb1f666	0.021723937
141	0x3bf976f3	0.007613057
142	0x3c3a1fea	0.011360148
143	0xbcfdfc4e	-0.031004097
144	0x3c8020a0	0.015640557
145	0xbc34c87b	-0.011034126
146	0xbb954b00	-0.00455606
147	0x3be445c4	0.0069663245
148	0x3b52605c	0.0032100892
149	0xbc545bc2	-0.01296133
150	0x3b717c07	0.0036847608
151	0xbb656d91	-0.0035007934
152	0x3b21f943	0.0024715222
153	0xbcfc3b15	-0.030789891
154	0x3c6275fc	0.013822075
155	0x3c567ede	0.013091771
156	0xbd174722	-0.036933072
157	0x3ca67907	0.020321382
158	0x3bb56116	0.005535255
159	0x3c34aa23	0.011026892
160	0x3ccee4e8	0.025255635
161	0xbcd9a2ad	-0.026566828
162	0x3baabc82	0.00521046
163	0xbd3e5212	-0.046464987
164	0x3c97ae4e	0.018515732
165	0xbd211cf7	-0.039334264
166	0x3c7679b9	0.015043669
167	0x3cc3b44a	0.02388968
168	0xbcd1895d	-0.025578195
169	0x3b99666e	0.0046814
170	0xbd45854d	-0.04822283
171	0xbb79b9a3	-0.0038105033
172	0x3cb21edb	0.021743229
173	0x3bd08478	0.0063634478
174	0xbccb784c	-0.024837635
175	0x3c9b0688	0.018924013
176	0x3c0b7754	0.008512337
177	0xbbb87b4b	-0.005629932
178	0xbca654dc	-0.020304136
179	0xbd1f0103	-0.038819324
180	0x3c850ec8	0.0162424
181	0xbc3456ed	-0.011007053
182	0x3c3d76c7	0.011563963
183	0x3c998fc8	0.018745318
184	0xbc5aedcf	-0.013362362
185	0x3c0f97e0	0.008764237
186	0x3c0b0e6a	0.008487323
187	0x3b962510	0.004582055
188	0xbc81c19e	-0.015839394
189	0x3bccf2d8	0.006254535
190	0xbc2794a9	-0.010228314
191	0xbca69006	-0.020332348
192	0x3b9e0eee	0.004823557
193	0xbc76bb03	-0.0150592355
194	0xbbe0ac5c	-0.0068564843
195	0x3c5a85b6	0.013337543
196	0x3cc9ebb8	0.024648532
197	0x3cba60ff	0.02275133
198	0xbb816ca8	-0.0039497204
199	0xbae3e02c	-0.0017385534
200	0xbb97433b	-0.004616169
201	0x3c909309	0.017648237
202	0xbc30f810	-0.01080133
203	0xbc776fc9	-0.015102335
204	0x3c0370c9	0.008022496
205	0x3b844e5d	0.004037662
206	0x3bfec234	0.0077746157
207	0xbb8b7f0b	-0.004257088
208	0x3c10009d	0.008789209
209	0x3c1c9619	0.00955727
210	0xbcb4b107	-0.02205707
211	0x3d2e5ee0	0.04257095
212	0x3ba76a29	0.005109091
213	0xbcc5a638	-0.02412711
214	0x3c63da71	0.013907061
215	0xbc4ffcbc	-0.012694534
216	0x3c6e1482	0.014531257
217	0xbc51bf16	-0.012801906
218	0xbd25154b	-0.04030351
219	0x3d2c0dc4	0.042005315
220	0x3a836616	0.0010024931
221	0x3ca405ea	0.020022351
222	0x3c07315c	0.008251514
223	0x3b81c57d	0.00396031
224	0xbade45d3	-0.0016958065
225	0xbc0cb487	-0.008587963
226	0xbd1a3eee	-0.03765767
227	0xbc6739a7	-0.0141128665
228	0xbcd50451	-0.026003035
229	0xbc10b7a5	-0.008832847
230	0x3c9855b4	0.018595554
231	0x3ac5b094	0.0015082532
232	0xba5317b6	-0.00080525444
233	0x3bbab893	0.0056982725
234	0x3cbd6488	0.023119226
235	0x3bb184a6	0.0054174243
236	0x3caef3eb	0.021356544
237	0xbce0c19a	-0.027436066
238	0xbcaac2d0	-0.020844847
239	0x3c21d42e	0.009877248
240	0x3c62c1ba	0.013840133
241	0xbd298b36	-0.041392528
242	0x3cb4cf9c	0.022071652
243	0xbc9c6e77	-0.019095642
244	0x3cabde4f	0.020980028
245	0x3c0da05b	0.008644189
246	0x3bffdc36	0.0078082336
247	0x3d1653de	0.036701076
248	0xbbf24853	-0.0073938756
249	0x3b3d1bfa	0.0028855787
250	0x3d147bb0	0.03625077
251	0x3ba8a4c0	0.005146593
252	0x3c741afb	0.014899011
253	0xbcc8ff96	-0.024535935
254	0xbcd8b1d2	-0.026451979
255	0xbc738b92	-0.014864819

action_model._continuous_distribution.mu.bias f4 [2]
0	0x3b391423	0.0028240762
1	0x3ad3c9b5	0.0016158136

action_model._discrete_distribution.branches.0.weight f4 [2, 128]
0	0x3b6b068f	0.0035862064
1	0xba3acf8e	-0.0007126265
2	0xbbd23f71	-0.006416254
3	0x3ba812f3	0.005129212
4	0x3c2b40e1	0.01045248
5	0xbafac000	-0.0019130707
6	0xbb82b577	-0.0039889175
7	0xbc3560e0	-0.01107046
8	0xbb352292	-0.0027639014
9	0xbb9b27a4	-0.00473495
10	0xbc626e5b	-0.013820256
11	0xba7595e6	-0.0009368345
12	0x3c672ddc	0.014110055
13	0xb9bb8111	-0.0003576358
14	0xba91ef62	-0.0011133964
15	0x3c951647	0.0181991
16	0xbc070ee3	-0.008243295
17	0xb88888e4	-6.510483e-05
18	0xbbe0be95	-0.0068586566
19	0x3b9f3a5a	0.004859251
20	0xbb510be7	-0.0031897963
21	0x3bf1ac2f	0.007375262
22	0xbbe27f2c	-0.0069121327
23	0x3b9c99e0	0.0047790855
24	0x3addb375	0.0016914444
25	0x3a458435	0.0007534654
26	0x3b4c8c0a	0.00312114
27	0x3b98f1ea	0.0046675103
28	0x3c1d9d9b	0.009620096
29	0x3b031a2d	0.0020004616
30	0x3be2e250	0.006923951
31	0x3c427ee6	0.011871075
32	0x3cb5b867	0.022182656
33	0x3c43b619	0.011945271
34	0x3b204487	0.0024454908
35	0x3c1461ee	0.009056551
36	0x3bf46a85	0.007458987
37	0xbaae0c82	-0.0013278874
38	0x3c5c853a	0.013459498
39	0xbb0bf717	-0.0021356994
40	0x3c6993b3	0.014256406
41	0xbbe966bf	-0.007122844
42	0xbcbeedef	-0.023306815
43	0xba690400	-0.00088888407
44	0xbbaa0a9b	-0.0051892526
45	0x3bb3b559	0.005484265
46	0xbc7dd1e6	-0.015491938
47	0xbc98c63b	-0.018649211
48	0xbb08adc0	-0.0020855516
49	0xbb2302f8	-0.0024873596
50	0xbc77dab8	-0.01512783
51	0x3c3de07e	0.011589168
52	0xbbca438e	-0.006172604
53	0xbb09958f	-0.0020993685
54	0xbc4aea83	-0.0123850135
55	0xbaa6c2f0	-0.0012722891
56	0x3c1b1471	0.009465323
57	0xbc1f841e	-0.009736089
58	0x392ec01e	0.00016665502
59	0xbc7f970b	-0.015599976
60	0x3c108c7c	0.008822557
61	0x3c72d326	0.0148208495
62	0x3c3bfcab	0.011473815
63	0xbbfa06fe	-0.007630228
64	0xbc79142a	-0.015202561
65	0xbc1ddc83	-0.009635094
66	0x3ac3112a	0.0014882435
67	0x3c0aa878	0.008463018
68	0x3b6a3b22	0.0035740812
69	0xb895e874	-7.1481714e-05
70	0x3aa131c1	0.0012298153
71	0x3c8caf95	0.017173568
72	0x3cabd170	0.020973891
73	0x3c96f4cc	0.018427275
74	0xbbd264a0	-0.006420687
75	0xbc20b3b8	-0.009808473
76	0xbb4a40b5	-0.0030861322
77	0x3bc67d86	0.006057444
78	0x3b084c8d	0.002079758
79	0xbb8b4afc	-0.004250882
80	0x3c330a5b	0.010927762
81	0x3c1aa7d9	0.009439432
82	0x3c04bf2e	0.008102221
83	0xbcb47a91	-0.0220311
84	0x3b2321e3	0.0024892024
85	0x39efa421	0.00045707918
86	0xbc39474c	-0.011308502
87	0x3be3ce59	0.006952089
88	0x3c11e7e1	0.008905382
89	0x3c2e8e78	0.010654084
90	0xbc48ac63	-0.012248131
91	0xbafb249b	-0.001916069
92	0xba9a992c	-0.0011794916
93	0x3b7450de	0.0037279646
94	0x3968a447	0.00022186442
95	0xbb462bea	-0.0030238577
96	0x3a34e99a	0.00069012644
97	0x3ad3e1e0	0.0016165338
98	0x3ca880fe	0.02056932
99	0x3b754ee1	0.0037431049
100	0x3c5c39b8	0.013441496
101	0x3c85f82d	0.016353691
102	0xbc4056f0	-0.0117394775
103	0x3c864880	0.016391993
104	0x3c6d5c9b	0.014487411
105	0xbbb6d39b	-0.0055794246
106	0x3c911543	0.017710334
107	0x3c000a7c	0.007815
108	0x3c40d6a9	0.011769929
109	0x3bb500be	0.00552377
110	0x3c33a766	0.010965204
111	0x3a828ac8	0.0009959573
112	0xbbdce554	-0.006741205
113	0x3bd8cd75	0.0066162893
114	0xb9e7b283	-0.00044192755
115	0x3b67fd1a	0.0035398663
116	0x3ca3fbce	0.02001753
117	0x3a95ee82	0.0011438879
118	0x3c0c1ff7	0.008552543
119	0xbc868996	-0.016423028
120	0x3c727bc7	0.014800019
121	0xbb312d7d	-0.002703517
122	0x3baa098c	0.0051891264
123	0x3c0d3ab2	0.008619951
124	0xbc30cfbe	-0.010791717
125	0xbbebd04a	-0.007196461
126	0xbcbcedb3	-0.023062563
127	0x3b6ff4e0	0.0036614463
128	0xbbe7335e	-0.007055684
129	0x3b9a629d	0.0047114627
130	0xbbe9cfd8	-0.0071353726
131	0xbc87eb43	-0.016591674
132	0xbc02ab62	-0.007975431
133	0xbb8110df	-0.003938779
134	0xbb7bf899	-0.0038447736
135	0x3ca3525a	0.01993673
136	0x3c75fcd4	0.015013892
137	0x3a68b2bb	0.00088767306
138	0x3bd24096	0.0064163906
139	0xbad19e98	-0.0015992699
140	0xbb16cfa4	-0.0023011947
141	0x3b89d017	0.0042057144
142	0x3c3fd2d6	0.011707982
143	0xbc7a45fa	-0.015275473
144	0x3c5bc62e	0.013413949
145	0xbc96379d	-0.018337065
146	0x3a739946	0.0009292554
147	0xbc3da1cd	-0.011574221
148	0xbbe540d1	-0.006996252
149	0xbbd19d37	-0.0063969153
150	0xbc943ecf	-0.018096356
151	0xbcac1d11	-0.021009954
152	0xbc9cc225	-0.019135544
153	0xbcb2ad7a	-0.021811236
154	0xbc32fd65	-0.010924672
155	0xbc0d58e9	-0.008627155
156	0x3b5c351e	0.0033600996
157	0xba22328b	-0.0006187341
158	0x3c7699f8	0.015051357
159	0xbc161533	-0.009160328
160	0xbc4d1af3	-0.012518632
161	0x3c0402c7	0.008057303
162	0x3b23179a	0.0024885894
163	0xbc867416	-0.016412776
164	0xbb91836a	-0.0044407146
165	0x3b247a62	0.002509736
166	0xbc937dd9	-0.018004345
167	0xbb0b2d60	-0.0021236762
168	0x3c119d27	0.008887566
169	0x3c123dd4	0.008925874
170	0xba115fc9	-0.0005545584
171	0x3c09100d	0.008365643
172	0x3a984bde	0.001161929
173	0x3b9ea6de	0.0048416695
174	0xbc4a6078	-0.0123521015
175	0xbc1f085c	-0.009706583
176	0xbc4ab80e	-0.012372984
177	0xbc41e0db	-0.011833395
178	0xbc245588	-0.010030158
179	0x3b97edc5	0.0046364986
180	0x3c3fd6eb	0.011708955
181	0xbbdb7525	-0.0066973143
182	0x39e0ee37	0.00042902093
183	0xbc146f86	-0.009059792
184	0x3b52ab72	0.0032145646
185	0xbcc31333	-0.023812866
186	0xbc24902e	-0.010044141
187	0x39ba1c72	0.00035497878
188	0x3bb98206	0.005661252
189	0xb9f9fb22	-0.0004768009
190	0x3c671a01	0.014105321
191	0xbbbb5573	-0.0057169735
192	0x3c4034b1	0.011731313
193	0xbb7469d7	-0.003729453
194	0xbaaab320	-0.0013023354
195	0xbca417e7	-0.020030929
196	0xbc1de22e	-0.009636445
197	0x3c682336	0.014168551
198	0xbbc03e66	-0.0058668135
199	0xbc0b1c12	-0.008490579
200	0xba1e05a0	-0.000602806
201	0xbbb2d3e4	-0.0054573882
202	0xbc2287dd	-0.009920088
203	0x3c671091	0.014103071
204	0xbb1ad923	-0.0023627959
205	0xbbf91ec3	-0.007602544
206	0x3c0a9a72	0.008459674
207	0x3cc34ed8	0.023841307
208	0xbc393c46	-0.011305874
209	0xbc499e01	-0.0123057375
210	0xbb86ec9d	-0.004117562
211	0xbc2a05a1	-0.010377319
212	0x3b1be011	0.0023784677
213	0x391f858d	0.00015213173
214	0xbc16ec35	-0.00921159
215	0xbbcb82e1	-0.0062106703
216	0xbbf5f7fd	-0.007506369
217	0xbce32a8a	-0.027730245
218	0xbb5d49f3	-0.0033766
219	0x3c07fb23	0.008299622
220	0x3c8223a1	0.01588613
221	0xbc0d6389	-0.008629688
222	0xbb3407ef	-0.002747055
223	0xbc27f96d	-0.010252339
224	0xbbbce813	-0.00576497
225	0x3b9fcac5	0.004876467
226	0xbc6b1e00	-0.014350414
227	0x3b9c505f	0.004770323
228	0x3bb8e9fc	0.0056431275
229	0xbbb69383	-0.005571784
230	0x3bc5726c	0.006025603
231	0xbbfd1e01	-0.007724524
232	0xbbfb5b5a	-0.007670802
233	0x3b2d0ed3	0.002640654
234	0xbca2cdb8	-0.019873485
235	0x3c2dc7b2	0.010606693
236	0xbbf21754	-0.007388035
237	0xbb90644e	-0.0044064885
238	0xbb24afaf	-0.002512913
239	0x3ba553e6	0.005045402
240	0xbc80e0b5	-0.015732149
241	0x3b747843	0.0037303127
242	0xba18ca59	-0.0005828492
243	0xbc58fdf2	-0.013244139
244	0xbb9f2610	-0.0048568323
245	0x3b8ff813	0.0043935864
246	0xbc1d653c	-0.009606656
247	0x3c01f65a	0.00793227
248	0xbbef89ad	-0.0073101134
249	0x3c4bf252	0.01244791
250	0x3b1a5386	0.002354832
251	0xbc114dbe	-0.008868633
252	0xb8e6fa13	-0.000110138346
253	0x3aab8694	0.0013086372
254	0x3c830ee7	0.015998317
255	0xbb6b1f48	-0.00358768

action_model._discrete_distribution.branches.0.bias f4 [2]
0	0x3be0ed81	0.00686425
1	0xbbe0ed82	-0.0068642506

critic.network_body.linear_encoder.seq_layers.0.weight f4 [128, 6]
0	0x3f811f4f	1.008768
1	0xbdf9134d	-0.121618845
2	0xbf40c960	-0.75307274
3	0xbe0e4565	-0.1389366
4	0xbe5ac3ef	-0.21363805
5	0xbeb7a49f	-0.35867783
6	0xbf1dd87b	-0.6165845
7	0x3f2e01e5	0.6797164
8	0xbe4c050f	-0.19923805
9	0x3f0e0780	0.55480194
10	0xbf28e2c3	-0.6597101
11	0xbd4280b4	-0.047486022
12	0xbed4b4cc	-0.41544187
13	0xbf414e39	-0.75509983
14	0xbe8b8813	-0.27252254
15	0xbd4cbc12	-0.049984045
16	0xbdfab78a	-0.122420385
17	0x3da07f54	0.07836786
18	0xbf01541f	-0.50518984
19	0x3e8e8dde	0.2784261
20	0xbf065f7e	-0.5248946
21	0x3e865a39	0.2624071
22	0xbe3ac225	-0.18238123
23	0x3edf77aa	0.43645984
24	0x3cc2b73a	0.02376901
25	0x3f023575	0.5086282
26	0x3e1f60ef	0.15564321
27	0xbf0d3095	-0.55152255
28	0x3f6ed8a6	0.9329933
29	0x3ed584b7	0.41702816
30	0xbf15da33	-0.5853607
31	0xbea25111	-0.31702474
32	0x3f44b101	0.76832587
33	0xbf42f566	-0.761557
34	0x3f1f15f7	0.6214289
35	0x3e565d44	0.20934016
36	0xbd66b52f	-0.056325134
37	0x3ec17860	0.3778715
38	0x3e724db0	0.23662448
39	0xbde1750c	-0.11008653
40	0xbe907c5e	-0.28219885
41	0x3dc67201	0.09689713
42	0xbdb6e53d	-0.089304425
43	0xbdb9ba7d	-0.09068773
44	0x3dc66639	0.09687466
45	0xbef8d1fb	-0.48597702
46	0xbebcd639	-0.3688219
47	0x3f08a193	0.5337154
48	0x3e7016fe	0.23446271
49	0x3eb46ab0	0.35237646
50	0xbe32ce7c	-0.1746158
51	0xbee71137	-0.4513032
52	0x3d052f88	0.032516032
53	0x3f10339f	0.5632877
54	0xbd9f5061	-0.07779003
55	0x3f348ff9	0.70532185
56	0x3df20f6d	0.118193485
57	0x3eb221d3	0.3479143
58	0xbf135af1	-0.5756064
59	0xbf348db0	-0.705287
60	0xbeb3abdd	-0.3509206
61	0x3eb8a336	0.3606202
62	0xbd1022ba	-0.035189368
63	0xbee535bd	-0.44767562
64	0x3c9633b5	0.018335203
65	0x3e82647c	0.25467288
66	0x3f056403	0.5210573
67	0xbf0920c3	-0.53565615
68	0xbe485337	-0.19562994
69	0xbe897237	-0.26844952
70	0xbe197505	-0.14986046
71	0x3f3de453	0.7417652
72	0xbc27fc7d	-0.010253069
73	0x3e96eda1	0.2947817
74	0x3e4ceb1c	0.20011562
75	0xbf2ef7e1	-0.68346983
76	0xbe49b4a0	-0.19697809
77	0xbe716a60	-0.23575735
78	0x3f1c095c	0.6095178
79	0x3e34501f	0.17608689
80	0xbea1e1c9	-0.31617573
81	0x3ebbc4a9	0.36673477
82	0xbe15e56b	-0.14638297
83	0xbf5eab4b	-0.8698012
84	0xbe77bb06	-0.24192438
85	0xbf544300	-0.82914734
86	0xbdbe9e8e	-0.09307586
87	0xbee199d7	-0.44062683
88	0x3ec6823f	0.38771245
89	0xbe8d1cc8	-0.2756102
90	0x3ebb56a0	0.36589527
91	0xbea88720	-0.32915592
92	0xbeac9180	-0.33704758
93	0xbf4cac32	-0.7995025
94	0x3e7e5025	0.2483526
95	0xbece291e	-0.40265745
96	0xbf4e4411	-0.8057261
97	0xbe70151c	-0.23445553
98	0xbea8c10f	-0.32959792
99	0x3d324670	0.043524206
100	0x3f1e6b9a	0.61882937
101	0xbed62aae	-0.41829437
102	0x3d9e0b24	0.07716969
103	0x3e78e016	0.24304232
104	0x3e5dd906	0.21664819
105	0xbd83c00a	-0.06433113
106	0x3e2e0540	0.1699419
107	0x3d939cbd	0.0720763
108	0xbe56c5d4	-0.20973903
109	0x3ee46b3a	0.44613057
110	0xbdf09aea	-0.117482975
111	0x3e0c083a	0.13675013
112	0xbe927a28	-0.28608823
113	0x3e83e6c0	0.25761986
114	0x3f08c43f	0.5342445
115	0xbf128e2f	-0.57248205
116	0x3e80c65c	0.25151336
117	0xbdbefc46	-0.09325461
118	0x3f42c886	0.76087224
119	0x3f0fd8a4	0.5618994
120	0x3f327d54	0.69722486
121	0x3e717dfe	0.23583218
122	0x3d82b9c4	0.06383088
123	0xbdbc253e	-0.09186791
124	0x3d7e5d92	0.062100954
125	0xbd81313f	-0.06308221
126	0x3f055dfb	0.5209653
127	0xbf078734	-0.5294068
128	0xbf1ebc2c	-0.6200588
129	0xbebdf16b	-0.3709825
130	0xbc5e1e95	-0.013557096
131	0xbf662bbf	-0.899105
132	0x3ebed17e	0.37269205
133	0xbec03826	-0.37542838
134	0x3d79341c	0.06084071
135	0xbea27ca1	-0.3173571
136	0x3da42327	0.08014517
137	0xbe2a7087	-0.16644488
138	0xbe163fe0	-0.14672804
139	0x3ec94bfc	0.39315784
140	0x3e02dc04	0.12779242
141	0x3e0d9950	0.13828015
142	0xbdb5030f	-0.08838474
143	0xbe22cdd4	-0.1589883
144	0xbebc24e3	-0.36746892
145	0xbeb895e0	-0.36051846
146	0xbdf1c499	-0.11805076
147	0xbe6f09be	-0.2334356
148	0x3e074cdb	0.13212912
149	0x3ebefa37	0.37300274
150	0x3b885264	0.0041602124
151	0xbf5484f1	-0.8301535
152	0x3ef95c12	0.48703057
153	0xbf2edd17	-0.68306106
154	0xbdaba079	-0.08380217
155	0x3d9eb4d2	0.077493325
156	0xbdf2bdde	-0.118526205
157	0x3f1d959c	0.6155641
158	0xbed046da	-0.40679055
159	0x3dafc959	0.08583326
160	0x3d7c1a2a	0.06154839
161	0xbf55f952	-0.8358356
162	0xbeab5303	-0.3346177
163	0xbdf8f763	-0.1215656
164	0xbf1ccfac	-0.6125438
165	0x3ee7879b	0.45220646
166	0xbf406244	-0.7514994
167	0x3eb71ab2	0.35762554
168	0xbd4e2fae	-0.05033844
169	0xbeb559f0	-0.3542018
170	0x3da809e9	0.08205015
171	0x3e9bcd36	0.3043
172	0xbe022694	-0.12710029
173	0x3ebeb0e2	0.37244326
174	0xbeeaf9c2	-0.45893675
175	0x3ee57b5c	0.44820678
176	0xbe4f3380	-0.2023449
177	0xbee2744a	-0.44229347
178	0xbe519a10	-0.20468926
179	0xbe6abaa2	-0.22922757
180	0xbe4fa8f2	-0.20279291
181	0x3ec7dd9e	0.39036268
182	0xbf0522f3	-0.52006453
183	0xbf4fdf5c	-0.81200194
184	0x3ead86f6	0.3389203
185	0x3beab833	0.0071630715
186	0x3e8aec6a	0.27133495
187	0x3e71c2c3	0.23609452
188	0x3ddf7595	0.10911099
189	0xbec0945e	-0.37613195
190	0xbee563f9	-0.44802836
191	0xbeabb89a	-0.33539277
192	0xbd9796b4	-0.07401791
193	0xbe7063dc	-0.23475593
194	0x3eee1835	0.46502843
195	0xbe05d314	-0.13068801
196	0xbe259d03	-0.16173176
197	0xbd78d844	-0.060753122
198	0x3f074e44	0.528538
199	0x3f0afbe5	0.5429061
200	0x3d91913b	0.07107779
201	0x3f0a431b	0.54008645
202	0xbea8e76c	-0.3298906
203	0xbe3c0b4f	-0.18363689
204	0x3ddb18eb	0.10698112
205	0x3dd2386a	0.102646664
206	0x3f0afe49	0.5429426
207	0xbf03c99d	-0.5147951
208	0xbdb1094e	-0.08644353
209	0x3dd0b37c	0.10190484
210	0x3e72dcd1	0.23717047
211	0xbdda9fe3	-0.10675027
212	0xbf45b88d	-0.7723473
213	0x3e1e6aa7	0.15470372
214	0x3e96a0cc	0.29419553
215	0x3d3998a9	0.045311604
216	0x3dbc6f71	0.09200943
217	0xbd47bbfc	-0.04876326
218	0x3eed06c3	0.4629422
219	0xbeaaedb1	-0.3338447
220	0xbdbd8cc4	-0.092553645
221	0x3da0c743	0.07850506
222	0x3e31e2a0	0.17371607
223	0x3ea1f3eb	0.31631407
224	0x3f2b32dc	0.6687448
225	0xbb829421	-0.0039849435
226	0xbf7a75f9	-0.9783626
227	0x3c263936	0.010145476
228	0xbdb998ab	-0.09062322
229	0xbec722bb	-0.38893685
230	0x3ea2f21d	0.31825343
231	0x3f0e7b07	0.55656475
232	0x3eaa32f1	0.3324199
233	0x3f17d5aa	0.593104
234	0xbd8fe7fa	-0.07026668
235	0x3f0ac16a	0.54201376
236	0x3eae1ca3	0.34006223
237	0xbe4b86dc	-0.19875664
238	0x3e01a380	0.12660027
239	0x3e523a5a	0.20530072
240	0xbd4e4d81	-0.050366882
241	0xbebf2dc8	-0.37339616
242	0xbeb28829	-0.34869507
243	0xbcdb32a4	-0.026757546
244	0x3f7b1ce8	0.9809098
245	0x3f439cf1	0.7641135
246	0xbe873770	-0.26409483
247	0xbdcd565d	-0.10026238
248	0x3f294d95	0.66134006
249	0x3d3f4f15	0.046706278
250	0x3df556a6	0.119794175
251	0x3ea355c2	0.31901366
252	0xbdb18479	-0.08667845
253	0xbec951c1	-0.39320186
254	0xbe240c3b	-0.1602029
255	0x3e98d091	0.29846624

critic.network_body.linear_encoder.seq_layers.0.bias f4 [128]
0	0x3aa42cba	0.0012525537
1	0xba554887	-0.00081361126
2	0x3abbd9f3	0.0014331922
3	0xba307f2e	-0.00067328184
4	0xb9a4276a	-0.00031309883
5	0xba3c49cc	-0.00071826275
6	0xbacdecf6	-0.0015710879
7	0x3ad383bb	0.0016137281
8	0x3a196fe2	0.00058531587
9	0xb9901b6f	-0.0002748626
10	0x39e85022	0.00044310192
11	0xba982c72	-0.0011609925
12	0xba7c8590	-0.00096329395
13	0x39f49054	0.0004664684
14	0xba3e466c	-0.00072584185
15	0x3929e559	0.00016202535
16	0xbaa4abac	-0.0012563369
17	0xba95405f	-0.0011386982
18	0xbb22e75c	-0.002485714
19	0x3a231cf4	0.0006222271
20	0x3a1578b2	0.0005701884
21	0xb78daf46	-1.6890128e-05
22	0xbaad5f0d	-0.001322718
23	0x38b5408c	8.642775e-05
24	0x397441d9	0.00023294183
25	0x39eaa61f	0.00044755728
26	0xba570720	-0.0008202661
27	0x3a4c9c65	0.0007805287
28	0xb94d08c2	-0.00019553586
29	0xb9f999db	-0.00047607612
30	0x38414568	4.6079425e-05
31	0x3a031c12	0.0005001436
32	0xbaab624f	-0.0013075563
33	0xba940a34	-0.0011294545
34	0xb9118633	-0.0001387827
35	0xba3861b4	-0.0007033602
36	0xbaa96ece	-0.0012926699
37	0xba2f6bfe	-0.00066918123
38	0xbb308416	-0.0026934198
39	0xbb14bf6a	-0.00226971
40	0x36e5dcad	6.850422e-06
41	0xbab4d3e9	-0.0013796064
42	0xbb28812b	-0.0025711756
43	0xba80d00e	-0.000982763
44	0xb914790b	-0.00014159472
45	0xba57ba6e	-0.00082293793
46	0x3a921f24	0.0011148197
47	0x391000a9	0.00013733156
48	0xbae34e4c	-0.001734206
49	0xbb0c86ec	-0.0021442724
50	0xb9bb73b3	-0.00035753622
51	0xbba03887	-0.004889551
52	0x3a2960a0	0.00064612366
53	0x39e3eb14	0.0004347196
54	0xba091fa8	-0.00052308524
55	0xbabe8dda	-0.0014538125
56	0xbaf80bda	-0.001892443
57	0xba8003fc	-0.0009766812
58	0xba26aafe	-0.0006357877
59	0xbb0fb142	-0.0021925722
60	0xbac1f601	-0.0014798046
61	0xba9488c5	-0.0011332264
62	0x3a89f075	0.0010523932
63	0x3a667876	0.0008791754
64	0xba48a20f	-0.0007653543
65	0xba818166	-0.0009880483
66	0xbb00fc2b	-0.0019681554
67	0x3b1bbec0	0.002376482
68	0xba2fc662	-0.00067052816
69	0x3b0040f4	0.0019569965
70	0xb984b2b0	-0.00025310135
71	0x3b26b1da	0.0025435598
72	0xba8f2f9f	-0.0010924226
73	0xbaa7760a	-0.0012776267
74	0xba6b1fa7	-0.0008969255
75	0x3ab4d89f	0.0013797468
76	0xba97739e	-0.0011554842
77	0xba853bc8	-0.0010164911
78	0x3a7b7ad4	0.0009593193
79	0x390894ee	0.00013025451
80	0xbb0720f2	-0.0020619002
81	0xbb0e1a27	-0.0021683068
82	0xb9cd1e98	-0.0003912344
83	0x3aacbd2b	0.0013178935
84	0x3a1959a1	0.00058498426
85	0xbb195692	-0.0023397547
86	0x3a074a06	0.00051608717
87	0x3a7bd860	0.00096071325
88	0x3ac8e3ed	0.0015326716
89	0xb98961c7	-0.00026203526
90	0x3a2724b2	0.00063760125
91	0xbadaa431	-0.0016681013
92	0xba82e133	-0.0009985327
93	0x3b49eeb5	0.0030812446
94	0xb9a965b4	-0.00032309967
95	0x3af91b04	0.0019005244
96	0xba883b34	-0.001039362
97	0xba621004	-0.00086236023
98	0xba6d48b5	-0.0009051667
99	0xbb863084	-0.004095139
100	0xbad356b1	-0.0016123859
101	0xba210dc8	-0.0006143716
102	0xbb081d73	-0.0020769506
103	0xba860492	-0.0010224751
104	0x3a9d831a	0.0012017221
105	0xba2cbc6d	-0.0006589357
106	0x3a049843	0.0005058089
107	0xba8f0139	-0.0010910399
108	0x3ace05c1	0.0015718268
109	0xb9d2f563	-0.0004023715
110	0x3adc29f3	0.001679717
111	0x3a9a85ff	0.0011789202
112	0xba1c8016	-0.0005970014
113	0xb70eb372	-8.50564e-06
114	0xbb2b6e2c	-0.0026158197
115	0xba24b5ff	-0.0006283223
116	0xbae808c1	-0.0017702804
117	0xba78d157	-0.0009491643
118	0xb99317f3	-0.00028055868
119	0xbadcd91b	-0.001684937
120	0xba8e1995	-0.0010841364
121	0x3a20b22a	0.0006130064
122	0x3a7142e6	0.0009203389
123	0x3a882e28	0.0010389732
124	0x3a112d09	0.0005538022
125	0xbae8a56f	-0.0017749498
126	0xbad2a9c7	-0.0016072326
127	0x398486ff	0.00025277582
