results/ppo/Car Agent/Car Agent-33536.onnx (onnx, 76114 bytes, 9 tensors)

action_model._continuous_distribution.log_sigma f4 [1, 2]
000000 8a e6 15 ba a1 cd ee bb
       -0.0005718252 -0.0072876965

action_model._continuous_distribution.mu.bias f4 [2]
000000 4f d4 9a 38 d7 40 7b 39
       7.382838e-05 0.0002396138

action_model._continuous_distribution.mu.weight f4 [2, 128]
000000 45 0e 90 3c 26 b1 a7 bc e9 39 a9 bc 3a 3f 97 3c
       0.01758493 -0.020470213 -0.020657497 0.018462766
000010 70 8f 49 bc 94 1e 02 bd d3 06 71 3c 41 20 56 3c
       -0.012302265 -0.031767443 0.0147111 0.013069213
000020 68 68 bc 3c bd 85 90 bc 17 c2 09 3c d2 3b eb bb
       0.022999004 -0.017641896 0.008408091 -0.007178762
000030 a8 0c c8 3a d7 a1 75 3c a6 ad 60 3b fb 42 04 3b
       0.0015262561 0.014992199 0.003428319 0.0020181525
000040 04 87 2d ba ad 36 57 bc a2 b0 c2 3c 75 df 8b bb
       -0.0006619545 -0.013135594 0.023765866 -0.0042685815
000050 69 6b 4f bb 4f 61 cd 3c 2d 8a aa bc b6 54 a6 bb
       -0.0031649715 0.025070814 -0.02081784 -0.0050760163
000060 f8 c5 e4 bb 40 7f 9a 3c c7 0b 41 bc 8c 48 39 bb
       -0.0069816075 0.018859506 -0.011782593 -0.0028272
000070 52 5e 55 3c fd 63 84 bc 79 5e 40 bc 27 54 3c 3c
       0.013022976 -0.01616096 -0.011741274 0.011494673
000080 d8 c3 19 bc 2e c8 12 bd 33 f7 da 3c d0 f2 bd 3c
       -0.009385072 -0.035835437 0.026729202 0.023187071
000090 1c 00 df bc a4 a6 59 3c d7 13 67 bb dc e7 8c 3c
       -0.027221732 0.013284359 -0.0035259628 0.017200403
0000a0 4b df 08 3c 5b 87 87 bc 2b 4d df 3c 10 20 2b 3c
       0.008354018 -0.016544035 0.027258476 0.010444656
0000b0 fa bb 03 3d a2 bb 52 3c 4e 75 12 bd c3 2a 09 bc
       0.03216169 0.012862118 -0.0357564 -0.008372012
0000c0 1c 29 97 bc 47 c0 1a bb 66 bd 16 3c e6 28 de bb
       -0.01845222 -0.0023613141 0.00920043 -0.006779778
0000d0 3e a3 16 3a 13 0c 90 3b 97 50 65 3c d2 8f 1f 3c
       0.0005746371 0.0043959706 0.013996265 0.009738879
0000e0 71 98 43 bc 75 9b 99 bc cd 96 69 bb 6a 89 e6 bb
       -0.0119382 -0.018750886 -0.0035642863 -0.007035424
0000f0 ac 1f ad bb fa 41 34 bc 79 8a a5 bb 4d dc 2a bc
       -0.0052833166 -0.011002058 -0.0050519076 -0.0104285
000100 06 f2 b9 bc c6 9d b0 bc 57 83 bd bb 20 ee 39 bc
       -0.022698414 -0.021559607 -0.005783479 -0.011348277
000110 88 89 8b 3c f4 c1 2b 3c 84 5c 81 bc a0 4d cb 3c
       0.017033353 0.010483254 -0.015791185 0.024817288
000120 46 28 5e bc bc 08 91 3b a9 b8 01 bc 06 c2 4c 3b
       -0.013559407 0.00442609 -0.007917562 0.0031243577
000130 28 b8 09 3d 29 5c c9 bb 4a fe be bc 2e f8 4d bc
       0.03362289 -0.0061450195 -0.023314614 -0.012571378
000140 06 8e 9b 3c 4f e9 b6 bc ba 89 d1 bc 30 ab 52 bb
       0.01898862 -0.022328047 -0.025578368 -0.0032145493
000150 a3 b9 31 3c 77 5e a6 3b 59 95 d8 bc 1e 03 8d bc
       0.010847482 0.005077179 -0.026438402 -0.0172134
000160 62 2f 16 3b 9b 02 15 3c a2 c2 82 3c a9 a1 ac bb
       0.0022916426 0.0090948595 0.015961949 -0.005268295
000170 d7 e8 00 3b af 83 af 3c 1e 74 04 bc f3 60 49 bd
       0.0019670033 0.021425096 -0.008084325 -0.049164724
000180 c6 96 7e ba 8d ed b9 3c 77 69 49 bc 73 21 17 bd
       -0.0009711798 0.02269628 -0.012293211 -0.036897134
000190 13 e2 cd bc 7f 46 19 3c 1f 5d 38 bc b9 87 ec bb
       -0.025132215 0.0093551865 -0.011252671 -0.007218328
0001a0 42 52 00 bc 7e aa 0e bd 68 94 54 b9 1a 7a ec bc
       -0.007832112 -0.034830563 -0.00020273181 -0.028866816
0001b0 3d da d7 3b 72 1a fa 3c e2 20 00 bd c9 41 17 bd
       0.0065872953 0.030530188 -0.03128136 -0.036927972
0001c0 6e 25 e0 bc 06 75 f1 bb 81 e9 ef ba 82 2d 1f bc
       -0.027361598 -0.0073686866 -0.0018303843 -0.00971544
0001d0 3d b5 78 bc 5e 67 a3 3c cd 14 31 bc 28 fa 8d 3c
       -0.015179929 0.01994675 -0.010808182 0.017331198
0001e0 0f 62 39 bc 06 cb 1b bd b6 50 d6 bb c7 8f bc bc
       -0.011314883 -0.038035415 -0.006540383 -0.023017777
0001f0 b0 e9 0a bd 4e 0c 10 3c 18 71 30 bc ec 8c 6a b9
       -0.033914268 0.008791996 -0.010769151 -0.00022368476
000200 61 36 21 3c cc 73 df 3c 53 83 63 bc e4 58 d7 3a
       0.009839625 0.027276896 -0.013886291 0.001642969
000210 2f ca 39 3c f6 75 cf bc 33 7f 99 bb cc 15 89 3c
       0.011339708 -0.025324803 -0.004684353 0.016734026
000220 6c 4e 0c bd 77 59 19 3c 5c 13 5e ba 4b 35 61 bc
       -0.034254476 0.009359709 -0.00084715127 -0.013745616
000230 df 41 98 3c 13 57 86 bb 73 78 d2 3c 83 a1 91 3c
       0.018586097 -0.0040997355 0.0256922 0.01777721
000240 24 05 a6 3c 88 ce 6a bc 78 14 6f 3a b4 fd 33 3c
       0.020266123 -0.014331467 0.00091201765 0.0109857805
000250 96 18 87 3c 4a e8 44 bc 01 22 30 bc ab 04 23 3c
       0.016491216 -0.012018273 -0.010750295 0.009949843
000260 4b a8 c9 bb 34 cd 8e bc 66 10 1b 3c 6c b3 83 3c
       -0.0061540953 -0.017431833 0.009464359 0.016076766
000270 68 50 2b 3b 47 54 a1 3c 60 dd 84 bb d0 0c 54 b8
       0.0026140455 0.019693507 -0.0040547103 -5.055667e-05
000280 8d ae 62 3c 3f 7e 74 3b 03 f7 ce bc a5 b2 d5 3a
       0.013835561 0.0037306694 -0.025264269 0.001630385
000290 40 ad c8 bc 91 5d c9 3c dd 63 3c 3c 7c c7 2c bd
       -0.024496675 0.024580749 0.011498419 -0.04218243
0002a0 0f e9 3c bc 48 07 29 bd 39 5e 1a 3d 11 d2 ec bb
       -0.011530175 -0.04126671 0.037687514 -0.0072271903
0002b0 5d 52 38 bd 34 26 4b 3c 1a ed 7c bb ee a3 eb 3b
       -0.045000423 0.012399245 -0.0038593472 0.007191173
0002c0 ae 4b df 3c c2 52 85 3c e5 bb 1c 3a 14 e3 96 3c
       0.027257767 0.016274814 0.0005978926 0.018418826
0002d0 5d 34 24 3a b3 58 bb ba 5f cf 6e bb d4 33 2a bc
       0.0006263906 -0.0014293402 -0.003643952 -0.010388333
0002e0 fd f3 40 bc e2 a7 a8 bb f7 ad e0 b9 00 3a 99 bc
       -0.011776921 -0.0051469663 -0.00042854223 -0.018704414
0002f0 a2 74 e2 bc 86 d7 86 bc ec 1c f8 3b a8 d6 e4 3b
       -0.027643505 -0.016460191 0.007571807 0.006983597
000300 af c1 8f bc 5a 47 6c ba 14 1e 82 3b b0 c0 19 3b
       -0.01754841 -0.0009013318 0.0039708707 0.0023460798
000310 06 6b 47 3c 46 5c 2b bd a1 82 5a 3c f4 72 f8 3c
       0.0121715125 -0.041836046 0.013336808 0.030328251
000320 4e 75 a9 bc 21 13 41 3b 5e d1 82 3c dc 4e c8 ba
       -0.020685818 0.0029460865 0.015968975 -0.0015282291
000330 2c 7a c2 3c e1 a3 80 3c 7d 80 1a bc f3 ff 4f 3c
       0.023739897 0.015703144 -0.009430048 0.0126953
000340 ea c1 91 3c 32 60 7e 3b e6 2b 21 3d 55 0d f7 bb
       0.01779266 0.003881466 0.039348505 -0.007539431
000350 d7 99 f1 bb 69 7c 93 3c 07 cc 08 3c ac b7 cb 3c
       -0.0073730755 0.01800366 0.008349425 0.024867855
000360 37 82 0d bc ea cf c4 bc 48 65 c7 bb 2b bb 15 bb
       -0.008637003 -0.024024922 -0.0060850717 -0.0022847157
000370 41 e0 44 3c f4 63 b5 3b 46 37 84 bb b2 54 5a bc
       0.012016357 0.005535597 -0.0040349094 -0.013325857
000380 bb b7 bd bb 3b 49 af bc f6 24 77 bc c4 8d 86 3c
       -0.0057897246 -0.021397224 -0.015084496 0.016425021
000390 63 dc 95 3c 09 1d 72 bc 49 30 c5 3c 30 4b cd 3c
       0.018293565 -0.01477743 0.024070876 0.025060266
0003a0 ec bf 7e 3c 29 eb 1c 3c 28 9b f5 3c 94 bb 97 bc
       0.015548687 0.009577551 0.02998121 -0.018522061
0003b0 ad d6 74 3b 98 db 20 3c a1 5a e1 bb 37 fd c3 bc
       0.0037359402 0.00981798 -0.006877259 -0.023924453
0003c0 92 60 1c bc 4e 94 a5 3b 27 6c 99 3b 51 b1 dd bc
       -0.0095445085 0.0050530797 0.004682082 -0.02706209
0003d0 97 f0 51 bb 12 78 16 bb ca 18 df bc 60 7d 46 bc
       -0.0032034272 -0.002295975 -0.0272335 -0.012114853
0003e0 37 88 ef 3c 93 2c 29 bc 6f cf e0 3c 68 4f ef bc
       0.029239757 -0.010325569 0.027442662 -0.029212669
0003f0 3c fd 76 3c 13 c9 81 bc a2 35 09 bc 9c 76 75 bc
       0.015075024 -0.01584295 -0.008374603 -0.014981892

action_model._discrete_distribution.branches.0.bias f4 [2]
000000 f2 fc 1a 3b eb fc 1a bb
       0.0023649302 -0.0023649286

action_model._discrete_distribution.branches.0.weight f4 [2, 128]
000000 b1 37 06 bb d5 7b 36 3c 40 86 c1 bb 86 22 96 3b
       -0.0020479972 0.011137922 -0.0059058964 0.0045817522
000010 e2 64 45 3b 9e 4a 58 3a 95 06 8b 3b a2 a4 bb ba
       0.0030119945 0.0008250865 0.004242728 -0.0014316032
000020 b3 af 9d 3b e2 43 a8 3a 51 90 3d 3b 51 71 93 3c
       0.0048122047 0.0012837613 0.002892513 0.01799837
000030 53 2a 02 bc 38 f7 cb 3b 18 ab ee 3b d3 be 2d bb
       -0.007944661 0.006224539 0.0072835796 -0.0026511445
000040 ae 12 08 ba b4 f7 77 bc ba 29 3f bc 1b 9d 20 3c
       -0.0005190772 -0.015134741 -0.011667663 0.009803082
000050 21 4c 31 bc 8e 8b 33 bc be 2c 8f b9 55 bc b6 bb
       -0.010821373 -0.010958565 -0.0002730842 -0.00557665
000060 97 d8 d1 bb 6d d6 d2 bb 4d 29 bd 3a 4b 28 48 3b
       -0.0064039933 -0.006434253 0.0014431864 0.0030541595
000070 af f8 60 bb 46 5e 5c 3c 89 a6 aa 3b 56 88 69 bb
       -0.0034327914 0.013450211 0.005207841 -0.003563424
000080 8b f7 6e bb e6 ff 9d 3b 7d ea 12 bc eb 3d 0a 3c
       -0.0036463465 0.0048217652 -0.008967039 0.008437614
000090 d5 da 9c bc c8 e8 c8 3b a9 26 ee bb c6 3a ee 3b
       -0.019147316 0.0061312653 -0.0072677922 0.00727019
0000a0 a4 a8 06 3c bd 3b 8d bb 3f 3b 03 bc f6 90 2b bb
       0.008218918 -0.0043101 -0.008009731 -0.0026178933
0000b0 a7 5d 70 3c 15 d8 76 3b 21 e3 33 3c cd 21 6e ba
       0.014670766 0.0037665416 0.010979445 -0.0009084016
0000c0 89 24 87 bc 58 47 8d bb 1b ed 1a 3c 0c 87 46 bc
       -0.016496914 -0.0043114834 0.009455944 -0.012117159
0000d0 c5 22 d0 3b f5 33 30 3c cb 7e 34 bc f8 b8 5c ba
       0.006351801 0.010754575 -0.011016558 -0.00084198965
0000e0 23 5e 3a 3c 19 1e 78 bb 79 d3 9f 3b a8 60 a4 bc
       0.011374983 -0.0037859736 0.0048775044 -0.02006562
0000f0 42 dd cb 3b 64 3e 05 3c 7c 41 f1 39 60 2d 40 3c
       0.0062214443 0.008132551 0.00046015892 0.011729568
000100 4d 8d 00 bc 9f 43 ea bb 53 a5 db ba d4 c4 76 3a
       -0.007846189 -0.0071491743 -0.0016757644 0.0009413485
000110 b1 b4 85 bc 7d 00 63 bb f7 56 09 bc 0c 6c e3 3a
       -0.016321512 -0.0034637742 -0.00838255 0.0017350926
000120 20 3c 38 bc 93 54 2a 3a 2c 98 9e bc 1a 72 1e bc
       -0.011244804 0.0006497588 -0.01935967 -0.009670759
000130 2d 80 1d 3c 5c 83 99 bb 35 ad 7b bb 97 c5 b9 bb
       0.009613079 -0.0046848487 -0.00384028 -0.0056693065
000140 ec a2 38 3c 96 7d 17 bc 92 99 24 3c 9d 28 82 39
       0.011269312 -0.009246251 0.01004638 0.00024825791
000150 19 71 81 bc a4 e9 a3 ba b0 b9 e0 3b 20 a1 bc 3b
       -0.015801 -0.0012505543 0.006858073 0.0057565123
000160 16 1f e5 3a b4 16 17 3b fb 51 81 bc cb 33 09 bc
       0.0017480578 0.0023054304 -0.015786162 -0.008374165
000170 9d 31 0e b9 9e 33 77 bc a9 20 c6 3b ea 77 cc bb
       -0.00013560658 -0.01508799 0.006046374 -0.006239881
000180 d8 3f 13 b9 44 d8 b7 3b fc ce 91 3c 53 df e1 3c
       -0.00014042796 0.0056104977 0.017798893 0.02757231
000190 09 fb c0 3b db 3d 95 3b c8 40 76 39 21 1a 4f bc
       0.0058893007 0.004554493 0.00023484521 -0.012640507
0001a0 4a b2 97 3b 70 3e b2 bb 4a fd 1e 3c bb 5c 18 bb
       0.004629408 -0.005439572 0.0097039435 -0.002324863
0001b0 a3 b3 1e ba ee 9d 89 3b d3 46 86 3c f1 72 64 3b
       -0.00060539896 0.004199735 0.016391193 0.003485855
0001c0 16 61 18 bc a2 ec 25 bc 40 14 76 ba 1c 72 95 3b
       -0.009300491 -0.010127218 -0.0009387173 0.004560722
0001d0 c9 4c 07 3c e8 2f 07 bc e9 b0 50 ba 74 0d 6d 3c
       0.008258053 -0.008251168 -0.0007960932 0.0144685395
0001e0 3b 03 38 bb 3c d3 09 bc 99 41 0a bc 67 20 25 3c
       -0.0028078097 -0.008412179 -0.008438491 0.010078526
0001f0 22 0f 5b 3c c1 92 66 3c f4 bc b5 bb b8 c5 5f bb
       0.013370307 0.014073075 -0.0055462066 -0.003414495
000200 20 ea 7a 3b 9a 33 98 3b 63 50 2f bb 63 12 6a bc
       0.0038286522 0.0046448233 -0.0026750795 -0.01428661
000210 c9 2d f4 3a d5 93 9b bb 6a c7 37 ba 5a ee 78 3c
       0.0018629368 -0.0047478476 -0.0007010611 0.015193546
000220 35 47 41 3c d3 91 56 bc ff bd d8 3b 90 ed 80 3c
       0.011796762 -0.013096291 0.006614446 0.015738279
000230 a1 ac 9b bb d4 e4 ee bb 96 23 43 ba c5 c3 0e 3c
       -0.0047508036 -0.007290462 -0.00074439624 0.008713667
000240 64 6f 81 3c f7 97 2c bb 69 b2 88 3c d5 f0 0a 3b
       0.015800186 -0.0026335695 0.016686635 0.0021200676
000250 8e f0 9f 3b 5f 2f 9a bc 63 56 5d 3c 19 27 58 b9
       0.0048809713 -0.018821416 0.013509366 -0.0002061393
000260 b7 62 59 3b aa 47 8d bb b8 20 21 bb 27 b6 c5 bb
       0.003317041 -0.0043115215 -0.0024586152 -0.006033677
000270 cc 19 bb bb 08 e6 13 bc e9 f2 1d 3a 8a 91 a3 39
       -0.0057098623 -0.009027012 0.0006025271 0.00031198218
000280 4b ed c7 bb a4 80 95 3a 6d f6 20 3b 77 8e 2e bb
       -0.0061012856 0.0011406136 0.0024560944 -0.0026635209
000290 e4 0b eb bb 33 ce b6 bb 46 24 47 3c 2f 7e 78 3c
       -0.0071730483 -0.00557878 0.012154644 0.015166803
0002a0 2b 21 2e bc b8 2e dc 3b 65 12 4d 3c 5a d0 9b 3b
       -0.010628025 0.0067194365 0.012516593 0.004755062
0002b0 96 51 11 3c 62 fb d7 ba 58 26 62 3b 4f ef 03 3c
       0.008869549 -0.0016478116 0.0034507718 0.008052661
0002c0 8a bc ee 3b 9b 22 ad 3c aa 83 ed 39 5d aa 18 bb
       0.007285659 0.021134665 0.0004530226 -0.0023294904
0002d0 42 30 6d bc a6 06 d9 bb 52 86 c0 3b 51 32 50 bc
       -0.014476838 -0.006623107 0.005875387 -0.012707309
0002e0 76 c5 c0 3b dc ef a6 3b 71 ce 88 bb 60 17 5a bc
       0.005882914 0.0050945114 -0.0041750004 -0.013311237
0002f0 96 bb b3 3b 96 13 3a 3c 45 ed a5 bb d3 bb 62 3c
       0.0054850085 0.011357209 -0.005063685 0.013838726
000300 34 36 90 3b e6 c1 12 bb f0 ea 37 3a 9a 70 05 3c
       0.0044009928 -0.0022393405 0.00070159044 0.008144522
000310 70 75 37 3c e9 de 59 3b a3 40 02 3b 83 1e 35 3c
       0.011197433 0.0033244437 0.0019874952 0.011054638
000320 c6 e3 7a bb ff 1a 2a 3c 05 7d 38 3b 25 2c 56 bb
       -0.0038282736 0.010382413 0.002815069 -0.003268012
000330 d9 40 9f 3c 3c 4e 8c 3c e0 a3 24 bc 0f e5 34 3c
       0.019440101 0.017127149 -0.0100488365 0.01104094
000340 9d 81 2d bc 55 63 01 3b 0b 87 ce bb 83 30 87 3a
       -0.010589984 0.0019743044 -0.0063027195 0.001031414
000350 6b aa 73 3b 8c 68 9d 3c c8 b5 4b 3b 68 10 62 3b
       0.0037180434 0.01921489 0.0031083692 0.0034494642
000360 3c d9 b5 bc cf 20 fc 3a 0a 45 9e 3b e7 3b 81 39
       -0.022198312 0.0019235852 0.0048300074 0.00024649428
000370 02 0f 5a 3b f1 cd 84 3b e3 8a 6b 3c 27 34 1a 3c
       0.0033273106 0.0040528704 0.014376375 0.009411848
000380 25 b9 26 bb 73 ef 05 bc 64 81 f6 bb 20 70 3a 3c
       -0.0025439945 -0.008174765 -0.007522749 0.011379272
000390 cc 3d 19 bb e3 4d ec bc 79 43 d8 bb 6e f1 b5 ba
       -0.002338278 -0.028845733 -0.0065998402 -0.0013881156
0003a0 1f cf c3 39 c1 bd 01 3c d1 01 7b b9 e2 a8 2b 3b
       0.00037347616 0.007918776 -0.00023937902 0.0026193191
0003b0 71 ca 3c 3b 7e 80 a0 3b 6e 24 1b 3a c3 3f 57 3c
       0.0028807188 0.00489813 0.0005918209 0.013137761
0003c0 ce 05 4f bb 19 3e 05 3b b7 2e 5a bc 30 cf 5c bc
       -0.0031589153 0.0020331203 -0.013316802 -0.013477132
0003d0 cb 7d 41 3b a9 12 2b 3c 9f a3 bb b9 22 d1 07 3b
       0.0029524441 0.010441461 -0.00035789327 0.0020724018
0003e0 01 73 1d 3b 46 44 86 3b 53 11 ee 3b 79 e6 04 bc
       0.0024024846 0.0040974943 0.007265249 -0.00811159
0003f0 98 26 f2 ba 4a 71 22 3c 18 77 f2 3a 80 8c e7 3b
       -0.0018474637 0.0099147055 0.0018498627 0.0070663095

network_body.linear_encoder.seq_layers.0.bias f4 [128]
000000 a9 74 90 ba d5 ba 8b b7 83 c0 8b b9 e9 76 f0 3a
       -0.0011021096 -1.6657092e-05 -0.00026655578 0.0018345985
000010 5a dc d5 3a d4 5d 15 39 23 60 47 ba 6a 57 93 b8
       0.001631628 0.00014244701 -0.0007605573 -7.025788e-05
000020 35 41 98 b9 14 dd 84 39 83 31 b8 b9 26 de 58 bb
       -0.00029040282 0.00025341718 -0.00035132104 -0.0033091395
000030 a4 1d 60 33 34 f4 20 3b 93 ad c3 b9 57 f4 82 3a
       5.2181022e-08 0.002455962 -0.0003732262 0.0009991032
000040 77 1c 59 b9 e4 29 06 bb 34 fb 19 39 20 3c 07 bb
       -0.00020705337 -0.0020471746 0.00014684797 -0.0020635203
000050 aa f5 37 ba 2a 6e 4b 39 b2 5b c7 b9 ab af d0 b7
       -0.0007017503 0.00019400628 -0.00038024556 -2.4877334e-05
000060 4e 1b 79 b9 39 f7 8a 3a b2 e9 9b b9 2c 12 3c 3a
       -0.00023756662 0.0010602243 -0.0002973802 0.00071743387
000070 23 ac a5 38 9b 3d 8b b9 6f 2d 58 b8 34 42 49 39
       7.899876e-05 -0.00026558046 -5.1540726e-05 0.00019193516
000080 c1 f7 11 ba 67 18 cb ba d4 6d 8d 37 13 01 f1 b8
       -0.0005568229 -0.0015494943 1.6859653e-05 -0.000114919756
000090 bb c3 07 bb 11 c7 45 b8 53 15 76 ba 60 00 ef b9
       -0.002071603 -4.7153855e-05 -0.0009387333 -0.00045585912
0000a0 d7 cb 12 b9 70 fa e0 ba 7b 45 8d 39 ae 11 33 bb
       -0.00013999581 -0.001716448 0.00026945383 -0.002732377
0000b0 b7 f2 90 3a 45 aa 7c 37 04 aa b0 b9 78 b7 e1 b9
       0.0011058663 1.5060014e-05 -0.00033696007 -0.0004305204
0000c0 de 3e 3a b9 1f 9c 0e b9 50 58 0c 32 4c ab 89 3b
       -0.00017761762 -0.00013600335 8.1691525e-09 0.0042013284
0000d0 95 bd f1 b9 a3 f2 25 ba 62 8f 0d 39 7c ee dd b9
       -0.00046108352 -0.0006330406 0.00013500222 -0.0004233009
0000e0 4c 21 80 b9 5d 63 4e b9 fc ca 9f 3a db 06 b9 b0
       -0.0002443887 -0.00019682707 0.0012191231 -1.346247e-09
0000f0 8b cc 43 3a 89 4e dd 39 74 25 22 bb de 95 33 ba
       0.0007469139 0.00042210918 -0.0024741562 -0.000685064
000100 84 52 c3 3a b0 f5 8b 3a 02 c5 18 ba b7 66 c5 b9
       0.0014901911 0.0010678079 -0.00058276963 -0.00037651297
000110 f2 d5 fe 35 c5 eb b4 3a b8 60 17 bb 69 61 33 ba
       1.8986741e-06 0.0013803175 -0.002309842 -0.00068428233
000120 95 8f 8c b8 70 89 29 ba e6 0c ad b8 5c e1 96 b9
       -6.7024645e-05 -0.0006467318 -8.251685e-05 -0.00028778135
000130 bd 2f 12 bb d1 a2 87 39 67 dd 45 b9 9c 4c 1e b9
       -0.0022306286 0.00025870514 -0.00018869863 -0.00015096593
000140 f3 1e 0b ba 3f 97 b3 ba d3 bb 09 b8 73 4e 0e bb
       -0.0005307041 -0.0013701691 -3.283827e-05 -0.002171424
000150 53 0c 08 34 5c 0a 55 37 5f b8 74 ba cd e3 91 b8
       1.267047e-07 1.2698201e-05 -0.0009335335 -6.95657e-05
000160 db da a1 39 e2 9d 04 b3 c8 de 15 b9 79 64 92 b9
       0.00030871373 -3.087724e-08 -0.0001429274 -0.00027922148
000170 b7 c5 83 b8 8a ad 84 b2 21 af c9 ba 64 50 e2 b9
       -6.283394e-05 -1.5445739e-08 -0.0015387275 -0.00043165975
000180 fa 38 47 bb 99 f1 cc 38 db 43 de b3 6d a2 4c b9
       -0.003039895 9.772479e-05 -1.03500234e-07 -0.00019515464
000190 9f 58 01 3b 59 08 90 3a 29 54 5c b9 b3 ca 93 ba
       0.001973666 0.0010988816 -0.00021012187 -0.0011275619
0001a0 fb b3 5f 3b 45 af 63 31 8b 1f cd b8 60 46 ce 39
       0.0034134376 3.3132477e-09 -9.781037e-05 0.00039343815
0001b0 1b 4b 6e bb a4 e6 37 ba 4d 05 3d 39 fd c1 57 3a
       -0.0036360684 -0.0007015264 0.0001802642 0.00082305056
0001c0 9a 5d 38 ba fc 6f 4d b1 1c 04 6b b9 27 33 2c 39
       -0.00070329907 -2.9895082e-09 -0.00022412877 0.00016422254
0001d0 ac 88 fa ba be 4a 61 3a 33 bd 14 bb 1a 18 32 3a
       -0.0019114218 0.00085942063 -0.002269578 0.00067937525
0001e0 28 db 76 39 36 bb 0e 3b ba 3c fc 37 a3 de b3 b9
       0.0002354203 0.0021779067 3.0069019e-05 -0.00034307418
0001f0 99 53 a4 b9 b7 8f c2 39 14 07 21 3a b5 5c 1d b9
       -0.00031342803 0.0003710964 0.00061427173 -0.00015007223

network_body.linear_encoder.seq_layers.0.weight f4 [128, 9]
000000 84 b0 c2 bd a2 24 c0 3e 0a 2a 03 3e 8b 63 49 3f
       -0.09506324 0.3752795 0.12809005 0.78667516
000010 4b 37 b0 3d a5 71 da bd bd 1c 02 be e2 77 f9 3e
       0.08604296 -0.10666207 -0.12706275 0.48724276
000020 8e 1d 78 be 3e e3 53 bd 68 6d 98 be a3 ae 58 3d
       -0.24230024 -0.051730387 -0.2977097 0.05290092
000030 89 e6 17 3c a4 31 cb be 87 cf 6b 3f 96 92 f9 be
       0.009271272 -0.3968631 0.92113537 -0.4874465
000040 e1 eb 71 3d c5 fc 80 3e f4 82 46 3e 0b ba d5 bd
       0.059062842 0.25192848 0.19385892 -0.104358755
000050 ab ee cc 3d 60 39 43 bd 9f cb 2b 3e 16 ce 61 be
       0.1000646 -0.04766214 0.16776894 -0.22051272
000060 80 bd a9 3e d1 09 7f bd 37 7d c1 3e 28 75 4e be
       0.3315239 -0.06226522 0.37790844 -0.20161879
000070 b9 55 96 3d 1d 22 a6 be 96 3c 47 3d 8b 7d 1a bd
       0.07340569 -0.324479 0.048641764 -0.037717383
000080 80 f3 57 3e 17 6b 0a 3e ac ab 9b be 0d 3c 21 3d
       0.21088982 0.13517414 -0.30404413 0.03936391
000090 f4 f8 d5 bd 12 65 c4 be ec 76 9e 3d fe 8e 2f 3f
       -0.10447875 -0.3835836 0.07737526 0.68577564
0000a0 e4 c9 76 be da a1 a0 bd 93 df 27 bf a0 68 9f bc
       -0.24100453 -0.07843371 -0.6557552 -0.019459069
0000b0 28 1b 8d be 7a 30 56 3e cb b9 e4 3c dc 69 db be
       -0.2755978 0.2091693 0.027920624 -0.42854202
0000c0 17 b0 0f be 02 53 cc 3e 36 89 06 bf ea 20 a9 be
       -0.14032017 0.3990708 -0.5255312 -0.33032924
0000d0 6a 1a 28 3e bb 4e de 3e 45 c6 75 3f 09 c4 1f bd
       0.16416326 0.43419442 0.9600566 -0.039005313
0000e0 2b 87 d7 3e 7c cb 8d be 9f e6 07 3f 81 3f 50 bf
       0.42095312 -0.2769431 0.53086275 -0.813469
0000f0 72 86 8c 3d a9 c3 4b 3f 60 7f 0c 3e 32 98 05 be
       0.06861581 0.7959543 0.13720465 -0.13046339
000100 f6 45 38 3f 6e ae 4a 3c 19 a8 91 3c ba c2 8c be
       0.7198175 0.012370689 0.01778035 -0.27492315
000110 7f 49 64 3e 02 9c a9 3e 54 4c 92 bd e3 59 d0 bd
       0.22293662 0.33126837 -0.07143465 -0.101733945
000120 89 d3 97 3e 2a 92 4b 3e 2b 9f 27 be 6d f8 79 be
       0.29653576 0.19879976 -0.16369312 -0.24411173
000130 51 bf e6 3e 45 d8 c3 bd e9 b7 71 bf 85 dc 99 be
       0.45067838 -0.095627345 -0.9442125 -0.30051056
000140 65 83 d8 be 82 99 05 be 96 15 cb be 38 20 78 be
       -0.42287746 -0.1304684 -0.39664906 -0.2423104
000150 d6 20 d2 3d b9 b5 f2 be 9b cf d1 3e bb 47 52 3e
       0.10260169 -0.47404268 0.40978703 0.20535176
000160 49 f1 e4 3d 79 f2 a9 be fb 45 bc 3e 07 39 a4 be
       0.11178834 -0.33192804 0.3677214 -0.32074758
000170 6a b7 ec bd 24 1e 72 be 4c 28 80 bd b9 aa 25 3f
       -0.11558421 -0.2364431 -0.06257686 0.6471363
000180 7b cb 6f 3e c2 16 5f be fb eb 34 3b f1 19 29 3f
       0.23417465 -0.21786025 0.0027606476 0.6605521
000190 d0 1e 2c be 54 80 f2 3e f1 bc 9a be b5 05 5b be
       -0.16808629 0.47363532 -0.30222276 -0.21388896
0001a0 36 94 70 be 61 64 31 3f 39 09 09 bd d7 c9 48 bf
       -0.23494038 0.6929379 -0.03345606 -0.78432983
0001b0 56 91 b8 3c b8 5d ee be 8f 88 ec be be 0a 68 3e
       0.02253024 -0.46555877 -0.46197936 0.22660348
0001c0 b7 e6 ad 3d 6a 5e c3 3e b1 22 d8 be db 0b 15 be
       0.08491271 0.3815797 -0.42213967 -0.14555304
0001d0 f4 fe 64 bf a1 56 94 bc da 8a 17 bc 57 6d dc be
       -0.8945153 -0.018107714 -0.009249413 -0.4305217
0001e0 64 1c 77 3e a8 c6 09 be 5f a5 43 3c e4 ee d4 be
       0.24131924 -0.13454688 0.011941283 -0.4158851
0001f0 64 69 cb 3d c2 12 ca bd 99 ac 14 3f b9 ab 37 3f
       0.09932211 -0.09866859 0.58075863 0.717464
000200 5f 1d 13 3f 7b 6c 8e bd 07 8c 88 be 3b 97 c5 be
       0.5746669 -0.06954285 -0.26669332 -0.38591942
000210 76 77 b4 be 00 dd 21 3f cc fd f7 3c b0 98 0c 3e
       -0.3524739 0.63227844 0.030272387 0.1373012
000220 61 a3 33 be 79 d3 bf 3d af 7f 03 3e 06 d7 ac be
       -0.17542793 0.09366507 0.12841676 -0.337578
000230 1b 5d 37 3c 64 08 d9 3e a2 a1 42 3f 40 ab 16 bf
       0.011191632 0.42389214 0.7602788 -0.58855057
000240 68 85 4d bd 47 39 c7 3d af 1a c8 3d 7f b0 5b 3e
       -0.050176054 0.09727722 0.097707145 0.21454047
000250 97 69 38 be 82 78 8d be 34 10 94 be 87 a8 0b bf
       -0.1800903 -0.27631003 -0.28918612 -0.5455403
000260 24 85 41 3e 72 9f a8 3e f7 5b da 3e 1f e4 35 3f
       0.18898445 0.32934147 0.4264829 0.7105121
000270 3f 04 db be e2 b3 a0 bd 52 17 f4 be 28 9a a2 3e
       -0.42776677 -0.0784681 -0.47674042 0.31758237
000280 b0 e8 7c bd d0 82 2e 3f 89 24 3a be 62 44 d7 be
       -0.061745346 0.68168354 -0.18178 -0.4204436
000290 1f bf ad 3c 84 f0 6e be 6a b8 45 3e 2b 02 5c 3e
       0.021209298 -0.23333937 0.1930863 0.21485202
0002a0 1f 8f d7 3e 6b 3d ba be 24 53 ca bd cf 95 a7 3e
       0.4210138 -0.36374983 -0.09879139 0.32731482
0002b0 61 cc e8 bd 6e c6 57 be 9b 44 c3 3e 90 e8 d3 bd
       -0.11367107 -0.21071789 0.3813828 -0.10347092
0002c0 3d 88 74 be 30 e0 90 bd b0 03 02 be 27 51 13 3e
       -0.23880096 -0.0707401 -0.12696719 0.14386426
0002d0 44 41 6b 3f 5f 02 01 be 85 ee 94 bd 70 09 05 bf
       0.9189646 -0.12598561 -0.072720565 -0.51967525
0002e0 d6 73 0b 3e 37 13 60 3d 58 d6 13 bf 4f d7 89 3e
       0.13618407 0.054705825 -0.5774894 0.2692208
0002f0 e5 ad 83 3e ba 5c cd 3e e8 88 af 3e 58 59 8a bc
       0.25718608 0.40109807 0.3428414 -0.016888306
000300 ee d6 f7 bc e5 1c da 3e f8 31 96 3d fa 30 f4 3e
       -0.030253854 0.4260017 0.073337495 0.47693616
000310 14 54 0e bf 0a 52 d1 be 9a 38 94 be a4 8b 13 3e
       -0.55597043 -0.40882903 -0.28949434 0.14408737
000320 08 04 1c be 1b 3a 65 be 01 e6 cd 3e 27 81 db 3d
       -0.15235913 -0.22385447 0.40214542 0.10717993
000330 68 2c da 3d 61 43 31 be 93 a1 97 be 5e 2e 21 3e
       0.10653001 -0.1731086 -0.2961546 0.15740344
000340 2e 38 50 be 1b 40 8d 3e fb f2 8b be 80 53 ef bc
       -0.20333931 0.2758797 -0.27333817 -0.02921462
000350 d9 b4 c0 3e 8c ad 02 3f 74 26 97 bd fc 46 a7 3e
       0.37637976 0.5104606 -0.07380381 0.32671344
000360 93 21 a2 bd 0f 2b 02 3e 11 28 c9 3e 46 40 ac be
       -0.0791656 0.12711738 0.3928838 -0.33642787
000370 c9 ec 94 3e 0e 9c 07 bf 4b 4b ad be 2b 1d 6a bd
       0.29086903 -0.52972496 -0.33846506 -0.057156723
000380 25 25 10 3d e4 48 0b 3c c5 87 04 3e 01 7a 8a be
       0.035191674 0.008501265 0.12942417 -0.27046207
000390 22 31 93 3e 00 25 6a be fe 4f b2 be ed ed 05 be
       0.28748423 -0.22865677 -0.34826654 -0.13079043
0003a0 96 2b 58 3d 1c a9 cb 3d 29 3b 24 3d a2 13 5b 3d
       0.05277594 0.099443644 0.040095482 0.05348552
0003b0 85 3c 1a 3c d1 d9 02 3f 47 4b 8c 3e 0a 95 83 3e
       0.009413843 0.5111361 0.27401182 0.25699645
0003c0 d2 dc 57 be a8 86 e6 bd f4 c9 3c be cb aa 03 bf
       -0.2108033 -0.112561524 -0.18436414 -0.51432484
0003d0 d3 0c 94 3e cb 96 bd 3e d3 7e 9e be 88 7b fd 3c
       0.28916034 0.37029108 -0.30956134 0.030942693
0003e0 0e e8 9d 3d 19 78 7e 3e a6 ce 17 bf 38 c9 fb 3d
       0.077102765 0.24850501 -0.59299695 0.12294239
0003f0 68 e1 8f be 91 0b 84 bd ce 8c 70 3e ec 2a 1d be
       -0.2810166 -0.064475186 0.23491213 -0.15348405

network_body.linear_encoder.seq_layers.2.bias f4 [128]
000000 38 75 e9 38 b2 fc 77 39 f9 e6 ae b9 50 0d 11 39
       0.000111321395 0.00023649892 -0.00033359954 0.00013833237
000010 bc 45 67 b8 5d cd 2e b8 39 81 58 b8 36 86 d2 ba
       -5.5139637e-05 -4.1676092e-05 -5.161876e-05 -0.0016061726
000020 85 dd b1 38 cf e0 98 39 3a 21 ba b9 92 c7 6e b9
       8.481279e-05 0.00029159195 -0.0003550144 -0.00022771794
000030 fd 8b 22 b9 3c ce 38 bb cf b1 e6 ba 9b b6 7e 39
       -0.00015501674 -0.0028199097 -0.0017600599 0.00024291353
000040 46 c0 3d 39 97 7a b6 3a ef fb a7 38 ea 34 13 ba
       0.00018096072 0.0013922033 8.010107e-05 -0.000561549
000050 ff ff dd b9 09 a3 14 38 db f8 cd ba 26 da eb ba
       -0.00042343137 3.5437788e-05 -0.0015714423 -0.001799409
000060 49 55 6a ba e3 b0 94 b9 fb 5c 04 b9 c6 90 7d 37
       -0.00089391 -0.0002836055 -0.00012623139 1.5113683e-05
000070 4c 8b 35 3a ed 10 29 3a fb 8c 26 ba 76 6e 1f ba
       0.0006925359 0.00064493605 -0.0006353405 -0.00060818286
000080 65 b8 80 ba 71 d8 b2 b8 76 09 06 b9 ef 41 a6 38
       -0.0009820579 -8.528017e-05 -0.0001278276 7.927778e-05
000090 57 18 a5 38 0e 89 e8 38 fc 1a 0e ba 81 0c 0a b9
       7.872347e-05 0.000110881505 -0.0005420891 -0.00013165364
0000a0 3a 6a 9d ba ee d7 84 b9 ef 69 4d 39 ed e7 a3 39
       -0.0012009807 -0.00025337882 0.00019589787 0.0003126258
0000b0 8e 23 5d b8 f1 e4 10 b9 ec 27 b8 b8 1f 50 af b9
       -5.272362e-05 -0.00013818197 -8.78124e-05 -0.00033438296
0000c0 e6 49 cd b8 12 1b 96 3b 4a 6d 44 38 45 5b bf 3a
       -9.7889264e-05 0.0045808638 4.6831825e-05 0.0014599344
0000d0 10 93 36 3b 65 f0 ad 39 10 0f b4 ba bc 83 5d b8
       0.0027858652 0.0003317624 -0.0013737399 -5.2813193e-05
0000e0 83 50 c5 38 28 24 84 3a 5e 4f 41 b9 ee a8 f5 ba
       9.4086885e-05 0.0010081576 -0.00018435481 -0.0018742362
0000f0 9a 6c 3f 39 b1 04 89 b9 59 51 4c ba 76 e1 53 b9
       0.00018255637 -0.00026134172 -0.0007794104 -0.00020206519
000100 9d 3e 6c b9 3e d9 b9 38 ff 2a 0f ba a9 ec 97 b9
       -0.00022530039 8.861952e-05 -0.0005461424 -0.0002897729
000110 12 d7 70 b9 94 98 12 bb 3c a1 b4 b9 97 23 94 39
       -0.00022968304 -0.0022368776 -0.00034452404 0.00028255276
000120 1e ce 93 b9 59 2a 1a ba 84 b0 e1 ba 04 73 3b ba
       -0.00028191594 -0.0005880944 -0.0017218743 -0.00071506226
000130 da 9c b9 b8 f8 d8 cf ba f7 69 93 b8 59 ef 21 b9
       -8.850703e-05 -0.0015857508 -7.029244e-05 -0.0001544332
000140 65 ec 4c 39 3c 5b 4a b9 2b 21 80 38 b5 08 25 ba
       0.0001954302 -0.00019298209 6.109694e-05 -0.0006295548
000150 c7 c8 3b b9 50 38 d1 b9 15 f5 e2 35 a1 25 4e 39
       -0.00017908505 -0.00039905543 1.690964e-06 0.00019659709
000160 73 72 85 ba ee 7e 67 bb c4 f9 32 b9 e8 18 2a ba
       -0.0010181203 -0.0035323459 -0.00017068448 -0.00064886967
000170 c6 8d 28 bb 9f 5d be ba 4f f4 f8 b9 81 ea 05 3b
       -0.002571927 -0.0014523751 -0.0004748427 0.0020433965
000180 05 3d 7f b1 0e df 08 b9 27 1c 1e b9 de 0d 0b b8
       -3.714207e-09 -0.00013053065 -0.00015078542 -3.3153097e-05
000190 8d 0c 2a 39 19 bb ba ba 42 6a 7e b7 22 0f 4b 39
       0.00016217139 -0.0014246433 -1.516432e-05 0.00019365226
0001a0 4d 36 be b9 c7 6b 24 b9 a7 c5 dd 34 2f 09 44 3b
       -0.0003628008 -0.00015680409 4.130827e-07 0.00299127
0001b0 d3 d1 b6 b7 c4 de 61 b9 7c 0e ba b8 04 e6 3d b9
       -2.1793798e-05 -0.00021540659 -8.871869e-05 -0.00018110132
0001c0 0c e4 c4 b9 4d f8 ce b9 56 53 db ba ae 54 8b 35
       -0.0003755394 -0.0003947638 -0.001673321 1.0380952e-06
0001d0 8e 38 69 b9 7d bc fe ba 6d ab 8d b9 42 5a ba 39
       -0.0002224168 -0.0019434836 -0.00027021338 0.00035543932
0001e0 a7 94 de 3a c7 e5 a3 ba 91 38 81 ba 59 cf 37 3a
       0.0016981558 -0.0012504392 -0.0009858777 0.0007011793
0001f0 cf 2e 07 b8 a1 02 aa b8 39 74 50 ba 3b d9 ee b7
       -3.2230102e-05 -8.106721e-05 -0.0007951889 -2.8472967e-05

network_body.linear_encoder.seq_layers.2.weight f4 [128, 128]
000000 77 0a d8 bb de e3 48 be 3b 42 ea 3d ae 79 4b 3d
       -0.0065930444 -0.19618174 0.11438414 0.04967659
000010 8b 30 8a 3d 93 36 20 bd 4b 18 6d 3e 10 18 17 be
       0.0674754 -0.039114546 0.23153798 -0.14755273
000020 14 91 e7 3c a7 38 ef bc ef a7 85 3c 61 a4 02 be
       0.02826742 -0.029201819 0.016315429 -0.12758018
000030 b1 da 3e bd 63 17 22 be e1 b9 88 bc 76 82 a2 3d
       -0.04659528 -0.15829234 -0.016690196 0.0793504
000040 2b e2 62 be 07 96 20 be 81 18 bd 3d db 5e a6 bd
       -0.22156589 -0.15682231 0.092331894 -0.08123561
000050 c2 f5 1c be 37 69 13 3a 2d 4e 28 bc 44 70 bb bd
       -0.15328124 0.0005623283 -0.010272545 -0.09152272
000060 e8 d6 ad 3d 8f 87 de 3c 2a 93 f1 bd 5a 64 b0 bd
       0.08488256 0.027164249 -0.117956474 -0.086128905
000070 0b ed 99 bb 13 d6 92 3d 97 a3 a2 bd 22 a8 2c be
       -0.004697447 0.07169738 -0.079413585 -0.16861013
000080 ac 36 b5 bd 73 7b e9 bd 4e 4d f3 bb b7 af 8d 3c
       -0.088483185 -0.11400499 -0.007424987 0.017295701
000090 16 ee 90 bd 2b 02 47 3d 18 df 13 3c fb e6 91 3d
       -0.07076661 0.048586052 0.009025358 0.07124134
0000a0 93 ec 00 be 64 92 c4 bd 76 d8 b0 3d b4 0c b3 bc
       -0.12590246 -0.09598234 0.08635037 -0.021856643
0000b0 c8 88 06 bd b1 12 68 3d 85 21 60 3b 44 69 2d 3d
       -0.03284529 0.05665845 0.0034199667 0.042336717
0000c0 7e 9c c2 3d d8 2f fa 3b b7 62 1c bd b8 ad 95 3d
       0.09502505 0.007635098 -0.03818008 0.07308525
0000d0 89 e6 2b 3d e5 ef b1 3d c3 5e f1 3c 0d da 6e 3c
       0.041967902 0.086883344 0.029464131 0.014578355
0000e0 b3 e0 b8 3d 91 e5 38 3d 85 3e 6d 3c f9 d2 79 bc
       0.09027233 0.045140807 0.014480238 -0.015248054
0000f0 b0 04 1c be 15 f1 94 3c 49 84 3a 3e 98 32 80 3c
       -0.15236163 0.018181363 0.18214525 0.015649125
000100 ae ec a2 bd 49 51 17 be 1c ef 31 bd 84 3a ab 3d
       -0.07955299 -0.14777102 -0.043440923 0.0836077
000110 8b d4 be 3d 4b 91 e3 3d 38 3e 7f bd 86 c7 14 3e
       0.09317883 0.11111697 -0.062315196 0.14529237
000120 c9 b4 42 bd b5 35 b2 3d 7d 04 c6 bd aa 15 33 3d
       -0.04753569 0.0870165 -0.09668825 0.043721832
000130 c1 de e8 bc 56 0f ac 3d 9e 95 1a 3e d6 e6 ee bd
       -0.02842653 0.084013626 0.15096137 -0.11665122
000140 4c 32 46 3d e1 9f 37 3d 75 42 ae bc d3 f9 cd ba
       0.04838781 0.044830207 -0.021271924 -0.0015714712
000150 f9 ac 0c 3c 36 5a 9e 3b 0a d2 99 bd 5d 44 fb 3b
       0.008586162 0.0048325313 -0.07510765 0.0076680616
000160 a5 aa 8e 3c e8 59 60 3d 38 27 58 3e 28 d4 31 3c
       0.017415354 0.05477324 0.21108711 0.010853805
000170 2b 9f 00 3e dd 20 73 3d e6 6f 6c 3d 0e 42 5c bd
       0.12560718 0.059357513 0.057723902 -0.053773932
000180 be 23 c6 bd 7d 3b 40 bd 27 89 cc 3d 5b 68 07 3b
       -0.09674786 -0.046931732 0.09987097 0.0020661566
000190 0b e9 b9 bd eb c5 28 3c 87 6b f7 bb 59 75 b1 3d
       -0.090776525 0.010301094 -0.00755066 0.086649604
0001a0 bb e8 8c bd ba 5c a2 3c d4 90 57 3d 84 38 aa bc
       -0.06880327 0.019819606 0.052628353 -0.020778902
0001b0 e1 1e 23 bc 01 dd b1 bc 06 7b 57 3d 1e 18 09 be
       -0.009956093 -0.021711828 0.05260756 -0.13388106
0001c0 31 26 54 3d e5 c7 0d be 97 40 14 be 0b f0 da 3d
       0.051794235 -0.13845785 -0.14477764 0.10690316
0001d0 96 9a 05 3e 36 29 f7 bd a5 aa 09 3e a8 d8 88 3d
       0.13047251 -0.12068407 0.13444002 0.06681949
0001e0 89 74 77 be 46 f0 58 3d ab 36 ba bd 3e 3a 00 3b
       -0.24165548 0.052963518 -0.09092458 0.0019565965
0001f0 74 0d 8d 3d 3e 98 63 bd 9f 90 05 bd 31 26 fb 3d
       0.068873316 -0.05556511 -0.032608625 0.12263144
000200 4c b7 92 bd 33 c0 f4 3d 6d 9b 8d 3d 0e 99 90 3d
       -0.07163867 0.119507216 0.06914411 0.07060443
000210 bd 62 17 bd ac 20 e5 3c 1e e8 fa bd 9d f3 33 3d
       -0.0369594 0.02796968 -0.12251304 0.0439335
000220 8c 4d 6e 3d 87 0d 12 3d 4c 38 48 3c 26 f5 b6 bd
       0.058179423 0.035657432 0.0122204535 -0.08933477
000230 d2 a1 15 3e 1d a9 14 3d e1 7a 2e 3d 1e 26 29 bd
       0.14612511 0.03629409 0.042597655 -0.041296117
000240 22 b2 25 3d d0 7f d3 bd fd 76 58 3d 0e ee 74 bd
       0.040453084 -0.10327113 0.05284785 -0.05979734
000250 d0 38 3f bd 01 15 1f be 1a 58 28 bb 86 5e f7 3d
       -0.04668504 -0.15535356 -0.0025687278 0.12078576
000260 01 be 00 3d 63 ea 4d 3c cb 84 d1 bd fc 92 33 be
       0.0314312 0.012568089 -0.102304064 -0.17536539
000270 30 2f 2b bd b0 2f 0d be 41 e3 d8 bc a3 62 fc 3d
       -0.04179305 -0.13787723 -0.02647555 0.12323501
000280 d5 44 f3 bc 18 3b f8 bc 3f 16 05 3e f6 5d 9a 3d
       -0.029695908 -0.030301616 0.12996767 0.07537453
000290 29 d0 55 3d b5 7d e5 3d 1f 4d cf bb 18 0c 86 bd
       0.05220047 0.11205617 -0.006326332 -0.065452754
0002a0 b1 38 cd 3c 9c f2 b7 bd 75 95 93 3d d4 5e 3e 3d
       0.025051447 -0.08981821 0.07206241 0.046477154
0002b0 2b 06 f7 3d 8d 40 83 3d 0c c1 3c bd f5 40 ed 3d
       0.12061723 0.064087965 -0.04608254 0.11584655
0002c0 91 40 24 3e f6 de 01 be e6 c4 33 be 44 57 a8 bc
       0.16040255 -0.12682709 -0.1755558 -0.020549424
0002d0 41 79 c6 3c a3 f4 28 3d 9d 43 0f 3c 3f 48 1c bd
       0.02422774 0.04124893 0.008744148 -0.038154837
0002e0 0f 7d 48 3d c5 e3 22 3c e4 49 aa 3c 5c 5f ec bd
       0.04894739 0.009942 0.020787187 -0.11541626
0002f0 86 d3 37 bd e3 fd 5f bd 36 86 ad bd e4 77 c1 3a
       -0.04487946 -0.054685485 -0.08472864 0.0014760462
000300 44 a6 2d 3d b4 e4 a2 3d c1 48 3e 3d e8 c5 fa bc
       0.04239489 0.07953778 0.046456102 -0.030611947
000310 ac 5c 7a bd 3c a2 c3 bd f2 ad 74 bc ea e7 63 3d
       -0.061123535 -0.09552428 -0.01493405 0.055641092
000320 30 f6 41 3d 6c 91 69 bd e2 f8 05 be f2 3e a6 bd
       0.047353923 -0.05702345 -0.13083223 -0.081174746
000330 f1 1e 78 bd e9 8f f4 3d 18 6c 84 3d f8 d9 ae 3d
       -0.060576383 0.11941511 0.0646593 0.08537668
000340 a6 65 02 be 2f 88 d5 bb 3a d3 24 3e 78 e9 d4 bc
       -0.12734088 -0.0065164785 0.16096202 -0.025990233
000350 0f 18 bb 3d 4a e0 6c bd a3 f5 e0 3c 23 c2 a2 bb
       0.09135448 -0.057831086 0.027460879 -0.0049669906
000360 99 4b 83 3d 50 3f a9 bd 65 e9 d6 3d 6f c7 00 3d
       0.064109035 -0.08264029 0.10493735 0.031440195
000370 0d 17 ec bd 52 0b 07 3e a9 08 e7 bb 5c e8 18 3d
       -0.11527834 0.13187912 -0.007050593 0.03733097
000380 9d 20 45 3e 53 74 87 bc 66 2a 42 bd 3e e8 0a be
       0.19250722 -0.01653496 -0.047403716 -0.13565156
000390 fd 40 69 3d 2d 49 86 3d 35 b9 e2 bd fa d2 4a 3d
       0.056946743 0.06556926 -0.11070482 0.04951761
0003a0 74 e5 fb 3d c9 c4 10 bd 65 46 13 3e 4b 0d 18 3c
       0.12299624 -0.03534392 0.14382322 0.009280513
0003b0 dd 8f 41 3c 80 74 91 3c d5 76 6c bb 51 e4 d2 bc
       0.011814085 0.017755747 -0.0036081572 -0.025743635
0003c0 94 c4 86 bd 99 89 fa 3c 4f 08 ae 3c 52 0f 8b bd
       -0.06580463 0.03058319 0.021244196 -0.067900315
0003d0 2d 88 d2 3c 8d 8e bd bd 6e ac f9 bc 5a 65 53 bd
       0.0256997 -0.09255705 -0.030477729 -0.05161033
0003e0 7e d2 3a be a3 39 2d bc 8c 2a b8 3d b2 79 e0 bd
       -0.18244359 -0.010572824 0.0899249 -0.109607115
0003f0 20 03 ef bd 05 8d 93 bd e3 a0 1a 3d 69 6b 3d 3d
       -0.11670518 -0.07204632 0.03775109 0.046245012
