results/ppo/Car Agent/Car Agent-499990.pt (torch, 518159 bytes, 42 tensors)

network_body.linear_encoder.seq_layers.0.weight f4 [128, 30]
00000000: d3c9 f2bd a607 c7bd e4e5 333e 9a6d 9fbd
00000010: 6742 4bbc 6358 f93d 12e9 bcbd d24d 27bd
00000020: 117c 06be 3a7f 3bbe af01 ef3d eadf 46bd
00000030: 451c b83d 8a6e 2a3c 2124 ae3e f20a 353e
00000040: 2125 95be 2924 06be f4f6 9bbd 0026 493c
00000050: 7111 a0bd eb40 12be 1c77 3bbe 910d 6bbe
00000060: a91f 5d3d 0e51 65be e8ae 0ebd abe6 6f3e
00000070: 55b1 233e e92d f43c a30d 5cbd 9ca0 0ebe
00000080: d2fc a8bd ea24 4bbe b49c 003e a3a1 1abd
00000090: 7c47 4b3e 69f1 6b3e c297 053f a379 553e
000000a0: d732 893d 1f69 8ebe 05c6 0abd 98a7 383e
000000b0: a4e8 a63d 9b64 a4be 87f7 44bc 30a0 e5bd
000000c0: 2b45 3abd c4c9 02be fb45 5fbe e235 2e3b
000000d0: 55d5 0a3f b776 933d e3b6 cd3d f0e0 15be
000000e0: edb4 b8be facf 40be c02a 1f3e 6342 083c
000000f0: c888 113e ca1c 9a3e e255 ffbd 72bf 3bbd
00000100: 75ce 423d 10a2 5c3e b73c fdbd 13d1 823e
00000110: 8733 c3bd 20c1 1cbe 0fc3 db3d fe55 da3d
00000120: 2ece 6a3b 2bce 043e f782 6a3e f8fe 52be
00000130: 3345 243e c60b 3fbe 1047 8dbe 1b6e 8b3d
00000140: abd2 153e 2156 9ebe 82fc 62be ed98 05be
00000150: cd0f 59bd 2e36 bfbb 59ec 2cbd cc22 49be
00000160: 1b29 24be aee1 f8bb 350b 96bc c0f2 e73d
00000170: 4caf 033e e048 50bd f87c 8bbc 1c82 13be
00000180: 48ff a3bd 69e1 133d f985 a7be 5071 403e
00000190: 3293 d3bd 3dff 75bd 9a43 4c3a 236a 00bd
000001a0: 5ba0 57bd dd1d b03d 9730 453e 4d7d aabe
000001b0: e81a b23d bb7e c9be 1280 7e3e 2d2e a33e
000001c0: d6de 34be ef57 87be 0a2a a7be 220f 143d
000001d0: 3f9f 203e bdd6 80bc 225b a9be 0f66 42be
000001e0: da25 a33d 4444 eabd dff3 82bc 2936 ac3e
000001f0: 9d4c d5be d774 603e ab92 1f3e 9690 153d
00000200: 0612 943c 85cb 843e 977c f4be b45a 883e
00000210: 7292 9e3d 951f c3bd 4397 66bd 2ed3 ce3d
00000220: 4f27 943e b04a 213d 7eef 56bc 79f5 bc3e
00000230: adac 1ebe 4bf9 46be e991 3abe c735 113e
00000240: 09eb 013e 4243 eabd d782 f1bd da3f cd3c
00000250: 4f32 003e cb62 4a3e 9905 413e bb75 8fbc
00000260: 124f eabd 92b6 2c3b 8681 113d 17bf d23e
00000270: 2b89 cd3d 13af 2b3e 1f73 423d b008 923d
00000280: 8d30 a9be e864 1f3e 5323 213e 2701 953d
00000290: 2dd7 6e3d 0f87 213d bf7c aebc d318 6abd
000002a0: 692a 77be a49f 9e3e aad9 e03d a482 38be
000002b0: 12a3 05be 8e2d 783e 8534 933d f352 aabd
000002c0: 3c77 e8bd 8301 2c3d 7755 7d3e 6f6d 40bd
000002d0: 4c0c 533d 43e3 d23d 78d1 83bd 2545 193e
000002e0: 0599 82bc 6034 6e3e be7c 39bf 70e4 c53e
000002f0: f1c7 303e bbda 66be f0e5 073d 885e b63d
00000300: d944 0f3e 32ff babd 5ce1 a03c f92d 2fbe
00000310: 0a3e 8ebd badd 8b3e ad58 343e 3d33 a2bd
00000320: 4386 46be 7ae0 5b3e ae33 d33d 3097 da3c
00000330: 8650 2c3e cc49 973b 3bc5 0d3e 4a4f 0fbe
00000340: 2c97 13bd 9093 e9be 75ff a9be 40d0 103e
00000350: 1827 d23b 1b8c 4ebe 5632 10bd edb3 9d3e
00000360: b8d0 d43d 91de e93c 8b4b cabd f744 6f3d
00000370: 7d99 4d3e 6f4f 81be 36d4 ed3d 83db 2dbe
00000380: ec6b 693c 2b9c 0ebd 3340 6e3e 5dc1 bf3d
00000390: 0b73 65bd b944 313c 669c a83e d859 993d
000003a0: 0446 9bbe 966d b8bc d186 cbbc f2a1 433d
000003b0: c5bc b1bd 264e a63c 1a40 ff3d 410c 583e
000003c0: 1086 5fbe 5763 ab3e 7623 f4bd d21b f53d
000003d0: b779 ba3c 21f8 f33e 72ce 203e a528 31be
000003e0: df0e 683d dc5a 72be d960 813e b388 a73d
000003f0: eac1 c53d a8e9 5dbe b383 2abe f07d 47bd
-0.11854901 -0.09718256 0.17568165 -0.07784577 -0.012405968 0.121750616 -0.09224142 -0.0408457
-0.13133265 -0.18310252 0.11670243 -0.048553385 0.08989767 0.010402331 0.3401194 0.17679957
-0.2912989 -0.13099732 -0.07615462 0.012277126 -0.07815827 -0.14282577 -0.18307155 -0.22954394
0.05398527 -0.22394201 -0.034834772 0.23427837 0.15985616 0.029807048 -0.053723942 -0.13928455
-0.08251347 -0.198383 0.12559777 -0.037751805 0.19851488 0.2304131 0.5218469 0.20847182
0.0669915 -0.27814576 -0.033880252 0.18032682 0.081498414 -0.32108006 -0.012021906 -0.11212194
-0.04547612 -0.1277228 -0.21804039 0.002658241 0.5423177 0.072003774 0.100446485 -0.14636588
-0.36075535 -0.18829337 0.15543652 0.008316609 0.14212334 0.3010009 -0.12467553 -0.045836873
0.047560174 0.21546197 -0.12365096 0.25550136 -0.095313124 -0.15308046 0.10730564 0.10660933
0.003582846 0.12969272 0.22901522 -0.20605075 0.16042022 -0.18656835 -0.2759328 0.0680811
0.14631145 -0.30925086 -0.22166637 -0.13046618 -0.052993584 -0.005835316 -0.042217586 -0.1964218
-0.16031305 -0.0075952625 -0.01831589 0.11325598 0.12859839 -0.05085075 -0.017027363 -0.14405102
-0.080076754 0.03610364 -0.327194 0.18793225 -0.1033081 -0.060057867 0.0007792056 -0.03135122
-0.05264316 0.08599446 0.19256817 -0.33298722 0.08696538 -0.393545 0.24853542 0.31871167
-0.1766313 -0.26434276 -0.3264926 0.036147244 0.15685748 -0.015727395 -0.3307734 -0.18984245
0.07966204 -0.11438802 -0.015985427 0.3363507 -0.41660014 0.21919571 0.15583293 0.03651484
0.018075 0.25936523 -0.47751305 0.266317 0.07742776 -0.09527508 -0.0562966 0.10098873
0.2893624 0.03937787 -0.013118623 0.3690603 -0.15495558 -0.19431035 -0.18219723 0.1418067
0.12687315 -0.1143861 -0.11792534 0.02505486 0.12519191 0.19764249 0.18849792 -0.017512193
-0.11440863 0.0026353938 0.035523914 0.41161415 0.10035928 0.16766004 0.04747307 0.07130563
-0.33044854 0.15565836 0.15736131 0.072756104 0.058310676 0.039435443 -0.021299718 -0.05715258
-0.24137272 0.3098117 0.10979016 -0.18018585 -0.13050488 0.24236128 0.07187752 -0.083166026
-0.11350867 0.04199363 0.24739634 -0.046979364 0.0515254 0.10297253 -0.06436437 0.14967783
-0.015942106 0.23262167 -0.72455966 0.38650846 0.17263772 -0.22544377 0.03317827 0.08904749
0.13991107 -0.09130706 0.01963871 -0.17107381 -0.06945427 0.273176 0.17611952 -0.07919929
-0.19387154 0.2147235 0.103125915 0.02668342 0.16827592 0.0046169516 0.13844769 -0.1399509
-0.03603284 -0.45620394 -0.3320271 0.14141941 0.0064133517 -0.20170633 -0.035204254 0.30801335
0.103913724 0.02854851 -0.0987769 0.05841538 0.20078082 -0.25255916 0.11612742 -0.16978268
0.014246922 -0.034816902 0.23266678 0.09363053 -0.056017917 0.010819607 0.32931823 0.074878395
-0.30326855 -0.022513192 -0.024844559 0.047761865 -0.08678583 0.020300936 0.12463398 0.21098424
-0.21828485 0.33474228 -0.11920826 0.11968197 0.022763116 0.47650245 0.15703753 -0.17300661
0.056654807 -0.23667473 0.252692 0.0818037 0.09656127 -0.21671164 -0.16651802 -0.048704088

network_body.linear_encoder.seq_layers.0.bias f4 [128]
00000000: 710c 0239 05ce 1a3c 60af 443c 2dc1 8f3a
00000010: 2587 f4bb caf5 723d 7708 fdbc 00db 383c
00000020: 983d 99bb a4a9 fcbc dd56 97bb 383e 37bb
00000030: b26d e43c b948 0b3c 1c42 eabc df6e 3ebc
00000040: 7d89 143d 3590 323c 7296 233c 42b8 43bc
00000050: b4ca 35bd 1cb2 eb3c 9e78 51bd e714 a0bb
00000060: c884 9e3c b25c 4d3c 35ea 733d 6162 82bc
00000070: d72f c6bb a619 9e3b aa37 9f3c 5a78 1cbd
00000080: 1aed 1d3d 8957 943b dc81 3e3c 6299 023c
00000090: 4fbd 253b 6427 043b fdeb d6bb 3542 efbb
000000a0: 5792 9c3c 6625 55bc 7ee7 75bb 70f6 ccbc
000000b0: 6afe 9739 2453 b03c 0868 203d e415 af3c
000000c0: 6e03 373a 3e48 9bbc 3256 13bd 4dee 0fbd
000000d0: bab6 733d 2e47 f3bb fb2f 5c3b cccf 123c
000000e0: 53d0 4fbc c4cb b13c d598 d93c c161 e2bb
000000f0: cd44 16bc 53c2 ecbc 0c89 71bc a3a6 e9ba
00000100: 8552 ba3b 8d10 e039 ae76 b43b 707c 01bd
00000110: 371b 693c 8c56 583c 9571 46ba b847 13bc
00000120: f2e0 72bc c6a1 f0bc 3c54 703c ab7d 903c
00000130: 000c 043d 96f7 d23c 9de1 87ba eca2 48bc
00000140: d54d ad3c b2f6 b5bc d53e 063d 9a0c a0bc
00000150: 5cfd bcbc 9548 403c 40a4 82bc 97a2 213c
00000160: c5d2 87bc 1162 25bd d1dc 47bc 8dcf 283d
00000170: 1d0d 143d d01c b5bc c50d b83c a9c4 70bb
00000180: dab7 e6ba bc1b e43c 5ddd ba3c fdd9 c8bb
00000190: fae9 6e3c 2768 eabc 5cc2 07bd 13c2 07bc
000001a0: f5c6 803c 53b7 a83a 1bfd 033d 3c56 79bc
000001b0: d921 633d 96ea e9bc 5892 3dbc 3fd2 0d3b
000001c0: fc71 0abd 5ed3 1c3d d85b d13c 904b 0cbd
000001d0: e7d3 c73c 59b5 1c3d 9102 33ba 21e3 03bb
000001e0: c029 873a 8bd1 8b3c 9214 973c 1eab f1bb
000001f0: deb9 a8bc 5ef4 133c c49a c7bc 80c8 553b
0.00012402401 0.009448533 0.012004703 0.0010967605 -0.0074623995 0.059316434 -0.030887825 0.011282682
-0.004676532 -0.03084261 -0.004618509 -0.002796067 0.027884338 0.008501225 -0.028595977 -0.011623113
0.03626393 0.010898639 0.009984599 -0.011945786 -0.044382766 0.028771453 -0.05114042 -0.0048853043
0.019350424 0.012534307 0.05954953 -0.015916051 -0.0060481834 0.004824835 0.019435722 -0.038200714
0.038556196 0.0045270366 0.011627641 0.00797114 0.0025289839 0.002016508 -0.0065588937 -0.0073015937
0.019112749 -0.013009405 -0.0037522013 -0.025019854 0.00028990518 0.02152402 0.039161712 0.021372743
0.0006981407 -0.018955346 -0.035970874 -0.03513937 0.059500434 -0.0074242568 0.0033597935 0.008960675
-0.012683946 0.021703608 0.026562134 -0.006908626 -0.009171677 -0.028901255 -0.014742147 -0.0017826151
0.0056861066 0.0004273694 0.005507312 -0.031612813 0.01422768 0.013204228 -0.00075700256 -0.008989267
-0.014824139 -0.029374015 0.014668521 0.017638048 0.032238007 0.025752824 -0.0010366921 -0.012245875
0.021155277 -0.02221236 0.032774765 -0.019537259 -0.02307003 0.011736055 -0.015947461 0.009865425
-0.016579995 -0.040376727 -0.012198643 0.04121356 0.03614532 -0.022108465 0.022467503 -0.0036738312
-0.00176024 0.027845256 0.022810632 -0.006129502 0.014582152 -0.028614117 -0.03314434 -0.008286017
0.01571987 0.0012872018 0.032223802 -0.015218314 0.0554522 -0.028554242 -0.011570536 0.002164021
-0.03380011 0.038287513 0.02555649 -0.03425175 0.024393035 0.038258884 -0.00068286905 -0.0020124393
0.0010312125 0.017067691 0.018442426 -0.007375135 -0.02059644 0.00903043 -0.02436579 0.0032620728

network_body.linear_encoder.seq_layers.2.weight f4 [128, 128]
00000000: fb71 36bd 59b0 4abd 085b 6b3e 973e 2fbd
00000010: d2b1 d03d a9a7 f43d a3fe 863d 1014 ebbd
00000020: 8cf5 5e3b a87a 1cbd 5929 083c 1385 6fbd
00000030: 8e1c 77bb 2281 aabd bd60 16bd 99e6 893c
00000040: d0e6 ddbd 48e0 88bd 65f4 19bc 43b0 a73d
00000050: 20ca c8bc 89e8 863d 220d e83c e321 61bd
00000060: 671a 5bbc 6095 17bd 0e9f 8c3c 50a8 ecbd
00000070: 5215 1e3d 53ef 423e 343c fbbc 0621 babc
00000080: 898e 123e 85fc 623e 122b 06be add3 073e
00000090: bb74 d7bd 96c1 2d3e 7566 02bd ed25 fcbc
000000a0: b713 efbc 9db9 33bc 3c2e 03bd 6fe0 333d
000000b0: 20f9 8ebd 090b 87bb aa5b 2bbe 7f8d 07bc
000000c0: 1d7f b13d b156 8abe 2635 debb bc7f 97bc
000000d0: 17a0 a63c df9f 623d a945 8abd 46e9 3dbe
000000e0: 4deb 00bd e74f 973d 8af7 e13c ed8b 133d
000000f0: 516c d33c 667d 963d e0a4 2f3d 64f3 de3b
00000100: 2a59 e03d fc8f 27bc 2606 dcbd 9842 d43d
00000110: 9318 9c3d 8fbb f43c 3060 43bd 8ec8 a8bc
00000120: f132 633c a336 f7bc d410 f43d 7dbf cf3d
00000130: d3c4 ec3d 6bb0 a23d bd17 5cbe 6705 7dbc
00000140: 5597 613e 4f26 dfbd 0f74 96bc e96c 51be
00000150: 17da a33c cf89 b93c 0615 f3bb 465a 2abe
00000160: bd73 d73d dfeb 32be 2759 72bb 498a 193c
00000170: 2ec3 4dbd 2d85 8ebd 26b9 eebd d953 263c
00000180: 83ee c03d c17e c83d 21ae 823d ee75 5c3d
00000190: b65c 043d a669 1fbe d241 413d 3894 0cbc
000001a0: 8378 a73c 8ec2 b3bd b730 313d a44c 1abe
000001b0: 880c 483e 870e c33d bf00 f2bd d0c7 213d
000001c0: 7cb2 393c fdcc 1d3d b6ed 89bd 58b5 393d
000001d0: 0898 ebbb c924 15be a415 13bd 804e 27bd
000001e0: 0754 09bc 72f7 20bb 4105 5f3d 4214 c23d
000001f0: 1b08 0b3e b9a9 b6bd 2cc0 1d3d 9bfe 3cbe
00000200: 7842 d7bc 5ac3 503d 1cdb dbbd 026d cabd
00000210: 8d52 96bd efb7 9d3d cc76 75bd c42f adbd
00000220: ac5e 173e 6b2f c63d 85cf ee3d 4b91 71bd
00000230: 3c8d f0bc 63cf 98bd b5fa 95bd 5ee9 f63c
00000240: eefd e6bd e0b1 2bbe 5f16 053c c87b a8bd
00000250: 388d a53d c784 1bbe 639a 9abd 203e 20be
00000260: 2ca8 d3bd 7ebc 153e 8b6a 90bd 3ab4 a73d
00000270: 931f 503d 103c 1d3d ff67 98bd 4015 883d
00000280: 0ffb 083e 6c3c 773d a555 9bbc 343f bebc
00000290: f65f 45be d64f 773d 206d dfbd abd7 39bd
000002a0: b0ce 3b3e a1fa c6bd 7e5c ae3c b31e 03be
000002b0: e0db 163c 668e 703d 3bc4 1dbe 86dc cf3d
000002c0: 2a88 93bd ade3 883d 37dd 6f3d 1232 243d
000002d0: 848f 003e 2a76 9dbc e050 0bbe 3b33 febd
000002e0: b44d 71bd 5d18 afbd 03a0 6ebd 4f86 febc
000002f0: d3f3 e3bd d038 babb 4dfe a9bd cda4 6e3d
00000300: feb4 f23d 6aab 6dbd 119a f53c e9e9 debd
00000310: 7172 99bd 1bf7 bb3d cc15 b4bc 3ee6 a73d
00000320: 9eea 233d 10bc cdbd 1c16 0d3d dd7d 203c
00000330: 574a c73d f581 143e d6c3 6e3d 71a5 ed3d
00000340: 4957 d33d cb8a b93d 24c8 70bd 6147 d0bc
00000350: 80cf 433d 9bbe 923d 1cbc d93b f9f6 a93d
00000360: fe1b a23d 5760 133d 3089 5e3d 0a90 913d
00000370: 30e9 1c3c 4b86 473d 4180 58bd 2302 84bd
00000380: 8c3b 00be a3c5 d3bd e4cf c4bd 59f4 5dbb
00000390: 3bba 8abc 1bf0 c03d 188d a93d e424 9a3d
000003a0: c4d5 be3c 1b60 54bd e13a 503d e4e1 81bc
000003b0: 9bb7 483d d5e2 b5ba 5344 073e 8abe d63d
000003c0: ac3f e63c e079 153e 22c9 38bd bb6c 0b3e
000003d0: f5b6 1f3e 3ca2 08bc f59f 953c e71e 423d
000003e0: 5fba 2abc 8b45 c8bc 4edf f9bb 17e6 40bd
000003f0: ca17 4a3d 5291 8ebd 2fb5 77bd 9a39 893d
-0.044542294 -0.049484584 0.22983944 -0.0427843 0.101901665 0.11946041 0.06591537 -0.11478436
0.003402087 -0.03820291 0.008310639 -0.05847652 -0.003770623 -0.083254114 -0.03671335 0.01683359
-0.108350396 -0.06683403 -0.009396647 0.08187916 -0.024510443 0.06587321 0.028326575 -0.054963958
-0.013372994 -0.03700769 0.017165687 -0.115555406 0.03859455 0.19036607 -0.030668356 -0.022720825
0.14312185 0.22166641 -0.13102368 0.13264342 -0.105203114 0.16968378 -0.031835992 -0.030779803
-0.029184205 -0.010969547 -0.032026514 0.04391521 -0.069811106 -0.0041211885 -0.16734186 -0.008273481
0.08666823 -0.27019265 -0.006781238 -0.018493526 0.020340009 0.055328246 -0.06751568 -0.18546018
-0.0314744 0.07388287 0.027583856 0.036022115 0.025808485 0.073481366 0.042881846 0.006803917
0.10954507 -0.0102272 -0.1074336 0.10364264 0.07621875 0.029874591 -0.047699153 -0.020603444
0.013867126 -0.03017742 0.11917272 0.10143945 0.11560979 0.07943805 -0.2149343 -0.015443183
0.22030385 -0.10895979 -0.018365888 -0.20451702 0.020001454 0.02264872 -0.0074182777 -0.16635999
0.10520122 -0.1747279 -0.0036979408 0.009371349 -0.050234966 -0.06958995 -0.11656408 0.010151827
0.094204925 0.097898014 0.06380869 0.053823404 0.03231498 -0.15567645 0.04718191 -0.00858026
0.020443207 -0.08777343 0.04325935 -0.15068299 0.1953603 0.09524255 -0.118165486 0.039497197
0.011334058 0.03852557 -0.06734793 0.04533896 -0.0071897544 -0.14564814 -0.03590931 -0.040846348
-0.00838185 -0.0024561551 0.05444837 0.0947652 0.1357731 -0.08919091 0.038513348 -0.184565
-0.026276812 0.05096755 -0.10735151 -0.09884073 -0.07339964 0.07701098 -0.059927747 -0.08456376
0.14782208 0.09677013 0.11660675 -0.058976453 -0.02936422 -0.07461431 -0.07323209 0.030140575
-0.11278902 -0.16767073 0.008123009 -0.082267344 0.08083576 -0.1518737 -0.07548978 -0.15648699
-0.103348106 0.14622685 -0.070515715 0.08188672 0.05081136 0.03838736 -0.07441711 0.06644678
0.13377021 0.060360357 -0.018961737 -0.023223497 -0.19274887 0.06037887 -0.10909486 -0.045371693
0.18340564 -0.097157724 0.021284338 -0.1280468 0.009207696 0.05872955 -0.15406887 0.101494834
-0.072037056 0.06684051 0.058560576 0.040086813 0.12554747 -0.019221384 -0.1360507 -0.12412115
-0.058911994 -0.08549569 -0.058258068 -0.031069903 -0.1113049 -0.005683042 -0.08300457 0.058262635
0.11850928 -0.0580248 0.029980691 -0.108844586 -0.07492531 0.09177991 -0.02198305 0.08198212
0.04001867 -0.10045636 0.034444913 0.009795633 0.09730976 0.145027 0.058292232 0.11603821
0.10319383 0.09059676 -0.05878462 -0.025424661 0.04780531 0.07165261 0.006644739 0.082990594
0.07915495 0.03598055 0.05433005 0.071075514 0.009577081 0.048712056 -0.052856687 -0.0644572
-0.12522715 -0.103404306 -0.096099645 -0.0033867566 -0.016934505 0.094207965 0.082788646 0.075265676
0.02329529 -0.051849466 0.0508374 -0.015854783 0.049003225 -0.0013876805 0.13209657 0.10485561
0.028106533 0.14597273 -0.04511369 0.13615696 0.15597136 -0.008339461 0.01826475 0.047392752
-0.010420411 -0.024447223 -0.007625497 -0.04709443 0.049339093 -0.069613114 -0.060475525 0.0670044

network_body.linear_encoder.seq_layers.2.bias f4 [128]
00000000: 85a7 253d ae74 713a 58bd 9a3a 36a8 793d
00000010: beb2 ec3a 4e51 99bc 4442 68bb 6730 65bb
00000020: bd1a bf3b 6f98 b63b e697 8bbb 78de a33a
00000030: 499f 2c3d 6424 cf3c ec1d b63c 775b 99ba
00000040: 5f24 72bc 8f13 97bb 7243 85b8 1f51 bb3c
00000050: f65b 08bd d154 083b 85c9 133d 48cd 0abc
00000060: d190 363c fd8e 143c c78d ac3c be33 af3c
00000070: 6789 3e3c b5ea a33c 058e fa3a 656d 863b
00000080: 8a5c d6bb 5f82 373c 9528 55bc f035 35bc
00000090: 6622 a43b 2fbe 7ebc a6cc e1bc 69e8 893c
000000a0: 13bf 073b 2df1 e93c 1e8b 6fbc 5ae8 c6b9
000000b0: 27ec 3a3d 5df3 01ba 827b bdbb cae6 80bc
000000c0: 35e7 75bb 5b45 98bc ed0c 51bb d997 423c
000000d0: 747a d73c 278c 51bc fd90 573c 25d5 d03c
000000e0: 23c5 22bc 6a03 4ebc a153 e7bb 1b3c 0ebd
000000f0: 16b8 443c 061b 5b3c 64d5 19bc 2e7a 3dbc
00000100: e93c 10bc ea7d 993b 5f4e 223c 6f57 1bbc
00000110: c237 d9bb b8a4 7d3c 364e b0b9 c835 933c
00000120: 6aae d0bc 995f dd3c 72aa 90bc 9307 c93c
00000130: e798 02bd 1b24 9c3c b6df 3bbb b8a8 e3bb
00000140: 2e8b 0ebb d8c1 a4bc f1fd f63a d358 afbc
00000150: 4783 50bc 2790 20bd 5d40 9f3b 22e8 1c3c
00000160: 9827 513c eb75 283c 342a f8ba 9b90 153c
00000170: 38cb 283c a32f 0b3d 7b2b a83c 9910 0cbc
00000180: 69da 6f3c e400 513c c92b 97bc 8484 63bc
00000190: af88 3bbc 4ab6 9fba 4d67 ab3c dc90 27bb
000001a0: bf4a 843c e2c3 873c bb7f ba3b 02e3 233c
000001b0: 11db a23c 6564 c8bb 9ef9 9abb 5a18 bbbc
000001c0: d5f6 daba eca7 80bc 13e3 983c 8858 5f3c
000001d0: 41f8 87bb 8752 c33b 5f24 583c 8c18 3abc
000001e0: 91f9 3fbc dcde 86bb c839 a639 67a9 c8bc
000001f0: f16c e3bb 02f8 503c e382 fe3a 39d6 703c
0.040442962 0.0009210807 0.0011805696 0.060951434 0.001805864 -0.018715527 -0.0035439888 -0.0034971477
0.005832045 0.0055723707 -0.004260051 0.0012502214 0.042144094 0.025285907 0.022231065 -0.0011700232
-0.014779179 -0.004610486 -6.354497e-05 0.02286583 -0.033290826 0.0020802508 0.036080856 -0.008471794
0.011142925 0.009067294 0.021063698 0.021386977 0.011629439 0.020009378 0.0019115811 0.0041023963
-0.0065417932 0.0112005165 -0.013010164 -0.011060223 0.0050089834 -0.015548273 -0.027563404 0.016834455
0.0020713254 0.028557384 -0.0146205705 -0.00037938618 0.04563537 -0.00049572234 -0.0057825455 -0.015735049
-0.0037521843 -0.018587759 -0.0031898574 0.011877024 0.026303507 -0.012789763 0.0131571265 0.02549226
-0.009934696 -0.012574056 -0.00705953 -0.03472529 0.01200678 0.013373142 -0.009389255 -0.011564774
-0.008803585 0.0046841996 0.00990638 -0.009481295 -0.0066289613 0.015481167 -0.00033627608 0.01796998
-0.025473792 0.027023124 -0.0176594 0.024539744 -0.0318841 0.019060185 -0.0028667278 -0.006947603
-0.0021750438 -0.020111963 0.0018843991 -0.02140466 -0.012726611 -0.039199974 0.0048599676 0.009576829
0.012765788 0.01028202 -0.0018933476 0.009128715 0.010302357 0.033980977 0.020528546 -0.008548879
0.014639475 0.01275656 -0.018453496 -0.013886575 -0.011446162 -0.0012185064 0.020923281 -0.002556852
0.016148923 0.016572896 0.005691496 0.010002853 0.01987985 -0.0061154836 -0.0047294637 -0.02283876
-0.0016705642 -0.015705071 0.018662965 0.013631947 -0.004149467 0.0059607658 0.013192265 -0.0113583915
-0.011717216 -0.0041159224 0.00031705038 -0.02449484 -0.006940477 0.012754442 0.0019417669 0.014699512

action_model._continuous_distribution.log_sigma f4 [1, 2]
00000000: 88d9 653c 1c76 3e3d
0.014028914 0.046499357

action_model._continuous_distribution.mu.weight f4 [2, 128]
00000000: 168c 60bc 8594 113c 55bb 89bb 6fdb 3a3d
00000010: 8a03 b23c b89e 2ebc 3a29 efbc 2d4d 273b
00000020: 1c24 cf3c cb9f ba39 271a 893b 9d7b 103c
00000030: 813a ab3c 7c46 c7bc 44d6 1c3c 4cd1 86bc
00000040: 8dfe b13c 42eb 01bc 44b6 be3b 39c2 2bbd
00000050: fef8 1a3b 5a95 083c b540 f93c 8cec b73a
00000060: a7b0 2b3c 7c6b 4cbd 509f 83ba 7f55 84bc
00000070: 5e39 5fbc 113e 56bc 8d9e 6dbc b537 423c
00000080: 8410 d2bc e666 a4bc c8ec 40bc 436b 84bc
00000090: b303 37bd 3c0c bc3c a521 00bb 11f6 a6bc
000000a0: 10ef f1bc f8e9 aa3c d1a0 d53c 0482 4b3c
000000b0: 01ad 00bb cb11 c13c 3f6b df3c b130 c43b
000000c0: 1b55 70bc ba28 96bc 5518 b43b 682d b13c
000000d0: 9be6 ccbc 0bab a1b9 9a96 a83c b7ef afbd
000000e0: fa3f f03c 4616 69bc 467e 4b3d eaa4 a8bc
000000f0: c628 b63b 46ad 8dba ce56 133d 48e0 8fbc
00000100: 1ea2 ddbc 1f43 243c c522 7cbc 2ef0 edbc
00000110: 3477 66bd 406a 5abc c586 cdbb 62bd 3a3c
00000120: 435f a6bc a23c e93c 62e1 973c ff9e d83b
00000130: a4ee d93b 1756 093c 061d cd3b a4f7 4f3c
00000140: 5342 623b a635 a03b 564c e5bb 1637 0f3d
00000150: e4db a4b9 0b91 80bc eec7 d2bb a77b abbc
00000160: 5f00 37bc f3d8 203d fbce a53b d456 b1bc
00000170: 3d8d e43c 65f4 49bd a4a5 a53c 952c 893c
00000180: 1edc cf3b e4e5 a13c 1ef3 dd3c 576d 4c3c
00000190: b11a 393c 0f6f cbbc 2498 3f3b 8f48 3138
000001a0: 2530 2fbb 5557 0dbc b85a 9cbc bcd9 4bbb
000001b0: c985 b6bc e450 443d 297e 6a3b 7d35 0e3d
000001c0: 81a7 84bc facc 433c d966 2dbc c4ab bdbc
000001d0: 31d4 97bc 5a54 b0bc f239 0bbc e321 9e3b
000001e0: 21ea 83ba 4011 acbb 60b0 a2bc d794 103c
000001f0: f372 f73c c49c 3cbc 3d8f 78bc 4ae6 973c
00000200: 5599 82bc be87 d8bc 5f0c b23c 7883 a7bc
00000210: 240b d33b 860f 8f3b bedb d83b a1aa 42bb
00000220: 939e 13bc fa91 b9ba 1488 8f3c 58d1 d6bb
00000230: a0eb 0d3a e30c 1f3d 57dd aabc d011 943c
00000240: d3d7 1f3d be57 b8bb 26f6 113b 4fb9 88bb
00000250: b75c 6f3c 6eca edbc 6e9a f0bb 9247 6c3c
00000260: 7ce3 dfbc 756f 713a aa40 4abc ff5e b93c
00000270: 9308 263b 035a 8f3c 19ff 51bd f7a8 9ebc
00000280: 8799 863d 9ad2 45b8 01f2 d63b 1c9d 8cbb
00000290: afb3 b43c fb92 103c a90e 043c 6956 1abb
000002a0: 130f 403d 0473 0e3c 5cac 0e3d 629b afbc
000002b0: e8cc f1bc 26d8 95bc 0588 56bc 549a 953b
000002c0: 2446 b13c 52e7 dd3b 1a1a debb 6b57 10bd
000002d0: 4b36 803d 7300 2bbc d5ef 9e3c 06f8 04bd
000002e0: ce70 523b 3d24 7e3c 9c27 283c d4e2 243d
000002f0: 94f9 17bd 21bb 633c 64a1 113c 5d01 163c
00000300: 4726 10bd 5dd7 b1bc 0a3d 1cbc d300 1dbd
00000310: 8f6f ae3b 1c3d 43bc 1d59 a63b 8cc4 ce3c
00000320: 7866 833c db65 abbb 4ac0 47bc 921c 65ba
00000330: 0b05 4b3c 83a9 283c 0c32 01bd c8cc 453c
00000340: 7db5 96bc 36b0 113d ad38 17bd 6802 a2bc
00000350: a757 253c 3339 f53c b241 65bb 82ac 543d
00000360: 23a1 13bd cea8 133c 2fcc f2bb 59ae b53c
00000370: 20e6 a0ba 7049 46bc 5a05 8dbc ecf6 b3bb
00000380: 41e4 87ba 357a f73c b2cd 1e3c b34f 773c
00000390: 123d 1fbd acbf 8b3b 8a61 06bd 1b91 36bc
000003a0: 6064 9cbc c716 843c d6f6 54bc fc66 bfbb
000003b0: de5d 9cbc f89b 13bb 4436 d2b9 9a23 dc3c
000003c0: d557 253d 0fe6 073c dfa9 13bc 8737 ab3a
000003d0: c267 a2ba f172 213b 75b1 cb3b 46e1 d53a
000003e0: 83ad ab3b f673 083d c216 ad3c a3be bc3c
000003f0: f122 a3bc f067 2bbb 35d9 52bc 67be 64bc
-0.013705274 0.0088855075 -0.00420324 0.045619424 0.021730203 -0.010657959 -0.029194463 0.0025528178
0.025285773 0.0003559574 0.004184026 0.008818534 0.02090192 -0.024325602 0.009572569 -0.016457222
0.021727825 -0.007929625 0.0058200676 -0.041933272 0.0023646946 0.008336389 0.030426363 0.0014032288
0.010479129 -0.049907193 -0.0010041986 -0.016154049 -0.013624517 -0.013076321 -0.0145031335 0.011854102
-0.02564264 -0.020068597 -0.011775203 -0.016164428 -0.044681262 0.022955053 -0.0019551304 -0.020381005
-0.02953294 0.020863518 0.02607766 0.012421135 -0.0019634368 0.023568055 0.027272819 0.00598725
-0.014668728 -0.018329967 0.0054960647 0.021628097 -0.025012305 -0.0003083575 0.020579625 -0.08590644
0.029327381 -0.014226502 0.04968097 -0.02058645 0.00555906 -0.0010809086 0.035971455 -0.017563
-0.027054843 0.010025769 -0.015389149 -0.02904519 -0.056266025 -0.013330996 -0.0062721693 0.011397691
-0.020309096 0.028471295 0.018540088 0.0066107507 0.0066507626 0.008382342 0.0062595634 0.0126933195
0.0034524396 0.004889208 -0.0069976253 0.034964643 -0.0003144435 -0.015694162 -0.006432525 -0.020932985
-0.011169522 0.0392694 0.0050600744 -0.021647848 0.027899379 -0.04930534 0.020220585 0.016744891
0.0063433787 0.01976294 0.027093466 0.0124772405 0.011297868 -0.02483323 0.002923497 4.2267664e-05
-0.0026731577 -0.008626779 -0.019086227 -0.0031105122 -0.02228059 0.047928706 0.0035780764 0.03471898
-0.016193153 0.011950726 -0.010583603 -0.023153193 -0.018533798 -0.021524597 -0.008497702 0.004825817
-0.0010064283 -0.00525108 -0.019859493 0.008824549 0.03020618 -0.011511985 -0.015170869 0.018542428
-0.015942255 -0.026431914 0.021734415 -0.020448431 0.006440537 0.004365864 0.006617992 -0.0029703754
-0.009009975 -0.0014157884 0.017520942 -0.0065557174 0.0005413834 0.03883065 -0.020857496 0.0180749
0.039024185 -0.005625694 0.002227196 -0.004172481 0.014609507 -0.02902719 -0.007342628 0.014421361
-0.027330153 0.0009210029 -0.012344519 0.022628305 0.00253347 0.017498976 -0.05126867 -0.019367678
0.06572252 -4.7164598e-05 0.006559611 -0.00429119 0.022058336 0.008824105 0.008060136 -0.002355004
0.046889376 0.008694414 0.034832343 -0.021436397 -0.029516652 -0.018291544 -0.013093953 0.0045655165
0.021639891 0.0067719603 -0.006778014 -0.03523962 0.062603556 -0.010437119 0.01940147 -0.032463096
0.0032110694 0.01551157 0.01026335 0.040255383 -0.03710325 0.0138995955 0.008888576 0.0091555985
-0.035192754 -0.021709139 -0.009536037 -0.038330864 0.0053233574 -0.011916425 0.005076541 0.025240205
0.016040072 -0.005230648 -0.012191841 -0.0008739914 0.012391339 0.010294321 -0.03154187 0.012072749
-0.018397087 0.03556844 -0.036919285 -0.019776538 0.010091699 0.029934501 -0.0034981784 0.05192233
-0.036042344 0.009012414 -0.0074095945 0.022177862 -0.0012275614 -0.01210247 -0.017214466 -0.005492082
-0.0010367708 0.03020964 0.009692596 0.015094685 -0.0388766 0.0042647924 -0.032807864 -0.011142994
-0.019090831 0.016124142 -0.012998303 -0.005841134 -0.019087728 -0.0022523385 -0.00040094752 0.026872445
0.040366966 0.008294596 -0.009012668 0.0013062813 -0.0012390541 0.002463516 0.006216223 0.0016317747
0.00523919 0.033313714 0.021129016 0.023040121 -0.019914122 -0.002615448 -0.012869169 -0.013961411

action_model._continuous_distribution.mu.bias f4 [2]
00000000: 8be0 bcbb af71 03bc
-0.0057640723 -0.00802271

action_model._discrete_distribution.branches.0.weight f4 [2, 128]
00000000: 1bf9 aabb 3b2a 53ba 2547 7cbc 140a 7cbc
00000010: 279f afbb c84b 9bbb cc3f 893c ff1d 223c
00000020: a31b 513b 60cf 4ebb dd31 35bb e02d 0ebc
00000030: 18a6 21bc cdba 50bc 6263 94bc 9b4d 98bb
00000040: 34b9 733c d4c0 3dbb 4a28 4d3a e15d 853b
00000050: 5c8c 803c 8f08 ec3b 7800 b7ba fe9e 8d3a
00000060: d439 613c 9895 3b3a aff7 9eba 1dcf ceba
00000070: 2b7b a6bc bf58 b0bb 4b58 07bc 5a19 973b
00000080: aee9 b53c 9136 6dbc 97c6 ccba 411b 1c3c
00000090: 1c48 a23c d7c7 eb3b f097 303b da38 713b
000000a0: 3799 96bb 1459 a9ba fa52 1fbc 6047 1f3c
000000b0: 6b37 f7bb 0df0 d639 6e1b dd3b 8d74 52bc
000000c0: b71f 9239 9055 7aba a3ea 14bb a243 093c
000000d0: bf7d dc3b 7565 17bb b755 503c 3afb 0dbc
000000e0: 92f8 0fbc c2ae 613c b3b4 a53b 9c13 96bb
000000f0: 45ca 12bc 66a5 163c b3ff 5f3b 070a 6dbb
00000100: f6b6 8cbc b380 c53a 7d0c 303b 462d c6bc
00000110: 1de7 c43c 1037 11bc 7d78 5cbc ac1a 7ebc
00000120: 777c acbc b4ba fb3b 367d 8ebc fce5 c13c
00000130: 3651 2eba 446e fdbb d254 9b3b a5cb 87bc
00000140: 2a22 b93c 3527 d63b 365f 0a3b b285 bf39
00000150: 75db c03b 203c 38bc 6cde f9ba 6c6e 113b
00000160: c1ee 603b d26e 2fbc ea58 9dbb 4bb5 473c
00000170: 8970 23bb edd0 dc39 58c5 7abb 36d9 92ba
00000180: 3b7f 683b 2946 46bb 7095 4fbb 6e3b e5ba
00000190: 4b0a f8bb eb39 04bb 6501 86bc e522 3739
000001a0: 73a0 313b 4730 f7bb 5ccd b13b 59f9 9abc
000001b0: 1ca3 98bb 79b4 9ebc 44ec 42bb 7c0f 17bc
000001c0: 2ea4 a7bb 733e e4b8 789c bdba 42d7 1cba
000001d0: 755e 333c 4f17 b939 f461 4fbc ff5e a0bb
000001e0: 467d 70ba f4ee d83b d077 043c 1f68 81ba
000001f0: cf83 1ebc 9e24 e43a a11b 863c 2ebd 9bbc
00000200: d27b c13b 050b eb3b 72d7 c9bb 68bf 3a3c
00000210: 80c0 37bb 01eb 8d3c 61dd 543c d675 60bb
00000220: 4e41 033c 0a5e 3a3c 35b2 c63c 1c4c 9dbb
00000230: 061a a2bb a8b6 443c 8f53 42bc e609 05bc
00000240: 1157 893b 6262 8b3c 908f 58bc 56c0 80bc
00000250: 0ff2 df3a ab6a 20bc 8d59 79b9 8b28 953b
00000260: 813a d0ba 11b6 9d3b 54d0 0b3c 5da6 223b
00000270: fcd6 003b 7f20 473c 0cef ba3b cb66 853c
00000280: 02b4 1abc 7629 28b9 fa7b 32bb 8cf8 09bc
00000290: e669 aa3c e240 c1bb 5575 2fbc 40d0 38bc
000002a0: 62c0 ffb9 3002 d1b9 acc6 1c3c a97b c6ba
000002b0: 233b 8ebb b65f 553c f437 4f3c e5a7 6ebc
000002c0: f02a edba 0811 d83a 7e59 943b 2649 373b
000002d0: 228e ccbb ad3f 39ba 8c95 22bc fa7d cf3a
000002e0: c9a5 993b 5d86 6b3b 830b bcbb 46a0 11bc
000002f0: e65a b63c fe12 4b3b 1cc7 8e3b 2c53 4d3b
00000300: 2cf5 373c 5454 f2bb 799d 833a 65e6 b0bb
00000310: 311f 05bc 99f6 543c 3c12 83bc af49 213c
00000320: e63f 093c 6619 043b cda1 443a 3e0a 74bb
00000330: 8325 a3bb 4e00 f53a ec0e 8bbb 0c82 92b9
00000340: c3a9 84b9 73ab 56bc 9edf 0dbc 7d5c 17bc
00000350: 4ad8 10bb 1017 863c f18e 32bb 59a6 55bb
00000360: 4f7c a03b 222d eb3c cc36 edbb 20da 023c
00000370: 75b4 3c3c c3c5 c73c 0133 3f3c feb4 0abc
00000380: ffc6 963b 5cfd ffbb 5e6f 2c3c 654c 643c
00000390: 6001 b2ba 9b1f 62ba 0069 2c3a ca80 5fbb
000003a0: d4c0 b13b ed88 08bc 5f86 3e3b 3f70 debb
000003b0: e1a7 b839 1134 4dbc b94e 113c cbca 143a
000003c0: 072c d53b 3c1c 20bc 902f debb 3896 47bc
000003d0: d3e5 c2bb 82c7 df3a e9d8 0a3b f122 c33c
000003e0: d227 12bc 0470 a0bb ba3c f03b 704a 0abb
000003f0: a9ed 8fbc eb4e b3bb cf54 a1bb d054 16bb
-0.005217684 -0.0008055304 -0.015397822 -0.015383262 -0.0053595486 -0.0047392584 0.016754054 0.009894847
0.0031907342 -0.003155671 -0.002764813 -0.00867793 -0.00986626 -0.012739849 -0.018113796 -0.004647923
0.014875699 -0.0028954046 0.0007826133 0.004070029 0.015691929 0.0072031687 -0.0013961932 0.001080483
0.013746697 0.0007155775 -0.0012128259 -0.0015778277 -0.020322403 -0.005381673 -0.008260797 0.0046111764
0.022206154 -0.014478342 -0.0015623149 0.009527982 0.019809775 0.0071954536 0.002694603 0.0036807568
-0.0045959014 -0.0012920224 -0.009724373 0.009721607 -0.007544448 0.00040996113 0.0067476546 -0.012845171
0.0002787092 -0.0009549493 -0.0022722862 0.008377941 0.0067288573 -0.0023101245 0.0127157485 -0.008665854
-0.008787291 0.013774576 0.0050569414 -0.0045799743 -0.008959358 0.0091947075 0.0034179508 -0.0036169307
-0.017177086 0.0015068263 0.0026862912 -0.02419151 0.024035985 -0.008863226 -0.013456461 -0.015509289
-0.021055443 0.007682169 -0.01739369 0.023669235 -0.00066496746 -0.007734092 0.004740336 -0.016576597
0.022599299 0.0065354356 0.002111388 0.0003652997 0.0058855363 -0.011244804 -0.0019063479 0.002219106
0.0034321996 -0.010707574 -0.004801859 0.01218922 -0.0024938902 0.00042117332 -0.0038264599 -0.001120365
0.0035476226 -0.003025422 -0.0031674765 -0.0017489025 -0.0075695864 -0.0020176123 -0.016358087 0.00017465239
0.0027103692 -0.007543597 0.005426092 -0.018917726 -0.004658116 -0.019373165 -0.0029742876 -0.00922
-0.0051160073 -0.00010883519 -0.0014466187 -0.00059830036 0.010947813 0.00035303316 -0.012657631 -0.004894137
-0.00091739406 0.0066202823 0.008085206 -0.000987295 -0.00967498 0.0017405932 0.016370596 -0.019011106
0.005904653 0.0071729445 -0.0061597163 0.011398174 -0.0028038323 0.017323973 0.012992234 -0.0034249923
0.008011175 0.01137496 0.024254898 -0.0048003327 -0.00494695 0.012006439 -0.011860742 -0.008120036
0.0041912873 0.017014686 -0.013217822 -0.015716713 0.0017085689 -0.009791057 -0.00023779851 0.0045519522
-0.0015886576 0.004812964 0.008533556 0.0024818399 0.001965939 0.012153744 0.005704766 0.016284367
-0.009442331 -0.00016037174 -0.002723454 -0.008421075 0.02080245 -0.005897627 -0.0107091265 -0.011280119
-0.00048780727 -0.00039865216 0.009568851 -0.0015143055 -0.0043405457 0.013023308 0.012647618 -0.014566396
-0.0018094461 0.0016484568 0.00452727 0.0027967184 -0.0062425295 -0.00070666784 -0.00992335 0.0015830391
0.0046889526 0.003593824 -0.005738677 -0.00888831 0.02226014 0.0030986662 0.004357232 0.0031330092
0.011227887 -0.0073953066 0.0010041437 -0.005398559 -0.008125112 0.012998247 -0.015999906 0.009844228
0.008377051 0.002015674 0.0007500917 -0.003723755 -0.004978837 0.0018692107 -0.004243722 -0.00027944183
-0.00025303484 -0.0131024 -0.0086592715 -0.0092383595 -0.0022101575 0.016368419 -0.0027245844 -0.0032600372
0.0048976312 0.028708044 -0.0072391983 0.007986575 0.011517634 0.024386292 0.011669875 -0.008466003
0.004601359 -0.007812185 0.010524599 0.0139342295 -0.0013580732 -0.00086259254 0.00065769255 -0.0034103864
0.005424598 -0.008333427 0.002907179 -0.006788283 0.00035220294 -0.012524621 0.008868867 0.00056759705
0.0065054926 -0.009772357 -0.0067805722 -0.012181811 -0.0059478073 0.0017073008 0.0021186417 0.023820372
-0.008920627 -0.004896166 0.007331458 -0.0021101497 -0.01756938 -0.0054720542 -0.00492344 -0.0022938736

action_model._discrete_distribution.branches.0.bias f4 [2]
00000000: 858b 0fbc 868b 0f3c
-0.008761291 0.008761292

critic.network_body.linear_encoder.seq_layers.0.weight f4 [128, 30]
00000000: f836 42bd 01fc a3bd 5938 43be ca7c 833e
00000010: f1bc 34be 5d96 a03e 98ea 6ebc e01f f83d
00000020: f4a8 1c3e 521a 453d 53b9 76bc 1d9d 943d
00000030: 5382 ebbd 55f9 95be b89d 5cbd 360b e7bd
00000040: f76c 09be e154 28bd b015 9abd f807 8cbd
00000050: 7662 853d 3fea 863d f3f3 d6bd 2ecd f33d
00000060: 471d 9abd ac57 21bd df1f 84be db52 39be
00000070: a05e 713e 8d19 933e ba52 a9be 6dce 0e3e
00000080: f0c9 dc3e 3edf a6be b316 a43c aae1 00bd
00000090: 88d6 fb3d 66df e0bd 8840 c2bd 1575 683e
000000a0: d8ef d2bd 2c78 acbc 6117 223d a4fd 633d
000000b0: 92e7 1b3e 6d7e 333c 6845 583e 1134 6dbe
000000c0: 30a0 123e 51f1 fabd cc43 7c3e e9fe 4cbe
000000d0: f45b 633e 2dce 43bd e612 903e a172 aabe
000000e0: ca19 15be 4c92 f63d 8fad 9bbc c086 933e
000000f0: afa5 19be a2dd 433e 498d 663b 115c 95be
00000100: e519 533d b30c 5fbe 936f c33d d8ee a5bd
00000110: 2df2 44be 05ce bebe 30bf 27bf 00dc 713e
00000120: 5973 1c3e d6f9 823e 3810 a9bd 3b74 873d
00000130: 8dd3 61bd 20a9 67be aa67 abbe 086a 163d
00000140: 719d fa3d a13e ef3d bede 9bbd 8a5c 8ebe
00000150: dbe4 acbd ee83 643e 002e 19be d8bd 5e3b
00000160: 0967 acbd 1148 993e 279b 48be c3a1 98be
00000170: c0c3 8b3d f989 56be dcd0 49be dd63 553e
00000180: 0077 b63c 7144 043d d896 96bc b916 b9bb
00000190: 7e3a efbc e467 703e b523 98bd 7c26 59be
000001a0: 5c91 34be e3ff 913d 3f31 403e c789 dabc
000001b0: 96d4 42be 67c1 683e 7d56 113f dfda bc3c
000001c0: 5386 223e 9de6 ff3d 0895 e43c 680f 853d
000001d0: d891 58be f4a1 4abe cb04 0f3e df87 23be
000001e0: 1032 07be 0cbd 953d 7aa1 9f3b dd01 d8bd
000001f0: 86c1 cabd 001c c23e cd5b cb3d 933d 1fbe
00000200: 87fb 6b3e eee7 c2be cd10 cf3d f7ec dabd
00000210: 5e05 e2bd e0a5 5abd 03a7 16be 3a64 10be
00000220: 835c 86be a36d fa3e a3e0 80bb dc99 b7bd
00000230: c271 4c3b a231 7c3e 88ec ac3d 5b90 693d
00000240: e8aa 0d3c b8a6 2e3d d8ae 153e 3286 9c3d
00000250: 5746 06be f44f 053e 72f9 08be 8121 bebc
00000260: f8ec 1dbd a859 343e 2814 70be a944 40be
00000270: 0ad5 e8bd 8d42 45be a9ba 2bbd e9b7 403e
00000280: 4543 a2be 04e4 6a3c b417 6ebe d1e6 b3be
00000290: 0cc6 5b3c d4be 503e b630 333d 376e 753d
000002a0: 37c2 4a3e 5479 c13e 53bf 8bbe 375b c33d
000002b0: 7ba8 5d3d de42 173e 70c4 783e 9e58 9cbc
000002c0: 2235 a5be 0ff8 64bd 1ae6 acbc d98d 523e
000002d0: 991f 36be c3d9 8c3d 32b9 b6be 86e4 bebd
000002e0: 93f8 e0bd 4276 87bd 7cb1 293e ce43 48be
000002f0: ff71 c13d f1f4 803e 4116 a13c 206a 19be
00000300: dbe2 29be a10e 013e fdcd ba3e ca15 7bbe
00000310: c900 90bd 5cbc 3d3c cd04 91bd dbd4 483d
00000320: 26d0 00be 24ac 0ebe 3af8 d7bd 9b4d 73be
00000330: 2a8f 493e d9d1 643e bbeb f0bd b37e 4e3e
00000340: 516d 45bd ea56 c63d 3322 e3bd 1667 d13d
00000350: 3f58 ca3d 1e83 8fbe 9e98 353e d53f 4f3e
00000360: e1c6 073e 525c 1abc 0e90 3d3e c3a6 e83c
00000370: 09a4 203e 9c3d 32be 0a7f 553e 6a1b a93e
00000380: 9983 b93d afcd f5bd 96ad f7bd d2a4 883e
00000390: 2129 5cbd 5bef 80be 231e 8ebe 1ef7 823d
000003a0: 65ea edbd 9651 7e3d 6e97 ff3d 855f 283e
000003b0: df36 b93d 6b06 d8bd dd06 2d3e f58c ad3d
000003c0: 0bc4 febd 8f81 eebe b502 683e 8454 f33c
000003d0: c56e a2bd 19f2 2a3c 0bf9 2cbc cec1 333e
000003e0: d601 f2bd f8e6 22bd 6187 6a3d be39 acbd
000003f0: 9557 6dbe c15c 493d 5ff9 94be d722 cf3d
-0.047415704 -0.0800705 -0.19064464 0.25681144 -0.176502 0.31364718 -0.014582299 0.12115455
0.15298826 0.048120804 -0.015058833 0.072565295 -0.11499467 -0.29291788 -0.05386135 -0.11281435
-0.13420473 -0.04109657 -0.07523668 -0.068374574 0.065129206 0.06587648 -0.10495748 0.11904369
-0.075251155 -0.03939025 -0.25805566 -0.18098013 0.23571253 0.2873043 -0.33070928 0.13945933
0.43122816 -0.32592195 0.020030355 -0.03146521 0.12296778 -0.1098011 -0.094849646 0.22700913
-0.10299653 -0.021053396 0.039573077 0.055661812 0.15225056 0.010955435 0.21120226 -0.23164393
0.14318919 -0.12253059 0.24635237 -0.20019116 0.22203046 -0.047804046 0.28139418 -0.3329058
-0.14560619 0.12039623 -0.019003658 0.28813744 -0.1500461 0.19127515 0.0035179427 -0.29171804
0.051538367 -0.21782188 0.095427655 -0.081021965 -0.19233008 -0.37266555 -0.65526104 0.2361908
0.15278377 0.25581235 -0.082550466 0.06613966 -0.05513339 -0.2262311 -0.33477527 0.036722213
0.12237061 0.116818674 -0.07610844 -0.27804977 -0.08442088 0.22315952 -0.14958954 0.0033987667
-0.0841809 0.29937795 -0.19590436 -0.29810914 0.06824446 -0.2095107 -0.1970858 0.20838876
0.02227354 0.032291833 -0.018382475 -0.0056484607 -0.029202696 0.23477131 -0.074286856 -0.21206087
-0.17633575 0.07128885 0.18768786 -0.026677025 -0.19026408 0.22730027 0.56772596 0.023053585
0.15871553 0.12495158 0.027903095 0.06497079 -0.21149385 -0.19788343 0.13966672 -0.159698
-0.13202691 0.073114485 0.0048715444 -0.105472304 -0.09900193 0.37911987 0.09929619 -0.15550832
0.23045169 -0.38067573 0.10110626 -0.10689729 -0.1103618 -0.053380847 -0.14712147 -0.14100733
-0.26242456 0.4891177 -0.003933029 -0.08964893 0.0031195735 0.24628308 0.08443552 0.057022434
0.008646704 0.042639464 0.14617479 0.07642783 -0.1311277 0.13018781 -0.13376406 -0.023209335
-0.03855607 0.17612326 -0.23445189 -0.18776192 -0.11368759 -0.19263668 -0.04192606 0.18820156
-0.31691948 0.01433659 -0.2325123 -0.35137036 0.013413917 0.20385295 0.043747626 0.059919562
0.1980065 0.3778788 -0.27294406 0.09538882 0.054115754 0.14771602 0.24293685 -0.019085225
-0.322671 -0.05590063 -0.021105815 0.20561923 -0.17785491 0.06877472 -0.35688168 -0.09320931
-0.10984912 -0.06614353 0.16571611 -0.19557115 0.09445571 0.25186875 0.019663932 -0.1498189
-0.16590445 0.12603237 0.36485282 -0.2452003 -0.070314 0.011580553 -0.07080994 0.04903112
-0.12579402 -0.13932854 -0.10545392 -0.23760073 0.19683519 0.22345676 -0.11763712 0.2016552
-0.048199955 0.09684546 -0.11090507 0.1022474 0.09880113 -0.28029722 0.17734 0.20239194
0.1325946 -0.009421425 0.18511984 0.02839983 0.15687574 -0.17406315 0.20849243 0.33028728
0.090583034 -0.12002122 -0.12093656 0.26688248 -0.05375016 -0.25182614 -0.27757367 0.0639479
-0.11616973 0.062089525 0.12480055 0.16442688 0.09043669 -0.10548099 0.1689715 0.08474151
-0.12439736 -0.4658322 0.22657283 0.029703386 -0.07931284 0.010433697 -0.010557423 0.175544
-0.118167564 -0.03977105 0.057258014 -0.08409451 -0.23177941 0.049160723 -0.29096505 0.10114067

critic.network_body.linear_encoder.seq_layers.0.bias f4 [128]
00000000: 9147 aa3d 79b3 ac3d 6f28 c7bd 2b19 68bd
00000010: 3de4 bfbc 19f7 a93d 7eb5 e73c 20b1 8cbd
00000020: 83b6 cc3d 7675 21bd d00c 07bd f480 de3d
00000030: b7bb 503d 3de3 fb3d 4cd5 a63c 0266 2ebd
00000040: 365c 5abd fd35 22bd f5f4 3abd b8a3 b13d
00000050: b723 0ebd ec07 3e3d 4941 943d c62f 053d
00000060: b7d4 e03b 34b5 58bd b7e7 83bd 207f a73d
00000070: bc13 a1bb 0800 a8bc 7c9f bd3d 40ad d7bd
00000080: 3b5b 973d 29ef 7bbd ae9e 40bd 4885 f4bc
00000090: bcb8 c9bd 16a7 743d 7c1a 143b eeb5 a63c
000000a0: 5373 37bd 3c3a a53d d078 11bd d9f7 c4bd
000000b0: 584d 053e 141b 593d 8b30 863d 594e 4d3d
000000c0: cd67 03bb 2d5b 263d 0a40 013e 63f4 8b3a
000000d0: 90a3 753d 511b c33c 0847 a8bd b705 343d
000000e0: 2804 093d 9776 733d 5fb2 02bc 2543 7bbd
000000f0: 9868 1fbd 3563 80bd 0ef1 4bbd ea33 f9bd
00000100: 7d3d 50bd c6db 33bd ff23 6ebd ce3b 81bd
00000110: b343 babc a110 8c3d 1f3d 40bd f813 b2bd
00000120: a5d0 3abd 0105 103c fc3a afbd bc63 0cbd
00000130: 0b04 9c3d a7e8 663d c41f 6dbb 7318 c0bc
00000140: 64ce 913d 6a36 b93d a9dd 6f3d 4c17 cb3c
00000150: 595d a03d d55c 42bd 49c9 d0bd cb26 20bd
00000160: bb5c dcbd 71e0 56bd 9fe9 a9bd c21d ab3d
00000170: ecec a03c 3421 9ebd 8088 9d3d 07b7 383b
00000180: 4068 67bd 94ef 0ebd d77d 883d 30e2 f1bb
00000190: dbe4 62bd 3396 1ebd 7a81 8cbd 36e5 973d
000001a0: 68b8 32bd 6c9d 57bd b1b6 98bd 545f 10bd
000001b0: 11e3 92bc ecfc 463d e898 f83d 90e6 d83d
000001c0: e750 c5bc eafd 8c3d b704 153b 0aa9 433d
000001d0: 0d51 473d f863 d93d 9550 7cbd cdf2 8a3c
000001e0: 3dee 7e3d 1768 8fbd 813d 57bd 6aec 793d
000001f0: 8b32 80bd 1b0f 933b b169 f23b 8121 f13a
0.083144315 0.08432669 -0.09724509 -0.056664627 -0.023424262 0.08299083 0.028284784 -0.068697214
0.09995749 -0.03941866 -0.032971203 0.108644396 0.05096027 0.12299202 0.02036538 -0.04257775
-0.053310595 -0.03960227 -0.045643765 0.08673805 -0.03470203 0.046394274 0.07239015 0.032516263
0.006861295 -0.052907184 -0.064406805 0.08178544 -0.0049156826 -0.020507827 0.09258935 -0.10531092
0.07390448 -0.061507378 -0.04702633 -0.02984871 -0.098496884 0.059729658 0.0022598794 0.020350423
-0.044787716 0.08067748 -0.035515606 -0.09617586 0.13017786 0.05300434 0.065522276 0.050123546
-0.0020050884 0.040614296 0.12622085 0.0010677691 0.05997044 0.023816736 -0.08216673 0.043950763
0.03345123 0.059439268 -0.007977097 -0.06134333 -0.038918108 -0.06268922 -0.049790435 -0.12168105
-0.05083989 -0.043910764 -0.058139797 -0.06310235 -0.02273736 0.06839109 -0.04693329 -0.08695215
-0.045609135 0.0087902555 -0.08556172 -0.0342748 0.07617959 0.05637422 -0.0036182264 -0.023449158
0.07119444 0.09043582 0.058561 0.024791382 0.07830305 -0.047451813 -0.10194642 -0.039099496
-0.107598744 -0.052460138 -0.08296513 0.08355285 0.019644223 -0.07721177 0.07692051 0.0028185265
-0.056495905 -0.03489645 0.06664627 -0.0073817 -0.055394035 -0.03871746 -0.06860633 0.074167654
-0.043632895 -0.052640364 -0.074567206 -0.035247162 -0.01793054 0.04858105 0.121385396 0.10590851
-0.024086429 0.06884368 0.0022738406 0.04776863 0.04866128 0.10614771 -0.061600287 0.01696148
0.06223892 -0.070022754 -0.05254889 0.061016478 -0.0625964 0.0044878847 0.0073978533 0.0018396826

critic.network_body.linear_encoder.seq_layers.2.weight f4 [128, 128]
00000000: d400 223e 1ba0 84bd e03e 213e 6c12 473e
00000010: db0e 54bd fc3f c43d 473e c2bb 155c 3cbc
00000020: efc8 97bd b366 b23d 3859 873d 8d07 f1bd
00000030: 56d0 fc3d 075e ff3c b126 d5bc 4399 383a
00000040: 033c 54bd 353f b83d 997c 2f3d 8f88 9cbd
00000050: e128 babd a38c 4cbd 0339 163d 97a3 a73d
00000060: c824 f2bc dcb8 69bd 365d 44bc affd eabd
00000070: 7fa3 1bbd 509e c0bd fa47 d5bc 3190 c23d
00000080: 329a 08be c15a 33be c95c be3d 14a9 bb3d
00000090: 354d 2f3e f32c fe3d 9d03 043d afb2 c3bd
000000a0: 3999 7ebd 6836 0bbd 820c 8a3d 4a6a b5bc
000000b0: c80f d6bc 80ee 09bc a58e 2d3d 6a22 e03c
000000c0: 7466 44bd 4344 c73d 358b 3a3d 93f0 023e
000000d0: bb22 29bd b38d 713d fe01 71bd 2290 1d3e
000000e0: 091d 18be 5530 ec3c 7243 b03d 4b35 553b
000000f0: 6ed9 0cbd df67 083d de09 0a3e a2e4 b43d
00000100: dd38 3c3d 5b34 2ab9 5f22 3c3e b18a 91bd
00000110: 7562 04be 93f5 e0bc 5f51 a8bc 95e6 d0bc
00000120: b6bc 173e c8f5 cd3d 6734 603d 9efe 82bd
00000130: 133e f13b 6816 2ebe ee0b 39bd f0c4 153e
00000140: 6b89 a83d ec4d 0b3b 4f12 dfbd c220 afbb
00000150: f385 4cbc 9000 a9bc 55d8 a23d e39c 20bd
00000160: 6ad6 4dbd ac56 933d dc0e f23d 246f 76bc
00000170: df31 03bd 70bb 4bbd 7429 92bd 48ca fdbd
00000180: 5250 16bd 2a1c 66bd 468b 4b3d 66f7 c63d
00000190: c2b7 57bd 2afc 6bbc b314 013d 2510 7fbe
000001a0: 2c7c 0b3e 17a1 8ebd a436 7e3d c0a2 c33d
000001b0: c8d1 a13d 5fc1 d9bd c3da ebbb bf7c 62bb
000001c0: 77ba 5bbd c204 7a3d 843a cb3d d0e1 b23d
000001d0: 6ec9 dbbc 85ed d0bc 5480 2cbe 2a4c 883d
000001e0: 1831 0a3d 930d 123c 0914 5d3d beeb 0b3d
000001f0: 759e 5dbd b368 3c3d 659b 703d 97cf 153d
00000200: d0ef 0abe c47d 8bbd 60fb 5f3e 653c e13d
00000210: df74 813d 19e8 ee3c e698 7ebc fd17 f43c
00000220: bfdd e3bd cac5 523e 0858 8bbc e7c1 98bd
00000230: 9a45 d03c 0ab1 763d efa9 2e3c 2038 b83b
00000240: 9127 30bd 522d 7cbd d63e 963a dc2b 13be
00000250: b921 7fbd e691 24be b4ca 83bd e24e 8cbc
00000260: 32ae 803d 4804 263d 01f3 3dbd 8e08 9e3c
00000270: c410 333e a992 1ebb 0c6b 223d aee9 02be
00000280: 02be c8bd 7eb8 debc 7220 febb 4ddd 903b
00000290: ec4a 973d 75a9 8d3d 5b3f c3bc 38a7 9b3c
000002a0: 0c68 cd3d ee2f b03d 48ae 083d 6ecc 10bd
000002b0: ddcd e8bd 5443 46bd 389c b13d 557b fc3c
000002c0: 2c4e 64bc a315 e63d a79c 9cbb 4db8 1b3e
000002d0: 5259 e63c f8c1 f5bc f998 fbbd 0603 83ba
000002e0: 1877 54bd 427f f4bc d0ef 99bd f355 1c3c
000002f0: dcd3 e83d 113e 6fbc 1288 f93c f469 7a3c
00000300: 4f1c 0e3e a62d a9bc af0c e13d 4b55 f9bd
00000310: eec3 efbb cdda 72bc eeae adbd fcbf cfbd
00000320: 7337 83bd 9c09 aabc 52d4 3d3c 2b58 163d
00000330: 57d4 e33d a80c 3b3d bf2f 2ebe bfb8 11bd
00000340: 80ec 8a3c 5f6e aaba 88d4 8dbd e9c3 2c3d
00000350: 51eb 11bc 0868 233e edb6 9ebd 0d85 e83d
00000360: 26d8 383d 7a65 263e e931 383d d47e 543d
00000370: 3bfb 223e 7d5f a23c 5992 5d3d 4f32 b13d
00000380: 5729 4e3e 1e74 383d 3233 c83d 982b 3d3d
00000390: 8120 f53a 6995 8ebd 7040 72bd e7bc c23c
000003a0: 0044 a4bd dea3 8bbd d585 cfba a48d d0bc
000003b0: 2eff 273e 70d8 8abd ca2b 303d ba42 523d
000003c0: ddd5 ac3d c574 d3bd 02eb b23d 21c6 3dbd
000003d0: aeef 62bd caab 963c e827 d7bd 78d4 523d
000003e0: 1340 013d 79d8 3d3e 1667 ad3d d16a b6bd
000003f0: 9215 b43d b476 113d 5449 5a3c 06a6 ffbc
0.15820628 -0.0647585 0.15746641 0.19440621 -0.05177198 0.095825166 -0.005927834 -0.011496563
-0.07411372 0.087109946 0.06608814 -0.11769018 0.123444244 0.031172765 -0.026019426 0.0007041881
-0.051815044 0.08996431 0.042843435 -0.07643234 -0.09089828 -0.04993881 0.036675464 0.08185499
-0.029558554 -0.05706106 -0.011985114 -0.114741676 -0.03799772 -0.09405196 -0.026035298 0.095001586
-0.13340071 -0.17515089 0.09295041 0.091631085 0.17119296 0.12410917 0.03223001 -0.095555656
-0.062157843 -0.033987433 0.06740667 -0.02214541 -0.026130572 -0.008418679 0.042372365 0.02736016
-0.04794927 0.09729817 0.045542914 0.12787084 -0.041292887 0.058973026 -0.05883979 0.15387014
-0.14854826 0.02883164 0.08606614 0.0032532986 -0.034387045 0.033302184 0.13480327 0.08832671
0.045952667 -0.00016231967 0.18372487 -0.071065314 -0.12928183 -0.027460849 -0.020546613 -0.025500575
0.14818081 0.10056645 0.054737475 -0.063962206 0.007362136 -0.17000735 -0.045177393 0.14625907
0.082293354 0.0021256162 -0.10892164 -0.005344481 -0.012483108 -0.020630151 0.07951418 -0.03921212
-0.05025331 0.07194266 0.118192405 -0.015041146 -0.032029983 -0.0497393 -0.07136813 -0.12392098
-0.036697693 -0.056179203 0.04969337 0.09715156 -0.05266548 -0.014403382 0.03151388 -0.24908502
0.13621587 -0.06964319 0.062063828 0.095525265 0.07901341 -0.10632586 -0.0071977093 -0.0034559218
-0.053644624 0.061039694 0.0992327 0.087344766 -0.026829448 -0.025503883 -0.16845828 0.06655152
0.033738226 0.008914369 0.053974185 0.03416037 -0.054106195 0.045998286 0.058741946 0.036574926
-0.13568044 -0.06811097 0.21873236 0.109978475 0.063211195 0.029163407 -0.0155393835 0.029796595
-0.11126279 0.20583263 -0.01700975 -0.07458859 0.025423814 0.06022743 0.0106606325 0.005621925
-0.043006483 -0.06156666 0.0011462818 -0.143722 -0.06228802 -0.16071281 -0.06435147 -0.017127458
0.06283225 0.040531427 -0.046374325 0.019291189 0.17486864 -0.0024196303 0.03965287 -0.12784454
-0.09801866 -0.027187582 -0.0077553326 0.0044209124 0.07387337 0.06917087 -0.023833921 0.019000635
0.10029611 0.08602892 0.033369333 -0.03535121 -0.1136739 -0.048404053 0.086723745 0.030820528
-0.013934653 0.112345956 -0.0047794166 0.15207024 0.028118763 -0.029999718 -0.122850366 -0.0009995408
-0.05187139 -0.029845838 -0.07516444 0.009541976 0.11368534 -0.0146022 0.030460391 0.01528405
0.13877986 -0.02065165 0.10988747 -0.121744715 -0.007317058 -0.014822674 -0.08480631 -0.1014404
-0.064070605 -0.020756535 0.011586266 0.036705177 0.11124485 0.045666367 -0.17010401 -0.03557658
0.016958475 -0.0013002864 -0.06925303 0.042179022 -0.008906201 0.15957654 -0.07749734 0.113535024
0.04512801 0.16249648 0.044969473 0.051878765 0.1591615 0.019820923 0.054094646 0.08652174
0.20132957 0.045032613 0.0977539 0.046184152 0.0018701704 -0.069620915 -0.059143484 0.023771716
-0.080207825 -0.068183646 -0.0015832732 -0.025458165 0.16405937 -0.067795634 0.04301051 0.051333167
0.08439229 -0.103250064 0.087362304 -0.04633153 -0.055404358 0.018392462 -0.105056584 0.051472157
0.031555247 0.18539609 0.08466928 -0.08907092 0.08793177 0.035513595 0.013323147 -0.031207096
