results/ppo/Car Agent/Car Agent-310.pt (torch, 147999 bytes, 14 tensors)

network_body.linear_encoder.seq_layers.0.weight f4 [128, 3]
0.08705891 -0.03936629 -0.69760853 0.41768357 1.0034266 -0.6334871 0.6077011 0.3531225
0.18730013 0.4889709 -0.32768783 0.23885296 0.58389556 0.39883715 -0.6863492 0.068818614
0.16488665 0.14672467 1.2698286 -0.8615808 -1.0536579 -0.8563597 -0.4030063 0.68180776
0.72058475 -0.19840385 0.12570633 0.5908374 0.36469278 -0.07567652 0.6441489 -0.18391608
0.5666615 -0.25410897 -0.31815654 -1.163181 0.67107785 -0.40023196 0.16591085 0.94843477
0.7458364 0.4770903 -0.37447044 -0.20537075 -0.14187866 -0.3679496 1.0776092 0.028914763
-0.5352014 0.22536999 0.47853583 0.33803797 0.14576969 0.23671491 0.2942566 0.4148185
0.47150162 0.8332445 -0.38652122 -0.19518657 0.41268128 0.5170733 0.103367954 -0.83702815
0.5954167 -0.24679835 -0.12239795 -0.6347219 -0.6515815 -0.1479756 -0.01143849 0.27952105
-0.12709402 -0.28202984 -0.94938433 0.44045773 -0.41479462 -0.2664194 -0.47379696 0.06387878
-0.44449887 -0.21250527 -0.19796623 -0.45378488 -0.44564253 0.124216035 0.7123503 0.48158997
-0.8525863 0.0894573 -0.37388006 -0.168449 0.16615477 1.0864826 0.07940058 -0.47183618
-0.48164794 -0.8770129 -0.038327713 -0.25524622 -0.5110125 0.83675754 -0.31182057 1.0023763
-0.57095975 -0.2518308 -0.0034435736 -0.013063929 0.7201419 0.25087178 0.9163489 -0.70968163
0.7454636 -0.5101267 0.3764533 0.14074601 0.07641793 0.084691465 -0.11900016 0.47575194
0.006999282 -0.2760463 0.9550087 0.42457673 -0.6932696 -0.19668582 -0.022642536 -0.15023199
0.6472156 -1.4235044 -0.95581293 -0.21142524 -0.8804819 1.2037826 -0.22375259 0.32761738
-0.6068336 -0.6130134 -0.6703751 0.05257167 -0.3851037 -0.0498562 0.15653999 -0.07436522
0.23185298 -0.23927243 -0.629698 -0.63369125 0.43994838 -0.38125008 0.057107165 0.052007463
-0.4880458 -0.19654348 1.4038428 0.65851367 0.8695484 0.1670417 -1.3328415 0.089464575
-0.4100018 0.5908782 0.019197643 -0.27657273 0.08073676 0.6506707 0.08706238 0.970948
-0.7058292 -0.46042427 0.039214626 -1.8075911 -0.5534642 -0.5783463 0.8486892 -0.60594016
0.7600217 -1.1965154 -0.028453015 -0.31743973 -0.5421202 -0.8698665 -0.523887 0.27184916
-0.86024314 -0.24800088 0.37660113 -2.1473138 -0.06951134 -0.13876964 -0.15856507 1.1109029
0.29376504 0.009131799 -0.99103445 0.11768458 0.5170357 -0.8354309 -0.24446033 0.43926284
-0.29110092 -0.58170617 -0.19675757 -0.46207842 -0.26913765 0.57311255 0.3345309 0.37877136
1.2601738 0.42695162 -0.77638984 -0.6612669 0.14110272 -1.3317868 -0.13183808 0.20168701
-0.12004656 0.7209835 -0.90977544 0.7835735 -0.313068 0.1652116 -0.42387995 0.6469608
0.46486327 -0.46449646 0.78558916 -0.41287956 0.48331365 0.7906436 0.7668586 0.3773376
-0.17876235 0.060154364 -0.47522652 -0.061200842 -0.77323586 0.8179784 -0.5357319 1.2659583
0.123941906 0.61491776 -0.4526297 0.069133244 0.7172519 0.7484049 0.47423863 0.19446927
0.16680318 0.8383409 0.62808836 0.59388006 -0.31751576 0.20642701 -0.45083165 -1.4744381
00000000: f14b b23d 8c3e 21bd 7996 32bf 9fda d53e
00000010: 4870 803f 362c 22bf 4d92 1b3f 79cc b43e
00000020: 9bcb 3f3e 655a fa3e b3c6 a7be df95 743e
00000030: 2e7a 153f 6234 cc3e 95b4 2fbf c6f0 8c3d
00000040: 0cd8 283e fe3e 163e be89 a23f 8f90 5cbf
00000050: 43de 86bf 643a 5bbf d756 cebe f48a 2e3f
00000060: 3e78 383f 612a 4bbe 29b9 003e 1f41 173f
00000070: 03b9 ba3e 4bfc 9abd f1e6 243f 7f54 3cbe
00000080: ba10 113f 921a 82be 6ae5 a2be 1de3 94bf
00000090: c2cb 2b3f 34eb ccbe 89e4 293e 9fcc 723f
000000a0: 22ef 3e3f 2e45 f43e 97ba bfbe b64c 52be
000000b0: a448 11be e463 bcbe 19ef 893f a7de ec3c
000000c0: f502 09bf 64c7 663e a602 f53e 5013 ad3e
000000d0: a644 153e 6565 723e cda8 963e 1763 d43e
000000e0: a968 f13e 834f 553f 1ce6 c5be fdde 47be
000000f0: f64a d33e ea5e 043f 94b2 d33d 7a47 56bf
00000100: 3b6d 183f b5b8 7cbe c7ab fabd 227d 22bf
00000110: 0cce 26bf ea86 17be 8168 3bbc 621d 8f3e
00000120: ef24 02be 3766 90be da0a 73bf ad83 e13e
00000130: f65f d4be 2068 88be 8495 f2be e1d2 823d
00000140: 5b95 e3be fb9a 59be a9b7 4abe 7e56 e8be
00000150: 422b e4be fa64 fe3d 975c 363f f692 f63e
00000160: 1943 5abf 6435 b73d 356d bfbe e57d 2cbe
00000170: 7a24 2a3e dd11 8b3f c59c a23d 8394 f1be
00000180: 8f9a f6be eb83 60bf 85fd 1cbd a2af 82be
00000190: b7d1 02bf be35 563f f2a6 9fbe de4d 803f
000001a0: 6b2a 12bf f7ef 80be 94ad 61bb 170a 56bc
000001b0: 385b 383f 4472 803e d795 6a3f b2ad 35bf
000001c0: b4d6 3e3f aa97 02bf 7dbe c03e b91f 103e
000001d0: 0181 9c3d b872 ad3d 5bb6 f3bd c295 f33e
000001e0: 3c5a e53b f155 8dbe 737b 743f 1f62 d93e
000001f0: 1e7a 31bf 0268 49be d77c b9bc 6ad6 19be
00000200: ecaf 253f 6435 b6bf 28b0 74bf dc7f 58be
00000210: 4367 61bf 8c15 9a3f 661f 65be 77bd a73e
00000220: 7259 1bbf 72ee 1cbf b49d 2bbf 6455 573d
00000230: 502c c5be 0436 4cbd 054c 203e cb4c 98bd
00000240: de6a 6d3e d503 75be e333 21bf 9739 22bf
00000250: ea40 e13e 3633 c3be 34e9 693d c705 553d
00000260: 24e1 f9be b242 49be 1fb1 b33f 5a94 283f
00000270: b99a 5e3f fb0c 2b3e 8d9a aabf 3439 b73d
00000280: c2eb d1be cb43 173f 6044 9d3c f19a 8dbe
00000290: 5059 a53d 5b92 263f c34d b23d 0c90 783f
000002a0: 39b1 34bf bbbc ebbe 849f 203d 255f e7bf
000002b0: d4af 0dbf 810e 14bf b243 593f e51e 1bbf
000002c0: c890 423f 6b27 99bf 4c16 e9bc 7687 a2be
000002d0: 64c8 0abf 92af 5ebf 751d 06bf d02f 8b3e
000002e0: e538 5cbf f1f3 7dbe ddd1 c03e 976d 09c0
000002f0: f65b 8ebd a119 0ebe e25e 22be 1132 8e3f
00000300: 5f68 963e 8b9d 153c 6fb4 7dbf 9d04 f13d
00000310: 745c 043f cdde 55bf cf53 7abe 0fe7 e03e
00000320: 2e0b 95be b2ea 14bf d17a 49be 8b95 ecbe
00000330: 69cc 89be 81b7 123f a247 ab3e 52ee c13e
00000340: 604d a13f 6799 da3e 7cc1 46bf ca48 29bf
00000350: 3b7d 103e fd77 aabf 9000 07be 0a87 4e3e
00000360: f9da f5bd 6092 383f 0be7 68bf 4698 483f
00000370: 734a a0be 3b2d 293e cb06 d9be 399f 253f
00000380: 8f02 ee3e 7bd2 edbe 5f1c 493f f364 d3be
00000390: e374 f73e 9e67 4a3f d850 443f 6532 c13e
000003a0: 7a0d 37be 6c64 763d e450 f3be bcad 7abd
000003b0: c9f2 45bf 0867 513f ba25 09bf ec0a a23f
000003c0: 41d5 fd3d 406b 1d3f 14bf e7be bb95 8d3d
000003d0: d29d 373f 7797 3f3f 68cf f23e f422 473e
000003e0: 74ce 2a3e 829d 563f 66ca 203f 8608 183f
000003f0: 6d91 a2be 9a61 533e 68d3 e6be 63ba bcbf

network_body.linear_encoder.seq_layers.0.bias f4 [128]
0.0 0.0 0.0 0.0 0.0 0.0 0.0 0.0
0.0 0.0 0.0 0.0 0.0 0.0 0.0 0.0
0.0 0.0 0.0 0.0 0.0 0.0 0.0 0.0
0.0 0.0 0.0 0.0 0.0 0.0 0.0 0.0
0.0 0.0 0.0 0.0 0.0 0.0 0.0 0.0
0.0 0.0 0.0 0.0 0.0 0.0 0.0 0.0
0.0 0.0 0.0 0.0 0.0 0.0 0.0 0.0
0.0 0.0 0.0 0.0 0.0 0.0 0.0 0.0
0.0 0.0 0.0 0.0 0.0 0.0 0.0 0.0
0.0 0.0 0.0 0.0 0.0 0.0 0.0 0.0
0.0 0.0 0.0 0.0 0.0 0.0 0.0 0.0
0.0 0.0 0.0 0.0 0.0 0.0 0.0 0.0
0.0 0.0 0.0 0.0 0.0 0.0 0.0 0.0
0.0 0.0 0.0 0.0 0.0 0.0 0.0 0.0
0.0 0.0 0.0 0.0 0.0 0.0 0.0 0.0
0.0 0.0 0.0 0.0 0.0 0.0 0.0 0.0
00000000: 0000 0000 0000 0000 0000 0000 0000 0000
00000010: 0000 0000 0000 0000 0000 0000 0000 0000
00000020: 0000 0000 0000 0000 0000 0000 0000 0000
00000030: 0000 0000 0000 0000 0000 0000 0000 0000
00000040: 0000 0000 0000 0000 0000 0000 0000 0000
00000050: 0000 0000 0000 0000 0000 0000 0000 0000
00000060: 0000 0000 0000 0000 0000 0000 0000 0000
00000070: 0000 0000 0000 0000 0000 0000 0000 0000
00000080: 0000 0000 0000 0000 0000 0000 0000 0000
00000090: 0000 0000 0000 0000 0000 0000 0000 0000
000000a0: 0000 0000 0000 0000 0000 0000 0000 0000
000000b0: 0000 0000 0000 0000 0000 0000 0000 0000
000000c0: 0000 0000 0000 0000 0000 0000 0000 0000
000000d0: 0000 0000 0000 0000 0000 0000 0000 0000
000000e0: 0000 0000 0000 0000 0000 0000 0000 0000
000000f0: 0000 0000 0000 0000 0000 0000 0000 0000
00000100: 0000 0000 0000 0000 0000 0000 0000 0000
00000110: 0000 0000 0000 0000 0000 0000 0000 0000
00000120: 0000 0000 0000 0000 0000 0000 0000 0000
00000130: 0000 0000 0000 0000 0000 0000 0000 0000
00000140: 0000 0000 0000 0000 0000 0000 0000 0000
00000150: 0000 0000 0000 0000 0000 0000 0000 0000
00000160: 0000 0000 0000 0000 0000 0000 0000 0000
00000170: 0000 0000 0000 0000 0000 0000 0000 0000
00000180: 0000 0000 0000 0000 0000 0000 0000 0000
00000190: 0000 0000 0000 0000 0000 0000 0000 0000
000001a0: 0000 0000 0000 0000 0000 0000 0000 0000
000001b0: 0000 0000 0000 0000 0000 0000 0000 0000
000001c0: 0000 0000 0000 0000 0000 0000 0000 0000
000001d0: 0000 0000 0000 0000 0000 0000 0000 0000
000001e0: 0000 0000 0000 0000 0000 0000 0000 0000
000001f0: 0000 0000 0000 0000 0000 0000 0000 0000

network_body.linear_encoder.seq_layers.2.weight f4 [128, 128]
-0.1290334 -0.09730595 -0.06028517 0.02065059 -0.12995362 0.11932067 0.026015988 -0.028961483
-0.03195092 -0.02213108 -0.05931809 0.014533897 0.007816363 0.014926529 0.06542388 0.080493726
0.024803875 -0.064428546 0.07453449 0.015256461 -0.07384427 0.02684635 0.22048908 -0.050836857
0.04808483 0.0023606934 0.05259695 -0.084698334 0.019277096 -0.051810388 0.017293196 0.05064509
-0.073216245 -0.09973781 0.20813529 0.007819945 -0.1311345 -0.020300588 -0.10245818 0.16822085
0.018163104 -0.12800293 -0.097954735 0.044748742 -0.025606297 0.08783407 0.028154563 -0.0471084
0.052273624 0.07505004 0.024577348 0.038445435 -0.041445084 0.059948534 -0.14354227 0.0537355
-0.01722867 0.12524557 0.13068244 -0.033248812 0.13930425 0.08353165 -0.036022007 -0.016461968
-0.06066485 -0.034503013 -0.035322197 -0.040246714 -0.099100895 0.02943269 0.057422996 0.0032355643
-0.02046388 0.019854274 -0.056952085 -0.012140292 -0.07978496 -0.06492234 -0.047284763 0.07629017
-0.022858303 -0.07226345 0.04897695 0.038486153 -0.10991772 -0.03433561 -0.028901622 0.12725523
-0.12004009 -0.15230174 0.12089819 -0.02119395 0.079298384 0.058915187 -0.008719743 -0.12281024
-0.04915743 0.092071936 -0.007738284 0.006913606 -0.10731044 0.04520645 0.033130128 -0.05028989
0.011145262 0.039953753 -0.057472784 0.06806638 0.023619398 0.016066678 0.0031768384 0.14966619
0.16976206 -0.19481729 -0.14308965 -0.0061738915 -0.01875045 0.06517131 0.09561461 -0.008123814
-0.104618706 0.044507507 -0.106469534 -0.009479948 0.011410365 0.019078277 0.10251267 -0.0037476665
0.09717099 0.0388434 0.005593234 0.06918085 -0.114705354 -0.10133706 -0.06299051 0.017411508
-0.053673 0.013803862 0.04180372 -0.028962374 -0.25945926 0.08917417 0.021237152 0.0011844219
-0.068640925 0.016501138 -0.021114802 0.11150066 0.10290531 -0.12826148 0.051482342 0.038001403
0.03753547 -0.0633303 -0.052185267 0.092254825 0.013210966 -0.110126235 -0.057213508 0.29993242
0.088782795 -0.03423895 0.16617234 0.1371012 0.04375461 -0.046167746 -0.068508685 0.02426269
0.068320595 -0.08078342 0.09968956 0.17881778 -0.024085501 -0.12003584 0.024422698 -0.06769416
0.074060135 -0.07278888 -0.10286504 0.0725091 0.10722507 -0.07992424 -0.023170922 0.15108413
0.08821675 -0.006631121 0.066135794 0.081616156 -0.1307488 -0.12861675 -0.050778296 0.04594762
-0.1601486 0.14064538 0.047457684 -0.014971051 -0.06900647 -0.14462219 0.009929454 0.0050709727
-0.10391013 0.022728605 -0.16716653 -0.071578495 0.03840468 -0.011613887 0.08891132 0.062031932
-0.08995684 0.009552528 0.080927975 -0.12869506 -0.0015775281 -0.016857099 -0.09149143 0.020700762
0.08702241 0.09732253 0.09553749 -0.08679743 0.065538675 -0.039059352 0.037101533 -0.13406779
-0.061681796 -0.21002813 -0.03219944 -0.108263664 0.018406056 0.01401233 -0.060876086 0.037015527
0.106740296 -0.06903803 0.12485794 -0.07647172 -0.021215728 -0.009356518 0.11925705 0.08232137
-0.07755439 0.095927544 -0.1154632 0.013510353 -0.16704255 -0.14560246 0.042145517 0.067614526
-0.0075092777 0.106661014 0.11095514 0.032287166 -0.05429232 -0.0054911934 0.003020142 -0.01650814
00000000: 5521 04be 5848 c7bd 95ed 76bd 6d2b a93c
00000010: 9012 05be 655e f43d 7b1f d53c a240 edbc
00000020: f8de 02bd 3d4c b5bc 87f7 72bd 951f 6e3c
00000030: 3410 003c 668e 743c f5fc 853d e5d9 a43d
00000040: 7f31 cb3c 1df3 83bd 8aa5 983d 3cf6 793c
00000050: aa3b 97bd e0ec db3c e4c7 613e 4f3a 50bd
00000060: 99f4 443d ddb5 1a3b e66f 573d 5276 adbd
00000070: 00eb 9d3c 2137 54bd 76aa 8d3c 3a71 4f3d
00000080: 66f2 95bd 5643 ccbd 6b21 553e 3a1f 003c
00000090: 1f48 06be 6b4d a6bc 98d5 d1bd 1642 2c3e
000000a0: caca 943c 3313 03be 7e9c c8bd 754a 373d
000000b0: 4cc4 d1bc 59e2 b33d 66a4 e63c bdf4 40bd
000000c0: de1c 563d d6b3 993d 6f56 c93c f678 1d3d
000000d0: 52c2 29bd 988c 753d bffc 12be c119 5c3d
000000e0: 2423 8dbc 6040 003e 9ed1 053e e82f 08bd
000000f0: c6a5 0e3e a412 ab3d d08b 13bd 40db 86bc
00000100: b57b 78bd 0853 0dbd 02ae 10bd bdd9 24bd
00000110: 69f5 cabd d31c f13c 6034 6b3d c30b 543b
00000120: dea3 a7bc 6ea5 a23c 9746 69bd 13e8 46bc
00000130: 4c66 a3bd 01f6 84bd abad 41bd 053e 9c3d
00000140: 5641 bbbc dcfe 93bd 0e9c 483d a8a3 1d3d
00000150: 8b1c e1bd 7fa3 0cbd 18c3 ecbc 324f 023e
00000160: 94d7 f5bd fdf4 1bbe 7899 f73d ef9e adbc
00000170: 3167 a23d 0d51 713d 41dd 0ebc ef83 fbbd
00000180: 4d59 49bd 3690 bc3d 6e91 fdbb 888b e23b
00000190: 93c5 dbbd 662a 393d 75b3 073d c6fc 4dbd
000001a0: 9e9a 363c 8ca6 233d 9568 6bbd 6366 8b3d
000001b0: 787d c13c 449e 833c 8132 503b 1842 193e
000001c0: 1bd6 2d3e 2f7e 47be 1886 12be 5b4e cabb
000001d0: 8b9a 99bc 8978 853d 98d1 c33d bf19 05bc
000001e0: 5542 d6bd 814d 363d b30c dabd c951 1bbc
000001f0: 8af2 3a3c 0c4a 9c3c 2af2 d13d 699b 75bb
00000200: 9601 c73d 421a 1f3d 7347 b73b b1ae 8d3d
00000210: a4ea eabd ce89 cfbd 2b01 81bd 94a2 8e3c
00000220: 38d8 5bbd 9829 623c 613a 2b3d 8042 edbc
00000230: d8d7 84be f2a0 b63d 89f9 ad3c 9b3e 9b3a
00000240: 9d93 8cbd 652d 873c f3f8 acbc 755a e43d
00000250: 05c0 d23d fa56 03be 26df 523d 5ca7 1b3d
00000260: cbbe 193d 51b3 81bd 38c0 55bd 19f0 bc3d
00000270: cf72 583c dd89 e1bd b658 6abd be90 993e
00000280: c1d3 b53d 243e 0cbd 1529 2a3e 4264 0c3e
00000290: 0938 333d 641a 3dbd 484e 8cbd 8dc2 c63c
000002a0: abeb 8b3d c771 a5bd 0a2a cc3d 021c 373e
000002b0: f54e c5bc 5ad5 f5bd 1c12 c83c 3ca3 8abd
000002c0: d7ac 973d 5612 95bd e8aa d2bd a77f 943d
000002d0: d198 db3d 52af a3bd f2d0 bdbc ccb5 1a3e
000002e0: fcaa b43d e049 d9bb 3472 873d 5f26 a73d
000002f0: 03e3 05be 1cb4 03be e7fc 4fbd 9233 3c3d
00000300: fffd 23be 5805 103e fd62 423d 2449 75bc
00000310: 4453 8dbd d717 14be 26af 223c 672a a63b
00000320: d6ce d4bd 5731 ba3c b42d 2bbe bf97 92bd
00000330: 3a4e 1d3d 2c48 3ebc 2317 b63d 3215 7e3d
00000340: 4b3b b8bd 3582 1c3c 91bd a53d a3c8 03be
00000350: 0fc5 ceba e617 8abc dc5f bbbd a594 a93c
00000360: ce38 b23d 0951 c73d 29a9 c33d dac2 b1bd
00000370: 2439 863d b3fc 1fbd c7f7 173d 1149 09be
00000380: 0da6 7cbd 9d11 57be 8fe3 03bd 57b9 ddbd
00000390: 4cc8 963c f993 653c 3459 79bd 989d 173d
000003a0: a89a da3d d063 8dbd 85b5 ff3d 359d 9cbd
000003b0: 9bcc adbc 154c 19bc 0a3d f43d 1b98 a83d
000003c0: d6d4 9ebd a975 c43d f877 ecbd 875a 5d3c
000003d0: 340d 2bbe d018 15be c7a0 2c3d 7c79 8a3d
000003e0: 6310 f6bb 1771 da3d 733c e33d 8c3f 043d
000003f0: a061 5ebd 78ef b3bb 93ed 453b 143c 87bc

network_body.linear_encoder.seq_layers.2.bias f4 [128]
0.0 0.0 0.0 0.0 0.0 0.0 0.0 0.0
0.0 0.0 0.0 0.0 0.0 0.0 0.0 0.0
0.0 0.0 0.0 0.0 0.0 0.0 0.0 0.0
0.0 0.0 0.0 0.0 0.0 0.0 0.0 0.0
0.0 0.0 0.0 0.0 0.0 0.0 0.0 0.0
0.0 0.0 0.0 0.0 0.0 0.0 0.0 0.0
0.0 0.0 0.0 0.0 0.0 0.0 0.0 0.0
0.0 0.0 0.0 0.0 0.0 0.0 0.0 0.0
0.0 0.0 0.0 0.0 0.0 0.0 0.0 0.0
0.0 0.0 0.0 0.0 0.0 0.0 0.0 0.0
0.0 0.0 0.0 0.0 0.0 0.0 0.0 0.0
0.0 0.0 0.0 0.0 0.0 0.0 0.0 0.0
0.0 0.0 0.0 0.0 0.0 0.0 0.0 0.0
0.0 0.0 0.0 0.0 0.0 0.0 0.0 0.0
0.0 0.0 0.0 0.0 0.0 0.0 0.0 0.0
0.0 0.0 0.0 0.0 0.0 0.0 0.0 0.0
00000000: 0000 0000 0000 0000 0000 0000 0000 0000
00000010: 0000 0000 0000 0000 0000 0000 0000 0000
00000020: 0000 0000 0000 0000 0000 0000 0000 0000
00000030: 0000 0000 0000 0000 0000 0000 0000 0000
00000040: 0000 0000 0000 0000 0000 0000 0000 0000
00000050: 0000 0000 0000 0000 0000 0000 0000 0000
00000060: 0000 0000 0000 0000 0000 0000 0000 0000
00000070: 0000 0000 0000 0000 0000 0000 0000 0000
00000080: 0000 0000 0000 0000 0000 0000 0000 0000
00000090: 0000 0000 0000 0000 0000 0000 0000 0000
000000a0: 0000 0000 0000 0000 0000 0000 0000 0000
000000b0: 0000 0000 0000 0000 0000 0000 0000 0000
000000c0: 0000 0000 0000 0000 0000 0000 0000 0000
000000d0: 0000 0000 0000 0000 0000 0000 0000 0000
000000e0: 0000 0000 0000 0000 0000 0000 0000 0000
000000f0: 0000 0000 0000 0000 0000 0000 0000 0000
00000100: 0000 0000 0000 0000 0000 0000 0000 0000
00000110: 0000 0000 0000 0000 0000 0000 0000 0000
00000120: 0000 0000 0000 0000 0000 0000 0000 0000
00000130: 0000 0000 0000 0000 0000 0000 0000 0000
00000140: 0000 0000 0000 0000 0000 0000 0000 0000
00000150: 0000 0000 0000 0000 0000 0000 0000 0000
00000160: 0000 0000 0000 0000 0000 0000 0000 0000
00000170: 0000 0000 0000 0000 0000 0000 0000 0000
00000180: 0000 0000 0000 0000 0000 0000 0000 0000
00000190: 0000 0000 0000 0000 0000 0000 0000 0000
000001a0: 0000 0000 0000 0000 0000 0000 0000 0000
000001b0: 0000 0000 0000 0000 0000 0000 0000 0000
000001c0: 0000 0000 0000 0000 0000 0000 0000 0000
000001d0: 0000 0000 0000 0000 0000 0000 0000 0000
000001e0: 0000 0000 0000 0000 0000 0000 0000 0000
000001f0: 0000 0000 0000 0000 0000 0000 0000 0000

action_model._continuous_distribution.log_sigma f4 [1, 2]
0.0 0.0
00000000: 0000 0000 0000 0000

action_model._continuous_distribution.mu.weight f4 [2, 128]
0.0049392693 -0.031338535 -0.015617608 0.015670775 0.0122302165 -0.04092297 0.0020301612 -0.012512157
0.0012124623 0.02679236 -0.023591623 0.007556493 1.6484515e-05 -0.011522798 -0.006457059 -0.018900728
-0.006351086 0.0049908157 -0.0058745826 0.0140764145 -0.025486803 -0.05357061 -0.032704752 0.005950785
-0.010922014 -0.0065536657 -0.016779704 0.027424065 0.013476674 0.012814896 0.013727319 -0.011085309
0.015407438 -0.00563139 0.013359251 0.018060153 -0.0076904655 -0.014878275 -0.027531957 0.0030139047
0.031579483 -0.011624225 -0.01477101 0.027494041 -0.010056688 -0.04744186 0.01113238 0.022076473
0.030718312 0.007665188 -0.02753747 -0.0046599186 -0.0061445828 0.0063631735 -0.015370369 0.012003276
-0.0017180605 0.021290354 -0.0067199506 -0.017061207 0.023510678 -0.010176885 0.0059528626 -0.015892822
-0.015011488 0.009878941 -0.0007780314 0.0058584455 0.015858807 -0.019636987 0.0013799838 0.0056913113
0.02018503 -0.029976627 0.00028711656 -0.010243845 -0.0072377934 0.023692867 -0.009666097 -0.05124384
-0.0041853264 -0.022735186 0.033339195 -0.02562352 0.013362777 0.0069906833 -0.0012087122 0.022649055
-0.02576053 0.00084821024 -0.014561571 0.007283418 0.0042049056 0.024531668 0.0038338962 0.00087044213
0.04182024 -0.0059435195 0.031241102 0.02096971 -0.0020623922 -0.003049866 0.024816565 0.0018233209
0.0246243 -0.0045055994 0.034228023 -0.01994857 0.0022404185 -0.01748124 -0.016290566 -0.02922926
0.0023886408 0.015276988 -0.008812431 -0.0038025712 -0.00970406 -0.005713401 0.005330305 -0.0022609278
0.010230363 -0.0037777342 -0.012782044 -0.014100823 -0.035568662 0.012060936 0.015110669 -0.014531614
-0.019896436 0.011187629 -0.013096841 0.001891236 0.0021256383 0.004641009 0.012898328 -0.0050363075
0.0020444402 -0.0026959619 -0.02105412 0.006881901 -0.002968697 -0.034863353 0.016246034 -0.007861908
0.0005581873 0.0004157046 -0.0059128418 0.029869888 0.007747659 -0.00084713503 0.006846022 0.003274825
0.017876334 -0.0347922 0.0030129007 -0.018814418 -0.00024380417 -0.024183864 -0.01734508 0.0005804467
-0.0012547114 -0.006959129 -0.021119103 0.020576289 0.022101251 -0.010459097 -0.0072580515 0.00040074918
-0.0053928723 0.012435231 0.023315338 0.009071934 -0.006868151 -0.012360638 0.008693457 -0.0051920074
0.00887607 -0.008007604 0.026682321 0.0023788246 -0.014339017 0.01049026 0.034043632 -0.008891519
-0.018193012 0.019936364 0.013699225 -0.0061178957 0.028905569 0.009224809 -0.0019776404 -0.03296383
-0.015120107 -0.008985758 -0.004003247 -0.0022672745 -0.0057419264 -0.01206599 0.0080604665 -0.0007187709
-1.0073453e-05 0.0028810983 -0.04316952 -0.01004285 -0.016064899 -0.017815009 0.022354154 -0.01282446
0.017246671 0.0020778028 0.023204694 0.010981548 -0.023793845 0.010998966 -0.026463822 0.00853048
0.015106671 0.020970674 -0.002563421 -0.007922113 0.043509185 0.018515568 0.014979186 0.005191486
0.0056334827 0.022810193 0.0150286695 0.022702215 -0.00023216936 -0.010584031 -0.007456496 -0.025337284
0.0068951636 0.010634764 -0.01991578 -0.027521804 -0.0229573 -0.022564968 0.052355703 0.023042616
0.0056256126 0.009547832 -0.022083947 -0.023086999 0.025527686 0.0040515256 -0.0051513757 -0.009796683
-0.0012616419 0.025026178 -0.0019961668 0.0045420467 0.002233153 -0.0026869243 0.05998534 -0.0033599976
00000000: 98d9 a13b d65c 00bd ffe0 7fbc ff5f 803c
00000010: 3f61 483c d89e 27bd 740c 053b caff 4cbc
00000020: 7ceb 9e3a a77b db3c 3843 c1bc 759c f73b
00000030: 3a48 8a37 1eca 3cbc bd95 d3bb b3d5 9abc
00000040: c51c d0bb ff89 a33b 927f c0bb c3a0 663c
00000050: b3c9 d0bc db6c 5bbd 6bf5 05bd cdfe c23b
00000060: 3ff2 32bc 22c0 d6bb 9775 89bc 6fa8 e03c
00000070: 45cd 5c3c 92f5 513c 8de8 603c 289f 35bc
00000080: 7b6f 7c3c 8687 b8bb c3e0 5a3c e3f2 933c
00000090: 4d00 fcbb 02c4 73bc b38a e1bc ee84 453b
000000a0: 7d59 013d 8973 3ebc 1b02 72bc 2f3b e13c
000000b0: cfc4 24bc 6552 42bd 9664 363c b8d9 b43c
000000c0: f8a4 fb3c 422c fb3b 4396 e1bc 3bb2 98bb
000000d0: 7f58 c9bb 2b82 d03b 00d4 7bbc 63a9 443c
000000e0: 8b30 e1ba 1c69 ae3c 0833 dcbb f2c3 8bbc
000000f0: 7799 c03c f3bc 26bc 3b10 c33b aa31 82bc
00000100: bff2 75bc 48db 213c cef4 4bba 34f8 bf3b
00000110: 54ea 813c bfdd a0bc 93e0 b43a 2e7e ba3b
00000120: 135b a53c 8b91 f5bc 2288 9639 cdd5 27bc
00000130: 032b edbb 8b17 c23c 8d5e 1ebc 10e5 51bd
00000140: 1025 89bb 243f babc ae8e 083d 6be8 d1bc
00000150: 8def 5a3c 1a12 e53b a76d 9eba 838a b93c
00000160: bf07 d3bc 6d5a 5e3a a893 6ebc bda9 ee3b
00000170: 4ec9 893b a3f6 c83c 1b42 7b3b 622e 643a
00000180: b34b 2b3d dbc1 c2bb 57ed ff3c abc8 ab3c
00000190: 3329 07bb 43e0 47bb 1c4c cb3c 7ffc ee3a
000001a0: e6b8 c93c b5a3 93bb af32 0c3d 2f6b a3bc
000001b0: fcd3 123b d134 8fbc cb73 85bc 3372 efbc
000001c0: be8a 1c3b 554c 7a3c 0462 10bc 8f34 79bb
000001d0: c7fd 1ebc 7b37 bbbb d7a9 ae3b 132c 14bb
000001e0: 419d 273c dd93 77bb c76b 51bc 2307 67bc
000001f0: 72b0 11bd 3b9b 453c bd92 773c 0216 6ebc
00000200: dafd a2bc 514c 373c 2294 56bc 5ae3 f73a
00000210: 4b4e 0b3b 9b13 983b 8253 533c 9c07 a5bb
00000220: 04fc 053b bcae 30bb b179 acbc 9281 e13b
00000230: 798e 42bb e0cc 0ebd 6716 853c 3bcf 00bc
00000240: 5153 123a edf2 d939 83c0 c1bb b2b1 f43c
00000250: 13e0 fd3b 4512 5eba 9854 e03b 729e 563b
00000260: 6471 923c 4482 0ebd 1674 453b b220 9abc
00000270: afa5 7fb9 3d1d c6bc 4517 8ebc 1e29 183a
00000280: 2175 a4ba 6809 e4bb f801 adbc 9b8f a83c
00000290: af0d b53c a25c 2bbc f3d4 edbb a51b d239
000002a0: b1b6 b0bb 24bd 4b3c cfff be3c 73a2 143c
000002b0: 3a0e e1bb 4684 4abc 006f 0e3c b721 aabb
000002c0: f06c 113c 5332 03bc e294 da3c 0ee6 1b3b
000002d0: 32ee 6abc 57df 2b3c 5671 0b3d bcad 11bc
000002e0: 8309 95bc 9651 a33c b772 603c a178 c8bb
000002f0: 5fcb ec3c a723 173c 4d9b 01bb 1505 07bd
00000300: 53ba 77bc 0039 13bc ab2d 83bb 8e96 14bb
00000310: c526 bcbb 6eb0 45bc 0c10 043c e66b 3cba
00000320: 2701 29b7 cfd0 3c3b 86d2 30bd c48a 24bc
00000330: 899a 83bc c8f0 91bc 0f20 b73c af1d 52bc
00000340: e448 8d3c bf2b 083b c517 be3c f3eb 333c
00000350: 4feb c2bc 0235 343c a8ca d8bc 6dc3 0b3c
00000360: f881 773c b1ca ab3c 11ff 27bb c0cb 01bc
00000370: b036 323d f6ad 973c 426b 753c 571d aa3b
00000380: 1499 b83b 71dc ba3c cf3a 763c fff9 b93c
00000390: 7d72 73b9 a568 2dbc 9f55 f4bb 2390 cfbc
000003a0: d3f0 e13b 6f3d 2e3c 6b26 a3bc 6875 e1bc
000003b0: f310 bcbc 2bda b8bc ef72 563d dec3 bc3c
000003c0: 0f57 b83b 836e 1c3c 65e9 b4bc f220 bdbc
000003d0: 701f d13c a9c2 843b dfcc a8bb 4482 20bc
000003e0: ad5d a5ba b303 cd3c 1fd2 02bb 73d5 943b
000003f0: 175a 123b 1c17 30bb 30b3 753d 6833 5cbb

action_model._continuous_distribution.mu.bias f4 [2]
0.0 0.0
00000000: 0000 0000 0000 0000

action_model._discrete_distribution.branches.0.weight f4 [2, 128]
-0.0002867316 -0.004110932 -0.005817519 0.010659849 -0.003583574 -0.002560771 -0.00060072937 0.007695248
0.0030817718 0.0051997085 0.008530846 -0.00072621525 0.0056025963 0.00399689 0.005175723 -0.012165424
0.008216722 -0.0024901028 -0.0076827244 0.008924601 -0.007851413 -0.0037586836 -0.0041646226 -0.0052539213
0.0076051876 -0.017792216 0.0009961614 -0.0011759073 -0.0068757716 0.0036303883 0.00268986 0.0032910553
-0.0054801167 0.0007846378 0.0067117363 0.00041480773 0.007735712 0.0062910873 -0.007318832 -0.0070783547
0.001496246 -0.0046366123 0.006886887 0.009886325 -0.0074067684 -0.00068389805 0.0038352534 0.00048447048
0.015813967 -0.011252154 -0.0038495213 -0.011702175 -0.009014082 -0.004849791 0.003042789 -0.00055711233
-0.00013736186 -0.0032082282 0.006916651 -0.0030186516 -0.0063785464 0.009753929 -0.020992108 -0.0042963983
0.006329566 -0.0009873494 0.0028278143 0.00057745003 -0.011503752 -0.003731406 0.004267407 -0.0013200085
-0.007035689 -0.0031400253 -0.008307994 -0.008186383 -0.01311886 0.0017144646 0.011671706 0.008171153
0.0019444345 0.004718607 -0.0011283708 -0.0067042275 -0.0013448747 -0.0024402833 0.008354988 -0.009149604
0.002418124 0.0038330853 0.008561267 -0.001449585 -0.010531585 -0.015180642 -0.00747383 0.008849328
-0.0030101084 0.016052393 0.0024596627 -0.0060159597 0.005579167 0.0031759203 0.01645787 0.008753698
-0.0033901546 -0.011152854 -0.0118576065 -0.0049846317 0.0059042745 -0.004308149 0.0028243442 0.006465719
0.0028058898 0.0034140702 0.029530993 -0.011345237 0.0044189026 0.00904988 -0.0050273053 0.004583337
0.013561477 0.006727764 0.0065266863 -0.00543596 0.0052424944 0.0092276735 -0.0055501773 0.005608175
-0.0023901586 -0.003701751 0.0046622814 0.010514336 0.0065794038 -0.0001088567 0.0034097747 -0.022785133
-0.014162645 -0.017867008 -0.0067267627 -0.0016570581 -0.002373084 -0.0051796217 -0.0037058 0.00067445333
-0.0027671491 -0.019092143 -0.014925209 -0.0013199685 0.0020489877 0.0060402895 -0.0036269003 -0.0064520845
-0.004687405 0.00076365325 0.011626066 0.011821429 -0.02162549 0.010954014 0.00040206942 -0.016063062
0.00030650702 -0.0034557432 -0.0064158933 0.00748364 -0.0004127035 0.010868805 0.0065139616 0.011532229
-0.016700514 -0.004226362 0.009466011 0.0028881656 -0.006254382 -0.009562036 0.00023919056 0.02359434
-0.007060058 -0.009884836 -0.0038251725 0.0018338548 -0.0005521803 -0.00013878102 0.0067975977 -0.0010017676
0.004109686 -0.0024911966 0.0071159 0.0072812685 0.0022022505 -0.0009728347 -0.009643634 0.001065317
0.0068660625 -0.013923356 0.006371206 0.01422742 0.01924858 -0.0009206842 0.009943205 0.012386876
0.0021872208 0.0037394396 0.0051090177 -0.005014725 -0.00041970136 -0.0023892531 -0.0047876295 0.00024651506
-0.0038749378 0.0033759472 -0.001637935 0.0017744362 0.0034735966 0.0030143994 -0.008804381 -0.0063348464
-7.200944e-05 -0.017144313 -0.005171457 0.00448065 0.017179582 0.018614652 0.011127508 0.018109635
-0.009545823 0.012171585 0.009246808 0.0065201567 0.008895215 -0.0047539226 -0.016650697 -0.011702876
-0.012215693 0.012415803 0.008879543 -0.0066424008 -0.00041973285 0.0052154274 0.009272522 0.0016323803
0.0036257466 -0.00054034306 0.0067102066 -0.008145193 0.0005628375 0.001008922 0.01776951 0.00072990305
-0.0043328833 0.004562475 -0.001586872 0.005141798 0.011403927 -0.001095995 0.0008239625 -0.005961914
00000000: 7754 96b9 ffb4 86bb e3a0 bebb a6a6 2e3c
00000010: 65da 6abb 9cd2 27bb 447a 1dba 6b28 fc3b
00000020: 8df7 493b 5162 aa3b f6c4 0b3c 7b5f 3eba
00000030: fc95 b73b 58f8 823b 1d99 a93b 7d51 47bc
00000040: 6e9f 063c fe30 23bb 5dbf fbbb 7d38 123c
00000050: 37a3 00bc 3f54 76bb 6377 88bb 1629 acbb
00000060: f034 f93b fbc0 91bc a191 823a e720 9aba
00000070: 274e e1bb cfeb 6d3b 5d48 303b bfae 573b
00000080: 8d92 b3bb 27b0 4d3a 20ee db3b 8d7a d939
00000090: db7b fd3b 7725 ce3b d0d2 efbb 8bf1 e7bb
000000a0: af1d c43a b9ee 97bb 65ab e13b 41fa 213c
000000b0: 7ab4 f2bb 9f47 33ba e058 7b3b 8700 fe39
000000c0: 4b8c 813c f45a 38bc 4048 7cbb 7bba 3fbc
000000d0: cdaf 13bc ffea 9ebb 8769 473b 2d0b 12ba
000000e0: cb08 10b9 2341 52bb 13a5 e23b 92d4 45bb
000000f0: 2003 d1bb f2ce 1f3c a4f7 abbc cdc8 8cbb
00000100: 3f68 cf3b f369 81ba da52 393b 0460 173a
00000110: 3c7a 3cbc 9b8a 74bb 9bd5 8b3b 2304 adba
00000120: a38b e6bb e2c8 4dbb 411e 08bc 2e20 06bc
00000130: 7df0 56bc e3b7 e03a af3a 3f3c 4de0 053c
00000140: 65dc fe3a 8b9e 9a3b d7e5 93ba 23af dbbb
00000150: 8246 b0ba 29ed 1fbb 5ce3 083c 38e8 15bc
00000160: 6379 1e3b 8034 7b3b 8e44 0c3c 0000 beba
00000170: ab8c 2cbc 3ab8 78bc 08e7 f4bb c6fc 103c
00000180: 3d45 45bb 4f80 833c 4b32 213b 8721 c5bb
00000190: 72d1 b63b 1a23 503b a8d2 863c ac6b 0f3c
000001a0: 5b2d 5ebb 76ba 36bc 6846 42bc 1f56 a3bb
000001b0: a578 c13b 602b 8dbb a218 393b 62de d33b
000001c0: 05e3 373b 98be 5f3b fbea f13c 5fe1 39bc
000001d0: 71cc 903b f345 143c 18bc a4bb d12f 963b
000001e0: f530 5e3c 9374 dc3b d0dd d53b 2320 b2bb
000001f0: 3bc9 ab3b ab2f 173c 43de b5bb c8c4 b73b
00000200: 35a4 1cbb 1399 72bb 0dc6 983b 5244 2c3c
00000210: 0a98 d73b ff49 e4b8 8776 5f3b e3a7 babc
00000220: 700a 68bc d55d 92bc 2d6c dcbb a531 d9ba
00000230: be85 1bbb d1b9 a9bb 02dd 72bb cccd 303a
00000240: 0f59 35bb 2067 9cbc dd88 74bc cb02 adba
00000250: 4f48 063b 9fed c53b 4ab1 6dbb 026c d3bb
00000260: ce98 99bb e72f 483a 417b 3e3c abae 413c
00000270: f127 b1bc 7778 333c d8cc d239 af96 83bc
00000280: adb2 a039 c079 62bb 6a3c d2bb 5339 f53b
00000290: 2060 d8b9 1313 323c 1273 d53b adf1 3c3c
000002a0: 84cf 88bc 4b7d 8abb 5417 1b3c 6147 3d3b
000002b0: 8ff1 ccbb 16aa 1cbc 3acf 7a39 eb48 c13c
000002c0: 0f58 e7bb 02f4 21bc bfaf 7abb f55d f03a
000002d0: 31c0 10ba bf85 11b9 62be de3b be4d 83ba
000002e0: 8baa 863b 5843 23bb 7f2c e93b b597 ee3b
000002f0: a253 103b d505 7fba 5500 1ebc 1ba2 8b3a
00000300: b5fc e03b ca1e 64bc 8dc5 d03b 201a 693c
00000310: 33af 9d3c 125a 71ba d3e8 223c 53f2 4a3c
00000320: 7a57 0f3b 6311 753b 8c69 a73b 9052 a4bb
00000330: 5d0b dcb9 0495 1cbb 8ce1 9cbb b13e 8139
00000340: abf2 7dbb ff3e 5d3b fbaf d6ba 3394 e83a
00000350: 48a5 633b 3b8d 453b 4040 10bc 8b94 cfbb
00000360: c603 97b8 3b72 8cbc 5375 a9bb 6bd2 923b
00000370: 32bc 8c3c c17d 983c 2750 363c a85a 943c
00000380: 1566 1cbc 546b 473c ec7f 173c 0aa7 d53b
00000390: 3cbd 113c cbc6 9bbb 0b67 88bc 6bbd 3fbc
000003a0: 5424 48bc a76b 4b3c 817b 113c 7fa8 d9bb
000003b0: 970f dcb9 2de6 aa3b c7eb 173c 98f5 d53a
000003c0: ef9d 6d3b cfa5 0dba 4be1 db3b 6a73 05bc
000003d0: 638b 133a ce3d 843a 5d91 913c f756 3f3a
000003e0: dcfa 8dbb d080 953b 97fe cfba 877c a83b
000003f0: 89d7 3a3c 7da7 8fba 30ff 573a 295c c3bb

action_model._discrete_distribution.branches.0.bias f4 [2]
0.0 0.0
00000000: 0000 0000 0000 0000

critic.network_body.linear_encoder.seq_layers.0.weight f4 [128, 3]
-0.074459136 0.41404057 -0.41518706 0.13619795 0.24802242 -0.76387244 -0.43771693 -0.2884723
-0.9104344 1.0745221 0.3883673 0.17998192 0.34097672 0.15641609 0.4690445 0.29288015
0.67688966 0.072241984 0.82340884 -0.009405909 0.037805256 0.18190771 -0.8641788 -0.4695727
-0.576266 0.56946874 0.021252504 -0.45859665 1.1766108 -0.80580133 -0.27208862 -0.12464824
-0.29532853 0.68086034 -0.4490817 0.24203135 -0.25835 0.89232486 -0.43167356 0.47917992
-0.6144657 0.7506615 -0.78371596 -0.7022529 -0.54115474 -0.6941005 0.22067751 0.9701899
0.6882546 -0.12333363 -0.29009882 -0.6476934 -0.794957 -0.5219746 -0.5394171 -0.80429345
-0.44356522 -0.75692713 -0.3076753 -0.11528314 0.44792226 -0.4198298 -0.117566824 0.039585683
-0.6570568 0.9336014 0.5247268 0.9724019 -0.5570055 0.29637542 -0.0919012 -0.06296931
0.9489552 -0.030503893 -0.769848 -0.87032783 0.12227835 0.34646967 0.29663035 -0.0009000694
-0.54956216 -0.21391658 -0.041404158 -0.6369102 -0.26192906 0.5090383 -0.52603 -0.16715139
0.19517104 -0.9366241 0.63501185 1.4292543 0.2434547 0.022005742 -0.1320191 0.18066101
0.85843873 0.5473768 0.27800986 -0.9158357 0.69050765 -0.065938 1.0081855 -0.11362244
0.27463356 -0.3893759 0.14290571 -0.29812354 0.4582023 1.435421 -0.09978217 -1.0043846
-0.8848619 -0.7265 1.1518482 0.32004008 -0.047191765 0.16650105 -0.83208895 -0.0746638
0.03149273 -0.058141638 -0.2885458 0.6897149 0.1717511 -0.10028496 -0.4268077 0.42932898
0.24321634 0.6876535 0.83535606 -0.6469287 -0.7234827 0.8164783 0.5987987 -0.22549741
-0.11339987 0.5600837 0.3782301 -0.582137 -0.5521537 0.67638355 -0.097834855 0.7987533
-0.101596415 -0.28579894 0.4748817 0.17625819 0.09705038 0.40642732 0.6233961 -0.143609
0.4720567 -0.8137204 -0.061228625 0.7253328 -0.29672137 0.7267435 -0.5142469 -0.030682186
-0.05724904 -0.72001976 0.94358957 -0.16148111 -0.35903904 0.36058995 0.47040102 1.0191674
0.01625635 -0.039410967 -0.35877883 -0.02074096 0.017717162 0.9204218 -0.31509283 -0.2977367
0.12533699 0.096192084 0.63919806 0.47505477 -0.5259848 0.038886186 -0.08780851 -0.28143606
0.91202617 -0.7456771 0.096292794 -1.1263086 -0.5845757 0.9999696 -0.19095773 -0.15656795
0.5386487 -0.20064884 -0.5640112 -0.5454022 -0.5385492 -0.38784108 -0.5661218 -0.7648605
-0.42127666 -0.33836502 -0.5431292 0.17006193 -0.13124032 -0.9286886 0.10336765 0.15620728
-0.54322064 -0.35322937 0.8292565 -0.77541465 0.5339831 -0.20741907 -0.099648915 -0.24614234
-0.5498859 0.6562585 -0.4939447 0.78914887 -0.94465476 0.2829489 0.21731159 -0.6531715
0.1850174 0.40707308 0.05292031 0.7107374 0.23876232 -0.3160203 -0.5500496 0.6167138
-0.5994802 -0.33539778 -0.5660633 0.68883514 0.86795115 1.6962926 -1.1039175 -0.4449998
-1.0444478 -0.037546683 0.41568488 -0.5182613 0.5567976 0.5573862 0.12439792 -0.08652601
-0.11042521 0.4659008 -0.33080626 -0.25155506 0.13374794 -0.7412459 0.80433863 0.35943013
00000000: 087e 98bd 20fd d33e 6693 d4be 7a77 0b3e
00000010: 97f9 7d3e 258d 43bf 6f1c e0be a4b2 93be
00000020: 3b12 69bf f189 893f 14d8 c63e 2e4d 383e
00000030: 8094 ae3e 8a2b 203e 9a26 f03e 63f4 953e
00000040: a448 2d3f 9bf3 933d ecca 523f 3e1b 1abc
00000050: afd9 1a3d 0446 3a3e d23a 5dbf d56b f0be
00000060: 2b86 13bf b4c8 113f bb19 ae3c 2ecd eabe
00000070: 2f9b 963f ff48 4ebf 334f 8bbe 9447 ffbd
00000080: 4d35 97be dd4c 2e3f 09ee e5be 11d7 773e
00000090: 7446 84be 676f 643f 5104 ddbe 1257 f53e
000000a0: a04d 1dbf 5a2b 403f 9ca1 48bf d9c6 33bf
000000b0: 1e89 0abf 92b0 31bf 49f9 613e 5e5e 783f
000000c0: 7431 303f 5896 fcbd d587 94be 3ccf 25bf
000000d0: 4d82 4bbf 21a0 05bf 3d17 0abf 2de6 4dbf
000000e0: fb1a e3be fac5 41bf 9e87 9dbe 9119 ecbd
000000f0: 1156 e53e eef3 d6be e0c6 f0bd 9924 223d
00000100: e034 28bf 8000 6f3f 7f54 063f 55ef 783f
00000110: ea97 0ebf 85be 973e b236 bcbd 0ef6 80bd
00000120: baee 723f 4de3 f9bc c214 45bf cecd 5ebf
00000130: 126d fa3d 7964 b13e efdf 973e a3f2 6bba
00000140: 1bb0 0cbf f30c 5bbe 6897 29bd 8c0c 23bf
00000150: 911b 86be 5650 023f e7a9 06bf bc29 2bbe
00000160: ebda 473e 99c6 6fbf 2390 223f cef1 b63f
00000170: 304c 793e 6345 b43c 0430 07be 33ff 383e
00000180: a4c2 5b3f e320 0c3f 4f57 8e3e 3574 6abf
00000190: 1cc5 303f 810a 87bd 390c 813f e2b2 e8bd
000001a0: c59c 8c3e 475c c7be e055 123e a6a3 98be
000001b0: 7e99 ea3e e0bb b73f 985a ccbd ad8f 80bf
000001c0: 4f86 62bf e7fb 39bf c36f 933f 4bdc a33e
000001d0: 274c 41bd 407f 2a3e c803 55bf 56e9 98bd
000001e0: 85fe 003d ed25 6ebd 46bc 93be 2891 303f
000001f0: 85df 2f3e 3362 cdbd 8a86 dabe 02d1 db3e
00000200: b40d 793e 0f0a 303f e5d9 553f 1f9d 25bf
00000210: 2a36 39bf b904 513f df4a 193f cbe8 66be
00000220: 313e e8bd a561 0f3f 60a7 c13e ee06 15bf
00000230: f259 0dbf 7927 2d3f a45d c8bd 197b 4c3f
00000240: c811 d0bd 3d54 92be b223 f33e 077d 343e
00000250: 5ac2 c63d 3e17 d03e e396 1f3f 3d0e 13be
00000260: 6ab1 f13e fb4f 50bf deca 7abd 69af 393f
00000270: ddeb 97be dd0b 3a3f afa5 03bf 3559 fbbc
00000280: f87d 6abd 3753 38bf 168f 713f 4e5b 25be
00000290: f7d3 b7be 3f9f b83e 67d8 f03e 1474 823f
000002a0: 092c 853c 656d 21bd dcb1 b7be f2e8 a9bc
000002b0: 9523 913c c3a0 6b3f d953 a1be f270 98be
000002c0: 5758 003e 5b00 c53d 7ca2 233f 613a f33e
000002d0: f1a6 06bf 1f47 1f3d f3d4 b3bd 6318 90be
000002e0: 8c7a 693f b2e4 3ebf 2835 c53d e12a 90bf
000002f0: c1a6 15bf 02fe 7f3f 6c8a 43be 5953 20be
00000300: e2e4 093f e476 4dbe 0a63 10bf 7b9f 0bbf
00000310: 5cde 09bf 1b93 c6be 5ced 10bf e6cd 43bf
00000320: 93b1 d7be 2e3e adbe 840a 0bbf b724 2e3e
00000330: dd63 06be 89be 6dbf 6bb2 d33d cdf4 1f3e
00000340: 8210 0bbf 7bda b4be 274a 543f 9381 46bf
00000350: 1eb3 083f aa65 54be bb14 ccbd bd0c 7cbe
00000360: 53c5 0cbf 8f00 283f 52e6 fcbe a905 4a3f
00000370: e5d4 71bf aede 903e ee86 5e3e 3f36 27bf
00000380: 3475 3d3e e26b d03e f8c2 583d e3f2 353f
00000390: 1c7e 743e 6acd a1be 0dd0 0cbf f5e0 1d3f
000003a0: 8977 19bf 42b9 abbe 86e9 10bf 8057 303f
000003b0: 0c32 5e3f 1e20 d93f 2b4d 8dbf 04d7 e3be
000003c0: 77b0 85bf 8dca 19bd a6d4 d43e c6ac 04bf
000003d0: 4a8a 0e3f ddb0 0e3f 56c4 fe3d 8c34 b1bd
000003e0: 9d26 e2bd 8d8a ee3e 705f a9be d3cb 80be
000003f0: 38f5 083e 4bc2 3dbf 23e9 4d3f 3a07 b83e

critic.network_body.linear_encoder.seq_layers.0.bias f4 [128]
0.0 0.0 0.0 0.0 0.0 0.0 0.0 0.0
0.0 0.0 0.0 0.0 0.0 0.0 0.0 0.0
0.0 0.0 0.0 0.0 0.0 0.0 0.0 0.0
0.0 0.0 0.0 0.0 0.0 0.0 0.0 0.0
0.0 0.0 0.0 0.0 0.0 0.0 0.0 0.0
0.0 0.0 0.0 0.0 0.0 0.0 0.0 0.0
0.0 0.0 0.0 0.0 0.0 0.0 0.0 0.0
0.0 0.0 0.0 0.0 0.0 0.0 0.0 0.0
0.0 0.0 0.0 0.0 0.0 0.0 0.0 0.0
0.0 0.0 0.0 0.0 0.0 0.0 0.0 0.0
0.0 0.0 0.0 0.0 0.0 0.0 0.0 0.0
0.0 0.0 0.0 0.0 0.0 0.0 0.0 0.0
0.0 0.0 0.0 0.0 0.0 0.0 0.0 0.0
0.0 0.0 0.0 0.0 0.0 0.0 0.0 0.0
0.0 0.0 0.0 0.0 0.0 0.0 0.0 0.0
0.0 0.0 0.0 0.0 0.0 0.0 0.0 0.0
00000000: 0000 0000 0000 0000 0000 0000 0000 0000
00000010: 0000 0000 0000 0000 0000 0000 0000 0000
00000020: 0000 0000 0000 0000 0000 0000 0000 0000
00000030: 0000 0000 0000 0000 0000 0000 0000 0000
00000040: 0000 0000 0000 0000 0000 0000 0000 0000
00000050: 0000 0000 0000 0000 0000 0000 0000 0000
00000060: 0000 0000 0000 0000 0000 0000 0000 0000
00000070: 0000 0000 0000 0000 0000 0000 0000 0000
00000080: 0000 0000 0000 0000 0000 0000 0000 0000
00000090: 0000 0000 0000 0000 0000 0000 0000 0000
000000a0: 0000 0000 0000 0000 0000 0000 0000 0000
000000b0: 0000 0000 0000 0000 0000 0000 0000 0000
000000c0: 0000 0000 0000 0000 0000 0000 0000 0000
000000d0: 0000 0000 0000 0000 0000 0000 0000 0000
000000e0: 0000 0000 0000 0000 0000 0000 0000 0000
000000f0: 0000 0000 0000 0000 0000 0000 0000 0000
00000100: 0000 0000 0000 0000 0000 0000 0000 0000
00000110: 0000 0000 0000 0000 0000 0000 0000 0000
00000120: 0000 0000 0000 0000 0000 0000 0000 0000
00000130: 0000 0000 0000 0000 0000 0000 0000 0000
00000140: 0000 0000 0000 0000 0000 0000 0000 0000
00000150: 0000 0000 0000 0000 0000 0000 0000 0000
00000160: 0000 0000 0000 0000 0000 0000 0000 0000
00000170: 0000 0000 0000 0000 0000 0000 0000 0000
00000180: 0000 0000 0000 0000 0000 0000 0000 0000
00000190: 0000 0000 0000 0000 0000 0000 0000 0000
000001a0: 0000 0000 0000 0000 0000 0000 0000 0000
000001b0: 0000 0000 0000 0000 0000 0000 0000 0000
000001c0: 0000 0000 0000 0000 0000 0000 0000 0000
000001d0: 0000 0000 0000 0000 0000 0000 0000 0000
000001e0: 0000 0000 0000 0000 0000 0000 0000 0000
000001f0: 0000 0000 0000 0000 0000 0000 0000 0000

critic.network_body.linear_encoder.seq_layers.2.weight f4 [128, 128]
0.012458712 -0.033456627 -0.03410555 -0.07101374 -0.047412768 0.024519503 0.13125747 -0.07302698
0.045068793 -0.025784165 0.0038115485 0.084844515 -0.09712305 -0.060604226 -0.045270827 -0.00011091447
0.07142332 -0.007480182 0.0029000244 -0.073879935 0.05617133 0.02274127 0.09780952 -0.016701195
-0.045084547 0.029915355 0.1495464 0.12154099 0.04891524 -0.08703607 -0.16724086 0.045716606
-0.14801013 0.0020067221 0.104054265 0.13920319 -0.0340785 0.052623183 0.10178075 0.02482266
-0.12086463 0.038501635 0.005148383 0.022777013 -0.029538268 0.032558512 -0.031998795 -0.06213876
0.099104084 0.013788375 0.016946608 -0.0061955913 0.034154832 0.08705734 -0.010238662 -0.016246386
0.03051945 0.13653524 -0.004085608 -0.09713745 -0.012167133 0.007851358 -0.031560604 -0.05939622
0.041830026 -0.0031200692 -0.059813827 0.1092169 -0.041609682 -0.16255644 0.03266504 -0.03581622
-0.0970479 0.046012145 0.0556127 0.027389232 -0.07347953 0.07726378 0.044211563 0.09289158
0.20992571 0.043356005 -0.0045646 -0.09844424 0.19013098 0.07871812 -0.050316725 -0.021933332
-0.14713325 -0.032252636 0.028322387 0.033908512 -0.05810697 0.015524277 0.085846536 -0.040924992
-0.023226883 -0.101133645 0.16440827 -0.0069964947 0.077101566 0.009661771 0.042673934 -0.07217693
0.039212383 0.0046959464 -0.035345465 0.098773025 -0.19584997 0.021092372 -0.15321746 0.17531194
-0.048150096 0.07372831 0.08082522 -0.0768356 -0.15537824 -0.030101577 -0.15543284 -0.13547415
-0.027137259 -0.16360277 0.001703917 -0.051230684 0.05930297 -0.12491409 -0.04933592 0.07886243
0.068965174 -0.014572277 -0.062884085 0.083978176 0.1614834 0.15437739 -0.22274776 -0.028704388
-0.043942634 0.0067319716 0.005672711 0.045722414 0.042789422 0.03715565 0.05918716 0.07883128
0.07133437 0.13333744 0.15216215 -0.07052024 0.029475082 -0.034468047 0.072677664 -0.04771949
0.07983237 0.013746436 0.021103978 -0.118121885 -0.0983667 0.05064144 -0.0070752124 0.06877495
-0.06449555 -0.12976703 -0.07004972 0.11266828 0.010196279 -0.098337606 -0.035796043 -0.020237021
0.0119229965 -0.012246042 0.037354738 -0.07335244 -0.06782171 -8.472426e-06 0.038654972 0.084567174
-0.07252995 -0.07180973 -0.0110537475 -0.014546928 0.008113305 0.053593814 0.062851295 -0.11543031
0.024651768 -0.00073442754 0.051987562 -0.12677449 -0.018035565 0.009218031 -0.019881634 0.017757408
-0.054222308 0.0341991 -0.027596373 -0.1373149 0.008021712 -0.079026155 0.08525999 -0.02935372
-0.012336367 0.057085045 0.00050342374 0.016936047 0.06862619 -0.061758824 0.13057317 0.057772744
-0.033811048 -0.026093092 -0.0012456481 0.032055628 -0.100052595 0.09940917 -0.062129524 0.22174525
0.035084985 0.06694538 0.10463789 -0.14306022 -0.17265813 0.026279893 -0.03294742 0.12808877
0.008894391 -0.08452039 0.18131426 0.052850973 -0.042866506 0.096158445 0.15070282 0.024743756
0.04302084 -0.06449536 -0.0051538697 -0.08392859 -0.01190647 -0.023014463 0.04924771 0.08180179
-0.0788493 -0.006540389 -0.07759288 0.088889785 -0.09555302 0.03402255 -0.059991628 0.093247846
0.14378956 0.1065734 0.15619443 -0.02567362 -0.04272442 0.025705177 -0.04746618 -0.06006879
00000000: a01f 4c3c d109 09bd 43b2 0bbd a76f 91bd
00000010: e433 42bd 20dd c83c 5c68 063e 2b8f 95bd
00000020: 0e9a 383d 5039 d3bc 2ccb 793b f6c2 ad3d
00000030: 73e8 c6bd 233c 78bd e76d 39bd c19a e8b8
00000040: 6446 923d 511c f5bb 560e 3e3b 5d4e 97bd
00000050: e913 663d e64b ba3c 5c50 c83d f2d0 88bc
00000060: 93aa 38bd 0c11 f53c b122 193e 7cea f83d
00000070: 595b 483d f83f b2bd 3041 2bbe 5641 3b3d
00000080: f88f 17be 3683 033b 671a d53d 488b 0e3e
00000090: e695 0bbd 688b 573d 6d72 d03d e458 cb3c
000000a0: e087 f7bd e4b3 1d3d c4b3 a83b dc96 ba3c
000000b0: 3dfa f1bc 135c 053d 2b11 03bd 3685 7ebd
000000c0: 15f7 ca3d a3e8 613c 9dd3 8a3c 6304 cbbb
000000d0: f0e5 0b3d 1e4b b23d 10c0 27bc 2417 85bc
000000e0: ed03 fa3c e5cf 0b3e 90e0 85bb 00f0 c6bd
000000f0: a858 47bc fba2 003c b145 01bd 7349 73bd
00000100: f655 2b3d 137a 4cbb 58ff 74bd 1cad df3d
00000110: ea6e 2abd 3275 26be c7cb 053d 07b4 12bd
00000120: 0dc1 c6bd 3b77 3c3d 24ca 633d 625f e03c
00000130: 707c 96bd 793c 9e3d 2f17 353d f13d be3d
00000140: c4f6 563e 1196 313d a492 95bb 229d c9bd
00000150: b2b1 423e f736 a13d e918 4ebd 88ad b3bc
00000160: 19aa 16be 571b 04bd 5a04 e83c a7e3 0a3d
00000170: 9301 6ebd 8a59 7e3c 4fd0 af3d f7a0 27bd
00000180: 4e46 bebc 281f cfbd a45a 283e da42 e5bb
00000190: 6de7 9d3d 684c 1e3c ddca 2e3d 80d1 93bd
000001a0: 2a9d 203d 74e0 993b 68c6 10bd 8349 ca3d
000001b0: e58c 48be e9c9 ac3c 0ae5 1cbe f984 333e
000001c0: 0939 45bd defe 963d b187 a53d fc5b 9dbd
000001d0: 791b 1fbe 9597 f6bc c929 1fbe bcb9 0abe
000001e0: f54e debc 7c87 27be f855 df3a 44d7 51bd
000001f0: ace7 723d f5d2 ffbd 7614 4abd a082 a13d
00000200: 9d3d 8d3d 8fc0 6ebc 5fc9 80bd c0fc ab3d
00000210: e85b 253e 1b15 1e3e fd17 64be 7725 ebbc
00000220: 31fd 33bd df97 dc3b 26e2 b93b 6d47 3b3d
00000230: f643 2f3d 8630 183d 3c6e 723d 4b72 a13d
00000240: c117 923d 9c89 083e 65d0 1b3e ea6c 90bd
00000250: ba75 f13c 5e2e 0dbd 07d8 943d 8375 43bd
00000260: 277f a33d bb38 613c 40e2 ac3c e3e9 f1bd
00000270: 7b74 c9bd 666d 4f3d 2fd7 e7bb e2d9 8c3d
00000280: 3e16 84bd a6e1 04be 3a76 8fbd a1be e63d
00000290: 4b0e 273c 3a65 c9bd df9e 12bd 1cc8 a5bc
000002a0: ac58 433c 9fa3 48bc 4801 193d ce39 96bd
000002b0: 1ce6 8abd cb24 0eb7 ad54 1e3d 8e31 ad3d
000002c0: 958a 94bd fb10 93bd c71a 35bc 3d56 6ebc
000002d0: abed 043c 3085 5b3d 2eb8 803d ba66 ecbd
000002e0: 81f2 c93c 9986 40ba e9f0 543d 2cd1 01be
000002f0: 52bf 93bc 3907 173c cfde a2bc fc77 913c
00000300: 3618 5ebd 5b14 0c3d ca11 e2bc 479c 0cbe
00000310: 806d 033c 77d8 a1bd ca9c ae3d 3677 f0bc
00000320: 791e 4abc 02d2 693d 32f8 033a 77bd 8a3c
00000330: e38b 8c3d d2f6 7cbd f9b4 053e 1da3 6c3d
00000340: 747d 0abd 2ec1 d5bc 0445 a3ba c34c 033d
00000350: 60e8 ccbd 0997 cb3d 877b 7ebd 3011 633e
00000360: 46b5 0f3d a91a 893d 644c d63d 617e 12be
00000370: 4bcd 30be ee48 d73c e0f3 06bd b429 033e
00000380: c8b9 113c 0719 adbd 72aa 393e 437a 583d
00000390: ca94 2fbd b8ee c43d d751 1a3e 6bb3 ca3c
000003a0: 9f36 303d 2516 84bd cbe1 a8bb c1e2 abbd
000003b0: 5b13 43bc d488 bcbc f7b7 493d b287 a73d
000003c0: be7b a1bd c250 d6bb 04e9 9ebd d90b b63d
000003d0: 4db1 c3bd 3b5b 0b3d c8b9 75bd baf8 be3d
000003e0: 923d 133e 2843 da3d 6ff1 1f3e 7c51 d2bc
000003f0: cdff 2ebd aa93 d23c e66b 42bd b10a 76bd

critic.network_body.linear_encoder.seq_layers.2.bias f4 [128]
0.0 0.0 0.0 0.0 0.0 0.0 0.0 0.0
0.0 0.0 0.0 0.0 0.0 0.0 0.0 0.0
0.0 0.0 0.0 0.0 0.0 0.0 0.0 0.0
0.0 0.0 0.0 0.0 0.0 0.0 0.0 0.0
0.0 0.0 0.0 0.0 0.0 0.0 0.0 0.0
0.0 0.0 0.0 0.0 0.0 0.0 0.0 0.0
0.0 0.0 0.0 0.0 0.0 0.0 0.0 0.0
0.0 0.0 0.0 0.0 0.0 0.0 0.0 0.0
0.0 0.0 0.0 0.0 0.0 0.0 0.0 0.0
0.0 0.0 0.0 0.0 0.0 0.0 0.0 0.0
0.0 0.0 0.0 0.0 0.0 0.0 0.0 0.0
0.0 0.0 0.0 0.0 0.0 0.0 0.0 0.0
0.0 0.0 0.0 0.0 0.0 0.0 0.0 0.0
0.0 0.0 0.0 0.0 0.0 0.0 0.0 0.0
0.0 0.0 0.0 0.0 0.0 0.0 0.0 0.0
0.0 0.0 0.0 0.0 0.0 0.0 0.0 0.0
00000000: 0000 0000 0000 0000 0000 0000 0000 0000
00000010: 0000 0000 0000 0000 0000 0000 0000 0000
00000020: 0000 0000 0000 0000 0000 0000 0000 0000
00000030: 0000 0000 0000 0000 0000 0000 0000 0000
00000040: 0000 0000 0000 0000 0000 0000 0000 0000
00000050: 0000 0000 0000 0000 0000 0000 0000 0000
00000060: 0000 0000 0000 0000 0000 0000 0000 0000
00000070: 0000 0000 0000 0000 0000 0000 0000 0000
00000080: 0000 0000 0000 0000 0000 0000 0000 0000
00000090: 0000 0000 0000 0000 0000 0000 0000 0000
000000a0: 0000 0000 0000 0000 0000 0000 0000 0000
000000b0: 0000 0000 0000 0000 0000 0000 0000 0000
000000c0: 0000 0000 0000 0000 0000 0000 0000 0000
000000d0: 0000 0000 0000 0000 0000 0000 0000 0000
000000e0: 0000 0000 0000 0000 0000 0000 0000 0000
000000f0: 0000 0000 0000 0000 0000 0000 0000 0000
00000100: 0000 0000 0000 0000 0000 0000 0000 0000
00000110: 0000 0000 0000 0000 0000 0000 0000 0000
00000120: 0000 0000 0000 0000 0000 0000 0000 0000
00000130: 0000 0000 0000 0000 0000 0000 0000 0000
00000140: 0000 0000 0000 0000 0000 0000 0000 0000
00000150: 0000 0000 0000 0000 0000 0000 0000 0000
00000160: 0000 0000 0000 0000 0000 0000 0000 0000
00000170: 0000 0000 0000 0000 0000 0000 0000 0000
00000180: 0000 0000 0000 0000 0000 0000 0000 0000
00000190: 0000 0000 0000 0000 0000 0000 0000 0000
000001a0: 0000 0000 0000 0000 0000 0000 0000 0000
000001b0: 0000 0000 0000 0000 0000 0000 0000 0000
000001c0: 0000 0000 0000 0000 0000 0000 0000 0000
000001d0: 0000 0000 0000 0000 0000 0000 0000 0000
000001e0: 0000 0000 0000 0000 0000 0000 0000 0000
000001f0: 0000 0000 0000 0000 0000 0000 0000 0000

critic.value_heads.value_heads.extrinsic.weight f4 [1, 128]
-0.015628219 0.07997286 -0.20895267 -0.17041329 -0.18192637 -0.15537173 -0.031118274 0.20695567
0.07962632 -0.04962504 0.0037667453 -0.07264085 -0.124893494 0.19825894 0.12271592 -0.2084021
-0.042331427 -0.1537507 0.19349861 -0.14839259 -0.014522001 -0.09857978 -0.05866231 -0.15490204
0.092675894 -1.6987324e-06 -0.14412439 0.17349458 -0.11663133 -0.10190443 -0.028236032 -0.1862144
0.0051930547 0.059130758 0.2073816 0.13078979 0.009612441 -0.2089067 0.08351517 -0.1375224
-0.095747076 -0.044388458 -0.001520291 -0.0069853812 0.12978855 0.18329763 0.05347994 0.023591474
0.11653307 -0.032991633 0.15536273 -0.14457034 -0.100567855 0.04096961 0.12974334 -0.046707794
-0.17347434 0.12278283 -0.2022137 -0.20636576 -0.11273498 0.16930723 0.06632128 -0.08260058
0.04672748 0.1287359 -0.02791451 -0.19930881 0.00021480024 0.15579945 -0.18319453 0.06762138
0.08482441 0.11755958 -0.13620862 -0.143716 -0.17984208 -0.064493984 -0.17269571 -0.04893461
-0.18814209 0.17770642 0.13071889 0.0606243 0.21499807 0.04667142 -0.026264712 0.043845057
0.048563957 -0.12894732 -0.14392886 -0.08737782 -0.07398327 -0.06817806 0.16522911 -0.09301455
-0.14944074 -0.19854848 0.103892654 -0.0075475723 -0.03852102 0.00013767183 0.04034525 0.020345822
-0.06666735 0.1134702 -0.19136982 0.18645415 -0.0070109367 0.045715123 0.0072826296 0.21336854
0.064489126 0.16513655 -0.1650363 -0.052579552 -0.03801842 0.015113443 0.09524593 -0.17071326
0.17967525 0.048584968 -0.16970655 0.078194946 0.11476636 0.09654528 -0.01853101 -0.2066829
00000000: c006 80bc d0c8 a33d b0f7 55be d280 2ebe
00000010: e84a 3abe c419 1fbe c0eb febc 30ec 533e
00000020: 2013 a33d a043 4bbd 80db 763b bac4 94bd
00000030: 29c8 ffbd 6404 4b3e 7c52 fb3d 5c67 55be
00000040: b863 2dbd d370 1dbe 8024 463e 3af4 17be
00000050: b0ed 6dbc 32e4 c9bd e447 70bd a49e 1ebe
00000060: dccc bd3d 0000 e4b5 5895 13be 90a8 313e
00000070: 68dc eebd 45b3 d0bd 404f e7bc fdae 3ebe
00000080: 802a aa3b 1833 723d d85b 543e c2ed 053e
00000090: 807d 1d3c a3eb 55be 000a ab3d acd2 0cbe
000000a0: 0b17 c4bd acd0 35bd 8044 c7ba a0e5 e4bb
000000b0: 4ae7 043e 60b2 3b3e c80d 5b3d e842 c13c
000000c0: e4a8 ee3d 3c22 07bd 6817 1f3e 3f0a 14be
000000d0: 85f6 cdbd c0cf 273d 70db 043e ac50 3fbd
000000e0: 42a3 31be 9075 fb3d 1c11 4fbe 8c51 53be
000000f0: 99e1 e6bd e05e 2d3e 74d3 873d 7e2a a9bd
00000100: 5065 3f3d 58d3 033e f8ac e4bc 9c17 4cbe
00000110: 003c 6139 e489 1f3e 5997 3bbe 147d 8a3d
00000120: 6cb8 ad3d 14c3 f03d 467a 0bbe 492a 13be
00000130: 8628 38be 6c15 84bd 25d7 30be a86f 48bd
00000140: 52a8 40be acf8 353e 2cdb 053e 3051 783d
00000150: 7428 5c3e 882a 3f3d 1829 d7bc e096 333d
00000160: 00eb 463d c40a 04be 1662 13be 24f3 b2bd
00000170: 8a84 97bd f0a0 8bbd d231 293e 6a7e bebd
00000180: fe06 19be 4b50 4bbe acc5 d43d a051 f7bb
00000190: 38c8 1dbd 005c 1039 1041 253d 48ac a63c
000001a0: e488 88bd 1063 e83d 73f6 43be d6ed 3e3e
000001b0: 00bc e5bb c83f 3b3d 20a3 ee3b 487d 5a3e
000001c0: e012 843d 8e19 293e 47ff 28be a85d 57bd
000001d0: 34b9 1bbd 609e 773c 4c10 c33d 75cf 2ebe
000001e0: cafc 373e 0801 473d 8ec7 2dbe ac24 a03d
000001f0: a00a eb3d 88b9 c53d 58ce 97bc afa4 53be
