results/ppo/Car Agent/Car Agent-174476.onnx (onnx, 73042 bytes, 9 tensors)

action_model._continuous_distribution.log_sigma f4 [1, 2]
0.021307318 -0.032448623
00000000: af8c ae3c d9e8 04bd

action_model._continuous_distribution.mu.bias f4 [2]
0.03154402 0.036717203
00000000: 4d34 013d c764 163d

action_model._continuous_distribution.mu.weight f4 [2, 128]
-0.015372735 -0.01068714 0.012989687 0.022092273 0.00863739 0.058294773 -0.022303376 0.00092137494
0.035422776 -0.025322702 0.0048696855 -0.017597098 -0.066904455 0.010751869 -0.031353377 0.014144578
-0.057577457 -0.012913953 0.0022869383 -0.023585755 0.03220011 0.005780417 -0.0004976324 0.018764187
0.043873113 0.009681945 -0.028753817 -0.008737519 -0.0094254045 -0.029286789 0.00061150925 -0.016025767
-0.025090963 0.0031477052 -0.04734205 -0.014939322 -0.019191628 -0.023702528 0.016594741 -0.03263202
0.0062079723 0.01413932 -0.0048510716 0.0017055272 -0.010163818 -0.00035427822 0.019554306 -0.010232275
0.029508187 0.024408579 -0.0541143 -0.054829642 0.020856498 -0.028951304 -0.0025269617 -0.020062828
-0.0076677413 -0.021527337 -0.0032819207 -0.006130291 -0.0069687353 0.04970605 0.0067715268 -0.028792016
0.016717529 0.022437964 0.012317769 -0.045232385 -0.024273554 -0.0053527704 0.0066495487 -0.02276754
-0.0030091025 -0.0017580239 0.017185783 -0.047477532 -0.010757255 0.0039611426 -0.0050308486 -0.026077311
-0.0906869 -0.031518053 -0.024340896 -0.0084850015 0.035267822 0.008515885 -0.0011505471 -0.03257457
-0.006330691 0.027572278 0.017736867 0.015142335 0.025818933 -0.0046590203 -0.014268184 -0.02286899
-0.007580464 -0.005866409 0.007514688 -0.06642567 -0.012705003 -0.05187083 -0.00026195432 -0.021375583
-0.012698198 -0.018123815 0.023842817 0.0032521752 -0.03398758 -0.0053872042 0.0430589 0.062273044
0.03659852 0.021478934 0.020749979 -0.008728892 -0.008042203 0.03522735 -0.048159625 -0.021980168
-0.01907788 -0.05180514 -0.010376583 0.009492125 0.024868328 0.0034075666 -0.011285696 0.0025191407
-0.017957117 0.014092304 0.0038677193 0.012625509 -0.016967963 0.01617164 -0.021380788 -0.0125984885
-0.03189935 0.0028889545 0.0041705193 0.013116565 0.0015188841 -0.0129927285 -0.05629751 0.022846859
-0.055693813 0.008839824 0.0050019138 0.017948052 0.00018163669 0.02608663 -0.016274445 -0.00814442
-0.0070115584 0.020884033 0.013822228 -0.0088835135 -0.0052750427 -0.01655553 -0.0059016016 0.003920203
-0.009587908 0.001583585 -0.067295715 0.013576856 -0.0144536495 0.006243655 -0.02581011 -0.036163993
-0.005030554 -0.007666481 0.0029471861 -0.011962658 -0.018025571 0.020237366 -0.01846343 -0.0045863027
-0.009036935 0.057100236 -0.033853337 -0.039385773 0.0027155695 0.019207422 -0.006206251 -0.11163039
0.009686078 -0.032086425 0.010075259 -0.014741325 -0.026538072 0.024925554 0.005817348 -0.047900904
-0.06052433 0.011577433 0.0127206575 -0.018723166 -0.021885287 -0.019785285 -0.0017547053 -0.05100291
-0.008471288 -0.020489825 -0.009522018 -0.05855055 -0.012753285 -0.014206638 0.014484881 -0.004934053
-0.06520735 -0.06982814 0.03161427 -0.009080161 -0.003153821 -0.035574112 -0.012140329 0.0025971485
0.011702112 -0.009923117 -0.0015511533 -0.020080082 -0.02113515 -0.0024007284 0.008674667 0.0017961278
0.011377503 -0.0036418082 0.03258228 -0.07929694 -0.0388274 -0.009875072 -0.02157083 0.013562118
-0.0040147416 0.04328246 -0.027185947 0.0115310745 -0.06361898 -0.039552227 -0.021152016 -0.020641647
-0.008848874 0.0075603533 0.0044350703 -0.05102892 -0.00012782085 0.0498938 -0.053514596 0.0025889461
0.03711891 -0.05605248 -0.012074224 0.013802108 -0.00055589405 -0.04818663 -0.0016721033 -0.03184595
00000000: eddd 7bbc 1d19 2fbc b2d2 543c dbfa b43c
00000010: d783 0d3c 80c6 6e3d 92b5 b6bc 6d88 713a
00000020: 7917 113d 8e71 cfbc e291 9f3b ca27 90bc
00000030: 3405 89bd 9b28 303c 666c 00bd a9be 673c
00000040: 57d6 6bbd 0b95 53bc 75e0 153b ea36 c1bc
00000050: 43e4 033d a769 bd3b 8c73 02ba 5ab7 993c
00000060: 4bb4 333d 05a1 1e3c 208d ebbc d027 0fbc
00000070: 036d 1abc d9ea efbc b14d 203a 7848 83bc
00000080: 908b cdbc bb49 4e3b bde9 41bd 0fc4 74bc
00000090: c337 9dbc ce2b c2bc b2f1 873c 27a9 05bd
000000a0: 3f6c cb3b 9ba8 673c bdf5 9ebb ff8b df3a
000000b0: 2486 26bc 6bbe b9b9 5a30 a03c 46a5 27bc
000000c0: 27bb f13c 80f4 c73c f5a6 5dbd 0c95 60bd
000000d0: 3fdb aa3c 492b edbc 629b 25bb cd5a a4bc
000000e0: ad41 fbbb 195a b0bc 7e15 57bb 9ce0 c8bb
000000f0: fd59 e4bb 9298 4b3d afe3 dd3b 3cdd ebbc
00000100: 33f3 883c d2cf b73c 78d0 493c 9845 39bd
00000110: 55d9 c6bc 4b66 afbb 75e4 d93b fe82 babc
00000120: 5d34 45bb 7e6d e6ba 33c9 8c3c cd77 42bd
00000130: 333f 30bc 79cc 813b d1d9 a4bb 16a0 d5bc
00000140: 0eba b9bd 1319 01bd 8f66 c7bc ad04 0bbc
00000150: fe74 103d 3686 0b3c f4cd 96ba ea6c 05bd
00000160: af71 cfbb 42df e13c e84c 913c 8e17 783c
00000170: 3a82 d33c b2aa 98bb 1ac5 69bc c057 bbbc
00000180: 8a65 f8bb 013b c0bb c63d f63b 2f0a 88bd
00000190: a528 50bc 8276 54bd ea56 89b9 d91b afbc
000001a0: 1a0c 50bc 6578 94bc 0352 c33c 7222 553b
000001b0: 9036 0bbd 2587 b0bb 875e 303d 0512 7f3d
000001c0: 54e8 153d 97f4 af3c dcfb a93c a003 0fbc
000001d0: 72c3 03bc 8e4a 103d 0743 45bd c10f b4bc
000001e0: 3749 9cbc a031 54bd 8b02 2abc dc84 1b3c
000001f0: aab8 cb3c 7b51 5f3b a4e7 38bc 2b18 253b
00000200: ce1a 93bc 68e3 663c 9079 7d3b 39db 4e3c
00000210: 6600 8bbc 637a 843c c326 afbc e469 4ebc
00000220: e5a8 02bd 9d54 3d3b daa8 883b dce6 563c
00000230: 4b15 c73a 74df 54bc 3898 66bd 5629 bb3c
00000240: 321f 64bd e9d4 103c 18e7 a33b cb07 933c
00000250: ba75 3e39 a1b3 d53c fc51 85bc 2c70 05bc
00000260: 37c1 e5bb fe14 ab3c a076 623c 288c 11bc
00000270: 44da acbb 769f 87bc 3962 c1bb 0c75 803b
00000280: 9a16 1dbc 4c90 cf3a 56d2 89bd 7671 5e3c
00000290: 00cf 6cbc 9397 cc3b b96f d3bc b220 14bd
000002a0: 58d7 a4bb 1b37 fbbb 9425 413b 06ff 43bc
000002b0: 5daa 93bc d5c8 a53c 9f40 97bc b248 96bb
000002c0: a70f 14bc f0e1 693d cca9 0abd fa52 21bd
000002d0: b2f7 313b e258 9d3c cf5d cbbb 799e e4bd
000002e0: 5bb2 1e3c 0e6d 03bd b312 253c 9985 71bc
000002f0: 5f66 d9bc ad30 cc3c 749f be3b bd33 44bd
00000300: 5ce8 77bd 46af 3d3c 4e6a 503c 5361 99bc
00000310: c648 b3bc c014 a2bc 24fe e5ba 6de8 50bd
00000320: 28cb 0abc 47da a7bc 3d02 1cbc b4d2 6fbd
00000330: 27f3 50bc f5c2 68bc ff51 6d3c d6ad a1bb
00000340: 6e8b 85bd 0e02 8fbd f77d 013d f5c4 14bc
00000350: 56b0 4ebb 29b6 11bd 3be8 46bc ec34 2a3b
00000360: 37ba 3f3c 9294 22bc 1150 cbba fc7e a4bc
00000370: 9f23 adbc 8a55 1dbb 3120 0e3c 0c6c eb3a
00000380: b568 3a3c 67ab 6ebb ff74 053d 6f66 a2bd
00000390: 7b09 1fbd 0ecb 21bc 4fb5 b0bc a533 5e3c
000003a0: 188e 83bb f348 313d 10b5 debc d5ec 3c3c
000003b0: ab4a 82bd 8401 22bd fe46 adbc ac18 a9bc
000003c0: defa 10bc d7bc f73b 1154 913b b303 51bd
000003d0: a607 06b9 715d 4c3d 1f32 5bbd 4fab 293b
000003e0: 000a 183d 4997 65bd f7d2 45bc 3d22 623c
000003f0: 6bb9 11ba 585f 45bd 7a2a dbba e670 02bd

action_model._discrete_distribution.branches.0.bias f4 [2]
-0.006518955 0.0065189535
00000000: f59c d5bb f29c d53b

action_model._discrete_distribution.branches.0.weight f4 [2, 128]
-0.0052199583 -0.006513126 0.011813801 0.0049704146 0.0015757206 -0.007872475 -0.007817148 -0.013510148
0.004373415 -0.004576105 -0.007852251 -0.011329881 0.016628873 -0.005199651 0.02425618 0.0037234805
0.015993379 0.0047393353 0.0036754408 0.0022183498 0.004395462 0.0044645253 -0.0102319475 0.0052858354
0.014479229 -0.0032223414 -0.004583026 0.0029738622 0.002953803 0.0051261173 -0.016203778 -0.008455168
0.0014813807 -0.00552875 0.03461613 -0.00958672 -0.000784607 -0.0030803627 -0.0038216584 0.016114926
-0.0051148375 -0.008211301 0.0017498432 -0.0012151768 0.002365762 -0.0016726641 0.0055216635 0.012504549
-0.007022272 0.011691359 0.011978075 0.03046768 -0.00027812936 -0.0029312763 -0.00482337 0.033275273
-0.015166306 0.009494448 0.008741017 0.0063090045 -0.009077918 0.011380188 0.004799421 0.0005110986
0.019420143 -0.009256654 -0.013500397 0.0059834267 0.0053387024 -0.003337383 -0.00029488024 0.026450416
0.00041092763 -0.013739346 0.001850407 0.03132359 0.0016699746 0.01551716 -0.009156923 0.004474266
0.021263605 0.016997842 -0.01687363 0.0093265865 0.00304246 0.01731348 0.004140652 0.0012598251
0.0070963437 -0.0024800412 0.013080172 0.009497948 -0.00997437 -0.0035112854 -0.005655425 -0.006132403
-0.00859193 0.014256099 -0.002142677 0.0093576 -0.0027454265 0.027107101 -0.011833514 -0.0035230746
-0.0023045547 -0.013910469 0.010231037 0.007300235 0.031519458 -0.0023281742 0.004055519 -0.0071608904
-0.0018368186 0.004498147 -0.0038540948 -0.0030500412 0.00062913896 -0.00652782 -0.008087711 -0.0042081694
-0.01877103 0.005739753 0.0001734311 -0.0127171865 -0.0010294317 0.0049986206 -0.006620289 0.009904464
-0.00070810446 0.0020559723 -0.00051396724 -0.009531307 0.00011814166 -0.0031135478 0.0016767925 -0.0073575233
-0.0021722892 -0.0013884157 0.0054318197 0.008026726 -0.02772436 0.013295026 -0.00020253239 -0.010071898
-0.019699 -0.008903049 0.007874983 0.011147358 0.005400806 -0.005239233 -0.0005651342 -0.011873212
-0.015955426 0.000479216 0.000637014 -0.0010075008 -0.010562693 -0.0074782255 -0.00859425 0.0030467138
-0.0043431767 0.0045686066 -0.036500476 0.011544614 0.0013103192 0.009868075 0.004473953 -0.010883182
-0.010709731 0.008959665 -0.0040846886 0.0124889 -0.0010715402 0.0011566135 0.00676418 -0.015470998
0.00030240775 -0.0018526143 -0.011525189 -0.02668529 -0.01594783 0.0012034001 -0.016659923 -0.02194713
0.011089038 -0.007197216 0.013700801 -0.0058044647 0.0027398977 0.0027243104 -0.011300871 0.008663476
-0.0026056352 0.0072965417 0.005666184 -0.012560314 -0.014755524 0.004469379 -0.004956806 -0.009807901
-0.0065717283 -0.01622901 0.002784908 -0.010616615 -0.014813733 -0.00082231424 -0.005492063 -0.007607032
-0.009471288 0.0135044055 0.0053130514 0.005331388 -0.00012547453 -0.0153638115 -0.0061177188 0.0033204623
-0.0059851464 -0.002135145 -0.009525009 -0.013969114 -0.0038806647 -0.011865448 -0.004840089 -0.00049853756
0.0049709273 -0.0029619944 -0.004421549 -0.010341084 0.00065413024 -0.0074064955 -0.0027600217 -0.009111994
-0.011194963 0.0050977697 -0.009344802 0.003967073 -0.022006955 0.004072537 -0.0029321257 -0.0018744614
-0.00859265 0.019030374 0.005364227 -0.009591222 0.017474886 0.015042489 -0.014343553 0.008791462
-0.006229847 -0.016795969 0.0033100245 0.00028159659 0.012596851 -0.011800513 0.010153663 -0.008555605
00000000: 2f0c abbb 106c d5bb ac8e 413c dcde a23b
00000010: 6988 ce3a 8efb 00bc 7f13 00bc ab59 5dbc
00000020: dd4e 8f3b 27f3 95bb baa6 00bc f7a0 39bc
00000030: 4639 883c d561 aabb e5b4 c63c a305 743b
00000040: 8c04 833c 6d4c 9b3b aadf 703b bc61 113b
00000050: cf07 903b 274b 923b e6a3 27bc cd34 ad3b
00000060: 4a3a 6d3c eb2d 53bb 352d 96bb 21e5 423b
00000070: 9794 413b fdf8 a73b c9bd 84bc 8c87 0abc
00000080: e32a c23a 842a b5bb a5c9 0d3d 9e11 1dbc
00000090: 16ae 4dba e9df 49bb ca74 7abb 7303 843c
000000a0: 5e9a a7bb b188 06bc ff5a e53a 9146 9fba
000000b0: e60a 1b3b 4b3d dbba 12ef b43b e1df 4c3c
000000c0: 161b e6bb 1d8d 3f3c b03f 443c 5b97 f93c
000000d0: e4d1 91b9 a81a 40bb 5c0d 9ebb a74b 083d
000000e0: 197c 78bc 9a8e 1b3c 7c36 0f3c c4bb ce3b
000000f0: 8cbb 14bc f873 3a3c 7644 9d3b 3ffb 053a
00000100: fe16 9f3c 39a9 17bc c530 5dbc 9f10 c43b
00000110: 48f0 ae3b ffb7 5abb 289a 9ab9 8bae d83c
00000120: c671 d739 fe1a 61bc 5b89 f23a 2a4d 003d
00000130: 0de3 da3a b03b 7e3c eb06 16bc dd9c 923b
00000140: 0331 ae3c 0f3f 8b3c 913a 8abc 8ace 183c
00000150: 0264 473b 00d5 8d3c 4eae 873b b720 a53a
00000160: 7288 e83b 3088 22bb 384e 563c 489d 1b3c
00000170: 8a6b 23bc 981d 66bb 2551 b9bb 53f2 c8bb
00000180: 2bc5 0cbc 6a92 693c 286c 0cbb 9e50 193c
00000190: 9dec 33bb b60f de3c 5be1 41bc 62e3 66bb
000001a0: 0308 17bb bce8 63bc 14a0 273c cf36 ef3b
000001b0: 8c1a 013d 4894 18bb 29e4 843b e7a5 eabb
000001c0: 68c1 f0ba 3165 933b fb94 7cbb 33e3 47bb
000001d0: cdec 243a 53e7 d5bb 5282 04bc afe4 89bb
000001e0: b4c5 99bc 8a14 bc3b 0edb 3539 bf5b 50bc
000001f0: ffed 86ba 78cb a33b 02ef d8bb 5546 223c
00000200: 16a0 39ba 7ebd 063b c2bb 06ba 3329 1cbc
00000210: d2c2 f738 aa0c 4cbb d2c7 db3a 6117 f1bb
00000220: f75c 0ebb 80fb b5ba 68fd b13b 8782 033c
00000230: 321e e3bc 61d3 593c e05e 54b9 9a04 25bc
00000240: cc5f a1bc 18de 11bc 1306 013c 69a3 363c
00000250: 3ff9 b03b dfad abbb 8425 14ba dc87 42bc
00000260: f4b4 82bc 483f fb39 49fd 263a 1e0e 84ba
00000270: 250f 2dbc e70b f5bb e6ce 0cbc 60ab 473b
00000280: 3551 8ebb 40b4 953b 8681 15bd 9f25 3d3c
00000290: 04bf ab3a b5ad 213c 3d9a 923b 604f 32bc
000002a0: de77 2fbc 8fcb 123c dad8 85bb 3e9e 4c3c
000002b0: ec72 8cba 8299 973a 0ea6 dd3b 127a 7dbc
000002c0: 7b8c 9e39 6cd3 f2ba 25d4 3cbc 1c9b dabc
000002d0: 06a5 82bc 68bb 9d3a 647a 88bc 78ca b3bc
000002e0: ccae 353c a0d6 ebbb 5379 603c 6133 bebb
000002f0: db8f 333b 588a 323b 4a27 39bc 41f1 0d3c
00000300: 4ec3 2abb d417 ef3b 65ab b93b c6c9 4dbc
00000310: 27c1 71bc de73 923b b46c a2bb 52b1 20bc
00000320: a757 d7bb b3f2 84bc 0183 363b 50f1 2dbc
00000330: 4db5 72bc 9390 57ba c3f6 b3bb 6944 f9bb
00000340: 762d 1bbc 9541 5d3c 1b19 ae3b edb2 ae3b
00000350: d091 03b9 7fb8 7bbc 2577 c8bb 1d9c 593b
00000360: 0c1f c4bb caed 0bbb c90e 1cbc b6de 64bc
00000370: c052 7ebb 4c67 42bc 9c99 9ebb 4ab0 02ba
00000380: 29e3 a23b 051e 42bb a4e2 90bb a66d 29bc
00000390: f079 2b3a 30b2 f2bb 7be1 34bb 794a 15bc
000003a0: 146b 37bc 310b a73b f11a 19bc 38fe 813b
000003b0: ee47 b4bc eb72 853b e828 40bb 7db0 f5ba
000003c0: 30c8 0cbc 96e5 9b3c 66c6 af3b 8024 1dbc
000003d0: 7e27 8f3c c674 763c 3901 6bbc 100a 103c
000003e0: bf23 ccbb b397 89bc ffec 583b 41a3 9339
000003f0: 0663 4e3c f056 41bc 8d5b 263c cf2c 0cbc

network_body.linear_encoder.seq_layers.0.bias f4 [128]
0.030082284 0.025941651 -0.035332963 0.03011907 -0.02997432 -0.0077514127 -0.021875806 0.01541868
0.008325838 0.052472364 0.035214934 0.0012573075 -0.01942998 0.0017992422 -0.035048302 -0.015128069
0.031512115 0.01421067 -0.046459008 -0.018939821 0.024916526 0.029525332 0.012151623 0.038452715
-0.018856997 -0.051748604 -0.018210936 0.03185351 0.012414816 -0.0111665325 -0.015830431 -0.02171033
-0.015424407 -0.031102441 -0.0028135092 0.0067904433 0.012373306 0.030450422 0.032724928 -0.022922454
-0.010889519 0.0040167747 -0.048035603 -0.022408811 0.038139824 -0.03026635 -0.033677503 0.0057973294
0.00335972 -0.013512261 0.02576317 -0.02440834 0.026678769 -0.010421943 -0.001479957 -0.033726636
0.01578986 0.019498337 0.017739478 -0.011321376 0.02499167 0.03695306 -0.011027084 -0.022412598
-0.021277592 -0.022175273 -0.025421474 0.017850446 0.03328455 0.017391644 -0.019926324 0.031759087
0.019494953 -0.007130347 0.0030051633 0.016576389 -0.022344243 0.005746123 0.02810302 -0.006202915
0.02854946 0.000930115 0.001494706 0.017130574 -0.03201415 -0.0047084605 -0.046531115 0.009874869
-0.028226001 -0.013410245 0.02797277 0.016587056 0.010900888 0.0017346046 -0.0018820065 0.02043433
0.04892438 0.0016154271 -0.03443314 0.010050055 -0.017173108 0.011446307 -0.042729914 -0.014685783
0.0041924394 0.03331383 -0.025529848 -0.020928342 -0.015138599 -0.05879554 0.0076954924 -0.015324451
-0.0057479874 0.043120887 -0.016467357 0.01580931 0.053594243 -0.039443865 0.028535364 0.020234143
-0.005422918 0.018295435 0.042505894 0.0018457556 0.023684978 -0.02008777 -0.020936867 0.0010235545
00000000: 1f6f f63c 9683 d43c 4cb9 10bd 45bc f63c
00000010: b58c f5bc 90ff fdbb e434 b3bc a29e 7c3c
00000020: 1869 083c 43ed 563d 893d 103d 3dcc a43a
00000030: 9f2b 9fbc 8dd4 eb3a cf8e 0fbd b8db 77bc
00000040: d912 013d dfd3 683c cd4b 3ebd af27 9bbc
00000050: be1d cc3c 1cdf f13c 9a17 473c 9880 1d3d
00000060: fd79 9abc 58f6 53bd 1a2f 95bc d378 023d
00000070: 8367 4b3c d5f3 36bc d2ae 81bc ddd9 b1bc
00000080: a7b6 7cbc 8cca febc da62 38bb 5e82 de3b
00000090: 68b9 4a3c 2a73 f93c 930a 063d dfc7 bbbc
000000a0: f469 32bc 269f 833b fbc0 44bd af92 b7bc
000000b0: 8138 1c3d 23f1 f7bc 6cf1 09bd 86f7 bd3b
000000c0: c02e 5c3b 8862 5dbc 490d d33c 00f4 c7bc
000000d0: 6f8d da3c ccc0 2abc 1efb c1ba f124 0abd
000000e0: bd59 813c faba 9f3c 6252 913c 4b7d 39bc
000000f0: 55bb cc3c 185c 173d f1aa 34bc a09a b7bc
00000100: 584e aebc eba8 b5bc b240 d0bc 193b 923c
00000110: 6155 083d ec78 8e3c 883c a3bc d115 023d
00000120: e1b3 9f3c b0a5 e9bb 46f2 443b 35cb 873c
00000130: 460b b7bc f949 bc3b 4e38 e63c d341 cbbb
00000140: 8fe0 e93c f6d2 733a 03ea c33a 6b55 8c3c
00000150: 4521 03bd 6e49 9abb 6997 3ebd 34ca 213c
00000160: 373a e7bc a5b6 5bbc 2727 e53c 94e1 873c
00000170: a399 323c ac5b e33a a9ad f6ba e565 a73c
00000180: ee64 483d bdbc d33a c409 0dbd fca8 243c
00000190: 9eae 8cbc 4b89 3b3c 9005 2fbd a39c 70bc
000001a0: bb60 893b 1574 083d f923 d1bc ea71 abbc
000001b0: e307 78bc 98d3 70bd 782a fc3b 6813 7bbc
000001c0: 9d59 bcbb 879f 303d 8de6 86bc 8782 813c
000001d0: a385 5b3d e48f 21bd ffc2 e93c 13c2 a53c
000001e0: bcb2 b1bb 4fe0 953c a91a 2e3d 48ed f13a
000001f0: 0007 c23c 1b8f a4bc cb83 abbc ca28 863a

network_body.linear_encoder.seq_layers.0.weight f4 [128, 3]
0.43985343 -0.20141539 0.8793108 -0.18048595 0.7680055 -0.35670385 -0.14586234 -0.7304764
0.46428922 -1.3404382 -2.2034318 -0.44918045 0.38286567 0.73403466 -0.037784755 -0.10522851
-0.77306694 -0.5975437 -1.0569795 -0.28552306 -0.2346266 -0.43053156 -0.40287185 -0.9235289
-0.22938345 -0.68319124 0.5196539 -0.89986455 0.64108235 0.29608613 0.42199355 0.937547
0.63200116 -0.56580293 0.5214502 0.9618022 -0.6394006 0.09307062 -0.17842299 -0.11323007
0.03501422 0.14880072 0.15693092 0.12055703 0.08987252 -0.65609026 -0.005801487 0.44407538
0.26032284 -0.81156254 0.2771047 -0.9698311 0.71973234 0.10571791 -0.026414922 0.29392868
-0.46234736 0.014668049 0.6830063 -0.31319445 -0.3996059 0.7905459 -0.62860954 0.15487622
-0.089321345 0.63238037 0.34744743 0.39034984 0.70008856 0.08889958 -0.67343205 -0.9863739
-0.31397069 0.32187077 -0.7867789 0.12838948 0.32523686 -0.07419986 0.01222737 -0.935167
-0.6231342 -0.5657474 -0.7206844 0.12665969 -0.8815065 -1.1203505 1.0333924 -0.19444473
0.5566649 0.8307852 0.3295532 -0.30687055 0.15908393 0.30626455 0.09608777 0.3305196
-0.23643118 0.6258029 -0.13768904 0.42522794 -0.39277008 0.37822673 -0.39121085 0.23899104
1.0343364 0.6311739 0.82284147 0.07121821 -0.5896431 0.051305603 0.59598756 -0.6704403
-0.42510083 0.1331171 -0.28909037 -0.13013488 -0.4493967 -0.042416908 -0.40638182 0.0358156
0.6749579 -0.09907874 -0.26876432 0.07643517 0.39822215 0.7354763 0.4392726 -1.0032566
0.090303294 -1.1257274 0.51352566 0.51088464 -0.115328036 -0.62983024 -0.61642134 -0.71748894
0.22252543 0.25031275 0.19614756 -0.6993093 -0.117318876 0.22825712 -0.22955324 0.3238207
0.79192257 -0.47260335 -1.0921803 -0.3044476 0.97515434 -0.5703334 0.26951233 1.2796036
0.21884942 0.9945875 0.8394091 -0.5574417 0.65981925 -0.9029766 -0.19365682 -0.039284244
-0.4830036 -0.15991881 0.81346774 -0.5637928 0.37377644 -0.51188964 0.05944342 0.21437868
-0.7573867 -0.34012476 -0.61673397 0.76012886 0.5238434 -1.2590505 0.9944609 1.2775905
-0.2786237 -0.8934789 0.4048158 -0.2722872 0.058665637 -0.24861337 -0.6595786 -0.97845995
-0.6900469 0.23339464 -0.40401614 0.38140926 0.41977403 0.40920156 -0.39336148 0.54006386
0.40781116 1.1115832 -0.009992559 0.3584815 -1.0095897 -0.48959354 0.102893576 -0.16134775
0.0640568 0.04912757 -0.077208616 0.9197221 0.4022494 -1.2376461 -0.79827785 -0.1993732
0.31113195 -0.026027346 0.2950391 0.53911954 -0.38016072 -0.34327236 -0.52678466 1.0448004
-0.087549135 0.091609456 -0.25405645 0.15777582 0.3033749 -0.79169667 -0.50086755 0.29894337
-0.07788513 0.084074125 0.44165668 1.3798262 0.04528824 0.4853655 0.18867157 -0.046737086
-1.1880133 0.7100369 0.9485877 -0.84218496 -1.4916652 -0.8320906 -0.5231405 -0.14738923
1.0333492 0.057633102 -0.81428087 -0.9047099 0.5010806 0.48225173 -0.66553885 -0.37787008
0.288334 -0.9104997 0.015700903 0.07681612 -0.4261069 -0.5796446 0.5094081 -0.6534345
00000000: 7834 e13e d63f 4ebe 831a 613f 4fd1 38be
00000010: 029c 443f e3a1 b6be f05c 15be 8000 3bbf
00000020: 51b7 ed3e 7b93 abbf 0705 0dc0 fbfa e5be
00000030: f806 c43e b2e9 3b3f 30c4 1abd 0c82 d7bd
00000040: b7e7 45bf a0f8 18bf 1b4b 87bf 1430 92be
00000050: f541 70be a26e dcbe 3845 cebe 646c 6cbf
00000060: 7fe3 6abe 9fe5 2ebf 0a08 053f 865d 66bf
00000070: f91d 243f 9a98 973e 8a0f d83e 1503 703f
00000080: d4ca 213f 76d8 10bf c37d 053f ab38 763f
00000090: c2af 23bf cf9b be3d 84b4 36be 2be5 e7bd
000000a0: 126b 0f3d 375f 183e 80b2 203e 9be6 f63d
000000b0: 150f b83d 88f5 27bf 661a bebb d95d e33e
000000c0: 0949 853e 90c2 4fbf abe0 8d3e da46 78bf
000000d0: 6140 383f a282 d83d 1b64 d8bc d27d 963e
000000e0: cbb8 ecbe 4252 703c 80d9 2e3f 065b a0be
000000f0: 2599 ccbe 3761 4a3f 8eec 20bf df97 1e3e
00000100: 1cee b6bd aee3 213f a1e4 b13e efdb c73e
00000110: 0139 333f fc10 b63d 0b66 2cbf 0083 7cbf
00000120: c4c0 a0be 3fcc a43e 586a 49bf 8878 033e
00000130: 7285 a63e 19f6 97bd 4f55 483c 1b67 6fbf
00000140: b985 1fbf d2d4 10bf c67e 38bf 14b3 013e
00000150: 69aa 61bf a567 8fbf 3446 843f 851c 47be
00000160: 9781 0e3f 57ae 543f 32bb a83e 231e 9dbe
00000170: e6e6 223e b5ce 9c3e aac9 c43d dd39 a93e
00000180: 041b 72be 9e34 203f 5bfe 0cbe 7ab7 d93e
00000190: 2919 c9be efa6 c13e ca4c c8be 11ba 743e
000001a0: 2365 843f 9d94 213f bda5 523f dada 913d
000001b0: daf2 16bf d325 523d a492 183f faa1 2bbf
000001c0: d1a6 d9be d94f 083e a703 94be 1442 05be
000001d0: 5317 e6be 5abd 2dbd 4711 d0be 61b3 123d
000001e0: 0aca 2c3f cbe9 cabd 7a9b 89be 0b8a 9c3d
000001f0: c6e3 cb3e 2d48 3c3f 57e8 e03e b66a 80bf
00000200: eff0 b83d d617 90bf 6b76 033f 56c9 023f
00000210: 1b31 ecbd 8e3c 21bf cacd 1dbf 5bad 37bf
00000220: b5dd 633e fe28 803e e8da 483e ef05 33bf
00000230: e144 f0bd 3cbc 693e 0110 6bbe d4cb a53e
00000240: 70bb 4a3f 11f9 f1be 90cc 8bbf 8ee0 9bbe
00000250: b7a3 793f 5f01 12bf 85fd 893e 0dca a33f
00000260: 101a 603e 499d 7e3f 84e3 563f 80b4 0ebf
00000270: eae9 283f 7929 67bf f94d 46be 84e8 20bd
00000280: 3f4c f7be c2c1 23be 6c3f 503f ba54 10bf
00000290: a05f bf3e 330b 03bf f27a 733d 1686 5b3e
000002a0: 18e4 41bf d524 aebe 47e2 1dbf ce97 423f
000002b0: 9a1a 063f 9128 a1bf fd94 7e3f 1688 a33f
000002c0: c4a7 8ebe 08bb 64bf 0444 cf3e 3a69 8bbe
000002d0: 614b 703d 8194 7ebe 25da 28bf 5a7c 7abf
000002e0: eaa6 30bf 01ff 6e3e 34db cebe 1348 c33e
000002f0: 9fec d63e de82 d13e ad66 c9be a041 0a3f
00000300: a0cc d03e 5c48 8e3f d5b7 23bc e38a b73e
00000310: 3c3a 81bf 01ac fabe deb9 d23d 5838 25be
00000320: 3630 833d fe39 493d 8d1f 9ebd e872 6b3f
00000330: a2f3 cd3e 306b 9ebf f05b 4cbf 7d28 4cbe
00000340: b04c 9f3e 4d37 d5bc 5d0f 973e bd03 0a3f
00000350: 6da4 c2be 65c1 afbe 5cdb 06bf 05bc 853f
00000360: f64c b3bd bd9d bb3d b013 82be fc8f 213e
00000370: f453 9b3e a2ac 4abf db38 00bf 1b0f 993e
00000380: 3d82 9fbd 0e2f ac3d d320 e23e 259e b03f
00000390: 2980 393d d481 f83e 1f33 413e 636f 3fbd
000003a0: d210 98bf fac4 353f a5d6 723f 6f99 57bf
000003b0: e3ee bebf e403 55bf 89ec 05bf 34ed 16be
000003c0: c944 843f b010 6c3d b674 50bf 119b 67bf
000003d0: d146 003f b3e9 f63e c160 2abf 3078 c1be
000003e0: 84a0 933e 8216 69bf 2e9f 803c c551 9d3d
000003f0: af2a dabe 9763 14bf 9268 023f 7c47 27bf

network_body.linear_encoder.seq_layers.2.bias f4 [128]
-0.05346184 0.01329227 0.02213942 0.0608982 -0.015930174 0.032605972 -0.02840623 -0.02096839
0.028182678 -0.01907332 0.026273305 -0.00010011079 -0.02897671 0.015919745 -0.06971066 0.029424733
-0.07388594 -0.006920748 0.02537648 -0.003357541 0.047293548 0.040938646 -0.02161713 0.008508812
0.020015966 0.032927137 -0.0131953405 -0.026940502 -0.044253577 -0.03876427 -0.012735665 -0.018943662
-0.041416056 0.029523809 -0.06878522 0.0052157966 -0.03572303 -0.015117894 -0.008629406 -0.069368824
-0.006656319 0.015440534 -0.019160172 -0.026603535 -0.03378098 0.02437425 -0.007381172 -0.027247537
0.017979138 0.026327211 -0.061391983 -0.04753602 0.02482879 -0.006124322 -0.040746998 -0.062468693
0.003599392 -0.07907379 0.024331614 -0.03416847 -0.028940083 0.037952147 0.021480465 -0.06778389
-0.008725883 0.031023879 0.036176577 -0.030562142 -0.051964458 -0.028857231 0.0074048447 -0.07153733
-0.042181805 -0.03440787 0.003718416 -0.07922065 -0.031380046 -0.0288675 0.0427992 -0.03062248
-0.078530006 -0.06784882 0.009619536 -0.034154814 0.028916402 -0.02392565 -0.034766745 -0.018220806
0.01344032 0.010643222 0.010901066 -0.011493794 0.00044970473 -0.0015637329 -0.0118576875 -0.021566804
0.0042452384 -0.03263637 0.033721518 -0.067314304 -0.047698803 -0.025306681 -0.023849787 -0.0031803595
-0.04004472 0.026750794 -0.0052300347 0.036571935 -0.06583814 -0.035930526 0.0058179223 0.03349903
0.01679675 0.03411175 0.03883211 -0.03999915 -0.012542038 0.045828424 -0.07028295 -0.019406997
0.060860317 -0.07150447 -0.0301161 0.027566653 0.023485014 -0.046131987 -0.023972524 -0.023268176
00000000: cdfa 5abd d2c7 593c bb5d b53c 6470 793d
00000010: ff7f 82bc d78d 053d 2fb4 e8bc e7c5 abbc
00000020: 5cdf e63c a73f 9cbc 1d3b d73c 92f2 d1b8
00000030: 9160 edbc 206a 823c 76c4 8ebd 230c f13c
00000040: 8351 97bd 71c7 e2bb 56e2 cf3c 310a 5cbb
00000050: e1b6 413d 48af 273d 6816 b1bc 8b68 0b3c
00000060: 86f8 a33c 9bde 063d 4531 58bc 54b2 dcbc
00000070: 3d43 35bd 48c7 1ebd 40a9 50bc bd2f 9bbc
00000080: e2a3 29bd eadb f13c 44df 8cbd 46e9 aa3b
00000090: 5052 12bd 0bb1 77bc 5a62 0dbc 3e11 8ebd
000000a0: 401d dabb 4bfa 7c3c cbf5 9cbc a8ef d9bc
000000b0: ed5d 0abd 82ac c73c c2dd f1bb 3a36 dfbc
000000c0: fc48 933c 2aac d73c 2976 7bbd 21b5 42bd
000000d0: bf65 cb3c 89ae c8bb 53e6 26bd 2cdf 7fbd
000000e0: c7e3 6b3b 70f1 a1bd 1853 c73c 3df4 0bbd
000000f0: c113 edbc b673 1b3d cdf7 af3c 48d2 8abd
00000100: 02f7 0ebc ca25 fe3c e42d 143d 755d fabc
00000110: afd8 54bd 0066 ecbc 57a4 f23b 2a82 92bd
00000120: d4c6 2cbd 44ef 0cbd abb0 733b 703e a2bd
00000130: 5d88 00bd 897b ecbc 374e 2f3d ffdb fabc
00000140: 57d4 a0bd 52f4 8abd 429b 1d3c ebe5 0bbd
00000150: 17e2 ec3c baff c3bc 9367 0ebd cd43 95bc
00000160: ca34 5c3c e960 2e3c 629a 323c 7750 3cbc
00000170: 59c6 eb39 2bf6 ccba bf46 42bc deac b0bc
00000180: a41b 8b3b b7ad 05bd 931f 0a3d 15dc 89bd
00000190: d25f 43bd f54f cfbc a160 c3bc 946d 50bb
000001a0: ef05 24bd 7b24 db3c b660 abbb 74cc 153d
000001b0: 26d6 86bd e32b 13bd 45a4 be3b 4736 093d
000001c0: 5699 893c c3b8 0b3d 6b0e 1f3d 26d6 23bd
000001d0: 1f7d 4dbc 96b6 3b3d 82f0 8fbd 6cfb 9ebc
000001e0: ab48 793d f070 92bd 0ab6 f6bc 76d3 e13c
000001f0: a563 c03c e5f4 3cbd 0762 c4bc e79c bebc

network_body.linear_encoder.seq_layers.2.weight f4 [128, 128]
-0.13272661 0.08031002 -0.0026084215 -0.10612072 0.08220729 0.08187604 0.009275523 -0.07349517
0.07682605 0.1817288 0.07371043 0.06939102 -0.080757834 0.10432431 0.06894488 -0.081544235
-0.058553465 0.023128737 0.1142802 -0.096453086 0.01672921 -0.057216972 -0.026934382 -0.09722774
0.21444638 0.04420812 -0.019361325 -0.14942354 -0.18045925 -0.026270006 0.11281676 0.016365513
-0.012811316 0.041376412 0.027923992 -0.06206711 0.06441728 -0.04083546 0.10430166 -0.13422936
0.059147116 -0.087125905 -0.062156882 -0.04488234 -0.04361776 0.0758295 0.020457521 -0.041677274
0.040810436 0.03291489 0.01995942 -0.06441109 -0.05352749 0.11252019 0.035067085 0.06573006
0.10995684 -0.015159854 0.108142875 -0.13321477 0.028313844 0.0003075319 0.18001705 -0.16149767
-0.15849088 0.031651054 -0.07135361 0.011370076 0.12224863 -0.09279377 0.04063611 -0.04697965
0.023760755 -0.06349757 -0.0960935 -0.0320754 -0.04067622 0.040315513 0.045285955 0.18099199
-0.09404189 0.017752372 -0.0019553083 0.011200872 0.17967282 0.0013488341 0.061827995 0.12428425
0.04320416 0.1417286 0.022205308 -0.0982055 -0.23298974 0.063354224 -0.11499196 0.16539046
0.0029848912 0.009448412 0.033008248 -0.07665224 0.002434281 -0.13813664 -0.10511473 -0.031365518
0.08094036 0.17072311 -0.1311015 -0.03457214 -0.16935417 0.14520822 -0.0084004635 0.0368709
0.088943794 -0.0960946 -0.20147778 -0.09661043 0.121370986 0.05769044 0.017111303 0.07390644
-0.054686192 -0.10496981 0.12382624 -0.106630296 -0.08285495 0.17186685 0.023980543 0.0631148
-0.029393276 0.022043956 -0.09086882 0.125019 0.09407904 0.024657656 -0.07591727 -0.0015807421
0.07633326 -0.07347348 -0.1262537 0.09454293 -0.122254916 -0.14913465 -0.037467238 0.046229597
-0.120898135 -0.08158046 -0.08002785 0.15053315 -0.13156703 -0.02865812 -0.017322827 0.16780576
-0.077149756 -0.0036675741 0.1835994 -0.06947082 0.090807684 -0.12844229 0.16273493 -0.027518302
-0.12197329 0.20438609 0.014353293 -0.06980063 -0.10650026 0.20645064 -0.091822945 0.053295974
-0.034682035 0.045278974 0.066252165 0.19724782 -0.0138201285 -0.06923022 -0.009595905 -0.044444516
-0.060543608 0.056700524 0.09474171 -0.042326674 0.0074979845 -0.033690203 -0.09165765 -0.05174811
0.022032697 0.12727632 -0.055879273 0.053349506 0.023011435 0.10628315 -0.008680601 0.10201728
-0.065956004 -0.023565337 0.0047386624 -0.061743755 -0.088515304 0.078820586 0.00021775425 0.10338309
0.11445224 -0.12618731 -0.009917033 -0.08607595 -0.061692707 0.03868498 0.01675927 -0.045814242
0.046739955 -0.01257127 -0.13401602 0.06678803 0.16608712 -0.089417286 0.08240264 -0.05387388
0.02808519 0.042552624 0.021221455 -0.00017576781 0.027758418 0.10465093 -0.18119064 0.05780207
0.067336895 0.0347512 0.002304904 0.056527715 0.07392322 0.13997953 -0.082256004 -0.08123937
-0.19212666 -0.05691501 0.059357293 0.027299419 0.08646151 0.036275163 0.03513318 0.025355574
-0.04222624 -0.033510815 0.09926794 -0.06770069 0.034799673 -0.14046861 0.0555188 -0.15132552
0.02386365 0.009715029 0.019244995 -0.18255138 0.05497139 0.027207745 0.034693014 -0.060227964
00000000: 7ce9 07be 9479 a43d 0df2 2abb d255 d9bd
00000010: 4c5c a83d a0ae a73d 5df8 173c a384 96bd
00000020: fa56 9d3d 1d17 3a3e 7ef5 963d e11c 8e3d
00000030: 5d64 a5bd fca7 d53d f932 8d3d aa00 a7bd
00000040: c2d5 6fbd 7a78 bd3c bd0b ea3d 3289 c5bd
00000050: b20b 893c 585c 6abd 7ea5 dcbc 561f c7bd
00000060: d597 5b3e 9313 353d a49b 9ebc 7c02 19be
00000070: 4fca 38be 3234 d7bc 790c e73d f810 863c
00000080: 8ee6 51bc 507a 293d dbc0 e43c 153a 7ebd
00000090: 35ed 833d 1543 27bd 1c9c d53d 6c73 09be
000000a0: 3f44 723d 116f b2bd 3798 7ebd 8bd6 37bd
000000b0: 89a8 32bd 7f4c 9b3d 8896 a73c cab5 2abd
000000c0: d828 273d c4d1 063d f081 a33c f6e9 83bd
000000d0: a43f 5bbd fc70 e63d 81a2 0f3d 7b9d 863d
000000e0: 0d31 e13d 0961 78bc 037a dd3d 7469 08be
000000f0: 6ff2 e73c 3c3c a139 6456 383e a55f 25be
00000100: 6f4b 22be 89a4 013d d721 92bd 8e49 3a3c
00000110: 7d5d fa3d a90a bebd 0d72 263d bc6d 40bd
00000120: eaa5 c23c 040b 82bd abcc c4bd 7f61 03bd
00000130: 1c9c 26bd e121 253d c47d 393d f755 393e
00000140: 0999 c0bd 6c6d 913c a124 00bb dd83 373c
00000150: 27fc 373e 5dcb b03a 5a3f 7d3d be88 fe3d
00000160: d8f6 303d 4d21 113e e8e7 b53c f71f c9bd
00000170: dd94 6ebe dcbf 813d e880 ebbd 1e5c 293e
00000180: 2a9e 433b 83cd 1a3c a833 073d d9fb 9cbd
00000190: 7588 1f3b b173 0dbe 6446 d7bd 2179 00bd
000001a0: 0fc4 a53d 0ad2 2e3e 793f 06be 849b 0dbd
000001b0: 2e6b 2dbe 77b1 143e 19a2 09bc f105 173d
000001c0: 2a28 b63d 3fcd c4bd 3150 4ebe b0db c5bd
000001d0: 5a91 f83d d04c 6c3d 012d 8c3c 425c 973d
000001e0: a1fe 5fbd 69fa d6bd 9d98 fd3d fc60 dabd
000001f0: dbaf a9bd ddfd 2f3e d872 c43c 5542 813d
00000200: 2bca f0bc 8795 b43c 6f19 babd fb04 003e
00000210: 83ac c03d dafe c93c 837a 9bbd e730 cfba
00000220: 9d54 9c3d 4479 96bd a648 01be b99f c13d
00000230: c960 fabd c1b6 18be 3f77 19bd 3f5b 3d3d
00000240: 7199 f7bd a813 a7bd a4e5 a3bd 5d25 1a3e
00000250: 82b9 06be 6fc4 eabc 9ae8 8dbc 46d5 2b3e
00000260: b100 9ebd af5b 70bb 7b01 3c3e b846 8ebd
00000270: 61f9 b93d 6086 03be fca3 263e 106e e1bc
00000280: 22cd f9bd 964a 513e 132a 6b3c a2f3 8ebd
00000290: cf1c dabd cc67 533e ab0d bcbd e14c 5a3d
000002a0: c00e 0ebd 7276 393d 37af 873d 55fb 493e
000002b0: d26d 62bc 93c8 8dbd 2538 1dbc 740b 36bd
000002c0: 93fc 77bd cf3e 683d f107 c23d bc5e 2dbd
000002d0: a7b1 f53b bdfe 09bd 02b7 bbbd d4f5 53bd
000002e0: ea7d b43c b954 023e aae1 64bd 0385 5a3d
000002f0: 7a82 bc3c fbaa d93d 1439 0ebc 70ee d03d
00000300: f113 87bd 180c c1bc c846 9b3b 05e7 7cbd
00000310: 8347 b5bd b06c a13d f654 6439 83ba d33d
00000320: f065 ea3d 3f37 01be 0d7b 22bc 9648 b0bd
00000330: 7eb1 7cbd 2474 1e3d bd4a 893c b7a7 3bbd
00000340: 6572 3f3d baf7 4dbc 7f3b 09be 2ac8 883d
00000350: be12 2a3e 6920 b7bd b7c2 a83d dcaa 5cbd
00000360: ea12 e63c a94b 2e3d 9ed8 ad3c 504e 38b9
00000370: 9f65 e33c 3a53 d63d 0a8a 39be ddc1 6c3d
00000380: ede7 893d 4657 0e3d df0d 173b 9b89 673d
00000390: 0f65 973d cb56 0f3e d675 a8bd d460 a6bd
000003a0: dabc 44be b71f 69bd a220 733d 08a3 df3c
000003b0: bb12 b13d 4495 143d cfe7 0f3d 7eb6 cf3c
000003c0: 6cf5 2cbd a342 09bd fd4c cb3d a9a6 8abd
000003d0: 1a8a 0e3d 01d7 0fbe ae67 633d 14f5 1abe
000003e0: b47d c33c c92b 1f3c aea7 9d3c c0ee 3abe
000003f0: ae29 613d c7e2 de3c 431a 0e3d 99b1 76bd
