results/ppo/Car Agent/Car Agent-218969.onnx (onnx, 74578 bytes, 9 tensors)

action_model._continuous_distribution.log_sigma f4 [1, 2]
000000 36 ad 86 3c b3 46 43 3c
       0.016440015 0.0119187115

action_model._continuous_distribution.mu.bias f4 [2]
000000 87 a5 1c 3b ca 4d b2 ba
       0.0023902373 -0.0013603505

action_model._continuous_distribution.mu.weight f4 [2, 128]
000000 e1 ff 9c bc ef 38 14 bd 47 a9 17 3c 1f 5f 3a 3c
       -0.019164981 -0.03618711 0.009256667 0.011375218
000010 b9 da 95 3c 6c 50 b3 bc e0 75 a5 bc 67 69 64 bb
       0.018292772 -0.021888934 -0.020197809 -0.0034852864
000020 02 67 7d 3c 9f da 28 3c bd 9d b2 bc 0a e7 b0 bc
       0.0154664535 0.01030603 -0.021803731 -0.021594543
000030 d8 59 1d 3c 5a 4e df bb e8 1f 87 3a 58 d9 79 3c
       0.00960394 -0.00681476 0.0010309191 0.015249573
000040 53 bb cf bb be 26 5c bc 5c fe 35 3c 7f f7 cd 3c
       -0.0063394695 -0.013436971 0.011108007 0.02514243
000050 b9 14 3d bc 8a f0 8a bc 1e f9 9e 3c 84 34 54 3c
       -0.011540585 -0.016960401 0.019405898 0.012951974
000060 c7 5f 26 bc 8a 78 a5 3b d2 58 4e 3c e2 20 9c 3c
       -0.010154671 0.0050497698 0.012594419 0.019058648
000070 87 79 8f bc 1e 7b 37 bd 51 fc e7 bc 44 50 a7 bc
       -0.017514003 -0.044795148 -0.028318556 -0.020424016
000080 27 ac d0 bc 7b cb 65 3c 4b a8 a3 3c 05 1d 92 3c
       -0.025472714 0.014025564 0.01997771 0.017836103
000090 df 73 c8 3c 18 44 1f bc 18 3b be bc e1 c9 8a 3c
       0.024469314 -0.009720825 -0.023221537 0.016941966
0000a0 61 96 80 bc 4d 27 5b 3c 5d a6 86 bc 4b ab 2a bc
       -0.015696706 0.013376069 -0.01643675 -0.010416816
0000b0 a3 f6 47 3c 03 04 0b 3d 1c 9c 34 bc 27 5f dc bc
       0.012204799 0.033939373 -0.0110235475 -0.02690084
0000c0 39 b5 d2 3b 02 df 5b ba d8 13 08 bd 6b 8f a3 3b
       0.006430295 -0.0008387418 -0.03322205 0.004991462
0000d0 e8 c3 91 bc 38 d4 9c bc 04 c9 12 3c 06 84 07 ba
       -0.01779361 -0.019144163 0.008959059 -0.00051695143
0000e0 d8 7e 85 3b 09 68 34 bb 0e 1e a8 bc 42 39 bd bc
       0.004073959 -0.002752783 -0.020522144 -0.023098592
0000f0 25 d1 32 bc 8c ea 80 3b 78 63 b5 bb 3f 05 0a 3c
       -0.010914122 0.00393421 -0.0055355392 0.008424102
000100 83 88 c7 3c 37 ee 3f 3c f8 40 9d 3c 36 a5 ca bc
       0.024357086 0.01171451 0.019196019 -0.024736982
000110 3f 4b 15 3d 0c 18 a1 ba 33 bf dd bc a7 6f 72 bb
       0.036448713 -0.0012290492 -0.02706871 -0.003699282
000120 3d 14 87 bc fb 23 9d 3b 3f 37 22 3c 6e 9e 9f bc
       -0.016489143 0.004795549 0.009900867 -0.019484725
000130 6a d9 ff 39 a2 62 d0 bb c4 10 e6 3c 74 20 83 bc
       0.00048799376 -0.006359414 0.028084166 -0.016006686
000140 14 29 93 bc a8 b5 38 bc eb 5d 83 3c 7c 59 a4 bc
       -0.017963924 -0.011273779 0.016035995 -0.0200622
000150 ea bd 30 3c 97 92 31 bc 59 3b 17 3c b9 14 0a 3d
       0.010787467 -0.010838172 0.009230458 0.03371117
000160 98 46 0c bd 3c 4e 03 3d e1 18 d8 39 c7 de 52 bb
       -0.03424701 0.032057032 0.00041217267 -0.0032176243
000170 28 37 36 3c 4c 04 82 3c 67 c4 27 bb a8 fd 65 bc
       0.011121549 0.01587119 -0.0025599243 -0.014037527
000180 28 0c e0 bc 1a 72 26 bc 95 b2 10 bd 07 e1 19 3c
       -0.027349547 -0.01015904 -0.03532656 0.00939203
000190 36 e1 57 3c a2 68 23 bb a5 3f 28 bd ab 39 1c 3d
       0.013176253 -0.0024934192 -0.04107632 0.038140934
0001a0 6f e9 4c bc de 51 b6 bc d4 e1 4b 3c 7e 23 88 bc
       -0.012506827 -0.022255834 0.012443978 -0.016618486
0001b0 4c 3c 46 bc e0 8c 23 3b 5c b5 fa 3a 54 9d b5 3c
       -0.012099337 0.0024955794 0.0019127536 0.022169746
0001c0 d2 8c 45 bc 22 8e 89 3c 35 2b 6e 3c 98 1a d6 3c
       -0.0120575 0.016791407 0.014536669 0.026135728
0001d0 f3 09 9c 3b 0f 09 a8 3c 17 c2 08 3c 01 81 06 bb
       0.004761928 0.020512132 0.008347056 -0.002052367
0001e0 11 fe 38 3d 53 10 5a 3c c3 eb 70 3c 7c 63 d5 bb
       0.04516417 0.013309556 0.0147046475 -0.0065121036
0001f0 d6 7f 06 bd 3c dd 0f bc 81 72 af bc 64 b3 e7 bc
       -0.032836758 -0.008780774 -0.021416904 -0.028283782
000200 54 91 12 3c 71 6c 99 ba ab d0 ab 3c 98 f5 a0 3c
       0.008945782 -0.0011705292 0.020973524 0.019648358
000210 56 7a e4 bb a8 dc bb bb db be e4 bc 70 78 98 bc
       -0.0069725914 -0.0057330914 -0.027923038 -0.018612117
000220 23 64 5a bc 24 04 bb bb f9 dd 6e 3c 30 1e 93 3c
       -0.0133295385 -0.0057072807 0.01457929 0.01795873
000230 19 ae bd 39 01 03 a2 3c 69 f6 e9 ba 9c 64 d5 bb
       0.00036178602 0.019776823 -0.0017849925 -0.0065122377
000240 57 5b 64 3c e9 ac 82 bc df 67 26 bd f2 ef 91 bc
       0.013937793 -0.01595159 -0.040626403 -0.01781461
000250 3f fd ca bc 24 48 ad 3c 1a ce 22 bd 9c 05 9e bb
       -0.02477896 0.021152563 -0.039747335 -0.004822446
000260 2f f6 52 bc 06 86 8f 3b b2 59 a0 3c 9c 62 d9 ba
       -0.012876078 0.0043799905 0.01957402 -0.0016585174
000270 4d ff 3e bc 44 97 0c 3c 5e 7b bb 3b ca 6e ec bb
       -0.011657548 0.008580986 0.0057214936 -0.0072153555
000280 b5 ce 81 3c 85 e5 0a 3c 6a bd ba bc 5e a8 98 bc
       0.015845636 0.008477573 -0.022795398 -0.018634971
000290 17 a9 b0 bc d5 4c bd 3a 53 ed 18 3d 7a c3 82 ba
       -0.021565003 0.0014442453 0.037335705 -0.000997647
0002a0 a1 96 85 3c 25 f0 ae 3c f9 1d 36 bb 34 39 4a bb
       0.016307177 0.021354744 -0.0027788861 -0.003085685
0002b0 ab 29 76 bb 6a 91 c5 bc a6 f7 89 3c 2b a1 a2 bc
       -0.0037561457 -0.02411719 0.01684172 -0.019852242
0002c0 da 6c cd 3a 7e 11 a6 bc 98 2b ac b9 99 ba a3 3c
       0.0015672699 -0.020272013 -0.00032838876 0.019986438
0002d0 12 6b 22 bb a9 a2 57 3c 8c f4 87 bc 7a 23 5a bc
       -0.0024783057 0.01316134 -0.016596101 -0.013314122
0002e0 ef 88 87 3c 87 31 4a bd 53 1e 9c 3c a5 c6 6a 3c
       0.016544787 -0.04936364 0.019057428 0.014329587
0002f0 6c 41 0a bd f8 fc e2 bc b5 b1 e4 3c 36 54 2e bc
       -0.033753797 -0.027708516 0.027916769 -0.010640195
000300 bb 8e 40 3c e2 58 27 3d 81 2c a0 bc 68 6e 57 bc
       0.01175278 0.04085625 -0.019552471 -0.0131488815
000310 85 cf b8 bc 93 12 dd bb 71 99 56 3c 8b 09 fd bb
       -0.02255989 -0.006746599 0.013098107 -0.007722085
000320 9f e7 07 3c 25 74 2b bc 98 07 42 bc ec 7e 9d 3b
       0.008294969 -0.010464703 -0.011842631 0.00480639
000330 3c 85 a3 bc 2f fb 0b bb 30 ba a1 ba 71 ac 9d 3c
       -0.019960992 -0.0021359434 -0.0012338813 0.019247266
000340 fd 07 1c bb fc d8 08 3c c9 eb 23 3c fb 2a a8 bb
       -0.0023808472 0.008352514 0.010004946 -0.005132077
000350 74 b0 89 bc 03 15 2b 3c 87 5b c0 3b ae fe 7c 3b
       -0.016807772 0.010442021 0.005870286 0.003860395
000360 9e 68 ad 3c d0 45 ad 3b 79 67 45 bc 43 f4 23 bc
       0.02116805 0.0052878633 -0.012048596 -0.010006967
000370 06 12 08 bb 20 3a 4e 3c 57 6a 91 bc 51 f4 83 3c
       -0.0020762696 0.0125871 -0.017750902 0.01610771
000380 56 e7 05 3d 14 58 3c bc c2 b8 ae bc 30 01 02 bc
       0.032691322 -0.011495609 -0.021328334 -0.007934853
000390 0a 12 05 3d 1c 03 b0 3b d0 0b 7c 3b 65 f4 78 3b
       0.032487907 0.0053714644 0.003845919 0.0037987467
0003a0 94 2b ee 3c f1 38 bb bc a6 47 c1 bb 4d 88 af 39
       0.029073514 -0.0228543 -0.0058984337 0.00033480153
0003b0 ff ff 7a bc 74 13 57 3c 3b 45 f9 bb f1 a2 b1 3b
       -0.015319823 0.013127197 -0.00760713 0.0054210355
0003c0 4a 7a 6b 3b f0 4f 32 bc d7 83 c5 bc 21 e5 f0 3c
       0.0035931044 -0.010883316 -0.024110718 0.029406132
0003d0 83 33 c1 3c 4e 86 06 bc 06 06 e4 bb 69 81 46 bb
       0.023584133 -0.008210732 -0.006958726 -0.0030289537
0003e0 cc 8a 44 3c 33 f2 94 bc 3b 8d 3a 3c 99 06 02 3c
       0.011995982 -0.018181896 0.011386211 0.007936143
0003f0 50 a3 d1 3c fd 0a 06 bd 6c 1c 35 bd 5a 49 4c bc
       0.025590569 -0.032725323 -0.04421656 -0.01246866

action_model._discrete_distribution.branches.0.bias f4 [2]
000000 98 8e e6 bb 91 8e e6 3b
       -0.0070360415 0.007036038

action_model._discrete_distribution.branches.0.weight f4 [2, 128]
000000 7e 95 d2 3a 5a 36 56 3c 2e ae 9c bb 7c 2e e0 3b
       0.0016066281 0.013074482 -0.004781506 0.006841479
000010 1d 1c 8e bb a9 e7 37 bc 65 75 ff ba 75 f4 95 bb
       -0.0043368475 -0.011224666 -0.0019489942 -0.0045762607
000020 d5 e2 b7 3a bc 6a 8c bc d2 c6 bc bc 39 e7 9e 3c
       0.0014029393 -0.017140739 -0.023044024 0.019397365
000030 19 4c bc 3c 7a 41 21 bc e5 80 b3 bb 8d 59 05 bc
       0.022985505 -0.009842271 -0.005478012 -0.008139026
000040 51 b3 3e 3b d2 0c af 3b 89 69 da 3a f0 ed 5a 3a
       0.002909858 0.0053421045 0.0016663532 0.00083514955
000050 36 9e f1 ba 59 fd af 3b f7 6c 17 bc 35 1e 39 bc
       -0.0018433991 0.0053707776 -0.009242288 -0.011298706
000060 e9 bf 2c bc f7 26 08 3d bf ad 33 ba d6 4f 33 bb
       -0.010543802 0.033240285 -0.0006854198 -0.0027360818
000070 35 74 2b 3a dc c9 43 bc 0b 4e 59 3c c3 f2 84 bc
       0.00065404485 -0.0119499825 0.013263236 -0.016229039
000080 ff b0 87 bc b4 64 e0 3c 00 e1 18 3b 15 07 c5 bc
       -0.01656389 0.027391769 0.002332747 -0.024051229
000090 8b c8 07 3b ba 7a 8d bb cf 27 c5 bb 9b 7d ce 3b
       0.0020718898 -0.0043176087 -0.0060167084 0.0063015944
0000a0 97 02 c7 3b 48 1c c0 3b 1f cf 53 3c dc 2e 36 bc
       0.006073307 0.0058627464 0.0129277995 -0.011119571
0000b0 13 87 56 bb 56 a9 18 ba 41 dc 67 ba 94 ba 02 bc
       -0.003273432 -0.0005823573 -0.0008844771 -0.007979054
0000c0 aa b7 ef ba c1 5f 35 bc f1 a8 29 bc fc 37 35 bc
       -0.0018288989 -0.011070193 -0.01035522 -0.011060711
0000d0 3f 2e af bb 21 60 f6 bb f6 05 00 3a 2e 3d 29 3c
       -0.005346089 -0.0075187837 0.0004883701 0.010329528
0000e0 dc 5b 5b bc b6 77 f7 3b 24 f0 23 3b 9c 9d d4 3b
       -0.0133886 0.0075521125 0.002501496 0.006488515
0000f0 96 b0 89 39 27 54 49 bb 9b 26 4c 3c 0d 2a c5 3b
       0.00026262243 -0.0030720325 0.012460376 0.0060169757
000100 18 d3 1d 3b 70 fd 29 3c 45 c8 04 bc d4 a0 9d bc
       0.002408212 0.010375366 -0.008104389 -0.019241728
000110 b7 3d ed ba 58 a8 f7 3a 49 b5 a8 bc 88 46 39 3b
       -0.0018100057 0.0018894775 -0.020594256 0.00282708
000120 f6 87 b5 bc b8 6c b9 bc 6c 4a 80 bc 73 28 08 3c
       -0.022159558 -0.022634849 -0.015660487 0.008310425
000130 c5 71 be bc 5f 1a f5 bb 4d ca 38 bb ee b9 dd bb
       -0.023247609 -0.0074799503 -0.0028196753 -0.0067665493
000140 9e 05 05 3a 0c 16 a4 bb 40 b4 4f bc a5 2a ee bb
       0.00050743844 -0.005007511 -0.012677252 -0.007268267
000150 97 7b 5d 3b 50 6f 64 3b 55 48 e4 3b e4 7c 26 3b
       0.003379559 0.0034856386 0.0069666305 0.002540403
000160 8a b3 5d 3c 83 14 ff bc ec 93 27 bc d2 1d 41 bc
       0.013531575 -0.03113771 -0.010228138 -0.011786895
000170 ab 8a 0e bc 16 9c 1c bb 70 6e 01 3c 7f b3 9d bc
       -0.008700053 -0.0023896745 0.0078998655 -0.01925063
000180 bd 5d 8c 3c c0 f9 9c 3b cd b4 86 bc 25 07 ae 3c
       0.017134542 0.0047905147 -0.016443634 0.021243641
000190 18 44 86 3c dc 68 40 3b 24 59 37 3c 69 5e 97 3b
       0.016389892 0.0029359376 0.011190686 0.004619409
0001a0 0e 34 ab bb 27 4d f3 bb eb d5 5b 3c 78 cb e4 3b
       -0.0052247113 -0.0074249688 0.013417701 0.006982263
0001b0 5c 5d 15 bc 6a 9a 04 bc 87 7a d0 3b 3a 4e 6f 3b
       -0.009116497 -0.008093456 0.0063622626 0.0036515133
0001c0 32 bc 4f 3c c5 03 67 bb d8 90 18 3a 31 02 7f 3c
       0.012679147 -0.003525005 0.0005819923 0.015564487
0001d0 c2 04 3f 3b 07 a2 94 bb af df 7b bc 7d a2 a1 bb
       0.0029147123 -0.0045359167 -0.015373155 -0.0049327
0001e0 4a 7e b7 bc 11 59 91 3b 8d 15 23 3a 9d 5f 1b 3c
       -0.022399087 0.0044356664 0.0006221168 0.009483245
0001f0 ef 64 b6 ba f6 c6 ba bc 3b af 62 bc 9e 79 e5 3a
       -0.0013915579 -0.02279995 -0.0138357235 0.0017507558
000200 a5 fa 1c 3c 37 82 70 bc 21 9a 87 bb 5b cf b4 bb
       0.009581243 -0.014679483 -0.0041382466 -0.0055178828
000210 74 e7 fb 3b 02 62 85 3c 3d e3 70 3c ce 70 6d 3a
       0.0076875035 0.016282085 0.014702615 0.0009057642
000220 52 28 bf bb 1b 5f 80 bc 90 88 55 3b ee 84 95 bc
       -0.005833664 -0.01567035 0.0032582618 -0.018251862
000230 f6 1c 02 bb 68 7a f3 3b 27 a0 f3 bb 44 e2 77 3c
       -0.0019853688 0.0074303634 -0.007434863 0.0151296295
000240 69 37 9f 3b 6c 2e aa 3b fe 96 ca bb 6f 14 2d 3c
       0.0048589003 0.005193522 -0.0061825505 0.010563954
000250 32 b3 4b 3b 8c 7c da 3a 9d cc 8f 3b 1e 06 93 3c
       0.003108215 0.0016669198 0.0043884055 0.017947253
000260 99 ef 3f 38 d6 bd 9f bc ca 99 2f 3c a5 e4 ab bb
       4.576109e-05 -0.0194997 0.0107178185 -0.0052457624
000270 e4 f7 b4 3b c6 7a 10 3c c4 f1 6c 3a 22 2b c0 bb
       0.005522715 0.008818334 0.00090387114 -0.005864517
000280 21 fe fe 3b dc 87 96 bb ab d5 0a 3b 10 db 47 3b
       0.0077817594 -0.0045938324 0.0021184485 0.0030495562
000290 c9 e5 9a bc 39 29 8b 3c c0 b3 9f bc ac 9a 16 bb
       -0.018908398 0.01698743 -0.019494891 -0.0022980375
0002a0 df 3e 9e 3b c5 5b 29 3c 3f 32 3e 3b e1 e6 33 3c
       0.004829272 0.010336821 0.0029021648 0.010980339
0002b0 07 86 2b 3c 60 32 97 3c 2d 2a 2b 3c 24 c9 fb 3b
       0.010468966 0.018456638 0.010447067 0.00768389
0002c0 a6 e5 e2 bb 8d d4 ac 3b 7b ee 2e 3c 30 d8 e3 3b
       -0.006924349 0.0052743615 0.010676975 0.006953262
0002d0 3b 9d f8 3b 18 69 47 bc 91 f9 30 bc da 81 1c bc
       0.0075871027 -0.012171052 -0.010801689 -0.009552443
0002e0 77 ea 16 3c 51 f9 a0 3b 12 1c 53 bc b6 36 6c bc
       0.009211174 0.0049125333 -0.01288511 -0.014417341
0002f0 6d 9b a8 3b 6f 36 88 3c 5b c7 b6 bc ca 66 51 3b
       0.0051454813 0.016627518 -0.022311857 0.0031952136
000300 5f cd 46 3c 44 9c 82 bb 9a fa c1 bb 0c 2d 74 3c
       0.012133925 -0.0039859135 -0.0059197666 0.014903318
000310 cb 26 91 bb e0 db a8 bc 21 31 6e bc 56 b8 5a 3b
       -0.0044296733 -0.020612657 -0.01453808 0.0033374033
000320 fe c1 dd bb c3 10 13 3c d8 8e 0f 3c a4 9b e8 3b
       -0.0067675104 0.008976164 0.008762084 0.007098632
000330 a0 8f 93 3c 7d b7 12 3d df eb 52 ba 44 f8 cc 3c
       0.018012822 0.03581952 -0.0008046012 0.025020726
000340 58 3d e6 bc be ca 3d 3c 39 04 f7 3b f4 80 28 3b
       -0.028105423 0.011583982 0.007538345 0.0025711628
000350 6a d2 64 bb eb f7 a7 bc 00 86 7d bb cf 9b e8 bc
       -0.0034915456 -0.020503959 -0.0038684607 -0.028394608
000360 cd 3b 04 bb 13 74 fc 3b 1d bc a3 3c 48 3e 7a bc
       -0.0020177246 0.007704267 0.01998716 -0.015273638
000370 7e 69 6e 3a 98 3d 01 3c a3 c6 d9 3b 5b a5 25 bc
       0.0009094699 0.00788822 0.006645994 -0.010110225
000380 af 18 5d bc 7a 89 da 3b f0 90 41 3c ef 3b 13 bb
       -0.013494655 0.0066692205 0.011814341 -0.0022466143
000390 1e 6b 97 bc b6 4e f4 3b ce 2e 4b bc cf 42 59 bb
       -0.018483695 0.007455672 -0.012401296 -0.0033151393
0003a0 5b 9c b8 3b ee 4b 4c b7 dd 0a 54 3c 77 2a 66 bc
       0.0056338734 -1.2177026e-05 0.012942043 -0.01404821
0003b0 ff 19 f7 3a d4 21 f0 bb d0 0b 9b 3c be 56 95 bc
       0.0018852352 -0.0073282514 0.018926531 -0.018229838
0003c0 36 94 89 bc c7 45 b3 3c fc c0 e8 bb b4 bb 38 bb
       -0.016794305 0.021883858 -0.0071030837 -0.0028188052
0003d0 b0 5a e7 bb 71 5e 6a ba 36 77 bc 3c 6d b2 23 bc
       -0.0070603713 -0.00089404645 0.023006063 -0.0099912705
0003e0 62 64 a1 3c c6 5a 17 bb ac 1e 20 bc 33 82 08 bc
       0.019701187 -0.0023094877 -0.009772938 -0.008331823
0003f0 29 10 db bb 29 21 b8 bb 6d 82 56 3c 4a 8a 46 3c
       -0.006685276 -0.0056191874 0.013092619 0.012117932

network_body.linear_encoder.seq_layers.0.bias f4 [128]
000000 f8 c7 c9 bb e8 d0 f6 ba 88 cf 3f bb f1 7b 11 bb
       -0.0061578713 -0.001883057 -0.0029267985 -0.002219912
000010 fb fa ef 3b 4f 1e 51 bb 6a aa 88 bb 4f 4f 27 3c
       0.0073236204 -0.0031908934 -0.0041707056 0.01021178
000020 0c d5 55 bc 65 e5 51 3a a7 f3 b4 38 18 7e dd 3b
       -0.013051283 0.00080069 8.6284526e-05 0.0067594163
000030 ca 6d d9 bb 7a a0 88 3b 89 a4 c5 3b d0 1a 42 ba
       -0.0066354023 0.004169521 0.006031577 -0.0007404508
000040 1c 7f 96 bc fb c9 1c 3a 1a 74 b5 3b d5 25 27 3c
       -0.018371157 0.0005981025 0.005537522 0.010201891
000050 d7 d6 c8 b9 c4 64 31 bc c7 5c 0b 3b 98 18 f0 ba
       -0.0003830704 -0.010827247 0.0021265016 -0.0018317876
000060 7e 38 35 3c bb 87 a9 3b 1d 28 b0 bb 39 0f 79 3b
       0.011060832 0.005173651 -0.0053758756 0.0038003458
000070 e2 49 9b bb cd 22 02 bb a7 13 45 bc cf 3a 25 bc
       -0.004739032 -0.0019857169 -0.012028611 -0.010084822
000080 8e 1a dd bb 71 f4 de bb 16 e3 a2 bb 42 38 8f 3b
       -0.0067475503 -0.006804042 -0.0049709184 0.00437072
000090 ca 32 17 bc f8 c2 94 bb 6c a1 56 bb e4 eb d1 3b
       -0.009228418 -0.0045398436 -0.0032750024 0.006406294
0000a0 2f 8a 19 bb 71 28 6f bb 95 77 1a 3b 5d 39 8e 3b
       -0.002342831 -0.003649261 0.0023569812 0.0043403343
0000b0 59 29 10 3b 93 8a 27 ba e6 c1 f4 3b fa b9 72 ba
       0.0021997301 -0.00063911936 0.0074694036 -0.000925928
0000c0 85 37 86 b9 68 f1 0c bb 09 73 ce ba 3a 88 a0 3a
       -0.00025599837 -0.0021506194 -0.0015750836 0.001224763
0000d0 cb 29 9b ba 38 2d cd bb 38 1d 57 bb 80 10 d7 bb
       -0.0011838017 -0.006261494 -0.0032823812 -0.0065632463
0000e0 a6 4a 8f 3a 38 b3 28 bc 49 77 3d 3b 6e f9 ae 3b
       0.0010932281 -0.010296635 0.002891021 0.005339793
0000f0 3c b6 ea ba e4 16 f2 3b 22 64 01 3b 25 2f a0 bb
       -0.0017907093 0.0073879827 0.0019743522 -0.0048884326
000100 b6 74 df bb 5e 13 69 ba c9 d0 0d 3b 59 25 78 bb
       -0.006819333 -0.00088911306 0.0021639338 -0.0037864058
000110 91 ae f9 39 1f 84 50 bc 3d 76 26 bc aa 3d d9 3b
       0.00047623043 -0.012726813 -0.010160026 0.0066296654
000120 5f 98 2c bb db 6a 02 bb 4e d9 99 ba 3e f0 86 39
       -0.0026335937 -0.0019900117 -0.0011737735 0.00025737466
000130 a1 3d b8 3b da 0e 3b bc 0c c4 47 3b 1e 95 fc 39
       0.005622581 -0.011417115 0.0030481843 0.00048176287
000140 dc 9a ca 3b 26 32 a4 3b c1 e8 cf 3b da c2 00 bc
       0.0061830115 0.005010861 0.006344885 -0.007858956
000150 3a dc 11 39 40 17 81 3b d7 12 20 bb 19 67 4e ba
       0.00013910318 0.003939539 -0.0024425292 -0.0007873639
000160 8b 2e 5a bb ab bd 23 3b d2 52 07 bb 4a e8 fc ba
       -0.0033291902 0.0024984877 -0.002064873 -0.0019295302
000170 be 0f 5e bb d2 31 02 bc 14 54 1d bb 2e b1 a4 3b
       -0.0033883895 -0.007946448 -0.0024006413 0.0050260043
000180 f0 62 dc bb e3 31 a3 3b 91 6c bd 3b 3b d0 87 3a
       -0.0067256615 0.004980312 0.0057807644 0.001036174
000190 2e e1 1e 3b c7 e0 86 ba 4e c9 dd ba 46 57 b0 ba
       0.0024243104 -0.0010290378 -0.0016920955 -0.0013453744
0001a0 e5 b6 c0 bb 33 8e 68 bb 4d 39 38 3b d3 5c a8 bb
       -0.0058811777 -0.0035485148 0.0028110326 -0.0051380186
0001b0 6c 9e 07 3b 79 55 ee 3b f2 52 94 3a 51 11 04 3a
       0.0020693792 0.0072733727 0.0011316224 0.0005037981
0001c0 c2 ce c1 b9 03 6d 1d ba 7c 35 e7 3a a3 15 66 bb
       -0.00036965875 -0.0006005319 0.0017639841 -0.0035108111
0001d0 98 46 e3 bb 3b d1 93 3a 3c 98 1f bb 64 9b 11 3c
       -0.0069359057 0.0011277565 -0.0024352213 0.008887146
0001e0 28 d1 16 bb 8e dd 8a 3b 29 b7 06 b9 eb fc 1a 3b
       -0.002301285 0.004237837 -0.00012847468 0.0023649286
0001f0 e1 ec b2 38 a5 c6 12 bc 39 8a 06 bc 23 55 bc 3a
       8.5318236e-05 -0.008958493 -0.008211666 0.0014368634

network_body.linear_encoder.seq_layers.0.weight f4 [128, 6]
000000 3a 40 26 be 64 5c 52 be 4e 70 77 3f ef 8f 3b be
       -0.16235438 -0.20543057 0.9665574 -0.18316625
000010 d5 78 c8 be 4a 49 0d 3e eb d3 3a be 8f 2a 45 3f
       -0.39154688 0.13797489 -0.18244903 0.77018064
000020 14 a3 8e be 81 05 2b 3d 6a c1 de bc 3c 80 0b bf
       -0.27858794 0.041753296 -0.027191836 -0.54492545
000030 64 d4 35 3f f4 ff c3 be fa 2f e0 3c 1e d7 aa 3e
       0.7102721 -0.38281214 0.027366627 0.33367246
000040 23 7a 6e 3d 5b ea ca be cf c5 9d 3e 8d f3 d7 bd
       0.058221947 -0.39631924 0.30814978 -0.105445005
000050 5f cf 64 3d 96 0d 0a bd 91 ff 7f bd 74 e3 ff 3d
       0.055861827 -0.033704363 -0.062499586 0.12494555
000060 4c 5e dd 3e cc 04 14 bf da cc c7 bd 63 07 4a be
       0.43236005 -0.5781982 -0.09755869 -0.1972938
000070 da c4 a6 3e ad 79 22 3e 36 7f 3b be 10 73 35 bc
       0.3257206 0.15866728 -0.18310246 -0.011074796
000080 48 82 70 bf 31 40 bc 3e b2 8e 19 bd 8a a1 10 3f
       -0.93948793 0.36767724 -0.0374896 0.5649649
000090 15 b4 d2 3d 91 dd 7e 3e b7 e4 b7 3b 79 28 65 be
       0.10288254 0.24889208 0.0056119817 -0.2237872
0000a0 3a ea af 3d ea 34 1f 3f 37 a9 fe be fd 67 d0 bd
       0.08589597 0.62190115 -0.49738476 -0.10176084
0000b0 9b 73 f0 3b 7b cd ce be 67 4a f1 be c9 9a c3 be
       0.007338 -0.40391144 -0.47127077 -0.3820403
0000c0 1d bc 27 3f e2 36 6a be 79 bf 60 bd 58 56 03 be
       0.65521413 -0.22872499 -0.054870103 -0.12825906
0000d0 8d f7 00 3f cb 85 a6 bd 09 a3 9a be 0c ca 27 3e
       0.5037773 -0.08130988 -0.3020251 0.16385669
0000e0 ed fb a9 be 18 a9 ea be e5 e1 0a 3f d4 3b d6 bd
       -0.33200017 -0.45832133 0.5425094 -0.1046063
0000f0 1a 75 d0 3e 9f 78 2a 3f 20 8c 01 bc 07 de fd be
       0.4071434 0.66590303 -0.007906944 -0.49583456
000100 41 3c af 3e 42 73 ef be 3a 28 3c 3f 59 64 2a 3f
       0.34225658 -0.46767622 0.7349888 0.6655937
000110 86 df 34 bf 1e ab 22 bc c0 a4 71 3e c6 d6 32 bd
       -0.7065357 -0.009928493 0.23598003 -0.043661855
000120 20 7f 05 3f 6e 5b 48 be 58 44 92 3e 79 35 a5 bb
       0.521471 -0.19566128 0.28567767 -0.005041775
000130 d3 82 da 3e 76 2d 1c bf c2 a9 10 bf a9 4c fc 3d
       0.42677936 -0.6100687 -0.5650903 0.12319309
000140 b7 b9 9d bd 14 67 64 be 2b c1 87 3d b4 04 84 bd
       -0.07701438 -0.22304946 0.06628641 -0.064462095
000150 04 b0 83 be 19 43 6e 3e 1e 0d c1 be 17 a0 3f be
       -0.25720227 0.23267783 -0.3770532 -0.18713413
000160 46 5c 53 3e 61 00 c3 3d 59 6e 10 bf 50 b2 27 3f
       0.20640668 0.09521557 -0.5641838 0.6550646
000170 2b 55 14 bf 74 65 ac 3e 75 3b a8 bc 59 70 35 be
       -0.57942456 0.33671153 -0.020536164 -0.17718638
000180 a6 0a 85 3e 44 cc b4 3e 80 29 e5 be 85 16 30 3f
       0.25984687 0.35312092 -0.44758224 0.6878436
000190 da fd c7 be 2a fa bb 3e 61 cc 8a be 94 a3 b1 3e
       -0.3906086 0.36714298 -0.27109054 0.34695113
0001a0 73 52 ff be 79 c8 33 3e fd e2 d3 3d 2d 28 50 be
       -0.4986759 0.17556943 0.10346029 -0.20327826
0001b0 39 ed 47 bf fc 39 26 bf b5 b8 be 3e 88 9a 8a 3e
       -0.7809635 -0.6493223 0.37250295 0.27071023
0001c0 fb e2 ae be 90 9a 02 3e f7 f3 02 bf 0d 20 52 be
       -0.34157547 0.12754273 -0.5115351 -0.20520039
0001d0 ac 13 94 3e dd 08 f5 be 4a 36 29 3f df 52 fa bc
       0.28921258 -0.47858325 0.66098464 -0.030557094
0001e0 61 87 c3 3e 82 4e cc 3e f7 cc 01 3f c5 b3 76 be
       0.38189223 0.39903647 0.50703377 -0.24092014
0001f0 f7 2c d1 be b0 25 19 3f b1 9e 6f bf cc e5 7a be
       -0.40854618 0.5982313 -0.9360152 -0.24501723
000200 a5 9c 48 3f 16 8a 3f bf f3 c0 0d bf f0 5c 60 be
       0.7836402 -0.7482008 -0.5537254 -0.21910453
000210 bd ee 9a be ee e5 64 3e 89 a1 2a bf 43 27 4c 3d
       -0.30260268 0.22353336 -0.66652733 0.04984213
000220 1a ca 83 3e fd 17 8d be 07 2c 4e 3f 55 27 14 be
       0.2574013 -0.27557364 0.8053593 -0.14468129
000230 a1 6c 12 bf 17 e0 94 3e c4 93 a7 3e 0d c5 dd bd
       -0.57197005 0.29077217 0.32729924 -0.108286
000240 fc 01 d6 bd 64 fa b6 bd 48 fb 3c bf 5e cd b5 3c
       -0.10449597 -0.08934477 -0.73820925 0.022192653
000250 85 52 b3 be 76 54 84 be 33 ae 98 be da 29 02 3f
       -0.35023895 -0.2584569 -0.29820403 0.5084511
000260 b9 f7 d9 bd 7c 6a 08 be e8 19 19 bd 76 6a a1 3d
       -0.106429525 -0.1332187 -0.03737822 0.07881634
000270 e0 1d 70 3e f9 92 ac 3d 8c ea 48 bd f7 fb 5c 3f
       0.23448896 0.0842647 -0.049051806 0.8632197
000280 e2 1f 91 bc 64 a7 ef 3e 2b b9 5f be d0 1c 48 bf
       -0.017715398 0.46807396 -0.2184798 -0.78168964
000290 6e b8 de 3b b3 8e 9e bc ff 44 f6 3c c8 1b 61 3f
       0.006796888 -0.019355154 0.030062197 0.87933016
0002a0 77 fc 6e 3e 45 ac 2c be 5f c9 bd be 64 50 34 bf
       0.23338495 -0.1686259 -0.37067696 -0.70435166
0002b0 89 30 00 3e 56 ab 05 be 4c db 1c be c8 00 62 bd
       0.12518515 -0.1305364 -0.1531803 -0.055176526
0002c0 bf 0a 15 3e 34 10 1a 3e 50 ab 16 3e e6 94 bf be
       0.1455488 0.15045244 0.14713788 -0.37418288
0002d0 4e ae b0 3d 3a d9 ba be 18 c0 98 3e 82 30 1d 3e
       0.08626996 -0.36493856 0.29834056 0.15350536
0002e0 ba 76 a1 bd f8 59 a4 be ed 12 a2 3e 23 15 b1 3e
       -0.078839734 -0.3209989 0.31655064 0.3458644
0002f0 50 62 d0 be fd 53 a2 3e f5 84 fb be 72 31 be be
       -0.40700006 0.31704703 -0.49124876 -0.371471
000300 a5 b3 e5 3e 5b 1e 61 3e 8b 46 8a 3f 21 c2 ab 3e
       0.4486362 0.21984236 1.0802778 0.33546546
000310 7f 5a 8e bd 90 15 3a 3e 48 c1 84 3d ac 9a bd 3e
       -0.069508545 0.18172288 0.06482178 0.37032068
000320 c2 f5 85 3f 6d 34 33 bc 5c 6f e7 3d ed 17 b5 be
       1.0465624 -0.010937792 0.11300537 -0.35369816
000330 6e 7b 6c bd 1c 25 fc 3d ac 33 82 3d ed 87 d6 3b
       -0.0577349 0.123117656 0.06357512 0.0065469653
000340 85 8a 67 3d 51 66 29 3f 71 d6 07 3f da 1e d7 be
       0.056528587 0.6617175 0.53061587 -0.42015725
000350 b2 b7 19 bd dc be de be 7d 7c e1 be 22 1a 2d bf
       -0.0375287 -0.4350499 -0.4404029 -0.67618
000360 5f 6a b8 3e f6 8c 0f 3e 57 e3 f4 be 5d 58 1f 3e
       0.36018655 0.14018616 -0.47829697 0.15561052
000370 54 73 94 be ad f0 1a 3f 44 99 47 bc 1a db 77 3e
       -0.28994238 0.6052349 -0.0121825375 0.24204674
000380 93 64 b5 be cd 9c 16 3d 0b 6f 21 3e 23 38 00 bd
       -0.35428295 0.03677063 0.15765016 -0.031303536
000390 8d 47 d5 be 45 25 26 be ba 98 e8 bd 4b 8e 51 bc
       -0.4165615 -0.16225155 -0.11357255 -0.012790273
0003a0 08 b8 01 be 79 75 10 3f 01 6d 76 be 89 a2 c7 3e
       -0.12667859 0.5642925 -0.24065019 0.38991192
0003b0 94 dc b1 3e f4 b9 e4 be c6 04 2a bf 67 99 80 3e
       0.347386 -0.4467312 -0.66413534 0.25117037
0003c0 e3 61 21 3e 43 13 ec 3e 23 c1 5b 3f 85 c5 fc bd
       0.15759997 0.46108446 0.8584158 -0.12342361
0003d0 35 d7 b8 3e e4 f7 a5 3d 3d d7 85 be be c5 4f 3e
       0.3610169 0.08103922 -0.26140776 0.20290276
0003e0 4f 11 06 bf 5e 88 f7 3e 62 f1 e2 3d 78 be 77 be
       -0.5237016 0.48346227 0.11081196 -0.24193752
0003f0 60 d1 83 be be cf 9e 3f 3d 6c 08 bd c4 64 d5 be
       -0.25745678 1.2407148 -0.03330635 -0.4167844

network_body.linear_encoder.seq_layers.2.bias f4 [128]
000000 ba c4 b3 bb d2 f9 d7 ba 7e ed 7a bb e2 8a 40 3a
       -0.005486098 -0.001647765 -0.003828853 0.0007344914
000010 00 a6 52 3a 29 47 0b ba 25 ce 1a 3b 0a b3 6d bb
       0.00080356 -0.0005313033 0.0023621407 -0.0036270046
000020 fe 1a 3c 3b c5 47 09 3b c8 d1 d6 bb 3c 75 ca 3a
       0.0028702612 0.002094732 -0.0065557696 0.0015446316
000030 57 8e 86 3a 80 ae 0e bb e9 fa 91 bc 23 a7 be 3b
       0.0010265809 -0.002177149 -0.017819839 0.005818264
000040 a1 71 58 bb 77 98 2c bb 7c 26 ed ba c5 c8 94 3b
       -0.0033026712 -0.0026335993 -0.0018093134 0.004540535
000050 78 51 cf 38 60 37 aa bb ad fb 59 3b 17 4c 28 3b
       9.885704e-05 -0.0051945895 0.0033261583 0.0025680119
000060 0d 97 86 3a 20 e6 8f bb 90 49 8f b7 63 d6 d1 ba
       0.0010268405 -0.0043914467 -1.7081184e-05 -0.0016009327
000070 5b b1 20 3b a5 dc b5 bb e3 fe b7 bb cd 61 da 3a
       0.0024519775 -0.0055499845 -0.0056151017 0.0016661227
000080 e6 69 58 bb ac 12 39 bb 9b 60 39 3b d5 03 10 3c
       -0.0033022105 -0.002823989 0.002828634 0.008789976
000090 e0 e1 22 b9 66 8b ef ba a7 43 07 3b 63 f5 53 3a
       -0.00015533669 -0.0018275797 0.002063969 0.00080855767
0000a0 88 cb fc ba cf 72 1a bb dd 0c b2 3b 13 3e 2c bb
       -0.0019286731 -0.0023566966 0.0054336623 -0.0026282116
0000b0 63 97 ec 3a 9a 83 80 3b 71 ad 5f bb 48 f3 cd ba
       0.0018050488 0.003921938 -0.0034130479 -0.0015712762
0000c0 23 76 16 ba 57 1f 9a ba 0c 33 ad 3b cc 46 26 3a
       -0.00057396496 -0.0011758608 0.0052856263 0.0006342947
0000d0 eb 2c 36 bb 6f be 51 b9 37 aa d7 ba 48 55 8b bb
       -0.002779777 -0.00020002735 -0.0016453926 -0.0042521097
0000e0 36 d0 60 3b 42 9e 03 bb 47 87 2f 3b 7f 80 7c ba
       0.003430379 -0.0020083343 0.0026783512 -0.00096321845
0000f0 f5 8e 4b 3a b5 b3 f3 ba da c0 35 3b 8a 55 81 bb
       0.00077651377 -0.0018592986 0.0027733357 -0.0039469646
000100 72 b5 19 bb 61 f4 5b 3b 0c 82 97 3a 26 16 ce 39
       -0.0023454097 0.003356241 0.0011559143 0.00039307884
000110 55 a6 09 3a ab 1d a7 bb 3b 03 09 bc 25 15 ee ba
       0.00052509207 -0.0050999722 -0.008362587 -0.001816426
000120 d0 d3 66 bb 43 04 56 3c 81 c9 0d 3c 2c e1 00 bb
       -0.0035221465 0.0130625395 0.008653999 -0.0019665463
000130 14 a9 16 3c 6c d5 c7 3b 08 32 a3 3b 98 1e 4e 3b
       0.009195585 0.00609844 0.0049803294 0.003145134
000140 48 6c 9d ba 50 8c 3a 3a fb b2 63 ba 0e 0b 18 bb
       -0.001201042 0.0007116245 -0.0008686033 -0.0023199948
000150 08 71 86 b9 df b7 5c bb 4e 06 80 bb 83 9f 87 ba
       -0.00025642687 -0.0033678932 -0.0039070016 -0.0010347221
000160 ed 52 28 bb 7a c1 11 3b c7 31 9c 3b ba d6 3e ba
       -0.0025684193 0.0022240565 0.004766676 -0.00072799216
000170 2c 9d 86 3b c8 60 bf b9 da 82 94 3b 3d 15 e3 b9
       0.004108092 -0.00036502467 0.0045322003 -0.00043312638
000180 ac 7a 56 3b 7f 7f 83 bb 5f 46 ec 3a e0 a1 98 ba
       0.0032726927 -0.0040130015 0.0018026343 -0.0011644922
000190 c4 ef c8 ba 8f f3 f7 bb 9f dc b1 3b 73 8f 15 3b
       -0.0015330245 -0.0075668762 0.0054279114 0.0022821098
0001a0 6c 09 68 bb 76 df 90 bb 74 7d 94 3a 31 76 6f bb
       -0.0035406007 -0.00442117 0.0011328892 -0.0036538953
0001b0 72 59 ae ba a8 72 c2 bb 5d e9 bc bb ab be 95 3a
       -0.0013301803 -0.0059340782 -0.0057651238 0.0011424621
0001c0 a6 2d 06 bc 64 b3 e3 3b 86 ce 0b 3a 0c 92 47 bb
       -0.008189594 0.0069488753 0.00053332036 -0.003045204
0001d0 08 60 14 bb 06 7b af 3b 17 c7 f1 3b dc be 30 bc
       -0.0022640247 0.0053552417 0.0073784697 -0.010787692
0001e0 03 79 81 3b 72 a1 7c b9 a2 00 96 3a 0f a3 a1 bb
       0.0039511933 -0.00024092736 0.001144428 -0.004932768
0001f0 60 0f 0e 3c 5e 08 4c 39 67 2c 29 3b df 77 69 ba
       0.008670658 0.00019458073 0.002581382 -0.0008906107

network_body.linear_encoder.seq_layers.2.weight f4 [128, 128]
000000 cf aa fa 3d 09 15 3a 3d fe a3 27 be 7a 9c 48 3e
       0.122396104 0.045430217 -0.16371152 0.19590941
000010 c6 ce 29 3d d7 c8 1c 3e 06 c5 09 be 3a f8 a8 bc
       0.04145696 0.1531099 -0.13454065 -0.020626176
000020 fe ea af 3d 8f b7 2d 3e 29 d1 aa bc 78 11 03 3e
       0.08589743 0.16964553 -0.020851688 0.12799633
000030 85 db ba 3c 2e 01 33 3c e1 91 c0 bd 04 7c fa 3d
       0.022809753 0.010925574 -0.09402824 0.12230685
000040 c8 a4 de 3c 86 d4 45 3e fa 82 82 3a b2 90 b7 3c
       0.027178183 0.19319353 0.0009957247 0.022407863
000050 c0 cd c4 3c 87 9f ab bd 0f 27 ea bd e5 bf 58 bd
       0.02402389 -0.08380037 -0.11433231 -0.05291738
000060 9a 77 0c 3e 70 12 4f 3d ae f1 57 3d 55 5a 38 3d
       0.137175 0.050554693 0.052720718 0.045008022
000070 03 5e eb 3d 8a 42 e0 3d 52 9a 24 3e 71 a5 64 3e
       0.11492541 0.10950191 0.16074494 0.22328736
000080 ca 28 8d bd 4f 0d 35 3e 69 39 9b 3d 14 66 6e bc
       -0.068925455 0.17680858 0.075793095 -0.0145507045
000090 ad 01 59 3d 20 76 dc 3d 51 cd 46 3d c4 dd 38 3d
       0.052980114 0.10764718 0.04853565 0.045133367
0000a0 d9 f4 2f 3e 79 cf 3c 3e 24 73 87 3d 23 ef 36 bd
       0.17183246 0.1843852 0.06613758 -0.044661652
0000b0 19 64 0b 3d b3 25 93 bd 29 72 81 3c 07 e2 5a 3d
       0.034031007 -0.07184925 0.015801506 0.053438213
0000c0 17 de 16 3d a1 a6 3a 3e 09 b6 ac bd c3 84 17 be
       0.036832895 0.18227626 -0.08433158 -0.14796738
0000d0 ec c1 e4 3c b7 12 f6 bb bf cf ef 3d d9 93 31 bd
       0.0279245 -0.007509555 0.11709546 -0.04335389
0000e0 9c 73 ca bb dd aa 05 bd bb ca 2d bd dd 92 a8 3d
       -0.0061783325 -0.03263365 -0.042429667 0.08231137
0000f0 ca 35 b3 bd 8f 94 9c bd c4 91 3b 3e 8d 82 bd bd
       -0.08750494 -0.07645523 0.18317324 -0.09253416
000100 d1 c6 00 3d a9 b9 6a bd e4 90 f2 bd 8a 78 bb 3d
       0.031439606 -0.057305966 -0.11844042 0.091538504
000110 40 39 84 bd 0b 91 8b 3d 62 fb ec 3d 01 16 51 bd
       -0.06456232 0.06814774 0.11571385 -0.051046375
000120 ff 06 23 bd cf e9 96 3d 91 d6 14 be eb 43 24 be
       -0.039801594 0.07368814 -0.14534976 -0.16041534
000130 8d 5e 1b 3d 8e ba 29 38 45 8b 19 3d 99 0a 61 bd
       0.037931968 4.0466482e-05 0.037486333 -0.054941747
000140 69 e9 39 3d 8e 02 8b bd cf df 99 b9 11 88 d7 3d
       0.045388613 -0.06787597 -0.00029349184 0.105239995
000150 ac d0 8e bd 7d 7c 59 be 46 c8 cd bd 0d d9 c9 3c
       -0.06973395 -0.21238895 -0.10047965 0.02463963
000160 82 19 73 b8 cf 6c ab 3c 6d 00 82 3d 8b 59 2c 3e
       -5.795947e-05 0.020925907 0.063477375 0.16831033
000170 d8 c7 e7 bd ed 28 6a 3c 72 76 3e 3d 5d 09 56 3e
       -0.11317414 0.014291984 0.046499677 0.2090201
000180 95 22 8c bd 49 2b fe bc d8 33 2c 3c 66 27 1b 3e
       -0.068425335 -0.0310265 0.010510407 0.15151748
000190 9b e0 30 bd f9 92 99 3d 14 10 a1 bb a4 ca 07 be
       -0.04318295 0.07498736 -0.0049152467 -0.13260895
0001a0 f3 81 54 3d fc d8 23 bd 89 0e 1c 3e e5 8b 9e 3c
       0.05188174 -0.040001854 0.1523992 0.019353816
0001b0 7d c9 0f 3d 2a 53 62 bc 2d 84 93 3d b2 88 ba 3c
       0.035104264 -0.013813773 0.07202945 0.02277026
0001c0 41 a1 ed bd 98 b4 a3 bd 4f 0d 3a 3e 67 0b 24 bc
       -0.11603022 -0.0799343 0.1816914 -0.010012484
0001d0 33 6e 7a 3d 31 9d 5e bc 3d 62 16 3e 06 52 6e bd
       0.06114025 -0.013587282 0.14685912 -0.058183692
0001e0 3c 90 56 3d 4b 80 cf 3d b2 37 3c bd 28 01 46 bc
       0.052383646 0.10131892 -0.045951553 -0.012085237
0001f0 50 c5 63 3a 6e db e3 3d 07 6f 25 3e 1e 1a 45 bd
       0.00086887646 0.11125837 0.16155635 -0.04812061
000200 3c 91 89 bd 87 ef f3 bd 7d f0 dc 3d f0 ee ec 3d
       -0.067171544 -0.119109206 0.10788057 0.11569011
000210 e9 33 86 3d 92 b8 96 3d fa b5 46 3e 6b 50 b7 bd
       0.0655287 0.07359423 0.19405356 -0.089508854
000220 59 35 77 bd 80 25 60 be 8a b7 3a 3d b8 32 3c 3d
       -0.06035361 -0.21889305 0.045585193 0.045946807
000230 0f 26 46 bd 49 fc 0d be 09 2c 5f bc e7 45 70 bd
       -0.04837614 -0.1386577 -0.013621339 -0.058660414
000240 b9 d0 a6 3d 7f fa 5a 3d ba b3 73 bd 6f 15 1c bd
       0.081452794 0.053461548 -0.059497572 -0.03810638
000250 4b 0d 1c be fa bc 93 bc b5 84 11 be 3c ca ed 3d
       -0.15239446 -0.018034447 -0.1421078 0.11610839
000260 79 60 90 3d c4 80 0a be aa 40 b7 3d 83 a0 8b 3c
       0.07049651 -0.13525683 0.089478806 0.017044311
000270 29 e9 07 3e 93 81 22 3d 7d 7e 4d bd d1 ae 94 bd
       0.13272537 0.039674353 -0.050169457 -0.07259906
000280 94 b5 48 bd d6 b6 9c 3c c0 49 04 3e 7c d2 23 3e
       -0.04900129 0.019130152 0.12918758 0.15998262
000290 42 bd fb 3c a4 71 c3 3c 4f d7 04 3e 23 be 44 3c
       0.030729894 0.023857899 0.12972759 0.012008223
0002a0 58 f1 2c 3d b0 83 0e be 63 3a 94 bd e3 5f c6 b9
       0.04222235 -0.13917422 -0.07237699 -0.00037836944
0002b0 57 fe b3 3d 2e 37 1d 3e a8 d1 d5 3d 44 57 d3 3d
       0.08788746 0.1535308 0.104403794 0.10319379
0002c0 ff 3c f8 bc 17 79 91 3c 20 34 be bd f5 85 fc bc
       -0.030302523 0.017757935 -0.09287286 -0.030825594
0002d0 7a dc 0d be ba 20 8c 3d b3 dc d0 3d 09 49 c7 bd
       -0.13853636 0.068421796 0.10198345 -0.09730727
0002e0 ff 02 6a 3d 9b 32 51 be 91 21 72 3c 53 20 01 3d
       0.057131764 -0.2042946 0.014778511 0.031524967
0002f0 f8 1f f2 3d e2 60 2c 3e f2 72 94 3d 45 d0 19 bc
       0.11822504 0.16833833 0.072484866 -0.009388034
000300 16 86 87 3d 6e a7 2b be 81 3f 27 be 7e da b0 bd
       0.06617372 -0.16763088 -0.16332819 -0.08635424
000310 60 de 54 bc aa 05 3b be a2 94 9f 3d da 9a 7c 3d
       -0.012992471 -0.1826388 0.07792021 0.061671115
000320 24 62 aa bc 31 f4 80 3c b8 2f ab 3c e5 36 8e bd
       -0.02079875 0.01574144 0.020896778 -0.06944064
000330 85 28 3a 3d 80 d0 a0 bc cd 10 f7 bd 0d 1b de 3d
       0.0454488 -0.01963067 -0.12063751 0.10845003
000340 bc 3a 00 be 79 b2 89 bd e2 6c f1 3c 0e 11 b8 bc
       -0.12522405 -0.06723494 0.029470865 -0.02246907
000350 ee cb 6a 3d 70 96 94 3d 1a e0 86 3d 92 10 76 3d
       0.05732339 0.07255256 0.06585713 0.060074396
000360 57 ce 7c bd 57 c3 91 bd ff e3 32 3d 60 b0 02 3e
       -0.06172022 -0.07117336 0.043674465 0.12762594
000370 27 98 e4 3d 97 ff 90 bd 41 bd 99 3d 21 7f 24 3c
       0.11161833 -0.0708 0.075068004 0.0100400755
000380 01 19 7f bd e7 95 aa 3c f9 0c 94 3b 57 b8 d6 bd
       -0.062279705 0.020823432 0.004518148 -0.10484379
000390 e3 fc d5 3d 08 74 c7 3d 12 c7 b4 3c c8 2a cb bc
       0.10448625 0.09738928 0.02206758 -0.024800673
0003a0 86 48 65 3c 8f 86 19 3d b7 55 29 3d 67 bb 74 3d
       0.013994342 0.03748184 0.04134151 0.059749033
0003b0 0c 24 36 bd 68 bd 60 3d 02 ac ac bd 94 e0 39 bd
       -0.04446797 0.054868132 -0.084312454 -0.04538019
0003c0 3c 5c aa bd 70 ea b9 bd c7 96 58 bd ba b3 60 3c
       -0.083183736 -0.090779185 -0.052878167 0.013714725
0003d0 8d 10 49 bd 0d 81 d0 3d af f4 0e 3e 4d 0f 4a 3c
       -0.04908805 0.101808645 0.13960527 0.01233275
0003e0 ea 6c de 3d 8c a5 a2 3c 27 56 04 3d 26 f0 d7 bc
       0.108606175 0.01985433 0.032308724 -0.026359629
0003f0 af 12 a7 bc f1 f5 1f bc 9d 58 e8 bc b6 f1 a0 bd
       -0.020394651 -0.009763227 -0.028362567 -0.07858603
