results/scaled/Car Agent/Car Agent-1894.pt (torch, 148319 bytes, 14 tensors)

network_body.linear_encoder.seq_layers.0.weight f4 [128, 3]
00000000: e284 b23e db4e 83be 97f5 553f 9b21 6e3f
00000010: 7af1 1a3f 6622 8ebf cdc3 053d 3e85 2a3d
00000020: 6ccd 2f3f d9f2 f6be 4485 b1bb a4c6 81be
00000030: e27f 56bf a338 fa3e 6e82 6fbf 74f4 a4be
00000040: ad4c d03c 34ac 87be 48d1 20bf c7eb 0cbf
00000050: b7a5 92be c36a 113f dbf0 823f e43f 62bf
00000060: fb33 613e 0dce 0d3d 6ef3 7bbf a671 e63e
00000070: cf2f f8be 7049 0d3f 7ba3 34bf 01c1 113e
00000080: 209b 0bbf aff0 71be 190f 133f d428 8dbf
00000090: 9914 8cbe 530a 8b3e 25c6 1dbe ab80 823f
000000a0: e49b 42bf 9fb0 8ebd 60ec b8be 89ad 9ebf
000000b0: 136b c83e 467c 07bf 3551 083f e991 df3e
000000c0: 9960 203f 9b29 5f3f 30d3 86be add6 d3be
000000d0: 6816 863e d032 2e3f 8475 93be c55e a83f
000000e0: 7f9d a6bf 5f0e 8abe 3fbb 153f 1d7f 333e
000000f0: bea1 413f 0590 943e 4cb1 d2be b275 143e
00000100: fbad 83bd 6de6 0a3e e52a 5c3f 5ec4 4b3d
00000110: b612 a13e c724 783d e1b1 a8be d022 89bd
00000120: c707 7abf 6866 b1be 3d17 b53e 4261 f6bd
00000130: bd58 76be 0893 1a3f d6c4 bfbd 9820 7ebf
00000140: e7eb 563e ae1f 0cbf 86cc 18be 72b0 bb3e
00000150: c2c4 f3be f3cd 83be 3d25 82bf 70b5 60bf
00000160: 5a01 54bf 7c76 e3be 443d 15bf 0ca5 013e
00000170: 02b2 bd3f 202c 463e 0aec 0a3f 88d4 87bf
00000180: 382d f6be ede9 1c3f d8bd ac3f a02b fbbe
00000190: 5a35 263f 55b1 64be e67a ec3e 890a 5cbe
000001a0: 833f 60bf eaf9 9b3e 4b06 4e3f 3a23 ae3e
000001b0: febc da3e 78cb 5c3d 858c 84be b2a8 83bf
000001c0: f78e ccbe 8543 dbbe 0560 303f 93a3 2f3e
000001d0: e309 543f 60c9 26bf 8b15 383f 87e4 903f
000001e0: 3eae 453f 2504 be3e 712e ad3f a8a8 4d3f
000001f0: 9be4 7dbe c962 ef3e 2764 b03d 1d05 033e
00000200: 99ee efbe 3f1e 02bf 7328 0ebf 4e91 09bf
00000210: 60a9 633e 632d 37bf cfcc 50be 0c47 1fbd
00000220: 2739 163f 3ef1 23be bcc8 7fbf 3802 903e
00000230: 1fb3 bdbf 3151 9abe 91dc febe 2ca2 103f
00000240: 6647 703f 3084 94bf a70d 2ebe 6cb3 453f
00000250: 7204 423e 08d8 283d 7d19 56bf 773a a9bd
00000260: 7903 1f3d 8902 363e 749f 9abe d74c 79be
00000270: 5f27 8a3e a8d7 9cbe 00e8 333e c95b 80bd
00000280: accf 163f 90a4 453f c74a c5bd 931b ebbd
00000290: e0b0 b53f 3fb4 ba3e 0999 be3c 34a2 b7be
000002a0: 625f fa3e 38bc 30bf 23b0 05be b16c b13d
000002b0: bbd0 323f b0b0 e3be 9ed1 5dbf e233 f3be
000002c0: ccbd 84be 9a12 c33e 2ed8 343e 35ad 0f3f
000002d0: bc75 4f3f 4530 4fbe 8872 9ebe d77c 973e
000002e0: a3eb 95be 75a5 fcbe c80c 1c3f 57c8 e3be
000002f0: 7292 88be 1caa a73e 97f5 173e dfec c1bd
00000300: 6225 e9be 8c91 d7bf a39f 61bf 4202 d7be
00000310: 8e59 1d3f ea06 fc3e 7201 1f3e 1fda 9cbe
00000320: d116 213f a3b1 0f3f 5162 f83d 7c26 173e
00000330: 6872 3f3f 346e 023f 2483 11bf 253d 26be
00000340: ebb7 b13e 9864 e5bd 009c 95be c8b9 acbf
00000350: 82f7 983e c61f 823f a8f5 d33e e033 b1be
00000360: 3e5b af3e 98d3 15be 50fe c2be c878 073f
00000370: 8c63 6dbf 8a6d a5bd a0a0 9c3e 0ca1 063f
00000380: f1d6 b03f 2132 6ebf a9ed df3e 87db c93e
00000390: 5cca 20bd 2e72 f7be d5ab 9e3e a9ed e53e
000003a0: 27b8 32be 09b1 273e 8e67 093e 7baa 9dbf
000003b0: 70ce 053e 71b3 08bf 3e06 b8be 89fa 8cbe
000003c0: e2e0 003f 1ab5 b93e affa 94bd fd4a 03be
000003d0: 6535 983f 5c70 49bf f8c8 eabe 4ad3 73be
000003e0: a21c afbf f9ae 993e 1c6e 123f b8b3 9a3e
000003f0: 5fe7 09be f178 cabe 6f22 e43e b5b1 10bf
0.34867007 -0.256461 0.83577865 0.9302003 0.60524714 -1.1104248 0.032657433 0.041630976
0.68672824 -0.48232153 -0.005417498 -0.25346863 -0.83788884 0.48871335 -0.93558395 -0.32217753
0.025427187 -0.26498568 -0.6281934 -0.5504727 -0.28642055 0.5680353 1.0229753 -0.8837874
0.21992485 0.034620333 -0.9841832 0.45008582 -0.48473975 0.5519018 -0.7056195 0.14233781
-0.54533577 -0.2362697 0.5744491 -1.1028085 -0.27359465 0.27156314 -0.15407617 1.0195516
-0.7601912 -0.069672816 -0.3611784 -1.2396709 0.3914419 -0.52924 0.5324891 0.43666008
0.62647396 0.8717286 -0.26332998 -0.41374722 0.2618897 0.68046284 -0.28800595 1.3153921
-1.3016814 -0.2696409 0.5848884 0.17528959 0.75637424 0.29016128 -0.41150892 0.14498022
-0.064296685 0.13564463 0.8600295 0.049747817 0.31459588 0.06058195 -0.3294821 -0.06696093
-0.9766812 -0.34648442 0.35369292 -0.12030269 -0.24057288 0.603806 -0.09363715 -0.99268484
0.20988427 -0.5473584 -0.1492177 0.36658055 -0.47611052 -0.25743064 -1.0167614 -0.8777685
-0.8281456 -0.44426334 -0.5829661 0.12660617 1.4819949 0.1935277 0.5426642 -1.0611734
-0.48081374 0.6129444 1.3495436 -0.4905672 0.6492516 -0.22333272 0.46187514 -0.21488394
-0.8759691 0.30464107 0.8047835 0.3401125 0.42722315 0.05390498 -0.25888458 -1.0285857
-0.39952824 -0.4282495 0.68896514 0.17152242 0.82827586 -0.65151024 0.7190787 1.1319741
0.77219 0.37112537 1.3529798 0.80335474 -0.24794237 0.46755055 0.086128525 0.1279492
-0.46861723 -0.508274 -0.5553047 -0.5373734 0.2223258 -0.7155363 -0.20390628 -0.038886115
0.5868096 -0.16009995 -0.9991567 0.28126693 -1.4820288 -0.3014007 -0.49777654 0.56497455
0.93858945 -1.160284 -0.16997395 0.772269 0.18947008 0.04122165 -0.8363264 -0.082631044
0.03882167 0.17774405 -0.30199778 -0.24345718 0.26983163 -0.30633283 0.1756897 -0.06267507
0.5891063 0.7720423 -0.09633403 -0.11479869 1.4194603 0.36465642 0.023266332 -0.3586594
0.48900896 -0.690372 -0.13055472 0.08663309 0.6984975 -0.4447074 -0.86647975 -0.4750052
-0.25926054 0.3810013 0.17660591 0.5612367 0.81039023 -0.20233257 -0.30946755 0.29587433
-0.2928134 -0.49344984 0.60957 -0.44488785 -0.2667423 0.3274697 0.14839779 -0.09469008
-0.45536333 -1.6841292 -0.8813421 -0.4199391 0.61464775 0.49224025 0.15527895 -0.30635163
0.6292544 0.5613043 0.12128127 0.14760774 0.74783945 0.50949407 -0.5684073 -0.16234262
0.3471063 -0.11200827 -0.2922058 -1.3494196 0.29876333 1.0165946 0.41398358 -0.3460989
0.342493 -0.14631498 -0.3808465 0.5291867 -0.9273002 -0.080775335 0.30591297 0.5258949
1.3815595 -0.9304524 0.43736008 0.394253 -0.039255485 -0.483293 0.30990472 0.44907883
-0.17453061 0.16376127 0.13418409 -1.2317652 0.13067031 -0.53398806 -0.35942262 -0.27534893
0.50343144 0.36270982 -0.072743766 -0.12821575 1.1891295 -0.7868707 -0.45856452 -0.23811069
-1.3680613 0.30016306 0.57199264 0.3021524 -0.13467167 -0.39545396 0.4455752 -0.5652116

network_body.linear_encoder.seq_layers.0.bias f4 [128]
00000000: 0000 0000 0000 0000 0000 0000 0000 0000
00000010: 0000 0000 0000 0000 0000 0000 0000 0000
00000020: 0000 0000 0000 0000 0000 0000 0000 0000
00000030: 0000 0000 0000 0000 0000 0000 0000 0000
00000040: 0000 0000 0000 0000 0000 0000 0000 0000
00000050: 0000 0000 0000 0000 0000 0000 0000 0000
00000060: 0000 0000 0000 0000 0000 0000 0000 0000
00000070: 0000 0000 0000 0000 0000 0000 0000 0000
00000080: 0000 0000 0000 0000 0000 0000 0000 0000
00000090: 0000 0000 0000 0000 0000 0000 0000 0000
000000a0: 0000 0000 0000 0000 0000 0000 0000 0000
000000b0: 0000 0000 0000 0000 0000 0000 0000 0000
000000c0: 0000 0000 0000 0000 0000 0000 0000 0000
000000d0: 0000 0000 0000 0000 0000 0000 0000 0000
000000e0: 0000 0000 0000 0000 0000 0000 0000 0000
000000f0: 0000 0000 0000 0000 0000 0000 0000 0000
00000100: 0000 0000 0000 0000 0000 0000 0000 0000
00000110: 0000 0000 0000 0000 0000 0000 0000 0000
00000120: 0000 0000 0000 0000 0000 0000 0000 0000
00000130: 0000 0000 0000 0000 0000 0000 0000 0000
00000140: 0000 0000 0000 0000 0000 0000 0000 0000
00000150: 0000 0000 0000 0000 0000 0000 0000 0000
00000160: 0000 0000 0000 0000 0000 0000 0000 0000
00000170: 0000 0000 0000 0000 0000 0000 0000 0000
00000180: 0000 0000 0000 0000 0000 0000 0000 0000
00000190: 0000 0000 0000 0000 0000 0000 0000 0000
000001a0: 0000 0000 0000 0000 0000 0000 0000 0000
000001b0: 0000 0000 0000 0000 0000 0000 0000 0000
000001c0: 0000 0000 0000 0000 0000 0000 0000 0000
000001d0: 0000 0000 0000 0000 0000 0000 0000 0000
000001e0: 0000 0000 0000 0000 0000 0000 0000 0000
000001f0: 0000 0000 0000 0000 0000 0000 0000 0000
0.0 0.0 0.0 0.0 0.0 0.0 0.0 0.0
0.0 0.0 0.0 0.0 0.0 0.0 0.0 0.0
0.0 0.0 0.0 0.0 0.0 0.0 0.0 0.0
0.0 0.0 0.0 0.0 0.0 0.0 0.0 0.0
0.0 0.0 0.0 0.0 0.0 0.0 0.0 0.0
0.0 0.0 0.0 0.0 0.0 0.0 0.0 0.0
0.0 0.0 0.0 0.0 0.0 0.0 0.0 0.0
0.0 0.0 0.0 0.0 0.0 0.0 0.0 0.0
0.0 0.0 0.0 0.0 0.0 0.0 0.0 0.0
0.0 0.0 0.0 0.0 0.0 0.0 0.0 0.0
0.0 0.0 0.0 0.0 0.0 0.0 0.0 0.0
0.0 0.0 0.0 0.0 0.0 0.0 0.0 0.0
0.0 0.0 0.0 0.0 0.0 0.0 0.0 0.0
0.0 0.0 0.0 0.0 0.0 0.0 0.0 0.0
0.0 0.0 0.0 0.0 0.0 0.0 0.0 0.0
0.0 0.0 0.0 0.0 0.0 0.0 0.0 0.0

network_body.linear_encoder.seq_layers.2.weight f4 [128, 128]
00000000: a962 523d f12d fabd 3054 dbbd 2eb3 bcbd
00000010: 17d1 333c 2564 173e de06 0cbc 98ea cc3d
00000020: c497 be3d 0a5b 15be 2061 b23d e253 fabb
00000030: 31ca aa3c 5181 94bd 4f5a d1bc b3d0 6abd
00000040: b8d4 223e fa80 bfbc 4d24 7bbb 07f8 23be
00000050: adee 3c3d a0e8 3e3d 99db bc3d fce5 003e
00000060: 92dd d33d 4224 8fbc 9ce8 5c3d c904 b9bd
00000070: 030e 1e3c e3db 173e fa63 f2bd 512c 35be
00000080: 8d34 1fbe 6c23 5abd ed95 93bd 9119 e4bd
00000090: cb1f f23c c9a1 693e 9431 fe3c a427 a4bd
000000a0: d883 d73d 8dc8 70bd 679d b83c baff 933b
000000b0: 0d1a 07be fa45 28be 8718 c3bc 86f1 1cbe
000000c0: cc6d d0bd 48e0 b8bc 66cd a43c 5806 be3d
000000d0: cf75 cabd a03c 2cbd 0e8f 063e a1df 2cbd
000000e0: 6665 aa3d 0e12 303d e596 37bc 6f0e 443c
000000f0: 4d7f 99bd 6812 d93c 3eed 90bc 0e5f 83bc
00000100: 46f4 98bd bddf b7bd 5258 003e 60dd 4e3c
00000110: 6b04 903d 2481 95bd f4b1 923d c0e4 5ebc
00000120: be9c 1cbb cac1 0b3e 5af2 753c 3329 493a
00000130: 8cbc 0d3e b189 99bc 41ba 8b3c 222a 74bd
00000140: dc66 bf3d e40f d53d db07 3d3e e5ec d13c
00000150: 0802 903d a1b5 e6bc c3f1 d13c 3c88 b7bd
00000160: baa5 6abd 33b1 b33d 10d0 bf3c ac38 f33d
00000170: 6269 bbbd 7017 a33d 5d16 aabd ad1e 0b3e
00000180: ca87 d13d ebad f1bd 3a06 4b3d 98db dbbc
00000190: 6afa a8bb 2971 763e e72f 41bd d767 a2bd
000001a0: 07b9 533d 406a 33bd 70c6 5e3d bf14 4f3e
000001b0: fb10 ad3d b567 30be 582d 5e3d bb7d d73d
000001c0: 01bb 903e 2684 3f3d af03 4d3c 85fe 703d
000001d0: 1b55 7c3d 9d99 5f3c 7d0b 65bd e15e 0fbd
000001e0: eea2 1bbd a3e9 aabd 75b0 8c3d e135 b43d
000001f0: 7fcc 04be 73b8 02be 4d7a 213e 1f0b e63d
00000200: ad0c 6a3c 1189 aebd dac5 783c 7ec9 643d
00000210: bd9d eb3d 2940 3e3d 020f 85bd cc53 0fba
00000220: 8ab5 963d 6511 86be 74e9 e53d b919 f63c
00000230: b514 e93c 0d2e 523c 9e7d 05be 2efb c1bd
00000240: 2512 2abe 7ce0 91ba 11c0 8f3b 1404 d63d
00000250: 277c b53d b01f 8c3d 36cf a23d 1e96 4cbd
00000260: d554 d13b 40df ae3d 4264 dd3d 72ac 0c3e
00000270: f1e8 44be 33bf 903d 46d4 5d3c bb91 4c3e
00000280: d979 4a3d 3c1e b43d 44e4 0bbd 05f7 133e
00000290: f7ba 6b3d 3355 7f3d a8e8 a4bc d8b8 853c
000002a0: 0576 8e3d 6f50 833d 6dd5 00be 6dd8 233d
000002b0: b2ff 843d 36c4 6f3e fe7c 763d fc37 513d
000002c0: 47b8 6cbe 4384 183e 518b 32bb a7a7 e5bd
000002d0: e0be b93d 50b9 d3bd c47f 9d3d b88d ef3d
000002e0: 658f a6bd f513 b33c cfb5 dbbb 8312 b4bd
000002f0: 4fcf 4ebe 3075 b03d 391e cabd 495b 82bd
00000300: 968e a03d 443b 0ebe e97e 8c3d db34 f0bd
00000310: ac11 853c fb13 f7bc 08bf 07bd 5224 6abd
00000320: 05dc 60be be26 f7bc cb51 fcbc ca73 4ebd
00000330: c50d 9c3c a810 1e3e 899c f2bd 38c6 0b3d
00000340: aafb 103d e187 d43a 621b 8ebd 4053 5ebe
00000350: 3f0e f1bd c38f 993c 06ff 643c ba7f de3c
00000360: 3e89 27be 9577 95bd 915b 2d3d 7ff9 dd3d
00000370: cd1a 923c 1e40 1fbe ba51 73bd fcb7 db3d
00000380: 9d4c 25be 983a afbd b91e b13d faaf a2bd
00000390: 2243 80bd f1ae c3bd 3ff4 bf3c e8dc 643b
000003a0: 7279 e2bc f415 083d 7bab e9bc 3b21 2cbc
000003b0: 23e1 07bd 7aa4 b93d 9d7c 883d 16c1 3a3d
000003c0: fb3d 933d 4344 103e 5184 e0bc 9678 923c
000003d0: b595 c93c 720b ff3d c781 1bbe 06c3 063e
000003e0: 322e d0bd 2631 d93d 2b56 4b3d 0a62 c63d
000003f0: 53f1 d0bc 20f4 74bd 13dd 163c b575 103d
0.05136362 -0.12215794 -0.10709417 -0.09213863 0.010975144 0.14784296 -0.008546559 0.10005683
0.09306291 -0.1458551 0.087099314 -0.007639394 0.020848366 -0.07251228 -0.025555758 -0.057327937
0.15901458 -0.02337693 -0.0038321197 -0.16012584 0.046126056 0.046608567 0.092215724 0.12587732
0.103449956 -0.017473344 0.05393277 -0.09034116 0.009646895 0.14829974 -0.11835475 -0.17692687
-0.1554739 -0.053256437 -0.072063304 -0.11137689 0.029556176 0.22815622 0.0310295 -0.08015373
0.10523194 -0.05878501 0.022535993 0.004516569 -0.13193531 -0.16432944 -0.023815406 -0.15326509
-0.10177192 -0.022567883 0.020117473 0.09278554 -0.098857515 -0.042050004 0.13140509 -0.042205457
0.083201215 0.04298597 -0.01120541 0.011966332 -0.07494984 0.026498035 -0.01769125 -0.016036537
-0.074684665 -0.089782216 0.12533692 0.012626022 0.07032093 -0.07300022 0.07162848 -0.013604343
-0.0023897137 0.13648143 0.015011394 0.00076736807 0.13841456 -0.018742414 0.017056586 -0.059610493
0.09345791 0.104034215 0.18460028 0.025625655 0.070316374 -0.02816278 0.025627976 -0.089615315
-0.057286955 0.087740324 0.023414642 0.11876044 -0.091509596 0.07963455 -0.08305047 0.1358592
0.10230978 -0.1180075 0.049566485 -0.026838109 -0.005156805 0.24066605 -0.047164824 -0.07929962
0.051690128 -0.0438025 0.054388463 0.20222758 0.084505044 -0.17227061 0.054242462 0.10522028
0.28267673 0.046756886 0.012513085 0.05883648 0.0616046 0.013647464 -0.05591916 -0.035002593
-0.03799718 -0.08345344 0.06869594 0.08799339 -0.12968634 -0.12765674 0.1576931 0.1123259
0.014285249 -0.08522237 0.01518389 0.05585622 0.115046956 0.046447907 -0.06497003 -0.0005467504
0.073588446 -0.26185146 0.11226168 0.030041562 0.028452257 0.012828362 -0.130362 -0.09471737
-0.16608484 -0.0011129524 0.00438691 0.104499966 0.08861571 0.068419814 0.079496786 -0.04994785
0.0063882866 0.08538675 0.10810138 0.13737658 -0.19229485 0.07067718 0.013539379 0.19977467
0.04943261 0.08794829 -0.034153238 0.14449699 0.05755135 0.06233711 -0.02013047 0.016323492
0.06956104 0.06411826 -0.12581415 0.04000132 0.064940825 0.23414692 0.060177796 0.05107878
-0.23117171 0.14894204 -0.0027243684 -0.11213618 0.0906961 -0.1033808 0.07690385 0.116969526
-0.08132819 0.021860102 -0.006705023 -0.08792593 -0.2019627 0.08616102 -0.09869046 -0.063650675
0.07839696 -0.13889796 0.06860144 -0.117288314 0.016243778 -0.030160895 -0.033141166 -0.057163544
-0.21958931 -0.03016984 -0.03080072 -0.050403394 0.019049535 0.15436041 -0.11846263 0.034124583
0.035396256 0.0016214811 -0.069388166 -0.21711445 -0.11770295 0.018745309 0.013976818 0.027160514
-0.16360947 -0.07298199 0.042323653 0.10838603 0.017835045 -0.15551803 -0.059404112 0.107284516
-0.16142507 -0.08556098 0.08648438 -0.07943721 -0.062628046 -0.09554852 0.023431895 0.003492171
-0.0276458 0.03322406 -0.028524151 -0.01050597 -0.03317369 0.090645745 0.06664393 0.045594297
0.07189556 0.1408854 -0.027406843 0.017879765 0.024607519 0.12453355 -0.15186225 0.13160333
-0.10165061 0.106050774 0.049642723 0.09686668 -0.025505697 -0.05980313 0.009207982 0.035268504

network_body.linear_encoder.seq_layers.2.bias f4 [128]
00000000: 0000 0000 0000 0000 0000 0000 0000 0000
00000010: 0000 0000 0000 0000 0000 0000 0000 0000
00000020: 0000 0000 0000 0000 0000 0000 0000 0000
00000030: 0000 0000 0000 0000 0000 0000 0000 0000
00000040: 0000 0000 0000 0000 0000 0000 0000 0000
00000050: 0000 0000 0000 0000 0000 0000 0000 0000
00000060: 0000 0000 0000 0000 0000 0000 0000 0000
00000070: 0000 0000 0000 0000 0000 0000 0000 0000
00000080: 0000 0000 0000 0000 0000 0000 0000 0000
00000090: 0000 0000 0000 0000 0000 0000 0000 0000
000000a0: 0000 0000 0000 0000 0000 0000 0000 0000
000000b0: 0000 0000 0000 0000 0000 0000 0000 0000
000000c0: 0000 0000 0000 0000 0000 0000 0000 0000
000000d0: 0000 0000 0000 0000 0000 0000 0000 0000
000000e0: 0000 0000 0000 0000 0000 0000 0000 0000
000000f0: 0000 0000 0000 0000 0000 0000 0000 0000
00000100: 0000 0000 0000 0000 0000 0000 0000 0000
00000110: 0000 0000 0000 0000 0000 0000 0000 0000
00000120: 0000 0000 0000 0000 0000 0000 0000 0000
00000130: 0000 0000 0000 0000 0000 0000 0000 0000
00000140: 0000 0000 0000 0000 0000 0000 0000 0000
00000150: 0000 0000 0000 0000 0000 0000 0000 0000
00000160: 0000 0000 0000 0000 0000 0000 0000 0000
00000170: 0000 0000 0000 0000 0000 0000 0000 0000
00000180: 0000 0000 0000 0000 0000 0000 0000 0000
00000190: 0000 0000 0000 0000 0000 0000 0000 0000
000001a0: 0000 0000 0000 0000 0000 0000 0000 0000
000001b0: 0000 0000 0000 0000 0000 0000 0000 0000
000001c0: 0000 0000 0000 0000 0000 0000 0000 0000
000001d0: 0000 0000 0000 0000 0000 0000 0000 0000
000001e0: 0000 0000 0000 0000 0000 0000 0000 0000
000001f0: 0000 0000 0000 0000 0000 0000 0000 0000
0.0 0.0 0.0 0.0 0.0 0.0 0.0 0.0
0.0 0.0 0.0 0.0 0.0 0.0 0.0 0.0
0.0 0.0 0.0 0.0 0.0 0.0 0.0 0.0
0.0 0.0 0.0 0.0 0.0 0.0 0.0 0.0
0.0 0.0 0.0 0.0 0.0 0.0 0.0 0.0
0.0 0.0 0.0 0.0 0.0 0.0 0.0 0.0
0.0 0.0 0.0 0.0 0.0 0.0 0.0 0.0
0.0 0.0 0.0 0.0 0.0 0.0 0.0 0.0
0.0 0.0 0.0 0.0 0.0 0.0 0.0 0.0
0.0 0.0 0.0 0.0 0.0 0.0 0.0 0.0
0.0 0.0 0.0 0.0 0.0 0.0 0.0 0.0
0.0 0.0 0.0 0.0 0.0 0.0 0.0 0.0
0.0 0.0 0.0 0.0 0.0 0.0 0.0 0.0
0.0 0.0 0.0 0.0 0.0 0.0 0.0 0.0
0.0 0.0 0.0 0.0 0.0 0.0 0.0 0.0
0.0 0.0 0.0 0.0 0.0 0.0 0.0 0.0

action_model._continuous_distribution.log_sigma f4 [1, 2]
00000000: 0000 0000 0000 0000
0.0 0.0

action_model._continuous_distribution.mu.weight f4 [2, 128]
00000000: 1082 b43c d956 033d 40bf d6b7 93d6 ccbc
00000010: 4e8e 8a3a 196c 0c3c d798 85bb 4995 9fbc
00000020: 3d56 dbbb 08a9 06bc 7a87 713c f787 92ba
00000030: 3f76 203d cb27 823c 1021 3ebc c247 53bc
00000040: d566 1abb f0be b73b 73ba 263d 20e7 cc3c
00000050: e3d8 36bc c236 3e3c 1b89 773c 23de 2a3c
00000060: 7388 46bc db00 88bb a7e7 ac3c aab6 d4bc
00000070: 0bec 94ba 33e5 31b9 262a 0d3d 0d29 09bd
00000080: 0388 b3bb 5fee c93c 2a68 6c3c f70e ccbc
00000090: 905b 0a3b d3b9 c23c 0318 5a3b 825f 773a
000000a0: dd0f df3c 2548 a43c c04e be3c 67f2 dbbb
000000b0: 4f5a b4bc 1f00 a23b 0736 32bc 4084 423d
000000c0: 2364 4e38 cb8e b63a 397f a83c 543e a53c
000000d0: 8ad1 af3c a3fa 3bbc e9a5 83bc 514d 96bc
000000e0: ab4c 063d 76a0 303a 58ba 5dbc beb5 b8bb
000000f0: 13e1 22bd 1db3 ee3b e849 343c f397 b5bc
00000100: 8738 443d 1206 61bc c32f b5bb 67fe 53bc
00000110: 837d a2bc bf55 36bd 887d 3bbc f7f4 6cbc
00000120: 8b1e d03b bba1 b23b 7a8e f2bc c63f 2abb
00000130: b387 103c 35d5 0b3c d24a 373c 30bf ed3a
00000140: 9391 cf3b 5d01 823b 3bc9 943c 791a 99bb
00000150: 378d 67ba 79a3 a3bc 85d2 e839 d3e2 853c
00000160: a2d7 58bc e351 bebb dbaa 883c 80ac 783c
00000170: c6fb 863c af70 b53c b3a8 c0b9 c44b 37bc
00000180: 6846 673b 1be1 b53c 8d94 ddbb cefb 9d3a
00000190: 1a2e fe3b af76 8dbc 7445 063c dd0d d7bc
000001a0: 9a2a 64bc 087d 8e3c 3865 7f3b 2dfd b33b
000001b0: 8ff4 edbb 3f9b c7bc ba16 a83b 13b7 5e3b
000001c0: dcf8 2cbc 7d21 97bc dcfa 4039 07f4 143c
000001d0: dc80 183c d845 4ebb e8e1 b5bc 546b 923b
000001e0: a3da 063d cfdb 9dbb fa77 923c e8f3 57bd
000001f0: 97a0 4fbc 8da1 d4bb ab39 2d3b 30be b83b
00000200: e231 7d3c c367 2e3b e4b0 053b 2d05 54ba
00000210: e909 89bb 056d f6bc 6fc7 853d 33b3 9bbc
00000220: 9356 b43b 7c8a 02bb 4bc9 2fbc 2186 96bc
00000230: 28a5 7f3c 2507 f6bb df7f a33c d3b5 58bc
00000240: 43ca 49bc 9724 8f3b 7fbb dfbb e72d 1f3b
00000250: 7733 f43c 8301 30bb 774a e0bc 0235 58ba
00000260: db12 06bc 7f08 0e3d 2af2 fabb 92ab b3bb
00000270: aa81 c83c 17a4 04bc 294a 053c 67c7 a3bb
00000280: f05d 9abc 611a 36bd fb23 abbc f943 9e3b
00000290: 8f4d 4bbb cb9f 83bb 2f59 ab3b f985 c8bc
000002a0: 2f6c 68bc e039 a5ba 008d 793c 172c bbbb
000002b0: f308 b83c f80b 0dba 5e24 8dbc b551 4e3c
000002c0: d5f0 0aba 1fa1 d23b 534e 05bb ae00 1e3d
000002d0: 0afb cd3c 311d a93c f2ca df3c 26c6 01ba
000002e0: 7219 edbb 05af 5bbb 34a9 a73c 07b6 9dbc
000002f0: 17e2 71bc 7f15 8a3a d021 1cbc 28d9 b53c
00000300: 684a 1dbc 0cd5 3f3c 63a5 0cbc d8d1 2abc
00000310: b70b a53c 4d5a 43bb 8d70 5ebb a338 e83b
00000320: f3b1 0e39 4180 c837 e5ae 66bc 424b e8bc
00000330: 1c11 963c d2c9 7b3b 913a 3abc 2950 aa3b
00000340: cc3d 06bc bcf4 1d3b c4fe 1fbb 35d6 f0bc
00000350: 1a6d 4d3c df2d 8ebb 329b bcbb 9397 cfbc
00000360: e6a1 8ebc b07e 8dbb 5bfc bd3c 6b30 3b3c
00000370: 817a 993c c3b8 813a d77d 63bb 066b 173c
00000380: bb78 19bd e32a 2c3c 1383 8ebc cd5e 243b
00000390: 3b3b 833c 984c c537 774e bf3c 3a54 a03c
000003a0: cd8a 7bbc 9402 8bbc 28cd 0b3c 6217 033d
000003b0: 7534 0abc fae7 36b9 ecf6 13bc c3e8 abbb
000003c0: 90f0 d139 3711 f2bc af09 2b3b 8d09 debc
000003d0: 88a8 9e3c 90cd c83b cdf7 59bc 9fb5 bcbc
000003e0: a2bd cfbb bd94 1d3c 3569 983b 84d3 2b3c
000003f0: 6fae 86bc 5313 8fbc 678a 8fbb 50fa c8bc
0.022034675 0.032065246 -2.5599846e-05 -0.02500466 0.0010570975 0.008570694 -0.004077058 -0.019480364
-0.00669363 -0.008219011 0.014741773 -0.0011179437 0.03917527 0.015888115 -0.011604562 -0.012895526
-0.0023559828 0.0056074783 0.040705156 0.025012553 -0.011160108 0.011609735 0.015108372 0.010428938
-0.012117493 -0.0041504926 0.021106554 -0.025966007 -0.001136185 -0.00016965419 0.034464024 -0.033486415
-0.0054788603 0.024649797 0.0144291315 -0.02490948 0.0021111704 0.023770249 0.0033278472 0.0009436534
0.027229244 0.020053932 0.02323091 -0.006712246 -0.022015719 0.004943862 -0.010877139 0.047489405
4.9207487e-05 0.0013928054 0.020568477 0.020171322 0.02146222 -0.011473331 -0.016070323 -0.018347414
0.03278796 0.0006737778 -0.013533197 -0.0056368997 -0.03976543 0.0072845356 0.011003949 -0.022167182
0.04790547 -0.013734357 -0.0055293753 -0.012939072 -0.01983524 -0.044515368 -0.011443503 -0.014462701
0.0063512973 0.0054514087 -0.029608954 -0.0025977953 0.008821416 0.008534719 0.011187272 0.0018138643
0.0063344925 0.0039674477 0.01816236 -0.0046723452 -0.00088329933 -0.01997541 0.00044407338 0.01634351
-0.013235005 -0.0058081015 0.016683033 0.015177846 0.016477477 0.022148458 -0.00036746784 -0.0111874975
0.0035289768 0.022202065 -0.0067620934 0.0012053193 0.0077569606 -0.017268507 0.00819527 -0.026251728
-0.013926173 0.017393604 0.0038970243 0.0054928274 -0.0072618197 -0.02436602 0.0051296623 0.0033983632
-0.01055738 -0.018448586 0.00018404 0.009091384 0.009308066 -0.0031474736 -0.022202447 0.004468361
0.032923352 -0.004817463 0.017879475 -0.05272284 -0.012672565 -0.006488985 0.0026432078 0.0056379065
0.0154537875 0.002661214 0.0020399624 -0.00080879295 -0.0041820896 -0.030081281 0.065321796 -0.019006347
0.0055034845 -0.001991897 -0.010729144 -0.018374505 0.015603341 -0.007508176 0.019958435 -0.013226944
-0.012316289 0.0043683755 -0.006827771 0.0024288835 0.029809697 -0.002685637 -0.027379258 -0.0008247645
-0.008183206 0.03467607 -0.0076582627 -0.0054830993 0.024475891 -0.008095763 0.008135357 -0.004998136
-0.018843621 -0.04445875 -0.02089118 0.0048298803 -0.003102157 -0.0040168515 0.0052291374 -0.024477946
-0.014185949 -0.0012605749 0.015231371 -0.005712043 0.022465205 -0.00053805066 -0.017229255 0.012592723
-0.0005300169 0.0064278985 -0.0020340874 0.038574867 0.025144119 0.020643802 0.027318452 -0.0004950486
-0.0072356993 -0.0033521068 0.020466425 -0.019251836 -0.014763377 0.0010534971 -0.009529546 0.022198275
-0.009600259 0.011708509 -0.008584353 -0.010426007 0.020147188 -0.0029808462 -0.0033941597 0.0070868297
0.00013608467 2.390158e-05 -0.014079784 -0.028356198 0.018318705 0.0038419855 -0.011366502 0.005197544
-0.008193444 0.0024102172 -0.0024413327 -0.029399017 0.012538219 -0.0043389644 -0.0057558054 -0.02534083
-0.017411184 -0.004318081 0.023191622 0.011425118 0.018735172 0.0009896982 -0.0034712458 0.009241825
-0.037468653 0.010508272 -0.017396485 0.002508092 0.016019454 2.3519897e-05 0.023352845 0.019571412
-0.015352917 -0.016969003 0.0085328 0.03200472 -0.008435358 -0.0001744329 -0.009031039 -0.005246253
0.0004004282 -0.029549224 0.0026098301 -0.027104164 0.019367471 0.0061280206 -0.013303709 -0.023035822
-0.0063397447 0.0096179815 0.0046512135 0.010487441 -0.016440598 -0.01746527 -0.0043805125 -0.02453342

action_model._continuous_distribution.mu.bias f4 [2]
00000000: 0000 0000 0000 0000
0.0 0.0

action_model._discrete_distribution.branches.0.weight f4 [2, 128]
00000000: e728 b13b 0e30 a73a 1bd7 edbb cf87 653b
00000010: 2051 b13b 28bc 043b 11b3 a939 ed4d f43b
00000020: 205e 44bc ec01 a438 22e9 2cbc bb09 34bc
00000030: 62b8 c63b 4f20 ee3b c95a 84bc aafe fc3b
00000040: 115e 05bc 65f3 52bc 342e a0ba ecf1 c13a
00000050: bb05 3a3c 928e 1d3c 8c12 8d3b c0ab c13b
00000060: e761 03bb c4aa 02bc 8b44 273b 0396 f03a
00000070: 2c92 15bc f50e 993c ea79 1d3c e08a 7c3b
00000080: 92d6 553c cb6b 2f3b 77bf 8b3b c546 713c
00000090: 1736 253c c790 003c b4b7 13bc d77f 853c
000000a0: 08a8 0b3c b706 62ba cbb6 52bc 45e7 5a3b
000000b0: 9d10 e0bb eaac f8b9 ae3e 213c b2f7 b6ba
000000c0: cf2b 773b 7983 02bd d549 20b9 f37b 06bc
000000d0: 774d ddba 411c 0e3c bbaf 463b 7dcc adbb
000000e0: 1d99 75bc a3aa 6db9 123a e93a 2fea 423b
000000f0: 24e4 8c3b 333d 8abb c627 0a3c c8f2 a8bc
00000100: 6720 d1ba 8bf9 033b 41a3 073c 0362 c6ba
00000110: d01e d6b9 5346 cc3b 4d84 153c 2512 db3b
00000120: 18ef 403c 6f2d 04bc bcb4 a8bb 064f c23b
00000130: eb7a a83a a815 99bb 9269 5f3c 0b6c 8dbb
00000140: 2f01 203c 1a82 053b 231e 513b 2fef 5a3b
00000150: ba26 463c 4609 9e3b 6a11 16bc 7d85 46bc
00000160: 724f 703c 4a7b f33b cb78 703c 7042 743c
00000170: d439 24bb 57d9 003c 93cc fbba bb46 a3bc
00000180: bc08 473a 99a2 a3bb da54 44bc ad46 213a
00000190: aeac c03b 522c d9bb 2531 703b 1543 f83b
000001a0: 7be9 febb 90b4 1bbc 536b 63bc c7dc e8ba
000001b0: 438c 243b f9bf 493c 2d22 723b 8992 a1ba
000001c0: 4b4e 873b 9a3c 0d3c 4f0d 893c 944c 27bc
000001d0: 27b7 7bbb aace 18bc eafd a6bb 6282 203a
000001e0: 78b4 50bc 8725 253b d0c4 50bb 3e9c 073c
000001f0: ee50 843b 55a2 18bc ba14 d93b 7bc3 b1ba
00000200: 8ff5 3fbc dec9 2fbb 4b4a 45bc 53b7 8c3b
00000210: d0ba 5a3b 9309 b53b 3846 51ba 3f99 1b3c
00000220: a322 113a b093 e8bb 5855 63bb bfa8 adbb
00000230: 14ce af3b 2298 983b 8abd d4bb 3f9d 4abc
00000240: fab5 f03b cda8 afbb 3f8c d33b e32b 513c
00000250: d692 1fbc ea9e bfba 8c6f 35bb 1b0f 46bb
00000260: c88e 4a3c 2731 c5bb 454b 17bc e4e1 9abb
00000270: 5a9a 883b c540 5dbc a59d e6ba fc6e 8cbb
00000280: 3fe2 86bc b385 8f3b d36f 81bb fc79 96bc
00000290: 8044 30bc e7e0 2e3c 9f5a d83b caea 2fbb
000002a0: da7d ffbb c072 2f3c 30f1 89bb 8794 28bb
000002b0: 7a5d 253c 006a 3e3c b303 793c ee74 aabb
000002c0: 2d65 9c3b 4322 383b 93fd 233c e297 e2ba
000002d0: 2b6e 873b 20fa 823b 03eb eaba 2e1d 2cbc
000002e0: 3a83 8f3c 8c7d 303c 8dfa ee3b b0b1 88ba
000002f0: 977b 67bb 0b46 14bc 8881 41bc 2239 04bb
00000300: 1373 b73b 934d 65ba 03f5 34bb 4e61 1d3c
00000310: 158e beba ea0c ccba a710 ddbb 1c0f 3b3c
00000320: 0751 023c e1fa b93b cf10 963b 73a5 babb
00000330: 8566 48bc 53c7 823b e72d 8738 a0cf adba
00000340: 2d8a cf3b 3e6b 16bc 6a37 323b e30b 4b3c
00000350: 1edf 0fbc 7329 113c 2b8b b9bb 2338 6cbc
00000360: 3b87 f6bb 2286 613b 2c92 ab3b 7438 4abb
00000370: 0b08 04bc 38fc dfb8 78b8 d3bb 9e0b 23bb
00000380: ff52 bb3b f7f1 e73a 728b 01bb 8b97 ef3b
00000390: 8add 38ba 4814 e63a 1ea7 26bc 173a 45bc
000003a0: 40a8 6dbb c63a 83ba 6048 67bc 72ab 423b
000003b0: eb36 263c 1f99 ad3b d83d 58bb 628e b43b
000003c0: 1b09 46bb 9096 103c b2ce 43ba ede2 8a3a
000003d0: e36e e2bb 4f9a 80b9 54a5 a9bb abfb feba
000003e0: 6f17 87bb 7f5c 133c bdf6 c43a 2ecf c4bb
000003f0: a9ae 9cbc 5614 48bb b608 c63b a37e b3ba
0.0054064873 0.001275541 -0.0072583086 0.0035023575 0.005411282 0.0020253751 0.00032367607 0.0074555785
-0.011985332 7.8204874e-05 -0.01055363 -0.010988648 0.0060644606 0.007267035 -0.016156571 0.007720788
-0.008140103 -0.012875413 -0.0012220801 0.001479683 0.011353905 0.009616511 0.0043051895 0.005910367
-0.0020047368 -0.007975284 0.0025523033 0.0018355254 -0.009129088 0.01868389 0.009611586 0.0038534924
0.013051646 0.002676713 0.0042647677 0.014726345 0.010083697 0.007847018 -0.009015966 0.01629631
0.0085239485 -0.00086222164 -0.012860964 0.0033402008 -0.006837918 -0.00047431077 0.009841604 -0.0013959317
0.003771532 -0.031863663 -0.00015286294 -0.008208263 -0.0016884048 0.008673728 0.0030317146 -0.005303918
-0.014990118 -0.00022665648 0.0017793796 0.0029741635 0.0042996574 -0.0042187213 0.008432334 -0.02062358
-0.0015955091 0.0020137753 0.008278669 -0.0015135411 -0.00040840218 0.0062339692 0.009125781 0.0066855126
0.011775754 -0.008067473 -0.0051484983 0.0059298305 0.0012854015 -0.004671771 0.01363601 -0.0043158582
0.009765907 0.0020371736 0.0031908832 0.0033406725 0.012094194 0.004822883 -0.009159425 -0.012116787
0.014667379 0.0074304687 0.014677237 0.014908418 -0.0025058882 0.007864318 -0.0019210748 -0.019931188
0.0007592549 -0.0049937484 -0.011983121 0.0006152194 0.00587996 -0.006627598 0.0036650386 0.007576356
-0.007779298 -0.009503499 -0.013880569 -0.0017765992 0.0025108017 0.012313836 0.003694664 -0.0012326996
0.0041292063 0.008620406 0.016729979 -0.010211129 -0.0038408728 -0.009326616 -0.005096187 0.0006122944
-0.01273834 0.002519937 -0.003185559 0.008276997 0.004037968 -0.009316047 0.0066247853 -0.0013562286
-0.011716261 -0.0026823203 -0.012041639 0.004294315 0.003337551 0.005524823 -0.00079831807 0.009496986
0.00055364723 -0.007097684 -0.003468832 -0.005299657 0.0053651426 0.0046568075 -0.0064923214 -0.012366592
0.007345912 -0.005360699 0.0064559276 0.012766811 -0.009739598 -0.0014619504 -0.0027684895 -0.0030221406
0.012363143 -0.0060178223 -0.009234254 -0.0047266353 0.0041687908 -0.013504212 -0.0017594589 -0.0042856913
-0.016465304 0.004379952 -0.003950098 -0.018368714 -0.010758519 0.010673738 0.0066025998 -0.0026842826
-0.007796985 0.010708511 -0.00420966 -0.0025723295 0.010093087 0.011621952 0.015198636 -0.0052019274
0.0047728033 0.0028096593 0.010009187 -0.0017287696 0.004133006 0.0039971024 -0.0017922822 -0.010505004
0.017518628 0.01077212 0.0072930516 -0.0010428932 -0.0035321468 -0.009049903 -0.011810668 -0.0020175655
0.0055984347 -0.0008747216 -0.0027611859 0.009605719 -0.0014538193 -0.0015567814 -0.00674637 0.011417177
0.007953889 0.005675659 0.0045796405 -0.0056959926 -0.012231474 0.0039910465 6.4458516e-05 -0.001326073
0.0063336105 -0.009180842 0.0027193674 0.012392971 -0.008781223 0.00885998 -0.005662342 -0.014417681
-0.007523445 0.0034412225 0.005235931 -0.0030856403 -0.008058558 -0.00010680448 -0.0064611994 -0.002487875
0.005716681 0.0017696013 -0.0019766954 0.0073117665 -0.0007052055 0.0017553652 -0.01017168 -0.0120377755
-0.0036263615 -0.0010012023 -0.014116377 0.002970424 0.010144929 0.0052977945 -0.0032995846 0.0055101374
-0.003021783 0.008824959 -0.00074694597 0.0010596194 -0.0069101914 -0.0002452903 -0.0051771794 -0.0019453665
-0.0041226665 0.008994221 0.0015027147 -0.006006143 -0.019126253 -0.00305297 0.006043519 -0.0013694357

action_model._discrete_distribution.branches.0.bias f4 [2]
00000000: 0000 0000 0000 0000
0.0 0.0

critic.network_body.linear_encoder.seq_layers.0.weight f4 [128, 3]
00000000: 9d2c 493f 879f 08bf 0195 153e 67a6 163f
00000010: bbf6 9c3d 5ffa 98be 13fe a03e f644 563f
00000020: 5946 5f3e 938c f73b 1994 d63e 1080 62bf
00000030: 88d1 0ebf eafa 853f 39eb 383e 008c d1bd
00000040: cfd9 663f 1e51 113e 1e97 10bf 21f7 07bf
00000050: 241d 50bf b5aa 4a3f 1247 c0be bab1 98bd
00000060: e21e 3d3d 89f8 c4be 6e28 ef3e 81a9 533f
00000070: e8d8 673c b1b2 c2bd 738e 003f ac70 a8be
00000080: 8596 0ebf 5385 0e3e 72fc cf3d b78d 3a3f
00000090: 2afe 253f bbca cc3d 50c4 6a3b 1c9a 2cbf
000000a0: 3adc 0fbf 14c6 f23d f0bc eb3e 42d0 b83e
000000b0: 13d5 26be c2e7 473f 10d5 b0be 6a64 833e
000000c0: 9e92 8abf 5633 813f 117f df3d a4bd 8d3f
000000d0: d3e5 ae3e 0479 eebc 08e8 19bd 8981 343e
000000e0: acb7 873f 1420 483e dfd8 75bf 8a61 053f
000000f0: 3fa6 b3be c5eb fa3e bfac d4bf 7064 8bbe
00000100: f51e 913e 6d79 6bbd f293 243f fe1f c33e
00000110: 08eb 173e 73f9 e53e eda6 fb3e d512 173f
00000120: 81e4 22bf 60c0 e4be b2c8 7dbf 7058 4e3f
00000130: 0ecc f3be 42c6 603f 8a57 29be 45be db3e
00000140: ac99 833e a05e cd3d 2602 d5be da52 033f
00000150: cc3e 0b3f d121 023f a5b9 31bf ef3d cebc
00000160: 9a45 893d 97db 9c3d 98e0 fb3e bbcb 10bf
00000170: 50a8 223f 26bf 80be caca 5a3f e780 6fbd
00000180: b5f4 76bd c290 72be 4e75 7c3d 0cff bdbe
00000190: 4f23 2bbf 82c8 023f d43d 18bf b21d b3bd
000001a0: 04f7 c43e 2b16 f03e 8edf 2abf 5c44 89be
000001b0: 312d c3bf 883a 17bf 4e29 fb3e 4c77 3b3f
000001c0: 25e3 5fbf f865 12bd d5d5 e93c bc81 da3d
000001d0: 6ae9 8c3f 1956 adbe 9391 65be 6fda 5dbf
000001e0: 62a9 3bbf 47a6 e8be 69ae 72bf e86a bcbe
000001f0: d4d0 ee3e ab4c 9c3e f4f9 b3bf 4603 fdbe
00000200: d0ba a73f c043 10bf 01fb 2abf b437 00bf
00000210: 9b25 7e3f 1bc5 4ebd 1215 bf3f df94 c03e
00000220: 3326 6f3f 6f1c 21bf 51b1 ac3f f807 34bf
00000230: 8c28 39bd 28a3 153e 8de6 ef3d e3e8 b2bf
00000240: 951b adbf 5cdd 61bc fed6 a23e c664 67bd
00000250: 3e2b 123f 0011 2fbc 0aa6 0b3f 3452 b0be
00000260: a0f8 653e 7c61 b53d ba71 b3be fece 57be
00000270: ca08 ee3d 4927 24be e70c 173e 912f c3bc
00000280: 3b8c 9abf 2141 b5be 5f6a 2abf 25ff 973e
00000290: a73c de3e 630e 60bf 1e46 943f 34d1 f2be
000002a0: af2e 2ebf 95e6 8dbe 323a 93bf ec98 0d3f
000002b0: 897c 943f 03c9 a53d 5d87 10be 8379 8f3e
000002c0: 0748 1ebe 10bc e73d 2e4f bbbe eaef 42bf
000002d0: 4ca7 b03e 4167 84be 5001 0a3f a78f 083f
000002e0: 9ac1 503f 8156 c3bf 90f9 74be 1c3e f33d
000002f0: d0b2 893e 6028 6cbf d6de 14bf 77d2 b53e
00000300: c757 16bf 6514 eb3b 8540 d63e f873 1a3e
00000310: f948 ccbd 336f 263f 9bc4 a9bf 4dc7 3dbf
00000320: 9084 b23f dbb9 9abe 271d 64bf 0a19 633f
00000330: d635 bdbe fa98 fa3e b63b 4bbe 3330 023f
00000340: cdd9 32be 74f7 17bf 575c 683e 98df a0bf
00000350: d8b5 c53d cc35 aabd de4d b6be b726 1f3f
00000360: 3874 0abf 8a27 42bf c584 053e 1f72 4f3f
00000370: 64ad 71bf dbb6 aabe 791a 96bf 322a 00bf
00000380: 1d80 b23e 3c6f 97be 52fe 643f 1e1b b53e
00000390: d76c 143f 0db4 053f 1064 413f 8761 afbd
000003a0: 63e3 6dbf d2ff d63e 5aef 08be 210a 0a3f
000003b0: 38d2 68be 436c 11bf 0bc4 09bf b98c dc3e
000003c0: b6e7 ffbe df52 973d 5638 4fbe c036 333f
000003d0: 55f5 c73e 6f2a 18bf c683 52bd 7319 bc3e
000003e0: 8a55 64be 0362 22bf 2106 a4be 5482 843e
000003f0: 6589 81be 29bf 443e 795d 263f b6df fcbe
0.785837 -0.5336842 0.14607622 0.5884766 0.076642476 -0.29878518 0.31443843 0.83698976
0.21804179 0.0075545995 0.41909865 -0.8847666 -0.5578847 1.0467198 0.1805848 -0.10231781
0.901761 0.141911 -0.56480587 -0.53111464 -0.81294465 0.7916673 -0.37554222 -0.07455774
0.04617203 -0.38470867 0.46710533 0.8268052 0.014150836 -0.09506739 0.5021736 -0.32898462
-0.55698425 0.13918047 0.10155572 0.7287249 0.6484095 0.09999605 0.0035822578 -0.6742265
-0.56195414 0.11854187 0.46042585 0.36096388 -0.16292219 0.7808801 -0.34537554 0.25662547
-1.0825994 1.0093791 0.10912908 1.1073499 0.34159717 -0.02911044 -0.037574798 0.17627539
1.0602927 0.19543487 -0.96034044 0.5210196 -0.35087773 0.49008003 -1.6615218 -0.27225065
0.2834393 -0.057488848 0.64288247 0.38110346 0.14835751 0.44916877 0.49150792 0.5901311
-0.6362992 -0.4467802 -0.9913436 0.80603695 -0.4761662 0.8780252 -0.165373 0.42918602
0.2570318 0.10027814 -0.41603202 0.51298296 0.54392695 0.5083285 -0.69423896 -0.025176017
0.067027286 0.07659071 0.4919479 -0.5656087 0.63538074 -0.25145835 0.8546568 -0.05847254
-0.060291965 -0.23688033 0.061635308 -0.37108648 -0.6685075 0.510872 -0.5946934 -0.08745898
0.38469708 0.46891913 -0.6674737 -0.26809967 -1.5248166 -0.59073687 0.4905495 0.7322891
-0.8745597 -0.035741776 0.028544346 0.10669276 1.1008732 -0.3385475 -0.22418813 -0.8666143
-0.7330533 -0.4543936 -0.9479738 -0.36800313 0.46643698 0.30527243 -1.4060655 -0.4941656
1.3103886 -0.5635338 -0.6678925 -0.50084996 0.9927613 -0.050480943 1.4928305 0.3761358
0.9341766 -0.6293401 1.3491613 -0.7032466 -0.045204684 0.1461302 0.11713896 -1.3977321
-1.3524042 -0.013785686 0.3180465 -0.05649259 0.5709723 -0.010685205 0.5455023 -0.34437716
0.22458124 0.08856484 -0.35047704 -0.21075055 0.1162277 -0.16030611 0.14751016 -0.023826392
-1.2074045 -0.35401252 -0.6656856 0.29686847 0.4340565 -0.8752195 1.1583898 -0.47425234
-0.68039984 -0.27714983 -1.1502135 0.55311465 1.1600505 0.080949806 -0.14114137 0.28022394
-0.15457164 0.11315167 -0.36583847 -0.7614733 0.34502637 -0.25860026 0.5390825 0.53344196
0.8154541 -1.5260774 -0.23923326 0.11877081 0.26894236 -0.9224911 -0.5815252 0.35512134
-0.5872769 0.007174062 0.418461 0.15083301 -0.09974856 0.65013427 -1.3263124 -0.74132234
1.3946705 -0.3021992 -0.8910698 0.8871008 -0.36955136 0.48944837 -0.19846997 0.50854796
-0.17465897 -0.5936196 0.22691475 -1.2568235 0.096538246 -0.08311042 -0.35606283 0.6216845
-0.54083586 -0.7584158 0.13038929 0.8103351 -0.944052 -0.33342633 -1.1726829 -0.50064385
0.34863368 -0.29577053 0.8945056 0.3537225 0.57978576 0.5222786 0.7554331 -0.08563524
-0.9292509 0.4199205 -0.13372555 0.53921705 -0.22736442 -0.5680582 -0.5381476 0.43076113
-0.4998147 0.07388853 -0.20236334 0.70005417 0.3905436 -0.5943975 -0.0513952 0.36738166
-0.22298256 -0.63430804 -0.32035926 0.25880682 -0.25300136 0.19213547 0.6498638 -0.49389428

critic.network_body.linear_encoder.seq_layers.0.bias f4 [128]
00000000: 0000 0000 0000 0000 0000 0000 0000 0000
00000010: 0000 0000 0000 0000 0000 0000 0000 0000
00000020: 0000 0000 0000 0000 0000 0000 0000 0000
00000030: 0000 0000 0000 0000 0000 0000 0000 0000
00000040: 0000 0000 0000 0000 0000 0000 0000 0000
00000050: 0000 0000 0000 0000 0000 0000 0000 0000
00000060: 0000 0000 0000 0000 0000 0000 0000 0000
00000070: 0000 0000 0000 0000 0000 0000 0000 0000
00000080: 0000 0000 0000 0000 0000 0000 0000 0000
00000090: 0000 0000 0000 0000 0000 0000 0000 0000
000000a0: 0000 0000 0000 0000 0000 0000 0000 0000
000000b0: 0000 0000 0000 0000 0000 0000 0000 0000
000000c0: 0000 0000 0000 0000 0000 0000 0000 0000
000000d0: 0000 0000 0000 0000 0000 0000 0000 0000
000000e0: 0000 0000 0000 0000 0000 0000 0000 0000
000000f0: 0000 0000 0000 0000 0000 0000 0000 0000
00000100: 0000 0000 0000 0000 0000 0000 0000 0000
00000110: 0000 0000 0000 0000 0000 0000 0000 0000
00000120: 0000 0000 0000 0000 0000 0000 0000 0000
00000130: 0000 0000 0000 0000 0000 0000 0000 0000
00000140: 0000 0000 0000 0000 0000 0000 0000 0000
00000150: 0000 0000 0000 0000 0000 0000 0000 0000
00000160: 0000 0000 0000 0000 0000 0000 0000 0000
00000170: 0000 0000 0000 0000 0000 0000 0000 0000
00000180: 0000 0000 0000 0000 0000 0000 0000 0000
00000190: 0000 0000 0000 0000 0000 0000 0000 0000
000001a0: 0000 0000 0000 0000 0000 0000 0000 0000
000001b0: 0000 0000 0000 0000 0000 0000 0000 0000
000001c0: 0000 0000 0000 0000 0000 0000 0000 0000
000001d0: 0000 0000 0000 0000 0000 0000 0000 0000
000001e0: 0000 0000 0000 0000 0000 0000 0000 0000
000001f0: 0000 0000 0000 0000 0000 0000 0000 0000
0.0 0.0 0.0 0.0 0.0 0.0 0.0 0.0
0.0 0.0 0.0 0.0 0.0 0.0 0.0 0.0
0.0 0.0 0.0 0.0 0.0 0.0 0.0 0.0
0.0 0.0 0.0 0.0 0.0 0.0 0.0 0.0
0.0 0.0 0.0 0.0 0.0 0.0 0.0 0.0
0.0 0.0 0.0 0.0 0.0 0.0 0.0 0.0
0.0 0.0 0.0 0.0 0.0 0.0 0.0 0.0
0.0 0.0 0.0 0.0 0.0 0.0 0.0 0.0
0.0 0.0 0.0 0.0 0.0 0.0 0.0 0.0
0.0 0.0 0.0 0.0 0.0 0.0 0.0 0.0
0.0 0.0 0.0 0.0 0.0 0.0 0.0 0.0
0.0 0.0 0.0 0.0 0.0 0.0 0.0 0.0
0.0 0.0 0.0 0.0 0.0 0.0 0.0 0.0
0.0 0.0 0.0 0.0 0.0 0.0 0.0 0.0
0.0 0.0 0.0 0.0 0.0 0.0 0.0 0.0
0.0 0.0 0.0 0.0 0.0 0.0 0.0 0.0

critic.network_body.linear_encoder.seq_layers.2.weight f4 [128, 128]
00000000: 64dd 44bd 1c05 de3b 8099 943c 12cc acbd
00000010: 655c 03bd 08b8 263e 844d 013e 72dd 9d3d
00000020: 5ee3 613c eb9b fcbc a020 76bd 2193 28bc
00000030: 8f95 643d 5421 983d c0d0 443d 2965 743d
00000040: 9cd0 07bd f21e 46bc f4c0 523c e6b1 603d
00000050: 7f2c ebbc a556 b8bd e88b 2abe 18cc 1b3e
00000060: f966 783d 45de 1ebc b077 ccbd fd3a 903d
00000070: 2e96 8e3c 9d52 e83d 1c34 61bd 3467 e83c
00000080: 8e87 3c3d 712a 8abd f168 923d 800e f2bc
00000090: 029a e9bb bd82 683a 533a 35bd b227 aa38
000000a0: a636 643e 1ea5 a5bd a54c a13c 195a e53d
000000b0: 8198 40be 273b c33d 022b 2d3e 9f0c 00be
000000c0: 1a33 9d3d 8cb6 7fbd dc10 613d 7394 ae3d
000000d0: 8da3 473e a3f8 aa3d 0c12 eebd 7956 bebd
000000e0: dfe0 a0bc 9974 8bbc 7d37 a9bd c37d 9abd
000000f0: f2f4 903d 21bb 503d c400 97bd aa91 65bc
00000100: 65d5 1dbd 11c4 da3a 1bae 283d 2f60 53bc
00000110: 1c61 b43b e498 80bd 94f4 34be 2d99 1dbd
00000120: c9d8 bc3b 9f5e 1fbd 9413 f8bc 9b01 4a3d
00000130: c78c 59bd bee2 35bd 0e2d 9abd e0ae 363c
00000140: a9bd f23d 6441 5b3c 120f c73d 7ae1 1abd
00000150: f3d1 99bc 3afa 73bc 70b3 553b 167e 213c
00000160: 6bbf 05bd 3636 c1bd 7eee 06bd 8187 cdbd
00000170: 8208 abbc 3b87 9abd 3157 043e 3979 01bc
00000180: 2185 283e 3340 36bb 146b ea3c 5204 0c3e
00000190: 91ea ca3d cc81 483d 7423 ec3c b712 38bd
000001a0: 4415 54bd 84ce 413d deb8 b13d b0b8 dd3c
000001b0: e2c7 dcbd 3812 ec3d 6bb9 8fbd 1f08 13bd
000001c0: 676d debc 859b 26bd 0bb9 2f3d 07df 0dbd
000001d0: d2bc bc3c 48a7 413d d1a2 a1bb c2ad 3f3e
000001e0: 1765 493e c068 07be 25d2 9abd a694 bdbc
000001f0: a82d 31be 940b 75bd ce89 d53d e585 803d
00000200: c64a 803d c5e3 843d dbe9 223d d65b 72bd
00000210: f1e4 c8bd e045 6fbc 993f 45bd bbd2 2ebe
00000220: 3064 4f3e b223 dbbb 7e93 363c a3f7 b1bb
00000230: 315e 78ba 4ff3 1a3d e4f3 74bd af85 cf3b
00000240: f93e 0cbe 2b21 61bd a721 233b 1b1c 6a3d
00000250: fd7c 9abd 808d 06be 53da 1abc 1a4f 493c
00000260: f277 3c3c b747 013e 3ae9 f8b9 e96a 2fbe
00000270: eb42 a9bc e28f 943d cfcd 3b3d 01e6 d2bc
00000280: f061 443d e6c1 f73a 20b4 513c 10c7 86bb
00000290: 6d40 603d 01fa 8dbe 8746 33bd fe5b 883d
000002a0: 205d b0bd 29b7 e83d 9f15 babc 8f0b 38bc
000002b0: b8f8 593d 1b84 4a3d 4c86 9f3d 9b68 c63d
000002c0: 2b5e 303e 174f af3d aaee 8a3d b659 c43d
000002d0: 36da 643e 7886 01be f45f adbd cdf2 bdbc
000002e0: 9746 bebc 162f 1d3d 4c92 91bd 4c5a 32bd
000002f0: d599 983d 7caa 2bbd d43f 673e 469d 21bd
00000300: 40b1 d63d 2faf 833d 9e0b 27bd 36ab 15be
00000310: 8b34 0fbe 4437 a93d 2787 aabd 77fa b5bc
00000320: a459 efb9 d6f0 e3bc 45f1 8c3c e673 963d
00000330: acbc 13bd 364c 14be c8d3 88bd 0c48 11bb
00000340: 9b2a b23d 7878 a23d c812 e9bd 9159 4b3c
00000350: 001e 6b3d 8f9c c7bd 5b9b 87bd 7b51 44bd
00000360: ae5c 1dbc 2e9d c9bd 40bd 14bc 29cf bebc
00000370: 4e11 c53d e031 213e ebc9 0c3d 0cf2 0abe
00000380: cd19 b93d bc3f febd e071 843d 062f 16bd
00000390: 947a 07bc 6d16 e9bd 9b9e 58bd 85d3 8b3d
000003a0: f77f 2d3d 0ac2 a93c 723e 24bd e0c4 18bd
000003b0: 25d6 fabd 368e 713c 9e80 13be 5805 fd3d
000003c0: a298 e9bb b7d1 05bd 9886 9fbc c5f9 bd3d
000003d0: b01e 13be d868 10be db16 75bd 24e0 ae3c
000003e0: b8fe 88bd fe66 86bd 859b e23d ce61 243d
000003f0: 95d1 7a3d cdad d53c eea6 e43d 8b82 18ba
-0.048062697 0.0067755114 0.0181396 -0.08437361 -0.032070536 0.1628114 0.12627226 0.07708253
0.013787119 -0.030836066 -0.060089707 -0.0102889845 0.055806693 0.07428232 0.048050642 0.059666786
-0.03315793 -0.012092339 0.012863386 0.054857157 -0.02870774 -0.09000901 -0.16654932 0.15214574
0.060645077 -0.009696548 -0.09983766 0.07042501 0.017405596 0.11343882 -0.054981336 0.028369524
0.046027713 -0.06746376 0.07148922 -0.02954793 -0.007128955 0.0008869579 -0.044245075 8.1136255e-05
0.22286472 -0.08088134 0.019689867 0.111988254 -0.18808176 0.09532767 0.16910937 -0.12504815
0.076757625 -0.06242995 0.05494772 0.08524408 0.19495983 0.08348205 -0.11624536 -0.09293837
-0.019638477 -0.017023372 -0.08262537 -0.075435184 0.070779696 0.05095971 -0.07373193 -0.01401178
-0.038533587 0.0016690512 0.041181665 -0.01290135 0.0055047404 -0.062791616 -0.17671424 -0.038476158
0.0057631475 -0.038908597 -0.030282773 0.049317937 -0.05311277 -0.04440569 -0.07528125 0.011150092
0.11852581 0.01338229 0.09719671 -0.037812687 -0.01877687 -0.014891202 0.0032608174 0.009856721
-0.032653254 -0.09434168 -0.032942288 -0.10035611 -0.02087808 -0.075453244 0.12923886 -0.007902437
0.16457035 -0.0027809262 0.028615512 0.13673523 0.09908021 0.04895191 0.0288255 -0.044939723
-0.051778093 0.04731609 0.08677839 0.027065605 -0.10780312 0.115269125 -0.070177875 -0.035896417
-0.027151776 -0.04067566 0.04290108 -0.034636524 0.023039255 0.047278672 -0.0049327393 0.18718627
0.19667469 -0.13223553 -0.07559613 -0.02314217 -0.17302573 -0.059825495 0.10426675 0.06275538
0.06264262 0.06488756 0.039773803 -0.059169613 -0.09809292 -0.014604062 -0.048156355 -0.17072575
0.20253062 -0.006687605 0.011143563 -0.005431132 -0.0009474485 0.037829693 -0.059802905 0.006333075
-0.13695897 -0.054963272 0.0024891885 0.05715571 -0.07543371 -0.13139915 -0.009451467 0.012286926
0.011503207 0.12625013 -0.00047476013 -0.17130627 -0.020661792 0.07254006 0.04585057 -0.02574444
0.047944963 0.0018902391 0.012799293 -0.0041130856 0.05474894 -0.277298 -0.043768432 0.06658171
-0.08611512 0.1136306 -0.022715388 -0.0112332245 0.053215712 0.04944239 0.07789287 0.09687921
0.17223422 0.08560007 0.06783803 0.095874235 0.22348866 -0.12648952 -0.08465567 -0.023187065
-0.02322702 0.038374983 -0.07107982 -0.043543145 0.07451216 -0.041910633 0.22582942 -0.03945663
0.104830265 0.06429898 -0.040782563 -0.14616093 -0.13984887 0.08262494 -0.083265595 -0.022214158
-0.0004565242 -0.0278248 0.01720489 0.073463246 -0.036068603 -0.14482197 -0.06681019 -0.0022168187
0.086995326 0.07933134 -0.11380535 0.012411491 0.057401657 -0.09746658 -0.066214286 -0.04792927
-0.009604616 -0.09844433 -0.009078324 -0.023292141 0.09622441 0.15741682 0.03437225 -0.13568896
0.09038124 -0.124145 0.064670324 -0.03666594 -0.008268971 -0.113812305 -0.052885633 0.068274535
0.042358365 0.020722408 -0.040098615 -0.03729713 -0.12247876 0.014743378 -0.14404532 0.12354535
-0.007128791 -0.032670703 -0.019473359 0.092761554 -0.14367175 -0.14102495 -0.05983625 0.021347113
-0.06689209 -0.06562613 0.11064819 0.040132336 0.06123503 0.026083851 0.11164652 -0.0005817792

critic.network_body.linear_encoder.seq_layers.2.bias f4 [128]
00000000: 0000 0000 0000 0000 0000 0000 0000 0000
00000010: 0000 0000 0000 0000 0000 0000 0000 0000
00000020: 0000 0000 0000 0000 0000 0000 0000 0000
00000030: 0000 0000 0000 0000 0000 0000 0000 0000
00000040: 0000 0000 0000 0000 0000 0000 0000 0000
00000050: 0000 0000 0000 0000 0000 0000 0000 0000
00000060: 0000 0000 0000 0000 0000 0000 0000 0000
00000070: 0000 0000 0000 0000 0000 0000 0000 0000
00000080: 0000 0000 0000 0000 0000 0000 0000 0000
00000090: 0000 0000 0000 0000 0000 0000 0000 0000
000000a0: 0000 0000 0000 0000 0000 0000 0000 0000
000000b0: 0000 0000 0000 0000 0000 0000 0000 0000
000000c0: 0000 0000 0000 0000 0000 0000 0000 0000
000000d0: 0000 0000 0000 0000 0000 0000 0000 0000
000000e0: 0000 0000 0000 0000 0000 0000 0000 0000
000000f0: 0000 0000 0000 0000 0000 0000 0000 0000
00000100: 0000 0000 0000 0000 0000 0000 0000 0000
00000110: 0000 0000 0000 0000 0000 0000 0000 0000
00000120: 0000 0000 0000 0000 0000 0000 0000 0000
00000130: 0000 0000 0000 0000 0000 0000 0000 0000
00000140: 0000 0000 0000 0000 0000 0000 0000 0000
00000150: 0000 0000 0000 0000 0000 0000 0000 0000
00000160: 0000 0000 0000 0000 0000 0000 0000 0000
00000170: 0000 0000 0000 0000 0000 0000 0000 0000
00000180: 0000 0000 0000 0000 0000 0000 0000 0000
00000190: 0000 0000 0000 0000 0000 0000 0000 0000
000001a0: 0000 0000 0000 0000 0000 0000 0000 0000
000001b0: 0000 0000 0000 0000 0000 0000 0000 0000
000001c0: 0000 0000 0000 0000 0000 0000 0000 0000
000001d0: 0000 0000 0000 0000 0000 0000 0000 0000
000001e0: 0000 0000 0000 0000 0000 0000 0000 0000
000001f0: 0000 0000 0000 0000 0000 0000 0000 0000
0.0 0.0 0.0 0.0 0.0 0.0 0.0 0.0
0.0 0.0 0.0 0.0 0.0 0.0 0.0 0.0
0.0 0.0 0.0 0.0 0.0 0.0 0.0 0.0
0.0 0.0 0.0 0.0 0.0 0.0 0.0 0.0
0.0 0.0 0.0 0.0 0.0 0.0 0.0 0.0
0.0 0.0 0.0 0.0 0.0 0.0 0.0 0.0
0.0 0.0 0.0 0.0 0.0 0.0 0.0 0.0
0.0 0.0 0.0 0.0 0.0 0.0 0.0 0.0
0.0 0.0 0.0 0.0 0.0 0.0 0.0 0.0
0.0 0.0 0.0 0.0 0.0 0.0 0.0 0.0
0.0 0.0 0.0 0.0 0.0 0.0 0.0 0.0
0.0 0.0 0.0 0.0 0.0 0.0 0.0 0.0
0.0 0.0 0.0 0.0 0.0 0.0 0.0 0.0
0.0 0.0 0.0 0.0 0.0 0.0 0.0 0.0
0.0 0.0 0.0 0.0 0.0 0.0 0.0 0.0
0.0 0.0 0.0 0.0 0.0 0.0 0.0 0.0

critic.value_heads.value_heads.extrinsic.weight f4 [1, 128]
00000000: 9283 80bd 8364 82bd 6d92 13be acd4 39be
00000010: 2559 cc3d 4328 55bd c3d6 15bd 1ce6 b3bd
00000020: 13d7 053e febd d7bd 47b4 14be 4e5f 14be
00000030: 2bb5 463d a1bb e03d 4fd5 84bc 2b33 4d3c
00000040: a4df bb3d 3fa4 573e 830b ffbd 8cfd 1ebe
00000050: 422f 51be 9a22 9a3c d1d8 5a3d a358 d83a
00000060: 58c6 44be 4491 f1bd 9c8f 16be d4c0 9dbc
00000070: 86de 403e 25d1 dd3d a36c 463e 3624 b63d
00000080: 389f 463e 1ed0 1cbe 63a3 03bd e64d 91bd
00000090: 18ff 463e 2564 10be 616e 8d3d e10f 52be
000000a0: a3b5 17be 7c08 2fbe 8d5a 873b 0496 babd
000000b0: 9f08 203e e76d f73d cad4 4bbe 91dd a0bd
000000c0: 343e 463e 44fe 593e 64d7 ff3d c8fe 583e
000000d0: c9ad 35bd fb30 243e bc1c 423e cd12 503e
000000e0: 556a 46be 7d77 4b3d 499d 02bd 7128 153e
000000f0: 2c7d 2c3d 141d 813d 83c2 bebd 1a62 5c3e
00000100: 64af e1bd 6a54 1b3b 9c81 983c b863 a6bd
00000110: 4727 d8bd 19ad 93bd a274 63bd 6360 1ebe
00000120: 57ab ec3d 9781 323c 2fa6 68bd 89fa 48bd
00000130: 159d 023e 1887 1ebe e864 a6bd e867 56bc
00000140: f16d f3bd 5c05 b2bd 970e 3cbb c551 ac3d
00000150: 8608 acbc 5979 5a3e 1678 3fbe 226f 053d
00000160: 7039 6a3d de9c ce3d e6da acbd 7d07 163e
00000170: 1e46 343e f970 2cbe 21bb 923d c5ab b9bd
00000180: dbc1 443e 2761 26be ca04 fa3b 46a2 2a3d
00000190: 3e88 c2bd f2e9 b7bc 7aae 09be 9242 50be
000001a0: 6fce 19be 16d0 2e3e ab7b cfbd ad46 b1bd
000001b0: f7b7 3abe ea34 ddbd a9d8 53be c7e7 b5bd
000001c0: 6a43 5a3e 986e 76bd 4ec3 133e bfac a0bd
000001d0: ac31 45be 3d8e 80bc 9013 b4bd d367 0dbe
000001e0: bb88 5bbe 92ae 013e 5ed9 403e a1df 31be
000001f0: 36df 193e 08ad 52be 504d c3bc e67d b73b
-0.06275095 -0.06366827 -0.14411326 -0.18147534 0.099779405 -0.05204035 -0.036581766 -0.08784124
0.13070326 -0.10534285 -0.14521895 -0.14489481 0.04851262 0.109732874 -0.016214995 0.012524406
0.091735154 0.21058749 -0.124533676 -0.15526408 -0.20428184 0.018815327 0.05342943 0.0016505908
-0.19216287 -0.11795285 -0.1470322 -0.019256987 0.18834886 0.10830907 0.19377379 0.088936254
0.19396675 -0.15313765 -0.03213824 -0.07094936 0.19433248 -0.14100702 0.06905819 -0.2051387
-0.14815383 -0.1709308 0.0041306675 -0.091106445 0.15628289 0.12081509 -0.19905391 -0.078547604
0.19359666 0.21288401 0.124922544 0.21190941 -0.044355188 0.1603431 0.18956274 0.20319672
-0.193765 0.0496745 -0.03188828 0.14566208 0.04211156 0.06304374 -0.09314444 0.21521798
-0.11019781 0.0023701438 0.01861649 -0.081244886 -0.105543666 -0.0721075 -0.05553115 -0.15466456
0.11556118 0.010895154 -0.05679911 -0.049067054 0.12755235 -0.15481222 -0.08124715 -0.013086297
-0.11886204 -0.086924285 -0.002869522 0.08414034 -0.021000158 0.21335353 -0.18698153 0.032576688
0.057183683 0.10088514 -0.08440189 0.14651294 0.17604873 -0.1683997 0.07164598 -0.090659656
0.19214575 -0.16247998 0.0076299654 0.041658662 -0.094986424 -0.022450421 -0.13445464 -0.20337895
-0.15020154 0.17071566 -0.1013101 -0.086560585 -0.1823424 -0.10801108 -0.20688118 -0.08882099
0.21314779 -0.060164064 0.14429972 -0.07845449 -0.1925723 -0.015692824 -0.08792794 -0.13809137
-0.21438877 0.1266425 0.18832919 -0.17370464 0.15026554 -0.20573819 -0.023840576 0.005599725
