results/scaled/Car Agent/Car Agent-75119.onnx (onnx, 82258 bytes, 9 tensors)

action_model._continuous_distribution.log_sigma f4 [1, 2]
000000 44 0b 3b 3b 96 de 78 3b
       0.002854065 0.0037974468

action_model._continuous_distribution.mu.bias f4 [2]
000000 5e eb 50 ba 5e 3e aa 39
       -0.0007969643 0.00032471394

action_model._continuous_distribution.mu.weight f4 [2, 128]
000000 0e 3e 7e bc 5a 60 8a 3b 4a cb 3d 3a 90 4d f4 3a
       -0.015517725 0.004222912 0.000724007 0.0018638838
000010 d9 f2 09 bc 24 a7 52 bc 88 32 11 3d 63 35 0a bc
       -0.008419716 -0.012857232 0.03544858 -0.00843558
000020 f4 4e fb 3b 53 ef 58 bc 3f 63 9a 3c c9 7a 8b bb
       0.007669324 -0.013240653 0.018846152 -0.0042565805
000030 bd 74 90 3a d2 6b eb 3c 1c e0 82 3c 30 d4 53 3c
       0.0011021119 0.028737936 0.015976004 0.012929007
000040 8d 55 f9 3a 0a 75 22 bd 90 60 c1 ba c0 72 81 bb
       0.0019022689 -0.0396624 -0.0014753509 -0.003950447
000050 03 00 17 3d 14 06 3f bc fa 38 c0 ba d9 b8 ce 3c
       0.036865246 -0.011659164 -0.0014665418 0.025234627
000060 98 fe 0a bd dd e7 3f 3b dd 24 1e 3d 69 e0 8b bb
       -0.033934206 0.0029282488 0.038609374 -0.004268695
000070 b2 bd b4 b9 ff 2d b9 3c b6 f2 14 bc 8f 32 46 bc
       -0.0003447361 0.02260494 -0.00909107 -0.012097015
000080 45 f9 02 bc ae 2b e5 3c 5f 9b 08 bc b2 0f 92 3b
       -0.007994001 0.02797493 -0.008337825 0.0044574374
000090 66 40 47 bc d3 b9 66 3c d1 b4 58 3c 8b b7 aa bc
       -0.01216135 0.01408239 0.013226704 -0.020839473
0000a0 70 fa 09 3c 60 f0 b4 ba 75 4e d5 bc 66 c5 02 bc
       0.008421525 -0.0013804547 -0.026038388 -0.007981634
0000b0 98 8f 53 bc 54 9e 00 bc 59 7b 50 bb 91 82 93 bc
       -0.012912653 -0.007850248 -0.0031811802 -0.018006595
0000c0 a4 46 03 3c 96 65 d6 bc 62 f9 87 bc b7 13 84 3b
       0.0080124475 -0.026171487 -0.016598407 0.0040306705
0000d0 8c e0 2e 3c dc 4f e5 bc e9 2b 20 bc 49 1e 98 bc
       0.010673653 -0.027992181 -0.009776094 -0.018569129
0000e0 82 2b 02 bd 47 c7 3c bc ab 84 20 3c 3d 26 c3 3b
       -0.031779774 -0.011522121 0.0097972555 0.005955486
0000f0 ab 1d 8e 3b 75 d9 92 3c 88 51 b9 3c 25 92 91 bc
       0.004337033 0.017925957 0.022621885 -0.017769882
000100 34 5d 32 3c f5 c9 e7 bb 57 11 5f bc 31 4f 90 3c
       0.010886479 -0.0070736357 -0.013614974 0.017615886
000110 e0 8c b4 bc a1 00 21 bc f3 2e c7 3c 4a 8e e4 b9
       -0.02203983 -0.00982681 0.02431438 -0.00043593562
000120 bb 91 84 3b a5 6b 0a bc 45 27 97 3c 1a 04 9e 3b
       0.0040456927 -0.008448516 0.018451342 0.0048222663
000130 c7 c9 40 bd bf d3 d7 3b a5 b2 30 bc 7b a7 b1 3c
       -0.04706743 0.0065865214 -0.01078478 0.021686306
000140 b9 c7 9f bb 08 ea f9 bb 56 1a 86 3b 95 30 e8 bb
       -0.0048761037 -0.0076267757 0.004092495 -0.0070858696
000150 82 1b ed ba b6 cf 23 3c 39 98 c2 3c dc 19 aa bb
       -0.0018089863 0.009998253 0.023754226 -0.005191071
000160 93 2b 9c 3a e5 5a ba bc ee b6 9e bc 39 f9 62 bc
       0.0011914842 -0.02274842 -0.019374337 -0.013853365
000170 04 51 0c bd 4e ec 06 bd ad 21 ef bc 6d 6a df bb
       -0.03425695 -0.0329402 -0.029190863 -0.006818107
000180 5c e4 02 3c 97 02 e0 bb 7a cb b6 3c 36 68 7a 3a
       0.007989015 -0.0068362462 0.022313822 0.0009552272
000190 ab 47 ce bc 2d 3e 12 3c 77 64 dc bc 7d 3a d8 bb
       -0.025180658 0.008925957 -0.026903374 -0.006598769
0001a0 bc 20 96 3b 48 55 a4 3c 9e 5f 5f 3c 9a c4 06 3c
       0.004581539 0.020060197 0.013633637 0.008225584
0001b0 5b eb 27 3b 07 9c 5d 3c 02 f3 37 3a 7b 45 da 3b
       0.002562246 0.013525969 0.0007017107 0.0066611147
0001c0 0b 05 84 3c 80 31 0c 3c d8 83 51 3c 4a 77 2e 3d
       0.016115686 0.008556724 0.012787782 0.04259423
0001d0 bb 9d 91 3b 0e 0f e6 ba 7a 4d 2a 3d 3f 32 ad 3c
       0.0044438518 -0.0017552094 0.041577794 0.021142123
0001e0 d7 2e 06 3c 2d d9 f9 3c 9e 30 cd 3c 64 14 15 bc
       0.008189878 0.030499065 0.025047597 -0.0090991
0001f0 74 6e 63 3a dc 25 a1 3b d5 58 ae 3c e7 de d3 bc
       0.00086758216 0.0049178433 0.021282593 -0.025863124
000200 62 d1 26 b9 0f 58 90 3c a5 d8 25 3d 94 73 a0 bc
       -0.00015908995 0.017620115 0.04048981 -0.019586362
000210 3c 11 48 bc 52 86 54 3c a9 eb fb bc d7 74 82 3c
       -0.01221114 0.012971478 -0.03075202 0.015924854
000220 91 73 04 bb 3a 5a 38 3c 9f b5 b3 bc ee 9f c1 bb
       -0.0020210485 0.01125198 -0.02193719 -0.0059089577
000230 6d 81 ef bc ef 05 2e 3d 43 88 c0 3c f1 ce 30 3a
       -0.02923652 0.042486127 0.023502475 0.0006744704
000240 8e 54 1b 3d d6 3f 24 ba 19 1d de 3a df cf 1a bc
       0.037922435 -0.0006265616 0.0016945928 -0.009448974
000250 5d 8b f4 3b e5 65 23 bc 28 1f 5c 3b 82 ed 8b 3c
       0.0074629025 -0.009973024 0.0033587907 0.017081026
000260 de 01 96 3b 6a a9 3f 3b 58 aa e0 bb aa b3 ad 3b
       0.0045778593 0.0029245266 -0.006856244 0.0053009586
000270 3b 1c 96 3c 60 6d 25 3b 80 fb a9 bc eb 86 87 bc
       0.018324008 0.0025242195 -0.020749807 -0.016543826
000280 ae 40 87 3c 1d 0a d4 bc 9c 62 f9 bb f3 10 10 39
       0.016510334 -0.025883729 -0.007610632 0.00013739224
000290 3d ad 0f 3c 46 7c 65 bc 5d e0 95 3b a1 22 c3 3c
       0.008769331 -0.01400668 0.0045738653 0.023820223
0002a0 8d 20 b6 bc 05 76 26 bd 99 b4 1c bc 25 43 df 3c
       -0.022232318 -0.040639896 -0.009564542 0.027253697
0002b0 be 17 fe bb e2 7e cd 3b b0 6c 6c bc f0 41 af 3b
       -0.007754295 0.006271229 -0.01443021 0.0053484365
0002c0 9a a5 b6 bc 31 ba 9c b8 bb 27 34 bc a0 87 21 3c
       -0.022295762 -7.4733405e-05 -0.010995801 0.009858996
0002d0 02 35 16 bc 7a c1 db 3b 33 b5 86 bc 68 75 10 ba
       -0.0091679115 0.006706414 -0.016443824 -0.0005510659
0002e0 31 49 f1 3b 99 b1 66 3c 38 2e 68 3c be eb 3b bd
       0.0073634614 0.0140804285 0.014171176 -0.04587912
0002f0 4e 92 92 bc e6 91 06 bd 13 37 19 bc 8a 38 70 bc
       -0.01789203 -0.032853983 -0.00935151 -0.014661917
000300 00 59 de bc 13 14 42 bc b0 b0 30 3c f3 62 06 3d
       -0.027142048 -0.011845606 0.010784313 0.03280921
000310 76 f1 99 bc 7f 8c a8 bc f6 8e f9 bb 4e 4a 7c bb
       -0.018791895 -0.020574806 -0.007615919 -0.0038496437
000320 e0 e2 bf bb 43 04 a8 bb 52 da 80 3b 1d 43 a9 ba
       -0.005855903 -0.005127461 0.003932276 -0.0012913678
000330 5e aa 89 bc 43 b4 d6 bc 13 78 8f bc 8e 1b 3a bb
       -0.01680487 -0.026209002 -0.01751331 -0.0028397772
000340 27 f2 a9 3c c6 93 73 3b e2 7c d2 3c 78 61 b7 3b
       0.02074535 0.0037166937 0.025694314 0.005596336
000350 16 72 f3 3c b0 7f 9b bc 15 d0 74 3c 8b 1f ad 3b
       0.029717486 -0.018981785 0.014942189 0.005283301
000360 77 3c c7 3a 1a 23 8f 3c 9a 7f 5e bc 42 65 df 3a
       0.0015200515 0.017472792 -0.013580227 0.0017043727
000370 f1 c0 a3 bc 16 3f e7 b9 05 46 79 3c f6 08 99 3c
       -0.019989463 -0.00044106756 0.015214448 0.01868103
000380 81 b3 9f bc f3 bb 09 bc 84 d2 1d bb ec 60 5a 3c
       -0.019494774 -0.008406627 -0.0024081776 0.013328772
000390 e9 c9 a4 bc 20 49 b8 3c 51 4b 4b bc 45 57 c0 bc
       -0.02011581 0.022495806 -0.012408094 -0.023479113
0003a0 4a 0d a7 bb d3 e9 fa 3b a5 a5 22 bb 53 d8 54 3c
       -0.0050980197 0.0076572686 -0.002481797 0.012991029
0003b0 21 c0 e9 3a b7 36 41 bc 13 1a d0 ba 5d 4f de b9
       0.0017833748 -0.01179283 -0.0015876911 -0.0004240227
0003c0 57 e4 d3 bc cc 4a d9 3c 1e f5 a2 bb 8e dc f4 3c
       -0.025865717 0.026524924 -0.004973068 0.029890325
0003d0 1f 45 23 bc 82 bd 74 3c 48 71 f4 3b d6 e2 9f 3c
       -0.00996521 0.01493776 0.0074597932 0.019517343
0003e0 28 c0 6c bc c0 ed 86 3c 1f 67 db 3c b9 eb cc 3b
       -0.0144501105 0.01647079 0.02678257 0.0062536863
0003f0 52 dc fc b9 91 1d 3c bd fd 45 a6 bc bd 85 11 3c
       -0.00048229337 -0.045926634 -0.020297045 0.008881983

action_model._discrete_distribution.branches.0.bias f4 [2]
000000 b3 fd 3e 3c b3 fd 3e bc
       0.011657166 -0.011657166

action_model._discrete_distribution.branches.0.weight f4 [2, 128]
000000 8b 25 fa bc fd a7 34 3b 2d 7f f7 bb d9 1d 4c bc
       -0.03053548 0.002756595 -0.0075530023 -0.012458288
000010 15 41 16 3c 43 1e 97 3a d3 3d 06 3c 86 96 4a 3b
       0.00917079 0.0011529404 0.008193451 0.0030912473
000020 07 37 ea bc 9c 3a 00 3c c9 f8 94 bc ae e2 6e bc
       -0.028590692 0.007826474 -0.018185036 -0.014580412
000030 26 9f dc bb 7b b0 5e bc ad e7 94 bc 0c c7 2a bc
       -0.006732839 -0.013591881 -0.018176878 -0.010423433
000040 e1 d2 54 bb 05 c6 f3 ba ee 3a 6e ba 0e 87 96 bc
       -0.0032474326 -0.0018598443 -0.00090877607 -0.018374946
000050 65 7f 83 bc cf 4a 45 3b 1e 8e d0 3b 80 57 e8 3b
       -0.016051957 0.0030104404 0.006364598 0.007090509
000060 f2 c3 16 3c e4 fb 5d bc 0b e3 6e 3b 42 03 e8 bc
       0.00920199 -0.013548825 0.0036451246 -0.028321866
000070 c5 c0 10 3b 45 e2 ae bc 24 ae 5d ba 18 9d 1a bc
       0.0022087556 -0.021348128 -0.000845643 -0.009436868
000080 da 0c ec 3b bc 78 92 3b b8 31 21 3b a6 c7 75 bc
       0.0072036805 0.004469959 0.0024596285 -0.015001213
000090 00 11 9f bc 1d 3c df 3b 93 a0 8b ba 2a a2 1e 3a
       -0.019417286 0.006812586 -0.0010652713 0.0006051386
0000a0 0b bb 7d 3b e0 e3 db 3a 40 a7 ba bb cf 3c 72 3c
       0.0038716223 0.0016776286 -0.0056962073 0.014785006
0000b0 16 38 a7 3b 36 e0 3f 3c bb 16 6a bc ea d5 a7 bc
       0.0051031215 0.011711171 -0.014287646 -0.020487744
0000c0 be c6 b8 bb 8d 41 6f bc 5a a3 01 bd 27 a2 60 3c
       -0.0056389263 -0.014603031 -0.031649925 0.013710535
0000d0 96 d7 18 bc 5f 3b 0d 3c fa 8a 94 bb 7e 6d 90 bc
       -0.009328743 0.008620112 -0.004533169 -0.017630335
0000e0 ce 76 04 ba 39 b2 c0 b9 3f 52 66 bb 2c 12 e0 bb
       -0.00050531037 -0.0003675388 -0.0035144237 -0.0068381038
0000f0 13 bc ed 3b e8 d3 6d bc 6c 00 9b bb 9a 8a 06 3c
       0.007255086 -0.014515854 -0.004730275 0.008211756
000100 8f 8e 91 bc 23 83 98 ba d4 81 83 bc 28 92 1b bc
       -0.017768173 -0.0011635761 -0.016053118 -0.009495296
000110 94 2c 45 3c 9d 31 cc bc 96 e3 a2 bc fa ce 11 bc
       0.012034554 -0.024926001 -0.019883912 -0.008899445
000120 f2 55 a1 bb c0 d7 99 bb db 0e 51 3c 3d b4 15 bd
       -0.0049235756 -0.004694909 0.0127598895 -0.03654884
000130 86 93 11 3c a3 35 fb bc 5a 3b 3b bc bb e0 bb bb
       0.00888527 -0.030665224 -0.011427725 -0.005733577
000140 77 d7 7f bc 4c 9e 4c bc 8a 84 81 bc 37 45 9c bc
       -0.015615336 -0.012488913 -0.01581027 -0.019075973
000150 8e 0f 3e 3b c8 97 4a bc e1 0d e7 bb 28 a5 c3 3b
       0.002900097 -0.012365289 -0.007051215 0.005970616
000160 2a 23 6d 3b 4d e5 98 bc 70 d3 74 bc 2a 1b 78 3c
       0.003618429 -0.018664027 -0.014942989 0.015143195
000170 2b ea 33 bc 35 01 96 bc f9 27 7f bb e5 2c b0 ba
       -0.010981123 -0.018311122 -0.0038933738 -0.0013441114
000180 74 a2 d3 bb e9 ad 08 bd 1d 2b ed bb 76 75 8d 3c
       -0.006458575 -0.03336898 -0.0072378055 0.017267924
000190 81 f2 9f bc 1e 77 09 bb 1f 14 09 3c 8f 29 8a bc
       -0.019524815 -0.002097554 0.008366614 -0.01686552
0001a0 d4 73 31 3c 06 97 13 bb 5d b2 dc bc a8 c4 5b bc
       0.010830838 -0.0022520437 -0.026940519 -0.013413586
0001b0 02 18 92 bc c5 cc 93 bc 61 fc 8f 3a ff b3 89 ba
       -0.017833713 -0.018041978 0.0010985249 -0.0010505914
0001c0 92 0c 4c 3c 41 31 95 39 a4 70 35 bc b5 fc 40 3b
       0.012454169 0.00028456192 -0.011074219 0.00294475
0001d0 77 8a 10 3c 89 dc bd bc 8b ce 47 bc 50 81 ac bc
       0.008822075 -0.023176448 -0.01219524 -0.021057755
0001e0 1e d4 85 3c 74 43 d7 bc d3 d5 44 bc 39 49 18 3c
       0.016336497 -0.026277281 -0.01201387 0.009294801
0001f0 0f 3d 13 bc 6c 30 2f bc d1 4a 04 3c d8 7f 43 bc
       -0.0089867255 -0.010692697 0.008074478 -0.011932336
000200 a5 fa 24 3c d1 9f c1 3b 76 f0 68 3c b5 6f 2a 3c
       0.010069524 0.005908944 0.014217487 0.01040261
000210 18 5a 6e bc 57 56 f7 ba da 9d a0 bb 67 93 e0 bb
       -0.014547847 -0.0018870336 -0.00490163 -0.006853509
000220 0f aa 03 3d 1b 79 95 bb d8 d8 11 3d 3b 06 c4 3b
       0.032144602 -0.004561556 0.03560719 0.005982188
000230 ac 69 82 3c 2e bc af 3b af 2b 04 bc b0 f4 a8 3c
       0.015919529 0.005363009 -0.008067056 0.020624489
000240 ca 72 a5 3b fb 91 87 bb 88 79 41 ba b2 76 ee 3c
       0.0050490843 -0.0041372753 -0.0007380475 0.029109333
000250 c3 79 61 3c 99 cc 5e bb 16 cf 1b ba d0 5c 64 bc
       0.01376194 -0.0033996461 -0.0005943639 -0.013938144
000260 1f c8 55 bb 5a 40 9b 3c da a7 ac bc e3 43 89 38
       -0.0032620502 0.018951584 -0.021076132 6.545314e-05
000270 84 32 48 3b 55 5c 8d 3c a2 a9 5c bb 76 f2 3b 3a
       0.0030547688 0.017255941 -0.0033670445 0.00071696134
000280 fd b3 56 bb 53 a9 8a 3b d4 5e 14 3b 30 ad 14 bc
       -0.003276109 0.004231611 0.002263953 -0.009074494
000290 7c 07 70 3c 7c b3 73 b9 fd 61 05 bc 38 43 07 bc
       0.014650222 -0.00023241149 -0.008141038 -0.008255772
0002a0 78 33 51 3c b2 5d 86 ba 60 40 9e 3c 2b 23 7a bb
       0.012768619 -0.0010251312 0.019317806 -0.0038167934
0002b0 2c db 15 ba 00 a1 9e 3b e0 aa db 3c 7c 5b b0 3b
       -0.0005716558 0.00484097 0.026814878 0.0053819995
0002c0 a5 f5 75 3c e0 d6 68 3c 00 ca 83 3c f0 e7 ae bc
       0.0150121795 0.014211386 0.016087532 -0.02135083
0002d0 5f 73 49 bb 0f f7 c6 bb bf 2a 7e bb 4b 88 51 3c
       -0.0030738933 -0.006071932 -0.0038782803 0.012788842
0002e0 40 94 91 3c 03 f6 a0 3b f9 d2 90 3b 51 44 36 3c
       0.017770886 0.0049121394 0.004419681 0.011124686
0002f0 13 42 90 bc e1 a6 0b bc 1b 22 61 3c ed ad d0 3c
       -0.017609632 -0.008523674 0.0137410415 0.02547356
000300 aa 67 a7 3c ee a6 11 3c 9f de d6 bb 55 04 a7 ba
       0.020435173 0.008889897 -0.0065573 -0.001274238
000310 52 f2 cb 3b 00 be 98 3c de 01 b7 bb f1 da e6 3a
       0.006223955 0.018645287 -0.0055849394 0.0017612857
000320 78 1c 5e 3c f4 32 27 3b 20 51 2f 3a 55 c7 ab 3c
       0.013556592 0.0025512548 0.0006687809 0.020969072
000330 50 95 59 3b 8f 18 dc 3c 1e e5 55 3c ab 6e ee 3b
       0.003320057 0.02686718 0.013055114 0.0072763762
000340 b9 69 fa 3b b4 ac 5c 3c 04 ee e2 3b 28 d9 2e 3c
       0.0076419977 0.01346891 0.0069253463 0.010671891
000350 53 d9 27 3b 20 93 c7 ba aa fd 9f bb 81 25 9c bb
       0.0025611713 -0.0015226342 -0.004882534 -0.004765213
000360 fc c8 21 3c 1f 69 ba 3c 03 33 80 3c 5c ab 0e bc
       0.009874579 0.022755204 0.015649324 -0.008707847
000370 d0 13 f0 39 a2 f6 0b 3c 59 39 f0 3a 65 e6 82 3b
       0.0004579113 0.008542689 0.0018327638 0.0039947503
000380 81 7d c9 bb 71 06 e4 3c fc e7 fd 3c 88 34 aa bc
       -0.0061489944 0.027835103 0.030994408 -0.020777002
000390 64 61 36 bb 43 45 f4 b9 a6 5f aa bb 3b b9 83 3c
       -0.0027829045 -0.0004659091 -0.0051993905 0.016079536
0003a0 93 7f cd bc 28 0c c0 bb 31 33 e3 3b c0 c7 ca bb
       -0.025085246 -0.005860824 0.0069335927 -0.006188363
0003b0 88 3f a0 3c 36 21 7c bb 2b 41 d1 3b 44 d6 45 bc
       0.019561544 -0.0038471944 0.0063859425 -0.012075011
0003c0 1a 05 99 3b 08 2b e4 3b f5 47 fc bb 42 b1 1c 3c
       0.0046697976 0.0069631375 -0.0076990076 0.009563746
0003d0 95 95 cb 3a 7d cb 16 3c 57 3d c0 3b 9e 68 9f 3c
       0.001553225 0.009203789 0.0058666873 0.019459065
0003e0 af e6 1b bc bc 1b c3 3c 25 33 31 3c 9f fc 2e ba
       -0.0095154485 0.023816936 0.010815416 -0.0006675217
0003f0 74 c6 d5 3b 38 5b a6 bb 1e 89 85 3b 3c b5 40 3c
       0.0065239016 -0.005076792 0.0040751835 0.01176196

network_body.linear_encoder.seq_layers.0.bias f4 [128]
000000 31 4d 14 3b 21 a5 c4 3a 9c e5 c5 3b 81 f1 83 3b
       0.0022629017 0.0015002826 0.0060393345 0.0040265922
000010 f6 02 cb ba 32 ad 68 bb 7f 21 86 3a dd 9f af bb
       -0.0015488553 -0.0035503623 0.0010233371 -0.0053596334
000020 08 17 3e 3b 4e 0b 60 3b b9 b5 0e 3a d1 91 60 3a
       0.0029005427 0.0034186426 0.0005443949 0.000856665
000030 76 f5 54 3b e3 8e 3e bb f6 cd 06 38 e5 9f a9 3a
       0.003249494 -0.0029076866 3.2139906e-05 0.0012941329
000040 60 ec de ba 52 51 0f 38 95 c9 13 b8 8a d7 b6 bb
       -0.0017007701 3.4169592e-05 -3.523527e-05 -0.0055798935
000050 40 6a bd bb a9 85 4b bb c5 dd d4 39 97 6c fa 39
       -0.0057804883 -0.003105501 0.00040601022 0.00047764622
000060 07 0c 26 39 3c f9 8c bb 87 59 b5 ba cb 23 c7 3b
       0.00015835474 -0.004302172 -0.0013835885 0.006077265
000070 d1 53 a5 ba a0 45 9c 39 3c ab 68 3b a7 21 25 3b
       -0.001261348 0.00029806513 0.0035502454 0.002519706
000080 a6 16 ac 39 62 fd d9 3a 9c d7 e4 3a 7a 54 b4 3a
       0.0003282327 0.00166313 0.0017459276 0.0013758086
000090 c1 2e 69 b9 6d cd 51 3a 15 3c 48 39 60 fc 0d bb
       -0.00022238029 0.0008003328 0.00019095869 -0.002166532
0000a0 d4 22 b0 39 7f 45 4e ba 27 2e 79 ba b5 7f b2 3a
       0.00033595285 -0.0007868632 -0.00095054734 0.0013618382
0000b0 69 98 f6 ba 13 62 52 bb 70 4a 43 b9 56 2c e9 3a
       -0.0018813732 -0.0032101914 -0.0001862438 0.0017789702
0000c0 fc a6 5b bb a4 74 29 3b ef ec 1f ba 4d 1a 9a ba
       -0.0033516278 0.0025856877 -0.00061006745 -0.0011757106
0000d0 21 a4 a7 ba 9f 68 58 bb eb f6 6d 3a 31 cf ad ba
       -0.0012790003 -0.0033021343 0.0009077626 -0.00132606
0000e0 81 9a 83 ba cd ed 33 bb a7 c4 c7 39 19 44 4b bb
       -0.0010040553 -0.0027454973 0.00038102755 -0.003101593
0000f0 38 61 fb bb 55 9f 67 3b 75 8c 8f 3a 5b d3 24 bb
       -0.0076715015 0.0035342772 0.0010951894 -0.0025150392
000100 1d c0 57 bb fe 6d 3a bb c3 80 2d bb dc a2 ca 3a
       -0.0032920905 -0.0028446908 -0.0026474453 0.0015459913
000110 96 e3 9a ba 74 f4 08 bc 95 b1 49 3a d1 11 bf ba
       -0.0011817093 -0.008359063 0.0007694003 -0.0014577453
000120 7c 1d 03 39 65 26 49 bb f6 33 56 bb ce ca 0c bc
       0.00012504117 -0.003069305 -0.003268478 -0.008593274
000130 66 3b 84 3b 2c 14 0b 3b 91 d0 0d 3b dd ed 96 39
       0.004035401 0.002122174 0.0021639208 0.0002878745
000140 8c 48 02 ba 25 54 a7 bb 03 d3 5b 3a c7 76 86 3a
       -0.0004969917 -0.0051064664 0.000838563 0.0010258787
000150 33 44 17 3b be ed b3 bb 6a e0 11 3b 6d c0 a3 39
       0.0023081421 -0.0054909876 0.0022259005 0.0003123315
000160 7a aa 7f ba fb ac ac ba be 08 b0 3a 51 4d 87 3b
       -0.0009752881 -0.0013174111 0.001343034 0.00412909
000170 4e 03 88 3a 12 6f 0c bb 48 31 f9 3b 6d bb 84 bb
       0.0010376961 -0.0021428508 0.0076047517 -0.004050663
000180 24 67 19 bb 2e 2e e2 3a 32 e7 81 bb a9 59 ab 3b
       -0.0023407424 0.0017256194 -0.003964328 0.005229194
000190 99 77 73 3b 6e f0 4d bb a2 81 ee 3a f9 12 a0 bb
       0.0037150143 -0.0031423825 0.0018196593 -0.004885074
0001a0 1d a1 3d 3b f7 61 e1 3a a1 e9 0a bb e1 84 4d bb
       0.0028935142 0.0017195333 -0.0021196383 -0.003135972
0001b0 24 16 83 bb 86 9e 4b bb ed 13 c9 ba 20 e3 4b 3b
       -0.004000442 -0.003106983 -0.0015341021 0.003111072
0001c0 f5 72 02 3a ea af 30 3b 03 65 29 3b f7 0b 36 3b
       0.00049762364 0.0026960322 0.0025847561 0.0027778128
0001d0 71 7e 2f bb 90 1c 33 3b 93 09 96 3a f8 de 04 bb
       -0.0026778246 0.0027330257 0.0011446945 -0.0020274501
0001e0 48 1b 0b 3b 54 dd bf bb 12 fa de 37 b9 10 27 bb
       0.0021225978 -0.005855242 2.658091e-05 -0.0025492145
0001f0 26 7f 25 bb 1d 0a da 39 26 7e 95 3b 22 ae 13 3b
       -0.0025252788 0.00041587735 0.004562157 0.0022534211

network_body.linear_encoder.seq_layers.0.weight f4 [128, 21]
000000 8b 79 35 bd 64 b2 59 3e 7c 10 6c 3d be 6e a9 be
       -0.044305366 0.21259457 0.05763291 -0.33092302
000010 d3 b2 e2 bd ab ae 05 bf 76 f2 55 3e 72 60 aa bd
       -0.11069264 -0.5221965 0.20893273 -0.08319177
000020 a1 e9 8b bd d5 59 85 be af aa d2 3c ae 29 a7 3d
       -0.068316706 -0.260451 0.025716154 0.08162247
000030 c2 76 cf bd ed f8 97 3e 27 c2 17 be 28 4f 4a be
       -0.10130073 0.29682103 -0.14820157 -0.19756758
000040 58 eb c5 be fa 90 f9 bd 2b e1 ab be fd 39 8d be
       -0.38656116 -0.12185855 -0.33570227 -0.27583304
000050 93 a1 4f 3d da 35 8a be ab 3b 0f be 62 e1 0c 3f
       0.0506912 -0.2699421 -0.13987605 0.55031407
000060 da b5 87 bd e0 63 61 3e 9b 77 14 3e 10 44 9d be
       -0.06626482 0.22010756 0.14498751 -0.3071599
000070 2d 49 87 3e 85 c6 0a 3d 13 e5 d9 3c 90 ce 21 3d
       0.26423016 0.03388073 0.026598489 0.039503634
000080 bc ab cb 3e d2 0f 69 be 63 65 35 3e cd 3a 79 be
       0.3977946 -0.22759941 0.17714457 -0.24338837
000090 03 eb 74 bd 28 42 27 3c b2 1b 16 3e c6 11 ac 3d
       -0.059794437 0.010208644 0.14659002 0.084018275
0000a0 00 4d cd 3d c1 83 61 bc 3c ba 4a 3d 90 de 98 be
       0.10024452 -0.013764323 0.049494013 -0.29857302
0000b0 7b 70 1a 3e 29 49 2d be 5e 00 34 be e4 90 67 be
       0.1508197 -0.1692244 -0.17578265 -0.22613865
0000c0 35 0f 97 3d 66 89 6f be 9d 8e d2 be 82 ac 70 3e
       0.073759474 -0.23392257 -0.4112443 0.23503307
0000d0 03 5b b5 bd 2e e2 03 bf be 6d a3 bd f5 d5 8a 3e
       -0.0885525 -0.51517 -0.07979916 0.2711636
0000e0 d9 be d3 be 02 37 26 3e 88 09 72 bd 26 f6 42 be
       -0.41356543 0.16231921 -0.05909112 -0.1903921
0000f0 e6 e7 ce 3e b0 8e 1d bd 1b c8 8d be bd 71 7e 3d
       0.404113 -0.038466156 -0.2769173 0.062120188
000100 12 58 06 be bb 6c e6 bb 3c dd f7 3e e6 9e ba 3e
       -0.13119534 -0.0070320047 0.48410976 0.36449355
000110 2c 4f 81 be be 54 50 be ee 18 23 3e 29 60 9c bd
       -0.25255716 -0.20344827 0.15927479 -0.076355286
000120 5f 87 11 3e 59 f9 03 3e 82 94 9b bd e7 32 c6 3e
       0.14211796 0.12888087 -0.07596685 0.3871071
000130 70 34 00 be c3 5f eb be 22 4f 11 bc e7 10 2c 3c
       -0.12520003 -0.45971498 -0.008868964 0.010502077
000140 2f cd 65 3e 87 3c f6 be 60 7a 2c be f9 ba 20 be
       0.22441553 -0.48093054 -0.16843557 -0.15696324
000150 ea 78 f0 3d 01 c3 be bd a2 ef 42 bd 6f 9d a5 3e
       0.117418125 -0.09314538 -0.047591813 0.32346675
000160 a3 d9 aa bd 9b b3 4d be 7f 6f 9d be c6 ce 70 bd
       -0.08342292 -0.20088045 -0.30749127 -0.058790945
000170 91 88 90 3e 8c f3 86 3e 01 48 c9 be 31 fe 21 3e
       0.28229192 0.26357687 -0.39312747 0.15819623
000180 3b c6 33 bd bd 9b 85 be 04 50 89 bd b9 14 6b be
       -0.04389022 -0.2609538 -0.06704715 -0.22957124
000190 5a 83 2f be 5b d4 88 3e 73 a5 5d bd 56 c0 a4 be
       -0.1713995 0.26724514 -0.054112863 -0.3217799
0001a0 fe 2c 48 be 48 05 10 3e 71 1d f8 bd f2 3e 03 be
       -0.19548413 0.14064515 -0.121149905 -0.1281698
0001b0 8a 61 bc 3b 5d 38 a3 3e 80 39 49 bd 90 5e aa be
       0.0057489322 0.3187894 -0.049127102 -0.3327527
0001c0 1b 62 6f 3e 90 bd 78 3e 32 19 38 be e9 2b c8 be
       0.23377268 0.24291062 -0.17978361 -0.39096
0001d0 51 80 f0 be 74 65 04 3b 1a 52 f7 bd fe 4a 33 3e
       -0.46972898 0.0020202072 -0.120762065 0.17509076
0001e0 3e 5f 97 be 04 9f 15 be 27 3f a5 be 06 c6 9b 3e
       -0.29564852 -0.14611441 -0.32274744 0.30424517
0001f0 e2 b6 8b 3d 77 87 1c 3f f7 62 85 be fb 07 ce 3e
       0.068219915 0.611442 -0.26052067 0.40240464
000200 3f 3d fc bc 0b b7 db 3c 23 f5 1b bd 7e a0 08 3e
       -0.030790923 0.02682068 -0.038075577 0.13342473
000210 42 fb e2 3d 9d a9 cd 3d 7a 47 b1 be 8d 68 a6 3d
       0.1108308 0.10042117 -0.34624845 0.0812541
000220 6b 17 4a 3e 6a 75 1b be 77 f8 1e be 92 b4 2f be
       0.19735496 -0.15181509 -0.1552447 -0.17158726
000230 c4 f4 81 bc e7 f7 95 be 58 16 23 3d 95 35 88 bc
       -0.015863784 -0.29290697 0.03981623 -0.016627112
000240 43 cb ae 3d 90 1e 85 bd a0 af 55 be 1d 9c 13 3d
       0.08534863 -0.0649997 -0.20867777 0.036037553
000250 3d a8 0f 3d 79 de 90 be 7c f5 9c 3e 49 df de 3d
       0.035072554 -0.28294733 0.3065604 0.10882432
000260 7f 93 14 3e af e1 90 3c 14 29 d1 be 67 0b eb bc
       0.1450939 0.01768574 -0.40851653 -0.02869196
000270 37 32 68 be be 5e e6 3d 91 b7 d5 3e ec ab a7 bd
       -0.22675405 0.112485394 0.41741613 -0.08187088
000280 26 50 a7 bd 7d d4 a3 3e 38 a1 ca 3e ce 9a 80 3e
       -0.08169584 0.31998053 0.39576125 0.25118107
000290 ff cf 39 3d 91 d9 2a 3e 11 b3 3f 3c 4e d2 ab be
       0.045364376 0.16684557 0.011700408 -0.33558887
0002a0 9b 62 ff 39 2a 77 70 3e 68 35 b7 3d d1 51 87 3e
       0.00048710857 0.23482957 0.08945733 0.26429608
0002b0 6d b3 83 3d 0d 7e 6d 3c 41 c7 45 be 03 c1 69 bd
       0.06430707 0.014495385 -0.1931429 -0.057068836
0002c0 ec 23 3e bb fa 58 0f 3e 42 77 a1 bd fa b6 6b be
       -0.002901311 0.13998786 -0.07884075 -0.23019019
0002d0 e6 12 21 be 3e 37 a3 be 93 f9 9b 3d 6e cf 65 3e
       -0.15729865 -0.31878084 0.07615962 0.2244241
0002e0 f0 07 a6 3e fd 4f ac 3e bf ce f0 3e a3 1e c2 3d
       0.3242793 0.33654776 0.47032735 0.094785
0002f0 6d 38 11 bd 66 a1 68 3e a3 81 dd bd e7 f1 02 3e
       -0.035454202 0.22717819 -0.10815742 0.12787591
000300 bf 5e 8d bd 84 a3 22 be 27 40 9a be e0 10 4d be
       -0.06902837 -0.15882689 -0.3012707 -0.20025969
000310 51 31 3b be 58 8c 18 3e de e0 53 bc 44 db 03 3e
       -0.18280531 0.14897287 -0.0129320305 0.12876612
000320 96 49 ca bd 45 61 23 3c b0 db b9 3e c1 31 d1 bd
       -0.09877317 0.009971921 0.3630042 -0.10214568
000330 85 cb 8c 3e 23 93 a3 3c 4f 2b f6 bc 78 da a7 3e
       0.27499023 0.019967621 -0.030049948 0.32783866
000340 8f db 6e bd bc 8d 66 be 47 ec 6d be 16 d2 02 3e
       -0.058314856 -0.22515005 -0.23234664 0.12775454
000350 72 99 ee bc e6 a4 22 3d 16 74 29 be 6b 9b ec bc
       -0.029125903 0.03970804 -0.1654819 -0.028882703
000360 7e ef 86 3e 20 a1 3f be 6a a1 74 be 0b 82 84 3e
       0.26354593 -0.18713808 -0.238897 0.25880465
000370 7a 0b f6 3c f2 b1 8e 3e 42 7a 55 be a6 18 47 3e
       0.03003477 0.27870136 -0.20847419 0.19442996
000380 43 e1 0d 3e c4 2b d5 be d5 29 5d 3e 75 34 8a bd
       0.13855462 -0.41634953 0.21597989 -0.06748287
000390 23 62 da bc db 0f 52 3e a8 35 eb 3c a8 e5 f3 3d
       -0.026658123 0.20513861 0.028712109 0.11909038
0003a0 c9 90 06 be 22 b4 18 3d f5 68 aa 3e 64 2f 57 3e
       -0.13141169 0.037281163 0.332832 0.21014172
0003b0 7b 98 2c be b8 b8 ff 3c 48 d8 e6 3d fe 35 04 be
       -0.16855042 0.03121601 0.11271721 -0.12911221
0003c0 b4 1b bb 3d 42 34 99 3a 5d 27 44 be 25 9c c3 3e
       0.09136143 0.0011688548 -0.19155641 0.38205066
0003d0 60 b6 33 be ee 25 9f bc 65 fe 0b bf a7 77 81 be
       -0.1755004 -0.019427266 -0.5468505 -0.252866
0003e0 4e d3 aa 3c 98 81 c3 3e 51 4a a6 3d 18 e5 c1 bb
       0.020852711 0.3818481 0.081196435 -0.0059172027
0003f0 8e e2 43 3d 2d 98 68 be bb 63 9d 3d ce 59 d4 3d
       0.04782348 -0.227143 0.07685038 0.103686914

network_body.linear_encoder.seq_layers.2.bias f4 [128]
000000 72 1b 76 3b 30 46 f5 ba 23 e8 a1 39 99 1e ea bb
       0.003755298 -0.0018712934 0.00030881268 -0.007144761
000010 85 22 dc 3b 5c eb de 39 cd 55 22 39 d3 81 5f 3b
       0.0067179822 0.00042518496 0.00015481487 0.003410448
000020 d3 f6 d6 3a 0e 49 8a 3a 84 f0 61 3b da cc 12 bc
       0.0016400464 0.0010550336 0.0034475634 -0.008959973
000030 32 6e 2f bb 2b d2 32 bb 25 f2 ca 39 5b 95 bf 3b
       -0.0026768562 -0.0027285914 0.00038708854 0.005846662
000040 f2 3c 18 3b 3f 6f 41 3a 62 ca de b7 19 fd 66 3c
       0.0023229686 0.00073789427 -2.6558704e-05 0.014098429
000050 56 b0 4d bb 73 b1 f9 3a c7 52 09 3b b6 f6 b3 3a
       -0.0031385622 0.0019050076 0.002095388 0.0013730142
000060 5e c0 bf 39 d6 66 20 bc 22 d6 9f 3a bb a0 0c bc
       0.00036573684 -0.009790143 0.0012194554 -0.008583243
000070 6e fe c2 ba 94 b9 98 3a 46 7d 0d 3a 8e d0 29 bb
       -0.0014876851 0.0011651986 0.00053973903 -0.0025911662
000080 74 5a 32 3b 11 1e e1 ba 9c a0 0a 3b 20 7a 24 bb
       0.0027214559 -0.0017175098 0.002115286 -0.0025097206
000090 84 37 30 3b d8 0d c2 b9 d3 a3 23 b9 14 c3 29 3b
       0.0026888559 -0.00037012878 -0.0001560592 0.002590363
0000a0 7b 5a 0c bb 9c 68 42 ba 41 ad 23 bb 61 b1 2e 3b
       -0.0021416235 -0.00074161007 -0.0024975094 0.002665602
0000b0 47 e6 1f 3b 0c 2b 4e 3b 7e e2 b4 bb ca 2f 25 bb
       0.002439873 0.0031458763 -0.005520164 -0.0025205486
0000c0 b4 86 b7 3b 88 3a 27 3b ac 63 db bb e2 2f 04 3c
       0.0056007747 0.0025517065 -0.0066952314 0.008068057
0000d0 1a 50 fc ba c4 a1 a2 3b 38 3a 01 3a 36 ac 7a bb
       -0.0019249946 0.0049631316 0.0004929635 -0.0038249618
0000e0 bd 87 25 3a 67 fa 80 b9 f3 3b 58 3b 7c b9 4b bb
       0.0006314477 -0.00024600627 0.0032994717 -0.00310859
0000f0 21 63 47 3b 14 af 24 bb 31 51 9c 3b 36 b7 43 bb
       0.0030424076 -0.0025128769 0.004770421 -0.002986384
000100 e5 a8 f0 bb 70 74 af ba d0 5c 35 bb 0e 53 d8 3a
       -0.0073443525 -0.0013386142 -0.0027673729 0.0016504244
000110 24 bc 5f 3a 07 77 bb 3b 55 14 32 bb 17 09 da bb
       0.000853481 0.0057209763 -0.0027172763 -0.0066539156
000120 68 27 f3 bb 40 bf d1 b9 77 78 71 39 0a 52 26 3c
       -0.007420469 -0.0004000608 0.00023028428 0.010151396
000130 04 78 70 3a 97 62 f6 3b e2 50 ec bb 6b e3 48 b9
       0.0009173157 0.007519077 -0.0072117904 -0.00019158206
000140 0b 93 f8 b9 7c c6 5f ba 09 3c 1d bb 4c 0a d6 bb
       -0.00047411802 -0.00085363514 -0.0023992083 -0.006531989
000150 ae 06 b9 b9 72 81 41 bb 8c ad a8 b9 18 85 1b 3b
       -0.00035290926 -0.0029526618 -0.0003217276 0.0023730453
000160 ae bf fa bb b3 bc 61 3b 9f 14 14 3b d4 82 ad 3b
       -0.0076522445 0.003444475 0.00225953 0.005295137
000170 a5 1e 84 3a 64 22 18 bb db 44 18 39 0d d9 21 ba
       0.0010079934 -0.0023213858 0.000145215 -0.00061740057
000180 dc a7 05 bb 93 06 53 3c 6e d0 8d 3b fb fb 24 3c
       -0.0020394241 0.012879985 0.0043278253 0.010069842
000190 4e e5 7b bb b6 c0 f4 ba 70 68 1e 3b 3b af 38 bb
       -0.0038436237 -0.0018673155 0.0024171136 -0.0028180617
0001a0 c5 b0 21 3c 3b 72 2f ba c6 b9 8e bb 64 7f 7d bb
       0.009868805 -0.0006692742 -0.004355642 -0.0038680667
0001b0 19 a3 87 3b ea 46 88 bb 10 ba 1c bc fd 6d 6f 3b
       0.004139316 -0.0041588442 -0.009565845 0.0036534064
0001c0 18 d2 ec ba b1 ba ef ba 58 03 26 bb d6 b2 bf b9
       -0.0018067984 -0.0018289891 -0.0025331583 -0.00036563602
0001d0 53 8a fa 3a 46 48 76 bb 7e 23 d1 3a b0 d1 a6 bb
       0.001911471 -0.00375797 0.0015956012 -0.0050909147
0001e0 74 eb 9d 3b fe 9f 59 39 e8 49 e9 ba 60 2a 88 3b
       0.004819328 0.00020754334 -0.0017798515 0.004155442
0001f0 70 14 a1 bb 3f 64 a2 ba 26 23 00 ba ee 2f 8c bb
       -0.0049157664 -0.0012389495 -0.000488805 -0.0042781746

network_body.linear_encoder.seq_layers.2.weight f4 [128, 128]
000000 ac f4 7b bd 75 db bb 3d 52 3c c5 bd 2d ce 09 be
       -0.061512634 0.091727175 -0.09630646 -0.13457556
000010 a0 c5 86 3c b7 ac 3a bc 71 7a 97 3c 88 97 3b 3d
       0.016451657 -0.0113937175 0.018491002 0.04579881
000020 9e c8 2c be c7 5f 08 3e 34 bd 97 bd 58 2b 86 bd
       -0.16873404 0.13317786 -0.074091345 -0.06551236
000030 14 c6 d4 3a a3 cb d0 3c e8 a7 4b 3d 77 08 78 3d
       0.0016233348 0.025487727 0.049720675 0.060554948
000040 7a b8 b0 bd 74 93 be 3d fb 59 80 bd b7 27 94 3d
       -0.08628936 0.09305468 -0.062671624 0.072341375
000050 3d 90 11 be 74 8a a8 bc a9 b2 12 bd 37 25 c8 bd
       -0.14215179 -0.020573832 -0.035814915 -0.09772723
000060 b8 b7 48 bd cf 4f ae 3c ca 1f ff bd 2d c6 60 3b
       -0.049003333 0.02127829 -0.12457235 0.003429781
000070 c0 96 50 3d 8b 7d b1 bd 98 83 48 bd 11 16 34 3e
       0.050925016 -0.086665235 -0.048953623 0.17586543
000080 a5 f8 ea 3c 36 ff fb bc 0f d9 c7 3d c9 8c 80 bc
       0.028683016 -0.030761342 0.097581975 -0.015692132
000090 fc a1 ea bb 2b 47 77 3d ac d4 8a 3d 1a da 70 3c
       -0.0071604233 0.060370605 0.06778845 0.014700437
0000a0 e8 0a 40 bd 0c 65 25 bc da e8 67 3c 73 e7 8c bd
       -0.0468854 -0.010094892 0.014154637 -0.06880083
0000b0 66 8c 2f be 0e ee 93 bc c8 1c 9b 3d 4a 14 e0 bd
       -0.17143402 -0.01805785 0.07573849 -0.1094137
0000c0 5c 72 fb bd 0c 26 79 3d a8 bf b2 3c 34 9c 1a 3e
       -0.12277672 0.0608273 0.021819904 0.1509865
0000d0 f0 5a 80 3d 72 ea 05 3e 0b 4f 96 bc 00 30 73 3c
       0.06267345 0.13077715 -0.018348237 0.014842987
0000e0 4b 28 5c bc 1e 7e 2e bd 00 ff 52 bd 11 26 56 3d
       -0.013437341 -0.042600743 -0.05151272 0.052282397
0000f0 c9 f6 54 3d bc e2 2a bd cc 03 64 3b aa d5 6b 3d
       0.051993165 -0.041720137 0.0034792302 0.057576813
000100 25 d8 02 be 70 ad 5f bd e8 67 2f be 50 0b a1 bd
       -0.12777765 -0.054608762 -0.17129481 -0.07863486
000110 47 64 01 3e 13 8f 4f bd 73 1a 2d be df 2e b5 3d
       0.12635909 -0.050673556 -0.16904621 0.088468306
000120 83 8b 69 3d 85 56 14 be c7 20 60 bd 80 6c 37 bd
       0.057017814 -0.1448613 -0.05471876 -0.044781208
000130 35 4b 8e bd f4 27 58 3d 46 76 f6 bd d8 20 3a 3d
       -0.06947938 0.052772477 -0.120342776 0.04544148
000140 e5 f4 d4 bd e9 52 9b 3c 3e f8 b8 bd 3b 16 32 3d
       -0.103982724 0.018960433 -0.090317234 0.043478232
000150 5e f1 2f bd 54 37 21 3d 3a 95 93 bd 29 25 84 bd
       -0.042954795 0.039359406 -0.07206197 -0.064524
000160 e8 c6 52 bd 0f ea 4b bd 35 44 b1 3d 37 dd 48 3d
       -0.051459223 -0.049783763 0.086555876 0.049039092
000170 db e1 ab bd 01 db 12 be 96 61 0f bd 98 f0 75 bd
       -0.08392688 -0.14341356 -0.035005175 -0.0600439
000180 fb 6e 43 bc de d6 6c 3c d7 a5 8f 3c 87 a0 19 3e
       -0.011928315 0.014455525 0.017535133 0.15002643
000190 cc d5 25 bc c6 24 89 bd c2 7d 91 bd 41 fe 1c 3d
       -0.010121774 -0.06696467 -0.071040645 0.038328413
0001a0 df 21 5b bd 26 61 d0 3b c7 92 84 3c 6d 0c 3f bd
       -0.0534991 0.0063592372 0.01618327 -0.04664271
0001b0 15 1d cb bd 64 4e c0 3d c3 87 37 bd 86 fa 88 3c
       -0.09917656 0.09389952 -0.044807207 0.016721021
0001c0 6c 90 04 bd 78 ff 58 3d 72 41 68 bd f8 46 4d be
       -0.032364294 0.05297801 -0.05670304 -0.20046604
0001d0 92 3a e8 bc 96 a5 aa 3c 38 de 9d bb b4 5e 32 bd
       -0.028348241 0.02083091 -0.0048177503 -0.043547347
0001e0 28 fe b2 3d c1 63 42 3d a3 09 e1 bc bf c3 ae bc
       0.08739883 0.047458414 -0.027470415 -0.021333573
0001f0 8d 51 4e bc 65 60 09 be d6 2b a6 b9 0f cc 40 3d
       -0.012592685 -0.13415678 -0.00031694648 0.047069605
000200 51 d5 0a 3d 73 02 05 bd cd 28 f0 3b df 1f 12 3e
       0.03389484 -0.03247304 0.0073290826 0.1426997
000210 59 a4 80 bc cf fb cc 3b f8 dd 1d 3d f3 c8 8c 3d
       -0.015703367 0.006255604 0.038541764 0.068742655
000220 87 a3 e2 bd bd 01 11 3d 59 05 07 3e 76 6f 19 3e
       -0.110663466 0.03540205 0.13185634 0.14983925
000230 e1 45 96 3d e5 fc c1 bd 7f e9 87 3c 6d 71 01 3e
       0.07337547 -0.09472064 0.016590832 0.12640925
000240 fe d0 d1 bc ff 13 be bd ae 1d 26 3d 6f 74 27 be
       -0.02561235 -0.09281158 0.04055565 -0.1635301
000250 8c 04 5a bd f6 55 c3 3d e6 5a 2b 3d 20 ac 0e be
       -0.053226992 0.0953788 0.041834734 -0.13932848
000260 15 fe cc 3c d2 f8 ad bd 75 f2 14 3e e4 4c 21 be
       0.0250235 -0.08494724 0.14545615 -0.15751988
000270 f9 9f ec 3d 69 39 3b be 56 b2 36 bd 1b 49 e9 bd
       0.1155395 -0.18283619 -0.04460367 -0.11390897
000280 12 7e a6 bd 95 b3 9f bd 30 57 86 bd c1 8e 3a bd
       -0.08129515 -0.077979244 -0.065595984 -0.045546297
000290 ab 42 e9 bd f1 53 53 3d a5 b3 2a 3c a5 db 09 be
       -0.11389669 0.051593725 0.010418807 -0.13462694
0002a0 20 99 d3 bd bd 78 84 bd 70 c9 93 bd 3c a6 dc 3c
       -0.10331941 -0.064683415 -0.072161555 0.026934735
0002b0 18 97 88 bb 02 9a 19 3d 24 7c 48 3a 0c ba 02 be
       -0.0041684024 0.03750039 0.0007647893 -0.12766284
0002c0 ca 54 d3 3d 05 bc a2 3d ba 6b 75 3e de 76 b6 3c
       0.103189066 0.07946018 0.23966876 0.022273477
0002d0 18 cb 96 3c 8c 6f 0c be 10 99 20 bd 5e c0 82 3d
       0.01840739 -0.13714427 -0.03920847 0.063843474
0002e0 96 43 27 bd 28 b9 13 bd 2f 8f 4f 3e 80 1e dd bc
       -0.04083594 -0.03606525 0.20269464 -0.026992083
0002f0 ae b8 13 3d 21 79 01 bd 63 08 e1 3c 7a 23 40 3d
       0.036064796 -0.03160966 0.02746982 0.046908833
000300 f5 83 96 3b dc a7 ef 3d d5 4c bc bd b5 69 f9 bc
       0.004593367 0.117019385 -0.09194342 -0.030445913
000310 40 77 0d 3c f5 4f c3 3d 55 52 16 3d 42 d0 a2 3c
       0.008634388 0.09536735 0.03669961 0.019874696
000320 95 32 10 be 43 fc 66 3e 29 49 9f bd b4 8f 4e 3d
       -0.14081796 0.22557168 -0.07777626 0.050430015
000330 28 6e 70 bc e6 10 65 3c bf 5f 19 3d 2a 38 74 bd
       -0.014674701 0.01398108 0.037444826 -0.059623875
000340 59 0a 60 bd e6 47 c7 3c 71 da 1d be 1b a3 e6 3b
       -0.05469737 0.024326276 -0.1541536 0.0070384867
000350 40 8c 08 3d 59 16 9e 3c ac 44 76 3d 95 76 64 bb
       0.033336878 0.019297766 0.060124084 -0.003486072
000360 34 01 ad 3b f9 3f bf bc f8 0f a5 3d e3 bf 2d 3e
       0.0052796844 -0.023345934 0.080596864 0.1696773
000370 cb 92 7a bd 3f 3b 06 bd b9 2e 53 bd 2c cb a1 bd
       -0.06117515 -0.032771345 -0.05155823 -0.0790008
000380 16 1a 71 3d 0f f6 d2 bc 14 91 21 bd 71 f1 e5 bd
       0.058862768 -0.025752096 -0.039444998 -0.11227692
000390 3d eb 0c bc 72 1a 30 3c b0 10 45 3d 06 cb c4 3d
       -0.008601007 0.010748493 0.048111618 0.09609036
0003a0 2f 78 8d bd ce 41 77 3d 79 76 29 3d f7 35 4c bc
       -0.06907689 0.06036549 0.04137275 -0.012464038
0003b0 10 41 b3 3c 9a f3 9c 3d 10 46 30 be df ab 7c 3b
       0.02188161 0.07663651 -0.17214227 0.0038554592
0003c0 8f d9 e0 3d 04 63 1c 3c 62 cb 35 bd fb 4a 55 bd
       0.10978996 0.009545092 -0.044383414 -0.05207346
0003d0 ce 31 8b 3d cc 54 bd bd 7a 49 67 3d 43 3f 17 3c
       0.06796609 -0.09244689 0.056466557 0.009231391
0003e0 85 e2 3c 3e 3c c2 d4 bd 13 48 f4 bc db 56 00 bd
       0.18445785 -0.1038861 -0.029819524 -0.03133283
0003f0 ff 6a ce 3d d3 08 65 3d 36 05 f2 bb e1 c4 e3 bd
       0.10079002 0.05591662 -0.007385875 -0.11121536
