results/scaled/Car Agent/Car Agent-63209.pt (torch, 444431 bytes, 42 tensors)

network_body.linear_encoder.seq_layers.0.weight f4 [128, 6]
000000 1b ad c0 be 9b 05 f3 bd 12 34 13 3e 19 73 a9 be
       -0.3763207 -0.118663035 0.14375332 -0.33095625
000010 a5 34 1d 3e 15 6b 95 3e e7 e5 46 3f 16 9f 0d be
       0.15352114 0.2918326 0.77694553 -0.13830218
000020 aa f8 91 3e c6 1d 8e 3e a6 ca d8 be 7f 61 c5 3d
       0.28510028 0.2775709 -0.42342108 0.096377365
000030 ad 95 db be 8a da 47 3e 53 0e 5f bd ad c2 bd 3e
       -0.4288763 0.1951696 -0.05445702 0.37062588
000040 af 09 01 3f 22 8d 2a 3f b6 d0 5b 3e af 24 30 3f
       0.504054 0.666216 0.21466336 0.68805975
000050 b7 9d e3 3d fe 5b 97 3e af e8 1c bd 01 c7 48 3f
       0.11114066 0.29562372 -0.038307842 0.78428656
000060 41 67 01 3f 63 e4 46 be b0 eb ad 3e b7 aa 3b bd
       0.5054818 -0.1942306 0.33968878 -0.045817103
000070 c1 54 ff be 54 f0 e5 3d a0 db 27 bf 20 89 00 bd
       -0.4986935 0.112274796 -0.65569496 -0.031380773
000080 2b 9d eb 3e 2b ac 8a 3e ad 48 97 3d bc 4d 82 3c
       0.46018347 0.2708448 0.07386909 0.015906207
000090 71 fb 40 3e 83 94 6c bd 9f 9b 2f bd bc 30 13 bd
       0.18845917 -0.05775882 -0.04287302 -0.03593515
0000a0 14 6a 46 3e 62 2b d2 bd b3 03 1e bf b5 08 74 bf
       0.19376403 -0.10262181 -0.61724395 -0.95325786
0000b0 d6 6c 08 3f 34 4c bc be 91 e9 16 bf 64 39 2c 3c
       0.5329107 -0.36776888 -0.58950144 0.01051173
0000c0 1c 9c 6d be 3f 9f c5 3c e0 2d 2a 3f 41 b3 f8 bd
       -0.23204082 0.024123786 0.6647625 -0.12143565
0000d0 a8 4b 1f be 3c 2e 28 3f b9 00 03 bf 11 3e 6a ba
       -0.15556204 0.6569555 -0.5117298 -0.000893564
0000e0 1f 69 2e 3e 73 28 78 3f b0 f4 20 bf 2c 98 87 be
       0.17032288 0.9693672 -0.62873363 -0.26483285
0000f0 56 21 d0 3e 4d af 03 be c7 bc e1 3e 1f 00 99 be
       0.40650433 -0.1285984 0.44089338 -0.29882905
000100 4e 84 40 3c b7 09 b6 be 4d 56 8a 3e 2d 50 1d 3f
       0.011750294 -0.35554287 0.27018967 0.61450464
000110 48 eb 73 3e 31 37 93 be d6 b1 72 3e 4a ed e9 be
       0.23820221 -0.28753045 0.23700652 -0.4568885
000120 04 bc a7 3d 8e f7 e5 3b 90 7e 07 bf 37 9d 7d be
       0.08190158 0.007018036 -0.52927494 -0.24767004
000130 df 67 e4 be 05 2f 18 3f 3f 99 05 3f 47 ed d7 be
       -0.44610497 0.59446746 0.5218696 -0.42173216
000140 d3 7e da bc b4 9c b9 3e f0 e2 38 be 1f 2e 4d bf
       -0.026671803 0.36252367 -0.1805532 -0.801485
000150 7e d9 d1 3d 65 dc 82 be 49 5b e4 bd f6 4f df bd
       0.102465615 -0.25558773 -0.11150224 -0.10903923
000160 6b 60 15 be 0d c9 2e 3f 39 8a 30 3f d8 d5 95 3e
       -0.14587562 0.6827553 0.6896091 0.29264712
000170 c9 96 5c be 37 ab ee be d5 4b 4b bd 4e af c2 be
       -0.21541895 -0.46615002 -0.049632866 -0.38024372
000180 a8 a4 04 be b5 8f b5 be 95 ff 3b 3f dc d2 4d 3e
       -0.12953436 -0.35461202 0.7343686 0.20099968
000190 8d c4 9f bd 80 f6 44 bf 7c 62 0c 3d 70 3f 99 3e
       -0.07801161 -0.7693863 0.03427361 0.2993121
0001a0 fa ca 6e 3e 5a fa 83 be 30 f9 2d 3f 3f d8 8f bf
       0.23319617 -0.2577694 0.67958355 -1.1237868
0001b0 6d 0e af 3e 8e 15 ba bd 57 41 13 be 69 02 7a 3f
       0.34190693 -0.090861425 -0.14380394 0.9765993
0001c0 e6 7c 63 3d 1a 92 cd be f0 8e 25 bf 69 16 d8 be
       0.055539034 -0.4015053 -0.6467123 -0.42204598
0001d0 b7 39 f8 3c 53 c1 e8 3d 19 d5 89 3e 5a c3 b6 3d
       0.030300958 0.11364999 0.26920393 0.08923979
0001e0 2a 32 29 3f a7 60 8d 3d b9 ef 0f 3c 7b a0 ea 3e
       0.6609217 0.069032006 0.008785182 0.45825562
0001f0 27 6f 5b 3f 64 8a 77 be 4f 4f ab 3e b3 84 1b 3f
       0.8571648 -0.24173886 0.33458945 0.6074936
000200 1d ca 00 3e 1d 7c 3f 3e ab 4d 99 be e5 1f e0 3e
       0.125771 0.18699689 -0.29942068 0.43774334
000210 b8 ed 26 3f 19 df 12 3f 82 9f 0b 3e d8 6f c2 bb
       0.6520648 0.5737167 0.13635066 -0.005933743
000220 d2 e7 14 bc f8 5d c2 3e 98 da 6c bd ab a5 62 3f
       -0.009088473 0.37962317 -0.057825655 0.8853404
000230 dc f3 59 3d 2b 54 a2 3d 1c f3 02 bc a8 6b a0 3e
       0.053211078 0.0792621 -0.007992532 0.31332135
000240 a2 4d 97 bf f2 2f 9b 3f 70 fc 09 3e 09 29 ca bd
       -1.1820567 1.2124007 0.13475204 -0.09871108
000250 79 77 0b bf 97 64 00 be cd 54 08 bf b5 3e 92 be
       -0.54479176 -0.12538372 -0.53254396 -0.28563467
000260 a8 5b aa be e7 79 95 be 41 9d d2 3d 26 fa f9 3e
       -0.33273053 -0.29194567 0.102839 0.4882366
000270 2a 10 06 3f 69 80 60 3f 37 da fa be b9 8a e6 bc
       0.52368414 0.8769594 -0.4899461 -0.02814232
000280 75 cf ee bc 97 89 da 3d e1 82 a6 be 75 c8 76 be
       -0.029151658 0.106707744 -0.32521728 -0.24099906
000290 9f 7c dd 3d b1 1c c0 3d 7c 14 c7 3e 1b 67 b0 be
       0.10814785 0.093804725 0.38882816 -0.34453663
0002a0 2e 67 94 3e 8c 5e 73 be 33 0e a0 3e c9 e6 bd 3d
       0.2898497 -0.23766536 0.31260833 0.092725344
0002b0 38 ff 08 3f 68 40 35 bf 1b d3 0b 3f 15 d5 f0 3e
       0.5351443 -0.708014 0.54618996 0.4703757
0002c0 ad 0f 06 3f 0e ca ce bd 5c cd 57 be e4 43 68 3b
       0.5236767 -0.100971326 -0.21074432 0.0035440857
0002d0 fc 60 8c 3e 20 e3 89 bd e4 92 bf 3e 3c 68 0d be
       0.27417743 -0.06732774 0.37416756 -0.13809294
0002e0 12 85 c8 3e fa 19 b1 be ad e7 06 3e bd 25 83 be
       0.39164025 -0.3459013 0.13174315 -0.2561473
0002f0 bd 8b 04 3e c3 81 5c 3e a9 cc 3b bd f2 3c 69 be
       0.12943931 0.21533875 -0.045849476 -0.22777155
000300 3f 66 17 3f 95 6d 33 3f 95 62 ab be 45 f1 4d be
       0.5914039 0.70089084 -0.3347365 -0.20111568
000310 a9 0f d1 be 89 c6 b8 3d 6d 84 04 bc 50 a2 61 3f
       -0.4083226 0.090222426 -0.008088213 0.88138294
000320 b6 fb 24 3c d6 2a c4 3e e5 dc 20 be ab b3 0c 3f
       0.010069778 0.3831393 -0.15709265 0.5496165
000330 87 c6 63 bf 24 a1 0a be 61 93 12 bd 4b 37 50 be
       -0.88974804 -0.13538033 -0.035785083 -0.20333593
000340 5b c8 35 be fd 5c 13 3f a4 6c 83 3e 8d e5 0c 3e
       -0.17752211 0.57563764 0.25668824 0.13759442
000350 00 35 2f bf ac 91 eb bd 2a 1a 44 bf 3a 79 ca 3e
       -0.68440247 -0.11502394 -0.76602423 0.39545614
000360 10 18 33 3f 3f 13 2f bd 48 b3 e2 be b1 e3 e9 be
       0.6995859 -0.042742964 -0.44277406 -0.45681527
000370 6e 41 eb bd 55 54 34 be 56 2c 98 be 8d 95 68 3d
       -0.11487089 -0.17610295 -0.29721326 0.056783248
000380 2e 0b 2b 3f c4 d1 6f be ca f7 f1 be 20 15 39 bf
       0.66813934 -0.23419863 -0.4725936 -0.7229786
000390 d1 08 07 bf e3 e0 8a be 1c e7 59 3e 4b 1d 6b bf
       -0.5274783 -0.271247 0.21279567 -0.9184157
0003a0 6c 94 04 be ad d5 20 bf 83 b2 ec bd 40 f6 08 be
       -0.12947243 -0.62826043 -0.11557486 -0.13375187
0003b0 be 6e d5 3e fa 0e e0 bd b2 af b1 bd 10 0e 5a bf
       0.41686052 -0.109403566 -0.08676089 -0.8517771
0003c0 26 4b 14 3f 93 ea 5a bf 63 e5 1e 3f a4 a5 5b 3d
       0.5792717 -0.8551418 0.62068766 0.053624764
0003d0 86 a4 4f 3d f0 b1 18 3e 41 c2 1d 3e 7d 99 66 be
       0.05069401 0.14911628 0.15406133 -0.22519489
0003e0 99 cc d1 3d 3e 8e 44 bf 95 12 c4 be 58 ce 8c be
       0.10244102 -0.76779544 -0.38295427 -0.27501178
0003f0 73 ef fb bc 2d d1 f6 be df 9a 5a bf 49 7e 52 3e
       -0.030753827 -0.48206463 -0.85392565 0.20555986

network_body.linear_encoder.seq_layers.0.bias f4 [128]
000000 8f 4d c3 bb 3d aa 05 3b 80 ee d8 ba 80 53 26 bb
       -0.0059601734 0.002039566 -0.0016550571 -0.002537936
000010 13 d8 61 bb 06 23 19 3a 06 ff b4 b9 af 4d 45 39
       -0.0034461066 0.0005841706 -0.00034522283 0.00018816323
000020 70 b7 e8 39 e2 d8 ab 39 8d be 8d bb 4e 1d 15 3a
       0.0004438716 0.00032777252 -0.004325694 0.00056882657
000030 80 d5 da bb 8b 85 01 3b cc ff ba bb 2d 0b ae 3b
       -0.006678283 0.0019763436 -0.005706763 0.005311391
000040 33 70 11 bc e0 e0 4e 38 0e 49 bc bb be b5 00 3b
       -0.008876848 4.932366e-05 -0.0057460135 0.0019639577
000050 d4 72 ef ba 5d df 62 bb a6 f9 d2 3a ce 62 4b bb
       -0.0018268474 -0.0034617998 0.001609613 -0.0031034234
000060 86 8a ab 3b c3 b8 b5 b8 2b 9c 11 bb fd dd 89 bb
       0.005235019 -8.665167e-05 -0.0022218328 -0.0042073713
000070 f8 08 05 bb 30 0d 08 b9 ad 21 a6 b8 96 16 03 b9
       -0.0020299535 -0.00012974883 -7.9217694e-05 -0.00012501547
000080 35 3c 16 ba 65 3a 3a bb d7 dc 4d 3a 8b c9 bc bb
       -0.00057310174 -0.0028416154 0.0007853037 -0.0057613305
000090 72 ea c1 ba 87 c7 61 3b 6d 8c 91 ba 6d e4 dc 3b
       -0.0014794602 0.0034451203 -0.0011104472 0.0067410977
0000a0 5c aa f2 39 da 42 b9 bb 21 0d d4 bb 3e 58 03 b9
       0.00046284765 -0.0056537213 -0.0064712917 -0.00012526006
0000b0 cc e7 f5 ba f2 3e 82 3a c6 78 1d 3b 59 ff 5f 3a
       -0.0018761097 0.0009936972 0.0024028285 0.00085448247
0000c0 94 6f 19 3b 36 f1 2f 3b 97 41 78 bb 87 bb b0 ba
       0.0023412453 0.0026846654 -0.0037880891 -0.0013483622
0000d0 50 08 41 3b 71 70 55 b9 51 31 4a 3b b1 d9 7a 3b
       0.0029454418 -0.0002035515 0.0030852149 0.0038276727
0000e0 a1 bf 2f bb 27 15 35 bb d4 bf 57 bb 50 cb 1d bb
       -0.00268171 -0.0027631016 -0.0032920735 -0.0024077483
0000f0 7a 7c fd 3a a1 56 33 ba 28 6d 0a bb a8 7b 87 bb
       0.0019339465 -0.0006841217 -0.002112219 -0.004134614
000100 5e a7 b6 bb 28 a9 05 bb 6a 6a 2c 3b 57 7a 08 3b
       -0.005574151 -0.0020395014 0.0026308545 0.0020824873
000110 1f 99 96 b9 6f fc 28 bb c0 54 53 3a d7 a1 28 ba
       -0.00028724314 -0.0025785228 0.000806164 -0.00064328074
000120 f8 cb 57 3a ad 3e 89 ba cf 05 3a bb ae d3 1b bb
       0.0008231993 -0.0010470949 -0.002838481 -0.0023777294
000130 8c 04 e8 ba d7 38 40 3b 32 71 aa b9 c9 a1 8d b9
       -0.001770155 0.0029330754 -0.00032509264 -0.00027014155
000140 76 e8 c5 3a ce b2 4b bb ad 6d 93 bb e7 56 ea bb
       0.0015099186 -0.0031081918 -0.0044991584 -0.007151473
000150 0b e7 06 3b 1f 16 9a 3b 64 51 3c bb 82 c7 a1 bb
       0.002058449 0.004702344 -0.0028735036 -0.0049371133
000160 73 72 19 bb 02 5e 32 3b 99 e0 b9 ba 3c 60 c0 ba
       -0.0023414164 0.0027216678 -0.0014181315 -0.0014677118
000170 ff a0 ad 3b 7f 3d 3b 3b 35 cb f7 3a 2f d2 12 b9
       0.0052987332 0.002857059 0.0018905165 -0.00014001945
000180 7e bc 4d bb 8b 21 d5 3a 95 c3 b9 3a 3d 14 51 3b
       -0.0031392868 0.0016260607 0.0014172668 0.0031902932
000190 44 6d 7f 39 94 93 d1 ba 50 0c 34 3a f3 05 88 bb
       0.000243594 -0.0015989416 0.000686829 -0.0041511
0001a0 8c 0a 6e bb 8d 0e 8a 3a cc 1e f2 ba 2d be b8 3a
       -0.0036322204 0.0010532901 -0.0018472313 0.0014094763
0001b0 09 ef 42 3a e5 d6 27 bb 49 17 d8 3a bb 2f 96 ba
       0.0007436132 -0.0025610265 0.0016486432 -0.0011458317
0001c0 d4 25 00 3b 49 6e 64 3b 58 91 13 3b 0c 04 a5 ba
       0.0019553797 0.0034855774 0.0022517052 -0.0012589707
0001d0 32 b5 f3 3b 76 08 89 bb ce 1e cb bb b0 ba 90 ba
       0.0074373716 -0.004181917 -0.0061987406 -0.0011041965
0001e0 d2 75 70 ba 5b 2b 07 ba f3 b6 a0 3b dc a8 1e 3b
       -0.000917283 -0.0005156302 0.0049046217 0.0024209535
0001f0 58 d7 92 bb f9 68 4c ba 0d 63 e7 39 e7 05 80 bb
       -0.0044812374 -0.00077976246 0.00044133552 -0.0039069536

network_body.linear_encoder.seq_layers.2.weight f4 [128, 128]
000000 1f b4 50 3e 48 45 1a 3e 2c b1 7a 3d 11 ea 50 bd
       0.2038121 0.15065491 0.06120412 -0.051004473
000010 b6 c0 a4 3d 1f 03 e6 3c 30 1f cd bd 66 02 7b bc
       0.08044569 0.02807766 -0.10015714 -0.015320396
000020 7c e6 e7 3d 4b 21 24 39 e7 2f dc bd a8 3c 80 bc
       0.11323258 0.00015652661 -0.10751324 -0.015653923
000030 61 61 9c 3d 8f 17 93 3d 4f 49 1b bd 62 a3 10 bd
       0.07635761 0.07182228 -0.03791171 -0.035312064
000040 40 8c 87 3d f0 c0 a8 bc d0 ac 0d be bd 80 31 3d
       0.066185474 -0.020599812 -0.13835454 0.043335665
000050 a3 8c 9f bb 8a 2a e7 bd 82 2a de 3b 22 c8 b8 3d
       -0.00486906 -0.112874106 0.0067799697 0.09022547
000060 45 65 8e 3d 0c a1 0e 3d 16 b8 69 3c a4 4b 8d bc
       0.069529094 0.034821555 0.014265081 -0.017247982
000070 24 e3 26 bd 2a 8a 66 bd 9e 67 1c be 36 c2 47 3d
       -0.040743962 -0.056284107 -0.15273902 0.0487692
000080 d6 ec 0c 3c 55 8c 30 bd 7f bc db 3c 50 d5 af ba
       0.008601388 -0.04310258 0.02682328 -0.0013415013
000090 e1 8f 8e 3d 1a 26 50 bd 48 13 61 3e 51 93 b2 bd
       0.069610365 -0.050817586 0.21980011 -0.087195046
0000a0 d7 ae c5 3c d2 bc 8f bd 5c e4 d8 3d 8d 52 a5 bc
       0.024131222 -0.070184365 0.10590431 -0.020180965
0000b0 09 53 c5 bd d5 e2 af bd 2e 4a d4 bc d9 e4 81 bc
       -0.09634978 -0.08588187 -0.025914278 -0.015856193
0000c0 8b 16 a9 3c 2e 86 94 bd 46 fb 2a bd 99 11 15 bb
       0.020640632 -0.07252155 -0.04174354 -0.0022746085
0000d0 63 99 ab 3d 63 bc 23 bd 1d 65 eb bd 8e 23 56 bd
       0.083788656 -0.03997458 -0.11493895 -0.05228
0000e0 7b 39 80 3d 71 d6 40 be 62 f8 56 3d 32 99 94 bc
       0.062609635 -0.18831803 0.05248297 -0.018139455
0000f0 01 ca 9d 3c 6c f8 25 bd cd c0 63 3d bc 54 6e 3d
       0.019261362 -0.040520117 0.05560379 0.058186278
000100 fa d9 b8 3d 4e cd 65 3d 1f 78 b2 bd 1c ec b2 bd
       0.09025951 0.056103997 -0.087143175 -0.087364405
000110 e9 24 fa 3c 2d 84 02 3d 00 16 70 bd 77 e0 c8 bc
       0.030535178 0.031864334 -0.05861473 -0.024521096
000120 08 e9 e4 3d da 20 15 be b9 6c 8a 3a aa 49 d4 bd
       0.1117726 -0.14563313 0.0010560966 -0.10365613
000130 05 01 66 bd 12 53 d4 3c d7 f3 b0 bb ad 30 24 3d
       -0.056153316 0.025918517 -0.0054001617 0.040085483
000140 1b cc c3 bd 68 09 86 bb 36 54 8f 3d 5f 8f 3a be
       -0.095604144 -0.004090477 0.06998484 -0.18218754
000150 97 03 e6 3c b2 65 d7 bc 73 94 0a 3e d6 44 13 3d
       0.028077884 -0.02629361 0.13533191 0.03595432
000160 ea 97 cc bc d8 d1 05 3e 84 9c 05 3e a0 8c 13 bd
       -0.024974782 0.1306833 0.13047987 -0.036022782
000170 68 c4 ea bd ab 4b 4d bd 90 c5 2f ba 1d a4 ea 3d
       -0.11463243 -0.05012099 -0.00067051593 0.114570834
000180 ea f3 17 bb 82 f3 3c bd ec bd 12 3e 80 a5 25 bc
       -0.0023186156 -0.046130665 0.14330262 -0.010110259
000190 f8 48 ef 3d 50 05 ee 3a 7d ef 13 bd d6 2d a0 bc
       0.116838396 0.0018159542 -0.036117066 -0.019553106
0001a0 12 4e 98 3d 91 a0 51 3c c9 6c 7c 3d 2d b7 ad bd
       0.07436766 0.01279463 0.061627183 -0.08482204
0001b0 cb fe 19 be 5c 30 0c bd 9b 2c 95 3d 9a 7e 05 3b
       -0.15038602 -0.034225807 0.072838984 0.002036965
0001c0 99 49 42 bd 94 b8 8f bd 11 36 5f 3c 13 e0 4c 3b
       -0.04743347 -0.07017627 0.01362373 0.0031261488
0001d0 74 94 33 3d c3 08 94 3c d6 52 b1 3d 15 b8 cb 3d
       0.043842748 0.018070584 0.08658378 0.0994722
0001e0 f0 c4 42 3c ca 0f e5 bd 1d 9c 90 3d 09 6c 10 bc
       0.011887774 -0.11184652 0.07061026 -0.00881482
0001f0 4a fa a6 3c 97 ee c7 bd 9a a5 2c 3c 9e 91 05 be
       0.020383019 -0.09762304 0.010537529 -0.1304383
000200 1f 28 99 bd 3b 3f 16 be b4 db 02 3d f4 bb aa bc
       -0.074783556 -0.14672558 0.031947806 -0.020841576
000210 07 8a 3e be 35 67 94 be cb 59 e1 3d 85 be 04 be
       -0.18607341 -0.2898499 0.11003455 -0.12963302
000220 38 6f 11 3e 26 06 3d 3e 88 4e 5c 3d 19 0a 71 3e
       0.14202583 0.18459377 0.05378583 0.23539008
000230 97 b6 10 be 6a 8b 5e 3d 4a 18 ef 3c 6f 8f e5 3c
       -0.14132152 0.054332174 0.029186387 0.028022496
000240 7c 5d 12 bd cc 32 ea bd bc 7b e4 bd 1f c3 bc 3c
       -0.035733685 -0.1143547 -0.11156413 0.02304226
000250 b7 5c a4 bc c3 3b a0 bd 8d f7 8c bd d9 2a 8c 3c
       -0.020063741 -0.07823899 -0.06883154 0.017110275
000260 41 8b 4c be c8 60 8e bc d1 77 ff bd 50 79 ec bd
       -0.19974996 -0.017380133 -0.12474025 -0.11546576
000270 d8 ed cf 3c 2a f8 0d be 54 ce 72 bc 78 12 3c be
       0.025381967 -0.13864198 -0.0148197 -0.1836642
000280 74 71 32 3d c1 c8 5b bd ad a1 b9 3d b3 5d 78 3d
       0.04356523 -0.05365825 0.0906404 0.060636234
000290 98 0a f0 bc fa 63 52 bd ea c9 10 bd 12 ab 86 3d
       -0.029301926 -0.051364876 -0.03534881 0.06575598
0002a0 f4 b2 9f 3d 96 db 8a bd 5c 0e a3 3c b3 5b 62 bd
       0.077978045 -0.06780164 0.019904308 -0.055263232
0002b0 a0 b2 14 3e e9 06 0b 3d 9a 9d 9c 3d 7c 39 9b bd
       0.14521265 0.033942137 0.076472476 -0.07579324
0002c0 ad 0a 33 3b 43 9b 6d bb c0 04 b4 3d 1f b6 d8 3d
       0.0027319596 -0.0036255873 0.087899685 0.10581612
0002d0 86 57 25 bd 65 7f 53 3c f3 43 3c bd 80 c2 93 bd
       -0.040366672 0.012908791 -0.04596324 -0.07214832
0002e0 09 f9 ab bc b2 01 26 bd f4 7d ac 3d 22 79 33 3d
       -0.020992773 -0.04052896 0.08422461 0.043816693
0002f0 c0 dd 5e be f9 38 2e 3a 32 49 ad bd 15 ff 87 3c
       -0.21764278 0.0006646063 -0.084612265 0.016601125
000300 f4 d6 86 bd fb 5f 54 3d 35 ea 91 bd 8a b9 43 3d
       -0.06583968 0.051849347 -0.071247496 0.047784366
000310 06 d1 4f 3d 13 86 91 ba d1 20 a2 3d 7d c2 ab bc
       0.05073645 -0.0011102579 0.079164155 -0.020966763
000320 b7 6d 98 bd fe 03 ba bd 01 66 69 3c 3a 5b 9f 3c
       -0.074428014 -0.09082793 0.014245511 0.01945268
000330 3b 91 12 3c 18 f4 3d 3d c5 ab 9c 3c 72 99 a7 3c
       0.008945758 0.046375364 0.019124875 0.02045891
000340 11 ac d9 bd 18 2b 69 be cc 32 d7 bc ce c2 cc 3d
       -0.10628522 -0.22770345 -0.026269339 0.099980935
000350 6e 87 49 3c e3 53 e2 ba 5a 2e 29 3e be db b4 bd
       0.012300355 -0.0017267432 0.16521588 -0.08830975
000360 5a 93 6c bb 70 2d 9b bd 43 7c 41 bd 28 c6 ab bd
       -0.003609857 -0.07577026 -0.047237646 -0.08387405
000370 8c 93 d4 bd 73 0a 19 be 41 d4 63 bd 9a 85 7f 3d
       -0.10379705 -0.14945392 -0.055622343 0.06238327
000380 3f 5d dd 3c 0f 66 23 3e 7f d6 05 bd b2 3b 73 bc
       0.027022002 0.15956901 -0.032675263 -0.014845775
000390 8f 23 56 3d 65 c4 d9 3d 21 b4 07 bd a3 0d 9c bc
       0.052280005 0.106331624 -0.03313077 -0.019049471
0003a0 e3 6d 99 3d f6 1f c7 bc ad 18 1a 3c e9 ba 5a 3d
       0.07491662 -0.024307232 0.009405297 0.053400908
0003b0 13 86 bd 3d fe c3 5d 3d 7b dc 95 bc 3e 4c 2b bd
       0.09254088 0.05414199 -0.01829361 -0.041820757
0003c0 17 f3 a2 3d 16 5b 1b 3d ec 8c ce bd 47 76 21 bc
       0.07956522 0.037928663 -0.100854725 -0.00985486
0003d0 ce f0 38 3d a1 8a 75 bd 8a 76 30 bd f1 01 9f 3d
       0.045151524 -0.05994666 -0.043081798 0.07764042
0003e0 95 28 d1 bd b4 eb 3c be 85 7a bc bd ba cc ae bd
       -0.102128185 -0.18449289 -0.09203056 -0.08535142
0003f0 36 7b 87 3d ef 43 9a 3d 35 e3 5e 3d 3d 89 26 be
       0.066152975 0.075324886 0.0544159 -0.1626329

network_body.linear_encoder.seq_layers.2.bias f4 [128]
000000 43 fc 6f bb 6b e4 66 3b 15 5e 3b bb 31 82 85 bb
       -0.0036618866 0.0035231363 -0.0028590013 -0.004074358
000010 5b 65 d7 39 0a 59 7c 3a 49 27 6c 3b 4e 03 8d ba
       0.0004108351 0.0009626305 0.0036034158 -0.0010758431
000020 73 37 24 3b 12 c2 de b9 47 fd 02 3b e4 b1 02 bb
       0.0025057464 -0.00042487733 0.001998739 -0.0019942457
000030 0d a8 d1 bb e3 66 55 bb 07 a8 1a 3a 49 4c b3 b9
       -0.006398207 -0.0032562546 0.0005899672 -0.00034198377
000040 54 be 2e 3b 1a 90 4d bb 22 72 72 39 be de a3 bb
       0.0026663737 -0.0031366409 0.00023121436 -0.005000918
000050 c6 da 09 bb ee 8b ee ba 9a fd 28 bb d7 cb cb 38
       -0.002103494 -0.0018199661 -0.0025785924 9.7177624e-05
000060 97 0b 87 ba cc 9e 6a ba 86 9e 44 bb f9 99 01 3a
       -0.0010303137 -0.0008950054 -0.0030001714 0.0004943903
000070 32 9d 24 3a 8b ed 60 3a 26 7d f1 b9 58 96 48 bb
       0.00062795274 0.00085803185 -0.00046060345 -0.003060719
000080 69 0b c5 3a 69 cb 91 37 7d d7 2a ba 2d d5 fd 38
       0.0015033308 1.7380067e-05 -0.00065170956 0.00012103687
000090 e2 f4 3f bb cd b7 90 bb 2b 74 af ba bc 7f 59 ba
       -0.0029290249 -0.004416442 -0.0013386061 -0.0008296927
0000a0 90 02 da ba ae e2 35 3b 29 bf a1 ba 7a 80 8c 3a
       -0.0016632844 0.002775352 -0.0012340295 0.0010719441
0000b0 29 67 08 bc a7 d3 8e 3b 4d df 69 bb 5e 8a 01 bb
       -0.008325377 0.004358727 -0.0035686076 -0.001976631
0000c0 8e e7 5c 3a 95 90 53 bb 1f a6 15 ba f7 96 cd 3a
       0.00084268383 -0.0032282223 -0.0005708653 0.001568525
0000d0 d4 24 40 bb dd 1f e3 ba 37 89 9d 3b 08 69 86 bb
       -0.0029318826 -0.0017328222 0.004807617 -0.004101876
0000e0 99 34 5b 3b ef d0 bc bb a8 f6 a3 bb 7a f3 0d 3b
       0.0033448099 -0.0057622115 -0.005003769 0.0021660016
0000f0 83 ba d7 39 4c f1 52 b7 2d 51 a8 bb 3c ac b9 bb
       0.00041146958 -1.2573157e-05 -0.00513663 -0.005666284
000100 9b cd c7 3a c8 e7 2c bb e8 4a bb bb 1d 18 b0 3a
       0.001524377 -0.002638327 -0.0057157166 0.0013434921
000110 a4 1f 18 bb ed 05 1d bb ff 4e 3e 35 14 95 ff 3a
       -0.0023212219 -0.002395983 7.089547e-07 0.0019499385
000120 a7 58 20 3b 7d 2d 5f bb dd b1 0c ba 6f f0 28 bb
       0.0024466903 -0.0034054213 -0.000536708 -0.0025778075
000130 4f cd 30 bb 6e 03 8e ba 64 d5 5e 3b eb 15 f8 b8
       -0.0026977842 -0.0010834762 0.0034001702 -0.00011829644
000140 f9 bc 83 b9 88 9d a8 ba f0 62 8b 3b 97 50 e0 ba
       -0.00025127063 -0.0012864331 0.0042537376 -0.0017113861
000150 4c 32 f0 ba a4 e6 ff ba e8 59 6a 3b c7 7b 08 bb
       -0.0018325537 -0.0019523692 0.0035759155 -0.002082573
000160 c0 e8 9a bb a1 a5 0b ba 5f bc b6 bb 88 01 86 3b
       -0.004727453 -0.000532711 -0.005576655 0.004089538
000170 63 d4 fe ba 6e ac a6 bb 6a 75 1a bb 0e ef 05 bb
       -0.0019441958 -0.005086473 -0.002356852 -0.0020436677
000180 21 19 9d ba 69 21 02 3b 8b 83 ff ba 87 f2 38 bb
       -0.0011985638 0.001985634 -0.0019494159 -0.002822073
000190 b2 98 5f 3a 67 c5 09 3b 34 5d 87 3a 90 3c 97 39
       0.0008529528 0.0021022202 0.0010327459 0.00028846087
0001a0 4d 48 1f 3b 1d 43 d0 3a c0 7f 01 ba 07 7b d9 ba
       0.002430457 0.0015889142 -0.00049399957 -0.0016592451
0001b0 8f ff 12 bb 61 06 a5 39 9f 3b 8c bb 30 7e 3b 3b
       -0.0022430157 0.00031476005 -0.0042795683 0.002860915
0001c0 b1 3a ad bb 47 e9 75 3a 5f 38 11 bb b2 33 97 bb
       -0.0052865376 0.00093807693 -0.0022158844 -0.004614317
0001d0 ef e8 34 3b 5e b4 79 b9 bb 25 54 ba 5b 8a 78 38
       0.002760466 -0.00023813682 -0.00080927805 5.925666e-05
0001e0 2c be 97 b9 df b1 9a ba 1c ab 32 3b c6 bb 8e bb
       -0.00028942653 -0.0011802277 0.0027262634 -0.0043558804
0001f0 42 29 d5 bb 40 5b 23 3a b3 10 f8 ba cf c2 73 bb
       -0.0065051625 0.0006231554 -0.0018925875 -0.0037194972

action_model._continuous_distribution.log_sigma f4 [1, 2]
000000 00 df e4 3b 8a 9e bf 3b
       0.0069845915 0.0058477568

action_model._continuous_distribution.mu.weight f4 [2, 128]
000000 f2 bf b4 3a 19 98 09 3c 21 fa f9 3c 39 b6 4c 3b
       0.0013790114 0.008398079 0.030514779 0.0031236543
000010 f9 17 d7 3c c6 37 05 bd bf 58 c2 bb 90 b5 58 3c
       0.026256548 -0.032523893 -0.0059309895 0.013226882
000020 70 8b ac 3c 5d 39 ac 3a 55 3d 17 bb 8a 46 83 bc
       0.021062583 0.0013139654 -0.0023077328 -0.016024847
000030 a7 f8 f9 ba 9c 6f 7e 3c ec e3 80 3b 21 04 36 bd
       -0.0019071297 0.015529539 0.0039334204 -0.04443753
000040 43 cb 1a 3b 4d 54 d8 ba 23 8a 05 bb 6e 66 0c bc
       0.0023619689 -0.0016504616 -0.0020376525 -0.008569343
000050 0f d5 fa 3a 21 d1 ae 3c 0b cf 8c 3a 1b 5f 74 bc
       0.0019136983 0.021339955 0.0010742856 -0.014915253
000060 5e 80 63 bc 7c 5b 80 3c 54 66 86 3c 11 cd 0f 3d
       -0.013885586 0.015668623 0.016406216 0.035107676
000070 88 e7 a7 3b c0 ec aa 3c 4c 6d 09 bc f4 46 76 bb
       0.005124036 0.020864844 -0.008387875 -0.0037578912
000080 27 95 a0 39 0c a9 f4 bc ad 85 c2 3b ac 0d 0b bc
       0.00030628705 -0.029865764 0.0059363456 -0.008487146
000090 7a 4b d0 bb f9 e4 27 bb 06 6d d8 bc 10 0c c1 bc
       -0.0063566538 -0.0025618656 -0.026419174 -0.023565322
0000a0 7d 2d 5a bc 87 8c 4e b9 81 d3 d7 3a b5 37 42 3c
       -0.013316509 -0.00019698041 0.0016466231 0.011854102
0000b0 0d d8 5c 3b 1f bf 30 3c 25 f9 b3 3c ec c5 e4 3b
       0.0033698112 0.010787754 0.021969387 0.006981602
0000c0 17 f2 03 bd a0 23 50 3c c8 ac 05 3c d6 ee 42 3c
       -0.032213297 0.012703806 0.00815887 0.011897763
0000d0 e5 46 02 bb f1 aa 31 bc 29 e2 2f 3c e8 fe 42 bb
       -0.0019878682 -0.010843978 0.010735073 -0.0029753987
0000e0 da cc 1d bc 9d e8 51 bb c2 94 43 bb 9e 7b 71 bc
       -0.00963136 -0.0032029517 -0.0029843305 -0.014738945
0000f0 26 3a bd 3c 3d 32 bd bb 49 8f b1 3b 82 e2 79 3c
       0.023099016 -0.005773811 0.0054186922 0.015251758
000100 31 b1 86 3c 87 0e 9a 3b 3c 9c 07 bc e1 d9 5b bc
       0.016441913 0.004701439 -0.008276995 -0.013418646
000110 60 8c 59 bc 41 43 29 3c 3f 7d d0 b9 0c d0 b9 bc
       -0.013278097 0.010330976 -0.00039766167 -0.022682212
000120 38 75 d4 b9 df 04 b9 3c 18 4a 39 bc f2 ba 28 3c
       -0.00040523126 0.02258533 -0.011309169 0.0102984775
000130 8e a5 cf 3c e1 eb 73 3b 70 ee 24 3a f4 60 f3 3c
       0.025347497 0.0037219452 0.00062916335 0.029709317
000140 e2 18 17 3c a3 f0 bc bc 7f 5b 6e bc f3 cb a1 bc
       0.009222241 -0.023063963 -0.014548182 -0.01975057
000150 c1 4a ad 3c 7a bd 44 bc 28 68 61 3c 6b 5a 66 bc
       0.02115381 -0.012008065 0.013757743 -0.014059643
000160 03 40 9d 3c b3 50 21 bc 6d ad 55 bb 6d 1f b8 3c
       0.019195562 -0.0098459 -0.003260459 0.022475922
000170 8d d3 a0 bc e9 aa 29 bc 8e f6 db 3c 35 6c 30 3c
       -0.019632125 -0.01035569 0.026850965 0.010767986
000180 a0 86 67 3b 76 ff 17 3a 8a b2 0e 3c 4e 6a 8b bb
       0.0035328045 0.00057982595 0.008709559 -0.004254616
000190 2d bd 9b bc 7b fa 90 3b 18 d4 e2 bb 2c 74 85 3c
       -0.019011104 0.004424391 -0.006922256 0.016290747
0001a0 4a e2 ee 3b 8a ef 9e bc f0 3a 09 3c bf 68 05 3c
       0.0072901594 -0.01940133 0.008375868 0.008142649
0001b0 a6 8f 27 3c d4 4d 55 3c 73 ba 2e bc f0 38 0e bd
       0.01022712 0.013019044 -0.01066457 -0.03472227
0001c0 62 e9 9b 3a a3 fd 12 bc 22 79 87 bc fd 66 3c bc
       0.0011895115 -0.0089716045 -0.016537253 -0.011499164
0001d0 30 29 37 bc 80 16 8e 3b 27 d3 bb 3b be 58 ad 3b
       -0.011179253 0.0043361783 0.0057319584 0.00529012
0001e0 d2 cc 31 3d 0d ec 78 3b d0 95 74 3c 60 20 2d bc
       0.043408222 0.0037982494 0.014928296 -0.010566801
0001f0 ad 52 c1 3b 68 07 07 bd 4e 14 88 3c b3 47 95 3c
       0.0058997483 -0.032966048 0.016611245 0.018222665
000200 5c 30 71 bc cf e3 13 3c f4 20 0c 3c 36 c0 af bc
       -0.014721002 0.009026482 0.0085527785 -0.021453958
000210 2b b8 06 bd 2a df 11 bd c3 ef da bb 9c 2a 9e 3c
       -0.03289048 -0.035613216 -0.006681414 0.019307427
000220 7d 83 6b 3c 62 c2 34 bd cd 0f 0f 3d b4 8e 6a bc
       0.014374611 -0.04413069 0.03492718 -0.01431625
000230 17 f2 97 bb c1 18 4b bc 33 61 0a 3c fb b5 02 bd
       -0.0046370137 -0.0123960385 0.008446026 -0.03191183
000240 c0 7b af 3b 65 1c 02 3b 17 37 e0 3c c0 1d 3c bc
       0.0053553283 0.001985335 0.027370019 -0.011481702
000250 96 3c 06 3c 7c 06 31 bc 9d b2 b5 bb 55 f4 17 bc
       0.008193156 -0.010804769 -0.005544974 -0.009274562
000260 ea ba d9 bb e0 2e 57 bb 97 0c 90 bb 76 ac 02 3b
       -0.0066445963 -0.0032834336 -0.004396032 0.001993922
000270 30 24 0d bc ff e9 83 bb fb 94 7c bb 4d ff df 3a
       -0.008614585 -0.0040256972 -0.0038540948 0.0017089635
000280 45 d4 90 3a ce ab 64 bc 56 55 39 3c e2 fd 83 bb
       0.0011049589 -0.013956977 0.01131185 -0.004028068
000290 ba 19 88 3c 7c d7 22 bc 5d a7 d0 bb 11 5e b2 bb
       0.01661383 -0.009939071 -0.0063676075 -0.0054433425
0002a0 4c 6b c2 3b 56 4a 00 bb 5d 7b 8a 3b c6 65 ea 3c
       0.005933201 -0.0019575558 0.004226132 0.028612982
0002b0 a2 df b1 bc 73 b4 ea 3c 38 57 0f 3c f3 97 9a bb
       -0.021713082 0.028650498 0.008748822 -0.004717821
0002c0 f8 48 0c 3c 9c a9 e8 ba 6c 66 3b 3c ef 3c 14 3c
       0.008562319 -0.0017750743 0.0114379935 0.009047731
0002d0 a8 6a 53 bc 04 f2 5c bc bc ad f4 3b c6 aa 3b bc
       -0.012903847 -0.013485435 0.007467 -0.01145429
0002e0 33 3f 00 3d 18 54 87 bc ab 66 51 bc 4f eb cc ba
       0.03131027 -0.016519591 -0.012780826 -0.0015634092
0002f0 da 45 df 3c 6e a0 39 bc 30 14 b1 bc 07 2a 80 bc
       0.027254988 -0.011329753 -0.021616071 -0.01564504
000300 b4 7b a8 bb 6a a0 f4 3b a1 f8 7f bb 77 1d 07 3d
       -0.0051416997 0.007465412 -0.0039058106 0.032987084
000310 3d 17 11 bd e8 5e a9 bc ed 75 cc 3c 67 14 35 bc
       -0.035422552 -0.020675138 0.024958575 -0.011052228
000320 18 86 bd 39 44 52 10 b9 f7 db 15 bc 4f 8e 47 bd
       0.00036148797 -0.00013763556 -0.009146682 -0.0487197
000330 6c 92 19 bc fe 88 d9 3c a1 b7 d6 3b 8a 48 37 3c
       -0.009373289 0.02655458 0.006552652 0.011186728
000340 7e 2b 21 bc 75 bb b9 bc b6 4e 9c 3c 97 db 1d bc
       -0.0098370295 -0.022672394 0.019080501 -0.009634874
000350 73 d6 32 bd c9 71 ed 3c 6c c0 8c 3c d6 d1 17 39
       -0.043661546 0.028984921 0.017181598 0.00014478652
000360 f1 18 cb ba 07 80 f3 37 52 c5 d3 bc 52 95 de 3a
       -0.0015495104 2.9027475e-05 -0.025850926 0.0016981757
000370 1d db ca bc d3 ec 99 b9 37 7a 07 bc 48 ef 63 bc
       -0.024762684 -0.00029358882 -0.008268884 -0.01391203
000380 a2 51 f2 bc f6 3e 96 3b 49 2a a6 3c 0b 80 0a 3c
       -0.029579941 0.0045851422 0.020283835 0.008453379
000390 9c 4b 6e bc d0 be 86 3c a1 ec 2f 3b 6b 43 5f 3c
       -0.014544394 0.016448408 0.0026843923 0.013626914
0003a0 1a d8 e9 3b 2d 85 1c 3c 45 af f5 3c 27 90 71 3b
       0.007136357 0.009553236 0.029990802 0.0036859603
0003b0 39 fe 34 bc 1b 1e 76 bb 70 12 a6 bc 22 bf e9 3c
       -0.0110469395 -0.0037554565 -0.020272464 0.028533522
0003c0 2a f5 68 bb 21 1b e5 3c 14 1c ab bc 89 39 2e 3d
       -0.003554652 0.027967038 -0.020887412 0.04253534
0003d0 50 83 51 bc 6c 28 09 3c bb ca 35 bc df 3f 61 3c
       -0.012787655 0.008371454 -0.011095698 0.013748138
0003e0 1e cf 10 3c 93 c1 5b 3c a3 06 03 bb 8b e5 5f bc
       0.008838443 0.013412851 -0.001999297 -0.013665567
0003f0 e8 c5 93 bc 8d ca 7e bc 3d a6 97 3c e5 90 53 bc
       -0.018038705 -0.015551222 0.018511886 -0.0129129635

action_model._continuous_distribution.mu.bias f4 [2]
000000 30 b4 bb ba cf 21 2d 3b
       -0.0014320668 0.0026417857

action_model._discrete_distribution.branches.0.weight f4 [2, 128]
000000 20 ad f6 3a 7a 61 5e 3a fa 94 24 3c d2 4b 3d 3c
       0.0018819906 0.0008483153 0.010045284 0.0115537215
000010 21 52 fa bc 07 2f 86 3b ea bc 10 bc 66 16 05 3c
       -0.03055674 0.0040949616 -0.008834103 0.008123016
000020 9c a1 ab bb b1 98 ec bb 08 51 79 bc 26 08 3a 3b
       -0.005237771 -0.0072203507 -0.015217073 0.0028386205
000030 2f b5 3c 3c 97 23 1a 3c 8c 00 af 3b e5 60 a2 bc
       0.011517807 0.009407899 0.0053406414 -0.019821594
000040 f1 53 18 bc 81 d8 80 bb 8e 25 87 3b f0 2a 1d 3b
       -0.009297357 -0.0039320593 0.00412435 0.0023981892
000050 b1 9b 87 bb 44 19 91 3b fc 23 0f 3a 81 c5 25 bc
       -0.004138433 0.0044280607 0.0005460379 -0.010117889
000060 26 5b b1 ba 1c 7d 02 bb cb e7 53 3b 34 ba 00 bc
       -0.0013531193 -0.0019910997 0.0032334204 -0.007856894
000070 5c dc a7 3b 62 1b d9 bc f1 6a 2e bb 1d 3e 19 3c
       0.0051227044 -0.026502315 -0.0026614035 0.009353188
000080 ef 68 dd bb 4f c7 59 3c 4b 68 9d 3b d0 9a 78 bc
       -0.006756894 0.013292148 0.0048036925 -0.015173629
000090 34 9f ab 3b 6c a9 66 39 01 69 11 3c 76 8a d9 bb
       0.0052374844 0.00021997624 0.008875133 -0.0066388203
0000a0 5f 90 b0 3b 6f 51 62 3b d3 52 07 3c db 27 22 3c
       0.005388304 0.0034533401 0.008259493 0.009897198
0000b0 48 f8 ce 3a cf c5 b6 ba 72 63 8c 3b ea fe ce bb
       0.0015790546 -0.001394445 0.0042843157 -0.006317009
0000c0 58 05 54 bb 82 21 4d bc 9e 66 74 ba fa ed 31 bc
       -0.0032351818 -0.012520196 -0.00093231525 -0.010859961
0000d0 52 df 32 3c 27 9d 1e 3b e8 d2 56 bb e3 cd 2c 3b
       0.0109175015 0.0024202557 -0.0032779519 0.0026367835
0000e0 a0 a1 5d 3b e2 da 01 3c 4a f4 4a 3b 70 72 02 bb
       0.003381826 0.007925721 0.0030968362 -0.0019904636
0000f0 85 b2 0a 3b 0b 05 af bc 04 27 d3 3b 1a 50 01 bc
       0.0021163535 -0.02136471 0.00644386 -0.007892633
000100 48 51 07 bd 3b 68 bd 3b 5c 26 2f bb 66 99 d3 3b
       -0.0330365 0.0057802475 -0.0026725745 0.0064574955
000110 ad 74 06 3b 7b 6a 86 3b 97 3d fd 3b 28 90 c2 b9
       0.0020516322 0.004102049 0.0077282893 -0.00037109968
000120 10 d7 f2 3b 2b a8 71 bb 67 f8 f6 3b 17 30 51 bc
       0.0074108914 -0.0036873918 0.007536936 -0.012767813
000130 9b b9 2f 3b 80 a9 40 3c b3 d6 7b bc d6 4d 33 3b
       0.002681351 0.011759162 -0.0153710125 0.0027359626
000140 6e 90 0c bc 24 58 0e 3b f9 eb 1c bc 36 0d a3 bb
       -0.008579357 0.0021720016 -0.009577745 -0.00497594
000150 fd a2 b4 bb 10 75 88 ba 7b 17 96 bb a2 d8 a3 3c
       -0.005512594 -0.0010410864 -0.004580436 0.02000076
000160 a7 3c 2d 3c 23 ed 55 bb 12 6f d6 bb 95 a3 ca ba
       0.010573543 -0.0032642565 -0.0065440023 -0.0015460128
000170 9d a9 e3 bb 86 9b eb 3b e9 5e 15 3b 35 0f 62 b9
       -0.0069477097 0.0071901707 0.0022792167 -0.00021558705
000180 78 03 cb bc 01 b7 92 3b de ca 70 3c 4d ff 26 3c
       -0.024781927 0.004477382 0.014696805 0.010192704
000190 83 98 eb bb 0e 32 ad 3b 48 f2 2f bc cc de 63 3c
       -0.0071898117 0.005285508 -0.010738917 0.013908099
0001a0 20 b8 d5 ba 19 e2 8e 3b 16 9a 6f ba 37 df 3e bc
       -0.0016305484 0.004360449 -0.0009140087 -0.011649898
0001b0 09 8f 0e bb 6c 91 85 bb 6e 23 c2 bb 88 4c 02 bc
       -0.0021752736 -0.0040761735 -0.0059246337 -0.007952817
0001c0 c2 fe b2 bb 85 6c 0c 3c af af 13 3c a0 6d 37 3c
       -0.0054624984 0.008570795 0.009014054 0.01119557
0001d0 df ff 6f b8 e0 44 84 3b a8 a4 6c bb f1 10 7a bb
       -5.722034e-05 0.004036531 -0.0036108885 -0.003815707
0001e0 8d a6 71 bb 6f 0d 05 3b e5 33 4e 3b 6f 85 ba 3b
       -0.0036872954 0.0020302196 0.0031464037 0.005692176
0001f0 d4 90 b1 3a 99 3e ce bb 4e a8 13 bb 19 4c 5f 3b
       0.001354719 -0.0062940833 -0.0022530737 0.0034072457
000200 82 67 39 bc 74 d4 d5 3b 64 7f 35 bc a4 43 17 bb
       -0.011316182 0.0065255705 -0.011077736 -0.0023081088
000210 10 cc 8c 3b 33 44 50 3c 7f c0 6b 3c cf 3b 10 bc
       0.004296787 0.012711572 0.014389156 -0.008803322
000220 65 c1 41 3b 30 6c d1 3b 10 0c 62 bb 7a 78 ff bb
       0.0029564735 0.006391071 -0.0034492053 -0.0077963443
000230 2e 6f ce 3b 46 20 77 bb de 11 07 3c b8 eb 4d bc
       0.0062998747 -0.0037708445 0.008244006 -0.012568407
000240 e5 7d 09 3a 25 f1 ae bb 18 10 54 3c 4e d2 28 3a
       0.0005244895 -0.0053388053 0.01294329 0.0006440029
000250 86 89 7a bc 30 e3 c6 3b fc 6f 42 b9 01 f5 09 3c
       -0.015291577 0.0060695633 -0.00018542999 0.00842023
000260 8d db 7f bb 57 24 12 3b f4 24 87 bb 0c c6 3e 3b
       -0.0039040775 0.0022299492 -0.004124278 0.0029109744
000270 90 91 f4 3b c3 b0 19 3c d8 38 70 3a 6e c6 fa bb
       0.0074636415 0.009380522 0.0009163744 -0.007653049
000280 c7 25 bd 3b 43 83 a2 bc 06 44 83 bb 2a 00 4a bb
       0.0057723257 -0.019837981 -0.0040059118 -0.0030822852
000290 b5 34 e5 3a e6 fb 3e 3b a9 d3 ae 3a 94 7f 01 3c
       0.0017487021 0.0029141842 0.0013338226 0.007903952
0002a0 b1 0a 1c bb 37 0c 5a bb f5 e8 a8 bc 96 93 5d bc
       -0.0023810084 -0.003327144 -0.020618895 -0.013523957
0002b0 35 19 3f bc 08 5e 65 bc fe 54 1b bc 63 64 cc ba
       -0.011663725 -0.01399947 -0.009480713 -0.0015593882
0002c0 43 df 65 bb 03 8c 9a ba 37 0e e4 3a 11 1a af 3a
       -0.0035075701 -0.0011790994 0.0017399256 0.0013359209
0002d0 80 64 a0 ba 59 dd 9e 3b 43 cc a4 3a d6 bf fa ba
       -0.0012236983 0.004848164 0.0012573082 -0.0019130658
0002e0 9e 15 b2 b9 8f 26 0e 3b 6a d6 9d ba a3 52 2a 3c
       -0.00033966912 0.0021690463 -0.001204205 0.010395679
0002f0 38 ff 25 bb c7 82 3b 3c 21 52 7e 3a 4f 71 d6 3b
       -0.0025329124 0.011444754 0.0009701569 0.006544269
000300 f2 5b 32 3c be 21 3b 3b 32 29 93 bc 40 2a 1b ba
       0.010886179 0.0028554047 -0.01796398 -0.00059190765
000310 0c fb 58 3c f1 98 95 bc 6a 55 c2 3b d1 6c ca ba
       0.013243448 -0.018261405 0.0059305923 -0.0015443807
000320 e8 84 a5 3b 17 55 03 bb ee fd 66 bb 3a d8 5e 3c
       0.005051244 -0.0020039731 -0.0035246569 0.013601357
000330 b1 2f d3 bb 5a 72 2b bc a9 bc 1a bb 31 ef 14 3c
       -0.0064448942 -0.010464275 -0.0023610985 0.009090231
000340 76 96 81 3b 7e 21 1d bc ae a5 90 bc f4 b6 a9 bc
       0.003954704 -0.009590505 -0.017657127 -0.020717122
000350 b6 a9 26 bc 77 e9 cc bb 13 ea 82 3c a9 5a d2 3a
       -0.010172298 -0.006253417 0.015980756 0.0016048747
000360 cb c2 e6 b9 74 50 2c 3c 7b 8f 7b bc 8e 0c 36 3c
       -0.0004401415 0.010517228 -0.015354033 0.011111392
000370 9b 13 18 bc 63 c7 d4 bb 5b 31 27 bc e5 54 0a 3b
       -0.009282018 -0.0064934953 -0.010204638 0.002110773
000380 7b d3 00 bc c8 d8 eb bb f2 eb 22 bc 29 11 60 b9
       -0.007862921 -0.007197473 -0.009943949 -0.00021368697
000390 24 e2 a7 3c 35 7c 3f bc ab e0 ea 39 ca 0a 4c bb
       0.020493574 -0.011687328 0.0004479935 -0.003113436
0003a0 a7 7b 57 3b 02 9b ba bc 88 9c f8 bb cd c7 ab 3b
       0.00328801 -0.022778992 -0.0075870194 0.005242324
0003b0 d1 8e eb 3b 49 63 51 3c 5e bf 17 bb 0a 08 de bb
       0.007188656 0.012780019 -0.0023154835 -0.0067758607
0003c0 91 6f 91 bb a4 87 75 bc 0c e2 87 bc fb 66 20 bc
       -0.0044383486 -0.0149859525 -0.01658728 -0.009790177
0003d0 27 0c 14 3c f4 ca 73 3a 2f b2 7b 3c 12 5c 83 3b
       0.0090361005 0.0009299957 0.0153623065 0.0040087784
0003e0 81 ff fb 3b 6f 0f a8 ba a3 5f 93 3b 74 cf 98 3a
       0.0076903705 -0.0012821982 0.004497485 0.0011658506
0003f0 75 1a 7e bb 0d db ba 3b d3 f1 ff bb 77 7c 6a b9
       -0.0038773094 0.0057023824 -0.00781081 -0.00022362346

action_model._discrete_distribution.branches.0.bias f4 [2]
000000 21 42 99 bb 22 42 99 3b
       -0.0046770726 0.004677073

critic.network_body.linear_encoder.seq_layers.0.weight f4 [128, 6]
000000 37 67 9a 3e cd c7 c2 be 24 77 a2 bd 3c 0b 28 bd
       0.30156872 -0.3804306 -0.079328805 -0.04102634
000010 3c aa c9 bc 72 eb 4b bf b0 c8 6b 3d 2e 0b c8 3d
       -0.024617307 -0.79656136 0.057564437 0.09767757
000020 81 d6 22 3e 50 44 d1 3c 10 2e 9f be b7 3a 6e be
       0.15902139 0.02554527 -0.3108983 -0.23264585
000030 5d ef 8f be d8 0a 5f bf 9b 47 1a 3e 9d ca 30 3f
       -0.28112307 -0.8712592 0.15066378 0.69059163
000040 13 c4 02 3f 13 a2 6d 3f bd e7 00 3e 97 08 cb 3e
       0.51080436 0.9282543 0.12588401 0.3965499
000050 a1 b7 6b be 77 25 9a 3e 0f f5 e4 be 26 4e af be
       -0.23019268 0.30106708 -0.44718215 -0.3423931
000060 c8 7f 2a bf 1a 97 5f bf 30 59 4b be 6b 47 b1 be
       -0.6660123 -0.8733994 -0.19858241 -0.346248
000070 1d 0d b7 3d e5 a9 06 bd 7c be 48 be 51 52 9f be
       0.08938048 -0.032876868 -0.19603914 -0.3111749
000080 d7 dc c4 be 48 67 4a 3f 92 05 bb 3c f7 9e e1 3c
       -0.38449737 0.79063845 0.022829805 0.02754162
000090 b6 b9 5c 3f c6 81 6b be 1c 5b 4f be 9c 74 66 3e
       0.8622087 -0.22998723 -0.20249599 0.2250542
0000a0 b7 e6 8a 3e c2 c3 64 be 48 76 15 3f 1f 8d b5 bc
       0.27129146 -0.223403 0.5838361 -0.022162018
0000b0 a4 bb b7 be 86 da 78 3e be 59 1c bf 71 06 d1 3e
       -0.35885346 0.2430211 -0.61074436 0.40825227
0000c0 13 74 53 3e 27 8a a5 3d fb 30 82 bf 45 84 1f 3f
       0.20649748 0.08082991 -1.0171198 0.623112
0000d0 e4 2a 54 be 3b 8a 18 3f 9f de 9f 3e 66 a9 97 3e
       -0.20719486 0.5958592 0.31224534 0.29621428
0000e0 97 92 74 be 6c 21 50 be c4 06 1b 3f 53 29 bc 3d
       -0.23884045 -0.2032525 0.605572 0.091875695
0000f0 49 0b c7 3d 99 55 c5 3d 40 c7 c0 3d 41 e0 f7 bd
       0.09718949 0.09635467 0.09413004 -0.1210332
000100 52 cc c5 3e 50 a3 04 3c e4 de 03 bf ee 39 a2 be
       0.38632447 0.008095577 -0.5151198 -0.31684822
000110 d2 cf 51 3f 18 42 0a be 84 83 df bd 99 7f dd 3e
       0.81957734 -0.13501775 -0.109137565 0.43261412
000120 f9 19 93 be 44 8b 3b 3f 6c 04 47 be b4 dd d3 3e
       -0.28730753 0.7325938 -0.1943528 0.41380084
000130 b7 6b a2 3d 5b 40 f4 bd eb 2b 87 3d c7 46 22 3f
       0.07930701 -0.11926337 0.066001736 0.6338925
000140 e0 2e 56 3f b8 5c e0 be 21 b2 8e bd 73 05 0c 3f
       0.83665276 -0.4382074 -0.06967569 0.54695815
000150 fe ca 2e 3f 78 19 3d 3e 17 f5 99 3e d9 cc 04 3d
       0.6827849 0.18466747 0.300698 0.03242192
000160 44 3b 99 3e 3e 3c 56 3e d4 b0 17 3f 5a c3 82 3e
       0.2992803 0.20921418 0.59254193 0.25539666
000170 f2 5c 80 be c8 16 05 3f 6b 65 3a 3f f3 2f 8f 3d
       -0.25070912 0.51987886 0.72811 0.069915675
000180 eb 5e 91 be a4 e2 02 bf 47 6d 9d be 3f 38 c1 3e
       -0.2839273 -0.51127076 -0.30747434 0.37738225
000190 6f 6a 1e 3e c0 ba 28 3f 85 c0 b1 be 46 ae b5 3e
       0.15470289 0.6590996 -0.34717193 0.35484523
0001a0 48 15 42 be 21 5f 7c be 8b c7 30 be 38 e1 0b bf
       -0.1895343 -0.24645664 -0.1726362 -0.5464053
0001b0 d1 a9 27 3d c8 e6 94 3d 57 11 ae 3d fd 30 d4 be
       0.040933434 0.072705805 0.08499401 -0.41443625
0001c0 f4 57 81 be 43 40 65 3d 17 b9 d7 3c f8 98 14 be
       -0.25262415 0.055969488 0.026333375 -0.14511478
0001d0 45 b2 45 bd e7 17 cb be a7 2b 8f be 19 60 5a 3e
       -0.048265714 -0.39666674 -0.27962992 0.21325721
0001e0 71 f2 ca be b8 c4 54 bf 46 fc 6a 3e ca 4e 00 be
       -0.39638093 -0.8311267 0.22947797 -0.12530056
0001f0 7a 00 87 3e 25 14 4b be ef a3 ac 3e 17 89 00 bf
       0.2636755 -0.19831903 0.3371882 -0.5020918
000200 53 8e fc 3d ab ad 32 3e 90 a3 d2 3d 84 c7 22 bf
       0.12331834 0.17449062 0.10285103 -0.63585687
000210 6f 74 6a bd 36 6e d1 3e 32 37 14 bf e9 2d e3 3e
       -0.057239946 0.40904397 -0.5789672 0.44370964
000220 55 b0 b0 be dd 07 d5 be 10 12 9a 3e a0 9f 9d 3f
       -0.3450953 -0.41607562 0.30091906 1.2314339
000230 0d 01 d3 be e1 d9 1d be 95 b0 a1 be 18 e6 3f 3e
       -0.4121174 -0.15415145 -0.31580034 0.18740118
000240 82 2f 5b 3e 7a 10 15 bf be f2 65 be 8b fc 9f 3e
       0.21404842 -0.58228266 -0.2245588 0.31247362
000250 07 1e d1 3e 2f c9 88 bd cc 17 58 3e f8 58 92 3e
       0.40843222 -0.06678998 0.21102828 0.28583503
000260 f5 6f db 3d 72 f2 db 3e 47 f8 68 3c 59 cc 8c 3e
       0.107147135 0.4295841 0.01421935 0.27499655
000270 00 9b aa 3e 5a eb 8c bf 33 53 63 bd 06 40 d0 be
       0.3332138 -1.1009324 -0.055499267 -0.40673846
000280 89 be 84 bd cf 13 3a 3e 38 ed f8 bd 38 29 91 be
       -0.06481654 0.18171619 -0.12154621 -0.2835176
000290 90 e6 05 3d 10 7d 79 3c 2b 34 0e 3e 05 cb 71 be
       0.032690585 0.015227571 0.13887088 -0.23612602
0002a0 dc 0d f8 3d ab 99 94 be 78 fd 82 bf 8f a3 c6 3e
       0.121120185 -0.2902349 -1.0233603 0.3879666
0002b0 88 af 97 bc cd 19 a0 bd a2 b2 1e bf c2 6d 03 bf
       -0.018516317 -0.07817421 -0.6199132 -0.5133935
0002c0 61 10 1a 3e 98 74 cb 3e 00 a0 0c 3e bf 79 66 3e
       0.1504531 0.3973739 0.1373291 0.2250738
0002d0 1a 0c 63 3e 8a 00 47 bf 46 eb 84 3f 42 0c 7c be
       0.22172585 -0.777352 1.03843 -0.24614051
0002e0 cc a9 4a be d0 c3 15 be 6a be 01 3f f4 3f f4 bd
       -0.19791335 -0.14625478 0.50681174 -0.119262606
0002f0 96 4b f2 bd 8d 37 05 bf 25 d6 72 3f 19 54 99 3e
       -0.11830823 -0.5203789 0.9485801 0.29946974
000300 4a dc 94 be 00 83 9d be 6f 8e c5 3e 9b 0b 2e be
       -0.29074317 -0.30764008 0.3858523 -0.16996615
000310 8c 61 ac 3e fa f8 d5 3e 50 8d 4b bf 23 6f 78 3f
       0.33668172 0.41791517 -0.795125 0.9704458
000320 13 4a 10 bf 9f 05 03 3f e6 43 ae bd c6 0d 44 3f
       -0.5636303 0.5118045 -0.08509044 0.76583517
000330 63 39 8a 3e 44 df 23 3e 25 f7 4e 3f f7 5c 35 3b
       0.26996908 0.16003138 0.8084586 0.002767382
000340 86 09 0f 3f 67 23 ca be 97 a7 ac 3d d0 41 0b be
       0.55873907 -0.39480135 0.08430403 -0.13599324
000350 fd 55 52 be e6 99 03 3f ae b0 57 3d 65 71 82 bd
       -0.20540614 0.51406705 0.05265873 -0.063692845
000360 40 c8 db bc d9 92 8c be 4f 2e fc 3e 5c 58 89 3e
       -0.026828885 -0.27455786 0.4925408 0.26825225
000370 19 39 2e 3e 0a fa 55 3e e5 61 be be da bf 81 bc
       0.17013969 0.20896164 -0.37184063 -0.015838552
000380 d0 35 01 3f 4f 5d 29 3f fe 08 01 be c3 89 37 bd
       0.50472736 0.66158 -0.12601086 -0.044809114
000390 7c 64 1d bf 83 38 09 bf e6 6c df 3e 3c 58 47 3f
       -0.6148145 -0.53601855 0.4363777 0.7786901
0003a0 61 7c 88 be c5 9e 25 3d 19 4b 4f 3e fb 1c 5d 3f
       -0.26657394 0.040434618 0.20243491 0.86372346
0003b0 35 af 94 3e 44 aa 92 3e c1 81 9a bd 9a 85 fc 3e
       0.29039922 0.28645527 -0.0754428 0.4932068
0003c0 26 a0 b0 3e f7 96 fc bd b3 80 db be b7 ae 3e 3e
       0.34497184 -0.12333482 -0.42871627 0.18621336
0003d0 6c 66 a4 3e 10 d7 f6 be e4 cd 77 be b9 e5 6f 3f
       0.32109392 -0.48210955 -0.24199635 0.93709904
0003e0 62 5b 10 bb 79 d1 bb 3e c1 f4 e1 bd c0 ac 9c 3e
       -0.0022027125 0.36683252 -0.11033011 0.30600548
0003f0 13 3a 90 3e b1 7c 56 3f e8 71 5c 3e 54 14 b3 3e
       0.28169307 0.83784014 0.21527827 0.34976447

critic.network_body.linear_encoder.seq_layers.0.bias f4 [128]
000000 cd bd 18 ba 78 e3 e9 3b 65 a0 da bb d5 cd d1 3a
       -0.00058266224 0.007137712 -0.0066719525 0.0016006777
000010 36 89 52 3b d9 55 cd 3b 68 73 07 bc fe 14 14 bc
       0.003212524 0.0062663374 -0.008267261 -0.009038208
000020 c3 05 b6 3b 76 61 55 bb 75 71 63 bb 9f 89 b5 bb
       0.005554886 -0.0032559312 -0.0034705077 -0.0055400874
000030 73 69 64 3c 84 19 eb bb 9c 51 03 bc 76 65 15 bc
       0.013941157 -0.0071746726 -0.008015063 -0.009118428
000040 4a f7 9e 3b 6e da fd bb 0c be e2 bb 57 75 cc 3b
       0.0048512565 -0.007746986 -0.006919628 0.006239574
000050 0d 03 2d b9 67 c5 ed 3b 17 b7 0a bc 5b 7b 07 bb
       -0.00016499702 0.007256198 -0.008466504 -0.002067289
000060 44 91 ed bb 5d 2c b7 3b 1a 8a fa bb 5e 2f 32 3b
       -0.007249983 0.0055900053 -0.0076458575 0.0027188878
000070 0d c6 cc bb 5f 13 96 3b b5 eb fd bb 9a e8 1b 3c
       -0.0062491954 0.004579946 -0.0077490457 0.009515906
000080 90 7f e8 bb a4 d5 ef 3b fb 93 26 bb 5b 2d 44 bb
       -0.0070952848 0.007319169 -0.0025417793 -0.002993426
000090 23 9d e4 3b d1 8c f3 bb e5 a9 1c bc c2 24 27 3b
       0.00697674 -0.007432558 -0.00956199 0.0025504087
0000a0 16 c6 5f bb 1f bf 0f bc 89 10 cd bb 72 b8 2a bc
       -0.0034145168 -0.008773594 -0.0062580747 -0.010419952
0000b0 b7 3b f0 bb 53 36 95 3b 02 fb 06 3c 48 35 ea 3b
       -0.0073313373 0.004553595 0.008238556 0.007147465
0000c0 43 28 ba 3b 98 85 aa 3b 19 6b c1 bb e7 3b de bb
       0.005681069 0.005203914 -0.0059026596 -0.0067820433
0000d0 1a 63 0a 3c c6 84 a9 bb 92 78 f2 bb c1 38 01 bc
       0.008446479 -0.0051732985 -0.007399627 -0.007887066
0000e0 40 34 c0 b9 32 fc 33 b9 cc 18 d0 bb 7c c5 06 3c
       -0.00036660023 -0.0001716472 -0.0063506123 0.008225795
0000f0 57 82 49 3b 97 0c 12 bc 8c a5 bf 39 69 9c 28 3c
       0.0030747855 -0.008914134 0.000365537 0.010291197
000100 b4 52 19 3c 62 63 03 bc 8b 17 e3 bb 00 05 5c 3b
       0.009358097 -0.0080193 -0.006930297 0.0033572316
000110 92 2e 8f 3b d1 eb 09 3b bf 42 3e 3b 48 fe 06 bc
       0.0043695653 0.0021045099 0.0029031483 -0.008239336
000120 07 04 c5 bb 87 87 03 3c 3b 1c 87 bb 11 b6 12 bc
       -0.006012443 0.008027918 -0.0041232384 -0.008954541
000130 a9 bc 0f 3c 01 48 fb 3b cb c6 05 bc 94 88 95 bb
       0.008773007 0.0076684956 -0.008165072 -0.0045634005
000140 85 ad be 3b 98 58 d4 bb 47 0d 08 bc 62 b6 83 bb
       0.005819025 -0.0064802878 -0.008303947 -0.0040195445
000150 f8 d1 26 bc 3d dd 83 bb 22 02 ff bb 45 80 c5 bb
       -0.010181896 -0.0040241764 -0.0077822367 -0.006027254
000160 7a 0b d1 3a 0f 1f e4 3b 34 3c bd bb 9f 1e 06 bc
       0.0015948855 0.0069617103 -0.005774999 -0.008186012
000170 9b 20 a7 bb 27 4f 6d 3c 67 77 ac bb b4 72 0f 3c
       -0.0051003224 0.014484203 -0.0052632573 0.008755375
000180 fa ea 08 3c 15 cf 40 3c e5 55 fb bb ea 24 c5 3b
       0.008356804 0.011768122 -0.0076701515 0.0060163634
000190 d9 dd 61 3b f4 3e e3 bb 51 15 d7 bb 6c f2 b4 3b
       0.0034464507 -0.006934995 -0.0065638204 0.005522063
0001a0 15 32 e6 3b c0 37 f7 bb 5c 56 27 3c b0 0a e8 3b
       0.007025013 -0.0075444877 0.010213461 0.007081352
0001b0 e4 8a 1c bc 75 34 23 bc 4d 20 cd 3b 7e 42 31 3c
       -0.0095545985 -0.009961237 0.006259954 0.010819076
0001c0 64 91 02 3c 50 4b 4e bc 23 ba df bb 1a a8 81 ba
       0.007969234 -0.012591198 -0.006827609 -0.0009892017
0001d0 b9 69 e1 bb d7 0a ee bb 7d 36 85 3a b4 ad a5 bb
       -0.006879058 -0.007264476 0.0010163333 -0.0050561074
0001e0 df 3f ca bb 5e 57 13 bc 0f 97 0e bc 9a cb 89 bb
       -0.006172165 -0.008992998 -0.008703007 -0.0042051794
0001f0 78 b6 0b 3c 97 e7 6d 3b a6 5c 0c 3c f9 ec 56 bb
       0.008527391 0.0036301368 0.008567011 -0.0032795055
