results/scaled/Car Agent/Car Agent-2299.pt (torch, 148319 bytes, 14 tensors)

network_body.linear_encoder.seq_layers.0.weight f4 [128, 3]
00000000: 22ab 863f 4645 85be d521 28be 6cce e3be
00000010: 491c 34bf 5247 6cbe bbd3 a8be e707 64bf
00000020: 1974 c3bd dd09 0ebf a127 6e3e b57e 443f
00000030: 17e6 163f fd4f a83d ccf0 423f b9a0 ce3d
00000040: 1bda 713f 12ff 18bf 4219 59be cc27 81bf
00000050: c8a9 903e a8ab 5bbf d7e8 40be c1dd 6a3f
00000060: 7b3e 2bbe ebfb 24bf a54a 28bf 51ed 46bf
00000070: 9c9e cb3e 7bfe d63f bc5a 96bf 7b61 253f
00000080: 8409 babe e9e6 0abe f59a a13e 626a ebbd
00000090: c845 aa3e 55f9 5d3f 124a 733e 1e5f aa3e
000000a0: b963 233f 178d 5ebd 30d3 bfbe 45e6 e1be
000000b0: 4ecf aabd d2a2 8c3f e218 82be ea49 b5be
000000c0: b055 263f 739c fabe f872 83be 33e2 85be
000000d0: b6cf d23e 6d01 d13e 0a8d 1ebf 7c19 4e3f
000000e0: 7659 9f3e bc47 833f d983 c5bd f0a6 20be
000000f0: 2f52 aa3e ed57 7dbe d135 e9bc acdf fcbe
00000100: aebb 063e d15d d93e bb5f b73d 0580 f03e
00000110: 7847 e43e 6b49 3b3f 361f 43bd 81c9 b2be
00000120: b262 533e 9523 703d d6ce 1d3f 060f 67bd
00000130: ff94 c43e 6546 953e 3e59 643f 0ae2 7fbf
00000140: 3616 7fbf 1ca8 c1be 33f5 72bf 9ceb c9bd
00000150: 4aed 2f3e 354d 793e 6314 f33b f731 2cbf
00000160: abfb 2f3f f829 c8bd 38d6 55be a33b 813d
00000170: ff5e d5be 8c74 143f 8b76 0f3e 145d 21be
00000180: 3c2b c7bf e21a 583e 68bd 25bf 5d6d 0fbf
00000190: aaeb fabe d0ae 32bf 8a0d 8ebe a22c 343f
000001a0: fc7b 8ebe a46a 3f3f 8798 2ebf 08d3 593f
000001b0: f227 3b3e 1270 34bf 256c c93e e753 8b3f
000001c0: fd8c 003f 8536 3d3f bd3f 9fbf 514e 1e3f
000001d0: e39f 85bf f04e 8bbe a44e f4be 4b10 823e
000001e0: 8c55 4fbe a296 753e 1f79 05bf 4fc2 123f
000001f0: ea41 313e 06c3 97be 5b43 2ebf ef2b 34bf
00000200: dd1e 9fbd c2ea 2cbf ec8f b7bc 2939 0a3e
00000210: 42ae 6abe ed54 f63e 316e 1e3f 7cb2 edbe
00000220: c6ea cb3e 1c50 a6be 4451 113f 44cf c0be
00000230: c4e8 1c3c 2c7a 62bf 988c 2b3f f82d 323f
00000240: 32e7 1d3f 2bb0 c93e f379 47bf efc4 fc3e
00000250: a280 6ebd db9e a7be 058e b8bd b845 223f
00000260: 58ea 883e 7bd5 3fbf 90f8 163f 841e 193e
00000270: d2f8 b8be d37b 5abf cc00 18bf 355a 173e
00000280: 40fd b83e 5f80 ddbe 259d 353f c866 efbe
00000290: b35f 023f 932b 623d 2cbc 3abf ce1e 6f3f
000002a0: f639 9fbe 3c12 3b3e f78d 953c 7c45 f2be
000002b0: d83e 103f a58c dd3e cac9 003f 4556 cd3e
000002c0: 1d5e 62bd 99f7 d6be b4c9 c3be 439a ce3e
000002d0: 13c0 9c3f 17bf a1be 1887 5f3e e1d5 8c3f
000002e0: a2e2 87bf ccf2 0e3f a985 c73e 2915 bbbf
000002f0: 4f56 63bf c809 88bf 3338 d33d 6317 20be
00000300: c088 f83e 08d6 a8bd 0785 00bd 454b f23d
00000310: 5030 933f 2ca3 78be 5696 bc3e b963 dd3e
00000320: ca0a c4b8 1caf 4b3f 64aa 0cbf bb11 123f
00000330: 79df c5be 76bc b33d 0878 e93e a9b6 4bbe
00000340: fab9 273d 1b20 10bf 4e24 8b3e 4ec6 96be
00000350: 618b 9a3d 789f d1be a483 64bf 86a2 eebe
00000360: 578a 25bf 59dd a2be 772f 6a3e e34c 17be
00000370: 5001 3ebe 028c ff3e d83a 3e3f 8668 9abe
00000380: fddc 84be 1285 0cbf 78ca 8fbf 1e65 8f3f
00000390: 538c 9a3f 5182 b2be c898 bf3d 025c 723e
000003a0: 6883 de3d 0789 33bf a506 54bf c0e5 ab3f
000003b0: 8693 47bf dfda d8be e557 223e b469 cabe
000003c0: b656 933f 8eaa 013f f1de 0a3f b6cc f63d
000003d0: df4d c3bd 723e 743f 96b0 acbe 5815 c9be
000003e0: 4606 b7be 2577 283e f2cb 5a3f d3f8 80bf
000003f0: 5511 7e3c 75e0 283d 160c 203f be2c e43e
1.0520976 -0.26029414 -0.16419156 -0.44493425 -0.7035566 -0.23074082 -0.32974038 -0.8907456
-0.09543628 -0.554838 0.23257305 0.7675584 0.5894484 0.082183816 0.76148677 0.10089249
0.9447343 -0.59764206 -0.21201041 -1.009027 0.28254533 -0.858088 -0.18838821 0.9174462
-0.16723053 -0.64446896 -0.657389 -0.77705866 0.39769447 1.6796411 -1.174644 0.6460187
-0.36335385 -0.13564648 0.31563535 -0.114949 0.33256364 0.86708575 0.23758724 0.33275694
0.6382404 -0.054333773 -0.3746581 -0.44120994 -0.083403215 1.0987189 -0.2540961 -0.35407954
0.649745 -0.48947486 -0.25673652 -0.2614914 0.41174096 0.408214 -0.6193396 0.80507636
0.3112294 1.0256267 -0.096442886 -0.15688682 0.33265826 -0.24740572 -0.028468044 -0.49389398
0.13157532 0.4245439 0.08953806 0.4697267 0.44585776 0.731589 -0.047637187 -0.3491936
0.20643118 0.058627684 0.6164373 -0.05641081 0.38394925 0.2915527 0.8919867 -0.99954283
-0.99643266 -0.3782357 -0.94905394 -0.09859392 0.17180362 0.24345858 0.007418202 -0.6726374
0.6874339 -0.0977363 -0.20882499 0.06310203 -0.4167404 0.57990336 0.14010064 -0.15758163
-1.5560069 0.21104005 -0.64742136 -0.5602625 -0.49007922 -0.6979799 -0.27744704 0.70380604
-0.27828968 0.74772096 -0.6820149 0.85087633 0.18276957 -0.70483506 0.3934032 1.088498
0.5021513 0.73911315 -1.2441326 0.6183825 -1.0439419 -0.27208662 -0.47716248 0.25403056
-0.20247477 0.23983243 -0.5213794 0.5732774 0.173103 -0.2964098 -0.68071526 -0.7037954
-0.077695586 -0.6754571 -0.022407494 0.13498367 -0.22918037 0.48111668 0.6188689 -0.46425235
0.39827555 -0.32482994 0.56764627 -0.3765813 0.00957698 -0.8846767 0.67011404 0.6960139
0.616809 0.39392218 -0.77920455 0.49368998 -0.058228143 -0.32738385 -0.09011463 0.6338763
0.2674129 -0.7493512 0.58973026 0.14953047 -0.36127335 -0.8534519 -0.59376216 0.14780505
0.36130714 -0.43262002 0.7094291 -0.46758103 0.50927275 0.055217337 -0.7294338 0.9340638
-0.31098908 0.18268675 0.01825617 -0.47318637 0.5634589 0.43271366 0.50307906 0.4010488
-0.055265535 -0.41985777 -0.38239825 0.40352067 1.2246116 -0.31591102 0.21828878 1.1002771
-1.0616038 0.5583923 0.38969162 -1.4615833 -0.8880357 -1.0627985 0.103134535 -0.15633921
0.48541832 -0.08243948 -0.031376865 0.11830763 1.1499119 -0.24280995 0.36833447 0.43240145
-9.348018e-05 0.7956407 -0.54947495 0.57058305 -0.3864706 0.087761804 0.4559939 -0.19893898
0.040948845 -0.5629899 0.27176136 -0.2944817 0.07546116 -0.40941978 -0.8926337 -0.4660837
-0.64664215 -0.318095 0.22869669 -0.14775424 -0.18555188 0.49911505 0.7430854 -0.3015787
-0.2594985 -0.5489055 -1.1233664 1.1202734 1.2074074 -0.3486505 0.093553126 0.2366791
0.108649075 -0.7013096 -0.8282264 1.3429489 -0.7795948 -0.42354485 0.15853842 -0.3953377
1.1510837 0.5065087 0.5424643 0.12050764 -0.09536337 0.95407784 -0.33728474 -0.39274096
-0.35746974 0.164517 0.85467446 -1.0075935 0.015507062 0.041229684 0.6251844 0.44565386

network_body.linear_encoder.seq_layers.0.bias f4 [128]
00000000: 0000 0000 0000 0000 0000 0000 0000 0000
00000010: 0000 0000 0000 0000 0000 0000 0000 0000
00000020: 0000 0000 0000 0000 0000 0000 0000 0000
00000030: 0000 0000 0000 0000 0000 0000 0000 0000
00000040: 0000 0000 0000 0000 0000 0000 0000 0000
00000050: 0000 0000 0000 0000 0000 0000 0000 0000
00000060: 0000 0000 0000 0000 0000 0000 0000 0000
00000070: 0000 0000 0000 0000 0000 0000 0000 0000
00000080: 0000 0000 0000 0000 0000 0000 0000 0000
00000090: 0000 0000 0000 0000 0000 0000 0000 0000
000000a0: 0000 0000 0000 0000 0000 0000 0000 0000
000000b0: 0000 0000 0000 0000 0000 0000 0000 0000
000000c0: 0000 0000 0000 0000 0000 0000 0000 0000
000000d0: 0000 0000 0000 0000 0000 0000 0000 0000
000000e0: 0000 0000 0000 0000 0000 0000 0000 0000
000000f0: 0000 0000 0000 0000 0000 0000 0000 0000
00000100: 0000 0000 0000 0000 0000 0000 0000 0000
00000110: 0000 0000 0000 0000 0000 0000 0000 0000
00000120: 0000 0000 0000 0000 0000 0000 0000 0000
00000130: 0000 0000 0000 0000 0000 0000 0000 0000
00000140: 0000 0000 0000 0000 0000 0000 0000 0000
00000150: 0000 0000 0000 0000 0000 0000 0000 0000
00000160: 0000 0000 0000 0000 0000 0000 0000 0000
00000170: 0000 0000 0000 0000 0000 0000 0000 0000
00000180: 0000 0000 0000 0000 0000 0000 0000 0000
00000190: 0000 0000 0000 0000 0000 0000 0000 0000
000001a0: 0000 0000 0000 0000 0000 0000 0000 0000
000001b0: 0000 0000 0000 0000 0000 0000 0000 0000
000001c0: 0000 0000 0000 0000 0000 0000 0000 0000
000001d0: 0000 0000 0000 0000 0000 0000 0000 0000
000001e0: 0000 0000 0000 0000 0000 0000 0000 0000
000001f0: 0000 0000 0000 0000 0000 0000 0000 0000
0.0 0.0 0.0 0.0 0.0 0.0 0.0 0.0
0.0 0.0 0.0 0.0 0.0 0.0 0.0 0.0
0.0 0.0 0.0 0.0 0.0 0.0 0.0 0.0
0.0 0.0 0.0 0.0 0.0 0.0 0.0 0.0
0.0 0.0 0.0 0.0 0.0 0.0 0.0 0.0
0.0 0.0 0.0 0.0 0.0 0.0 0.0 0.0
0.0 0.0 0.0 0.0 0.0 0.0 0.0 0.0
0.0 0.0 0.0 0.0 0.0 0.0 0.0 0.0
0.0 0.0 0.0 0.0 0.0 0.0 0.0 0.0
0.0 0.0 0.0 0.0 0.0 0.0 0.0 0.0
0.0 0.0 0.0 0.0 0.0 0.0 0.0 0.0
0.0 0.0 0.0 0.0 0.0 0.0 0.0 0.0
0.0 0.0 0.0 0.0 0.0 0.0 0.0 0.0
0.0 0.0 0.0 0.0 0.0 0.0 0.0 0.0
0.0 0.0 0.0 0.0 0.0 0.0 0.0 0.0
0.0 0.0 0.0 0.0 0.0 0.0 0.0 0.0

network_body.linear_encoder.seq_layers.2.weight f4 [128, 128]
00000000: 278b 63bd 66a4 c4bd 0266 273b 93f8 913d
00000010: 52c4 01be 7b1f 71bb 4d27 28be 31af f73d
00000020: 7fe0 53bd 89e6 92bd a23e 40bd 9d2d debc
00000030: 7047 7d3d cd04 053d 829d dcba 14b2 a23d
00000040: c513 c5bc 57ff 6d3d 14e4 483e 72a7 a13d
00000050: afce 913d c890 fdbd d76a 20bd a219 e03d
00000060: 1099 2e3e 3002 5fbd b9dc 513c b961 813d
00000070: d1b7 7abd 6b99 2b3e 152b 5b3d 6662 33bd
00000080: 5c31 37bd 184d 9bbc 9a4f 993d fce8 18be
00000090: 2db2 3d3d 2a3a 14be ef54 0f3d 7f8f c7bd
000000a0: 85b0 0cbd a720 133e f222 c33c aee6 0cbe
000000b0: 2eb5 b13d 2fe0 99bd 61eb e43b e62c 93ba
000000c0: c62e 5b3e 683d 98bd 27a5 173d 4871 80bd
000000d0: f5d6 85bd 2f37 6a3e b0b4 9b3b d4a3 0e3e
000000e0: b144 7dbc cb2d ffbc fcb7 8c3d 1da6 0fbe
000000f0: 6d6d 103c a7f1 743c e71b 843d 5b60 b6bd
00000100: e8e6 13bd aab4 413c b28a 54bd 5f5f b53c
00000110: 91a2 5abb 0939 023d 0900 30bd b11c c0bd
00000120: 6971 91bc 36ec c4bb 0376 afbd 65fd d63d
00000130: b09a 1bbe 2ef8 9abd 20dc 9abd c8b4 903d
00000140: d5f9 be3d 9139 d7bb e18a b8bd 87e0 f1bd
00000150: 335a 0fbe 8240 4d3d 9154 4a3d 4dda 9d3d
00000160: 9db7 f03b 935e 22be 002c 813d 1dbe 7ebd
00000170: 1d99 93bd 9b34 81bd 6cf0 9a3d 01fb a3bd
00000180: 625b 063e aac2 2bbd 4316 073e 8ed0 3f3d
00000190: 5a8e 303d 3ffa 423c db56 043d fd60 d5bb
000001a0: cd8a 6fbd cd2f 6dbe ef51 073e ff88 e4bd
000001b0: f458 983d aa9c d2bd 1cd1 c6bd 156a 973d
000001c0: 795d 18bd 0fc4 d5bc e10a 94bd df44 2c3c
000001d0: 3c92 83bd e893 443d 616b c33d bc75 bfbc
000001e0: cff9 f9bd e876 0c3d fd65 b8bd 8e50 253d
000001f0: 84d8 c73d e158 dcbd 5cda 043e 8fc1 bb3d
00000200: 7376 d13d 9163 1e3d 8db3 f4bb ac56 dfbc
00000210: 9f8a f63d 2ffc afbb 5c25 36bd 9402 c13d
00000220: e25e cabd a87c 3cbc 3aa0 02bd d1f1 b43c
00000230: 5f6f a4bd aaa0 85be 0da0 52ba f128 76bd
00000240: 8adc 09be eda4 193d 97c9 dc3d 12d3 33bd
00000250: c703 863c 2581 9c3d 18cf e3bd 1130 c8bd
00000260: f412 90bd e3a5 893b e36e eabc 094d 24bd
00000270: 0361 9abc b5b8 acbd 97c3 0cbe 0521 103d
00000280: 1842 b0bd 0237 433d f292 3c3d bedd d3bd
00000290: 2a7f 0dbd f974 1d3d 4f92 eb3b 75ed 663d
000002a0: eb78 da3a fc5c 833d d6ff 9abd 3d67 493e
000002b0: 34ef 6b3d 9303 cbbd 9ea0 2d3e 055d b3bd
000002c0: 6494 24bb ec66 cd3c b3b1 3ebc ab07 07be
000002d0: 0302 7c3d 0974 22bd e108 f93c a766 923d
000002e0: 7b84 d0bc f551 f7bd 91cd 773c 08d1 0fbe
000002f0: 974c 843d 701b fe3c b8aa 813d 8a94 803c
00000300: fd73 843b 2771 0dbd d4a5 86bc 44fc b8bc
00000310: fd10 aa3d 42e3 e2bd 4474 e5bd 601a a23d
00000320: 1f0a c9bd d7c5 a33b de90 763d ccce 24bd
00000330: 9a16 ab3d c888 dfbd 0166 c4bd 0839 aebd
00000340: f12c 513e ca83 57be dbee 9abd 0a81 2abe
00000350: 965c 8d3d b354 313d a5d2 92bd a33b 1abe
00000360: b354 a43d 1cc8 953c bd6f 1abc 0b83 85bc
00000370: c6fb 23be 57f6 aabd ee2e b43b f2fe e5bc
00000380: 348d 44be 17c1 e53d cf4b 9e3d bfda 3bbe
00000390: a369 febd 9266 5ebd 8cec 2f3d a42c 4b3e
000003a0: 8333 343e b0a8 6fbd c324 09bd 5520 033d
000003b0: f636 173e b12b 0ebd 8504 d03c 1879 f73c
000003c0: ab26 98bd 643d f4bd dffd 57bd e1ec cbbd
000003d0: add6 183d 7ce3 1fbd 7aa8 3ebd 86fa 0ebd
000003e0: f17f e13c 4155 97bd d90d 113e f302 d73c
000003f0: 1206 c63d f942 6b3c 997d 3f3e 4302 3bbd
-0.055552628 -0.09601669 0.002554298 0.0712749 -0.12672547 -0.0036792445 -0.16421242 0.12093962
-0.051727768 -0.07172877 -0.04693473 -0.02712136 0.061835706 0.03247528 -0.0016831609 0.07944122
-0.024057278 0.05810484 0.19618255 0.07893266 0.071195 -0.123811305 -0.03916439 0.10942389
0.17050576 -0.054445446 0.012808972 0.06317467 -0.061210457 0.16757743 0.053507883 -0.043795012
-0.044724807 -0.01895766 0.07485886 -0.14932626 0.0463125 -0.14475313 0.03499311 -0.097441666
-0.03434803 0.14367925 0.023820374 -0.13759872 0.086771354 -0.07513463 0.006986067 -0.0011228591
0.21404561 -0.07433587 0.037022736 -0.06271607 -0.065351404 0.22872613 0.0047517642 0.13929683
-0.015458272 -0.031149765 0.0687103 -0.14028211 0.008815152 0.0149501925 0.064506344 -0.08905097
-0.03610888 0.011822859 -0.051890083 0.022140203 -0.0033361057 0.031792674 -0.042968784 -0.093804725
-0.017754273 -0.006009604 -0.08567431 0.1049755 -0.15195727 -0.07566868 -0.07561517 0.07065731
0.093249954 -0.0065681417 -0.09010864 -0.11810403 -0.13999252 0.050110348 0.049397055 0.07707653
0.007346107 -0.1585639 0.063072205 -0.062193025 -0.072069384 -0.06308862 0.07565388 -0.080068596
0.13120797 -0.041933693 0.13192086 0.046829753 0.043104507 0.011900484 0.032309394 -0.006511806
-0.05848198 -0.23162766 0.13214849 -0.111589424 0.074388415 -0.102837875 -0.09707853 0.073932804
-0.037198517 -0.026094465 -0.072286375 0.010514467 -0.06424376 0.047992617 0.09541965 -0.02337157
-0.1220585 0.034293085 -0.09003828 0.040360026 0.09758094 -0.1075914 0.12973922 0.09167778
0.102276705 0.038669173 -0.007467693 -0.027263008 0.120381586 -0.005370639 -0.044469222 0.0942432
-0.09881379 -0.01150433 -0.031891085 0.022087963 -0.08029055 -0.2609914 -0.00080347137 -0.06009764
-0.13463035 0.0375108 0.10780638 -0.043902464 0.016359223 0.0764182 -0.111234844 -0.09774793
-0.07034865 0.0042006834 -0.028617328 -0.04011253 -0.018845087 -0.084336676 -0.13746487 0.03518774
-0.086063564 0.04765988 0.046038575 -0.10345028 -0.0345451 0.038441632 0.007189072 0.0563788
0.0016668116 0.0641422 -0.07568328 0.19668289 0.05760117 -0.09912791 0.16955802 -0.087579764
-0.0025112862 0.025073491 -0.0116390465 -0.13186519 0.061525356 -0.03966144 0.030399742 0.07148486
-0.025453797 -0.12076179 0.015124694 -0.14044583 0.06459921 0.031018943 0.0633139 0.015695829
0.004042147 -0.03453174 -0.016436495 -0.022581227 0.083040215 -0.11078502 -0.112038165 0.07915187
-0.098163836 0.0049979496 0.06019675 -0.04023628 0.0835392 -0.10914761 -0.09589768 -0.085069716
0.204273 -0.21046367 -0.07565089 -0.16650787 0.06902425 0.043293666 -0.071690835 -0.15061812
0.080239676 0.018283896 -0.009426055 -0.016297838 -0.16014013 -0.08347767 0.0054987585 -0.028075669
-0.1919449 0.112184696 0.07729303 -0.18345164 -0.12422492 -0.054297037 0.042950198 0.19841248
0.17597775 -0.058510482 -0.033482324 0.032013256 0.1476706 -0.034709636 0.02539278 0.03020911
-0.0742925 -0.11925772 -0.052732345 -0.099572904 0.037314106 -0.039035305 -0.04654739 -0.034906887
0.027526828 -0.07389308 0.14165439 0.026246523 0.096691266 0.014359229 0.18700255 -0.045656454

network_body.linear_encoder.seq_layers.2.bias f4 [128]
00000000: 0000 0000 0000 0000 0000 0000 0000 0000
00000010: 0000 0000 0000 0000 0000 0000 0000 0000
00000020: 0000 0000 0000 0000 0000 0000 0000 0000
00000030: 0000 0000 0000 0000 0000 0000 0000 0000
00000040: 0000 0000 0000 0000 0000 0000 0000 0000
00000050: 0000 0000 0000 0000 0000 0000 0000 0000
00000060: 0000 0000 0000 0000 0000 0000 0000 0000
00000070: 0000 0000 0000 0000 0000 0000 0000 0000
00000080: 0000 0000 0000 0000 0000 0000 0000 0000
00000090: 0000 0000 0000 0000 0000 0000 0000 0000
000000a0: 0000 0000 0000 0000 0000 0000 0000 0000
000000b0: 0000 0000 0000 0000 0000 0000 0000 0000
000000c0: 0000 0000 0000 0000 0000 0000 0000 0000
000000d0: 0000 0000 0000 0000 0000 0000 0000 0000
000000e0: 0000 0000 0000 0000 0000 0000 0000 0000
000000f0: 0000 0000 0000 0000 0000 0000 0000 0000
00000100: 0000 0000 0000 0000 0000 0000 0000 0000
00000110: 0000 0000 0000 0000 0000 0000 0000 0000
00000120: 0000 0000 0000 0000 0000 0000 0000 0000
00000130: 0000 0000 0000 0000 0000 0000 0000 0000
00000140: 0000 0000 0000 0000 0000 0000 0000 0000
00000150: 0000 0000 0000 0000 0000 0000 0000 0000
00000160: 0000 0000 0000 0000 0000 0000 0000 0000
00000170: 0000 0000 0000 0000 0000 0000 0000 0000
00000180: 0000 0000 0000 0000 0000 0000 0000 0000
00000190: 0000 0000 0000 0000 0000 0000 0000 0000
000001a0: 0000 0000 0000 0000 0000 0000 0000 0000
000001b0: 0000 0000 0000 0000 0000 0000 0000 0000
000001c0: 0000 0000 0000 0000 0000 0000 0000 0000
000001d0: 0000 0000 0000 0000 0000 0000 0000 0000
000001e0: 0000 0000 0000 0000 0000 0000 0000 0000
000001f0: 0000 0000 0000 0000 0000 0000 0000 0000
0.0 0.0 0.0 0.0 0.0 0.0 0.0 0.0
0.0 0.0 0.0 0.0 0.0 0.0 0.0 0.0
0.0 0.0 0.0 0.0 0.0 0.0 0.0 0.0
0.0 0.0 0.0 0.0 0.0 0.0 0.0 0.0
0.0 0.0 0.0 0.0 0.0 0.0 0.0 0.0
0.0 0.0 0.0 0.0 0.0 0.0 0.0 0.0
0.0 0.0 0.0 0.0 0.0 0.0 0.0 0.0
0.0 0.0 0.0 0.0 0.0 0.0 0.0 0.0
0.0 0.0 0.0 0.0 0.0 0.0 0.0 0.0
0.0 0.0 0.0 0.0 0.0 0.0 0.0 0.0
0.0 0.0 0.0 0.0 0.0 0.0 0.0 0.0
0.0 0.0 0.0 0.0 0.0 0.0 0.0 0.0
0.0 0.0 0.0 0.0 0.0 0.0 0.0 0.0
0.0 0.0 0.0 0.0 0.0 0.0 0.0 0.0
0.0 0.0 0.0 0.0 0.0 0.0 0.0 0.0
0.0 0.0 0.0 0.0 0.0 0.0 0.0 0.0

action_model._continuous_distribution.log_sigma f4 [1, 2]
00000000: 0000 0000 0000 0000
0.0 0.0

action_model._continuous_distribution.mu.weight f4 [2, 128]
00000000: b4fa 2cbb c27d a83c 8147 2dbc 37ea a53c
00000010: ab76 803c bffc a0bc c138 02bc 1b64 81bc
00000020: 930f 0f3a df7d f33a e3ca be3c 8bae 333c
00000030: e0b8 7f3b 64e7 10ba 2df3 2e3c 9e3e c7bc
00000040: d44f 953c ed70 233c 8a27 dabb 975b 6bbc
00000050: 7bc4 bdbb cb61 b83b ea14 36bb cbfe f8bb
00000060: 22f9 d6bc 375a c1b8 962d 923c 1667 9fbb
00000070: 832a 9b3b 3af6 cf3c 1f04 2cbc f320 d33c
00000080: 0af9 693b 5eb0 243c 273c c23c bfa0 4e3c
00000090: 5b55 71bc 5d53 8ebc b6b1 ca3c 2b25 4bbc
000000a0: 7355 20bc 2e72 843b f71e 5abb a8bd 61bb
000000b0: 5ff4 4f3b 42e9 763b bfa7 773c 603a 203c
000000c0: eb02 e93b 6d2b bbbb 8ef8 30bc 1a71 513c
000000d0: 4c2d 3e3c a284 6abc d07f 66bc 7d24 05bb
000000e0: 5498 163d d8a1 1d3d f085 003c ffc9 943b
000000f0: 4200 c0ba eee6 0d3c ab84 b23c 7646 40bb
00000100: d713 633c b6e3 963b 36ec abbb 75ff f13b
00000110: e080 e63c ff04 f73b a3ad 83b9 3c75 1f3c
00000120: ea91 edbb 9768 a23a 67d9 cdbb 7b29 dc3c
00000130: 0ab3 88bc 27f6 07bc 8b6d fc3b a4c8 113c
00000140: 2aca 37bc 6bfd 92bc 87f2 83bc ff63 8dbb
00000150: ad3d bdbc 77e1 38bc 6c09 b03b 1f74 0abc
00000160: 9434 98bc 657f 803c 6571 b83a 42e6 d23b
00000170: 0db9 56bb b316 91bc e85d 003c 52af 7fbc
00000180: da05 b2bb 5e81 02bc 10eb e03b 9a96 64bc
00000190: a11d 38bc db01 8e3c 8850 1dbb 9566 cc3a
000001a0: 6f34 073c a4eb b9bc 0f6b ab3c 50b0 d33c
000001b0: 3c2b 2bbd 64a5 b2bb 8686 1cbc e539 5dbc
000001c0: c8cb be3a afea 0a3c 7c75 3abc 461a 91bb
000001d0: 75dd dc3a 88b1 f8bb c3ab 4dbd e72c 11bc
000001e0: b384 0f3c 0844 abbc e1df 36bd f7f1 86bc
000001f0: ca09 7c3c 572f c33c ddf0 04bc 755d a03b
00000200: 1cfd 0dbd 2dcc 9db8 3402 013c a886 563d
00000210: bf93 843c 2e4d 363c 63ac 27bc 8f15 733c
00000220: 4742 2b3d 4483 063d 8fcd 803b db63 0e3a
00000230: 739e dbbc 827c 543c 6759 83bc 8107 ca3c
00000240: 8118 97bb 9a89 893c 8fdf 1f3d d022 b7ba
00000250: 38b1 cfba 80a7 7bbb d77a 82bc 12c5 32bd
00000260: 1dc1 be3b 4c89 abbc eef2 21bc a3e4 a33c
00000270: de2b 20bc 3e55 1dbc 45ae 98ba 6e07 ccb9
00000280: c218 0e3d 929d 693b de40 04bc 2b7a 123c
00000290: 0bb0 12bd cbfc c6bb 58a1 713c 7b28 c53a
000002a0: b580 f1bb 1f5a 06bc 1793 163c c07c 073c
000002b0: 4584 52bc 394a bcbb eb97 0fbd 137b 82ba
000002c0: 13a3 843c d9e2 963c 12a4 ff3b 29b0 293d
000002d0: 1735 afbc 7c19 adbb a32c 92bb a3b0 12bc
000002e0: 5a3d 1fbb c0dd 76bb 97a6 96bc 1262 703c
000002f0: 73bd 963c af3e 2f3c 3bb1 1c3b cd3e 58bd
00000300: f206 e8bb b797 0cbd e23f ab3b c3e4 1dbc
00000310: 4454 b2bb 3929 9cba 6c03 9f3c df20 d73b
00000320: 1968 b2bb 4794 9b3c 75ce feba c656 81bb
00000330: c381 3e3c 5416 2c3c 9624 a0ba 0beb 1dbc
00000340: 6adf 1dbc e237 a1bc 4beb b9bc 70dd 113b
00000350: 6ce8 adbc a110 b2bb f3b9 b23c 2315 08bd
00000360: 2cbc 3ebc f561 f5bb 43fc 38bc 7e1c a13c
00000370: 0f86 e13c 3beb 6ebc cba9 353c 0249 4cbd
00000380: ba5f ab3c 8d91 6fbc c9b2 8cbb c358 3abc
00000390: 1ba1 123d ab84 263c 1f9a 883c eaac 52ba
000003a0: 5c5e 38bc 5cfb c03c 5658 b4ba d565 403a
000003b0: bff6 02bc cb57 ecb8 a371 213c 3b31 77bc
000003c0: 3720 d6bb 77e3 35bc 2162 963b 2b36 353b
000003d0: b1f3 953c 46d2 ab3b c77c a83c f7db 5d3c
000003e0: 9388 09bc af27 d83b 2de3 413c 201f 313b
000003f0: 8fcb 763c 3b90 1ebd 03dc c8bc cbef 203c
-0.0026394548 0.020567778 -0.01057613 0.020253284 0.015681585 -0.019651769 -0.0079481015 -0.015794804
0.0005457338 0.0018576941 0.023290103 0.010966907 0.0039020106 -0.0005527644 0.010678095 -0.02432185
0.018226542 0.009975654 -0.0066575455 -0.014365098 -0.0057912446 0.005626892 -0.0027783462 -0.007598733
-0.026241843 -9.219761e-05 0.017844003 -0.0048645837 0.0047352924 0.025385965 -0.010499029 0.025772547
0.0035701417 0.010051815 0.023710323 0.012611567 -0.014729823 -0.017373735 0.024742942 -0.012398998
-0.009785998 0.0040419316 -0.0033282617 -0.003444532 0.003173135 0.0037675654 0.015115677 0.009779543
0.0071109436 -0.005711964 -0.010801448 0.012783313 0.011607479 -0.014313849 -0.014068559 -0.0020315938
0.036766365 0.038484424 0.007844433 0.0045406814 -0.0014648514 0.008661015 0.021791777 -0.0029338873
0.013859711 0.004604782 -0.0052466644 0.007385189 0.028137624 0.0075384374 -0.00025115637 0.009732541
-0.0072500603 0.0012390789 -0.00628202 0.026875248 -0.016686935 -0.008298433 0.007703488 0.008897934
-0.011217633 -0.017943105 -0.016106857 -0.004314899 -0.023100698 -0.011284224 0.005372217 -0.008450537
-0.018579759 0.015685746 0.001407188 0.0064361403 -0.0032764107 -0.01771102 0.007834889 -0.015605764
-0.0054328265 -0.007965414 0.006863959 -0.013951922 -0.011237533 0.01733487 -0.00240043 0.0015594537
0.008252247 -0.02269537 0.020925073 0.025840908 -0.04178928 -0.005451845 -0.009553557 -0.013502573
0.0014556581 0.0084788045 -0.0113805495 -0.004428181 0.0016850667 -0.0075895227 -0.050212633 -0.008860803
0.008759665 -0.020906463 -0.0446471 -0.0164728 0.015383193 0.023826284 -0.008114067 0.0048939534
-0.034665212 -7.524374e-05 0.00787406 0.052374512 0.016183732 0.0111267995 -0.010233971 0.014836683
0.041811254 0.03284003 0.0039307545 0.000543175 -0.026808953 0.012969138 -0.016033841 0.024661781
-0.0046110754 0.016789246 0.03903156 -0.0013972167 -0.0015845662 -0.0038399398 -0.015927715 -0.043644972
0.0058213607 -0.020939492 -0.009884579 0.020006483 -0.009776084 -0.009602843 -0.0011648616 -0.00038915448
0.03469158 0.0035646898 -0.008072106 0.00894026 -0.03581242 -0.0060726157 0.01474794 0.0015041971
-0.0073700794 -0.0082001975 0.009190342 0.008269489 -0.012848918 -0.0057461527 -0.03505699 -0.0009954892
0.016191041 0.018418716 0.007801541 0.041427765 -0.02138762 -0.005282579 -0.0044608875 -0.008953246
-0.0024298043 -0.0037668794 -0.018389983 0.014671819 0.018400883 0.010696097 0.0023909349 -0.052794266
-0.007080906 -0.034324374 0.0052261213 -0.009637061 -0.005442174 -0.0011914141 0.019410811 0.006565198
-0.0054445383 0.018991603 -0.0019440191 -0.003947112 0.011627617 0.01050337 -0.0012217935 -0.009638558
-0.009635786 -0.019679967 -0.022695204 0.0022257231 -0.021228991 -0.005434111 0.021817183 -0.033223283
-0.011641543 -0.007488484 -0.011290613 0.019666906 0.027529744 -0.0145824505 0.011087845 -0.049874313
0.02091967 -0.014622104 -0.004293774 -0.0113737015 0.035798173 0.010163466 0.016675053 -0.00080366305
-0.011252966 0.023557357 -0.0013759236 0.0007339393 -0.007993399 -0.0001126971 0.009853753 -0.015087421
-0.006534602 -0.011101595 0.0045893346 0.0027650695 0.018304678 0.0052435724 0.020567311 0.013541213
-0.008394378 0.0065965275 0.011833948 0.0027026609 0.015063181 -0.038711768 -0.024518972 0.009822796

action_model._continuous_distribution.mu.bias f4 [2]
00000000: 0000 0000 0000 0000
0.0 0.0

action_model._discrete_distribution.branches.0.weight f4 [2, 128]
00000000: 972c 02bc ed4f 1ebc 4d9a 40bc daaf 923b
00000010: e765 aebb 8356 94b9 8fcc a63b 67ba 0bbc
00000020: 91c9 0c3c 2f8b 543c 6f03 98bb d8de 15bc
00000030: 2703 9cbb 481e d9bb e7d6 13bc db0e a13b
00000040: 8a00 15bb 705e 863a 5fc5 1a3c 17cb 2e3c
00000050: c1c7 07bb 9df8 c1ba 5a22 c13b 6ffa 4bbc
00000060: 47ed 2439 5fd9 4bbc 6bef 513b 243e 913c
00000070: 34eb 173b 54f9 89bc 599b 19bb 0c45 a33c
00000080: aad1 bcbb fa3b c5bb b864 6d3a 1b67 01bc
00000090: a3d9 dcbb 2928 c33b 57b7 723c 52d9 f7b7
000000a0: 9fef 46bb dff9 0fbc 6b5c dbbb dc46 97bb
000000b0: 0081 54ba 1ada 4f3b fa7c 113b 7fba 1639
000000c0: 29f9 ac3b a583 deba 9f32 b739 958c 09bc
000000d0: fd41 633c 7018 41bc f720 81bc 9f76 6dbb
000000e0: 07d0 023b 055d 703a e3fb e43b 8f10 6bbb
000000f0: 862c 44bc 14e9 8d3b f1d9 073c cd92 e7bb
00000100: 1df5 6e39 1ab3 953b 8d13 793c 8915 883b
00000110: 1bd9 8abc bca5 b2bb 2b9e a2bb 1df7 7d3b
00000120: 3f6d 07bc 2f5b 2b3b a2e1 e43b f2af 913a
00000130: 84af 1bba 14fc 923b 3fd4 123c b34d 10bc
00000140: a282 86bb 17b8 5b3b 6495 493c cfb0 003c
00000150: 97f0 52bc 8bda f43b 2510 c13b ba1b f5ba
00000160: 0d23 52bc 7d5b 27bc f2ec 50bc fb84 82ba
00000170: 487e 183c f2b7 3c3c 28f9 dd3b cf2d 0fbb
00000180: 04dc 093c b8d4 caba 0f25 0b3c 8df5 7ebb
00000190: 48c2 d8b9 db2c f7ba 7c21 2d3b 3167 483c
000001a0: bbb9 0bbc cfe3 543b 5e9e a33a 72b1 11bc
000001b0: 6313 9d3b 33ea 923a d7e5 89bb f88e 71bb
000001c0: 912e 1bbb 3069 b23b bc9d 32bc 0025 183c
000001d0: 1401 253b 10b4 f53a df3b 523b dff8 f2ba
000001e0: a3ec 593a 308d b53b 80a9 7ebc c7e3 8ebb
000001f0: f8a3 ea3a 2c29 ca3c e8b0 1c3b 2db1 5c3b
00000200: 1429 a6b7 098a b5bc 1eed 943c b3c9 b83c
00000210: 2da0 383b 5391 813c f7e5 693b 3335 a13c
00000220: 253f 163c f8ee 0ebb ad79 06bc 2ad5 8e3c
00000230: aa8c e2b8 3fa5 283c 971c 37bc 90c0 e23a
00000240: d0ec d3ba 6831 d4bb 5a9d f338 8bda 38bc
00000250: ddc9 53bb f4d7 c83b ecdc 94bb 0d5c d73b
00000260: e22a cd3b 6a5d dcbb dab6 eabb 6338 b53b
00000270: 589a ddbb f718 8d3a 5691 cbbb 491f 09b9
00000280: 6b13 293c fc3e 34bb 69e9 c53b 93f2 3cbc
00000290: 3c6a 1ebc e2aa fd3a 67ad f63b 6369 0ebc
000002a0: 23da 36bc 3845 d63b 0302 a23a b244 f9bb
000002b0: abc4 243c ecc8 003c bfeb b739 0cbe 073c
000002c0: 1337 853c 2777 deba cba1 5c3b a0d5 54bb
000002d0: af67 21bc 1915 90bc bd4a 6d3c d484 413b
000002e0: 1357 dcbb 45df e63b d491 ae3b 17a2 393c
000002f0: 9ff7 013c 50ec efbb 3eae 84bb 544e abba
00000300: 67cf dcbc d77b bf3c df46 9e38 a5f4 5f3c
00000310: 7955 90bb d256 c9bb 3fa9 27bb 5721 283c
00000320: 1cce 9ebb 101f 533b 022a 0c3c e2de baba
00000330: 7171 2d3c d34d c13a 93f4 20bb 0881 66bb
00000340: fdef e6b7 fb1a b93b 2f8b e6bb bb06 c1bb
00000350: aaf1 58bc 10bb dfbb 05bc 25bc 24cd 2abc
00000360: 3227 65bc 2cf8 2e3c bb69 55bc 79fb bc3b
00000370: c100 32ba f0a7 46bc 7049 dc39 13bc 26bc
00000380: 0308 8bb9 470c 3f3c e319 8a3a 9ab5 783b
00000390: af44 c3bb 5678 bd3b bdc9 f6bb aa9d ecbb
000003a0: a843 313b 3882 e03b 4b90 3b3c cba2 4dbc
000003b0: d344 0cbc 4c83 aabb d209 41bb 779a 3c3a
000003c0: 34b5 ba3c d31a ad3b 4e08 023b 6725 d33b
000003d0: c030 643a 4870 c2ba ac84 353c ca02 5a3b
000003e0: ba36 53bc aecb 9f3a ec82 15bb 4b82 473c
000003f0: 3ca3 9bbb 57b1 87bc 828d 1fbc ca3c 6b3c
-0.007945201 -0.0096626105 -0.011755538 0.0044765295 -0.0053222063 -0.00028293216 0.0050903033 -0.0085283285
0.008592979 0.012972637 -0.004639081 -0.009147368 -0.004761118 -0.0066259243 -0.009023405 0.004915101
-0.0022735917 0.0010251533 0.009446471 0.010668538 -0.0020718428 -0.0014798824 0.0058939876 -0.012449845
0.00015728651 -0.012441962 0.0032033573 0.017729826 0.0023180963 -0.016842522 -0.0023438542 0.019930385
-0.0057622986 -0.0060191127 0.0009055841 -0.007898117 -0.0067398115 0.005955715 0.014814219 -2.9545892e-05
-0.0030355228 -0.008787601 -0.0066943667 -0.0046166014 -0.00081063807 0.0031715692 0.0022199736 0.0001437459
0.0052787256 -0.0016976489 0.00034942196 -0.008395334 0.013870713 -0.0117856115 -0.01576279 -0.0036234034
0.001996042 0.00091691344 0.006988035 -0.0035868024 -0.011973506 0.0043307636 0.008291707 -0.0070670606
0.0002278876 0.0045684697 0.015202415 0.004152958 -0.016949227 -0.005451886 -0.0049627027 0.0038752027
-0.008265792 0.002614688 0.0069849053 0.0011115058 -0.00059389346 0.0044856165 0.008961736 -0.008807587
-0.004104928 0.0033526474 0.012303684 0.007854654 -0.012874744 0.0074723414 0.005891817 -0.001870028
-0.01282574 -0.010214684 -0.012751805 -0.0009957844 0.009307452 0.011518465 0.0067740865 -0.0021847372
0.008414272 -0.0015474772 0.008492722 -0.0038903684 -0.0004134348 -0.0018857972 0.0026417663 0.012231634
-0.008528168 0.0032484417 0.001248311 -0.008892404 0.004793571 0.0011208713 -0.0042083072 -0.0036858898
-0.0023678879 0.0054446682 -0.010901865 0.009286165 0.0025177645 0.0018745679 0.0032079143 -0.0018537304
0.00083131547 0.0055405125 -0.015543342 -0.0043606493 0.001790165 0.024677835 0.0023909155 0.003367494
-1.980787e-05 -0.022160547 0.018179473 0.022557115 0.0028171644 0.015816366 0.0035690048 0.019678688
0.009170328 -0.0021809917 -0.008207721 0.017435629 -0.000108027205 0.010293304 -0.01117625 0.001729982
-0.0016168598 -0.0064756162 0.00011616452 -0.011282573 -0.0032316365 0.0061292592 -0.0045429375 0.0065722526
0.0062612155 -0.006725003 -0.007162911 0.0055304035 -0.006762784 0.0010764886 -0.0062123938 -0.00013076993
0.010319571 -0.0027503362 0.0060397875 -0.011532444 -0.009668883 0.0019353295 0.0075279954 -0.008692118
-0.011160406 0.0065390132 0.0012360219 -0.007607066 0.010056655 0.0078604035 0.00035080125 0.008285057
0.016261613 -0.0016972766 0.0033665772 -0.0032475963 -0.00985138 -0.017588185 0.014483151 0.0029528635
-0.0067242472 0.007045659 0.0053274427 0.011330149 0.007932573 -0.007321872 -0.0040490916 -0.0013069608
-0.026954366 0.023374481 7.547228e-05 0.013669168 -0.0044047204 -0.006144383 -0.0025583056 0.010261855
-0.0048463475 0.003221456 0.008554937 -0.0014257098 0.010586129 0.0014747925 -0.002455984 -0.0035172123
-2.752989e-05 0.0056489683 -0.007035635 -0.005890695 -0.013241211 -0.0068277195 -0.010115628 -0.010424886
-0.013986396 0.010679286 -0.013025696 0.0057672826 -0.00067902735 -0.012125 0.00042016385 -0.010176676
-0.00026518115 0.011660642 0.0010536279 0.003795004 -0.0059591155 0.0057821674 -0.0075313733 -0.0072209435
0.0027048383 0.006851461 0.011447976 -0.01255102 -0.008561331 -0.00520364 -0.0029455316 0.0007194648
0.022791483 0.0052827387 0.0019841376 0.0064436677 0.0008704774 -0.0014834488 0.011078995 0.0033265823
-0.012891466 0.0012191439 -0.0022813631 0.01217706 -0.0047496837 -0.016564054 -0.009738328 0.014357755

action_model._discrete_distribution.branches.0.bias f4 [2]
00000000: 0000 0000 0000 0000
0.0 0.0

critic.network_body.linear_encoder.seq_layers.0.weight f4 [128, 3]
00000000: 8b56 493e 316a 13bf c940 333e 952f af3e
00000010: 262e 7d3e f47b 133f 4b7a 313f d5da 73be
00000020: 50c7 91be c966 f1bc 3eea 893f 2854 083f
00000030: 4b4c 12be ed87 df3e 1d0f c13d ef1b aabe
00000040: f2bb 833f 11ab bc3f 779a 7c3d b0cc debf
00000050: c727 c93e 0b33 2b3f aa9a 413f ee70 e3be
00000060: 5224 aabe e193 a0be b6d8 8b3e bace 11bf
00000070: dbcf 9b3e 71ca 1dbe 7017 343d bbaf 10bd
00000080: f190 553e 6a1a 62bf f85b 113f 2f7b 343f
00000090: 3c56 cb3e bafa 383f e0ba aebf bdc3 ffbd
000000a0: 3491 25bf d609 5dbe 62fe ac3e 3b6e 71be
000000b0: d8a2 c53e 460b 283e 0431 593e 2486 8e3f
000000c0: bac3 43bc 509a 723d d035 ec3e 13ce 213f
000000d0: d4c7 bb3d a475 15bf ab8f 8b3e 89d3 bbbe
000000e0: 4c8b 143c 0215 60bf 622c 85bf 519b 13be
000000f0: 729d 23bf aa40 6c3f 8dec 293d e249 4fbf
00000100: 254b 48bf bd6a 49be d833 a13e 3f50 fd3e
00000110: a205 85bd 31ce 8bbf 4b8e a3bf c24e 01bf
00000120: e679 07bf 1d11 893f e28e 5b3f 21b6 b53e
00000130: e325 603e ef75 0f3f 80f8 cbbe 247c 1b3d
00000140: 67b8 fabd 3510 52bf 801e 573f e145 533f
00000150: 0f7c 103f 4006 8d3e c0b0 443e 1486 abbf
00000160: d51e d9be 0b84 88be 127a 263d c288 acbf
00000170: 787d ae3d 97e8 89be a1f4 983f ae2f a0be
00000180: 7143 843e f714 26bf 2ff0 8fbc 0331 b03e
00000190: fb11 7a3e c3bc 04be 4569 893f c56f 74bf
000001a0: 873a 9cbd 5661 273f e273 6b3f a6bd dc3e
000001b0: a398 b63e b091 45be 9630 b53f 2705 4e3f
000001c0: 3ea4 393f fde3 ac3c c772 913e 4630 863d
000001d0: 3b2b cbbd 55dd 3ebe 12b1 c63e 6b77 f33e
000001e0: d4af 3fbe 1f6b b7be c2cd cb3e c7f5 f53e
000001f0: 93b2 9ebe 9da6 c3bc efbd 633d ec98 e3be
00000200: 990f 1fbf 9f39 0cbf 3b2a a83e 74fe 713f
00000210: 7b6d 13bf f02a f53e a8a0 4e3e 8197 103f
00000220: 8653 a8be 788e 59bf 37d2 9e3f 98eb 18be
00000230: 8d32 7fbe 7a62 973c ca85 1f3e b7e9 433e
00000240: 6565 cd3e 4b15 213e 9024 6fbf dc2c 27be
00000250: 5bc6 09bf cfaf 24be 81c1 913e 0ba1 683e
00000260: 5f5f d9be c248 42bf f8aa 6e3e 1120 17bf
00000270: a822 353e 668e fdbd edff 06be d14f c93e
00000280: 43e0 48bd e367 0a3f 7f4c 7b3e 03fe d5bc
00000290: a54c 883e d4f8 00be 78c8 a9be e70b a5be
000002a0: 5fc5 793f b33e 1abf b1e9 79bf 4dba eb3c
000002b0: 28ba dd3d 1037 8fbd aa7f 3abe 4175 333f
000002c0: b91e 743c 2bd3 b53e 4dd1 99be a372 51bd
000002d0: f890 353f 323a 6a3f fa44 093f 89bc 313f
000002e0: dffe 63be eef6 ec3e f1f5 8fbd e635 fbbd
000002f0: b6a3 a93e 1705 183f e98b 643f 0a9f f8be
00000300: e9b2 13be 9963 163e 0d80 d23d 16e5 3ebe
00000310: f29f 323f 0248 6dbe e472 353f 5627 97be
00000320: d103 0ebf 9157 3d3f 71e3 a43e 01b1 2b3d
00000330: 7db7 b73e e51e 9f3e 995b 2cbe 7bf0 753d
00000340: eae3 1f3f e6a4 86be b40d 5cbf 2920 9dbf
00000350: 64d9 4cbe 405f 1f3e 5bda f1bc aea3 3d3e
00000360: 0763 e73e 1b0f d4bf ab4e 5d3f 720c 45bc
00000370: ecda 813f 712c 30bf 8f11 8cbe 2c16 c0be
00000380: 5cd1 483f 2db0 70bf 9767 5c3f c459 27bd
00000390: cd54 e9be 6fef 58bf fbfe 9d3f 3bc1 eabf
000003a0: 84df 643f fc61 0c3e 7045 943f 5943 783e
000003b0: 5557 9fbd a2fd 3a3f 462a c43d aba5 e13e
000003c0: dda3 d43d f7db ca3d b261 41bf 54a5 923e
000003d0: 053b ef3d 9b29 cdbd 2230 1b3d ad1c 1c3f
000003e0: 0202 7a3f 0b0c 95bd 7324 e8be 12c4 5b3f
000003f0: b944 493f 9f88 c83d 4125 a1be 990a 013e
0.1966192 -0.5758391 0.17505182 0.3421599 0.24724635 0.5761101 0.6932723 -0.23813947
-0.28472376 -0.029467957 1.077461 0.5325341 -0.14286916 0.4365839 0.09426711 -0.33224437
1.0291731 1.4739705 0.061670747 -1.7406216 0.3928816 0.6687476 0.75626624 -0.44422096
-0.33230835 -0.31362823 0.27313775 -0.56956065 0.3043202 -0.15409257 0.043967664 -0.03532384
0.20856072 -0.88321555 0.5678096 0.70500463 0.3971423 0.7225758 -1.365078 -0.12488506
-0.6467469 -0.21585783 0.3378783 -0.23577206 0.38600802 0.1641055 0.21210104 1.1134686
-0.01194852 0.059229195 0.46134806 0.6320507 0.091689736 -0.5838263 0.27258047 -0.36684826
0.009066414 -0.87532055 -1.040417 -0.14414717 -0.6391212 0.9228617 0.041485358 -0.8097211
-0.7823966 -0.19669624 0.31484866 0.49475285 -0.06495215 -1.09223 -1.2777799 -0.505108
-0.5292038 1.0708348 0.85764897 0.35490516 0.21889453 0.5603933 -0.39838028 0.037960187
-0.12242203 -0.8205598 0.84030914 0.825285 0.564393 0.2754383 0.1920805 -1.3400292
-0.42406335 -0.2666324 0.04064376 -1.3479235 0.08520025 -0.26935264 1.1949655 -0.31286377
0.25832704 -0.6487574 -0.017570583 0.34412393 0.24420922 -0.12962632 1.0735251 -0.95483047
-0.07628351 0.653829 0.919737 0.4311344 0.35663328 -0.19293857 1.4155452 0.8047661
0.7251624 0.021104807 0.2840788 0.06552176 -0.09920355 -0.18639119 0.3880697 0.47552046
-0.18719417 -0.35823914 0.39805418 0.48039076 -0.30995616 -0.023883158 0.055601057 -0.44452608
-0.62133175 -0.5477542 0.3284472 0.9452889 -0.5758893 0.4788432 0.20178473 0.56481177
-0.32876223 -0.84983015 1.2407902 -0.14933622 -0.24921627 0.018479574 0.1557838 0.19132124
0.4011642 0.15730779 -0.93415165 -0.16325706 -0.5381829 -0.1608269 0.28467944 0.22717683
-0.42455575 -0.7589227 0.23307407 -0.59033304 0.17689002 -0.12380676 -0.13183565 0.39318708
-0.049041998 0.5406477 0.245409 -0.026122099 0.26620975 -0.1259492 -0.33160758 -0.32235643
0.9756679 -0.6025192 -0.9762221 0.028775359 0.10826522 -0.06992924 -0.18212762 0.7010079
0.014899903 0.3551267 -0.30042496 -0.051134717 0.7092433 0.9149505 0.53620875 0.69428307
-0.22265194 0.46282142 -0.070293315 -0.1226614 0.33132714 0.59382766 0.89275986 -0.48558837
-0.14423718 0.14686431 0.1027833 -0.18642077 0.6977531 -0.23172 0.70878434 -0.29522198
-0.55474573 0.7396174 0.32204774 0.04191685 0.35882178 0.31078258 -0.16831817 0.060043793
0.62457144 -0.26297683 -0.8595841 -1.227544 -0.20004803 0.15563679 -0.029523065 0.1851947
0.4519274 -1.656711 0.8644816 -0.012026893 1.0144935 -0.6881781 -0.27357146 -0.37516916
0.7844446 -0.9401882 0.86095566 -0.04085709 -0.4557251 -0.84740347 1.2343439 -1.8340219
0.8940356 0.13709253 1.1583691 0.24244441 -0.07780329 0.7304326 0.095783755 0.44071707
0.10382817 0.09905236 -0.75539696 0.2864176 0.11681179 -0.10017701 0.0378877 0.60981256
0.97659314 -0.07277688 -0.4534031 0.85846055 0.7862049 0.097916834 -0.31473735 0.12601699

critic.network_body.linear_encoder.seq_layers.0.bias f4 [128]
00000000: 0000 0000 0000 0000 0000 0000 0000 0000
00000010: 0000 0000 0000 0000 0000 0000 0000 0000
00000020: 0000 0000 0000 0000 0000 0000 0000 0000
00000030: 0000 0000 0000 0000 0000 0000 0000 0000
00000040: 0000 0000 0000 0000 0000 0000 0000 0000
00000050: 0000 0000 0000 0000 0000 0000 0000 0000
00000060: 0000 0000 0000 0000 0000 0000 0000 0000
00000070: 0000 0000 0000 0000 0000 0000 0000 0000
00000080: 0000 0000 0000 0000 0000 0000 0000 0000
00000090: 0000 0000 0000 0000 0000 0000 0000 0000
000000a0: 0000 0000 0000 0000 0000 0000 0000 0000
000000b0: 0000 0000 0000 0000 0000 0000 0000 0000
000000c0: 0000 0000 0000 0000 0000 0000 0000 0000
000000d0: 0000 0000 0000 0000 0000 0000 0000 0000
000000e0: 0000 0000 0000 0000 0000 0000 0000 0000
000000f0: 0000 0000 0000 0000 0000 0000 0000 0000
00000100: 0000 0000 0000 0000 0000 0000 0000 0000
00000110: 0000 0000 0000 0000 0000 0000 0000 0000
00000120: 0000 0000 0000 0000 0000 0000 0000 0000
00000130: 0000 0000 0000 0000 0000 0000 0000 0000
00000140: 0000 0000 0000 0000 0000 0000 0000 0000
00000150: 0000 0000 0000 0000 0000 0000 0000 0000
00000160: 0000 0000 0000 0000 0000 0000 0000 0000
00000170: 0000 0000 0000 0000 0000 0000 0000 0000
00000180: 0000 0000 0000 0000 0000 0000 0000 0000
00000190: 0000 0000 0000 0000 0000 0000 0000 0000
000001a0: 0000 0000 0000 0000 0000 0000 0000 0000
000001b0: 0000 0000 0000 0000 0000 0000 0000 0000
000001c0: 0000 0000 0000 0000 0000 0000 0000 0000
000001d0: 0000 0000 0000 0000 0000 0000 0000 0000
000001e0: 0000 0000 0000 0000 0000 0000 0000 0000
000001f0: 0000 0000 0000 0000 0000 0000 0000 0000
0.0 0.0 0.0 0.0 0.0 0.0 0.0 0.0
0.0 0.0 0.0 0.0 0.0 0.0 0.0 0.0
0.0 0.0 0.0 0.0 0.0 0.0 0.0 0.0
0.0 0.0 0.0 0.0 0.0 0.0 0.0 0.0
0.0 0.0 0.0 0.0 0.0 0.0 0.0 0.0
0.0 0.0 0.0 0.0 0.0 0.0 0.0 0.0
0.0 0.0 0.0 0.0 0.0 0.0 0.0 0.0
0.0 0.0 0.0 0.0 0.0 0.0 0.0 0.0
0.0 0.0 0.0 0.0 0.0 0.0 0.0 0.0
0.0 0.0 0.0 0.0 0.0 0.0 0.0 0.0
0.0 0.0 0.0 0.0 0.0 0.0 0.0 0.0
0.0 0.0 0.0 0.0 0.0 0.0 0.0 0.0
0.0 0.0 0.0 0.0 0.0 0.0 0.0 0.0
0.0 0.0 0.0 0.0 0.0 0.0 0.0 0.0
0.0 0.0 0.0 0.0 0.0 0.0 0.0 0.0
0.0 0.0 0.0 0.0 0.0 0.0 0.0 0.0

critic.network_body.linear_encoder.seq_layers.2.weight f4 [128, 128]
00000000: a397 51bd d2be 8abd 0f9d 29be f8c5 383e
00000010: 9dba 66bc cbce 66bd ead0 a7bc faac cdba
00000020: d378 1dbd 997b 8fbd d67d 173d 8910 483e
00000030: cf3b f1bc 2e31 093d c9cf 2abb 3496 9a3c
00000040: 9146 503d ebf0 8c39 0dd5 d4bd 653b 53bd
00000050: 3d5b 9e3c a6ac dabd 19fa 1dbe e240 91bd
00000060: b52d 1dbe 9513 35be 8e46 1f3e 508d 7f3d
00000070: 9aa0 933d 1ef3 58be c607 e93d 004d 09be
00000080: 05db 94bc eef2 96bd d723 a6ba f05c c7bd
00000090: bc2c dcbd ec19 8ebd 7bc7 31bd 18a1 093e
000000a0: 5361 a43d 35ce 933d 2654 45bb 7309 283e
000000b0: 5557 193d 6eab 803d 8177 dbbc 8070 0dbe
000000c0: 376b 86bc 383d b8bd 280f dd3d 38f9 69be
000000d0: f7ef 36bd dde0 23ba b53e b2bc 27de 8d3d
000000e0: f168 3cbe dec2 cc3d 70c6 2e3e 4115 77bd
000000f0: b1f1 633e b241 7a3d b878 1d3d febf 1abe
00000100: 7769 dfbc 7aa1 64bd 64d6 39bd 3810 ebbc
00000110: 5403 633d 8422 453e 2020 4abd 0605 74bc
00000120: bc4a 183e 0fef 1c3d da54 2e3c 0352 99bd
00000130: 45c1 b3bd 0bef 4d3d 1e7e 94bd 1269 08bc
00000140: 43aa 9f3b 65d5 c13c f9d7 df3c 50c4 d53c
00000150: 73cd 8a3c 16c1 ffbc fcc9 08be 427d 463d
00000160: 83f3 873d 51ef 9a3d e073 73bb 70c4 86bd
00000170: 6f93 f9bc 5a64 2bbc c32c 30be a92a 3fbc
00000180: aa8d 073b 967a b2bd c2b1 dcbd 065d 37bc
00000190: 0cdb c23d a9c3 d0bd 81ec 0ebe b69d d7bd
000001a0: 12fc 653d ec07 c7ba 69e7 c3bd c436 813d
000001b0: 37eb 173b b1f6 21bd 6ce0 fe3c 1079 df3d
000001c0: f7f2 bb3c e43d 1d3e 60d1 27be f6a2 653d
000001d0: 5dfa 893d 6c7d 063d f3b8 cc3c 0fbe 8dbd
000001e0: 83bb 513e e8cc 3d3d 862c 6b3c 4a3f ea3c
000001f0: 0c0e 88bd f6ea 783d 6497 b33d 3644 efbd
00000200: c664 df3b ae3b 643d 83a1 333b 0d38 b03c
00000210: 8fe7 c6bd 2afe d63d ca89 993d eecd df3c
00000220: f8b7 2f3d 8dd1 18be 0040 63bc 64f9 9f3c
00000230: 8c59 aabd 0085 33bd a176 0b3e 91e7 9d3d
00000240: 3dd4 1abd 96ff 213d ec6e 5e3e bae7 b7bb
00000250: 32b9 1bbe de10 a13b 88ac c3ba 67f1 5cbc
00000260: 7813 c03c 8b83 303c da9f 8cbd d113 b1bd
00000270: 5fba 86bc 35b2 31be 4b57 d4bd 932e 9bbc
00000280: 572d 073d 2025 bc3d b92c 823e 6012 55bd
00000290: e67b a63d 335e c43d 9e4b e83c bc21 18bd
000002a0: bb44 7bbb 68d4 49bb ea7b 003e 74a3 b2bd
000002b0: 2f1c 233d c5c3 fb3d 29d4 463d 03f7 a3bd
000002c0: caa5 a4bd f843 e93c 8a63 aabd 4df7 39be
000002d0: 8911 fa3d a18c 6e3d 10b5 06be e7e0 60bc
000002e0: 1df5 503d 5b07 a83d 8932 f13d b9a5 28bb
000002f0: dc83 213e 4d90 2b3e 4220 87bd 7257 d83d
00000300: 944f 39bb 73a3 ebbd 9dfb 143d 0a30 b13d
00000310: 14ff 5fbd 8e4b 31bc badf 04be 0117 20be
00000320: 0063 843c 49ba 02be 3bf3 403c bf81 febb
00000330: 9f30 9b3d f820 293e a452 d4bd 6b0f 9ebd
00000340: f4ec 023d f339 4fbd c136 3cbe 859e 17be
00000350: 4466 70bd 8d06 2cbe f6f9 5cbe 6dad 7fbd
00000360: 992c 0cbe c6f7 38bd 98de a03d 4f43 75bd
00000370: 174b 833d 86a9 8cbc c17f 5fbe ab76 02bd
00000380: 7c7a 03be 1fbc 95bd 36e4 163e c63a fbbc
00000390: 957c b7bd 12bd b83c fd5a 533d 930d 02bd
000003a0: 587c 803d 6dec c8bd 4a8f 03bd ba10 0fbc
000003b0: 4b5b 313c d8f8 923b 32e9 05be c2d2 14bd
000003c0: 0c5a d1bd 3fa3 183d 90ee c1bc 17c1 0a3c
000003d0: e7a1 63bd ddf8 353d 8f8a 38be d5f1 90bd
000003e0: bd4e 67bd 7a9f 8b3c 5fae 433e 0361 a83c
000003f0: c9dd 6ebd a677 343d 9cf0 5d3e 5b94 3ebd
-0.051170003 -0.06774677 -0.1656382 0.18044269 -0.014082578 -0.056349557 -0.02048536 -0.001569181
-0.038445305 -0.07005996 0.03698524 0.19537558 -0.029447464 0.033494167 -0.002606379 0.01887045
0.050848547 0.0002688238 -0.10392199 -0.051570315 0.019330615 -0.10677461 -0.15427436 -0.070924535
-0.15349467 -0.17683251 0.15554258 0.062390625 0.07208367 -0.21186492 0.11378436 -0.1340828
-0.018170843 -0.07370554 -0.0012675476 -0.09734523 -0.1075072 -0.06938538 -0.04340313 0.13440359
0.080263756 0.07217065 -0.003010997 0.16409855 0.037436802 0.062826976 -0.026790382 -0.13812447
-0.016408546 -0.089960515 0.107939065 -0.22848976 -0.044662442 -0.0006251464 -0.021758417 0.06927138
-0.18399407 0.099981055 0.17067885 -0.060323004 0.22260167 0.06109781 0.038445204 -0.15112302
-0.02727197 -0.05581806 -0.045370474 -0.028694257 0.055423096 0.19251448 -0.049347043 -0.014893776
0.14872259 0.03831392 0.010640347 -0.074863456 -0.087770976 0.050276797 -0.072506174 -0.008325832
0.0048725917 0.023661325 0.027324663 0.026094586 0.016943669 -0.03122 -0.13358301 0.0484593
0.06638243 0.07565177 -0.0037147924 -0.06580436 -0.03046581 -0.010460937 -0.17204575 -0.011667886
0.0020683804 -0.08714788 -0.10776092 -0.011191612 0.09514436 -0.10193569 -0.13957407 -0.10528128
0.056148596 -0.0015184856 -0.09565622 0.06309274 0.002318097 -0.039541904 0.031112872 0.10911763
0.022943003 0.1535564 -0.16388464 0.056063615 0.06737206 0.032834455 0.024990534 -0.069210164
0.20481686 0.046337992 0.014353877 0.028594632 -0.06643304 0.06077095 0.0876911 -0.11682932
0.006817433 0.055720977 0.00274095 0.021511102 -0.09712135 0.10497697 0.07496984 0.027319875
0.042900056 -0.14923687 -0.013870239 0.019528098 -0.08317861 -0.04382801 0.13619472 0.077101834
-0.037800062 0.039550386 0.21722001 -0.0056123408 -0.15207365 0.004915341 -0.0014928738 -0.013485289
0.023446783 0.01077355 -0.06866427 -0.08646358 -0.01644629 -0.17353137 -0.10368212 -0.018943107
0.033002224 0.091867685 0.25424746 -0.052019477 0.081291005 0.095882796 0.02835637 -0.037141547
-0.0038340527 -0.003079677 0.1254727 -0.087225825 0.0398218 0.122931994 0.048542175 -0.08006098
-0.08039434 0.028474793 -0.08319767 -0.18160744 0.12210376 0.058239583 -0.13155007 -0.013725496
0.05101501 0.08204528 0.11777217 -0.0025733544 0.15772957 0.16754265 -0.065979496 0.10563554
-0.0028276192 -0.11505785 0.03637277 0.08651741 -0.05468662 -0.010821236 -0.1297597 -0.15633775
0.016160488 -0.12766375 0.011776741 -0.007766932 0.07577633 0.16516483 -0.10367325 -0.077177845
0.031964257 -0.050592374 -0.18380262 -0.14806564 -0.058691278 -0.16799374 -0.21579728 -0.06242125
-0.13688888 -0.04515817 0.078549564 -0.059878644 0.064108066 -0.017170679 -0.21826078 -0.03185145
-0.12839693 -0.07311272 0.14735493 -0.030667674 -0.08959309 0.022551093 0.051600445 -0.031751227
0.06273717 -0.0981072 -0.032119073 -0.008732015 0.010824989 0.004485231 -0.13077238 -0.036333807
-0.10222253 0.03726506 -0.023673326 0.008468888 -0.055574324 0.044426788 -0.18021606 -0.07077376
-0.056471575 0.017043818 0.19109486 0.020554071 -0.05831698 0.04405942 0.21673816 -0.0465282

critic.network_body.linear_encoder.seq_layers.2.bias f4 [128]
00000000: 0000 0000 0000 0000 0000 0000 0000 0000
00000010: 0000 0000 0000 0000 0000 0000 0000 0000
00000020: 0000 0000 0000 0000 0000 0000 0000 0000
00000030: 0000 0000 0000 0000 0000 0000 0000 0000
00000040: 0000 0000 0000 0000 0000 0000 0000 0000
00000050: 0000 0000 0000 0000 0000 0000 0000 0000
00000060: 0000 0000 0000 0000 0000 0000 0000 0000
00000070: 0000 0000 0000 0000 0000 0000 0000 0000
00000080: 0000 0000 0000 0000 0000 0000 0000 0000
00000090: 0000 0000 0000 0000 0000 0000 0000 0000
000000a0: 0000 0000 0000 0000 0000 0000 0000 0000
000000b0: 0000 0000 0000 0000 0000 0000 0000 0000
000000c0: 0000 0000 0000 0000 0000 0000 0000 0000
000000d0: 0000 0000 0000 0000 0000 0000 0000 0000
000000e0: 0000 0000 0000 0000 0000 0000 0000 0000
000000f0: 0000 0000 0000 0000 0000 0000 0000 0000
00000100: 0000 0000 0000 0000 0000 0000 0000 0000
00000110: 0000 0000 0000 0000 0000 0000 0000 0000
00000120: 0000 0000 0000 0000 0000 0000 0000 0000
00000130: 0000 0000 0000 0000 0000 0000 0000 0000
00000140: 0000 0000 0000 0000 0000 0000 0000 0000
00000150: 0000 0000 0000 0000 0000 0000 0000 0000
00000160: 0000 0000 0000 0000 0000 0000 0000 0000
00000170: 0000 0000 0000 0000 0000 0000 0000 0000
00000180: 0000 0000 0000 0000 0000 0000 0000 0000
00000190: 0000 0000 0000 0000 0000 0000 0000 0000
000001a0: 0000 0000 0000 0000 0000 0000 0000 0000
000001b0: 0000 0000 0000 0000 0000 0000 0000 0000
000001c0: 0000 0000 0000 0000 0000 0000 0000 0000
000001d0: 0000 0000 0000 0000 0000 0000 0000 0000
000001e0: 0000 0000 0000 0000 0000 0000 0000 0000
000001f0: 0000 0000 0000 0000 0000 0000 0000 0000
0.0 0.0 0.0 0.0 0.0 0.0 0.0 0.0
0.0 0.0 0.0 0.0 0.0 0.0 0.0 0.0
0.0 0.0 0.0 0.0 0.0 0.0 0.0 0.0
0.0 0.0 0.0 0.0 0.0 0.0 0.0 0.0
0.0 0.0 0.0 0.0 0.0 0.0 0.0 0.0
0.0 0.0 0.0 0.0 0.0 0.0 0.0 0.0
0.0 0.0 0.0 0.0 0.0 0.0 0.0 0.0
0.0 0.0 0.0 0.0 0.0 0.0 0.0 0.0
0.0 0.0 0.0 0.0 0.0 0.0 0.0 0.0
0.0 0.0 0.0 0.0 0.0 0.0 0.0 0.0
0.0 0.0 0.0 0.0 0.0 0.0 0.0 0.0
0.0 0.0 0.0 0.0 0.0 0.0 0.0 0.0
0.0 0.0 0.0 0.0 0.0 0.0 0.0 0.0
0.0 0.0 0.0 0.0 0.0 0.0 0.0 0.0
0.0 0.0 0.0 0.0 0.0 0.0 0.0 0.0
0.0 0.0 0.0 0.0 0.0 0.0 0.0 0.0

critic.value_heads.value_heads.extrinsic.weight f4 [1, 128]
00000000: 3e80 cd3d a46f 313e 0ca5 283e 354e 58be
00000010: 10b4 42be e4f0 133d b76b d3bd 65d6 fcbd
00000020: 687d 8ebd e9cd 063e 6631 d6bb b512 27be
00000030: fbc7 5b3e 89a7 a43d 61e7 37be 7014 34be
00000040: 93cd 393c 49f5 5f3d f462 42be e797 97bd
00000050: 751b 1fb9 7288 e63a 6909 f83d f13c bebd
00000060: 172a 1c3e 81e6 35bd 09fa 033e ee3a 40bd
00000070: ab6b 463e 34cc 21be 9e26 d33d ff0b d53d
00000080: 9ab7 3b3e 4951 f73d 30d0 27bd 964a 36be
00000090: de7f 533e baa3 30be e1a5 7dbc 2781 47be
000000a0: 3ce8 81bd 5e55 ea3c 8d83 f93c c0f9 a3bd
000000b0: be48 19be f39c 29be 4453 29bc 6722 52be
000000c0: 4374 47bd 30cb 18be 612f c03d 6a6e 163e
000000d0: ce17 2a3e 9e13 bfbd e0d0 9bbd 08e3 2cbd
000000e0: cef8 8cbd bc00 233e fb8b 06be 82f7 bc3b
000000f0: 948d 443c 4e0f 543e 808e e63d cdd2 0f3e
00000100: 3b53 10bc 92f9 4f3d 8020 243e 6106 753d
00000110: 83f6 0a3e 6be9 41be 137b cb3d d9dd 3b3c
00000120: ae6a 343e b19b 013e 6285 3d3e 9607 25bc
00000130: bf34 e23d a886 ddbd 294f 55be d94a 4bbe
00000140: cf01 a3bd de56 9bbd f488 f2bc d386 3dbe
00000150: 8515 363c 23a5 3f3e 8192 efbd 2a68 543e
00000160: 0f36 6c3d e458 b0bc cf2d 41bd f82d 3c3e
00000170: 8930 8dbd 2006 133e c68c 8d3b bf61 90bd
00000180: 10a2 16be 53d5 31bd 9edc 31be 798d 3ebe
00000190: 3bdd b03d e4bd e93d 3547 3bbc 3580 2b3e
000001a0: 4e3e 4dbe 3854 bd3d 2f74 a63d a9b4 2ebe
000001b0: 53cc 40be 0bd0 23bd 428f 1c3d 167c 94bd
000001c0: f653 3d3e d625 a53c 13ab 46be a1ea 303c
000001d0: 8e81 273e 6b17 893c f2cd f63d c5ca 2dbe
000001e0: 8e41 033d 0457 38be 54ec 173e b514 48be
000001f0: da0c 13be 4e65 333e a6bf 27bd cfe5 113e
0.10034226 0.17327744 0.1646921 -0.21123584 -0.19014001 0.036118403 -0.10323279 -0.1234558
-0.06957513 0.13164486 -0.0065366505 -0.1631573 0.21463005 0.08039767 -0.17959358 -0.17585921
0.011340517 0.05467728 -0.1898306 -0.0740202 -0.0001517365 0.0017588271 0.1211117 -0.092889674
0.15250431 -0.04440928 0.1288835 -0.0469312 0.1937701 -0.15800554 0.103101 0.10402679
0.18331757 0.12076051 -0.040970027 -0.1780189 0.20654246 -0.17249957 -0.015481443 -0.19482861
-0.06343123 0.02860516 0.030458236 -0.080066204 -0.14969155 -0.16563778 -0.0103347935 -0.20520936
-0.04869486 -0.1492126 0.09384037 0.14690557 0.16610643 -0.093299136 -0.07608199 -0.0422087
-0.06883393 0.15918249 -0.13139336 0.00576681 0.0119966455 0.20708963 0.112576485 0.14045258
-0.008808906 0.05077512 0.16028023 0.059820537 0.135706 -0.18936698 0.09935584 0.011466467
0.1761882 0.12657048 0.18507913 -0.010072609 0.11045217 -0.10816699 -0.20830978 -0.19852771
-0.07959329 -0.07584928 -0.02960632 -0.18508463 0.011113529 0.18715338 -0.11697865 0.2074286
0.05766874 -0.021526761 -0.047162827 0.1837691 -0.06894023 0.14357805 0.00431976 -0.070498936
-0.1471026 -0.043416332 -0.17369315 -0.18608655 0.08635946 0.11413172 -0.011430551 0.16748126
-0.20043299 0.09244579 0.08127629 -0.17061104 -0.18827944 -0.039993327 0.03822256 -0.0725023
0.1848906 0.020159643 -0.19401197 0.010798127 0.16358015 0.0167348 0.12051 -0.16971882
0.03204494 -0.18001944 0.14836246 -0.19539149 -0.14360371 0.17519113 -0.040954255 0.14247821
