results/scaled/Car Agent/Car Agent-56491.onnx (onnx, 74578 bytes, 9 tensors)

action_model._continuous_distribution.log_sigma f4 [1, 2]
-0.015641337 -0.003447909
00000000: 4322 80bc 50f6 61bb

action_model._continuous_distribution.mu.bias f4 [2]
0.0052801855 0.002843421
00000000: 6805 ad3b b058 3a3b

action_model._continuous_distribution.mu.weight f4 [2, 128]
0.013177969 -0.0030209764 0.008375984 -0.021205988 -0.0010956877 0.017530456 0.017756335 -0.016726632
-0.00904215 -0.026532646 0.027544921 -0.01693749 0.0013402886 -0.012551598 -0.0009318352 -0.0030122434
-0.0012145068 0.024554158 -0.032654196 0.016177626 -0.008766545 0.00079187163 0.019477477 -0.007896658
-0.03649586 -0.008262726 -0.020300936 0.009974363 -0.010514595 -0.0027711529 0.01238362 -0.0059245233
-0.011758149 0.009738552 -0.047612775 0.037958596 -0.016147342 0.01693018 -0.0038870722 -0.014982361
0.0218521 -0.02759962 -0.013146325 -0.029401422 -0.003711417 -0.014771468 -0.01900925 -0.017581662
-0.021464553 0.0130761815 0.019458633 0.010437704 -0.0060213283 0.02950689 0.009008736 -0.0012527935
-0.01817801 -0.022872271 -0.0008889795 -0.009564283 0.02484818 0.0295668 0.017390301 -0.0027372316
-0.0011250654 0.0093221245 -0.008652793 0.007985983 -0.006986566 0.018689556 0.0003959359 0.007591434
-0.024607833 0.016886158 0.029131284 0.018555652 0.0024883982 0.026663769 -0.0071816044 0.012718235
-0.012484108 -0.0031826547 0.010166565 -0.01057738 -0.0031845842 0.007872087 -0.0023762528 0.025038563
-0.019291438 -0.026973588 0.017633313 0.040469844 0.009851265 -0.028266156 0.006374077 -0.015049681
-0.007912731 -0.01315045 0.002505553 -0.0073900814 -0.0073689977 -0.0029063243 0.017718766 0.015025963
0.024759538 0.013139425 0.022829529 -0.023214262 0.0037102436 0.013815771 -0.008003603 -0.0027624539
0.0050377836 -0.0028702978 0.043194838 -0.022063617 0.0070240092 0.01273084 0.007390957 -0.013078006
-0.0035972698 0.018794788 -0.021318866 -0.046740443 -0.023693396 0.015603164 -0.013402062 0.0016305249
0.022064537 0.011917523 0.035883244 0.019372655 0.014777836 0.017240655 0.0025124177 0.009647147
0.033292666 -0.018713064 0.0073945485 0.0063487976 -0.022840455 0.022531636 -0.013655933 -0.018911304
-0.0064080255 0.016647726 -0.0045190877 -0.0063355886 -0.0071999426 -0.004957192 -0.0006214898 0.009247981
-0.011142652 0.007898281 -0.0010628365 -0.0008804799 -0.001206427 0.016456975 -0.0010077435 -0.01375098
0.0056216326 -0.01034735 0.030279566 0.042200163 0.023832444 0.00938013 -0.011581099 -0.03168438
-0.021972572 0.01795542 -0.004915134 -0.014813233 0.00842121 0.039186932 -0.027275246 -0.0046637184
-0.009382211 -0.026646685 0.006786729 0.01336308 -0.014148716 -0.014688185 -0.019838188 0.0050456547
0.0056936457 -0.02649116 0.014722763 -0.0051239887 0.020313418 0.011011489 0.023329305 0.0040942146
-0.0017533415 -0.021384005 0.001307228 0.012506901 0.012440857 0.005610545 0.006655587 0.010408433
0.008751467 0.013034033 0.0180691 0.0014938464 -0.018159563 -0.0021461837 -0.04239761 -0.0006598378
-0.02918144 0.014840909 -0.006140833 0.0042152903 0.016260851 0.021486346 -0.034429595 -0.0067320936
-0.007242161 -0.01902161 -0.013368842 0.0076192697 0.0015134505 0.01933959 0.023501474 -0.021883927
-0.005027018 0.030503044 0.019221343 -0.0009861524 -0.004174064 -0.013038264 0.010352367 0.0047939527
0.0055801384 0.015272432 0.02172892 -0.004411301 0.033012636 0.022607263 -0.009816153 0.0315403
0.02331564 0.00069051725 -0.018606486 -0.030734261 -0.011088273 0.01657279 -0.0033503203 -0.013590375
-1.3026819e-05 -0.020010479 0.0125032915 -0.01374232 -0.013747801 0.016111279 -0.0236571 0.0018270974
00000000: 68e8 573c 93fb 45bb 6c3b 093c 2eb8 adbc
00000010: 2e9d 8fba 089c 8f3c bc75 913c 4a06 89bc
00000020: 8725 14bc fe5a d9bc e3a5 e13c 7ec0 8abc
00000030: 9fac af3a 38a5 4dbc 6746 74ba 0f69 45bb
00000040: 1630 9fba cd25 c93c 68c0 05bd f186 843c
00000050: 8ea1 0fbc 9b95 4f3a 3b8f 9f3c fc60 01bc
00000060: af7c 15bd 6260 07bc 264e a6bc 836b 233c
00000070: 6845 2cbc 3b9c 35bb abe4 4a3c 8122 c2bb
00000080: 40a5 40bc 738e 1f3c 9d05 43bd 797a 1b3d
00000090: 6e47 84bc 29b1 8a3c 40be 7ebb 9478 75bc
000000a0: 2d03 b33c 9918 e2bc af63 57bc 40db f0bc
000000b0: 3f3b 73bb 0704 72bc 49b9 9bbc 6b07 90bc
000000c0: 6ed6 afbc 7b3d 563c b667 9f3c e702 2b3c
000000d0: 904e c5bb 6fb8 f13c 6199 133c c634 a4ba
000000e0: 0dea 94bc a15e bbbc 680a 69ba 83b3 1cbc
000000f0: 698e cb3c 1336 f23c 1b76 8e3c 2063 33bb
00000100: ee76 93ba d3bb 183c 72c4 0dbc a4d7 023c
00000110: 90ef e4bb d71a 993c 9e95 cf39 90c1 f83b
00000120: 5e96 c9bc d754 8a3c bba4 ee3c 0602 983c
00000130: 6514 233b fa6d da3c aa53 ebbb 2560 503c
00000140: 258a 4cbc 1694 50bb aa91 263c bf4c 2dbc
00000150: 75b4 50bb edf9 003c e8ba 1bbb ac1d cd3c
00000160: 1409 9ebc b7f7 dcbc bd73 903c b5c3 253d
00000170: 3367 213c 6d8e e7bc a2dd d03b f092 76bc
00000180: 66a4 01bc fc74 57bc 3434 243b 7f28 f2bb
00000190: a277 f1bb 0878 3ebb f226 913c 752f 763c
000001a0: 84d4 ca3c be46 573c fe04 bb3c d62b bebc
000001b0: 8f27 733b 8b5b 623c 8b21 03bc 490a 35bb
000001c0: fe13 a53b 9b1b 3cbb 12ed 303d c2be b4bc
000001d0: a929 e63b 0395 503c d72f f23b 2245 56bc
000001e0: 2cc0 6bbb 87f7 993c e7a4 aebc e872 3fbd
000001f0: a718 c2bc 6aa4 7f3c 5294 5bbc 56b7 d53a
00000200: b0c0 b43c b741 433c 4ffa 123d 67b3 9e3c
00000210: bd1e 723c 463c 8d3c 60a7 243b 110f 1e3c
00000220: e45d 083d 244c 99bc f84d f23b 9309 d03b
00000230: e81b bbbc 4494 b83c 22bd 5fbc e1eb 9abc
00000240: 6afa d1bb d060 883c db14 94bb c59a cfbb
00000250: 7fed ebbb f16f a2bb 79eb 22ba d884 173c
00000260: ab8f 36bc cb67 013c e04e 8bba 02d0 66ba
00000270: f920 9eba c7d0 863c 4316 84ba ca4b 61bc
00000280: ac35 b83b ee87 29bc da0c f83c 14da 2c3d
00000290: 423c c33c 1eaf 193c a6be 3dbc 7bc7 01bd
000002a0: d3ff b3bc 3f17 933c 220f a1bb 34b3 72bc
000002b0: 1df9 093c 7a82 203d 5670 dfbc 1bd2 98bb
000002c0: d8b7 19bc 264a dabc 3663 de3b d2f0 5a3c
000002d0: 04d0 67bc b7a6 70bc b283 a2bc 0556 a53b
000002e0: c391 ba3b fd03 d9bc be37 713c 22e7 a7bb
000002f0: 5368 a63c 8869 343c 191d bf3c c328 863b
00000300: 61d0 e5ba 822d afbc 4b57 ab3a bfe9 4c3c
00000310: bcd4 4b3c aad8 b73b 1c17 da3b 2288 2a3c
00000320: 5062 0f3c b28c 553c a605 943c 2bcd c33a
00000330: 5dc3 94bc fda6 0cbb 1ea9 2dbd f7f8 2cba
00000340: ea0d efbc 4927 733c 0a39 c9bb 6b20 8a3b
00000350: 7a35 853c 2204 b03c 0c06 0dbd e598 dcbb
00000360: a64f edbb 35d3 9bbc fd08 5bbc 11ab f93b
00000370: f95e c63a 0f6e 9e3c 2a86 c03c ec45 b3bc
00000380: afb9 a4bb 85e1 f93c 1476 9d3c c941 81ba
00000390: 96c6 88bb 719e 55bc f99c 293c 9716 9d3b
000003a0: 98d9 b63b 3939 7a3c d900 b23c ad8c 90bb
000003b0: 4238 073d de32 b93c eed3 20bc 6730 013d
000003c0: 7100 bf3c d403 353a a16c 98bc 6bc6 fbbc
000003d0: 96ab 35bc a9c3 873c 0c91 5bbb 2aaa 5ebc
000003e0: c38d 5ab7 04ed a3bc 9bda 4c3c 7827 61bc
000003f0: 753e 61bc cdfb 833c 89cc c1bc 377b ef3a

action_model._discrete_distribution.branches.0.bias f4 [2]
-0.0035065073 0.0035065068
00000000: 6ecd 65bb 6ccd 653b

action_model._discrete_distribution.branches.0.weight f4 [2, 128]
0.013212487 0.005411838 0.008685318 0.015384224 0.013064521 0.006270048 0.018177474 -0.0072991517
0.011743162 -0.002782376 -0.010646518 0.0011874395 0.008157172 0.02110792 -0.0043067005 0.008811539
0.004727566 0.004512269 0.00257221 0.010936042 -0.0012336355 -0.011722826 -0.005728101 -0.0018083153
-0.00030460357 -0.025703752 0.0029160457 0.005529721 -0.0051031117 -0.0017779652 -0.0018985916 -0.0111882165
-0.025825959 -0.0045472034 0.0042358697 0.018879205 -0.0011944148 0.006668752 0.015162601 0.0037444737
-0.016896432 0.0014470876 -0.01553789 0.0113538625 -0.002412048 0.0015451626 -0.00315023 0.00038690385
0.008477088 0.007426044 -0.004621593 0.0012970967 -0.0040400727 -0.014300051 0.016349655 -0.015021007
0.002339339 0.0028906758 0.004935926 -0.015456241 0.0029475316 0.014114299 -0.0009604451 0.019245137
-0.012311132 -0.022536976 0.006959992 -0.011405332 -0.009711099 -0.0044607213 -0.0046295947 -0.0035999126
-0.0071166498 -0.004125496 0.002276891 -0.0035507835 0.004959861 0.011060887 0.0030673565 -0.0028951599
0.0058870763 -0.023032965 -0.0069154347 -0.0039647957 0.019163579 -0.0017182203 0.010891103 -0.014146028
0.0005149185 -0.012173803 -0.007781159 -0.003458153 0.0062555936 -0.010425338 -0.004865231 -0.004809237
0.0052800183 0.0019714679 -0.0024708747 0.0017107633 0.0068668644 -0.023132568 0.0010728703 0.027845923
-0.0008297753 0.010635174 0.0021115884 0.004727585 0.015079658 0.004349129 -0.004373069 0.0023046853
-0.008738938 -0.012019422 0.0026271876 0.0029072652 0.0037753915 -0.013024585 0.01563531 0.013917277
0.007971899 0.0054970393 -0.008496008 0.0020085406 0.011156423 0.0008951507 -0.0046997527 0.0018122076
0.012247188 0.009285476 0.006984389 0.0043668183 0.014094157 -0.0058436845 0.020191059 0.0034966415
-0.008761237 0.019396098 -0.010401346 -0.0019813268 0.0024830254 -0.0037520442 0.01381599 0.004513895
-0.0070520765 -0.011014662 -0.010283241 0.014126521 0.015567318 0.010887258 0.0023066276 0.009425244
-0.005638256 -0.019649925 0.011053797 0.0059054573 -0.0035970525 0.0009838449 0.014670487 0.003226459
0.0030549322 0.006581353 -0.0011540658 -0.0040930635 0.007136552 -0.008397581 -0.008546945 0.003322527
0.0208444 -0.003108182 -0.00048654998 0.0014906337 0.00041085153 0.0054684486 0.0036080212 0.0075601586
0.0007961017 -0.021331761 -0.0099909855 -0.003886746 0.007284948 -0.0056534065 0.013256862 0.010937842
-0.009310984 -0.0100581655 -0.00038925372 -0.0020634788 -0.015676364 -0.02490831 0.011825581 -0.012783388
0.004345732 -0.015125268 0.0029179144 0.010675827 0.009003091 0.0023710513 0.0059415917 0.0016017655
-0.012637907 0.006250871 -0.011510889 0.0071114665 0.0039479476 -0.017608568 0.003743625 0.019079033
0.0018195338 0.0041026766 0.008750601 -0.007135276 -0.0017794488 -0.008775937 -0.00068924134 0.014939504
0.0015247101 -0.0020091739 -0.0066438713 -0.009471589 -0.0064896345 -0.03226059 0.011098362 0.010391248
0.005596146 0.01061067 -0.0073605017 -0.0029660987 -0.007419453 0.014590431 0.0009552154 -0.011346303
-0.02068686 -0.011564909 -0.01606254 0.0041674124 0.012501655 0.0043109283 0.009916139 -0.000723536
0.007937478 0.011149357 -0.0041377423 -0.012131726 -0.017941793 0.008299463 -0.0046622874 0.014812632
-0.025868785 -0.0032453819 0.02747859 -0.0013794235 0.010826978 -0.0018464937 0.0075465064 0.0011561733
00000000: 3079 583c ca55 b13b dd4c 0e3c 1d0e 7c3c
00000010: 930c 563c fa74 cd3b ede8 943c b92d efbb
00000020: 6466 403c 8658 36bb bc6e 2ebc dca3 9b3a
00000030: a9a5 053c 84ea ac3c 391f 8dbb 465e 103c
00000040: b3e9 9a3b a8db 933b 8692 283b 162d 333c
00000050: f0b1 a1ba 1911 40bc cbb2 bbbb fe04 edba
00000060: 33b3 9fb9 ad90 d2bc 211b 3f3b a932 b53b
00000070: 0138 a7bb 9d0a e9ba 2ada f8ba c84e 37bc
00000080: f690 d3bc b500 95bb 0dcd 8a3b 90a8 9a3c
00000090: e98d 9cba 8c85 da3b 8f6c 783c d865 753b
000000a0: 636a 8abc 34ac bd3a a292 7ebc 8d05 3a3c
000000b0: 7313 1ebb 0e87 ca3a 1774 4ebb 5bd9 ca39
000000c0: 7ce3 0a3c 2c56 f33b bb70 97bb 5803 aa3a
000000d0: 9662 84bb c34a 6abc b6ef 853c ab1a 76bc
000000e0: 984f 193b 7e71 3d3b 8cbd a13b 2c3c 7dbc
000000f0: 602b 413b a93f 673c 61c6 7bba faa7 9d3c
00000100: a1b4 49bc 779f b8bc a510 e43b 6edd 3abc
00000110: 4d1b 1fbc 3e2b 92bb dbb3 97bb 83ec 6bbb
00000120: c932 e9bb 2b2f 87bb e437 153b 43b4 68bb
00000130: 5486 a23b b938 353c b405 493b b9bc 3dbb
00000140: 60e8 c03b a1af bcbc df9a e2bb 1eeb 81bb
00000150: f0fc 9c3c e835 e1ba 9970 323c bec4 67bc
00000160: 98fb 063a a174 47bc 18f9 febb 2ea2 62bb
00000170: b9fb cc3b 09cf 2abc 846c 9fbb ce96 9dbb
00000180: 0104 ad3b be33 013b 66ee 21bb b13b e03a
00000190: 6f03 e13b 8380 bdbc 8e9f 8c3a 221d e43c
000001a0: 4785 59ba 273f 2e3c 9362 0a3b dbe9 9a3b
000001b0: ab10 773c 2383 8e3b f64b 8fbb 340a 173b
000001c0: c32d 0fbc 1ced 44bc e52c 2c3b d187 3e3b
000001d0: 8f6c 773b 1265 55bc 9f15 803c 4a05 643c
000001e0: 919c 023c 8220 b43b d732 0bbc b8a1 033b
000001f0: 6ec9 363c 8ca8 6a3a 6200 9abb 9987 ed3a
00000200: 6ea8 483c 1c22 183c 4ddd e43b 8717 8f3b
00000210: 2eeb 663c 617c bfbb b867 a53c e927 653b
00000220: 4b8b 0fbc 91e4 9e3c 686a 2abc 26d9 01bb
00000230: 41ba 223b dbe4 75bb 765c 623c 4ce9 933b
00000240: 1b15 e7bb d776 34bc 0a7b 28bc ec72 673c
00000250: 100e 7f3c 7860 323c ca2a 173b 576c 1a3c
00000260: 1fc1 b8bb e1f8 a0bc fc1a 353c 9182 c13b
00000270: 87bc 6bbb 5bf4 803a 7b5c 703c 0073 533b
00000280: 4235 483b 64a8 d73b 0644 97ba 1b1f 86bb
00000290: bdd9 e93b 0296 09bc 7c08 0cbc c1be 593b
000002a0: e0c1 aa3c a4b2 4bbb a217 ffb9 5e61 c33a
000002b0: 8f67 d739 ac30 b33b 8d74 6c3b 35bb f73b
000002c0: 7bb1 503a f2bf aebc 3bb1 23bc c7b8 7ebb
000002d0: 93b6 ee3b 3640 b9bb 4f33 593c a234 333c
000002e0: 198d 18bc 01cb 24bc c014 ccb9 6e3b 07bb
000002f0: b86b 80bc 830c ccbc 15c0 413c 6a71 51bc
00000300: a466 8e3b f9cf 77bc 7b3a 3f3b aae9 2e3c
00000310: b381 133c a463 1b3b afb1 c23b 55f2 d13a
00000320: 390f 4fbc 1bd4 cc3b 2b98 3cbc 4e07 e93b
00000330: c95d 813b d83f 90bc 9b57 753b a24b 9c3c
00000340: 6c7d ee3a bf6f 863b ae5e 0f3c 09cf e9bb
00000350: 653c e9ba f3c8 0fbc 34ae 34ba d2c4 743c
00000360: c8d8 c73a 58ac 03bb d5b4 d9bb b92e 1bbc
00000370: 00a7 d4bb ae23 04bd e7d5 353c 0e40 2a3c
00000380: e05f b73b 60d8 2d3c 5d30 f1bb e162 42bb
00000390: e21e f3bb b40c 6f3c 6c67 7a3a d8e5 39bc
000003a0: 7d77 a9bc be7a 3dbc 9695 83bc ca8e 883b
000003b0: bed3 4c3c b042 8d3b 4d77 223c aeab 3dba
000003c0: 320c 023c cbab 363c e695 87bb 26c4 46bc
000003d0: abfa 92bc 79fa 073c 1ac6 98bb afb0 723c
000003e0: c6ea d3bc 79b0 54bb c81a e13c c6cd b4ba
000003f0: a363 313c 0c06 f2ba af48 f73b bd8a 973a

network_body.linear_encoder.seq_layers.0.bias f4 [128]
-0.00020537763 0.00084545 0.003463359 -0.0008958887 -0.0061839875 -0.0049785813 0.0031331219 -0.0025945546
-0.005065164 -0.0025407097 0.006118867 -0.0073513547 -0.0018501257 0.0008495 -0.0039755087 -0.0033677998
-0.004646012 0.00281237 -0.002307086 -0.0053085145 0.002334632 0.0024995345 -0.0034401473 -0.0064869523
0.0026624235 0.0004871754 -0.00020534171 -0.0046355356 -0.002420897 0.0023270936 -0.0006711282 0.0008940594
0.0025193708 4.6890913e-05 0.0017471069 0.0054454845 -0.0020896895 0.0044141007 0.00027438207 -0.004944615
0.0016868269 -0.0020785718 -0.0055498304 -0.0029952396 0.006112675 -0.0019011305 0.0016898348 0.0026454118
0.00031028356 -6.257694e-05 0.001844289 -0.0016440395 0.0021199035 0.006078164 -0.0029312116 0.001956027
0.010863471 -0.00071141607 -0.005435725 -0.0018837478 -0.0005724009 -0.0041134874 0.0023346092 -0.00010663925
-0.001644075 0.0039427485 -0.001150938 0.0040953765 -0.0017939003 -0.0029388454 -0.010152336 -0.003311113
-0.0024480089 -0.0005332487 0.003715969 -0.0011780114 0.004802724 -0.002962139 -0.0048814886 -0.007181868
-0.0049651805 0.0021217267 1.0351051e-05 -0.005684124 -0.0027369843 0.0017969605 -0.0028323564 0.0003649758
-0.00082812685 0.002427976 0.00053451466 -0.0033454946 -0.0052622333 0.0075804098 -0.0031094567 0.0028815647
-0.0039069694 0.0017011532 0.005564866 -0.0055463775 -0.0020825542 0.0087000495 0.0014721 0.0045298464
-0.0050443118 -0.0017222926 -5.2376672e-05 -0.008172711 -0.0014444308 -0.0062148958 0.0018684231 -0.001518159
-0.0028321415 -0.004384205 0.008128412 0.0026798116 0.009825367 -0.0051008733 -0.0054037953 0.0049222223
-0.002299932 -0.003240188 0.00019209585 -0.0039517707 0.0010622437 -0.002798403 -0.008842141 -0.0064351945
00000000: a35a 57b9 30a1 5d3a 86f9 623b 13da 6aba
00000010: 0ca3 cabb 5e23 a3bb 1055 4d3b 6709 2abb
00000020: adf9 a5bb 0982 26bb c780 c83b a2e3 f0bb
00000030: eb7f f2ba fbb0 5e3a fc44 82bb 4eb6 5cbb
00000040: 933d 98bb bd4f 383b 7b32 17bb 0cf3 adbb
00000050: a000 193b 3bcf 233b 1874 61bb 8090 d4bb
00000060: 0e7c 2e3b 936b ff39 ff50 57b9 b1e5 97bb
00000070: e9a7 1ebb 2782 183b a7ee 2fba 505f 6a3a
00000080: 071c 253b bcac 4438 2eff e43a 0970 b23b
00000090: 2cf3 08bb 29a4 903b f0da 8f39 7006 a2bb
000000a0: 8518 dd3a a638 08bb 5adb b5bb c84b 44bb
000000b0: d64c c83b 5b2f f9ba 727d dd3a a55e 2d3b
000000c0: 8ead a239 bd3b 83b8 12bc f13a d07c d7ba
000000d0: 14ee 0a3b 562b c73b 9219 40bb b030 003b
000000e0: b3fc 313c 537e 3aba 2b1e b2bb 16e8 f6ba
000000f0: 2d0d 16ba 6fca 86bb 3e00 193b 83a3 dfb8
00000100: 017e d7ba 2c32 813b 12db 96ba 8232 863b
00000110: 4e21 ebba a599 40bb fc55 26bc 42ff 58bb
00000120: c66e 20bb b7c9 0bba 9d87 733b 8167 9aba
00000130: 2b60 9d3b 7220 42bb e5f4 9fbb e055 ebbb
00000140: f4b2 a2bb ab0c 0b3b 6da9 2d37 e341 babb
00000150: fa5e 33bb fd87 eb3a 0e9f 39bb 395a bf39
00000160: a716 59ba ae1e 1f3b ac1e 0c3a 1640 5bbb
00000170: d06e acbb 1665 f83b 07c8 4bbb a2d8 3c3b
00000180: 0906 80bb 3bf9 de3a 7b59 b63b 63be b5bb
00000190: 767b 08bb a78a 0e3c 7bf3 c03a 1b6f 943b
000001a0: c14a a5bb 8dbe e1ba 06af 5bb8 d6e6 05bc
000001b0: 0e53 bdba 53a6 cbbb e0e5 f43a f7fc c6ba
000001c0: 739b 39bb 61a9 8fbb 082d 053c c79f 2f3b
000001d0: 93fa 203c 3a25 a7bb 5212 b1bb 984a a13b
000001e0: 75ba 16bb 5559 54bb 566d 4939 db7d 81bb
000001f0: fc3a 8b3a 6965 37bb a1de 10bc 53de d2bb

network_body.linear_encoder.seq_layers.0.weight f4 [128, 6]
0.5342088 -0.5603033 -0.2550966 0.4347805 -0.57476467 -0.6959005 0.44529462 0.32236192
-0.39515316 -0.16968915 -0.33533922 0.0131316865 -0.13477677 -0.21533942 0.074257925 -0.65951174
-0.44031692 0.118779354 -0.14789678 0.78926486 -0.05577109 0.44202304 -1.0026035 -0.498946
0.36541507 0.4338281 -0.33913532 0.15170847 0.22144386 0.31626987 -0.31999522 -0.24779886
-0.2769706 0.26604846 -0.95663303 -0.1683914 -0.07431678 0.55727595 -0.36781433 0.07601398
0.14164244 -0.5351769 -0.16851914 0.31275862 0.16836706 0.17613384 -0.22710702 0.11241198
0.5556486 -0.3347081 0.5731461 -0.12505433 0.21703282 0.025451606 -0.31031364 0.42190146
-0.03169378 -0.6815641 -0.08381016 -0.6883028 -0.51686704 0.05838821 0.023988873 -0.26672348
-0.36840943 -0.24126382 0.25171417 0.074582845 0.018593004 0.22369204 -0.6145601 -0.5970793
0.98509055 -0.10994275 0.08627877 0.25066268 0.25594425 0.11687868 0.67430013 0.3952309
-0.65220225 0.49134243 0.29030955 0.07168881 0.3329375 0.55893743 0.61065274 -0.26938453
-0.02926304 -0.456543 0.29024863 -0.68362325 0.26996 0.14563511 -0.20742996 -0.25161275
0.34917223 0.20538779 0.34483063 -0.3548827 -0.4099847 -0.31839743 0.4278937 0.5557444
0.03713685 0.13638438 -0.0042252135 0.49204952 0.31294844 -0.2720606 0.2811273 -0.39473203
0.14443734 0.46734732 0.14154558 -0.41861728 -0.19146039 0.1756215 0.7157518 0.52941364
-0.09133302 -0.75151366 -0.73491627 0.1184118 -0.5071249 -0.41456053 0.76792926 0.19698714
0.46081847 -0.04139024 0.52146345 -0.5778252 0.41246396 -0.14277537 -0.24969546 -0.51035416
-0.24260974 -0.7570992 -0.10168478 0.4520443 0.20720358 0.7165406 -0.6827657 0.21303572
-0.17971171 0.12496056 0.17235394 0.08960163 0.36329097 -0.10069855 -0.19235471 -0.8887309
0.08538905 0.0644802 -0.32798377 -0.54740715 -0.5429989 -0.056304418 -0.06708628 -0.40095627
0.10682821 -0.07767924 0.7651396 0.082186684 -0.4831616 0.38472378 -0.07014164 0.43213344
-0.86813575 -0.1485312 0.2705101 0.35217366 -0.1324759 -0.3048364 -0.7710012 -0.23833396
-0.31250572 0.47276896 0.3777051 -0.19406863 -0.05626555 -0.56323117 0.12720713 -0.20163201
0.4626378 -0.04003483 0.47418246 0.31627578 0.04159983 -0.52574164 0.109381795 0.049727865
-0.31022426 -0.27868655 -0.24374542 -0.26419947 0.39730433 0.2744067 0.5905784 -0.21154802
0.94915736 -0.9857729 0.4493568 0.6747603 0.107635066 0.55708987 0.5617341 -0.8361134
-0.11673829 0.105769835 -0.106349714 0.08243254 0.2728747 0.11002708 0.4600263 -0.24334192
-0.2544296 0.07578559 -0.057874404 -0.37810317 -0.2134088 0.13206233 -0.2579722 -0.30259854
-0.04325059 0.4020123 0.073142186 -0.3535508 -0.19262834 0.24960305 -0.31915277 -0.112297304
-1.2754074 -0.3297131 0.044284027 0.15371384 -0.14061368 0.044393457 0.20560913 -0.1999124
0.0104778875 -0.6425252 0.57542264 0.5796727 0.18430007 -0.5780212 -0.04187719 0.6312667
-0.2865793 0.21487218 -0.260707 0.4291346 -0.27291933 0.29361722 -0.07296379 0.44459334
00000000: e8c1 083f 0970 0fbf 069c 82be 8d9b de3e
00000010: c723 13bf 8926 32bf a8fd e33e 9f0c a53e
00000020: 8451 cabe fec2 2dbe 95b1 abbe 4926 573c
00000030: ec02 0abe f081 5cbe 8a14 983d c3d5 28bf
00000040: 3871 e1be 9742 f33d 4172 17be 430d 4a3f
00000050: 3a70 64bd d850 e23e 5055 80bf da75 ffbe
00000060: af17 bb3e b71e de3e 25a3 adbe 7759 1b3e
00000070: 2ec2 623e 20ee a13e 6ad6 a3be fcbe 7dbe
00000080: 17cf 8dbe 8137 883e e7e5 74bf cc6e 2cbe
00000090: 6533 98bd a3a9 0e3f 2952 bcbe 38ad 9b3d
000000a0: b70a 113e 5a01 09bf 4890 2cbe e621 a03e
000000b0: 6a68 2c3e 6e5c 343e be8e 68be 4138 e63d
000000c0: fd3e 0e3f dc5e abbe b4b9 123f 3e0e 00be
000000d0: da3d 5e3e e37f d03c 6ee1 9ebe 7803 d83e
000000e0: 56d1 01bd fc7a 2ebf a9a4 abbd 9d34 30bf
000000f0: 6651 04bf 7a28 6f3d 5084 c43c fb8f 88be
00000100: 29a0 bcbe dd0d 77be aee0 803e e4be 983d
00000110: 5b50 983c 870f 653e d053 1dbf 30da 18bf
00000120: e52e 7c3f aa29 e1bd ecb2 b03d dc56 803e
00000130: 200b 833e 175e ef3d ef9e 2c3f b45b ca3e
00000140: baf6 26bf 3c91 fb3e 74a3 943e 95d1 923d
00000150: c976 aa3e 8616 0f3f bd53 1c3f c5ec 89be
00000160: 0bb9 efbc 01c0 e9be 789b 943e ef01 2fbf
00000170: 3238 8a3e 5f21 153e 8568 54be 63d3 80be
00000180: b4c6 b23e 2d51 523e a48d b03e 2fb3 b5be
00000190: 84e9 d1be fd04 a3be e214 db3e 4445 0e3f
000001a0: cf1c 183d 59a8 0b3e a973 8abb eaed fb3e
000001b0: c73a a03e 874b 8bbe ebef 8f3e 511a cabe
000001c0: 62e7 133e 2648 ef3e 53f1 103e 0155 d6be
000001d0: 310e 44be 1fd6 333e 833b 373f a787 073f
000001e0: ce0c bbbd 3363 40bf 7923 3cbf e381 f23d
000001f0: f0d2 01bf 4741 d4be 0397 443f ffb6 493e
00000200: 66f0 eb3e d088 29bd a17e 053f 5aec 13bf
00000210: 7a2e d33e b533 12be 2bb0 7fbe 92a6 02bf
00000220: b06e 78be 41d1 41bf 1c40 d0bd 5a72 e73e
00000230: 2d2d 543e 346f 373f bcc9 2ebf 0926 5a3e
00000240: 5906 38be 52eb ff3d 8d7d 303e 0f81 b73d
00000250: 4601 ba3e 0b3b cebd a2f8 44be de83 63bf
00000260: 74e0 ae3d 320e 843d 7ded a7be e022 0cbf
00000270: fa01 0bbf 769f 66bd 8864 89bd 244a cdbe
00000280: c0c8 da3d 4b16 9fbd 30e0 433f 7e51 a83d
00000290: f560 f7be 84fa c43e 6ca6 8fbd 9840 dd3e
000002a0: 253e 5ebf 9018 18be 4d80 8a3e 1b50 b43e
000002b0: c3a7 07be 8413 9cbe 5660 45bf d10d 74be
000002c0: c000 a0be c60e f23e 9062 c13e edb9 46be
000002d0: b576 66bd eb2f 10bf 9642 023e 9f78 4ebe
000002e0: ddde ec3e 90fb 23bd 0bc8 f23e e6ee a13e
000002f0: 9564 2a3d 0197 06bf 9003 e03d 72af 4b3d
00000300: b7d5 9ebe 01b0 8ebe 6698 79be 2745 87be
00000310: 796b cb3e 097f 8c3e 2530 173f 0ba0 58be
00000320: fafb 723f 9d5b 7cbf 1812 e63e 17bd 2c3f
00000330: c66f dc3d 719d 0e3f cecd 0f3f 870b 56bf
00000340: 7c14 efbd db9d d83d e1cd d9bd 64d2 a83d
00000350: 3cb6 8b3e e155 e13d 9188 eb3e a02e 79be
00000360: 9944 82be 7a35 9b3d b60d 6dbd bd96 c1be
00000370: d687 5abe 593b 073e ef14 84be 32ee 9abe
00000380: 8827 31bd 8ed4 cd3e 92cb 953d 9c04 b5be
00000390: 5d40 45be f197 7f3e fe67 a3be 21fc e5bd
000003a0: 8d40 a3bf 28d0 a8be 2b63 353d 2967 1d3e
000003b0: 08fd 0fbe ead5 353d 338b 523e d6b5 4cbe
000003c0: 72ab 2b3c 887c 24bf e64e 133f 6e65 143f
000003d0: 28b9 3c3e 33f9 13bf 6b87 2bbd b29a 213f
000003e0: 86ba 92be 7407 5c3e 637b 85be 88b7 db3e
000003f0: 15bc 8bbe ff54 963e 0a6e 95bd bda1 e33e

network_body.linear_encoder.seq_layers.2.bias f4 [128]
0.0095706815 0.0027318562 -5.733806e-05 0.0011081512 0.007143121 0.0017228095 0.0043558176 -0.003673827
0.0004441409 -0.0026924612 0.0056246025 -0.004245498 -0.003177526 -0.00042235845 -0.0035413436 -0.0045546577
-0.0007649364 0.0005476725 -0.0022627204 0.0031093238 -0.0052109123 0.0043750345 0.002828535 -0.0007727318
-0.0070933155 -0.0034082243 -0.004221808 -0.0016947952 -0.009658952 0.007304296 0.0015996132 -0.0039175563
0.005391099 0.0008381172 -0.0019953086 0.0046597556 0.0037262377 0.0046050255 -0.005578557 -0.0016671682
0.0025704682 -0.0032008705 -0.005477472 -0.006415505 0.0038576247 0.0011765023 -0.0012398092 -0.004302128
-0.00432089 -0.0011992768 0.0029804204 0.0033441726 5.387149e-05 0.0029786597 -0.00031408033 0.002537855
-0.0026987353 -0.01014651 0.0037438 -0.00398632 0.0016386587 0.00050470914 0.0057857228 0.0013193982
-0.00303817 -0.00075252 -0.0044587753 0.00511301 0.002142489 0.002375082 0.0025254744 0.004339223
-0.0033488644 0.00338582 0.0039558634 0.0022886284 -0.0038072944 0.0017268724 -0.006068518 0.0050945855
-0.0036828713 0.0023414558 0.0049502025 -0.0048013763 0.0009724112 0.00012372201 -0.0031558922 0.004021935
-0.0055057486 -0.0025539834 -0.00090212456 0.0044966033 0.0026672545 -0.004048216 0.0052686227 -0.0023764244
-0.005490193 0.0069499156 0.0012747436 -0.00612721 -0.009508555 -0.00050512736 0.0063039176 0.003579112
0.003496437 0.0038643624 0.010997008 -0.005265358 0.0032916125 0.0064625214 -0.006484126 0.0003756076
0.0030005493 0.0006646829 6.260215e-05 -0.0071502137 -0.0029881585 0.0041983947 0.0031303563 -0.0058335173
-0.0032776569 -0.00036743842 0.0010736255 -0.007856578 -0.0061893757 0.005461051 -0.0026810248 -0.004673699
00000000: 59ce 1c3c f108 333b 467e 70b8 623f 913a
00000010: d810 ea3b e5cf e13a 3fbb 8e3b 97c4 70bb
00000020: 95db e839 0174 30bb 964e b83b d21d 8bbb
00000030: 0a3e 50bb fe6f ddb9 e315 68bb 3d3f 95bb
00000040: 0386 48ba ae91 0f3a 264a 14bb ccc5 4b3b
00000050: 4dc0 aabb 735c 8f3b f15e 393b 2791 4aba
00000060: 0b6f e8bb 845c 5fbb 1857 8abb e423 deba
00000070: 9540 1ebc e058 ef3b 1daa d13a d85e 80bb
00000080: d1a7 b03b 18b5 5b3a b9c3 02bb ddb0 983b
00000090: e533 743b c1e5 963b 54cc b6bb e284 daba
000000a0: 4d75 283b b2c5 51bb 5e7c b3bb 2839 d2bb
000000b0: 34d0 7c3b de34 9a3a 1881 a2ba def8 8cbb
000000c0: 4196 8dbb 0d31 9dba 2853 433b e829 5b3b
000000d0: 12f4 6138 9e35 433b 26ab a4b9 2452 263b
000000e0: 44dd 30bb 8c3d 26bc 8b5a 753b ad9f 82bb
000000f0: 43c8 d63a 754e 043a 2996 bd3b a8ef ac3a
00000100: 091c 47bb c344 45ba eb1a 92bb 098b a73b
00000110: 0069 0c3b 44a7 1b3b 6e82 253b 0a30 8e3b
00000120: 9f78 5bbb a2e4 5d3b 30a0 813b d0fc 153b
00000130: cd83 79bb 3958 e23a 6bda c6bb 7bf0 a63b
00000140: 545c 71bb 1c73 193b 4f35 a23b dd54 9dbb
00000150: 69e9 7e3a 60bb 0139 16d3 4ebb 70ca 833b
00000160: 9169 b4bb bb60 27bb 8e7c 6cba 3e58 933b
00000170: 1bcd 2e3b e6a6 84bb 69a4 ac3b c9bd 1bbb
00000180: 14e7 b3bb 1ebc e33b 4c15 a73a c3c6 c8bb
00000190: c5c9 1bbc 866a 04ba 1891 ce3b 898f 6a3b
000001a0: 7b24 653b 3e41 7d3b cb2c 343c 0689 acbb
000001b0: 18b8 573b 8fc3 d33b cb78 d4bb 33ed c439
000001c0: dda4 443b 1d3e 2e3a 4649 8338 574c eabb
000001d0: fbd4 43bb b092 893b aa26 4d3b 1727 bfbb
000001e0: f5cd 56bb c0a4 c0b9 e5b8 8c3a e0b8 00bc
000001f0: 3fd0 cabb 9ef2 b23b 22b4 2fbb d425 99bb

network_body.linear_encoder.seq_layers.2.weight f4 [128, 128]
-0.0685157 -0.014277238 0.03364682 0.04044632 -0.114898 -0.15243375 0.08475539 -0.029776579
-0.005631615 0.045494013 -0.04353148 0.100446954 -0.0016319876 0.011437571 -0.018283319 -0.10997804
-0.12224406 -0.15682428 0.02669228 0.023850907 -0.18858263 0.0144098075 -0.03696794 0.034548994
0.06983734 -0.046675898 -0.072402135 0.0880258 -0.02854976 -0.117462814 0.12727842 0.020944579
0.14361866 -0.0703813 -0.07141169 0.034449797 -0.011836883 0.15444472 0.04755705 -0.062436134
0.038548574 0.16074778 -0.0074868 -0.08048456 0.002463685 0.027194338 -0.0050577703 0.03837555
0.07522323 -0.015269415 0.032565862 -0.0016679526 -0.041881718 0.03174088 0.025733875 -0.15492809
0.16321498 0.07674243 0.012757774 0.09594171 -0.0070012915 -0.1965847 0.086536914 0.118210375
-0.026479123 -0.08896458 -0.11624686 0.09712595 0.015169535 0.04471404 -0.16909859 -0.0032489249
0.08914655 -0.013375418 0.04493135 0.08460712 0.06713368 0.20312242 0.11971776 -0.09497877
0.13864303 0.04319512 -0.0031536908 -0.15351303 0.05818856 -0.022831267 -0.11696359 0.062550426
-0.08042359 0.049631774 -0.00994784 0.03401786 0.20445868 0.07450557 0.02250619 -0.0092365
-0.08032434 0.069333404 -0.030786533 0.0027514403 -0.1440218 0.0154050095 0.011823516 0.022057557
-0.042571492 -0.11528526 0.016757004 0.12934488 0.027995009 -0.099871375 -0.10719648 0.23120764
0.00025510712 -0.046447113 -0.011175943 0.016484229 0.10744345 -0.051875733 -0.14561322 -0.07095476
0.09656765 0.025733156 -0.097986706 -0.057489805 -0.1959059 0.020858752 0.056049727 -0.014854449
-0.054971736 0.100981966 0.07542594 0.019335503 0.059085224 0.040989526 -0.2019547 -0.15202643
0.03240423 0.12532902 -0.015545436 0.055494957 -0.1484123 -0.0074661486 -0.0047767726 0.06237097
-0.04568867 0.026124274 0.0013266754 0.01991381 -0.0091805495 -0.03339893 0.04636843 -0.02289021
0.071235284 0.08426404 0.02945532 -0.1091092 -0.09371591 -0.109322995 -0.23760013 -0.08076873
0.10729728 0.063834816 -0.14833438 0.13648781 -0.11477565 -0.21054955 -0.022891272 0.057176404
-0.033103313 -0.03782709 0.07312203 -0.02397431 0.1665961 0.1002384 -0.057378903 -0.10002494
0.0743349 0.020414082 0.025483333 0.047366012 0.03802804 -0.15982541 -0.041115068 0.07735541
0.07437632 -0.085577026 -0.0073887403 0.034760904 -0.0109986765 0.097654924 -0.015297513 0.011970618
-0.07888211 -0.033649284 -0.017313672 -0.16828167 -0.0067196507 0.0006235619 -0.014936799 0.01574839
0.20821218 0.07603373 -0.009304724 -0.014016285 -0.05071568 -0.025000328 0.009424539 0.20176218
0.18541692 -0.039084986 -0.06971374 -0.06208518 0.06875403 -0.05325482 -0.13253367 0.031359717
-0.08621157 0.019609416 0.13867933 0.066901565 -0.0051140967 -0.007065448 -0.050792746 0.024412472
-0.13019723 -0.0048685633 0.01972627 -0.0356465 -0.005575063 0.090370275 0.022894476 0.071762785
-0.059710234 0.16996358 0.03229332 0.037644483 -0.30833346 0.010067912 0.12549697 0.046877787
0.1044288 0.10353174 0.032620586 0.0117578115 0.041107867 -0.18383563 -0.074232586 0.14901909
-0.042285334 -0.00090139447 0.074430406 -0.07068423 0.17763422 -0.103716455 0.06773769 0.023314148
00000000: f651 8cbd 14eb 69bc 3fd1 093d 0aab 253d
00000010: a54f ebbd 9817 1cbe 3c94 ad3d 03ee f3bc
00000020: 6989 b8bb ee57 3a3d 114e 32bd 22b7 cd3d
00000030: 6be8 d5ba a664 3b3c e6c6 95bc 2b3c e1bd
00000040: 185b fabd 8b96 20be c5a9 da3c fa62 c33c
00000050: ce1b 41be 1d17 6c3c b26b 17bd 3f83 0d3d
00000060: e106 8f3d 3a2f 3fbd 9247 94bd df46 b43d
00000070: 30e1 e9bc 5890 f0bd 4655 023e f793 ab3c
00000080: c510 133e 1224 90bd 4b40 92bd 3b1b 0d3d
00000090: 7cef 41bc c226 1e3e 2ecb 423d 08bd 7fbd
000000a0: 1ce5 1d3d 119b 243e d553 f5bb 17d5 a4bd
000000b0: c775 213b a9c6 de3c a7bb a5bb ae2f 1d3d
000000c0: a30e 9a3d 922c 7abc c863 053d 349f daba
000000d0: 2a8c 2bbd ba02 023d d9cf d23c 78a5 1ebe
000000e0: d421 273e 232b 9d3d fc05 513c 167d c43d
000000f0: 176b e5bb 804d 49be 443a b13d 4818 f23d
00000100: bfea d8bc 1033 b6bd d512 eebd f8e9 c63d
00000110: a489 783c 1226 373d 2e28 2dbe eaeb 54bb
00000120: 7792 b63d 9224 5bbc ef09 383d 7f46 ad3d
00000130: 627d 893d 53ff 4f3e 962e f53d 3b84 c2bd
00000140: 70f8 0d3e 5eed 303d 27ae 4ebb 8532 1dbe
00000150: 2157 6e3d a308 bbbc 9b8a efbd 701a 803d
00000160: 20b5 a4bd b04a 4b3d 44fc 22bc 5056 0b3d
00000170: 9e5d 513e 6096 983d e75e b83c b054 17bc
00000180: 1681 a4bd acfe 8d3d 0a34 fcbc 8251 343b
00000190: 737a 13be 4b65 7c3c 6cb7 413c 0db2 b43c
000001a0: 725f 2ebd ae1a ecbd fc45 893c fc72 043e
000001b0: ca55 e53c 5d89 ccbd d489 dbbd b2c1 6c3e
000001c0: e6bf 8539 543f 3ebd 4d1b 37bc ef09 873c
000001d0: 500b dc3d a67b 54bd a21b 15be bb50 91bd
000001e0: 43c5 c53d 57ce d23c 41ad c8bd 6e7a 6bbd
000001f0: 8e9b 48be f9df aa3c 6694 653d 1360 73bc
00000200: 0b2a 61bd a2cf ce3d ea78 9a3d 7d65 9e3c
00000210: 5903 723d a2e4 273d 36cd 4ebe d1ac 1bbe
00000220: 4cba 043d 4056 003e 49b2 7ebc ae4e 633d
00000230: 65f9 17be 98a6 f4bb 7986 9cbb b478 7f3d
00000240: 0b24 3bbd 9302 d63c d7e3 ad3a 4922 a33c
00000250: 046a 16bc 51cd 08bd d3ec 3d3d 4084 bbbc
00000260: cee3 913d a092 ac3d 494c f13c a574 dfbd
00000270: 21ee bfbd bce4 dfbd 734d 73be 136a a5bd
00000280: adbe db3d d4bb 823d f8e4 17be 76c3 0b3e
00000290: 7f0f ebbd 4d9a 57be 7a86 bbbc ce31 6a3d
000002a0: 5797 07bd 94f0 1abd 01c1 953d c665 c4bc
000002b0: 2b98 2a3e ca49 cd3d 2406 6bbd e0d9 ccbd
000002c0: e53c 983d 6f3b a73c 6cc2 d03c dd02 423d
000002d0: 4ac3 1b3d 46a9 23be 4668 28bd 836c 9e3d
000002e0: 9d52 983d 0243 afbd 3f1d f2bb 7361 0e3d
000002f0: cb33 34bc 4eff c73d 6ca2 7abc 6920 443c
00000300: f28c a1bd d5d3 09bd 67d5 8dbc 0852 2cbe
00000310: 8430 dcbb 8876 233a 7ab9 74bc c502 813c
00000320: 9335 553e 92b7 9b3d d772 18bc 8fa4 65bc
00000330: 3fbb 4fbd 7dcd ccbc 6269 1a3c bf9a 4e3e
00000340: efdd 3d3e 9417 20bd 14c6 8ebd 084d 7ebd
00000350: eace 8c3d ba21 5abd e8b6 07be 0c73 003d
00000360: b18f b0bd eda3 a03c f401 0e3e b003 893d
00000370: 2794 a7bb 4685 e7bb 0e0c 50bd aafc c73c
00000380: 6c52 05be 7888 9fbb fd98 a13c 1002 12bd
00000390: 05af b6bb 0d14 b93d 328d bb3c 5ef8 923d
000003a0: b892 74bd ef0a 2e3e 0046 043d 1a31 1a3d
000003b0: e2dd 9dbe e2f3 243c 4782 003e ec02 403d
000003c0: c4de d53d 7308 d43d 2a9d 053d d6a3 403c
000003d0: b960 283d 683f 3cbe 4107 98bd 7698 183e
000003e0: 6333 2dbd 8f4b 6cba f86e 983d e5c2 90bd
000003f0: bfe5 353e 4b69 d4bd 0fba 8a3d 50fd be3c
