results/Random/MoveToGoal/checkpoint.pt (torch, 439199 bytes, 36 tensors)

network_body.linear_encoder.seq_layers.0.weight f4 [128, 6]
0	0x3ea5ca0c	0.32380712
1	0x3ed63db2	0.41843945
2	0xbed22da6	-0.41050452
3	0xbe833d27	-0.25632593
4	0xbe1fc4b6	-0.15602383
5	0x3f990100	1.195343
6	0xbf75c7a6	-0.96007764
7	0xbe3506df	-0.17678402
8	0xbf3dc566	-0.7412933
9	0x3e9b0d16	0.3028342
10	0xbf0f3d7a	-0.5595318
11	0x3e91a446	0.28445643
12	0xbece8b8d	-0.40340844
13	0xbeb116d7	-0.34587738
14	0x3e3b7f5d	0.18310304
15	0x3e3660d4	0.17810374
16	0xbe2aa660	-0.1666503
17	0x3ed2e0f7	0.4118726
18	0xbdbf7d0c	-0.09350023
19	0xbf0e5f16	-0.5561384
20	0x3d3f67ce	0.046729855
21	0xbe4097f7	-0.1880797
22	0xbe7f73eb	-0.24946563
23	0xbe55a9f7	-0.20865618
24	0xbeb9523a	-0.36195546
25	0xbc1b1cfa	-0.009467358
26	0x3d118c38	0.035534114
27	0x3f2904e7	0.66023105
28	0xbe555278	-0.2083224
29	0x3ebdf551	0.37101224
30	0xbdf76b7e	-0.120810494
31	0x3f0c3a00	0.54776
32	0x3ed36522	0.41288096
33	0xbe9832c0	-0.2972622
34	0x3d725c09	0.059169803
35	0xbeba6a71	-0.36409333
36	0xbe91e5d1	-0.28495649
37	0xbf5656c9	-0.83726174
38	0x3eefa44f	0.46805045
39	0xbeb11b59	-0.34591177
40	0x3efbdd6b	0.49192366
41	0x3db73881	0.08946324
42	0xbe9c7932	-0.30561215
43	0x3e372fec	0.17889374
44	0x3e234993	0.15946035
45	0x3e86d894	0.2633711
46	0x3af7c99f	0.0018904692
47	0x3ea307ed	0.31841984
48	0xbefd1a60	-0.49434185
49	0x3dfe0703	0.12403681
50	0x3da34aac	0.07973227
51	0xbea893c1	-0.32925227
52	0xbe879051	-0.26477292
53	0xbeed0fe7	-0.46301195
54	0xbd552f69	-0.052047167
55	0x3a704c8e	0.0009166681
56	0xbf7e8929	-0.9942804
57	0x3ed7008b	0.41992602
58	0xbf1ee3ae	-0.6206616
59	0xbed69b3c	-0.4191531
60	0xbea476fa	-0.32122022
61	0xbd9e2a09	-0.07722861
62	0xbeba94b1	-0.36441568
63	0x3e049e35	0.12950976
64	0xbedc46ba	-0.4302271
65	0xbf01e61a	-0.5074173
66	0x3d59e15c	0.053193435
67	0x3f68da42	0.90958035
68	0xbe034c75	-0.12822135
69	0xbd699c2c	-0.057033703
70	0xbe1b9993	-0.15195303
71	0xbdad73b5	-0.08469335
72	0xbeddb2ec	-0.4330057
73	0x3e8873c3	0.2665082
74	0x3eb5547f	0.35416028
75	0xbf1308b3	-0.5743515
76	0x3dffe5ae	0.1249498
77	0xbef6087e	-0.48053354
78	0x3eb23ac2	0.34810454
79	0xbe180151	-0.14844252
80	0x3d85cb15	0.065328754
81	0xbf09adf8	-0.5378108
82	0xbec9c441	-0.39407542
83	0xbd212216	-0.039339148
84	0xbeacb61d	-0.3373269
85	0x3e6ce1a8	0.23132956
86	0x3f7c1ffe	0.98486316
87	0x3e52273b	0.20522778
88	0x3e3ee7e4	0.18643147
89	0x3c140b9d	0.009035972
90	0xbe4546cb	-0.19265287
91	0xbf3c1020	-0.73462105
92	0x3f20cf1c	0.62816024
93	0xbf0db989	-0.5536123
94	0x3f607d63	0.87691325
95	0xbf136667	-0.5757813
96	0x3f77e4e0	0.9683361
97	0x3ec6bd50	0.3881631
98	0xbf43b9d1	-0.7645541
99	0x3f8490f7	1.035674
100	0xbf3dfb10	-0.74211216
101	0x3eb6ccdb	0.35703167
102	0xbd7b96f1	-0.061423246
103	0x3e9f02c4	0.31056798
104	0x3e31553a	0.17317668
105	0xbd82fbf2	-0.06395711
106	0x3e5f70ef	0.21820424
107	0x3f1039a8	0.56337976
108	0xbf5e0f16	-0.8674177
109	0x3e9b0044	0.3027364
110	0x3cf6bf43	0.030120498
111	0x3eb5a65a	0.3547848
112	0xbeb4a5a5	-0.35282627
113	0x3ab5f976	0.0013883549
114	0xbe146b37	-0.14494024
115	0xbdc0bc65	-0.094109334
116	0xbf02fe0e	-0.51168907
117	0x3eac001b	0.3359383
118	0x3e5ca64d	0.21547814
119	0xbe4f3183	-0.20233731
120	0xbf6cb488	-0.9246297
121	0xbecbf750	-0.39837122
122	0xbe926a22	-0.28596598
123	0x3dce722b	0.100803696
124	0xbe587726	-0.21139202
125	0x3f222f30	0.6335325
126	0x3da360fb	0.07977482
127	0x3f0a59cd	0.54043275
128	0xbd9bce31	-0.07607687
129	0x3eba2cc2	0.36362273
130	0x3eda5fb0	0.4265113
131	0x3f1b0dd5	0.6056798
132	0xbdb19e20	-0.08672738
133	0xbed66689	-0.41875103
134	0xbe8c6642	-0.27421767
135	0x3e8eb571	0.27872804
136	0x3ef5c45f	0.48001382
137	0xbe556b16	-0.20841631
138	0x3e93ead1	0.28890088
139	0xbf71ff27	-0.94529957
140	0x3dd8ead5	0.10591666
141	0xbf788313	-0.97075003
142	0x3dfd5d89	0.12371356
143	0x3b92a981	0.004475773
144	0xbe8f6c19	-0.2801216
145	0x3e81c5cd	0.25346223
146	0x3ea6c27a	0.3257025
147	0x3e0a71d7	0.13519989
148	0xbeed975d	-0.46404544
149	0x3f53fa87	0.8280415
150	0xbe2b90f8	-0.1675452
151	0xbec48659	-0.3838375
152	0x3d49352a	0.049122967
153	0xbeaa9d84	-0.333233
154	0xbf6a9087	-0.9162678
155	0xbea36f1f	-0.31920716
156	0xbee7edfb	-0.45298752
157	0xbe87709c	-0.26453102
158	0xbeed91ae	-0.46400207
159	0x3ef62b96	0.48080128
160	0xbf1e14bf	-0.61750406
161	0xbeb2c2bf	-0.34914204
162	0xbe868f8b	-0.2628139
163	0x3e3ea96a	0.18619314
164	0x3e49889e	0.19681022
165	0x3e786348	0.24256623
166	0xbf2d7cf9	-0.6776882
167	0x3f17b99a	0.5926758
168	0x3daa42d8	0.08313531
169	0xbeb2bf78	-0.34911704
170	0x3e7a5549	0.24446596
171	0x3e4f895c	0.20267242
172	0xbf8cd620	-1.1002846
173	0xba5c6196	-0.00084068754
174	0xbe4590a7	-0.19293462
175	0xbf63f9d0	-0.8905306
176	0xbdc881e4	-0.097904
177	0x3e4f3394	0.20234519
178	0xbe8810dd	-0.26575366
179	0x3e4aa8ed	0.19791003
180	0xbde6acca	-0.11263426
181	0xbf1a0ff2	-0.6018058
182	0x3d958242	0.07300235
183	0x3dbf045d	0.09327004
184	0xbe25820f	-0.16162895
185	0x3f1f42ec	0.6221149
186	0xbe9b76a6	-0.3036396
187	0xbe91cf54	-0.2847849
188	0xbf014660	-0.5049801
189	0x3e1bdcb9	0.15220918
190	0xbcd0dd91	-0.025496276
191	0x3e352d67	0.17693101
192	0xbf1a325a	-0.6023308
193	0x3e7ac479	0.24489011
194	0x3db37c1a	0.08763905
195	0x3d24a3e0	0.040195346
196	0xbf24d31d	-0.64384633
197	0xbe5850e6	-0.2112461
198	0xbe8dab15	-0.27669588
199	0xbe9a57a1	-0.3014498
200	0x3da5e28e	0.080998525
201	0xbf1e7c5d	-0.61908513
202	0x3e937a64	0.28804314
203	0x3f3a6f41	0.7282601
204	0xbf624850	-0.8839159
205	0x3f1a94bf	0.6038322
206	0x3f29451d	0.66121083
207	0xbcbf4a16	-0.023350757
208	0x3f072a2d	0.5279873
209	0x3ee0fd12	0.43943077
210	0xbe460bd2	-0.19340447
211	0xbf5bdeb4	-0.85886693
212	0xbe8b1536	-0.2716462
213	0xbd4218f4	-0.04738708
214	0xbf454832	-0.77063286
215	0x3f1de345	0.6167491
216	0x3d9939d7	0.07481735
217	0xbf0d5893	-0.5521328
218	0xbe7afc1b	-0.24510233
219	0x3ed21339	0.4103029
220	0xbe66fa1b	-0.22556345
221	0xbe5b906e	-0.21441814
222	0x3f6f26ef	0.9341878
223	0xbde4772b	-0.11155542
224	0x3e98de36	0.29857033
225	0x3f22dedf	0.63621324
226	0xbe86c88f	-0.2632489
227	0x3e462f4f	0.19353984
228	0xbf33de20	-0.7026081
229	0x3f05aaad	0.52213556
230	0xbf0e3828	-0.5555444
231	0xbe9a499f	-0.30134293
232	0x3caa67c1	0.020801427
233	0xbefaa3e5	-0.48953167
234	0x3e2dbb3d	0.16965957
235	0x3f9e1985	1.2351538
236	0x3f1f8b91	0.62322336
237	0xbc40034e	-0.011719538
238	0xbe6ba9ea	-0.23014036
239	0xbdc42454	-0.095772415
240	0x3eb078fd	0.34467307
241	0x3e9a45c8	0.30131364
242	0xbd903387	-0.07041078
243	0xbefa503c	-0.4888934
244	0xbe5aa639	-0.21352471
245	0x3eac55f1	0.33659318
246	0x3dd3589e	0.10319637
247	0x3ee3f791	0.44524816
248	0x3eaa4868	0.33258367
249	0x3cf84651	0.030306967
250	0xbeaffff3	-0.3437496
251	0xbc8bd4ba	-0.01706921
252	0xbe8b69e4	-0.27229226
253	0xbeeddacb	-0.46455988
254	0x3e19c73d	0.1501741
255	0xbe72b4be	-0.2370176

network_body.linear_encoder.seq_layers.0.bias f4 [128]
0	0xbcca39be	-0.024685737
1	0x3bdf0e8a	0.006807153
2	0xbd0a793a	-0.033807017
3	0xbdcf8eed	-0.10134683
4	0xbd1cedf3	-0.038312864
5	0xbd1a6f2f	-0.03770369
6	0x3a326055	0.0006804516
7	0x3c6a75b9	0.014310294
8	0xbd9ce713	-0.076612614
9	0xbdc3a16d	-0.09552274
10	0xbd1ef96d	-0.03881209
11	0xbd3bd707	-0.045859363
12	0xba08d22f	-0.0005219308
13	0xbc3e9275	-0.011631598
14	0xbd3c33f9	-0.045948002
15	0x3d394f35	0.045241553
16	0xbc9fce97	-0.01950769
17	0xbd0fbb69	-0.035090838
18	0xbc6b271a	-0.014352584
19	0xbd0e6cca	-0.034771718
20	0x3beb03c4	0.0071720798
21	0xbcdd1a7a	-0.026990164
22	0xbb2e8e78	-0.002663521
23	0xbd8d7ec7	-0.069089465
24	0xbd0b95e3	-0.03407849
25	0xbdacf213	-0.084446095
26	0xbc35b24f	-0.011089875
27	0xbc8a7cc6	-0.0169052
28	0xbd8534a5	-0.06504182
29	0xbd8afcd7	-0.067865066
30	0xbc3947d3	-0.011308628
31	0x3c32a055	0.010902484
32	0x3c88fb4f	0.016721396
33	0xbc4b19bd	-0.012396273
34	0x3a3bb192	0.0007159944
35	0xbbf86a8e	-0.0075810617
36	0xbd621c7d	-0.05520295
37	0xbcd6d9a0	-0.026226819
38	0xbcf87597	-0.030329509
39	0xbca90f5c	-0.020637207
40	0xbbc59684	-0.0060299058
41	0xbd4b6aa2	-0.04966224
42	0x3cbcc9ee	0.023045506
43	0xbd1efd7c	-0.03881596
44	0x3b699e62	0.0035647382
45	0xbd946ae8	-0.07246953
46	0xbc47b03e	-0.0121880155
47	0xbc9b3c8b	-0.018949768
48	0xbd4209e1	-0.047372703
49	0x3d04df15	0.03243931
50	0xbd95e272	-0.07318582
51	0xbc9cbda1	-0.01913339
52	0xbd839eea	-0.06426795
53	0xbdd30e1e	-0.10305427
54	0x3c844f45	0.01615108
55	0xbc8ed509	-0.017435567
56	0xbd2fde6b	-0.042936724
57	0x3ce3c93d	0.027805919
58	0xbd1a460e	-0.037664466
59	0xbcfeb1e2	-0.03109068
60	0xbd557a3a	-0.052118517
61	0xbd08579d	-0.03328668
62	0xbd9a0cb8	-0.07521957
63	0xbcff80c8	-0.031189337
64	0x3acfddea	0.0015858982
65	0x3d3b5cb9	0.045742724
66	0xbb7cd2dd	-0.0038577833
67	0x3ca5888e	0.020206716
68	0x3a3f86b8	0.00073061464
69	0xbd7acbce	-0.06122952
70	0xbd33b4de	-0.04387366
71	0xbcd015f9	-0.025401102
72	0xbdbe7df5	-0.09301368
73	0xbd56656a	-0.05234281
74	0x3c6e7a89	0.014555582
75	0xbcfc8c98	-0.03082876
76	0xbd16e9b2	-0.036843963
77	0xbce2d616	-0.027689975
78	0xbc97ba53	-0.018521463
79	0xbca714ff	-0.020395754
80	0x3c9e29a5	0.019306967
81	0xbc91b69f	-0.017787276
82	0xbaaf949a	-0.0013395727
83	0x3ca097f8	0.019603714
84	0x3c869c9e	0.016432103
85	0x3d59e04c	0.05319242
86	0xbd501377	-0.050799813
87	0xbd49f42c	-0.049305126
88	0xbd20b7c4	-0.039237753
89	0xbb5ded6b	-0.0033863436
90	0xbd6e3ac4	-0.058161512
91	0x3cfd4443	0.030916339
92	0xbdb6e99b	-0.089312755
93	0x3c89ae32	0.016806696
94	0xbd1ba110	-0.037995398
95	0xbd6f6093	-0.05844171
96	0xbd1a6325	-0.037692208
97	0x3cae829c	0.021302514
98	0xbd5df5fe	-0.054189675
99	0xb87480f3	-5.8294227e-05
100	0xbc945d02	-0.018110756
101	0xbd58a361	-0.052890185
102	0xbcca97e8	-0.024730638
103	0x3b41c863	0.0029568903
104	0xbcee23a5	-0.029069731
105	0xbcf4ec63	-0.029897874
106	0x3cfa6d9d	0.030569846
107	0xbd59f1e8	-0.053209215
108	0x3cb899d8	0.022534296
109	0xbdbe91ef	-0.093051784
110	0xbce2e797	-0.027698321
111	0xbc93a3ae	-0.018022384
112	0xbcc5bdf2	-0.024138425
113	0xbdb35e7f	-0.08758258
114	0xbdb65b42	-0.08904125
115	0xbd31cc83	-0.04340793
116	0xbd7d8734	-0.061896518
117	0x3bdf1095	0.0068073967
118	0xbd841d1f	-0.06450867
119	0xbd02f958	-0.031976074
120	0xbd7b49f7	-0.061349835
121	0xbbce6ae8	-0.0062993653
122	0x3bd819a3	0.006594853
123	0x3d2826f5	0.041052777
124	0xbd4668cc	-0.048439786
125	0xbd88e565	-0.066843785
126	0xbce5c3de	-0.028047498
127	0xbdafe3db	-0.08588382

network_body.linear_encoder.seq_layers.2.weight f4 [128, 128]
0	0x3dc9b1db	0.09848376
1	0x3d935eb5	0.07195798
2	0xbc909600	-0.01764965
3	0xbd64b37a	-0.055835225
4	0xbdc93c59	-0.098259635
5	0xbd7ca573	-0.061681222
6	0x3d5eaecb	0.054365914
7	0xbe758fdd	-0.2398066
8	0x3debb3ea	0.11508925
9	0xbce989ca	-0.028508086
10	0x3dafc6a2	0.08582808
11	0xbbb81b9e	-0.0056185266
12	0xbd13a868	-0.036049277
13	0xbdc31094	-0.095246464
14	0xbd1ccb79	-0.038279984
15	0x3ddb203c	0.106995076
16	0x3e0b2a06	0.1359025
17	0xbc759487	-0.014989025
18	0xbb3a9ed7	-0.0028476024
19	0x3da53e08	0.08068472
20	0xbbd6494f	-0.006539501
21	0x3d2bf80e	0.04198461
22	0x3dcdd23d	0.100498654
23	0x3d53a326	0.051669262
24	0xbe44fba2	-0.19236615
25	0xbd0f809d	-0.035034765
26	0x3e101ff1	0.14074685
27	0x3deefe90	0.11669648
28	0x3dd3381b	0.10313436
29	0x3c95fed1	0.018309982
30	0xbc949cf9	-0.018141257
31	0x3c5315fd	0.01288366
32	0x3e075523	0.13216071
33	0xbe2c5039	-0.16827478
34	0xbd7d9e69	-0.06191865
35	0xbd87f088	-0.066376746
36	0x3beee638	0.007290628
37	0xbe51fd3b	-0.20506756
38	0x3df05810	0.117355466
39	0xbd6df879	-0.05809829
40	0x3d21d584	0.039510265
41	0xbe1f42aa	-0.15552774
42	0x3d2d952b	0.042378586
43	0xbe086065	-0.13318022
44	0x3cd7e43c	0.026353948
45	0xbc2cf465	-0.010556315
46	0x3e15252f	0.14564966
47	0xbe62931e	-0.22126433
48	0x3d808dc3	0.06277039
49	0xbdb3bbc8	-0.08776051
50	0x3ccca37d	0.024980301
51	0xbdc66814	-0.0968782
52	0x3d233159	0.039841983
53	0x3cb771af	0.022393076
54	0x3cc8e298	0.02452211
55	0xbdfa44b5	-0.12220136
56	0xbd2c4515	-0.04205807
57	0xbd443f5b	-0.047911983
58	0x3ccc51b4	0.024941303
59	0xbdf2cd33	-0.11855545
60	0xbe155e44	-0.1458674
61	0xbd4ab082	-0.049484737
62	0xbe05aa5b	-0.13053267
63	0xbdea9575	-0.11454288
64	0x3d959ac4	0.0730491
65	0x3d98a77d	0.07453821
66	0xbe1e96d7	-0.15487228
67	0xbe1d368b	-0.15352838
68	0xbc5fa06d	-0.013649088
69	0x3d1e7a3e	0.038690798
70	0x3dd30e8f	0.10305511
71	0xbcc0b608	-0.0235243
72	0x3dc2de95	0.095151104
73	0x3d952c1d	0.072838046
74	0x3dd9c67f	0.10633563
75	0x3d9bf23b	0.07614561
76	0x3dfb1d36	0.12261431
77	0xbe1cc450	-0.15309262
78	0xbd766ef8	-0.06016442
79	0xbd0a64f0	-0.033787668
80	0xbda4ed90	-0.08053124
81	0xbd6d0103	-0.057862293
82	0x3d980757	0.07423275
83	0xbe409adb	-0.18809073
84	0xbe7e9e86	-0.2486516
85	0x3e0e6d71	0.13908936
86	0x3d5e8107	0.05432227
87	0x3d2e48f6	0.04255005
88	0xbe5b9b74	-0.2144602
89	0xbd0c7a29	-0.03429619
90	0x3cde321c	0.027123503
91	0xbc2fd10b	-0.010730992
92	0xbd9c1806	-0.076217696
93	0xbe168d6c	-0.14702386
94	0x3d10759d	0.035268415
95	0x3c94fca1	0.01818687
96	0x3d1dface	0.038569264
97	0xbc1d909b	-0.009616996
98	0x3cf040cd	0.029327774
99	0x3b95bb70	0.0045694634
100	0x3b97f3ae	0.004637203
101	0x3ca09364	0.019601531
102	0x3e06e9f7	0.13175188
103	0xbd4d14a7	-0.050068524
104	0xbd706b33	-0.058695983
105	0xbb3ec742	-0.0029110466
106	0xbd90d383	-0.07071593
107	0x3b8b840c	0.0042576846
108	0x3e1b9187	0.15192233
109	0x3c42b78b	0.01188458
110	0xbd6b5892	-0.057457514
111	0xbd1edde9	-0.03878585
112	0xbcde5d4c	-0.027144097
113	0x3dba3c31	0.09093512
114	0xbe20b7c1	-0.15695097
115	0xbe057171	-0.13031556
116	0x3e0924ac	0.13392895
117	0x3d548a0d	0.051889468
118	0x3d6f44f5	0.058415372
119	0xbe8ea15e	-0.27857488
120	0xbdcd3c10	-0.10021222
121	0x3d6ab703	0.05730344
122	0xbdc497c4	-0.095992595
123	0x3dc48219	0.09595127
124	0xbe0ad63f	-0.13558291
125	0xbd402cc0	-0.046917677
126	0x3d8702e9	0.06592352
127	0xbe0e3e7f	-0.13891028
128	0xbd4165fc	-0.0472164
129	0x3ce07100	0.027397633
130	0x3e49288d	0.19644375
131	0xbc271000	-0.010196686
132	0xbc5fcf8d	-0.013660324
133	0xbc7d62a7	-0.015465415
134	0xbe430613	-0.19045286
135	0xbc342e6a	-0.010997394
136	0xbe03e2d7	-0.12879501
137	0x3e148271	0.14502884
138	0x3d49db87	0.049281623
139	0xbcdd22a0	-0.02699405
140	0xbdcd7b2b	-0.10033258
141	0x3d6d3443	0.05791117
142	0xbe047a9d	-0.12937398
143	0xbdda6b9b	-0.10665055
144	0x3e77e78a	0.24209419
145	0x3cf03759	0.029323267
146	0x3e16bdb3	0.14720802
147	0xbbad5a55	-0.0052903094
148	0x3cdd98c9	0.027050393
149	0xbd13300b	-0.03593449
150	0xbd2293a2	-0.039691575
151	0x3d6b237b	0.057406884
152	0x3e0b54bd	0.13606544
153	0x3e52592e	0.20541832
154	0xbe3ec0f5	-0.18628295
155	0x3dce9757	0.100874595
156	0xbd130404	-0.0358925
157	0xba4dafb2	-0.000784631
158	0x3bd68618	0.006546747
159	0x3ea00a60	0.31257915
160	0x3e2cc752	0.1687291
161	0xbc855fb5	-0.016280988
162	0x3c929640	0.01789391
163	0x3d9dda9d	0.07707713
164	0x3d31cd79	0.043408845
165	0x3c3e05bb	0.011598046
166	0x3d667095	0.05625971
167	0xbe296528	-0.16542494
168	0x3e2c4181	0.16821863
169	0xbdf4c9a2	-0.11952521
170	0x3e38a314	0.1803096
171	0x3c5e00e2	0.013550015
172	0x3d037b7c	0.032100186
173	0xbe1269ad	-0.14298125
174	0x3d9fe7e1	0.07807899
175	0xbe027f08	-0.12743771
176	0xbe1ef44c	-0.1552288
177	0xbcf93318	-0.030419871
178	0xbdcabe1e	-0.09899543
179	0xbe003c7d	-0.12523074
180	0x3cd12bd4	0.025533594
181	0xbdb4fd13	-0.088373326
182	0x3e102c9a	0.14079514
183	0x3db8f611	0.090313084
184	0xbdaab089	-0.08334453
185	0x3d26bf22	0.040709622
186	0x3d627826	0.055290364
187	0xbd0ca290	-0.03433472
188	0xbcc5b970	-0.024136275
189	0xbda4129c	-0.08011362
190	0xbdf50191	-0.119631894
191	0x3b51130b	0.003190222
192	0xbe66cd9f	-0.22539376
193	0x3c77f72b	0.015134613
194	0xbe26b15b	-0.16278593
195	0x3d94491c	0.07240507
196	0xbcf261cf	-0.029587654
197	0xbe18397d	-0.1486568
198	0x3db4ebee	0.088340625
199	0xbdf90005	-0.12158207
200	0xbe177268	-0.14789736
201	0x3d2a4f5f	0.0415796
202	0x3e35228e	0.17688963
203	0x3d17821c	0.036989316
204	0x3ce26fd9	0.027641224
205	0x3c86defd	0.016463751
206	0xbe0e0e68	-0.13872683
207	0x3cfe5301	0.031045439
208	0x3d396160	0.04525888
209	0xbe1fc177	-0.15601145
210	0xbda411b0	-0.08011186
211	0xbd693851	-0.056938473
212	0x3e005463	0.12532191
213	0xbc4400f7	-0.011963121
214	0x3dfbece4	0.12301043
215	0x3d42adbf	0.04752898
216	0xbdd683e5	-0.10474376
217	0xbc41f4a5	-0.011838113
218	0xbd0f71c7	-0.035020616
219	0x3d4c4230	0.04986781
220	0xbd504ad2	-0.050852604
221	0x3e270741	0.16311361
222	0xbde3b34c	-0.111181825
223	0x3d8822bf	0.06647252
224	0xbd9b7444	-0.07590535
225	0x3dc3e8d7	0.09565895
226	0x3cb68641	0.022280814
227	0xbdf65387	-0.1202765
228	0xbdcb5cfc	-0.09929845
229	0x3c216ed5	0.009853085
230	0xbe262b61	-0.16227485
231	0x3ddd6d48	0.10811859
232	0x3e472f64	0.19451672
233	0xbdde3b80	-0.108511925
234	0x3c8bb853	0.017055666
235	0x3da2cead	0.079495765
236	0x3bd3c6b9	0.0064628986
237	0xbdda0025	-0.10644559
238	0x3d034b93	0.032054495
239	0xbe694dee	-0.22783634
240	0xbe497c74	-0.19676381
241	0x3dcda97a	0.10042091
242	0xbd219bc8	-0.039455205
243	0xbdffd5ed	-0.12491975
244	0x3d0245d4	0.031804875
245	0xbd7b25b4	-0.061315253
246	0x3d943eb8	0.07238525
247	0xbdd40f04	-0.103544265
248	0x3da1b02e	0.07894932
249	0x3e0af79a	0.13571015
250	0xbe45fe86	-0.19335374
251	0x3e1cc345	0.15308864
252	0x3d022be4	0.03178014
253	0xbcf19758	-0.029491112
254	0xbd996a2e	-0.07490955
255	0x3dc04067	0.09387284

network_body.linear_encoder.seq_layers.2.bias f4 [128]
0	0x3c25af74	0.010112632
1	0x3c70ee3f	0.01470524
2	0x3d2aa1f2	0.04165835
3	0x3dbb7c8a	0.09154613
4	0xbd2c2aab	-0.04203288
5	0x3cfcd61a	0.03086381
6	0xbd41c95c	-0.047311172
7	0xbd07d6d3	-0.033163857
8	0xbc395704	-0.01131225
9	0xbcf3f575	-0.029780129
10	0x3ccb7bf7	0.024839384
11	0xbd52ca9b	-0.05146275
12	0xbd32600b	-0.043548625
13	0x3c8cdcad	0.01719507
14	0x3cb4cc64	0.022070117
15	0xbd85adbc	-0.06527278
16	0xbd0f2b30	-0.034953296
17	0xbbb20270	-0.0054324195
18	0xbd844686	-0.06458764
19	0xbd3a3c97	-0.04546794
20	0xbd0766d4	-0.03305705
21	0xbd9d5ce5	-0.07683734
22	0xbcf4f403	-0.02990151
23	0x3d0656f6	0.032797776
24	0xbce4be1b	-0.02792268
25	0x39c41a48	0.00037403614
26	0x3c0d89ed	0.008638841
27	0xbd56c234	-0.0524313
28	0xbc2819f9	-0.010260099
29	0xbd348bde	-0.0440787
30	0x3b51f0a1	0.0032034295
31	0x3cee8de5	0.029120395
32	0xbd24fc52	-0.040279694
33	0x391321e2	0.00014031635
34	0xbcff6fac	-0.031181179
35	0xbc9df028	-0.019279554
36	0x3c23f582	0.010007264
37	0x3cf44088	0.029815927
38	0xbd8c9ece	-0.06866227
39	0x3d77a6ba	0.060461737
40	0xbc81be61	-0.01583785
41	0xbca68699	-0.020327853
42	0xbd0844f0	-0.03326887
43	0xbc7097f6	-0.014684668
44	0xbca55891	-0.020183833
45	0xbd700f1b	-0.058608156
46	0xbcf81a1d	-0.03028589
47	0xbc02db01	-0.007986785
48	0xbcf495c7	-0.029856576
49	0x3cdfff2e	0.027343359
50	0xbd13808e	-0.03601127
51	0x3cea9c83	0.028639084
52	0x3c634f17	0.013873837
53	0xba74804f	-0.0009326981
54	0xbc075e2d	-0.008262199
55	0xbd3ee32d	-0.04660337
56	0x3d085ba0	0.033290505
57	0xbbc1717c	-0.005903421
58	0xbd2e0eca	-0.042494573
59	0xbd77c7e6	-0.060493372
60	0x3a4e146b	0.0007861319
61	0xbce8fbea	-0.028440434
62	0x3cf1f5d7	0.02953617
63	0xbd088094	-0.033325747
64	0x3c23cd11	0.009997622
65	0xbb1601ea	-0.0022889324
66	0x3c811aaa	0.015759785
67	0x3b5eb769	0.0033983833
68	0x3c15afb4	0.009136129
69	0x3c9fe7ce	0.019519713
70	0xbc1386f0	-0.00900434
71	0x3b946763	0.004528926
72	0xbccb672a	-0.024829466
73	0x3cbe56aa	0.023234684
74	0xbb146165	-0.002264106
75	0x3c921548	0.017832413
76	0x3b5e460c	0.0033916263
77	0x3b8c983c	0.0042906087
78	0xbc272183	-0.010200861
79	0x3c371e19	0.011176609
80	0xbc6252e7	-0.013813711
81	0xbbaa34a7	-0.005194265
82	0xbc3ece96	-0.011645934
83	0xbd5b0351	-0.05346996
84	0x3cb40dd5	0.021979252
85	0xbd19e8ef	-0.03757566
86	0xbc7ea710	-0.0155427605
87	0xbdae296e	-0.08503996
88	0xbaea84ea	-0.0017892395
89	0x3b42391f	0.0029636098
90	0xbdd70a8d	-0.10500059
91	0xbcf11359	-0.029428171
92	0xbcd65b8e	-0.026166704
93	0xbdf116b8	-0.117719114
94	0xbcfef798	-0.031123921
95	0xbd19924d	-0.03749304
96	0xbba6af3a	-0.0050868066
97	0xbd28c8fa	-0.04120729
98	0xbc621134	-0.013798047
99	0xbd316ae1	-0.04331482
100	0xbcfc51bc	-0.030800693
101	0xbcde31fc	-0.027123444
102	0xbd139e55	-0.03603967
103	0xbd3b937d	-0.045794953
104	0xbc1cb700	-0.009565115
105	0xbc867a46	-0.016415726
106	0xbd3824ce	-0.044956975
107	0xbcd3afb4	-0.025840618
108	0xbcf4ddde	-0.02989095
109	0xbc87972d	-0.016551578
110	0xbc785ab5	-0.015158345
111	0xbd46dfa3	-0.04855312
112	0x3c05bfa6	0.008163368
113	0x3cd62951	0.026142748
114	0xbceec81a	-0.02914815
115	0xbd03a913	-0.032143664
116	0x3b0e1188	0.002167793
117	0xbcdb5e0a	-0.02677824
118	0xbd28aa86	-0.04117825
119	0x3c348b5a	0.011019552
120	0xbc0e7370	-0.008694515
121	0xbae85abc	-0.0017727236
122	0x3b471463	0.0030377142
123	0xbcdd9dfd	-0.027052874
124	0xbc1a1309	-0.009403952
125	0xbd5acf92	-0.05342061
126	0xbd366aa6	-0.0445353
127	0xbc7f5585	-0.015584354

action_model._continuous_distribution.log_sigma f4 [1, 2]
0	0xbd1c5e87	-0.038176086
1	0xbb0f218e	-0.0021840069

action_model._continuous_distribution.mu.weight f4 [2, 128]
0	0x3d074f54	0.033034638
1	0x3c9097d2	0.017650519
2	0xbd4cad5c	-0.049970016
3	0xbba8384f	-0.0051336656
4	0x3c0dc7bd	0.008653578
5	0xbd626c05	-0.055278797
6	0x3b6be260	0.0035993084
7	0xbcb10320	-0.021607935
8	0xbcb8581b	-0.02250295
9	0x3c73acca	0.014872739
10	0x3c04a34a	0.008095572
11	0x3b22ea6a	0.002485896
12	0xbc456192	-0.012047188
13	0x3cf0eb5e	0.029409107
14	0xbd678941	-0.05652738
15	0xbc10ff07	-0.008849866
16	0x3a0e5547	0.00054295774
17	0x3c5459ed	0.012960893
18	0xbcc302d4	-0.02380506
19	0xbcc7044b	-0.02429404
20	0x3c1a032d	0.009400171
21	0xbb6eea7f	-0.0036455689
22	0xbcca6a88	-0.024709001
23	0x3d431913	0.047631335
24	0x3c400837	0.011720709
25	0x3c291174	0.010319103
26	0xbd12b451	-0.035816494
27	0xbc91cbc3	-0.017797356
28	0xbcec8d4a	-0.028875966
29	0x3bb08ecd	0.005388117
30	0x3d339e0b	0.043851893
31	0xbc9fbe06	-0.01949979
32	0xbb8e5545	-0.004343661
33	0x3ccf9986	0.02534176
34	0x3b1a28ea	0.0023522922
35	0x3c6df0cf	0.014522745
36	0x3d0b458e	0.03400188
37	0x3c7ea66c	0.015542608
38	0xbc15ba78	-0.009138696
39	0x3b5ba087	0.003351243
40	0xbb97c1f9	-0.0046312776
41	0xbaa4cf36	-0.0012573961
42	0xbbeae66b	-0.0071685812
43	0xbb6fd591	-0.0036595801
44	0x3ba22a39	0.004948881
45	0xbbcea80e	-0.006306655
46	0x3d0c35b5	0.034230907
47	0xbc97deb3	-0.018538808
48	0xbc371371	-0.011174069
49	0xbc2aa159	-0.010414445
50	0xbc49e0b2	-0.012321638
51	0xbd677015	-0.056503374
52	0x3c368ff3	0.011142719
53	0x3d57f042	0.052719362
54	0x3d09d845	0.033653516
55	0xbc81dcb3	-0.015852308
56	0x3bee13e0	0.007265553
57	0xbc86204c	-0.016372822
58	0xbc9952f0	-0.018716305
59	0xbb94c2dc	-0.0045398306
60	0xbc2fe6a8	-0.010736145
61	0xbcd6ccfd	-0.026220793
62	0x3cc60b47	0.0241753
63	0xba990f30	-0.00116775
64	0x3bdb738b	0.0066971234
65	0xbbee685d	-0.0072756247
66	0xbd0f46ac	-0.034979507
67	0x3cb6c406	0.022310268
68	0xbd3e8deb	-0.046522062
69	0x3c545039	0.01295858
70	0x3d2a2ba7	0.041545536
71	0x3cfea043	0.031082278
72	0xbcb80e32	-0.022467706
73	0x3cd8fb4e	0.026487019
74	0x3cf77122	0.030205313
75	0x3cc9d7eb	0.02463909
76	0x3c15054c	0.009095501
77	0xbcc78acf	-0.024358181
78	0x3cb9521b	0.022622159
79	0x3ce9fbcb	0.028562447
80	0x3cd10ca1	0.025518717
81	0x3d3e228b	0.04641966
82	0xbb8e10f8	-0.004335519
83	0x3c827d93	0.01592902
84	0xbc66c4df	-0.014085024
85	0xbba9ad91	-0.0051781614
86	0x3badbcc9	0.005302046
87	0xbd0b1bb4	-0.033961967
88	0xbbe577d5	-0.0070028105
89	0xbb12b0e0	-0.0022383258
90	0xbbd6662f	-0.006542943
91	0xbcb0c2cb	-0.02157726
92	0xbc918730	-0.017764658
93	0xbc44217a	-0.011970872
94	0x3bc2e7be	0.005948036
95	0xbb044f6b	-0.0020188938
96	0xbcfd480d	-0.030918146
97	0xbc7c0da5	-0.0153841125
98	0x3ba1e1e6	0.0049402593
99	0xbc02e9d9	-0.007990324
100	0xbd029ff7	-0.031890836
101	0x3ace57ab	0.001574268
102	0x3ca44287	0.020051254
103	0xbb9f634a	-0.004864131
104	0xbb7f3ebf	-0.0038947312
105	0xbc08e77c	-0.008355971
106	0xbca74d2b	-0.020422539
107	0x3c44b26f	0.0120054325
108	0xbc511df6	-0.012763491
109	0xbc7a8b91	-0.015292064
110	0x3cc3e0d9	0.023910927
111	0xbc3673c0	-0.011135995
112	0x3ca43363	0.020044034
113	0xbcd086c5	-0.025454888
114	0xbcaf8015	-0.021423379
115	0xbbe75482	-0.0070596347
116	0xbcc96b9f	-0.02458745
117	0xbc4c232a	-0.012459556
118	0x3c326347	0.010887927
119	0x3b807912	0.0039206827
120	0xbc085818	-0.008321784
121	0x3cece0ac	0.028915726
122	0x3cacebb0	0.021108478
123	0x3b47e99b	0.003050423
124	0xbb78df16	-0.0037974766
125	0xbc201bd0	-0.009772256
126	0xba42c461	-0.00074297754
127	0xbcce72c9	-0.025201218
128	0xbcfcbfa1	-0.030853095
129	0x3d13e0c5	0.03610303
130	0xbc74494c	-0.014910053
131	0xbd9e64ed	-0.07734094
132	0x3d08df5b	0.033416133
133	0x3bc66398	0.006054353
134	0x3b1d52f4	0.0024005743
135	0xbcc7046d	-0.024294103
136	0xbcc2ff4a	-0.023803372
137	0xbbe6e313	-0.0070461123
138	0x3c220d88	0.009890921
139	0xbba90228	-0.0051577277
140	0xbb1941df	-0.002338521
141	0xbcc0c292	-0.023530278
142	0x3bd52a3d	0.0065052793
143	0x3b61b3ce	0.0034439447
144	0x3b0b8bce	0.0021293047
145	0xbc1fcbfa	-0.009753222
146	0x3d506578	0.05087802
147	0x3b7ae2ec	0.0038282229
148	0xbc0a627d	-0.008446333
149	0xbb1b2464	-0.0023672814
150	0xbcb8e5ff	-0.022570608
151	0xbc4df1e9	-0.012569883
152	0xbc2d5bfd	-0.010581014
153	0xbc49412b	-0.012283604
154	0xbc08f84e	-0.008359982
155	0x3aadbf54	0.0013255873
156	0x3bcb3996	0.006201933
157	0xbbe566ab	-0.0070007644
158	0xbc676643	-0.014123502
159	0xbca9eae9	-0.020741897
160	0x3af5ec38	0.0018762415
161	0xbc69ce12	-0.014270322
162	0xba8729aa	-0.00103121
163	0x3c8f6b51	0.017507227
164	0x3b3273f9	0.002722977
165	0x3cc2ea83	0.023793465
166	0xbad2de65	-0.0016088007
167	0x3d2e7cea	0.042599596
168	0x3c00b7d2	0.007856326
169	0xbb564507	-0.0032694952
170	0xbc5b7926	-0.013395583
171	0xbbc4439e	-0.005989506
172	0xbc209de2	-0.009803267
173	0x3bc696fd	0.0060604797
174	0x3c44d497	0.012013576
175	0x3a42b10a	0.00074268936
176	0xbb5a1705	-0.003327788
177	0xbcc66ad0	-0.024220854
178	0xbc20e435	-0.009820034
179	0xbc935c59	-0.01798837
180	0x3ce01a12	0.027356181
181	0xbcd750c2	-0.026283626
182	0x3c1547cf	0.009111359
183	0xbb92895e	-0.004471942
184	0xbd25b209	-0.04045299
185	0x3bec3a44	0.0072090942
186	0xbc9539b2	-0.018215988
187	0x3b0df9be	0.002166375
188	0x3d68b5f3	0.056814145
189	0xbcbf8d74	-0.02338288
190	0x3cf2ec7e	0.029653784
191	0x3c5460b2	0.012962507
192	0x3bb3897e	0.005479037
193	0xbb47d113	-0.0030489608
194	0xbd4b3472	-0.049610563
195	0xbd16abb6	-0.03678485
196	0xbc2b0b45	-0.010439699
197	0xbd46e7ca	-0.048560895
198	0x3c8cd6cb	0.017192265
199	0xbcb397b4	-0.021922924
200	0x3cb069b5	0.02153478
201	0xbd50b116	-0.050950132
202	0xbc003b20	-0.0078265965
203	0xbaf915a4	-0.0019003642
204	0xbc5a2079	-0.013313406
205	0xbd0d1d4f	-0.03445178
206	0xbd48046f	-0.048832353
207	0x3c8617bd	0.016368741
208	0x3d188c2b	0.03724305
209	0xbc577867	-0.013151265
210	0x3b75b712	0.0037493152
211	0x3883a55e	6.277369e-05
212	0x3cc83046	0.024437081
213	0x3cb79335	0.022409061
214	0xbc21c3d4	-0.009873349
215	0x3bc8fed6	0.0061338944
216	0xbd4cdc28	-0.050014645
217	0xbd3556ab	-0.044272106
218	0x3cf9f847	0.030513896
219	0xbc653b25	-0.013991152
220	0xbc7f2c20	-0.015574485
221	0x3d0e0a02	0.034677513
222	0xbc92c6d1	-0.017917069
223	0x3c698af0	0.014254317
224	0xbd23496a	-0.039864935
225	0xbb4decb1	-0.0031421597
226	0xbc831051	-0.015998991
227	0xb90598c5	-0.0001274078
228	0x3b2e4e74	0.0026597055
229	0x3c5c109d	0.013431695
230	0xbb6c51e8	-0.0036059562
231	0xbb071015	-0.002060895
232	0xbc81a9d7	-0.015828056
233	0x3cbed352	0.023294125
234	0x3ba7e116	0.005123268
235	0xbc1f93f0	-0.009739861
236	0xbc911139	-0.017708408
237	0xbc8aee9c	-0.016959481
238	0xbbb2fac5	-0.005462023
239	0xbc511d09	-0.01276327
240	0xbc9d3e1f	-0.01919466
241	0xbc4cb6eb	-0.012494783
242	0x37f2d95a	2.894986e-05
243	0x3c3e5eb3	0.011619258
244	0xb95f980a	-0.00021323576
245	0xbc8f075f	-0.01745957
246	0xbc130d8a	-0.008975396
247	0x3c39666b	0.011315922
248	0xbc15edb0	-0.009150907
249	0xbd84fb53	-0.06493249
250	0xbcf060f2	-0.029343102
251	0x3d39d542	0.045369394
252	0xbc590cf9	-0.013247722
253	0xbbf50d4e	-0.0074783927
254	0x3d0fe941	0.035134558
255	0xbc0a33d7	-0.008435211

action_model._continuous_distribution.mu.bias f4 [2]
0	0xbc418069	-0.0118104005
1	0x3b3a7231	0.002844941

critic.network_body.linear_encoder.seq_layers.0.weight f4 [128, 6]
0	0xbe6edd1e	-0.23326537
1	0xbe8659c9	-0.26240376
2	0xbeae7f7e	-0.34081644
3	0x3f1ffa2d	0.6249111
4	0x3d143fbd	0.036193598
5	0xbdb0df7f	-0.086363785
6	0xbe926365	-0.28591457
7	0xbe250155	-0.1611379
8	0xbe20a391	-0.15687396
9	0x3d67af17	0.056563463
10	0x3bf67434	0.0075211767
11	0xbf3261d7	-0.6968054
12	0x3c7cca5d	0.015429107
13	0xbe4206a6	-0.18947849
14	0xbea152e6	-0.3150856
15	0x3f49a7f3	0.78771895
16	0xbe95ab3c	-0.29232204
17	0x3ea03d95	0.31296983
18	0x3ecf2725	0.40459552
19	0x3e827bda	0.25485116
20	0xbe5f904e	-0.21832392
21	0xbdb2dc1d	-0.087333895
22	0xbf034766	-0.5128082
23	0xbe473e93	-0.19457464
24	0x3d645f90	0.055755198
25	0x3e9a959f	0.30192277
26	0x3f6f3438	0.93439054
27	0x3eefccaa	0.46835834
28	0xbf0886dd	-0.53330785
29	0xbee5af0e	-0.4486012
30	0x3ec8bf2f	0.39208362
31	0x3f06d8b2	0.526744
32	0xbe9d0f21	-0.30675605
33	0xbe09b9a3	-0.13449721
34	0xbd92d501	-0.071695335
35	0xbf05b5d8	-0.52230597
36	0x3da5faae	0.08104454
37	0xbf24e7d3	-0.64416236
38	0x3eb6755b	0.3563641
39	0xbe550abe	-0.20804879
40	0x3be83821	0.007086769
41	0xbed64a42	-0.4185353
42	0xbed028cb	-0.40656123
43	0x3e9ec248	0.310076
44	0x3edb0286	0.42775363
45	0x3e9d6766	0.3074295
46	0xbebb0b94	-0.3653227
47	0x3d3f574a	0.046714105
48	0x3d85060e	0.064952955
49	0x3e704394	0.23463279
50	0x3edc1bbc	0.4298991
51	0x3ee8782f	0.45404193
52	0x3f276b1b	0.65397805
53	0x3e380540	0.17970753
54	0xbcd7521c	-0.02628427
55	0xbbaeac59	-0.005330604
56	0xbed12eba	-0.40855962
57	0xbef130da	-0.47107583
58	0x3df1c1c9	0.1180454
59	0xbe9216cb	-0.28533015
60	0xbe1e42a1	-0.15455104
61	0x3c02f518	0.007993005
62	0x3e203f16	0.15649065
63	0xbe8f68f4	-0.2800976
64	0x3ee36e8d	0.4442028
65	0x3ec9b57f	0.39396283
66	0xbf31b5ac	-0.69417834
67	0x3f04197d	0.5160139
68	0xbe35f173	-0.17767887
69	0x3dd255ce	0.10270272
70	0xbf14fe78	-0.5820079
71	0xbde9d773	-0.11418047
72	0xbe986131	-0.2976165
73	0x3e1798e9	0.14804424
74	0xbecf4f6d	-0.40490285
75	0xbe4b751f	-0.19868897
76	0xbea33e51	-0.3188348
77	0x3ee85401	0.4537659
78	0x3e1f33c8	0.15547097
79	0xbf455321	-0.7707997
80	0xbf2a0306	-0.66410863
81	0x3f800e06	1.000428
82	0xbf203fce	-0.6259736
83	0x3e701d58	0.23448694
84	0x3eaa7893	0.33295116
85	0xbed2a3bf	-0.41140553
86	0x3ead018a	0.33790237
87	0xbe9a635a	-0.30153924
88	0xbbbb7dc8	-0.0057217814
89	0x3d1ae15c	0.037812576
90	0x3dca172f	0.09867703
91	0x3db26f79	0.08712668
92	0x3f003b4e	0.5009049
93	0x3d988b24	0.07448414
94	0x3f72fffd	0.9492186
95	0x3ec77cc7	0.38962385
96	0xbf2c6dc2	-0.6735498
97	0x3ea7b2f5	0.3275372
98	0x3d2822b9	0.04104874
99	0x3dc73034	0.09725991
100	0xbee2da01	-0.4430695
101	0xbe17f8f6	-0.14841065
102	0xbf067ccd	-0.5253418
103	0xbf46d498	-0.7766814
104	0xbdc90d1e	-0.09816955
105	0xbe018a4b	-0.12650411
106	0x3f0440d5	0.51661426
107	0xbef54747	-0.47905943
108	0x3d900815	0.070327915
109	0x3ef12feb	0.4710687
110	0xbd9a753c	-0.07541892
111	0x3f2642d7	0.6494574
112	0x3edcfbdb	0.431609
113	0x3dfdbcb8	0.12389511
114	0x3dd286c7	0.10279613
115	0xbf6f5c42	-0.9350015
116	0xbee6c8e5	-0.45075145
117	0xbe77622d	-0.24158545
118	0x3ed72bb6	0.42025536
119	0xbf20a242	-0.62747586
120	0xbea806e0	-0.32817745
121	0xbeb230fa	-0.3480299
122	0xbefe98e6	-0.49726027
123	0x3e1784d3	0.14796762
124	0xbb5d9cf7	-0.0033815482
125	0xbe8cb0a0	-0.27478504
126	0xbc658005	-0.014007573
127	0x3f4360b6	0.76319444
128	0x3eaa7f91	0.3330045
129	0xbf32b0e3	-0.6980116
130	0x3efebc4a	0.49753028
131	0x3f1d1d88	0.61373186
132	0xbf06be00	-0.52633667
133	0xbf667272	-0.9001838
134	0xbe994924	-0.29938614
135	0xbeb75eaa	-0.3581441
136	0xbd96f772	-0.07371415
137	0xbb3b3589	-0.0028565845
138	0xbeac57eb	-0.33660826
139	0xbf1093b7	-0.56475395
140	0xbd22b971	-0.039727632
141	0x3efa6476	0.4890477
142	0xbf550b7b	-0.8322064
143	0x3f16fd7b	0.5898053
144	0xbe30261f	-0.17202042
145	0xbec6b6ee	-0.3881144
146	0x3ed763d1	0.4206834
147	0x3f0fdcac	0.56196094
148	0xbe8d982b	-0.27655157
149	0xbf0b1c5e	-0.5434016
150	0xbe6c6557	-0.23085533
151	0xbc95446a	-0.018221099
152	0xbe854e7f	-0.2603645
153	0x3b853aee	0.004065863
154	0xbda57de3	-0.080806516
155	0xbeb86e2d	-0.36021557
156	0xbeff08f5	-0.4981152
157	0x3e7ae9e5	0.24503286
158	0x3d2af512	0.041737624
159	0x3d265767	0.040610697
160	0xbf1cf769	-0.6131502
161	0xbd8605b8	-0.065440595
162	0x3efdb725	0.4955379
163	0xbe201bbf	-0.15635584
164	0x3e981908	0.29706597
165	0xbcfdd690	-0.0309861
166	0x3ea4337a	0.32070524
167	0x3e779238	0.24176872
168	0xbea21916	-0.31659764
169	0xbe6415a5	-0.22273882
170	0xbe9ba52f	-0.30399463
171	0xbf0b1c94	-0.5434048
172	0x3e31af93	0.17352132
173	0xbedf20f4	-0.4357983
174	0xbf20309c	-0.6257417
175	0x3f35616c	0.7085178
176	0xbebf9752	-0.37420136
177	0x3f5ddeec	0.86668277
178	0xbe754c48	-0.2395488
179	0xbf188623	-0.59579676
180	0x3c999ca4	0.01875145
181	0xbec7cd3e	-0.39023775
182	0x3f12a245	0.57278854
183	0xbed04575	-0.40677992
184	0xbf453eb0	-0.7704878
185	0x3f3af373	0.73027724
186	0xbd807a9a	-0.062733844
187	0xbf023b66	-0.50871885
188	0x3ea40996	0.32038563
189	0xbe6c55fb	-0.23079674
190	0xbf80b2b9	-1.0054542
191	0xbec02722	-0.37529856
192	0x3eae4602	0.34037787
193	0x3e9826ae	0.2971701
194	0x3f0215d2	0.50814545
195	0xbecddc0e	-0.4020695
196	0x3de97d40	0.11400843
197	0x3eb48b1c	0.35262382
198	0x3d68ec3d	0.05686592
199	0x3e3d49d9	0.18485202
200	0x3ee9a46a	0.4563325
201	0x3ea66440	0.3249836
202	0x3e700f04	0.23443228
203	0xbd27ba04	-0.040948883
204	0x3f257e1c	0.6464555
205	0xba81cfce	-0.000990385
206	0xbdb83c5e	-0.08995889
207	0xbd53f83c	-0.051750407
208	0x3d873a89	0.066029616
209	0x3f0fb30c	0.5613258
210	0xbe06efe1	-0.13177444
211	0x3f17c0c4	0.5927851
212	0x3da47500	0.080301285
213	0xbf211c09	-0.62933403
214	0x3ef732cb	0.4828094
215	0x3f2ad3cd	0.6672943
216	0xbdebff22	-0.11523272
217	0xbd236d7c	-0.039899334
218	0x3f4c5cdc	0.7982919
219	0xbe99b1de	-0.30018514
220	0x3f199800	0.5999756
221	0x3efa3fa2	0.48876673
222	0xbda47392	-0.08029856
223	0xbf0c1642	-0.5472146
224	0xbeb3e810	-0.35137987
225	0x3da910e3	0.08255174
226	0x3e215aed	0.15757342
227	0xbe68eda7	-0.22746907
228	0x3e007977	0.12546335
229	0xbf3f60aa	-0.7475687
230	0xbddf5daa	-0.10906537
231	0xbe58a640	-0.2115717
232	0x3f142454	0.5786793
233	0xbeee8d37	-0.46592113
234	0xbefdcf05	-0.49572006
235	0xbf120fef	-0.5705556
236	0x3e630ef1	0.22173668
237	0xbe8f5811	-0.27996877
238	0x3e7f4bba	0.24931231
239	0xbdbf10f7	-0.09329408
240	0xbebfee24	-0.37486374
241	0xbf803e73	-1.0019058
242	0xbf8ce624	-1.1007733
243	0x3ee3592d	0.44403973
244	0xbe05f4be	-0.13081643
245	0x3eb1b302	0.34706885
246	0xbe7e4d77	-0.24834238
247	0xbee4a7e1	-0.4465933
248	0xbba4ce61	-0.005029485
249	0xbf07ae5b	-0.5300042
250	0x3c6aece8	0.014338709
251	0xbdfcc57a	-0.12342353
252	0x3eaa48d4	0.33258688
253	0xbe1f980a	-0.15585342
254	0xbeade4c5	-0.339636
255	0xbeff5d82	-0.49876028

critic.network_body.linear_encoder.seq_layers.0.bias f4 [128]
0	0x3c4ddd40	0.012564957
1	0xbc58508b	-0.013202797
2	0x3b800da7	0.0039078775
3	0x3c06594b	0.0082
4	0x3d0b7341	0.03404546
5	0xbdbe08a7	-0.09278994
6	0x3d0ee691	0.034887854
7	0xbd2126fb	-0.039343815
8	0xbd6d3f4b	-0.05792169
9	0xbdd016ca	-0.10160597
10	0xbd9635e6	-0.07334499
11	0xbd332d8d	-0.043744612
12	0xbc848f57	-0.016181631
13	0xbc9427b0	-0.01808533
14	0xbd63d258	-0.05562052
15	0x3c6a131f	0.014286785
16	0xbd3a4dfa	-0.04548452
17	0x3be2de7f	0.0069234963
18	0xbddab0af	-0.10678231
19	0xbc1fd373	-0.009755003
20	0xbd6730e5	-0.056443114
21	0xbc53c70d	-0.012925875
22	0xbd142ca9	-0.036175404
23	0xbc1808c0	-0.00927943
24	0xbd8031d2	-0.062595025
25	0x3d7d648f	0.06186348
26	0xbd350aa4	-0.0441996
27	0xbd21c107	-0.039490726
28	0x3cf2ea45	0.029652724
29	0xbd0d2cf1	-0.034466688
30	0xba99f421	-0.001174573
31	0x3c82d6a0	0.015971482
32	0xbd0e6e4f	-0.034773167
33	0xb96b08d4	-0.00022414635
34	0x3c84614d	0.016159678
35	0xbcf8ce6d	-0.030371869
36	0xbd7ebed5	-0.06219371
37	0x3cc59765	0.024120042
38	0xbd6602a6	-0.05615487
39	0xbdd245d7	-0.10267227
40	0xbd84f8af	-0.06492745
41	0xbb88b46f	-0.0041719
42	0xbda8e606	-0.082469985
43	0xbdaced38	-0.084436834
44	0xbcdea72e	-0.027179327
45	0xbdd98b39	-0.10622258
46	0x3aa593c2	0.0012632536
47	0x3cb2633e	0.021775838
48	0xbdf3d03a	-0.119049504
49	0xbd9c402e	-0.07629429
50	0x3d4d0e68	0.050062567
51	0x3c7a588d	0.015279901
52	0x3d67802b	0.056518715
53	0xbcd8c171	-0.026459428
54	0xbc224295	-0.00990357
55	0xbd21a603	-0.03946496
56	0xbde934fa	-0.113870576
57	0xbd5959ff	-0.053064343
58	0xbd36b0f1	-0.04460234
59	0xbc264c96	-0.010150095
60	0xbd3ef98e	-0.046624713
61	0xbd994156	-0.07483165
62	0xbd92d491	-0.0716945
63	0xbca8ee41	-0.02062142
64	0xbdea25ad	-0.11432967
65	0xbcdb743f	-0.026788829
66	0xbc39e772	-0.011346685
67	0x3cbdb08b	0.023155471
68	0xba3c1b80	-0.00071757287
69	0xbd415e9a	-0.04720936
70	0xbdd3c2bb	-0.10339876
71	0xbb8bbaec	-0.004264226
72	0xbd808ef7	-0.062772684
73	0xbd4e290d	-0.050332118
74	0xbd32b4fc	-0.04362963
75	0xbc9f3d39	-0.019438373
76	0xbb026307	-0.001989545
77	0xbd8222f2	-0.063543215
78	0xbd29d5d7	-0.0414637
79	0xbcd49b01	-0.025952818
80	0xbc6a9bfd	-0.014319417
81	0x3a31f862	0.0006789026
82	0x3c7f45da	0.015580619
83	0xbd02ee92	-0.0319658
84	0xbd742fd5	-0.05961593
85	0x3d50c5fc	0.050970063
86	0xbd11eb2b	-0.035624664
87	0xba137539	-0.00056250725
88	0xbd884f5d	-0.06655762
89	0xbcfce817	-0.030872388
90	0xbdd88a0b	-0.105732046
91	0xbe008daa	-0.1255404
92	0xbbb2acbb	-0.00545272
93	0xbc944319	-0.0180984
94	0xbc2d47a4	-0.0105761625
95	0xbbb97671	-0.0056598713
96	0xbd8d4edd	-0.068998076
97	0xbd4182fc	-0.047244057
98	0xbd658fe8	-0.056045443
99	0xbbb0b47d	-0.0053926096
100	0xbcf95da5	-0.030440161
101	0xbbb675d5	-0.005568246
102	0xbd994855	-0.07484499
103	0xbd46ef7d	-0.048568238
104	0xbd852733	-0.06501617
105	0xbd92b1c5	-0.07162813
106	0xbd7f548a	-0.062336482
107	0xbd014456	-0.03155931
108	0xbd84e83f	-0.0648961
109	0xbd3db7ae	-0.04631775
110	0xbc2bbcd6	-0.010482034
111	0x3d60a0dc	0.054840907
112	0xbd9c2ed0	-0.07626116
113	0x3c9b2924	0.018940516
114	0xbd503b5b	-0.050837856
115	0xbce99d73	-0.02851746
116	0xbc4cec05	-0.012507443
117	0x3d9f8602	0.07789232
118	0x3d33efd8	0.043929905
119	0xbd5f4960	-0.054513335
120	0x3d2edd10	0.04269129
121	0x3c6451dc	0.013935532
122	0xbcba720f	-0.022759466
123	0x3c2d1853	0.010564881
124	0x3abb296a	0.001427931
125	0xbd55421f	-0.05206501
126	0xbd5f4181	-0.05450583
127	0xbc1a908f	-0.0094338795

critic.network_body.linear_encoder.seq_layers.2.weight f4 [128, 128]
0	0xbdead0b1	-0.11465586
1	0xbe4966d4	-0.19668132
2	0x3cd32fb7	0.025779588
3	0xbdd0bca1	-0.10192228
4	0xbd9c38cf	-0.07628023
5	0xbd91c3b7	-0.07117408
6	0x3d8470a8	0.064668
7	0x3c7e8467	0.015534497
8	0x3d00d717	0.031455126
9	0x3d642bbb	0.055705767
10	0x3cc8cd55	0.024511972
11	0xbc8847db	-0.016635826
12	0xbafca1b7	-0.0019274269
13	0xbe03c04b	-0.12866323
14	0xbb77c290	-0.0037805177
15	0x3c533c7c	0.012892839
16	0xbcc57327	-0.02410276
17	0xbda99e09	-0.08282096
18	0xbd03fb43	-0.032222044
19	0xbe242f5b	-0.1603369
20	0x3d19d152	0.03755314
21	0xbdc136fc	-0.094343156
22	0xbe069de0	-0.13146162
23	0x3dd6b32c	0.10483393
24	0xbdee4c5a	-0.11635657
25	0x3ce53324	0.027978487
26	0xbe29e26d	-0.16590281
27	0x3d863f02	0.065549865
28	0xbe1d165f	-0.15340565
29	0x3dd644ab	0.10462316
30	0x3da61525	0.08109502
31	0x3dcc4693	0.099743985
32	0x3df71e2e	0.12066303
33	0xbd6a3b47	-0.057185438
34	0xbd439069	-0.047745142
35	0x3cb44126	0.022003721
36	0x3e00151d	0.12508054
37	0xbc294314	-0.010330934
38	0xbcdb0f68	-0.026740745
39	0x3bbbf78f	0.0057362984
40	0xbdce2e98	-0.10067481
41	0xbded733d	-0.115942456
42	0xbcc990ac	-0.024605118
43	0x3d286a02	0.041116722
44	0xbdaf7877	-0.08567899
45	0xbd99f8b1	-0.07518137
46	0x3d9c2062	0.07623364
47	0x3ac3c5e1	0.0014936292
48	0xbe1fc5d0	-0.15602803
49	0x3dd4bbaf	0.1038736
50	0xbdb28fd0	-0.08718836
51	0x3dc317a3	0.09525993
52	0x3d8d0615	0.06885926
53	0xbe03620c	-0.1283037
54	0xbcd333d5	-0.025781551
55	0xbdce2acc	-0.100667566
56	0x3c7b23e0	0.0153283775
57	0xba781b59	-0.00094645243
58	0x3ceb8ee3	0.028754657
59	0x3ce5b9ff	0.028042791
60	0x3d9f089c	0.07765314
61	0x3de2b217	0.11069124
62	0xbb5077d4	-0.0031809704
63	0xbe084cae	-0.13310501
64	0x3ddd2bfa	0.107994035
65	0x3e21dcff	0.1580696
66	0xbd3d3730	-0.04619521
67	0x3d9de2a5	0.07709245
68	0xbbfb19c3	-0.007662983
69	0xbda5ca9c	-0.08095285
70	0x3bc6b0f1	0.0060635735
71	0xbe959187	-0.2921259
72	0xbd59c946	-0.053170465
73	0xbd726763	-0.05918063
74	0x3d5a2c39	0.05326483
75	0x3d9bfae2	0.076162115
76	0x3d3b0482	0.045658596
77	0x3ded4b38	0.115866125
78	0x3d582dc4	0.05277802
79	0xbda0e36d	-0.07855878
80	0xbde33636	-0.11094324
81	0x3d80bc51	0.062859185
82	0xbe192cab	-0.14958446
83	0xbcc2c374	-0.02377484
84	0x3d946931	0.07246626
85	0x3d74c305	0.059756298
86	0xbcb45784	-0.022014387
87	0x3d409e56	0.047026
88	0xbe0b6788	-0.13613713
89	0xbc75beb0	-0.014999077
90	0x3b0739d9	0.0020633845
91	0xbdab7af4	-0.08373061
92	0x3cf3c9c1	0.02975929
93	0xbc635719	-0.013875746
94	0xbda7198f	-0.08159172
95	0xbd303806	-0.043022178
96	0x3c7567d4	0.014978368
97	0xba900f23	-0.0010990839
98	0xbc2e14fd	-0.010625121
99	0xbd8ebcc0	-0.06969595
100	0xbd17a528	-0.03702274
101	0x3dacaf75	0.08431903
102	0x3ca6bcb5	0.020353654
103	0xbe38b9e8	-0.18039668
104	0x3ce5fcea	0.0280747
105	0x3e3e514d	0.18585701
106	0x3d4343d7	0.04767212
107	0xbc9abfb7	-0.018890245
108	0xbd37a193	-0.044831824
109	0xbdfe368e	-0.12412749
110	0xbc37382d	-0.011182827
111	0xbe3eed17	-0.1864513
112	0x3d05b869	0.03264657
113	0xbd7a350e	-0.061085753
114	0x3d108917	0.03528699
115	0x3d37cfc1	0.044875864
116	0xbe3fe9f8	-0.18741596
117	0xbd52b0fd	-0.05143832
118	0x3d859414	0.06522384
119	0xbd6a2834	-0.057167247
120	0xbd8b0820	-0.06788659
121	0xbdb2e72a	-0.08735497
122	0x3e645d5b	0.22301237
123	0x3e22578c	0.15853709
124	0xbde524a4	-0.11188629
125	0xbdc5e46d	-0.096627094
126	0x3bcb19e4	0.0061981548
127	0xbcd86ad2	-0.026418123
128	0xbc2e6e22	-0.010646375
129	0x3dec69e3	0.11543634
130	0xbd828619	-0.06373233
131	0xbd6b6a12	-0.057474203
132	0xbbdf558b	-0.0068156174
133	0xbddc8865	-0.10768203
134	0xba11d830	-0.00055635255
135	0x3d85f00c	0.06539926
136	0x3d2aa545	0.04166152
137	0x3dad5c0b	0.084648214
138	0x3cd7dd61	0.026350679
139	0x3dbab429	0.09116394
140	0x3dd081aa	0.101809815
141	0xbdb50eb9	-0.08840699
142	0xbdce0dd7	-0.100612335
143	0xbe61ceb5	-0.22051509
144	0xbd1ffdff	-0.03906059
145	0x3e28408e	0.16430876
146	0xbdb05c86	-0.086113974
147	0xbdd64f6a	-0.10464366
148	0xbdd68602	-0.10474779
149	0x3e1197e1	0.14218093
150	0xbce342cc	-0.027741812
151	0xbe07c2c2	-0.13257888
152	0xbd775c1c	-0.060390577
153	0xbd7412a9	-0.05958811
154	0x3dd6b645	0.10483984
155	0xbdcbae3f	-0.09945344
156	0x3c84536a	0.016153056
157	0x3d28647c	0.041111454
158	0xbdf3a5fa	-0.11896892
159	0x3dd7ce82	0.10537435
160	0xbdb7b19c	-0.08969423
161	0x3d920a69	0.07130892
162	0xbdbe0ace	-0.092794046
163	0x3c313f47	0.010818309
164	0xbd84207e	-0.0645151
165	0xbced77d7	-0.028987808
166	0x3d968a0f	0.07350551
167	0x3d5f1930	0.05446738
168	0xbd1cd3b4	-0.038287833
169	0xbd7f0ab2	-0.06226606
170	0xbd2f1f08	-0.042754203
171	0x3d7392a9	0.059466038
172	0x3d5a7b1a	0.053340055
173	0x3dcaa88c	0.09895429
174	0x3df62503	0.12018778
175	0xbe0dc091	-0.1384299
176	0xbe7622ac	-0.24036664
177	0x3d2ab8e1	0.04168022
178	0xbdc8b99d	-0.09801028
179	0x3e0e0931	0.13870694
180	0x3d093721	0.03349984
181	0x3d7ec198	0.062196344
182	0x3d059f01	0.03262234
183	0xbd9a2878	-0.0752725
184	0xbda14fae	-0.07876526
185	0xbcc93963	-0.024563497
186	0xbda460af	-0.080262534
187	0x3cc6bac5	0.02425898
188	0x3dafc100	0.08581734
189	0xbabd6a7a	-0.0014451288
190	0xbc6e91e5	-0.014561151
191	0xbbfd1d9a	-0.007724476
192	0xbd458ccb	-0.048229974
193	0xbe33259b	-0.17494814
194	0x3d097593	0.033559393
195	0xbe4692cd	-0.19391938
196	0xbe0fbc1d	-0.14036603
197	0xbd84cd2a	-0.064844444
198	0xbe2ebd63	-0.17064433
199	0x3e444867	0.19168244
200	0xbc624c80	-0.013812184
201	0xbcd340fd	-0.025787825
202	0xbcadfb98	-0.021238133
203	0xbd387794	-0.045035914
204	0xba89994e	-0.0010497959
205	0x3dff4571	0.12464417
206	0xbd83cc4e	-0.064354524
207	0x3ccb48e4	0.02481503
208	0xbd704049	-0.058655057
209	0xbdd4b079	-0.10385222
210	0xbd227d04	-0.039670005
211	0x3cbbe473	0.022936082
212	0xbd11be57	-0.035581913
213	0xbdf46e38	-0.11935085
214	0xbdfe2fe6	-0.1241148
215	0xbe0557ce	-0.13021776
216	0x3cf7d7e5	0.030254314
217	0xbca767ff	-0.020435331
218	0x3df9e42c	0.122017235
219	0xbe2364a4	-0.1595636
220	0x3ca7c5d5	0.020480076
221	0xbd5b8c54	-0.053600624
222	0x3c97f760	0.018550575
223	0x3d8f43ea	0.069953755
224	0x3d0dcc97	0.03461894
225	0x3ccb8971	0.02484581
226	0x3d6d3b6d	0.057918
227	0x3e1cd34d	0.1531498
228	0x3d1c4cc4	0.038159147
229	0x3c69121e	0.014225511
230	0x3da21aee	0.07915293
231	0x3d3935f6	0.045217477
232	0x3db5f494	0.0888454
233	0x3c813da0	0.015776455
234	0xbc455ac9	-0.012045571
235	0x3b03cad7	0.0020109916
236	0x3d545036	0.051834308
237	0xbe355da3	-0.17711501
238	0x3cd433b3	0.025903558
239	0xbdbf9468	-0.09354478
240	0xbc337eab	-0.010955493
241	0x3e3b254d	0.18275948
242	0x3dce4982	0.10072614
243	0x3cd9ce06	0.026587497
244	0x3d7b87a0	0.06140864
245	0xbdbe8c78	-0.09304136
246	0x3d8f7059	0.070038505
247	0x3d7b655f	0.061375972
248	0x3be7af5e	0.007070466
249	0xbd2d1c51	-0.042263333
250	0xbd945aef	-0.07243907
251	0x3c97127f	0.018441437
252	0x3d85e990	0.06538689
253	0xbc800f64	-0.015632339
254	0x3cb3e67c	0.02196049
255	0x3e113c05	0.14183052

critic.network_body.linear_encoder.seq_layers.2.bias f4 [128]
0	0xbdc0c24d	-0.0941206
1	0xbd9a6fff	-0.07540893
2	0x3d1d5800	0.038414
3	0x3cc95709	0.024577634
4	0xbe0f8b27	-0.14017926
5	0xbd983c29	-0.0743335
6	0x3ce5bfda	0.028045584
7	0x3c3f00ac	0.011657875
8	0xbd5b2851	-0.053505246
9	0xbde6d5cb	-0.112712465
10	0x3ba9504e	0.005167044
11	0xbce70a1d	-0.028203065
12	0xbd92525c	-0.07144615
13	0xbe428067	-0.18994294
14	0x3da4429f	0.080205195
15	0x3d2bd0d1	0.04194719
16	0x3cd79fa2	0.026321236
17	0xbdaa8bd6	-0.08327453
18	0xbd6e9c22	-0.05825437
19	0xbd788bce	-0.060680203
20	0xbe13f2b7	-0.14448057
21	0xbd21f834	-0.039543346
22	0xbd7fcfb9	-0.06245396
23	0x3c33d6f6	0.010976544
24	0xbcce39d5	-0.02517406
25	0x3d55ebde	0.052226894
26	0xbd6c91f3	-0.057756376
27	0xbdfdf4e4	-0.12400225
28	0xbe2ae083	-0.16687207
29	0xbd351416	-0.04420861
30	0xbbe02021	-0.0068397676
31	0x3c37357c	0.011182185
32	0x3d9a4551	0.07532752
33	0xbdfda7a6	-0.12385492
34	0xbdab6a80	-0.08369923
35	0xbdb473ef	-0.08811175
36	0xbda4163f	-0.080120556
37	0x3c5c332e	0.013439937
38	0xbe2b413b	-0.16724102
39	0x3cfb7b26	0.03069837
40	0x3cacf270	0.021111697
41	0xbd4cb81d	-0.04998027
42	0x3d3cd4dc	0.046101436
43	0x39e4b087	0.00043619072
44	0x3d8bbf89	0.06823642
45	0xbd36c9a3	-0.04462589
46	0xbd65d1e3	-0.056108367
47	0xbd9fa1a5	-0.07794503
48	0xbd360766	-0.04444065
49	0xbda3871b	-0.07984754
50	0xbdb7ee77	-0.089810304
51	0xbde2f05e	-0.11081003
52	0xbe0986d4	-0.13430339
53	0x3d166da1	0.036725644
54	0x3d1e304b	0.038620275
55	0x3c5ed09e	0.013599543
56	0xbd4ebd23	-0.050473344
57	0xbd12acbe	-0.03580927
58	0xbddf5789	-0.10905368
59	0x3cb9a862	0.022663299
60	0xbda50143	-0.08056881
61	0x3c5a2ed6	0.013316831
62	0xbdcf2054	-0.10113588
63	0x3c8031fc	0.015648834
64	0xbd5c571f	-0.053794023
65	0xbe1ec95b	-0.15506499
66	0xbe17e00c	-0.14831561
67	0xbd329f1c	-0.04360877
68	0x3d100cca	0.035168447
69	0xbc19a30b	-0.009377251
70	0x3d03bb3d	0.032160986
71	0xbe0f17ca	-0.13973919
72	0xbd73867c	-0.059454426
73	0x3c8c4b53	0.017125761
74	0x3d345c91	0.04403359
75	0xbd76696f	-0.060159143
76	0xbd742eff	-0.05961513
77	0xbc98741e	-0.018610056
78	0xbd84eae3	-0.064901136
79	0x3cd30a70	0.025761813
80	0xbdd912d2	-0.10599293
81	0xbd7de923	-0.061989915
82	0xbd5cbd63	-0.05389155
83	0x3c6275ef	0.013822063
84	0xbd5b7a98	-0.05358371
85	0x3d020db7	0.03175136
86	0xbd3588ae	-0.0443198
87	0x3c877695	0.016536037
88	0x3c22e489	0.009942182
89	0xbdd95db9	-0.10613579
90	0xbe2e0423	-0.16993766
91	0xbe12a307	-0.14320002
92	0x3db6767f	0.0890932
93	0x3d2eda55	0.042688686
94	0xbdb624fc	-0.08893773
95	0x3d05d43a	0.0326731
96	0xbddb4a88	-0.10707575
97	0x3c9ef683	0.019404655
98	0xbdf0ce88	-0.11758143
99	0x3d160944	0.03662993
100	0x3cf98d14	0.03046278
101	0x3d04b675	0.032400567
102	0xbd3acb9b	-0.04560433
103	0xbe694efd	-0.22784038
104	0x3ca32369	0.019914346
105	0x3cb399be	0.021923896
106	0x3d0618ee	0.03273862
107	0x3d27c353	0.04095776
108	0xbda1f67c	-0.07908341
109	0xbdfa4038	-0.1221928
110	0xbd928a77	-0.07155316
111	0x3daab253	0.08334794
112	0x3d279550	0.04091388
113	0xbd95ec43	-0.07320454
114	0x3d07213f	0.03299069
115	0xbd7a1343	-0.061053526
116	0xbd73c508	-0.059514076
117	0xbc8175cf	-0.015803246
118	0xbda09998	-0.07841796
119	0x3cc3b597	0.0238903
120	0xbdb6d559	-0.089274116
121	0xbd57c3be	-0.05267691
122	0x3d35c3a5	0.044376034
123	0x3d1e02e6	0.038576983
124	0xbd848068	-0.06469804
125	0xbdcf64c2	-0.1012664
126	0xbe513a46	-0.20432386
127	0x3c939a46	0.0180179
