results/MLady2/Car Agent/Car Agent-499964.pt (torch, 518159 bytes, 42 tensors)

network_body.linear_encoder.seq_layers.0.weight f4 [128, 30]
000000 d9 a0 bb 3e 5b e0 cb bd 9c 32 93 3e b3 e2 87 bd
       0.36646155 -0.09954902 0.2874955 -0.06635036
000010 d9 8e 0a 3b fb 69 96 3b 51 62 bd be a0 2d a6 bd
       0.0021142273 0.0045902706 -0.36989072 -0.08114171
000020 5b cd 08 3e 4c 9a 15 3d 06 65 9a 3e 6b 3e a7 3e
       0.13359587 0.036524102 0.301552 0.3266481
000030 da 10 3a be 09 e9 89 bd 1a 9a 58 be 93 70 9c be
       -0.18170491 -0.06733901 -0.21152535 -0.30554637
000040 68 fa 47 bd 17 94 48 3e b9 63 8f 3d be 85 94 be
       -0.04882279 0.19587742 0.070014425 -0.29008287
000050 a9 4d 80 3d 19 50 73 3c e7 eb 30 be c8 2a 56 3e
       0.062648125 0.01485064 -0.1727749 0.20914757
000060 c5 32 59 3d 99 b8 08 be bd 15 85 3e d1 a7 a9 bd
       0.053026933 -0.13351668 0.25993147 -0.082839616
000070 92 4d fb 3d 00 7b 81 3d dc 3a 7a 3e be 4a 62 bd
       0.12270655 0.063222885 0.24436516 -0.05524706
000080 6c 66 e3 3d bc 3e 02 3e 4f 51 84 3d 91 4c ed be
       0.1110352 0.12719244 0.06460821 -0.46347478
000090 36 2b 8d be 6f 2f b1 be bf 56 a6 3d c4 b8 d6 3c
       -0.2757203 -0.346065 0.08122014 0.02621115
0000a0 2b 37 e6 bc e5 3b d6 3c 90 d5 1d 3e a6 51 8c 3e
       -0.028102478 0.026151607 0.15413499 0.27406043
0000b0 1c 25 97 3c c0 31 5e bd f9 95 f5 bd 61 98 6f be
       0.018450312 -0.054246664 -0.11991496 -0.23397972
0000c0 aa 2b 19 be 0c 8f 22 be 71 e8 26 3d d2 87 df 3d
       -0.14958063 -0.1587488 0.040749017 0.109145775
0000d0 a7 dc 2d 3e 96 66 26 be 01 bb 16 3e 55 6f 70 bc
       0.16978703 -0.16250071 0.14719774 -0.014674981
0000e0 45 fe ec 3b 49 3d 2f bd a2 cc bf bd 61 b9 3c be
       0.0072324597 -0.042783055 -0.093652025 -0.18430091
0000f0 c7 0c 3d 3e 03 e2 87 bd e0 c1 d0 3d ac d7 f0 bd
       0.18461905 -0.06634905 0.10193229 -0.11759886
000100 7b 05 10 3c 2d ed 73 bc 0a 78 3f 3c 3b f2 aa be
       0.008790369 -0.01488809 0.011686334 -0.33387932
000110 39 e0 bf be f0 df fb bc 44 72 7b 3d 4d 8a 55 be
       -0.37475756 -0.03074643 0.06138827 -0.20853539
000120 fa 2e a3 3e e3 8c f9 3d 10 7d 9e 3c 8f 46 5a 3e
       0.31871778 0.12185075 0.019346744 0.21315978
000130 45 45 7a 3d b3 ac 90 3d 97 48 5a 3e 6d 05 04 be
       0.061101217 0.0706419 0.21316753 -0.12892695
000140 37 57 66 bd 5f be 1e 3e 23 ac 2d bd fa ce 7e be
       -0.05623552 0.15502308 -0.04240049 -0.24883643
000150 d4 ac 92 3d 91 a0 46 bd f3 9c ce bd 21 1d c5 bd
       0.071618706 -0.04849297 -0.100885294 -0.096246965
000160 19 d1 a8 bc c9 e7 e4 3d a3 c8 73 3d d0 fc 55 3d
       -0.020607518 0.11177022 0.059517514 0.052243054
000170 10 e8 65 3e 23 e8 da 3d 84 54 46 3e 22 41 92 3d
       0.22451806 0.10688808 0.19368178 0.07141329
000180 5a 9b ad 3c 09 4d 77 3d 37 fc 87 3e 0b 57 31 3e
       0.021192241 0.0603762 0.26559612 0.1731836
000190 12 9a 49 be d7 31 da 3d 9d 8d 2b bc 50 e8 14 bd
       -0.1968768 0.106540374 -0.010470775 -0.036354363
0001a0 65 ff 9b be f5 50 48 bd 7b 47 1e be 25 5d c0 bd
       -0.30468288 -0.04890533 -0.15456955 -0.09392766
0001b0 29 92 07 3d 3c 59 b0 bb 81 0e 7e bd 30 71 5b 3e
       0.033098374 -0.0053817313 -0.06202555 0.21429896
0001c0 12 17 63 3d fa c6 17 3d d7 97 80 bd 90 73 6f bd
       0.055441923 0.037054993 -0.06278961 -0.05845982
0001d0 99 2f ae be f8 86 cb 3c 8a a6 2b bd 7a 6d 17 be
       -0.3402069 0.024844632 -0.04190687 -0.14787856
0001e0 a3 50 ae 3e 73 bf 2f be 36 e5 3b 3e 28 74 86 be
       0.34045896 -0.17162876 0.18349156 -0.26260495
0001f0 00 26 9b 3e e1 e1 02 3e 69 e7 72 bd c6 38 e4 bd
       0.3030243 0.12781478 -0.05930272 -0.11143641
000200 91 99 8e be a2 f5 27 3e d1 98 0d 3e 26 9b 5d 3a
       -0.27851537 0.16402295 0.13827826 0.00084536
000210 ab fc af 3d f2 5f 73 3e 5c 21 01 be 1f e9 b6 3b
       0.085931145 0.23767069 -0.12610382 0.0055819894
000220 61 a3 6e bd 0c 2b 0b 3e bd e4 0c 3e cd fc 37 bd
       -0.05826128 0.1359064 0.13759132 -0.044918824
000230 9e cd 59 be 5b 68 d5 be 22 b7 93 3e a1 8f ad bd
       -0.21269843 -0.4168118 0.28850657 -0.08474661
000240 f1 ef d7 bd 00 81 8f 3e b9 2c ca bd e2 49 00 3d
       -0.10543812 0.28028107 -0.098718114 0.03132046
000250 11 89 eb 3d d0 b7 94 3e 21 99 0f be c4 0e 18 3d
       0.11500753 0.29046488 -0.14023258 0.037123457
000260 4c 41 eb bc 6c 29 9d 3c 84 83 b0 bd 98 45 08 3e
       -0.02871766 0.01918479 -0.086188346 0.13307798
000270 71 90 bc bd 66 e1 a3 bd 78 6b 73 be 2d d0 54 be
       -0.092072375 -0.08001976 -0.23771465 -0.20782538
000280 6e ad 00 be cc e7 12 3f 67 59 a4 be 8f 08 29 3e
       -0.12566158 0.57384944 -0.3209946 0.16507171
000290 ae 4a 49 be c2 6b 89 bd 66 e6 82 3d f4 71 47 be
       -0.19657394 -0.06710006 0.06391601 -0.19477063
0002a0 88 ec 81 3d 44 f8 d1 bb 1e 39 fd bc 49 06 53 3e
       0.06343943 -0.0064077694 -0.030911025 0.20607866
0002b0 22 a0 00 3d 82 e8 aa bd 24 63 ce 3e f1 51 c4 3c
       0.031402715 -0.083451286 0.40310013 0.023964854
0002c0 c4 f0 97 bc 91 c4 47 be b3 c4 84 bc 77 b4 0a 3e
       -0.018547423 -0.19508578 -0.016207075 0.13545404
0002d0 b0 a3 56 be e3 d3 74 bd 71 d8 cf bd 78 ae 23 be
       -0.2096088 -0.059772383 -0.10148705 -0.15984523
0002e0 45 9f 3a 3d fc ba 1e be 36 e0 4e 3e bc 56 83 bd
       0.045562048 -0.15501016 0.20202717 -0.06413028
0002f0 00 09 8c 3e 82 12 a9 bd 1a cf 21 3e 45 f0 62 3d
       0.27350616 -0.08255483 0.15801659 0.05540492
000300 34 86 b1 bc c6 b2 7b 3d c7 65 cd 3c d6 cb b3 3c
       -0.021670438 0.06144979 0.025072945 0.021947782
000310 fa cb 96 3e 08 33 17 be 03 d6 85 bd 46 da 83 bd
       0.29452497 -0.1476556 -0.0653496 -0.06438117
000320 02 0c 61 3e ef 6d 66 3c a5 ae a3 be 7a 7c 30 3c
       0.21977237 0.014064296 -0.3196918 0.010771865
000330 04 fc 7a 3e 01 4d 12 3e 4d 46 0c bd 75 d5 26 3e
       0.24510199 0.14287187 -0.03424673 0.16292365
000340 cb 15 3c 3e 20 96 91 bc 30 71 59 3e 7a fe 6d bc
       0.18367688 -0.01777178 0.21234584 -0.014526004
000350 30 bb a1 3e 95 37 05 3e d9 73 35 3c 4b 82 cd bc
       0.31588125 0.13009484 0.0110749835 -0.025086543
000360 a1 14 4b be 39 d0 94 bd 20 88 5c be 27 8a 4f be
       -0.19832088 -0.07266278 -0.21536303 -0.20267545
000370 9e 7b 1d ba c6 2c 3f 3e 5a 7f d0 3c a4 77 34 bd
       -0.0006007495 0.18669423 0.025451351 -0.04405941
000380 e3 f0 25 bf 4e 2a 94 bd 72 cb e2 3d 33 53 63 bd
       -0.6482069 -0.072346315 0.1107396 -0.055499267
000390 0f 7e 5b 3d 23 cc d4 3d 1e 29 12 bd 7d ad 37 be
       0.053587016 0.103904985 -0.035683744 -0.17937274
0003a0 11 ba 91 bd d5 3d cf 3e 8f 1d 53 3e f3 db 26 bb
       -0.071155675 0.40476862 0.20616744 -0.002546069
0003b0 4e 98 e7 bd c4 24 11 bd 65 2f 53 be e3 40 39 bd
       -0.11308347 -0.035435453 -0.20623548 -0.045227896
0003c0 72 25 29 be 4f d8 dd 3c d3 51 68 3d 9f 9c e5 3d
       -0.1651819 0.027080683 0.05671866 0.11211514
0003d0 3c 6d 37 bc 16 47 3f 3d 46 ab 0e 3e e9 c4 03 3e
       -0.011195477 0.046698652 0.13932523 0.12868084
0003e0 8d a9 2a bd fe cd 98 be 59 54 b4 bb 58 29 0b be
       -0.041665602 -0.2984466 -0.005503219 -0.1358999
0003f0 cf 96 64 3e 96 41 37 3e 69 e4 3d 3d 2e 96 9e 3c
       0.22323154 0.17896113 0.046360407 0.01935872

network_body.linear_encoder.seq_layers.0.bias f4 [128]
000000 15 ed 91 bc 70 af 0d bd e2 f4 08 3d 68 74 57 3d
       -0.017813245 -0.03459114 0.033436663 0.052601248
000010 17 22 20 bd a8 8d bb bb 01 0c ea 3c 31 27 97 3c
       -0.03909501 -0.005723674 0.028570177 0.018451305
000020 35 3f 36 bb 41 47 e0 bb 62 5e 03 3d 2f 19 26 3a
       -0.002780867 -0.0068444316 0.032072432 0.000633615
000030 da 56 48 bc a9 45 72 3b 93 94 88 bb c7 a8 7a 3a
       -0.012227738 0.003696779 -0.004168102 0.0009561893
000040 c5 6e 07 bc 5b 56 41 3d 1d 10 41 3c f7 d8 01 bd
       -0.008266156 0.047201496 0.011783627 -0.031701054
000050 66 30 66 bc 7a 19 01 3b 72 02 03 3c ad d6 8a 3c
       -0.014049625 0.0019699023 0.0079961885 0.016948069
000060 fe e4 8a bd 82 ee 88 bb 5b 6f 1b 3d 9d 68 be 3c
       -0.06781958 -0.004178823 0.037947994 0.023243243
000070 8b b4 fa bc 2a 07 e8 3b a2 e4 09 bc 2d b2 50 bc
       -0.030603668 0.007080932 -0.008416327 -0.012737793
000080 6a 27 4c 3c bb d0 cc bc 35 1d 3c 3b b2 56 d6 3a
       0.012460569 -0.025001874 0.0028703932 0.0016352742
000090 b5 dd f8 3c d7 64 cf 3c 29 a4 8f bc 94 69 9f bc
       0.030379156 0.025316639 -0.017534332 -0.019459523
0000a0 52 0e 75 bd 31 5c dc 3c 51 2f be ba 04 ff fb bb
       -0.05982811 0.026899429 -0.0014509951 -0.0076903123
0000b0 30 21 12 3d 72 70 91 bc 66 5b 1b 3d 6b 76 4b bb
       0.03567618 -0.017753813 0.03792896 -0.0031045924
0000c0 9b 1a ce 3c 01 d8 8d 3c 57 ef 7e bb 97 32 1c bc
       0.02515917 0.017314913 -0.0038899982 -0.009533546
0000d0 e1 54 14 bd 14 f3 57 bb a7 37 16 bc 48 5f 22 3c
       -0.03621376 -0.0032951282 -0.009168542 0.009910412
0000e0 4e ae 8b 3b 4f 45 3b bc 98 d8 e2 3a e1 ad e8 3b
       0.004262722 -0.011430099 0.0017306982 0.007100806
0000f0 da 73 54 3c d7 9b 11 3a b1 6e a7 3b af e7 8f bc
       0.012967074 0.0005554533 0.005109631 -0.01756653
000100 fd bb c2 bb 74 d2 5a 3c b3 2f 23 3c 28 c8 c6 3b
       -0.00594282 0.01335584 0.009960103 0.006066341
000110 dd 10 e1 3c 6d cc be 3b 8e e5 02 3d 95 7f 8f 3c
       0.027473861 0.0058227093 0.0319572 0.01751689
000120 d2 29 be bc c0 2f fb 3b b9 ea 7c bc 36 a4 6a bc
       -0.0232133 0.0076656044 -0.015436822 -0.0143213775
000130 c0 c1 7f 3c eb 1c b2 bb 5d 27 60 3d 85 8e 41 3d
       0.015610158 -0.005435576 0.05472504 0.047255058
000140 4b 03 6c bc 02 5e 0e bc 4a 37 65 3c ac 8c 47 bc
       -0.014405082 -0.008689405 0.013990233 -0.012179535
000150 9f 11 33 bc 1c 6b c9 3b 84 cc b0 bb b1 c2 ec bc
       -0.010929494 0.0061468016 -0.005395474 -0.02890143
000160 c6 44 24 3d ea 3f 1c bb 2d 8b e9 3c ac f0 a6 3b
       0.04010465 -0.0023841807 0.028508747 0.0050946083
000170 f0 f0 33 bd 24 6d ae 3c 2c da e5 3c 5a 5b 09 3d
       -0.043930948 0.021292277 0.028058134 0.033534385
000180 28 2b 34 bc 2e c7 33 3d cb 82 8b bc 93 c0 c2 bc
       -0.010996617 0.043891124 -0.01703014 -0.023773467
000190 9b ee 06 3c 7c f3 11 3c 5f 77 27 bd 2f 6c 1c 3d
       0.008235599 0.008908149 -0.040885326 0.03818911
0001a0 9d 4a 02 bd 3a f2 24 3d fb 62 e1 bc 93 19 6b 3b
       -0.031809438 0.040270068 -0.027513018 0.0035873398
0001b0 f0 5e ef 39 17 ee fe 3c b5 a8 85 bc 58 8f 6e 3c
       0.00045656366 0.03111939 -0.016315797 0.014560543
0001c0 94 49 c3 bb fa a7 bc 3c 69 a4 32 3c b6 69 ee 3c
       -0.005959699 0.023029316 0.010903456 0.029103141
0001d0 a0 a2 84 3b 3e 51 4e 3c 90 68 8e 3b 03 20 06 3d
       0.0040477067 0.012592612 0.004345961 0.032745373
0001e0 a1 e0 02 3b 8e d5 2e bb be ec 5a 3c ba 56 0a bc
       0.0019970315 -0.0026677581 0.013362108 -0.008443529
0001f0 5e c9 6f bc 25 8f d4 bb 36 20 14 bd 1d c0 e2 bc
       -0.014635412 -0.0064867907 -0.03616353 -0.027679497

network_body.linear_encoder.seq_layers.2.weight f4 [128, 128]
000000 cd 58 08 3d 7a 4f 1c bd 36 38 87 bd 31 34 81 bd
       0.033287812 -0.038161732 -0.06602518 -0.06308783
000010 67 2a 39 3d af 99 47 bd 2b 79 d9 3d 7a 75 6c bd
       0.045206454 -0.04873055 0.10618814 -0.057729222
000020 0e b0 94 b9 a7 af e0 3d c2 75 c8 bd f8 7a 7c bc
       -0.0002835993 0.10971003 -0.097880855 -0.015410177
000030 71 ec 32 bd 3c 87 d3 3d 58 80 53 bb 4d 15 90 3c
       -0.04368252 0.10328528 -0.0032272544 0.017588282
000040 d4 17 a6 bd d3 fb c9 bd ff 6e e6 bd c5 6f be 3d
       -0.081100136 -0.09862485 -0.112516396 0.09298662
000050 a2 01 4d bd 51 07 47 3e 2a 79 53 3c 4b 06 36 bd
       -0.050050385 0.19436385 0.012907306 -0.044439595
000060 b6 cd 94 3c 88 8f eb bd 97 ab e2 3d d4 9a 47 bd
       0.018164497 -0.11501986 0.110678844 -0.04873164
000070 a7 48 04 bd 7f 8b 0f be 89 36 e9 bc 6d f3 58 3c
       -0.03229585 -0.14018057 -0.028468387 0.013241631
000080 6e 33 e6 3c 99 03 52 3d fc 01 35 bd 06 d3 39 bd
       0.028100695 0.051272962 -0.044191346 -0.045367263
000090 8d fc 68 bc 71 7d ad bd 15 02 7e bc 57 e8 cb bd
       -0.014220369 -0.08471192 -0.015503426 -0.09956425
0000a0 b8 64 94 bc ee 6d 5a bc c2 ab fb bd 66 5e c8 3d
       -0.018114433 -0.013331873 -0.122886196 0.0978363
0000b0 ec 64 dc bc d3 f8 85 bd 89 62 48 3d f4 73 b0 3c
       -0.026903592 -0.065416 0.048922095 0.021539666
0000c0 da 6e c8 bd 52 b7 14 be 76 34 ed 3d a4 fa 81 bc
       -0.09786768 -0.14523056 0.11582272 -0.015866585
0000d0 20 cf 66 bc bb 69 c4 3c 4d bc 04 bc 16 98 27 3d
       -0.014087468 0.023976197 -0.008101535 0.040916525
0000e0 6d cb 05 3d b4 4f ac 3d ab 74 2b 3e b6 16 49 be
       0.032664705 0.0841364 0.16743724 -0.1963757
0000f0 95 07 cb bd d5 23 c3 3d cc d3 40 3e 12 9a 84 3d
       -0.099135555 0.09528319 0.18830794 0.06474699
000100 cf f6 24 3d 6e 1e 85 bc 9f d0 d3 bc 84 81 7c 3d
       0.040274438 -0.016249862 -0.025856314 0.061646953
000110 a4 48 d8 bd a6 de 1a 3d 41 21 35 bc a6 83 7f bc
       -0.1056073 0.03780999 -0.011055292 -0.015595352
000120 c5 99 ce bd 61 24 d8 bd 68 9e 8b 3d 97 14 88 3d
       -0.10087923 -0.10553814 0.06817323 0.06644552
000130 2d 85 61 3d dd 64 1a bd 8a 11 18 3c a5 ce f9 bd
       0.055058647 -0.037693847 0.009281525 -0.121976174
000140 f8 08 8f 3d 8f 63 0b be 78 f3 7d bd c5 d3 98 3d
       0.069841325 -0.13612197 -0.061999768 0.07462267
000150 6a 5e 28 bd b1 6c fe bd e6 f2 38 3d 0b ba 1f 3e
       -0.041105665 -0.12423075 0.04515352 0.15598314
000160 c8 c0 21 3d 6f 47 bc 3d 10 21 a9 bd 19 ba 53 3e
       0.03949049 0.091933124 -0.08258259 0.2067646
000170 16 b4 0a 3e 50 ed 98 bd d8 2e 6c 3e a9 79 2b bd
       0.1354526 -0.07467139 0.23064744 -0.04186407
000180 df c8 3e ba dd a2 60 bc 7b b9 4b 3d b8 67 a1 3d
       -0.0007277857 -0.013710705 0.049737435 0.07881111
000190 c6 fe db bd 56 c9 ed bd 37 89 dd 3c ed ef 13 3d
       -0.107419536 -0.116106674 0.027042968 0.036117483
0001a0 72 a5 0c be 11 ba 78 bd 82 e7 ab bd 44 7c 6f bd
       -0.13734987 -0.06072432 -0.08393766 -0.05846812
0001b0 7c 3f 3e bd cf 28 e5 3d 0e bf 4c 3d a4 63 c8 bd
       -0.046447262 0.11189424 0.04998689 -0.0978463
0001c0 4e 42 41 bd d5 00 44 3d 20 ff 51 ba d5 46 cf 3c
       -0.047182374 0.047852356 -0.0008010734 0.02530233
0001d0 92 c6 2f bd 43 00 1f 3d a3 64 b6 3d 99 aa 85 3d
       -0.04291398 0.03881861 0.08905914 0.065266795
0001e0 0b 59 16 3e 2a 4c 9b 3c 76 93 4f 3d 77 2e 49 be
       0.14682405 0.018957216 0.05067774 -0.19646631
0001f0 a5 17 b1 bc 42 5c 70 3b e4 84 47 3e 0c f0 49 3c
       -0.02161772 0.0036676084 0.19484288 0.012325298
000200 3d 49 3e 3c d3 ab c0 3c e4 a3 bf bd a4 64 46 bd
       0.011614141 0.023519432 -0.093574315 -0.048435822
000210 ee ea db 3d 86 c6 bb 3c 53 d7 35 3d 3f 31 ce bc
       0.10738169 0.022921812 0.044394802 -0.025169967
000220 06 48 7e 3c 93 c3 6e 3b 19 4c 11 bd db c5 1c 3d
       0.015520101 0.003643249 -0.035472963 0.038274627
000230 ea ec e1 bd 3d 22 4b bd c4 5c 04 3d ab 83 6a 3d
       -0.11031516 -0.0495932 0.03231503 0.057254475
000240 41 34 08 3e a0 5f 97 bd 03 dc 6b 3d 48 c5 b9 bc
       0.13301183 -0.07391286 0.057582866 -0.022677079
000250 ec f3 96 bd c3 4f 23 3e 7f 7d f7 3b 67 d7 b2 bb
       -0.07370743 0.15948395 0.007552802 -0.005457807
000260 de a8 d0 3d 11 36 73 3d 1c 25 15 3d 0c a6 04 bd
       0.10188459 0.059377734 0.036412343 -0.032384917
000270 18 3e 97 bc f2 4e 90 bc cb c4 73 bd 10 92 cf 3d
       -0.018462226 -0.017615769 -0.05951385 0.10135281
000280 98 3d 56 3d 31 08 e5 3c 93 e8 c0 3d 61 7e 77 3d
       0.052304834 0.027958008 0.0941936 0.06042326
000290 59 4a 6c bd 4d 31 9b bd aa 77 b8 3c b9 74 c6 3c
       -0.05768809 -0.07577763 0.022517998 0.02422558
0002a0 ed 28 31 3d c9 83 c6 bd 9d 47 1d bd 8f 55 1c 3d
       0.04325192 -0.09693105 -0.038398374 0.038167533
0002b0 5e 66 d1 3c aa 35 90 3c 5e 39 91 3d 59 5c d0 3a
       0.025561508 0.017603714 0.0709102 0.0015896662
0002c0 49 08 d5 bd 0c 68 1d 3d 10 68 0a be b7 9d 16 be
       -0.10401971 0.038429305 -0.13516259 -0.14708601
0002d0 15 45 79 3d f9 62 82 3d 9f d5 87 bc 69 f9 0b be
       0.060856897 0.06366534 -0.016581355 -0.13669361
0002e0 91 17 b1 bd 61 08 91 3d 7d e1 2e be 64 c4 fc 3c
       -0.08647073 0.07081676 -0.17078204 0.030855365
0002f0 78 cb e3 3c 64 ae d1 3d 1c ad 38 3e a5 01 c5 bd
       0.027806982 0.102383405 0.18034786 -0.09619454
000300 83 95 49 3c 3d 44 c7 3d dc 53 76 3d 9a ca 1c bd
       0.012303713 0.09729812 0.06013857 -0.038279153
000310 9f 02 b2 bd fe 89 42 3d c6 3f 5d bc 35 04 5e be
       -0.08691906 0.04749488 -0.013503974 -0.21681292
000320 7c 01 ed bb b5 35 41 bd cf cf 13 be 6d d1 b1 3c
       -0.007232843 -0.04717036 -0.14434741 0.021706307
000330 89 cd 12 bd 29 65 f9 3c 85 f1 cc bb 97 83 40 3e
       -0.035840545 0.030443745 -0.0062543773 0.18800198
000340 26 61 63 bc 79 58 65 bd 22 d4 8b 3e 80 42 99 bc
       -0.013878142 -0.055992577 0.27310282 -0.018708467
000350 cd 8d 00 bd a2 75 a5 bd 06 6d 00 3c 82 11 a0 3c
       -0.03138523 -0.08079077 0.007838493 0.019539598
000360 b5 6b c1 bd 1a 26 8b 3d ba 02 49 3b c2 28 ab bd
       -0.094443716 0.06794377 0.0030671791 -0.08357383
000370 c1 1d 1a 3c a5 50 09 be f2 d0 37 be cd af 9d bd
       0.009406508 -0.1340967 -0.179508 -0.07699547
000380 7a 37 ce bc 00 34 44 be 8a 96 88 bd 89 06 d0 3d
       -0.025172938 -0.19160461 -0.06669338 0.101574965
000390 c6 59 01 3e 9e c1 72 bd 25 45 43 3d f9 7d f8 bd
       0.12631902 -0.05926668 0.047673363 -0.121334024
0003a0 42 8a a3 bd 56 d7 e4 3d fe a0 75 3d 98 b5 63 3d
       -0.07985355 0.111738846 0.059967987 0.055593103
0003b0 4b 1f 4d 3c 3a d1 87 3d c4 27 65 bd cf a5 84 3d
       0.012519668 0.06631704 -0.055946127 0.06476938
0003c0 98 ed 04 3d 97 fb f2 3d 4e 94 ec bc 6b 87 a9 3d
       0.03245315 0.11864393 -0.028879311 0.08277782
0003d0 22 2b 4f 3e 9d 32 5a bd 79 dc c7 bd 3e 94 5f 3e
       0.20231298 -0.053270925 -0.09758849 0.21833894
0003e0 db b1 3e 3d b2 b4 55 bd e7 9b a9 3c 13 fa 37 3d
       0.046556335 -0.052174278 0.020704223 0.044916224
0003f0 6c ed bc 3d 1d 8e dc bd 2a 7f bb bd 89 7d 1d 3d
       0.09224972 -0.107692935 -0.09155114 0.038449798

network_body.linear_encoder.seq_layers.2.bias f4 [128]
000000 8c 23 78 3b 58 6d 3a 3c 51 bb ac 3c 46 cf 87 bc
       0.0037862984 0.011378609 0.021085413 -0.016578328
000010 1b 65 e1 3c f7 1a 5c 3c db 2d 87 ba 36 e0 90 3c
       0.027514031 0.013434163 -0.0010313349 0.017685037
000020 e4 89 45 3d 10 3e 37 bc 5c 7f 12 bc 99 88 4c 3d
       0.048227206 -0.01118423 -0.008941498 0.049934957
000030 7c c5 db 38 c8 ee 31 bc 0b c5 f3 3b e6 bb df 3b
       0.00010479518 -0.010860153 0.007439261 0.006827819
000040 6f 15 4f bc 06 17 f6 3b c2 9c 16 3b 19 b3 91 ba
       -0.0126393875 0.007510069 0.0022981619 -0.0011115997
000050 3c f1 d6 bb 48 e8 92 3c 0d cb d0 bb 9a a1 21 3c
       -0.006559519 0.017933026 -0.006371862 0.009865189
000060 2f d9 10 3d e7 67 1f bb cf 7d 46 3b 9a 17 41 3c
       0.035363372 -0.0024323405 0.003028739 0.011785412
000070 d0 74 05 3c d7 7a 86 bc 70 2a 0d b8 6e df b9 bb
       0.008145526 -0.016415996 -3.3656543e-05 -0.005672387
000080 be ee 1d 3c 4e 65 a3 3c 57 48 08 bc 2d ff 47 bb
       0.00963944 0.019945767 -0.008318028 -0.0030517087
000090 cb 8a 80 bb 18 03 e5 ba 45 81 13 3c 07 99 54 3b
       -0.0039227954 -0.0017472235 0.009002988 0.0032439844
0000a0 52 06 41 bc 4f 64 18 bc 3f a4 0a bc ca 0b 6a 3c
       -0.011781292 -0.009301259 -0.008462011 0.014285037
0000b0 08 95 02 bc e0 ad be 3b a7 ce f2 bc 4f 91 d0 3c
       -0.007970102 0.0058190674 -0.029639555 0.025459914
0000c0 4d fd f9 3c 08 72 48 bc 15 c6 30 3c 02 13 83 bc
       0.030516291 -0.012234218 0.010789414 -0.016000275
0000d0 b4 59 13 bc 25 7d 98 bb 74 77 42 3b cc e2 c5 3c
       -0.008993555 -0.0046535903 0.002967325 0.024155997
0000e0 3c 35 f4 3b c8 b2 3b 3c 52 34 a8 3c 9b 87 5d bb
       0.007452635 0.011456199 0.02053276 -0.003380275
0000f0 15 c8 40 3a 99 02 14 bb c8 f3 df 3c 68 a9 6a 3c
       0.00073540333 -0.0022584556 0.027337924 0.014322616
000100 d1 cd 72 3c 5c 8d a1 3c ce 63 4a bb 68 fb f5 3b
       0.014819578 0.019720726 -0.0030882242 0.0075067766
000110 c5 c2 5b bc dd c6 d2 3c d6 e4 15 3d 25 7f 44 3d
       -0.013413136 0.025729591 0.036595188 0.047972817
000120 f1 c9 3f 3c d2 c2 9e bb ff 20 74 3c c4 8e 66 3b
       0.011705861 -0.0048450017 0.014900445 0.003518031
000130 07 45 88 3a 86 80 41 bb 62 58 24 bc c3 4a 54 bc
       0.0010396548 -0.0029526069 -0.010030838 -0.012957278
000140 e2 13 4e 3c b8 41 ca 3c d2 f3 db 3c c6 8e 2f 3b
       0.012577983 0.02468954 0.026849661 0.002678798
000150 70 ee 8d b7 4b af 01 bc 89 77 f9 3a b6 70 d8 3c
       -1.6919541e-05 -0.007915328 0.0019032817 0.026420932
000160 4e 6d 56 3c 97 2a 2d bc 65 f2 90 bc da 71 d1 3c
       0.013087584 -0.010569236 -0.017693708 0.025566984
000170 0b e2 67 bc 18 11 81 bb a3 d6 50 bc 37 0b c4 bc
       -0.014153014 -0.0039388053 -0.012746486 -0.023931129
000180 8f 5b 8e bb 07 50 76 bb 13 d5 a2 3c 28 45 8d bc
       -0.0043444107 -0.003758432 0.019876992 -0.01724489
000190 43 65 9b bc 5b 1f 58 bc ac 8b 8b 3c 05 ca bb 3c
       -0.018969184 -0.0131910695 0.017034374 0.022923479
0001a0 f5 4b a9 3c 80 91 aa 3b 3f 28 b7 3b 74 6c 09 3d
       0.020666102 0.0052053332 0.0055895145 0.033550695
0001b0 02 a3 87 3c 54 22 d8 3c f7 64 70 bc 24 95 90 3c
       0.01655722 0.026383556 -0.014672509 0.01764924
0001c0 f5 2e 65 bc 93 d0 29 3c 7e da 78 3c 25 f7 01 3d
       -0.013988246 0.010364669 0.015188811 0.031729836
0001d0 c6 8b 14 3c 0e a1 d2 ba 19 92 ca bb 4f ab 9b bb
       0.009066528 -0.0016069727 -0.006181967 -0.004750646
0001e0 14 62 57 3c 08 53 80 3b eb 87 08 bc 4c 58 e8 bb
       0.013145942 0.003916148 -0.008333187 -0.007090604
0001f0 03 9f 8d bc 0f bb b3 3b a5 1c 35 3b 73 03 b5 bc
       -0.017287737 0.0054849456 0.0027635482 -0.022096371

action_model._continuous_distribution.log_sigma f4 [1, 2]
000000 05 48 34 3d 5f 90 81 3d
       0.044013996 0.06326365

action_model._continuous_distribution.mu.weight f4 [2, 128]
000000 11 aa c1 3b 36 24 89 3c c9 f4 34 bc e7 a2 c1 3c
       0.005910166 0.0167409 -0.011044689 0.023637248
000010 46 30 90 bc 73 bf 6b bc fe 49 10 bd 2a 48 81 bc
       -0.017601144 -0.014388907 -0.035226814 -0.01578148
000020 e5 22 83 bc e3 1e 2a ba 15 46 af bc b1 18 a9 bb
       -0.01600785 -0.0006489588 -0.021395722 -0.005160414
000030 3a be b7 bc 69 36 9e bb 8b 71 8e 3c 2f 49 43 3c
       -0.022429574 -0.0048282635 0.017388126 0.011919304
000040 57 47 e0 bc c8 8e b4 3b 57 6a 5a bb 9a 15 db bb
       -0.027377767 0.005510185 -0.0033327544 -0.0066859247
000050 e3 9d 0c 3d bd f7 8b ba 1e 3d 8d 3c 1d a4 fb 39
       0.03433026 -0.001067869 0.017241057 0.00047996725
000060 bd e3 bf bc d6 8a ca ba 43 e4 a3 3c a6 9f 9d bc
       -0.023424024 -0.0015452753 0.020006305 -0.019241165
000070 d2 7b 29 bb 67 ea 25 b8 2d 11 7b bc 6b 14 dc bc
       -0.0025861156 -3.955737e-05 -0.015323919 -0.026865205
000080 bc ef 3f 3c fc ba 8b 3c fa d3 c8 bc 35 b1 8c 3c
       0.011714872 0.017056935 -0.02451514 0.017174343
000090 b6 91 92 bb fa b1 4e 3c ad a9 4a bb c4 3e 06 bc
       -0.0044729365 0.012615675 -0.0030923889 -0.008193675
0000a0 ed d8 24 ba 40 c6 92 bc 85 ee 0f bb 80 2d dd 3c
       -0.0006288428 -0.017916799 -0.0021962237 0.026999235
0000b0 a5 56 ab bc 22 ac 14 bd e1 63 29 bd 83 94 64 bc
       -0.020915339 -0.03629697 -0.041355018 -0.013951424
0000c0 e3 f7 99 3a d7 54 3d bd 2f 88 9c bc bd c7 85 3c
       0.001174685 -0.046223488 -0.019107906 0.016330594
0000d0 7c c4 00 bc 67 7c 9c 3c 9d 48 c6 bc 4a 75 46 ba
       -0.0078593455 0.019102288 -0.024204547 -0.0007570578
0000e0 2f 05 07 bc df 47 00 bd ca ee 0c bc 98 bb 19 bd
       -0.008240982 -0.03131854 -0.008601854 -0.03753242
0000f0 88 a5 e9 3b 92 5a 02 bb 1f 6f c9 3c 77 bc c2 bb
       0.0071303286 -0.001989041 0.02458912 -0.005942877
000100 c7 58 f6 bc 9f 7e 08 bc 97 4a 2c 3c 44 2f 2a 3d
       -0.03007163 -0.00833097 0.0105158305 0.041548982
000110 92 f6 53 ba 2b 96 08 3d 86 e0 3c 3b 9b 12 8f bc
       -0.0008085753 0.033346336 0.002882035 -0.017464926
000120 18 a9 94 bb 12 64 42 3c 86 f4 f0 3c 42 94 9d bc
       -0.004536759 0.011864679 0.029413473 -0.019235734
000130 72 28 9d 3c 48 37 54 3c d2 90 f2 bb 14 42 5e bc
       0.019184325 0.012952633 -0.007402518 -0.013565559
000140 9b d2 a8 3c b0 a1 f1 b9 77 fd 0b bb 6b 63 5b bc
       0.020608237 -0.0004608757 -0.0021360794 -0.013390402
000150 c6 3c b1 3b 29 9a cf bc d4 25 08 bc 43 ab 91 3c
       0.005408856 -0.025342064 -0.0083098 0.01778186
000160 6c 69 a4 3c bf 21 d2 3c b6 d1 50 bb cc c5 2c 3c
       0.0200698 0.025650857 -0.0031863279 0.010545205
000170 ce 45 0f bc 72 b2 da 3c ca 22 be ba 2f 2e 6f bc
       -0.00874467 0.026696417 -0.0014506218 -0.014598413
000180 84 e0 2c 3a f3 05 58 bc 5a 84 5a bd 90 08 3a 3b
       0.0006594735 -0.013185012 -0.053348877 0.0028386451
000190 7e f7 98 bc 03 72 f7 3b a1 1a c5 3b 65 08 17 3b
       -0.018672701 0.007551433 0.0060151373 0.0023045775
0001a0 42 36 2e 3d 1a 4d 9d 3b a7 58 34 bc b8 4a dd ba
       0.042532213 0.004800451 -0.0110074645 -0.001688323
0001b0 04 a2 04 3d 1a 8f 9b 3c 26 38 03 bc 8f 89 e5 bb
       0.032381073 0.018989135 -0.008008992 -0.0070049237
0001c0 d4 26 ec bc da 85 08 bd e0 38 b5 bc b1 31 1b bc
       -0.028827108 -0.033330776 -0.022121847 -0.009472297
0001d0 6e fb c9 3b 77 73 33 3b 32 98 2e bc bc 9a e2 3b
       0.006164006 0.0027382055 -0.010656403 0.0069154184
0001e0 a2 c3 f7 bc 30 2e 4e bd 2f 7c c5 3c 91 26 b6 3c
       -0.030244652 -0.050337017 0.024107067 0.022235187
0001f0 34 f5 1b bb 6c 60 9b bc a6 80 86 3c 28 f7 93 bb
       -0.0023797275 -0.018966876 0.016418766 -0.0045155473
000200 d4 34 6d 3c 86 4b 3c 3c c6 b0 07 bd 6e c2 cd bc
       0.014477927 0.011492616 -0.03312757 -0.025117125
000210 f9 81 db 3c cc d9 00 3c e2 c7 e4 bc 53 15 d4 3c
       0.026795374 0.007864427 -0.027927343 0.025889074
000220 ee 4e 4a 3d d1 d5 63 3b c3 38 38 bd b8 41 21 3d
       0.04939168 0.0034764896 -0.044976007 0.039369315
000230 80 b8 71 bc bb ab d7 ba 1f b8 b4 bc d4 08 0c 3c
       -0.014753461 -0.0016454378 -0.022060452 0.008547027
000240 9f cf d5 ba af 7f 92 bb dc 27 cd 3c a4 56 09 bd
       -0.0016312486 -0.0044707875 0.02504342 -0.033529893
000250 88 7c 14 bd 8a 38 50 3c 78 19 a8 bc 90 a8 54 3b
       -0.036251575 0.012708792 -0.020519957 0.0032449104
000260 0b fd 6d 3d 2b f8 82 b9 a6 2e db ba e1 9e 54 b9
       0.05810265 -0.00024980432 -0.0016722276 -0.00020277083
000270 d9 ba e9 bb 00 3c cc bc d9 39 10 bc d6 d3 4c bc
       -0.0071328697 -0.024930954 -0.008802854 -0.0125016775
000280 3e 58 01 bd 5c 8d bf 3c de 89 bb bc 72 23 f5 3c
       -0.031578295 0.023382835 -0.022892889 0.029924128
000290 2e e3 9e 3b cf 82 51 3c fe ec 42 3b 7d c8 a0 bc
       0.0048488593 0.012787535 0.002974331 -0.01962685
0002a0 8b 22 a6 bc a3 0e 88 bb e7 7e 5d 3b 4a af ad 3c
       -0.020280143 -0.0041521355 0.0033797564 0.021201748
0002b0 fa 1d 90 bc f0 fe da bc 45 dd b0 3c 6c a6 4b bc
       -0.017592419 -0.026732892 0.021589885 -0.012429815
0002c0 67 c5 f7 3c c9 34 c0 3c 44 c6 38 bd f2 fe 04 bd
       0.030245496 0.02346267 -0.045110956 -0.032469697
0002d0 ff 40 c4 3c 7f 67 c7 bc 31 69 c3 3b ea b1 8a 3c
       0.023956774 -0.024341343 0.0059634675 0.01693054
0002e0 8d 98 34 bd 80 61 0b bc 54 80 fb 3b bf c4 5c ba
       -0.044090796 -0.0085071325 0.00767521 -0.00084216514
0002f0 a3 3c a4 3b a7 47 ef bc 9e fa 95 3b c0 59 29 3c
       0.0050121113 -0.029208971 0.004576995 0.0103363395
000300 8c f4 18 3d 3e 22 61 3c 70 a5 2e 3c 6d 2d 74 bc
       0.037342593 0.013741074 0.010659561 -0.0149034085
000310 97 9a dc bc 26 af c3 3b ee 24 63 3c a9 1c 41 3d
       -0.026929183 0.005971807 0.013863785 0.047146473
000320 42 3e af 3b 33 40 aa 3b 77 f8 88 bc c8 46 b1 3a
       0.005347998 0.0051956414 -0.01672004 0.0013525123
000330 fb 13 58 bb a4 45 fa 3b c2 0c a7 bb da ec c3 3a
       -0.0032970894 0.0076376963 -0.0050979564 0.0014947907
000340 59 ba fd 3c 3d c7 19 3c 44 61 87 3c 83 02 15 3b
       0.030972647 0.009385881 0.016525872 0.0022737093
000350 96 12 16 3a f0 3c ed 3b 8c 0a 2a bd 14 0a 9e 3c
       0.00057248154 0.0072399303 -0.041513965 0.019291915
000360 e7 25 b0 3c 20 9b ae bc 74 eb 96 bc 42 06 4e 3c
       0.021502448 -0.021314204 -0.01842282 0.012574734
000370 49 dc 41 bc 39 f9 d3 bb ce 07 df bc d7 80 85 bc
       -0.011832305 -0.0064689186 -0.027225401 -0.016296787
000380 10 e4 05 bd c7 5a 3e bd 65 73 08 3c 66 ff be bc
       -0.0326882 -0.04647329 0.008328293 -0.023315143
000390 e2 c7 22 bc 4d 02 68 bc 8e b0 c6 bc 2f ed 5d bb
       -0.009935351 -0.014160705 -0.02425411 -0.0033863296
0003a0 05 09 56 bc 2d 85 2f ba 9d de 05 3c 88 64 ea 3c
       -0.013063674 -0.0006695565 0.008170751 0.02861239
0003b0 0f 13 e5 3c e8 a6 5d 3c 5f e9 5a 3b 31 b9 a3 3c
       0.02796319 0.013528563 0.003340326 0.019985767
0003c0 32 ba f9 3b e1 b6 e0 3c 36 60 4a bc 2e 53 42 3c
       0.007621073 0.027430953 -0.01235204 0.011860652
0003d0 bc 43 51 bb 4a 73 3e bd b0 4f 68 bb 45 b9 28 bb
       -0.0031931242 -0.046496667 -0.0035447888 -0.0025745195
0003e0 62 95 3a 3d 4f 6f 37 bd 86 57 9d bc ab 3d aa 3b
       0.04555262 -0.044783887 -0.019206773 0.0051953397
0003f0 91 77 46 bc 6f c0 81 bc 57 76 c3 ba 17 8b e4 bc
       -0.012113468 -0.01583883 -0.0014912587 -0.027898354

action_model._continuous_distribution.mu.bias f4 [2]
000000 d7 76 6b 3b 2c 28 b8 3c
       0.0035928988 0.022480093

action_model._discrete_distribution.branches.0.weight f4 [2, 128]
000000 41 19 e3 bc a8 f0 2c 3c d2 c6 a9 bd e2 df 5a b9
       -0.027722003 0.010555424 -0.08289875 -0.00020873503
000010 07 20 bf bc ae 84 f4 bc 0b 43 7f bd 30 79 f6 ba
       -0.023330702 -0.029848423 -0.062319797 -0.0018804427
000020 46 f7 02 bd c4 a0 4b bc c4 87 3e bd dc 80 b8 bc
       -0.0319741 -0.012428466 -0.046516195 -0.022522382
000030 48 55 40 bd 4b 7b 87 3c fa 7c e5 3c 66 eb c9 3b
       -0.04695633 0.016538283 0.028013695 0.006162095
000040 17 92 2b bc 0b e7 1f 3d 32 1c 81 3c b3 00 49 bb
       -0.010471842 0.0390387 0.015760515 -0.0030670583
000050 24 41 5c 3c 4b 4e d2 3c 47 95 6a 3c 08 5a 35 bc
       0.013443265 0.025672099 0.014317817 -0.011068828
000060 7b fc a4 bc 0b 61 31 bc cf a0 23 bb de 1e 5d bd
       -0.020139923 -0.0108263595 -0.0024967676 -0.053984515
000070 70 74 01 bd f7 ff af 3c 64 a8 8d bc 35 6e 0d 3c
       -0.031605184 0.021484358 -0.017292209 0.008632232
000080 a3 de a4 3c e1 68 7c 3c 02 e6 49 bc f1 13 1c 3b
       0.020125693 0.015405864 -0.012322905 0.0023815597
000090 66 10 5b bd 6a 7f 0f bb 26 e9 12 bc f6 f5 4f bc
       -0.053482436 -0.0021896013 -0.00896672 -0.012692919
0000a0 c0 8e a4 bc 2c 65 20 bd fb d6 0f bd 07 4a cd 3c
       -0.0200876 -0.039158985 -0.03511713 0.025059713
0000b0 7a 83 9f bc 60 e0 08 bd 43 ab 8b bc b2 11 17 bd
       -0.019471873 -0.033417106 -0.017049437 -0.03688211
0000c0 07 5c 1b 3c 23 17 02 3c 11 b5 b8 bd 88 79 66 3c
       0.00948239 0.007940087 -0.09018911 0.014067061
0000d0 04 e9 01 bc 1a 93 78 3c 26 90 d9 bb f5 5e e0 3b
       -0.00792909 0.0151717905 -0.0066394983 0.0068472573
0000e0 c9 85 d8 bc 33 73 e9 bc 88 1d a4 3a c6 81 08 bc
       -0.026430981 -0.028497314 0.0012521008 -0.008331722
0000f0 25 cd b1 ba bf 46 eb bc 79 43 4a 3d 51 36 82 3c
       -0.0013565166 -0.028720258 0.049380753 0.01589504
000100 bd f0 e7 ba 2e 28 c5 bb a1 cb 59 bc 45 93 e8 3b
       -0.0017695647 -0.0060167527 -0.013293178 0.007097634
000110 1b 93 08 bd cc c8 65 3d ef 60 f3 bb fa 95 ea bc
       -0.033343416 0.056099698 -0.007427327 -0.028635968
000120 4f 05 35 3c 4f 7f 17 bd 5f 4f 7b 3d 5b 80 bc 3b
       0.011048629 -0.036986645 0.06135499 0.005752606
000130 d5 73 54 3b a7 86 b4 b9 03 86 41 3c 24 f5 ed bc
       0.0032417674 -0.000344326 0.011811736 -0.029047556
000140 c6 d8 5b 3c 38 08 bf 3b 9c 77 4f bc 65 a5 64 bc
       0.013418382 0.005829837 -0.012662794 -0.013955449
000150 46 bf 8d 3c 8a 90 1e bd f6 90 31 bb 42 fe 1a 3d
       0.01730312 -0.038712062 -0.002709446 0.037840135
000160 af 08 1d ba 0e 89 ca bb ce 3f 0a 3c 90 63 8a 3c
       -0.00059903687 -0.006180889 0.008438064 0.016893178
000170 57 7b b3 bc 75 ac 5f 3b a0 e3 15 bb a8 e8 86 3c
       -0.021909399 0.0034129892 -0.002287127 0.016468361
000180 da 08 2c bc 71 a9 af bc f2 6d 27 bd af 28 0c 3d
       -0.010500157 -0.0214431 -0.040876336 0.034218486
000190 48 a7 02 3c 72 7c 39 3c ea 9a 2b 3c f4 4a 4c bd
       0.007974453 0.011321174 0.010473946 -0.04987617
0001a0 8a ef 48 3d 08 b3 e1 3b 8f 59 ce bb e4 4e 1a bc
       0.049056567 0.0068877973 -0.0062972973 -0.009418223
0001b0 a8 0c 7c 3c 72 c0 8c 3d ec de 51 bc fc 32 27 3d
       0.015383877 0.068726435 -0.012809496 0.040820107
0001c0 30 80 8d bc 44 1b c4 3c 9d 11 66 bd 5b ed 87 bd
       -0.017273039 0.023938783 -0.05616914 -0.06637069
0001d0 2b 05 c5 3c 8f 48 c4 bc e5 48 8c bc ef 45 c5 3b
       0.024050316 -0.02396038 -0.017124603 0.0060202996
0001e0 1b 24 ec bc 01 83 8d bd 9e 27 92 3c 1f 31 77 3c
       -0.02882581 -0.06909753 0.017841157 0.015087395
0001f0 68 05 f4 bb 59 9f 0f bd 42 92 78 bc bd 19 34 3a
       -0.0074469335 -0.035064075 -0.015171589 0.00068702904
000200 a0 11 fb 3c ec 74 34 3c a8 6a 9e 3d bf 7c 35 3a
       0.030648053 0.0110142045 0.07735187 0.00069231907
000210 03 be c9 3c 72 d5 b3 3c 12 a8 a2 3d fa 4f 1f bb
       0.024626737 0.021952365 0.07942213 -0.0024309144
000220 8f 3d 64 3c 93 05 4f 3b 1d 0a 24 3d 48 e7 2a 3d
       0.013930692 0.0031589016 0.040048707 0.041724473
000230 ed 5f 40 3d 66 65 59 bc 4b 4c 08 bd c5 e8 c2 3b
       0.046966482 -0.013268804 -0.033275884 0.0059481584
000240 92 35 af 3c fe 27 6b bc e4 c9 0d 3b 85 bb 12 bc
       0.021387849 -0.014352797 0.0021635229 -0.008955841
000250 37 60 81 bc 10 bf 9e bc 88 c1 f0 bc df d5 04 3c
       -0.01579295 -0.019378215 -0.029389158 0.0081076315
000260 97 13 90 3c f0 7b 8b 3c 2d 2b 65 3c c8 d5 0b 3d
       0.017587466 0.017026871 0.013987345 0.034139425
000270 fd 57 00 3d c5 ca 45 bb ab 82 88 3b f7 a3 a9 bc
       0.031333912 -0.0030180675 0.0041659675 -0.020708067
000280 8f be 3d bc 84 5f 22 bd 78 55 d1 3b 34 9b 09 3c
       -0.011581077 -0.039641872 0.0063883625 0.00839882
000290 cb 98 05 3d 20 b6 f9 3b 9d 5c e2 3c 87 63 78 3c
       0.032616418 0.007620588 0.027632052 0.015160448
0002a0 ca c2 14 3c 73 1e ca 3c 9d 61 9b 3c 8e 6c 5b bc
       0.009079644 0.024672722 0.018967444 -0.013392581
0002b0 bb 39 9c 3c 96 d5 56 3d f8 f4 ce 3c bf 68 5a 3d
       0.019070497 0.052449785 0.025263295 0.05332255
0002c0 5e 50 99 3b 88 f4 09 bc a1 f7 bf 3d f7 49 b3 bb
       0.00467877 -0.008420117 0.09373403 -0.005471464
0002d0 f8 8b b5 3c b2 3a 16 3b d2 6f 5b 3c 03 5c 7c bc
       0.022161469 0.0022923169 0.013393359 -0.015402797
0002e0 3f 87 af 3b d9 45 c2 3c 16 3e df 39 3f 64 f7 3c
       0.0053566988 0.023714947 0.00042580132 0.030199168
0002f0 35 20 17 3c 3e 27 e9 3b 52 d0 92 bd b1 91 b6 bc
       0.009223987 0.0071152737 -0.0716864 -0.022286268
000300 a3 70 2a 3c e7 ae 04 3c 8a 06 b0 3c 45 43 e2 3b
       0.010402831 0.008098341 0.021487493 0.006904992
000310 cf d9 45 3d 71 e1 6c bd 13 4a ab 3b f7 aa 1c 3d
       0.04830342 -0.057832185 0.005227336 0.038248982
000320 3a ba 4e 3c f5 c1 ec 3c 49 30 8f bd 6a c4 1c 3c
       0.012617642 0.02890108 -0.069916315 0.009568313
000330 b1 79 0b bc 51 b6 3e 3c c2 9c c7 ba b2 44 f5 3c
       -0.0085129 0.011640147 -0.0015229213 0.029939983
000340 d8 91 8f bc bc db 8b bc 53 db a5 3c 1b c5 8e 3c
       -0.017525598 -0.017072551 0.020246183 0.017427972
000350 a2 9d a0 bc 54 82 40 3d f7 ab da bb ec 4c 40 bc
       -0.019606415 0.04699929 -0.006673332 -0.01173709
000360 7c d8 7b bc c2 6a 9e 3c 03 ac 6f bb cb 9b 86 bc
       -0.015371438 0.019338015 -0.0036571033 -0.01643171
000370 4f e5 84 3c bc e5 c3 bb 39 b6 40 3c 1e 54 73 3b
       0.016222624 -0.005978314 0.011762195 0.0037128995
000380 ab 09 ef bb 3b 3a f8 3c b9 f6 78 3d c6 9f ff bc
       -0.0072948537 0.030301204 0.060782168 -0.031204116
000390 c2 6b fa 3a 14 a9 2b bc e5 7d 79 bb f2 f4 12 3d
       0.0019105601 -0.010477323 -0.0038069424 0.03587813
0003a0 70 28 82 bd 99 c4 9c bb ac c2 37 3b 14 cd 43 3c
       -0.06355369 -0.0047841785 0.0028039617 0.01195075
0003b0 f7 00 cc bc af 07 59 bd ae 91 8d 38 a0 68 8d bc
       -0.024902804 -0.052985843 6.750539e-05 -0.017261803
0003c0 48 7c f7 3c 6c bc 59 3c bd 46 0c 3d c4 1d 9e 3d
       0.03021063 0.013289552 0.03424715 0.07720521
0003d0 4e 19 28 bd 51 f5 98 3c ff 21 16 3c 57 ac 9a bc
       -0.041039757 0.018671663 0.009163379 -0.018881006
0003e0 d8 e7 44 3d de 34 9b 3d b7 81 7e bc 06 17 2e 3c
       0.048072666 0.07578443 -0.015533856 0.010625606
0003f0 b2 2b d6 3c 65 7e b2 3c 97 14 18 3b 81 79 16 3c
       0.026143882 0.021788785 0.0023205632 0.009184242

action_model._discrete_distribution.branches.0.bias f4 [2]
000000 83 f7 20 3c 77 f7 20 bc
       0.009824636 -0.009824625

critic.network_body.linear_encoder.seq_layers.0.weight f4 [128, 30]
000000 5a ae 44 be d7 fe 74 3e 3f 87 03 be c8 f4 80 3e
       -0.19207135 0.23925339 -0.12844561 0.25186753
000010 69 ae b4 bd ae 6b 0b 3e 9e 6b a4 be 81 49 05 be
       -0.088223286 0.13615295 -0.32113355 -0.13016321
000020 31 24 2f 3e f5 2a 66 3e d0 aa 1f 3e 71 c3 0d be
       0.1710365 0.22477324 0.15592504 -0.13844086
000030 82 65 8d be f5 a2 8d be 07 b3 61 bd e4 6d 83 bd
       -0.27616507 -0.2766339 -0.055102374 -0.06417444
000040 09 e1 db bd 34 6d 82 3c 50 bd 35 3d 6a c9 b1 3e
       -0.107362814 0.015921213 0.044369996 0.3472398
000050 51 8d f6 bc b4 dd c5 3e 13 cd 88 3e 15 6a 9e bd
       -0.030096682 0.3864571 0.2671896 -0.07735077
000060 da a4 2d bd c1 86 ac 3e b4 6c f4 bd c5 cd 99 be
       -0.042393543 0.3369656 -0.11934796 -0.30039802
000070 5f e2 d1 bd 54 07 0c 3e b3 68 00 3e 5f e4 48 bc
       -0.10248255 0.1367467 0.1253994 -0.012261479
000080 f7 62 c4 3e df f0 12 3d 35 38 74 3e 59 96 c9 bd
       0.38356754 0.035874244 0.23849566 -0.0984313
000090 ab ca f1 3d c0 eb 02 3e 2a 3c 24 bc 9f b6 7b bd
       0.11806234 0.12785244 -0.01002411 -0.061453458
0000a0 c6 f6 d3 3d 8c 5b 13 be 63 1b 99 3d e0 6b 5c 3e
       0.10349803 -0.14390391 0.07475927 0.21525526
0000b0 fb 3e dc bd b4 90 cf 3e 0b 5e 07 3d 19 8e 43 be
       -0.107542 0.40540087 0.03304867 -0.19097175
0000c0 25 ac 6c 3d d1 a7 f7 be 57 43 4d 3c b4 89 e0 3d
       0.057781357 -0.4837022 0.012528262 0.10963765
0000d0 6a 7f 29 3e 49 65 b2 3c 8c d7 4c 3e 10 92 1d 3d
       0.16552511 0.021776812 0.200041 0.038469374
0000e0 59 3e 14 be b3 a8 af 3e 51 2b 7f 3e 3d a6 02 3e
       -0.14476909 0.34308395 0.24918868 0.12758727
0000f0 20 82 8c 3e b5 bb c0 3d 07 16 8f bd 5f 44 29 3e
       0.27443027 0.09410802 -0.06986623 0.16529988
000100 4f cc be bc 32 1a 61 3e 57 25 16 3e ea 98 76 be
       -0.023290781 0.21982649 0.14662682 -0.2408177
000110 01 f7 85 3e b5 68 8c be 1e 62 05 3d bd ff 8b be
       0.26165012 -0.27423635 0.032564275 -0.2734355
000120 f7 58 14 be b2 47 2f 3e 9f 70 0c be 3f 44 dd 3e
       -0.14487062 0.17117193 -0.13714837 0.4321613
000130 35 8e 11 3e c1 98 d9 3d 99 e2 71 bc 2d 83 4a bd
       0.14214404 0.106248386 -0.014763498 -0.049441505
000140 87 96 50 3e 2e 6d f9 3d 87 97 d9 be e6 73 80 bd
       0.20369922 0.121790275 -0.4249842 -0.06272106
000150 59 8e b6 3d f6 b4 6c be 4b fc ae bd a9 6c 71 bd
       0.089138694 -0.23115906 -0.08544215 -0.058941517
000160 f2 8a 27 be f5 8f 85 be cf 0c b3 3a 8a 09 6f 3e
       -0.16361597 -0.26086393 0.0013660433 0.23343483
000170 be 35 88 3d 8f f5 3f 3e 68 1e 27 be c6 81 bb bd
       0.066508755 0.18746017 -0.16320193 -0.09155612
000180 f1 b5 42 3d 5e 04 25 3d 97 a9 06 be 30 57 33 be
       0.047536794 0.040287368 -0.13150631 -0.17513728
000190 c5 5d ca 3d c6 50 7c bc 5b dd a3 3d 29 df 5f be
       0.09881166 -0.015400117 0.080012046 -0.21862473
0001a0 52 20 a0 3b 86 02 e0 3e 9a cc 6b 3e 22 da 86 3e
       0.0048866654 0.43751925 0.23027268 0.26338297
0001b0 cc 1e 80 3c 51 86 d3 be ac 48 44 be 7c 13 4a 3d
       0.015639685 -0.41313413 -0.19168347 0.049334988
0001c0 af 4e 28 3e 70 32 56 be a3 fe 63 bd 17 16 d3 be
       0.16436265 -0.20917678 -0.055662762 -0.4122779
0001d0 14 af 2a 3e 3d 7f 31 3e a4 94 c1 3d d0 73 5b be
       0.1666835 0.17333694 0.09452179 -0.21430898
0001e0 c3 ae 27 be fe 0b 21 3e 0a 99 1c 3e 3e 40 d0 3b
       -0.1637526 0.15727231 0.15292755 0.0063553145
0001f0 c5 16 22 3e ea 6c 56 3e da 45 6e 3e 7d f9 32 3e
       0.15828998 0.20939985 0.23268834 0.17477985
000200 c4 54 a2 3e 64 08 fd bd 89 11 e2 bc b1 11 e7 bd
       0.31705296 -0.12355116 -0.027596252 -0.11282671
000210 c2 60 10 bd 98 96 01 3e 62 56 85 3d cd 6b bc 39
       -0.035248525 0.12655103 0.06510617 0.00035938472
000220 d3 c2 84 3d e4 6c 17 be 4f 15 37 3e d3 9c 2a be
       0.06482472 -0.14787632 0.17879222 -0.16661386
000230 b6 4d 14 be 75 c7 ea bd de 25 8d bc 88 a2 2e bd
       -0.1448277 -0.11463825 -0.01722997 -0.04263547
000240 75 1b ab 3d 10 d0 91 3e 10 dc d5 bd b3 f4 b4 3e
       0.083548464 0.28479052 -0.10442364 0.3534294
000250 d7 2d a7 3d 63 d7 8b 3e 4d b2 5a be 86 58 e2 3d
       0.0816304 0.27312765 -0.21357079 0.11052041
000260 9d ec 1f bb a4 21 ef bc 65 1f 4d be 29 c1 0c be
       -0.0024402507 -0.029190846 -0.20031507 -0.1374556
000270 6b 03 ae 3c b6 2e cb bd 21 87 65 be d7 cc 3a 3d
       0.021241864 -0.09921019 -0.22414829 0.045605507
000280 05 ae b0 bd ce 38 ee 3c 36 ed 35 be e3 e7 2d be
       -0.086269416 0.029079821 -0.1776627 -0.16982989
000290 0c cf b9 3d 5a 1e 10 3d 6c 18 0c 3e 4d 06 c2 bd
       0.09072694 0.035185196 0.13681191 -0.09473858
0002a0 46 84 26 be 8e e7 57 3d 45 53 b1 3e d8 4d c7 3d
       -0.16261396 0.052711062 0.34633842 0.097316444
0002b0 37 50 be bd 12 ee 04 bd de 60 e6 3d be 7d b5 be
       -0.092926435 -0.032453604 0.11248945 -0.35447496
0002c0 f0 6b c2 bd 66 69 03 3e f2 12 13 3e 66 4d ba 3d
       -0.09493244 0.12833175 0.14362696 0.09096794
0002d0 57 7e 8e be b6 01 39 3c f7 4c df 3d 69 09 83 3c
       -0.27830765 0.011291912 0.10903352 0.015995698
0002e0 f0 79 bc bd 0a bb 46 3e 97 78 42 bd b3 07 d8 3d
       -0.09202945 0.19407287 -0.047478285 0.105483435
0002f0 51 dc 01 3e be 7c b7 be b7 59 9d be 6b 50 22 bd
       0.126817 -0.35837358 -0.3073251 -0.039627474
000300 05 f4 2f bd c2 3b 55 3e 84 5b 00 3d 26 09 cd bd
       -0.042957325 0.20823577 0.031337276 -0.100115106
000310 cc 88 ab bc 7c b3 bd bd 4f 77 a5 be 5e 6a b3 3c
       -0.020939253 -0.092627496 -0.32317588 0.021901306
000320 48 ef 56 be 5a 40 49 3e 6e 26 be 3e 72 ad 1f 3e
       -0.20989716 0.19653454 0.37138695 0.15593508
000330 0f c8 ae 3d 6d 75 cd bd 11 a1 56 bc 64 28 80 3e
       0.08534252 -0.10032163 -0.013099925 0.25030816
000340 ba bb 12 3e 60 c2 0b 3e 2a d2 3d 3e b7 a5 77 be
       0.14329425 0.13648367 0.18537202 -0.24184309
000350 9d a1 65 be 3d 5c c3 bc 24 ff 01 3e d4 b1 41 be
       -0.22424932 -0.023847694 0.12694985 -0.18915492
000360 67 5c 87 3e 2e 83 ce 3d e0 bc 29 be 63 60 98 3d
       0.26437685 0.10083614 -0.16575956 0.07440259
000370 f3 9a 9d bd cb 01 a6 3d 9c a3 14 bc 6e d5 5d 3e
       -0.0769557 0.08105811 -0.009072211 0.21663448
000380 08 ae 04 be 9e 8d da bd c3 71 3a 3e c6 2a df 3d
       -0.12957013 -0.106715426 0.18207459 0.1089683
000390 38 34 13 3e e1 ef 34 3e 91 b0 4a 3e 07 14 63 3d
       0.14375389 0.17669632 0.19793917 0.05543902
0003a0 93 0c 9d 3d 2e 2d 45 3e c0 88 6a be ed 63 85 3d
       0.07668414 0.19255516 -0.22903728 0.065132
0003b0 6e f4 0f be 1c 83 c4 bd 45 04 08 bf 50 51 79 be
       -0.14058086 -0.0959532 -0.53131515 -0.24347425
0003c0 61 f8 0d 3e 2d d4 91 be 5b 2f 9b bd 8e 69 97 bd
       0.1386428 -0.2848219 -0.07577392 -0.0739318
0003d0 cb ac ce bd e4 fe 5d be b7 21 fd bd 81 23 69 3d
       -0.100915514 -0.21679264 -0.12359946 0.056918625
0003e0 3b 7e 99 bb ff da ad be 0c 42 d1 3d d6 83 56 3e
       -0.0046842373 -0.33956143 0.102176756 0.20948729
0003f0 09 16 c8 3d aa 1a e8 3e 51 a1 13 be b4 1a 8a be
       0.09769828 0.45332843 -0.14417006 -0.26973498

critic.network_body.linear_encoder.seq_layers.0.bias f4 [128]
000000 e5 ee 66 3b 1f 8e 01 3e c7 37 8e 38 2a ad a9 bd
       0.0035237607 0.12651871 6.781477e-05 -0.082849815
000010 b7 96 05 3e 65 fd df bc 7a 13 20 3d 55 1b 3c bd
       0.13045774 -0.027342508 0.039081074 -0.045924503
000020 d2 2c 1c 3d 31 8d b6 3d 02 ae 23 3d c8 16 f2 bd
       0.03812868 0.08913649 0.03996087 -0.118207514
000030 2c 25 0e 3d 50 c5 1c 3e 18 4f b5 3d 8c 16 a9 ba
       0.03470342 0.15309644 0.088529766 -0.0012900396
000040 36 74 f0 bd c7 a6 64 bd e5 d5 0c 3e 94 d7 d1 3c
       -0.117409155 -0.055823114 0.1375347 0.025615491
000050 15 dd ea bd f2 ee 70 3d 29 08 46 bd c1 35 0d be
       -0.11467949 0.058821626 -0.048347626 -0.13790037
000060 69 0a 8c 3c 3f 8b ec 3d e1 48 08 be f9 b6 50 bc
       0.017094808 0.115499966 -0.13309051 -0.012738937
000070 f2 cf 1d be e2 57 12 be 7e 6f e6 3c d4 cc af 3d
       -0.15411356 -0.14291337 0.028129335 0.0858399
000080 ee d3 a9 3d 6f f0 57 3d 12 90 5f 3c fc 47 7c bb
       0.082923755 0.05271953 0.013645189 -0.0038495054
000090 99 0f 0d 3e cd 06 ef bd 8c 1c 30 3a af 7c 36 3e
       0.13775481 -0.11671219 0.0006718121 0.17821
0000a0 ca 30 c7 bd e7 4a ae bd aa 83 27 bc 1d 83 04 3e
       -0.09726103 -0.0851038 -0.010224262 0.12940641
0000b0 cd 28 b4 bc 0e 02 b4 3d ec cc 0a be a7 8c 79 bd
       -0.021992112 0.087894544 -0.13554734 -0.060925152
0000c0 04 2a b4 bd 68 1b da 3c 6c ff 01 3e 52 4a 16 bd
       -0.08797076 0.026624396 0.12695092 -0.03669197
0000d0 4d 9b 14 3e fd 9e d6 bb df 13 08 3e 19 1a 26 3e
       0.14512368 -0.0065497146 0.1328883 0.16220893
0000e0 2a 66 18 bd 40 bc 19 3d 0a f2 f4 3d fa f1 96 bb
       -0.037206806 0.037533045 0.11960228 -0.0046064826
0000f0 d2 fe f1 3d 20 42 3e bd bc f2 bb 3c 7d d8 16 be
       0.11816181 -0.04644978 0.022942893 -0.14731021
000100 ad 10 ac 3c 1c 6b d2 bd a3 5e 04 be 71 f6 ae 3d
       0.021004045 -0.10274336 -0.12926726 0.08543099
000110 d7 c7 a4 bd 26 85 cc bd 77 e8 62 bd b1 e0 d5 bd
       -0.08045929 -0.099863335 -0.055397477 -0.10443247
000120 97 51 f8 3d c7 c9 b1 bc ed 70 cc 39 95 53 0f 3e
       0.12124937 -0.02170266 0.00038994048 0.13996728
000130 de f5 20 be 19 9a c6 bd 2a 08 51 bc be ce 12 3e
       -0.15718791 -0.096973605 -0.012758294 0.14336678
000140 1f b9 80 bd 4c 7b e4 3d bd 65 d0 3d bb ad bc bd
       -0.06285309 0.111563295 0.10175655 -0.09212824
000150 06 1b d1 3d 63 d2 01 be 0e bc 0b be db a4 43 bd
       0.102102324 -0.12677912 -0.13645956 -0.04776464
000160 33 a5 74 bc d6 68 26 bd 3b 5a 1b 3d 1d 05 10 be
       -0.014931965 -0.040627323 0.037927847 -0.1406445
000170 4f 3a d6 bd 31 d6 8a 3c 0e b3 bf 3c 81 67 98 3b
       -0.1046034 0.016947838 0.02340081 0.0046510105
000180 7a 38 25 3d 04 78 0c be 88 06 08 3d 76 a4 c4 3d
       0.040337063 -0.13717657 0.033209354 0.09601681
000190 0f a5 11 be 08 7b 6a 3d 96 c2 9e 3d 90 cc fb bb
       -0.14223121 0.057246238 0.07751958 -0.007684298
0001a0 98 d0 18 3e f7 1a 98 3c 7e f2 be 3c ac c4 86 3c
       0.14923322 0.018567545 0.023308989 0.016451202
0001b0 33 10 d5 bc ce 6e 17 bd 33 83 91 3d cf c7 34 bd
       -0.026008701 -0.036970906 0.071051024 -0.044135865
0001c0 11 cf e0 3d 9b 44 12 3d b7 b9 93 3d 77 16 16 be
       0.10976995 0.03570996 0.07213157 -0.14657007
0001d0 89 4d 18 be 71 4f ad 3d 14 c8 10 be cd e6 03 be
       -0.14873327 0.08462418 -0.14138824 -0.12881012
0001e0 08 35 be 3c 06 95 93 bd ec aa d5 bd 00 0d f2 3c
       0.023218647 -0.07206158 -0.104329914 0.029547215
0001f0 44 07 b3 3d 74 90 8a bd a6 7d 9f bc 5e f7 9f b9
       0.0874162 -0.067658335 -0.019469094 -0.00030511146
